model/4_Claranet_global_model_2.pth (torch, 331244 bytes, 17 tensors)

conv1.lin_l.weight f4 [16, 1]
000000 71 2a 22 bf ef ad 5e bc 70 26 2f bf 91 ff 26 bf
       -0.6334601 -0.013591274 -0.68418026 -0.65233713
000010 e1 4e 00 bf f6 85 8c 3e 11 0e 56 bf 29 e4 1b be
       -0.5012036 0.27445954 -0.83615214 -0.15223755
000020 d6 b5 22 bf 8d c1 b0 3d 38 5f 88 be 2f 54 61 bf
       -0.6355871 0.08630667 -0.26635146 -0.8801908
000030 65 c9 55 3d 3f a2 f8 be fc 93 c8 3e 61 8f e8 be
       0.052194018 -0.48561284 0.39175403 -0.4542189

conv1.lin_l.bias f4 [16]
000000 06 cb 1e be 5a bf 17 3f 99 ef 89 bf 5f c6 be 3e
       -0.15507135 0.59276354 -1.0776244 0.3726072
000010 1f 0d e3 3e 08 64 92 be b1 bd 51 bf 91 8a c9 3e
       0.44345948 -0.28591943 -0.8193007 0.3936353
000020 ff cb 2a 3f a8 1c 32 bf 8f e3 21 3f e1 97 71 bf
       0.66717523 -0.69574976 0.6323785 -0.94372374
000030 b5 fe ff 3e 50 7c 84 be e3 61 c8 be d0 53 d9 bd
       0.49999014 -0.25876093 -0.39137182 -0.10611689

conv1.lin_r.weight f4 [16, 1]
000000 d1 bd 7f bf a1 87 00 bf d8 0b 41 3e b1 4b 5b bf
       -0.9989901 -0.50206953 0.18852174 -0.8566237
000010 11 6b a5 be fb 5a 16 3f 1b 56 38 bf 5a cb f0 3d
       -0.32308248 0.58732575 -0.72006387 0.11757536
000020 8f ee f9 be b6 3e 51 bf 2f 62 57 bf c1 31 d9 3d
       -0.48814818 -0.81736314 -0.8413419 0.10605193
000030 2f cf 43 bf e1 b7 4b bf 9a 60 8e be 80 34 65 bd
       -0.7648801 -0.7957745 -0.27808076 -0.05595827

conv2.lin_l.weight f4 [64, 16]
000000 b1 99 ac bd 5f 13 0f 3e 9f b9 b8 bc a9 91 0f 3e
       -0.08427752 0.13972233 -0.022549449 0.14020409
000010 89 3a 0a bd af e0 5e bd f0 47 17 be 24 9f c8 3d
       -0.03374723 -0.054413494 -0.14773536 0.09795979
000020 5f 6a fc 3d 2f 9a 3e 3d 27 c1 06 be 17 45 0f 3e
       0.12324976 0.04653376 -0.1315962 0.139912
000030 aa 5e 9d 3d 8a 2e 24 3e 9f 01 c3 be 51 2e 42 be
       0.07684071 0.16033378 -0.38087174 -0.18962981
000040 46 96 17 3e c6 e1 93 be 41 ad a4 3d f1 6e 2d 3e
       0.14803419 -0.2888319 0.08040858 0.16936852
000050 2f 3d 90 3d 31 a4 49 3d 61 3d a1 bd 38 c6 86 be
       0.0704292 0.04922885 -0.07873035 -0.26323104
000060 71 f1 56 3e ef e9 88 be e1 67 72 be 96 ce 9c bd
       0.2099054 -0.26740977 -0.23672439 -0.07656591
000070 81 17 61 be a0 61 1b be 16 2b 99 be af 1f e4 bd
       -0.21981622 -0.1517396 -0.29915684 -0.11138856
000080 21 e9 85 bd 55 0c b7 bd ba 3a 26 3e e0 79 60 bc
       -0.065386064 -0.08937899 0.1623334 -0.013700932
000090 40 88 bc 3b 80 4d c1 bb a1 58 e2 3d 2f 59 15 3e
       0.005753547 -0.0058991313 0.11052061 0.14584802
0000a0 25 f3 b6 3d ef 7e ca bd c0 a1 23 bc 81 30 c4 3d
       0.08933095 -0.09887492 -0.009987295 0.09579564
0000b0 c7 05 8a bd 81 d2 04 be 20 05 96 be 60 d2 48 be
       -0.06739383 -0.12970926 -0.29300785 -0.19611502
0000c0 af 3e f8 3d af a2 6a be cf 22 c9 bd 51 57 e8 3d
       0.12121331 -0.22913621 -0.09821092 0.11344779
0000d0 bf 00 e9 3d 09 92 90 be 80 2a 91 3c 76 5c 1e be
       0.113770954 -0.28236416 0.01772046 -0.15464959
0000e0 b0 fc be 3c 5b ef b6 be c1 80 22 3e 40 de 86 bc
       0.02331385 -0.3572949 0.15869428 -0.016463399
0000f0 df 2e aa be 5f ce 3f 3e c0 a3 d5 3d 71 b9 fe bd
       -0.33238885 0.18731068 0.104316235 -0.12437714
000100 8f 6e 43 3e 31 22 de 3d e5 1a 3a be e6 51 a8 3d
       0.19085144 0.10846365 -0.18174322 0.08218746
000110 a0 d9 53 bc f0 2b 5e be 50 09 2f 3e ff bf a6 be
       -0.012930304 -0.21696448 0.17093396 -0.32568356
000120 6f f4 1f 3e 51 d1 72 be 00 bc 7e 3e e1 6c 80 bd
       0.15620588 -0.2371266 0.24876404 -0.06270767
000130 91 d3 1d be c1 17 23 be ef 7a a3 be 81 48 39 be
       -0.15412737 -0.1592703 -0.31929728 -0.18094064
000140 ef 9d 48 be 41 f9 8e bd 3f c6 84 be 41 8a f4 bd
       -0.19591497 -0.06981135 -0.259325 -0.11940432
000150 41 a0 75 3e f6 3b 13 be b0 87 de bd 0b 5b 2b bd
       0.23986913 -0.14378342 -0.10865724 -0.041834872
000160 c1 47 74 3e df 99 72 be bf 38 1b 3e ef fa c2 be
       0.23855497 -0.2369151 0.15158366 -0.38082072
000170 da c7 a9 be f0 ea e8 3c 31 49 e6 be 90 36 00 be
       -0.33160287 0.02843234 -0.44977716 -0.12520814
000180 21 68 53 be ba 4e a3 bd c1 7a da bd c0 86 9e 3b
       -0.20645191 -0.07974 -0.10667945 0.004837841
000190 01 f7 51 be 7a 15 9e be e1 83 22 be e1 19 8b be
       -0.20504381 -0.3087576 -0.1587062 -0.27168182
0001a0 a0 d8 1c 3c aa 91 1b 3e 21 42 4a be 1b cf 2c 3e
       0.009573132 0.15192285 -0.19751789 0.1687588
0001b0 90 7f 35 3e 0f 5b 7e 3e b1 9e 0b be f0 73 e0 3c
       0.17724442 0.24839424 -0.13634755 0.027399033
0001c0 11 b3 e3 3d 0f a7 51 be 4f c7 e9 bd ef 91 c8 bd
       0.111181386 -0.20473884 -0.11414968 -0.097934596
0001d0 00 b4 0e 3e 81 53 0c be 21 70 2b be cf 28 91 be
       0.13935852 -0.13703729 -0.16741993 -0.28351447
0001e0 df c2 e7 bd 21 5c bc bc 6f f2 3c be 97 a4 84 be
       -0.113164656 -0.02299315 -0.18451856 -0.25906822
0001f0 a1 17 ae bd c1 83 cb bd 4f a0 4d be 81 0e 18 be
       -0.085006006 -0.099372394 -0.20080684 -0.14849283
000200 d0 67 f0 bc f0 c5 30 3d c1 82 01 be 5f 91 c2 bd
       -0.029346377 0.043157518 -0.12647535 -0.095003836
000210 70 02 07 3e df 2c 07 be bf 44 7b be 1f e8 f2 3d
       0.13184524 -0.1320071 -0.24537943 0.1186068
000220 f1 a2 d7 3d c1 92 54 3e 01 00 c4 3d 00 2c d8 bb
       0.105291255 0.20759107 0.09570313 -0.006597042
000230 41 00 7f 3d f1 dc 52 3e a0 4a 09 bc 21 24 1c be
       0.0622561 0.20592095 -0.008379608 -0.15248157
000240 10 a9 4a bd fb b3 37 be 16 f4 97 3d 71 36 91 3d
       -0.049477637 -0.17939751 0.074196026 0.07090462
000250 9f 3a 4b be 8f 42 69 be 6f 0f 5e be 7f 1a e3 bd
       -0.19846581 -0.22779296 -0.21685575 -0.11089038
000260 d0 e0 03 3d 21 97 d0 3d bf e3 76 be fa 3e 9d be
       0.03219682 0.101850756 -0.24110316 -0.3071211
000270 81 a6 ba 3d a1 6b 71 3e c1 e9 e9 3d 00 82 15 3d
       0.09113789 0.23576213 0.11421538 0.03650093
000280 70 d5 83 bd 70 94 cc bc 91 15 08 3e 01 6d 15 3e
       -0.06437194 -0.024973124 0.13289477 0.14592363
000290 e1 75 45 bd bf 1b 4d be 70 41 ed bd 05 24 31 3e
       -0.04820812 -0.20030116 -0.11584747 0.17298897
0002a0 41 17 00 be 0f 5f 82 3d 01 45 cf 3d 10 53 fc bd
       -0.1250887 0.06365787 0.10120583 -0.123205304
0002b0 1b 8b 2e be bf e5 57 3e 1b d7 2f 3e 50 e2 29 bd
       -0.17045252 0.21083735 0.171719 -0.041475594
0002c0 a1 da 45 be d1 ce 31 be 00 24 eb 3c 50 64 fe 3d
       -0.19321682 -0.1736405 0.02870369 0.12421477
0002d0 21 38 5f 3e 1f 17 b7 3d 60 fa 62 3c 6a a8 23 be
       0.21798755 0.08939957 0.013853639 -0.15982214
0002e0 b1 a5 18 3e a6 d5 9f 3a 4f d7 72 be 3f ff c0 bd
       0.14906956 0.001219441 -0.23714946 -0.09423684
0002f0 b1 bd 8b bd 30 b4 8c 3c b6 61 9e be 81 b5 4b be
       -0.0682329 0.017175764 -0.30933923 -0.19893457
000300 cf b7 48 be 9f 04 0b be 4f 9f 9b bc 0f 93 ff bd
       -0.19601367 -0.13575982 -0.018996863 -0.12479221
000310 a1 78 57 3e df 62 d3 bd e0 9e 14 3d bf 69 25 be
       0.2104211 -0.103215925 0.036284328 -0.1615362
000320 8f 84 02 be 0b 1a af bd cf b3 06 3e 1a b8 19 3d
       -0.1274588 -0.08549889 0.13154529 0.03752909
000330 af 15 d3 3d e1 cb 56 3d c6 24 16 3e a0 58 c1 3c
       0.1030687 0.052440528 0.14662465 0.02360183
000340 61 61 7a bd 5f 18 02 be c1 cf 05 bd 11 af 24 3e
       -0.061128024 -0.1270461 -0.032668833 0.16082408
000350 51 ac c3 3d af 55 83 3d a0 82 24 be e6 26 a4 3c
       0.09554351 0.06412827 -0.16065454 0.02003808
000360 cf 5f 35 3e 9f 8b 02 3e f5 1e 32 be 2f 29 af bd
       0.1771233 0.12748574 -0.17394622 -0.08552777
000370 c6 1c 93 3c 90 d7 11 bd ef dd 96 3c f0 3c 89 3d
       0.017958056 -0.035605967 0.018416373 0.06701076
000380 1f cc 41 3e e6 6c a2 3d 81 52 3a 3e f0 80 fe 3d
       0.18925522 0.07930927 0.18195535 0.124269366
000390 10 ec 58 be 19 31 0c be d0 4a 60 3e 10 fa 99 bc
       -0.211838 -0.13690604 0.21903539 -0.018795997
0003a0 b7 63 0c be af 7a 6d 3e e0 a8 e9 3c 11 0f 0c be
       -0.13709913 0.23191331 0.028522909 -0.13677622
0003b0 1f 1e 5f be 40 41 e3 bb 2f 33 8a 3d 61 da 54 bd
       -0.21788834 -0.0069352686 0.06748044 -0.051966075
0003c0 71 b6 14 3e c7 cc 8b 3e 21 ac 0f 3e d0 47 3b 3e
       0.14522721 0.2730467 0.14030506 0.18289113
0003d0 e1 79 f3 3d 51 18 c3 3c 80 3a 82 bc ff 02 5e 3c
       0.11888481 0.023815306 -0.015897036 0.013550519
0003e0 cf 51 64 be 57 69 8b 3c 01 c4 ed 3d a6 2f 9c 3c
       -0.22296833 0.017018003 0.116096504 0.01906569
0003f0 ff 80 0c bc e1 0d cc 3d 31 3f 5a 3d 00 ff e5 3b
       -0.008575677 0.09963585 0.05328292 0.0070189238

conv2.lin_l.bias f4 [64]
000000 00 5d 95 bd 5f ee f7 bd 4a b1 a5 be 71 74 bb be
       -0.07293129 -0.121060126 -0.32361823 -0.36612275
000010 0f ac dd bd 8f 1b b2 be 9b c5 2b 3e ff 1e 4d 3d
       -0.10823833 -0.3478665 0.16774599 0.05007839
000020 e0 d7 50 3d 7f 9b 4f be 90 96 4f 3d 21 4d 09 3d
       0.050987124 -0.20274161 0.050680697 0.03352082
000030 6f a0 01 3e 61 d3 83 3c af 9d 56 be af fb 75 be
       0.12658857 0.016092004 -0.20958589 -0.24021791
000040 66 99 9e bd 3f 83 6c be a0 e6 95 be e1 5f 9d be
       -0.07744102 -0.23096941 -0.29277515 -0.30737212
000050 91 9f 71 be 5b f2 ac 3d c1 cf cd bd 1f a6 62 bd
       -0.23596026 0.08444663 -0.100493915 -0.055334207
000060 4b 8a 2f 3e 11 b2 1d be d0 57 02 3e 21 1d ca bd
       0.17142598 -0.15399958 0.1272881 -0.09868837
000070 77 31 88 be 6f 19 ac 3d 61 81 94 be f1 e3 e0 be
       -0.2660024 0.084032886 -0.29004958 -0.43923905
000080 bf 55 5a be 2f 69 49 3e 51 ae df bd e6 68 28 be
       -0.21321772 0.1966903 -0.1092192 -0.16446266
000090 7f 69 9b be ea 3e 21 3e f0 81 30 3e 50 6e e4 3d
       -0.30353925 0.15746656 0.17237067 0.11153853
0000a0 a6 18 22 bd 7f 52 db bd 78 f1 07 bc ef 15 16 be
       -0.039574288 -0.10709094 -0.008297317 -0.14656805
0000b0 d1 55 ee bd c1 dc cf bc f0 d2 4f be 80 a5 c6 be
       -0.11637462 -0.025373818 -0.2029531 -0.3879814
0000c0 a6 f0 a1 be 85 77 b5 be 41 ca 0f 3d a1 ff 56 be
       -0.31628913 -0.3544275 0.035104994 -0.20995952
0000d0 b1 24 ac bd a6 0a aa bd a1 28 1a 3e c5 e9 b6 3d
       -0.08405436 -0.08302812 0.15054561 0.08931307
0000e0 c1 69 b0 be b1 f5 40 3e 7f fe f9 bd 9f a6 3a be
       -0.34455684 0.18843724 -0.122067444 -0.18227623
0000f0 cf a2 b9 3d 11 81 9f 3d 1f 2b 1c 3e 2a 7f 95 3c
       0.090642564 0.07788289 0.15250824 0.018249113

conv2.lin_r.weight f4 [64, 16]
000000 d0 f6 22 be 11 fe c3 3d 0f 00 97 be a1 ea a6 3d
       -0.15914464 0.09569944 -0.29492232 0.08150221
000010 4f 63 13 be 40 41 85 3d 36 13 26 3e 71 9d 4c be
       -0.14393352 0.06506586 0.16218266 -0.19981934
000020 9f a4 06 be 57 33 00 3e c5 88 b7 bd 8f a8 25 be
       -0.13148735 0.12519585 -0.089616336 -0.16177581
000030 6f 56 22 be 5b 15 35 be 5f 20 0d be ff e1 04 3e
       -0.15853284 -0.17683928 -0.1378188 0.12976836
000040 40 e2 0f bd 01 77 85 be 09 be 90 be a0 dc 8a 3c
       -0.03512788 -0.26067355 -0.28269985 0.016950905
000050 60 c6 06 3e ff ed 1a be c1 fb 27 be ef c4 a3 3c
       0.13161612 -0.15129851 -0.1640463 0.019991366
000060 9f c6 29 3e e1 42 d6 bd 21 00 c7 bd aa 6a 18 3d
       0.16579674 -0.10461975 -0.097168215 0.037211098
000070 8f 6f 88 be cf 95 24 be a7 c1 8b 3d f1 46 0d 3e
       -0.26647612 -0.16072772 0.06824046 0.13796593
000080 41 14 e6 3d b1 c7 27 3e 21 e3 3f 3e 91 10 01 3e
       0.11234332 0.1638477 0.18738987 0.12603976
000090 71 13 20 3e af d8 5a ba 40 23 85 3d 21 f9 79 bd
       0.15632416 -0.00083483284 0.06500864 -0.061028603
0000a0 91 5a 3c 3e f1 47 be bd c0 f3 63 be 6f e5 76 3e
       0.18393923 -0.092910655 -0.22260952 0.2411096
0000b0 81 8c 61 3e 0f 24 49 be b5 82 b5 bd 9f 9e 60 be
       0.22026254 -0.19642662 -0.08862821 -0.21935509
0000c0 60 cf 40 3d 20 c0 73 3d ff f8 ca bd 7f 2b 50 bd
       0.04707277 0.059509397 -0.099107735 -0.05082273
0000d0 11 f3 be 3d 71 16 dc 3b 21 b2 5a 3e e1 30 9a be
       0.09323705 0.0067165424 0.21357013 -0.30115417
0000e0 50 7d 45 3e e1 22 73 be 1f 4a 96 bd 41 bf dd 3d
       0.19286084 -0.23743774 -0.07338356 0.108274944
0000f0 50 67 ce bc e1 ea 53 3d 8f 61 0b be 91 e2 a3 bd
       -0.025195748 0.05173767 -0.13611434 -0.080021985
000100 00 8f af 3c 00 cb 09 3d 41 6f 71 be a5 3a 32 bd
       0.021430492 0.03364086 -0.23577596 -0.04351296
000110 11 e0 ef 3d bf 1d d5 3d d9 94 0a be 6f bb fd 3c
       0.11712659 0.10406064 -0.13533343 0.030973164
000120 80 f7 65 3b 31 6f 29 3c 37 82 89 3d 55 0f ad 3d
       0.0035090148 0.0103414515 0.0671429 0.0845019
000130 f6 e5 a5 3d 9f c6 71 be 81 64 35 bd ef e1 8a 3d
       0.08100502 -0.23610924 -0.0442853 0.06781375
000140 af f8 09 be df 01 07 bf e1 a4 0e be a1 6f 45 3d
       -0.13473772 -0.5273723 -0.13930084 0.04820216
000150 b8 87 08 3d 71 06 93 be 10 0a 26 3e 01 59 02 bf
       0.033332556 -0.28715852 0.16214776 -0.5091706
000160 f6 fb 1b be 51 b5 02 bf 30 e1 79 be a5 bb b9 be
       -0.15232834 -0.51057917 -0.24402308 -0.36275974
000170 4f a4 e0 be 21 85 03 be 41 de 43 be 60 b4 de bd
       -0.43875358 -0.12843753 -0.19127752 -0.108742476
000180 aa b7 9c bd ef 02 67 be b1 9b d6 bd b6 57 1d 3e
       -0.07652219 -0.22559713 -0.104789145 0.1536549
000190 df 72 40 3e ef 0f ec 3d 4a 42 96 bd a9 58 08 3e
       0.1879382 0.115264766 -0.073368624 0.13315071
0001a0 06 cf 21 be bf ce 16 bd 3f 93 57 3e 0f dc 61 be
       -0.1580163 -0.036818262 0.21052264 -0.22056602
0001b0 c1 6d d4 3d 00 ca 2f 3a 8f dc db 3b ff 54 6b be
       0.103724964 0.00067058206 0.0067096422 -0.22981642
0001c0 81 58 6e 3e 11 04 90 be b1 ec 73 be c1 10 c2 bd
       0.23275949 -0.28128102 -0.2382076 -0.09475852
0001d0 80 88 7f bd 2f fe d4 3c 81 01 5d bd 17 07 0f 3e
       -0.062386036 0.02600011 -0.053956512 0.13967548
0001e0 bf f2 72 be 3f ae f8 3d ff 1d 4b be 81 1a 5b 3e
       -0.23725413 0.1214261 -0.19835661 0.21396829
0001f0 bf 14 7b be c0 f5 eb 3c 5f 8e 5d bd cf 71 e1 bd
       -0.24519633 0.028803706 -0.054090854 -0.110080354
000200 61 d2 bd 3d b1 38 61 3e 81 b5 78 bd 8f 6b 37 be
       0.09268642 0.21994282 -0.06071997 -0.17912124
000210 cf 18 0b be b0 b7 e7 bd f9 91 05 3e f0 58 4f be
       -0.13583682 -0.113143325 0.13043965 -0.2024877
000220 3f f4 3a 3e a6 75 a3 3d 6a 41 9a 3d 6f 64 34 be
       0.18257235 0.07981424 0.07532008 -0.17616437
000230 af fe e5 bd c1 67 18 be 01 1b da 3d 30 08 d8 3d
       -0.11230218 -0.14883329 0.10649682 0.10548437
000240 50 79 3e 3e 6f f7 42 bb 4f a6 6a 3d d0 08 7f 3d
       0.18600965 -0.0029749533 0.05728751 0.062264264
000250 10 a7 60 bd 3f 5b 20 3d 2f 15 34 be bf 75 69 be
       -0.054846823 0.03914952 -0.17586206 -0.22798823
000260 60 ef 37 3d 60 3a 84 bc 00 d1 ca 3c 51 10 12 bc
       0.04490602 -0.016141117 0.024757862 -0.008915023
000270 1f 75 40 be 5f a0 cd bd 71 18 f8 bd a9 b5 0f bd
       -0.18794678 -0.10040354 -0.12114037 -0.035085354
000280 9f 6b b4 bd 8f 2f 4a 3e 6f 75 19 3e 01 3d 70 be
       -0.088095896 0.19744705 0.14986204 -0.23460771
000290 bf 8c c0 3d e1 ac 5c be 30 fd b2 3d cf a2 78 be
       0.09401845 -0.21550323 0.08739698 -0.24280857
0002a0 c9 a2 0f 3d cf c8 1a be c0 88 7c 3e 7f 15 61 be
       0.035067353 -0.15115665 0.24661541 -0.21980856
0002b0 c1 d9 fc bd c1 5a 71 3e 9f f7 46 bd e1 14 7a 3e
       -0.12346221 0.23569776 -0.048575994 0.24422027
0002c0 a1 2f 60 bd f1 22 0d 3e 91 40 79 be e0 76 30 3d
       -0.054732922 0.1378286 -0.24341036 0.043082118
0002d0 f0 1e 86 3d af 09 80 bd b1 22 fe bd ff c8 6d be
       0.065488696 -0.06251847 -0.124089606 -0.23221205
0002e0 c1 b2 e1 3d 11 4c af bd 3b 83 30 3e 2b e4 37 3e
       0.11020423 -0.085594304 0.1723756 0.17958133
0002f0 1f 80 1a 3e 20 2e 97 3d ef c2 43 be 40 34 33 3e
       0.15087937 0.073818445 -0.1911733 0.175004
000300 01 c2 3c be 21 6b 38 bc 2b 1d b7 bd a0 1e 1b 3e
       -0.18433382 -0.01125601 -0.0894111 0.15148401
000310 5f d1 1d 3e bf e1 3b be 66 b9 24 3e e1 bc be 3d
       0.154119 -0.18347834 0.16086349 0.093133695
000320 ef ac a5 3d f1 52 f6 bd 7f 32 1f be df 85 6b be
       0.08089625 -0.120275386 -0.15546606 -0.23000287
000330 af c3 36 be 4f f7 51 be 40 24 cc 3c 4f f3 36 3e
       -0.17848085 -0.20504497 0.02491963 0.17866252
000340 2f 27 62 3e c0 60 0d be bf b6 02 be 9f 54 61 3e
       0.2208526 -0.13806438 -0.12765025 0.22004937
000350 30 ea bc 3c 41 2e 91 bd c0 3c 00 3e 21 97 45 be
       0.023060888 -0.070889 0.12523174 -0.19295932
000360 f1 37 31 be 8f 4c 11 be 5f c8 c1 bd 99 36 8c 3d
       -0.17306496 -0.14189361 -0.09462046 0.06846351
000370 6f a9 02 be 6f 19 7c 3e 41 a0 51 be b0 88 11 be
       -0.12759946 0.24619077 -0.20471288 -0.14212298
000380 65 67 33 3e 41 9e 74 3e 71 96 6e be df 35 47 be
       0.1751991 0.23888494 -0.23299576 -0.19454144
000390 47 c5 00 be 81 53 c5 bd 80 67 5a be 21 0f d3 3d
       -0.12575255 -0.09635068 -0.21328545 0.1030562
0003a0 57 40 92 3d a0 fe 9a 3d d0 c8 5a 3d 11 ef 68 3e
       0.07141178 0.07568097 0.053414166 0.22747447
0003b0 16 c1 94 bd 35 98 33 be 81 3d 43 3d 80 c9 19 3e
       -0.07263391 -0.17538531 0.047666077 0.15018272
0003c0 50 77 61 be 0f ae 91 bd 0f 78 19 bb c1 21 65 3d
       -0.2201817 -0.07113277 -0.0023417508 0.055940393
0003d0 e0 11 96 bc 5f 32 9c bd 80 ce 65 3b 31 41 57 3d
       -0.01831907 -0.07626795 0.003506571 0.052552406
0003e0 20 68 0f bd 6f 86 c8 bd 21 c1 e2 3d 91 8a 47 3d
       -0.03501141 -0.09791266 0.11071993 0.04871613
0003f0 7f 76 4c 3e a0 d9 94 3d 41 86 0b be 30 7e b2 bd
       0.19967078 0.07268071 -0.13625433 -0.087154746

lstm_cell.weight_ih f4 [256, 192]
000000 47 4f 00 3e 30 ff 3c 3e 07 c7 91 bd 0a 3e 99 3c
       0.12530242 0.18456721 -0.071180396 0.01870634
000010 8a 37 29 3d 05 31 39 be 91 73 48 3d b7 63 8b 3d
       0.04131273 -0.18085106 0.048938338 0.068061285
000020 9f 15 d4 bd b1 7c bf bc a5 f1 b3 3d 79 f6 10 3e
       -0.103556864 -0.023374887 0.087863244 0.14156522
000030 ff c4 0b 3e 81 81 43 3e 80 dd b0 3b 21 73 4f be
       0.13649367 0.1909237 0.0053974986 -0.20258762
000040 b6 4f 1c 3d 11 07 2c 3e 2f 65 43 bc 18 74 08 3e
       0.038161956 0.1679957 -0.0119259795 0.13325536
000050 c1 b2 e0 3d 81 27 27 3c 15 8a 2d 3d 7f c2 71 3d
       0.109715946 0.01020229 0.042368013 0.059023377
000060 20 ad 12 bd ff 62 fc 3d 41 be ee 3d 3b ae 34 3e
       -0.035809636 0.123235695 0.11657382 0.17644589
000070 b1 8c 3f bd 7f bd b7 be ef 97 44 3e b1 83 47 bd
       -0.046765033 -0.35886762 0.19198583 -0.048709575
000080 30 71 3c bc 21 79 3a 3e c1 3d 4a be 9a d9 21 3e
       -0.011501595 0.1821027 -0.1975012 0.15805665
000090 81 94 86 3c b1 2d fe bd bf c3 26 3d 57 30 0f bd
       0.016428234 -0.12411059 0.04071402 -0.03495821
0000a0 cf 93 0f be 00 34 ce 3d bf f1 c7 3d d9 05 0b 3e
       -0.14021228 0.10068512 0.09762906 0.1357645
0000b0 50 7e 52 3e a1 9c 35 bc 4f ea b0 3d 50 dc 3d bd
       0.20555997 -0.0110847065 0.08638441 -0.046352684
0000c0 3f 54 3a ba 30 1e 51 bc a0 01 28 bd 8f eb d8 3d
       -0.00071078906 -0.012763545 -0.041017175 0.10591804
0000d0 31 be a9 3d 56 71 1e 3e 5f 29 4c 3e 8a 4d 14 ba
       0.08288229 0.15472922 0.19937657 -0.0005657306
0000e0 40 66 f0 3d 71 a8 28 3e 61 bc b0 ba c1 15 5b 3e
       0.11738253 0.16470505 -0.0013483876 0.21395017
0000f0 4f ac 1b 3e a0 5b ed 3d cf 82 5f bd a1 a7 97 3d
       0.1520245 0.11589742 -0.05456811 0.074050196
000100 a4 b0 84 bf c5 6b 58 40 f3 1b 2a 40 aa cf 34 40
       -1.0366406 3.3815777 2.657956 2.8251748
000110 46 d8 11 40 86 1a b7 40 c7 dd e5 40 6e 1b b3 bd
       2.2788253 5.7219877 7.1833224 -0.08745466
000120 ec e1 b5 40 5e 54 f3 40 b6 86 f0 40 96 e8 d3 40
       5.6838284 7.6040487 7.516444 6.622142
000130 54 a1 cb 40 33 08 d8 40 40 7e 0c 41 38 db f4 40
       6.3634434 6.751001 8.780823 7.65176
000140 76 f8 fc 40 1f 6e d9 40 a4 0e ef 40 4b 75 ed 40
       7.9053297 6.7946925 7.470537 7.420568
000150 d9 52 ed 40 fb 1c a5 3d 19 f7 05 41 dd 3e aa 40
       7.4163632 0.08062168 8.372827 5.3201737
000160 1a 16 e6 40 77 4a e5 40 dc 9f e0 40 11 5b 01 41
       7.190198 7.16534 7.019514 8.084733
000170 9c 68 ea 40 13 7f 1b 3c bf 00 8f 3d 7b 18 71 3d
       7.3252697 0.009490746 0.06982564 0.058861237
000180 d4 f8 38 bd 3f fa e0 bd 6f f1 61 3c ea 3a a8 3c
       -0.045159176 -0.10985231 0.013790472 0.020535905
000190 7f e4 8b 3c 01 1f 2a 3d da 50 12 be 20 49 96 3b
       0.017076729 0.041533474 -0.14288655 0.004586354
0001a0 01 d8 90 3d 60 f6 fd bb 9f b2 ef bd c1 c3 e5 bd
       0.070724495 -0.0077503175 -0.11703991 -0.11218978
0001b0 00 8f 6c 3b 70 66 02 bd f0 14 6d 3c c0 5b 55 bd
       0.0036095977 -0.031835973 0.014470324 -0.052089453
0001c0 a0 8e 97 bd bf 85 05 3d e0 6b fb bc 00 c3 93 3b
       -0.074002504 0.032598253 -0.030691087 0.00450933
0001d0 e0 66 53 bc 3f 0c a6 bd 05 26 b1 bd b1 83 f6 bd
       -0.012902945 -0.081078045 -0.0864983 -0.12036837
0001e0 ef fe c6 3d c0 5a 3c 3c 85 b9 b7 bd ff 54 e8 3d
       0.097165935 0.011496246 -0.08970932 0.11344337
0001f0 bf 37 ae bd 0f 7a e6 bd 41 1d 43 3d 09 af 90 bd
       -0.085067265 -0.112537496 0.04763532 -0.07064635
000200 41 c6 fe bc fe e4 fd 3f 9f 28 a3 3f 8b 7b ef be
       -0.031100394 1.9835508 1.2746772 -0.46773943
000210 4e e4 07 bf c5 2d 14 40 ff 74 d4 3d 69 1e 56 40
       -0.5308274 2.3152936 0.10373878 3.345606
000220 e8 9d d4 40 b2 c7 ba 40 47 27 b1 bd 26 40 ec 40
       6.6442757 5.836877 -0.0865007 7.3828306
000230 df b7 f6 40 42 ee f8 40 ef 6d d2 3d 66 15 06 41
       7.709945 7.779084 0.102748744 8.380224
000240 4f 13 11 41 a6 86 00 41 68 35 f2 40 92 5d e5 40
       9.067214 8.032873 7.5690193 7.167672
000250 9d 11 dc 40 8f e3 ce 40 31 03 52 3c 79 64 04 41
       6.87715 6.465278 0.012818144 8.274529
000260 88 3e ce 40 50 d6 5f 40 35 cd 57 3d 7d 89 e0 40
       6.445133 3.4974556 0.052685935 7.016783
000270 dd 65 84 40 4c b6 09 41 6f e6 ed 3d cc a7 8c 3d
       4.1374345 8.607006 0.11616217 0.06867942
000280 66 49 7a 3d 14 d3 8e 3d 62 a0 03 be 58 72 93 bd
       0.061105154 0.06973854 -0.1285415 -0.07199544
000290 90 55 b9 bd 71 e2 e5 bd 3f 18 b9 bd 90 c2 ea bd
       -0.09049523 -0.11224831 -0.09037828 -0.11462891
0002a0 8f ca 49 3d df 34 ea 3d ff 2f 91 3d bf ee 24 bd
       0.04926544 0.114358656 0.07089233 -0.04026675
0002b0 11 3c 02 bd 61 75 59 3d bf e1 b6 3d d0 16 c4 bd
       -0.031795565 0.053090457 0.089297764 -0.09574664
0002c0 4a f8 a6 bd 8f a3 3d bd 97 f4 8e bd a5 ba 2c 3d
       -0.08152826 -0.04629856 -0.069802456 0.042170186
0002d0 e1 7b f8 bd 50 58 b9 3d 40 fe 3e bb 71 62 e3 3d
       -0.12133003 0.090500474 -0.0029143244 0.111027606
0002e0 f1 3b 24 3d 21 4e 83 bd 00 8a 10 bd 65 24 ac bd
       0.040096227 -0.06411386 -0.035287857 -0.08405379
0002f0 5a 43 1e 3d b1 a7 a8 bd 81 4e f2 3d 4f 94 b6 3d
       0.03863845 -0.082351096 0.1183138 0.08915006
000300 6f f2 2b 3d 9f 85 20 3d 4f cc 0e 3f 81 7e cf 3d
       0.04197925 0.03918993 0.557805 0.101315506
000310 65 92 b2 3d 7a 88 12 be 60 1b 81 bc 6f 5b f9 3c
       0.08719329 -0.14309874 -0.015760124 0.030439107
000320 d0 7d 61 bc 1f c5 e0 bc 41 67 fb 3d 31 42 db 3b
       -0.013762906 -0.027437745 0.122755535 0.0066912402
000330 27 cd 0d bd 51 67 c7 3e 76 0d a8 bd d1 b5 17 3f
       -0.034619477 0.38946012 -0.082056925 0.59261805
000340 b9 5e 8b 3c e1 fe 56 3d 61 c6 00 bd 11 7b f4 3d
       0.01701294 0.052489165 -0.03143919 0.119375356
000350 0f bd 3d 3e 00 88 a3 3d 81 df 4c bd 15 0f 33 3e
       0.18529151 0.07984924 -0.050017837 0.17486222
000360 e0 be 7e 3d 6f 3d 60 3d 30 d5 0e 3c 81 c4 97 3e
       0.06219375 0.054746088 0.00871782 0.29642108
000370 19 f8 0b bc 01 89 33 3f 1a b0 14 3f 8a 14 29 3d
       -0.008543038 0.70130926 0.5808121 0.041279353
000380 3f 52 88 3d ff 1c 56 bd e1 93 56 3f 5f 7d 32 bd
       0.06656312 -0.052273747 0.83819395 -0.043576594
000390 9f da 47 bd df a1 dd 3d e0 14 d9 bc b8 73 82 3c
       -0.048792478 0.1082189 -0.026499212 0.01592432
0003a0 10 d4 2d 3f e0 18 c7 3c af 67 44 3f c9 4c 00 3e
       0.67901707 0.024303854 0.7672071 0.12529291
0003b0 cf aa b3 3e 89 12 06 3e 6f 46 19 3d a6 e8 9f 3d
       0.35091254 0.13093008 0.037420686 0.07808046
0003c0 3f 43 ad bd ca ab 14 3d cf 9d b6 3e bf 46 2b be
       -0.08460092 0.036296643 0.35667273 -0.16726206
0003d0 ef ef bf bd ba 9d 96 bd a1 57 f0 3d 31 b1 d6 3c
       -0.093719356 -0.07354303 0.11735464 0.026207538
0003e0 86 a7 9f bd 39 64 0b 3e c1 e4 21 3e df 78 61 3d
       -0.077956244 0.1361245 0.15809919 0.055046912
0003f0 bf d5 51 3d bf 0e 62 bd 1f e1 e5 bc 71 54 03 3d
       0.051229235 -0.055189844 -0.028061448 0.03206295

lstm_cell.weight_hh f4 [256, 64]
000000 50 35 e5 3e 06 ed c2 3e be 54 88 3f ac b0 85 c0
       0.44767237 0.3807146 1.0650861 -4.1778164
000010 6f 19 ab 3f 14 16 34 c0 f9 1f 19 c0 e1 1b 1c 40
       1.3367137 -2.8138475 -2.3925765 2.4392016
000020 7f 98 5e 40 de d7 45 3f 53 4b e2 3e af 29 a3 bf
       3.4780576 0.7728251 0.44198093 -1.2747096
000030 dd 6b 47 bd 0f 5f ba bf b1 c4 ec bf 85 35 60 be
       -0.04868685 -1.456026 -1.8497525 -0.21895416
000040 be 12 4c bf ce 52 1c 3f ac 30 48 c0 4e 54 c5 bf
       -0.797161 0.6106385 -3.1279707 -1.5416353
000050 b8 c2 36 bd 99 98 26 40 4a 8e 21 40 02 f5 46 bf
       -0.044619292 2.6030638 2.5243096 -0.777176
000060 b0 f0 04 3f b0 89 21 40 9b a7 1d c0 58 ee 67 3f
       0.5192976 2.5240288 -2.4633548 0.9059806
000070 c4 a8 2a be 19 4c 3a c0 c4 3c f5 bf bd 44 ce 3d
       -0.16665941 -2.9108946 -1.9159169 0.100717045
000080 3a 0c 97 3f 19 67 f9 bf db ab ce be ba 58 6e 3f
       1.1800606 -1.9484588 -0.4036549 0.93104136
000090 30 e7 1b 40 71 29 b2 bf d5 33 60 3e ee 37 10 c0
       2.4359856 -1.3918897 0.21894772 -2.2534137
0000a0 19 2b 9e 3f 7c 0f be bd 24 70 32 c0 47 e6 93 bf
       1.2356902 -0.09280297 -2.7880945 -1.155465
0000b0 3a 39 a0 bf d9 82 ec bf 66 df 11 3f 4d 31 ca 3f
       -1.2517464 -1.8477432 0.56981504 1.5796295
0000c0 27 a3 e9 3e 3e 1a 05 40 a5 09 00 c0 e8 87 35 3f
       0.45632288 2.0797267 -2.0005887 0.709105
0000d0 56 2d bc 3f 57 ac c7 3f 80 fb 17 c0 a4 6d 43 40
       1.4701335 1.5599469 -2.3747253 3.053567
0000e0 89 0a a6 3f b6 2d 17 c0 d7 01 6e 3f cc fe 98 3e
       1.2971965 -2.362165 0.9297156 0.29881895
0000f0 63 c2 35 40 96 11 a2 3f f5 11 f7 3e f5 ab 36 40
       2.8399894 1.2661617 0.48255888 2.8542454
000100 2a 4e e0 3e a5 be f3 be 92 fd c0 3c f5 6c a3 3e
       0.43809634 -0.47606388 0.023558412 0.31919065
000110 1c bc 0e c0 71 43 30 c0 87 7c 0c 3f 02 a3 b3 3e
       -2.2302313 -2.7541163 0.54877514 0.35085303
000120 c3 7d 05 c0 44 d8 8c bf 00 1f 23 bf 3d cc 20 bf
       -2.085801 -1.1003499 -0.6371918 -0.6281164
000130 2b 7b 81 bf 19 19 0c bf 42 e4 56 be fa da 2f 40
       -1.0115713 -0.54725796 -0.20985511 2.7477403
000140 c6 45 13 bf 4b 5b 80 bf 35 6b 52 bf 93 fa 16 c0
       -0.5752834 -1.002786 -0.82194835 -2.3590438
000150 32 d0 36 bf 77 5b ea 3f f6 b2 b3 3e 44 dc 68 3f
       -0.7141143 1.8309163 0.35097474 0.909611
000160 d9 cf 93 3f 87 e9 89 be f8 34 14 c0 09 8c 77 c0
       1.1547805 -0.2693598 -2.315733 -3.867922
000170 84 c7 46 bf 7f 3c ac be 90 3a 0c c0 ee 4c 73 bf
       -0.77648187 -0.33639905 -2.1910744 -0.9503926
000180 dd 65 2e 3e d2 74 c5 3f 43 a6 69 c0 96 1d 06 40
       0.17031045 1.5426276 -3.6507728 2.0955558
000190 03 42 d0 3f 3d da d9 be c7 88 86 bd 5b c0 3c 40
       1.6270145 -0.42549315 -0.06569057 2.9492404
0001a0 6d 10 8c bf eb 48 56 bf 59 f6 92 40 91 33 26 3f
       -1.0942513 -0.83705014 4.5925717 0.64922434
0001b0 d2 a7 c7 bf 16 ed 9a be bb a3 b9 bf cc 92 51 bf
       -1.559809 -0.30259007 -1.4503092 -0.8186462
0001c0 9a 81 80 40 4b 24 01 c0 47 a3 9e 3f f2 d9 09 c0
       4.0158205 -2.0178401 1.2393578 -2.1539273
0001d0 b5 ab 5a 3e c1 22 37 be 0d a9 4d c0 b2 d5 00 be
       0.21354564 -0.17884351 -3.213443 -0.12581518
0001e0 68 af e0 bd cd 7d ec bf de 7e e0 3f f4 f1 1a 3f
       -0.10970956 -1.8475891 1.7538717 0.6052544
0001f0 28 5e d1 3f f0 ec 93 bf 4c 88 db 3d 89 94 f8 bf
       1.6356859 -1.1556683 0.10719356 -1.9420329
000200 94 30 2a 40 bc a9 7d 3f 17 8d bf 3e 73 d5 e5 3e
       2.659215 0.9908712 0.3741233 0.4488941
000210 cf 01 8d 40 d7 cc a6 3e 8f 59 9a 3e 08 6d f7 bf
       4.406471 0.32578155 0.30146453 -1.9330149
000220 e1 f5 05 40 c0 e5 1a c0 7a 22 d9 3f b6 05 fc 3c
       2.0931323 -2.4202728 1.6963646 0.030764442
000230 a2 44 ec bd e6 12 ab bf e1 8d f5 bf 07 7e 23 bf
       -0.11536528 -1.3365142 -1.9183923 -0.6386418
000240 66 1e c8 3f 9d e5 2d 3f aa 5b 00 bf fe e5 f8 bf
       1.5634277 0.6792849 -0.5013987 -1.9445188
000250 15 ed 73 40 5d 68 f8 3e ea ba b8 3f 8f e2 c5 3f
       3.8113453 0.48517123 1.4432042 1.5459765
000260 c2 be 1e 3f 4c 30 b8 3f f0 6e d2 3f 79 1f b5 be
       0.62009823 1.4389739 1.6440105 -0.35375574
000270 f8 09 00 c0 bd d5 22 40 64 31 62 3f e0 ea 8a 3f
       -2.0006084 2.5442955 0.88356614 1.0852928
000280 39 d7 c3 3f 03 6e bf bf fa 08 8f bd 11 dc 73 bf
       1.5300056 -1.4955448 -0.06984134 -0.9525767
000290 3a f9 e5 3f 05 cb f6 3f 3e a7 a0 3f 2d 6d 20 40
       1.7966683 1.9280707 1.2551038 2.5066636
0002a0 df 55 0e c0 cc 97 fe be 6d 6e 1a c0 42 da f1 be
       -2.2239912 -0.49725187 -2.4129899 -0.4723683
0002b0 f4 5a ea 3f d0 0a 4b c0 d8 6a 53 3f 3d 18 8e 3f
       1.8309007 -3.172535 0.82584906 1.1101147
0002c0 9c 20 47 3e f4 0a 8b c0 79 f9 60 3f ce 78 6c 3f
       0.19446033 -4.345087 0.87880665 0.92371833
0002d0 a5 98 79 c0 5c 24 90 3f 90 2f 51 3f bc 65 90 3f
       -3.8999417 1.1261096 0.817132 1.1281047
0002e0 2a cb dc 3f 48 e4 95 3e 08 6a 50 bf 10 ca 7a 3f
       1.7249501 0.29275727 -0.8141179 0.9796457
0002f0 6e 9a 3c 40 c5 ed 9c bf 75 0b ea be 4b 52 cb bf
       2.9469256 -1.2260062 -0.45711866 -1.5884489
000300 e3 28 d1 bf 22 25 7d 3f fd 1b 96 be 18 b5 2b 3e
       -1.6340603 0.98884785 -0.29318228 0.167683
000310 5f 32 31 bf 22 c8 2c 3e 15 55 79 bf 4d da f1 bf
       -0.69217485 0.1687322 -0.9739545 -1.8894745
000320 b4 86 4b c0 14 f6 da 3f 61 38 c9 bf be cb 97 bf
       -3.1800966 1.7106347 -1.572033 -1.1859052
000330 23 65 7d 3f cb 01 42 bf f5 c2 52 3e e0 e4 8c be
       0.9898245 -0.75783986 0.20582183 -0.27518368
000340 39 b4 e3 3d d8 48 fe 3f 57 e9 f2 3f 49 a6 5e bd
       0.11118359 1.986598 1.897746 -0.0543578
000350 bc 2a 87 bf eb 29 10 bf 93 1a e8 3d 31 65 b3 3e
       -1.0559916 -0.5631396 0.11333194 0.3503814
000360 25 04 36 40 e3 13 b5 3b 8c 69 1b 3f d4 75 27 40
       2.844003 0.0055260523 0.60707927 2.6165667
000370 a2 17 1e 40 d1 c8 b9 3f 51 16 bf bd 63 b6 96 c0
       2.4701924 1.4514409 -0.093304284 -4.709764
000380 63 4b e6 bf bb 3f 5f bf c8 7b a0 3f 78 57 e9 3e
       -1.7991756 -0.8720662 1.2537775 0.45574546
000390 2a 82 b0 3f e9 51 9b be 03 12 26 40 f1 3a 3a 3f
       1.3789723 -0.3033593 2.5948493 0.7274619
0003a0 aa d1 32 be c7 a2 35 40 52 ac 3c c0 07 da 37 c0
       -0.17462793 2.8380601 -2.9480176 -2.8726823
0003b0 eb 9f 02 40 13 b3 bd be 50 a7 2f 40 ce 4f 49 3f
       2.0410106 -0.37050685 2.744587 0.786374
0003c0 7b e5 28 40 08 40 06 3d 95 98 16 bf 3a 06 e2 3e
       2.6390064 0.03277591 -0.5882657 0.44145375
0003d0 ac 07 0a 3d ae 8e 4a bf 18 a0 99 3e b5 03 1a c0
       0.033698723 -0.7912396 0.30004954 -2.4064763
0003e0 e5 9b aa be 34 ed 02 40 c6 85 4f c0 71 ef f2 be
       -0.33322063 2.0457277 -3.24254 -0.47448304
0003f0 11 a9 9e bf f0 e5 8c bf fc aa 03 3f 49 bd 23 c0
       -1.2395345 -1.1007671 0.51432776 -2.558428

lstm_cell.bias_ih f4 [256]
000000 34 14 a5 bf d9 f0 d5 3f 54 a2 16 3f 0a 65 4d 40
       -1.289679 1.6714126 0.58841443 3.209292
000010 d4 2f 3e 40 ec 56 51 40 c7 9f 84 3f 7b 96 27 40
       2.9716692 3.2709303 1.036126 2.6185596
000020 b5 63 31 3f 57 4d 30 3f aa 4b 4b 40 b4 f6 07 40
       0.69292766 0.6886801 3.1764932 2.1244326
000030 8f 98 74 c0 57 2a 31 3d d7 f2 40 c0 3a 33 75 3d
       -3.8218114 0.04325327 -3.0148218 0.059863307
000040 eb 09 3a 40 8c 83 14 c0 87 e0 31 c0 5d 60 55 3f
       2.9068553 -2.320529 -2.779329 0.83350164
000050 77 e5 ba bf 55 0a 81 c0 3b a2 cd bf 9c ce b2 3e
       -1.4601277 -4.032511 -1.6065134 0.34923255
000060 b0 66 e2 3f 7b 59 90 bf 3a 7f 50 3f bd ee 8f 3f
       1.7687588 -1.1277307 0.8144413 1.1244732
000070 64 10 37 bf bc 68 1c 40 e6 49 1b 40 ca d8 7a 3e
       -0.71509385 2.4438925 2.4263854 0.24496761
000080 df 50 d2 3f 62 c7 eb 3f 9b 04 0b bf b3 fd 9f bf
       1.643093 1.8420222 -0.543039 -1.2499298
000090 55 8a 22 bf 7b 8a af 3f 5f e8 6f be 94 ce d2 3f
       -0.6349233 1.3714136 -0.23428486 1.6469293
0000a0 81 5d f7 3e b9 d4 4f 3f dc 56 33 3f 25 c4 ba bf
       0.48313525 0.81183964 0.7005441 -1.4591109
0000b0 da 82 99 c0 0f 71 da bf d1 d3 42 3f 6c 33 2e bd
       -4.797223 -1.7065753 0.76104456 -0.04252951
0000c0 24 87 8c c0 c7 fa 08 c0 b6 4c 3a c0 84 da 1c 3f
       -4.3914967 -2.1403062 -2.910932 0.6127093
0000d0 ef a6 1d c0 86 8c eb bf 99 5c 23 be 15 59 34 be
       -2.4633138 -1.8402259 -0.15953292 -0.17612107
0000e0 da 44 0d c0 52 93 3f c0 c1 62 a1 3f bb 55 2f 3f
       -2.2073274 -2.9933667 1.2608262 0.6849019
0000f0 65 58 5d 3f 38 f3 4d 40 d9 6b 11 40 ca c2 35 c0
       0.86463004 3.21797 2.2722075 -2.840014
000100 52 6f 97 bf 1c 8b 21 bf 4d 42 ac be e7 aa 5c 3f
       -1.1830847 -0.6310289 -0.33644333 0.86198276
000110 1f 5c c5 bf 96 6c 87 3e 2c 2e 73 3f 7a e1 15 c0
       -1.5418738 0.26450032 0.9499233 -2.341887
000120 1d 8a 53 3f b8 e2 8a bf f3 7d 5b c0 52 73 25 c0
       0.8263262 -1.0850439 -3.4295623 -2.5851636
000130 04 24 3e 3f c3 6e 43 3c 94 c3 f0 bf 28 72 87 3e
       0.74273705 0.011928263 -1.8809686 0.26454282
000140 fe cd 6e bf 30 c0 ec 3e 58 56 1f bf ae 03 06 40
       -0.9328307 0.46240377 -0.62241125 2.0939746
000150 ef 8e 30 c0 6d 87 46 3f 85 91 2c c0 68 9e a4 bf
       -2.758724 0.77550393 -2.6963818 -1.2860842
000160 ef 33 53 3f 71 ad 21 bf 41 93 67 3e ec de df be
       0.8250112 -0.63155276 0.22614767 -0.43724763
000170 ae ad ad bf 02 dd 81 bf 1c 69 8a 3e 18 d8 55 bf
       -1.3568628 -1.0145571 0.27033317 -0.8353286
000180 9d 44 4f bd 29 5b 3a c0 f0 93 74 be d3 4a 56 c0
       -0.050602544 -2.911814 -0.23884559 -3.348317
000190 1e f7 23 40 b8 cb 67 bf f1 08 e0 be 9f ca d7 bf
       2.5619578 -0.90545225 -0.43756822 -1.685871
0001a0 62 36 c2 bf 9a f0 e0 3f 7a fc 36 3f 21 5f 10 3f
       -1.5172846 1.7573426 0.71479 0.56395155
0001b0 bb cc b2 be 04 10 07 c0 85 db 86 bf 42 e7 60 bf
       -0.34921822 -2.1103525 -1.0535742 -0.8785287
0001c0 fd 33 a1 bf 8f 83 80 3f 9f ec 08 bf 9b 7d 0f c0
       -1.259399 1.0040148 -0.53486055 -2.2420413
0001d0 63 6a 23 c0 02 26 84 3e 82 17 dd 3e cb 0e d5 bf
       -2.5533683 0.25810248 0.43181998 -1.664514
0001e0 52 96 17 40 94 23 a7 3f 81 51 88 c0 4d e3 09 40
       2.3685498 1.3057733 -4.259949 2.1544983
0001f0 d1 fc 6c be 44 51 03 c0 ef af 35 3f bd ab ef be
       -0.23143317 -2.051835 0.7097158 -0.46810713
000200 e9 4f 3f 40 e8 d4 94 be 26 ec 65 c0 56 af 12 c0
       2.9892523 -0.29068685 -3.5925384 -2.2919517
000210 6b 81 c7 3f 66 9a 03 bf 49 aa 0f 3f 20 27 bf bf
       1.558637 -0.5140747 0.5611921 -1.4933815
000220 bf c2 0d 40 10 65 06 c0 43 72 74 40 d9 43 2b 3f
       2.2150114 -2.0999184 3.819474 0.669004
000230 c5 f3 38 3e eb f0 38 40 77 95 dd 3f 11 e8 15 bf
       0.1806174 2.8897045 1.7311238 -0.5855723
000240 5d a7 17 40 5c 36 91 40 7b 70 0b c0 2a f8 72 3e
       2.36959 4.5378857 -2.1787403 0.2372748
000250 dd 9b 6b bf 0d a9 6e 3e 34 fd 11 3f 5c b1 3f 3f
       -0.92034703 0.23306675 0.5702698 0.74880004
000260 ae 6c 1c 3f c6 33 07 bf 78 25 86 3d d5 a7 e5 bf
       0.6110333 -0.52813375 0.06550115 -1.7941843
000270 bf 7e 4f 3f 8c 6b 3d 3f 5a 05 16 40 67 75 1a 40
       0.81052774 0.7399223 2.3440766 2.4134157
000280 ba dd f7 3f 5a d7 c2 bf 7f cb c0 be 65 29 f8 3f
       1.936454 -1.522197 -0.37655255 1.9387633
000290 19 c3 f0 3f c0 b3 97 be 2f 05 b6 3f 42 be a8 3e
       1.8809539 -0.29629326 1.4220332 0.32957655
0002a0 c6 79 c4 be 3d 4e dd 3f 9d d8 05 bf fb 5a f1 3f
       -0.38374156 1.7289501 -0.5228365 1.885589
0002b0 af 01 43 3f bb 02 2f ba 58 2c 55 40 81 b5 27 c0
       0.76174444 -0.0006676127 3.3308315 -2.6204531
0002c0 9e 1d 01 c0 ab d4 a8 3e 97 5f c6 3e 8b cd 31 bf
       -2.0174327 0.32974753 0.38744804 -0.6945426
0002d0 37 95 8e bf 64 03 33 c0 07 74 b4 bf ad ac ed bf
       -1.1139287 -2.797082 -1.4097909 -1.8568321
0002e0 89 f1 ab be 91 5b a5 3f ae 61 9e bf a3 05 19 bd
       -0.33582714 1.2918569 -1.237356 -0.03735889
0002f0 e2 45 e7 bf 8f 6f a7 bf c1 ee 00 40 f2 25 26 3f
       -1.8068202 -1.308092 2.0145724 0.6490165
000300 76 fc 8f be 61 41 86 c0 df 8f 22 3f 97 16 a5 40
       -0.281223 -4.195481 0.6350078 5.1590075
000310 ee 48 48 bf 5e 19 0f c0 b9 6c ce 3f 2e 9e fb 3f
       -0.7823628 -2.2359233 1.612693 1.9657648
000320 26 a3 9f bf 24 ad 5e 3f 2f 5c 02 c0 d8 09 56 40
       -1.2471664 0.8698294 -2.0368764 3.3443508
000330 6a 4c 70 bf 92 d0 d7 3f 4c 1e 30 c0 d9 72 f2 be
       -0.938666 1.6860526 -2.7518492 -0.47353247
000340 34 d4 1b c0 16 30 22 bf 65 8f 20 c0 a7 d2 ce 3d
       -2.4348269 -0.63354623 -2.508752 0.100987725
000350 98 52 95 3f fd e6 7b bf bb 87 aa 3f 50 82 3e 3f
       1.1665831 -0.98399335 1.3322672 0.7441759
000360 88 3d 35 bf da df 2a 3e 54 3e ea 3f 52 d3 4f c0
       -0.70797014 0.16686955 1.8300271 -3.247273
000370 6c b0 d2 3e d5 ef bc bf e6 f0 b2 3f d5 2c e5 be
       0.41150224 -1.4760691 1.3979766 -0.44760767
000380 ed 40 4d bf 5c 7a 09 40 55 c9 a1 be a9 9a 9b bf
       -0.80177194 2.1480932 -0.31598917 -1.2156574
000390 f7 d3 ee be 97 a6 35 40 e6 53 0a c0 db df 43 40
       -0.4664609 2.8382928 -2.1613708 3.060538
0003a0 6b df 14 3f 84 5a 52 40 2a a3 dd bf 9f 6c dd 3f
       0.5815341 3.2867746 -1.7315419 1.7298774
0003b0 1c 13 18 c0 e1 0b 86 c0 33 7c e3 3f 50 62 4f bf
       -2.3761663 -4.18895 1.7772278 -0.8100939
0003c0 97 d9 4c c0 e4 1c dc bf 08 98 f8 bf 40 f4 0a c0
       -3.2007806 -1.7196317 -1.9421396 -2.1711578
0003d0 a0 74 58 bf 8d 3a d4 bf e7 9e 08 40 3b aa 19 c0
       -0.84552956 -1.6580368 2.1346986 -2.401015
0003e0 50 36 1a 40 b3 14 8b bf a9 24 af 3e 7b 12 13 c0
       2.409565 -1.0865692 0.34207657 -2.298003
0003f0 fc fe 36 bf f8 7b 80 3f e1 57 1a c0 1e 5d b9 3e
       -0.71482825 1.0037832 -2.4116137 0.36203855

lstm_cell.bias_hh f4 [256]
000000 e4 38 a9 bf d8 d7 e3 3f b6 65 bc 3e 9a f3 48 40
       -1.3220487 1.7800245 0.3679635 3.1398683
000010 74 cd 42 40 ec 08 52 40 7a 42 6f 3f 8c db 29 40
       3.0437899 3.2817945 0.9346081 2.654025
000020 35 04 37 3f 7d 8d 2a 3f 3a 8a 4b 40 64 11 10 40
       0.71490794 0.66622144 3.1803117 2.2510614
000030 ef ee 7e c0 a0 77 0f 3e d7 41 37 c0 fc e8 cb 3d
       -3.9833333 0.14010477 -2.8633935 0.099565476
000040 9b cd 39 40 06 69 1d c0 a7 ed 31 c0 ec 8a 35 3f
       2.9031742 -2.4595351 -2.7801301 0.709151
000050 17 18 bc bf 5a d7 78 c0 76 54 d9 bf 0c 96 bd 3e
       -1.4694852 -3.888144 -1.69789 0.3702854
000060 90 9d dc 3f 62 6e 9d bf 11 bc 85 3f 2d c7 82 3f
       1.7235584 -1.2299311 1.0448018 1.0217034
000070 2b 36 20 bf ec 45 18 40 70 2d 25 40 ca df 7c 3e
       -0.62582654 2.3792677 2.5808983 0.24694744
000080 5f cd d4 3f 82 dd e8 3f f3 84 21 bf 03 25 96 bf
       1.6625174 1.8192599 -0.6309349 -1.1730045
000090 87 41 39 bf ff f7 c6 3f b7 b1 4d be 94 b9 e0 3f
       -0.7236561 1.5544432 -0.20087324 1.7556634
0000a0 0c ed 8a 3e 68 29 64 3f 5d 72 5c 3f 56 d0 ab bf
       0.27133977 0.8912568 0.86112005 -1.3422954
0000b0 aa 46 9b c0 ef ac d5 bf 19 8b 46 3f a5 2c 60 bb
       -4.852376 -1.66934 0.77555996 -0.0034206298
0000c0 24 9d 8c c0 e7 8f 05 c0 27 07 33 c0 b8 5a 26 3f
       -4.394182 -2.086908 -2.7973115 0.64982176
0000d0 8f 02 2a c0 26 06 f0 bf c0 03 5f bc 8e 60 85 be
       -2.6564062 -1.8751876 -0.013611734 -0.26050228
0000e0 4a d6 09 c0 e9 64 37 c0 41 42 9b 3f 9a 64 10 3f
       -2.1537042 -2.865534 1.2129594 0.56403506
0000f0 c5 bd 4e 3f db a8 4b 40 c1 aa 08 40 0a 03 31 c0
       0.80758315 3.1821811 2.135422 -2.7658105
000100 e3 38 89 bf dc d3 f8 be 2c 4e 9b be 07 50 6f 3f
       -1.0720485 -0.48599136 -0.30333078 0.9348149
000110 9f b0 bc bf 36 a5 87 3e 14 3d 84 3f 8a 1b 19 c0
       -1.47414 0.26493233 1.033114 -2.3923059
000120 fd 08 40 3f e8 1a 9d bf 83 e7 5f c0 97 e2 26 c0
       0.75013715 -1.2273836 -3.4985054 -2.60758
000130 aa f8 29 3f 70 55 72 3e 94 b7 d8 bf 7a ba a0 3e
       0.66395056 0.23665404 -1.6931024 0.3139227
000140 e7 b2 91 bf 81 f6 c4 3e f8 c1 09 bf 2e 5c 03 40
       -1.1382722 0.38469318 -0.538116 2.0525012
000150 9f f6 2f c0 9d 75 26 3f 25 1a 2e c0 08 29 a5 bf
       -2.7494276 0.65023214 -2.7203457 -1.2903147
000160 0f 64 51 3f 29 1f 0c bf 3e 2b 14 3e 4a c3 ef be
       0.817933 -0.54735047 0.1446962 -0.4682868
000170 ed cf a8 bf 9c 4e 7a bf 01 05 76 3e d8 ff 61 bf
       -1.3188454 -0.977762 0.24025346 -0.8828101
000180 60 83 ad bd 29 27 3b c0 1b d5 92 be c0 06 4e c0
       -0.084723234 -2.9242651 -0.28678212 -3.219162
000190 3e 71 29 40 b4 e7 81 bf 8c fb a0 be 6f 78 e6 bf
       2.6475368 -1.0148835 -0.31441915 -1.8005503
0001a0 12 67 ab bf 9f 99 ed 3f 0c dd 61 3f d0 b2 1d 3f
       -1.339083 1.8562506 0.88227916 0.6160097
0001b0 c1 45 90 be 64 8e 02 c0 2c 0c 8c bf 62 d1 61 bf
       -0.28178218 -2.0399408 -1.0941215 -0.8821012
0001c0 7c 8b 82 bf 5c 63 7c 3f cb 89 b2 be 2a be 12 c0
       -1.0198817 0.9858911 -0.34870753 -2.2928567
0001d0 1b d9 1c c0 2b cb 6d 3e c4 c4 be 3e db 11 dd bf
       -2.450751 0.23222034 0.37259495 -1.7271074
0001e0 12 d4 12 40 89 b1 b0 3f 91 ba 81 c0 81 fa 0c 40
       2.2941937 1.380418 -4.054024 2.2027895
0001f0 91 b1 69 be 24 50 09 c0 50 ac 12 3f 3a ae d0 be
       -0.22821642 -2.1455164 0.5729418 -0.40757924
000200 29 30 3b 40 fc ed 05 bf a6 7f 65 c0 b6 f9 15 c0
       2.9248145 -0.5231626 -3.585916 -2.3433661
000210 92 4f b8 3f 66 37 00 bf 82 b2 e6 3e 50 72 be bf
       1.4399283 -0.5008453 0.45058066 -1.4878635
000220 a7 65 07 40 90 1b 04 c0 e3 ab 7d 40 29 a9 46 3f
       2.1155794 -2.0641823 3.9636161 0.7760187
000230 06 3e 6c 3e eb 9f 39 40 37 ae c3 3f cc c5 29 bf
       0.23070535 2.9003856 1.5287541 -0.6631744
000240 8e 70 23 40 ef f8 8d 40 8b ab 0f c0 cb 96 39 3e
       2.5537448 4.4366374 -2.2448452 0.18123929
000250 1d df 5e bf a4 23 4d 3e da ca 0e 3f dd 2b 23 3f
       -0.87059194 0.20033127 0.55778277 0.63738805
000260 2c b1 53 3f d6 40 06 bf e0 b5 60 3d 95 64 ea bf
       0.8269222 -0.5244268 0.05486095 -1.8311945
000270 d1 82 47 3f 8c 40 4a 3f fa 64 1b 40 f1 95 0e 40
       0.77933985 0.7900474 2.4280381 2.2279017
000280 fa d6 eb 3f 1a 5c ac bf 99 95 ad be e5 a2 fe 3f
       1.8424981 -1.3465607 -0.33903196 1.9893461
000290 39 9b e4 3f d0 49 7d be 6e 37 a6 3f b2 86 81 3e
       1.785987 -0.24735188 1.2985666 0.25298077
0002a0 90 95 bb be 6d 32 d6 3f 0d 2a 0d bf 1b 63 f3 3f
       -0.36637545 1.6734139 -0.5514229 1.901462
0002b0 ea 7a 4d 3f 76 bf 5a 3d b8 d6 53 40 e1 87 23 c0
       0.80265677 0.053405248 3.3099804 -2.5551684
0002c0 5e ed 07 c0 2c 85 6d 3e 37 e2 c2 3e 77 b6 25 bf
       -2.1238627 0.23195332 0.38063213 -0.64731544
0002d0 0b 49 a8 bf 98 87 31 c0 e7 3a a1 bf 60 fb f2 bf
       -1.3147291 -2.773901 -1.25961 -1.8982964
0002e0 da 8c cf be 28 f5 b8 3f 8e 55 9f bf 83 c2 93 bd
       -0.4053715 1.4449816 -1.2447984 -0.072148345
0002f0 00 e4 f9 bf 2b f8 be bf 8a 3e e5 3f 1f 98 1c 3f
       -1.9522705 -1.4919485 1.790971 0.6116962
000300 10 40 6b be f9 fc 84 c0 7f 64 21 3f 6b 32 aa 40
       -0.22973657 -4.1558805 0.6304397 5.3186545
000310 1b 17 4f bf 29 5d 0f c0 c2 5d b8 3f 6e e6 ef 3f
       -0.8089463 -2.240061 1.4403613 1.8742197
000320 be 30 91 bf a4 c5 50 3f 8f 6a 01 c0 98 1f 4e 40
       -1.1343 0.81551576 -2.0221288 3.2206783
000330 bc 3e 84 bf 52 e8 d6 3f fc b6 2f c0 c7 03 2a bf
       -1.0331645 1.6789649 -2.7455435 -0.66412014
000340 f8 8a 0f c0 10 61 37 bf 36 26 1a c0 17 2f e0 3d
       -2.242857 -0.7163248 -2.4085822 0.10946482
000350 98 3a ae 3f 07 81 84 bf 1c 49 b1 3f b0 21 42 3f
       1.3611631 -1.0351876 1.3850436 0.75832653
000360 68 b7 45 bf ea 10 75 3e 34 be e9 3f 62 54 53 c0
       -0.7723298 0.23932233 1.826117 -3.3020253
000370 6e 9e f0 3e 35 cb c0 bf 06 10 ba 3f 63 37 05 bf
       0.46995872 -1.5062014 1.453614 -0.5203764
000380 3f 96 34 bf 02 80 0c 40 af cf 78 be 93 70 87 bf
       -0.7054176 2.195313 -0.24297975 -1.058123
000390 57 93 f6 be 17 4b 36 40 16 d8 0a c0 fb 38 47 40
       -0.48159286 2.8483331 -2.1694388 3.1128528
0003a0 eb 35 23 3f 31 a1 54 40 7b 4c cc bf 3f 77 de 3f
       0.6375415 3.3223383 -1.596084 1.7380141
0003b0 41 91 21 c0 41 47 87 c0 03 c3 e0 3f ff 25 2e bf
       -2.5244906 -4.227448 1.7559513 -0.6802673
0003c0 24 b8 49 c0 04 26 e1 bf 28 67 e9 bf 50 3f 07 c0
       -3.151864 -1.7589726 -1.8234606 -2.1132393
0003d0 e4 cc 6b bf 1d 8e c3 bf bf fe 08 40 8c 01 0e c0
       -0.92109513 -1.5277745 2.1405485 -2.2188444
0003e0 40 35 10 40 e3 cc 7e bf e9 3f a6 3e 3b ae 0f c0
       2.2532501 -0.9953138 0.32470635 -2.2450092
0003f0 6c 67 42 bf 0d ad 7d 3f 3d f5 26 c0 ce 85 ca 3e
       -0.7593906 0.9909218 -2.6087182 0.3955521
