model/global_model_2.pth (torch, 330938 bytes, 17 tensors)

conv1.lin_l.weight f4 [16, 1]
0	0xbf222a71	-0.6334601
1	0xbc5eadef	-0.013591274
2	0xbf31ac46	-0.69403493
3	0xbf26ff91	-0.65233713
4	0xbf004ee1	-0.5012036
5	0x3e8d2b79	0.2757223
6	0xbf560e11	-0.83615214
7	0xbe1bd29f	-0.15217064
8	0xbf22b5d7	-0.63558716
9	0x3dae61ca	0.085147455
10	0xbe885f38	-0.26635146
11	0xbf60af55	-0.87767535
12	0x3d513445	0.05107524
13	0xbef8a23f	-0.48561284
14	0x3ec691a1	0.3878298
15	0xbee88f61	-0.4542189

conv1.lin_l.bias f4 [16]
0	0xbe1ecb07	-0.15507136
1	0x3f17bf59	0.5927635
2	0xbf8a69ef	-1.0813578
3	0x3ebec65a	0.37260705
4	0x3ee30d1b	0.44345936
5	0xbe91af80	-0.28454208
6	0xbf51bdb5	-0.81930095
7	0x3ec80fba	0.39074498
8	0x3f2acbff	0.66717523
9	0xbf32272a	-0.6959101
10	0x3f21e38f	0.6323785
11	0xbf70f301	-0.94120795
12	0x3eff431f	0.49855897
13	0xbe847c50	-0.25876093
14	0xbeca03e1	-0.39456084
15	0xbdd953d0	-0.10611689

conv1.lin_r.weight f4 [16, 1]
0	0xbf7fbdd1	-0.9989901
1	0xbf0087a1	-0.50206953
2	0x3e3d1c16	0.18467745
3	0xbf5b4bb1	-0.8566237
4	0xbea56b11	-0.32308248
5	0x3f16e8b7	0.58948845
6	0xbf38561a	-0.7200638
7	0x3dec6fc0	0.11544752
8	0xbef9ee8f	-0.48814818
9	0xbf514940	-0.81752396
10	0xbf57622b	-0.8413417
11	0x3ddbd11b	0.10733243
12	0xbf442c3f	-0.76630014
13	0xbf4bb7e6	-0.7957748
14	0xbe8a51e9	-0.27015617
15	0xbd653480	-0.05595827

conv2.lin_l.weight f4 [64, 16]
0	0xbdac99b1	-0.08427752
1	0x3e0f135f	0.13972233
2	0xbcb8b99f	-0.022549449
3	0x3e0f91a8	0.14020407
4	0xbd0a3a88	-0.033747226
5	0xbd620481	-0.055180077
6	0xbe1747f0	-0.14773536
7	0x3dc82fd0	0.097747445
8	0x3dfc6a5f	0.12324976
9	0x3d3e9a2f	0.04653376
10	0xbe06c127	-0.1315962
11	0x3e0f4517	0.139912
12	0x3d9d5ea9	0.076840706
13	0x3e242e89	0.16033377
14	0xbec33d9f	-0.3813295
15	0xbe422e51	-0.18962981
16	0x3e179647	0.1480342
17	0xbe93e1c7	-0.28883192
18	0x3da4ad41	0.08040858
19	0x3e2d6ef1	0.16936852
20	0x3d903d2f	0.0704292
21	0x3d49a431	0.04922885
22	0xbda13d61	-0.07873035
23	0xbe86c638	-0.26323104
24	0x3e56f175	0.20990546
25	0xbe88e9ef	-0.26740977
26	0xbe7267e1	-0.23672439
27	0xbd9cce97	-0.076565914
28	0xbe611781	-0.21981622
29	0xbe1b61a0	-0.1517396
30	0xbe992b17	-0.29915687
31	0xbde41faf	-0.11138856
32	0xbd85e921	-0.065386064
33	0xbdb70c56	-0.089379
34	0x3e25515f	0.16144322
35	0xbc6079e0	-0.013700932
36	0x3bbc8840	0.005753547
37	0xbbde83df	-0.0067906226
38	0x3de258a5	0.11052064
39	0x3e146cc1	0.14494611
40	0x3db6f326	0.08933096
41	0xbdca7eef	-0.09887492
42	0xbc23a1c0	-0.009987295
43	0x3dc26645	0.094921626
44	0xbd8a05c7	-0.06739383
45	0xbe04d281	-0.12970926
46	0xbe960520	-0.29300785
47	0xbe48d260	-0.19611502
48	0x3df83eaf	0.12121331
49	0xbe6aa2af	-0.22913621
50	0xbdc922cf	-0.09821092
51	0x3de85751	0.11344779
52	0x3de900bf	0.113770954
53	0xbe909209	-0.28236416
54	0x3c912a80	0.01772046
55	0xbe1e5c77	-0.1546496
56	0x3cbefcb0	0.02331385
57	0xbeb6ef5a	-0.35729486
58	0x3e2280c1	0.15869428
59	0xbc86de40	-0.016463399
60	0xbeaa2edf	-0.33238885
61	0x3e3fce5a	0.1873106
62	0x3dd5a3c0	0.104316235
63	0xbdfeb971	-0.12437714
64	0x3e436e8f	0.19085144
65	0x3dde2235	0.10846368
66	0xbe3a1ae6	-0.18174323
67	0x3da851e7	0.08218747
68	0xbc53d9a0	-0.012930304
69	0xbe5e2bf0	-0.21696448
70	0x3e2f0950	0.17093396
71	0xbea6bfff	-0.32568356
72	0x3e1ff46f	0.15620588
73	0xbe72d151	-0.2371266
74	0x3e7ebc00	0.24876404
75	0xbd806ce1	-0.06270767
76	0xbe1dd391	-0.15412737
77	0xbe2317c1	-0.1592703
78	0xbea37aef	-0.31929728
79	0xbe394881	-0.18094064
80	0xbe489dea	-0.1959149
81	0xbd8ef941	-0.06981135
82	0xbe84c63f	-0.259325
83	0xbdf48a41	-0.11940432
84	0x3e75a041	0.23986913
85	0xbe133bf8	-0.14378345
86	0xbdde87b0	-0.10865724
87	0xbd2b5b0a	-0.04183487
88	0x3e7447c1	0.23855497
89	0xbe7299df	-0.2369151
90	0x3e1b38bf	0.15158366
91	0xbec2faef	-0.38082072
92	0xbea9c7d9	-0.33160284
93	0x3ce8eaf0	0.02843234
94	0xbee64931	-0.44977716
95	0xbe003690	-0.12520814
96	0xbe536821	-0.20645191
97	0xbda34eb9	-0.079739995
98	0xbdda7ac5	-0.10667948
99	0x3b9e86c0	0.004837841
100	0xbe51f701	-0.20504381
101	0xbe9d7f1f	-0.30761048
102	0xbe2283e1	-0.1587062
103	0xbe8c15c1	-0.27360347
104	0x3c1cd8a0	0.009573132
105	0x3e1c5a71	0.15268876
106	0xbe4a4221	-0.19751789
107	0x3e2ccf1a	0.16875878
108	0x3e364801	0.17800905
109	0x3e7e5b0f	0.24839424
110	0xbe0ae4bf	-0.13563822
111	0x3ce073f0	0.027399033
112	0x3de3b311	0.111181386
113	0xbe51a70f	-0.20473884
114	0xbde9c74f	-0.11414968
115	0xbdc891ef	-0.097934596
116	0x3e0eb400	0.13935852
117	0xbe0c5381	-0.13703729
118	0xbe2b7021	-0.16741993
119	0xbe9128cf	-0.28351447
120	0xbde7c2df	-0.113164656
121	0xbcbc5c21	-0.02299315
122	0xbe3cf26f	-0.18451856
123	0xbe84a497	-0.25906822
124	0xbdae17a1	-0.085006006
125	0xbdcb83c1	-0.099372394
126	0xbe4da04f	-0.20080684
127	0xbe180e81	-0.14849283
128	0xbcf067d0	-0.029346377
129	0x3d30c5f0	0.043157518
130	0xbe0182c1	-0.12647535
131	0xbdc2915a	-0.0950038
132	0x3e070270	0.13184524
133	0xbe072cdf	-0.1320071
134	0xbe7b44bf	-0.24537943
135	0x3df2e81f	0.1186068
136	0x3dd7a2f1	0.105291255
137	0x3e5492c5	0.20759113
138	0x3dc40001	0.09570313
139	0xbbd82c00	-0.006597042
140	0x3d7f0041	0.0622561
141	0x3e52dcf1	0.20592095
142	0xbc094aa0	-0.008379608
143	0xbe1c2421	-0.15248157
144	0xbd4aa910	-0.049477637
145	0xbe37b3fa	-0.1793975
146	0x3d97f417	0.07419603
147	0x3d913671	0.07090462
148	0xbe4b3a9a	-0.19846573
149	0xbe67f0a1	-0.22650386
150	0xbe5e0f6b	-0.21685569
151	0xbde31a7f	-0.11089038
152	0x3d03e0d0	0.03219682
153	0x3dd33c6b	0.10314258
154	0xbe76e3bf	-0.24110316
155	0xbe9d3ef9	-0.30712107
156	0x3dbd4c26	0.0924304
157	0x3e716ba1	0.23576213
158	0x3dec8d5f	0.11550402
159	0x3d158200	0.03650093
160	0xbd83d570	-0.06437194
161	0xbccc9470	-0.024973124
162	0x3e081591	0.13289477
163	0x3e156d01	0.14592363
164	0xbd4575e6	-0.04820814
165	0xbe4d1bbf	-0.20030116
166	0xbded4170	-0.11584747
167	0x3e312406	0.17298898
168	0xbe001741	-0.1250887
169	0x3d825f0f	0.06365787
170	0x3dcf4505	0.10120586
171	0xbdfc5310	-0.123205304
172	0xbe2e8b1a	-0.1704525
173	0x3e57e5bf	0.21083735
174	0x3e2fd71a	0.17171898
175	0xbd29e250	-0.041475594
176	0xbe45daa1	-0.19321682
177	0xbe31ced1	-0.1736405
178	0x3ceb2400	0.02870369
179	0x3dfe6450	0.12421477
180	0x3e5f3821	0.21798755
181	0x3db7171f	0.08939957
182	0x3c62fa60	0.013853639
183	0xbe23a869	-0.15982212
184	0x3e18a5b1	0.14906956
185	0x3a9fd5a7	0.0012194411
186	0xbe72d74f	-0.23714946
187	0xbdc0ff3b	-0.09423681
188	0xbd8bbdb1	-0.0682329
189	0x3c8cb430	0.017175764
190	0xbe9e61b7	-0.30933926
191	0xbe4bb586	-0.19893464
192	0xbe48b7cf	-0.19601367
193	0xbe0b049f	-0.13575982
194	0xbc9b9f4f	-0.018996863
195	0xbdff930f	-0.12479221
196	0x3e5778a5	0.21042116
197	0xbdd362db	-0.103215896
198	0x3d149ee0	0.036284328
199	0xbe2569bf	-0.1615362
200	0xbe02848f	-0.1274588
201	0xbdaf1a0a	-0.085498884
202	0x3e06b3cf	0.13154529
203	0x3d19b819	0.037529085
204	0x3dd315ab	0.10306867
205	0x3d56cbe5	0.052440543
206	0x3e1624c7	0.14662467
207	0x3cc158a0	0.02360183
208	0xbd7a6161	-0.061128024
209	0xbe02185f	-0.1270461
210	0xbcfb6681	-0.030688526
211	0x3e24af11	0.16082408
212	0x3dc3ac51	0.09554351
213	0x3d8b2257	0.06793659
214	0xbe2482a0	-0.16065454
215	0x3cb958e1	0.022625389
216	0x3e355fcf	0.1771233
217	0x3e06b557	0.13155113
218	0xbe321ef6	-0.17394623
219	0xbdaf292f	-0.08552777
220	0x3cb3b766	0.021938037
221	0xbd11d790	-0.035605967
222	0x3cb776aa	0.02239545
223	0x3d893cf0	0.06701076
224	0x3e41cc1f	0.18925522
225	0x3da26ce7	0.07930928
226	0x3e3a5286	0.18195543
227	0x3dfe80f0	0.124269366
228	0xbe58ec10	-0.211838
229	0xbe0c3119	-0.13690604
230	0x3e604ad0	0.21903539
231	0xbc99fa10	-0.018795997
232	0xbe0c63b7	-0.13709913
233	0x3e6d7aaf	0.23191331
234	0x3ce9a8e0	0.028522909
235	0xbe0c0f11	-0.13677622
236	0xbe5f1e1b	-0.21788828
237	0xbbe34140	-0.0069352686
238	0x3d8a332f	0.06748044
239	0xbd54da65	-0.05196609
240	0x3e14b671	0.14522721
241	0x3e8bccc7	0.2730467
242	0x3e0fac21	0.14030506
243	0x3e3b47d0	0.18289113
244	0x3df379e1	0.11888481
245	0x3cc31851	0.023815306
246	0xbc823a80	-0.015897036
247	0x3c5e02ff	0.013550519
248	0xbe6451cf	-0.22296833
249	0x3c8b6957	0.017018003
250	0x3dedc401	0.116096504
251	0x3c9c2fa7	0.019065691
252	0xbc0c80ff	-0.008575677
253	0x3dcc0de1	0.09963585
254	0x3d5a3f35	0.053282935
255	0x3be5ff00	0.0070189238

conv2.lin_l.bias f4 [64]
0	0xbd96e699	-0.07368202
1	0xbdf7ee5f	-0.121060126
2	0xbea625d9	-0.3245075
3	0xbebb7476	-0.3661229
4	0xbdddac0f	-0.10823833
5	0xbeb21b8f	-0.3478665
6	0x3e2c9f4f	0.16857646
7	0x3d4d1eff	0.05007839
8	0x3d50d7e0	0.050987124
9	0xbe4e4960	-0.20145178
10	0x3d4f9690	0.050680697
11	0x3d094d21	0.03352082
12	0x3e01a06f	0.12658857
13	0x3ca1fd01	0.019773962
14	0xbe569daf	-0.20958589
15	0xbe75fbaf	-0.24021791
16	0xbd9e9967	-0.07744103
17	0xbe6c833f	-0.23096941
18	0xbe95e6a0	-0.29277515
19	0xbe9c77a7	-0.30560037
20	0xbe719f91	-0.23596026
21	0x3dacf25a	0.084446624
22	0xbdcdcfc5	-0.100493945
23	0xbd62a61f	-0.055334207
24	0x3e2f8a4a	0.17142597
25	0xbe1db211	-0.15399958
26	0x3e0257d0	0.1272881
27	0xbdca1d21	-0.09868837
28	0xbe883177	-0.2660024
29	0x3dad90fa	0.08474918
30	0xbe948161	-0.29004958
31	0xbee0e3f5	-0.43923917
32	0xbe5a55bf	-0.21321772
33	0x3e49692f	0.1966903
34	0xbddfae55	-0.10921923
35	0xbe2868e7	-0.16446267
36	0xbe9b697f	-0.30353925
37	0x3e213ee9	0.15746655
38	0x3e3081f0	0.17237067
39	0x3de46e50	0.11153853
40	0xbd2218a7	-0.03957429
41	0xbddb527b	-0.10709091
42	0xbc07f178	-0.008297317
43	0xbe166269	-0.14685978
44	0xbde371cf	-0.11105692
45	0xbccfdcc5	-0.025373826
46	0xbe531ef0	-0.2061727
47	0xbec6a580	-0.3879814
48	0xbea1f0a7	-0.31628916
49	0xbeb57786	-0.35442752
50	0x3d0fca41	0.035104994
51	0xbe56ffa5	-0.20995958
52	0xbdac24b1	-0.08405436
53	0xbda97700	-0.082746506
54	0x3e1cd529	0.15315689
55	0x3db6e9c6	0.089313075
56	0xbeb069c1	-0.34455684
57	0x3e40f5b1	0.18843724
58	0xbdf9fe7f	-0.122067444
59	0xbe3aa69a	-0.18227616
60	0x3db9a2cf	0.090642564
61	0x3d9f8111	0.07788289
62	0x3e1c2b1f	0.15250824
63	0x3c957f29	0.018249111

conv2.lin_r.weight f4 [64, 16]
0	0xbe22f6d0	-0.15914464
1	0x3dc3fe11	0.09569944
2	0xbe97000f	-0.29492232
3	0x3da6eaa1	0.08150221
4	0xbe13634f	-0.14393352
5	0x3d83af5f	0.06429934
6	0x3e261337	0.16218267
7	0xbe4c696a	-0.19962087
8	0xbe06a49f	-0.13148735
9	0x3e003357	0.12519585
10	0xbdb788c6	-0.08961634
11	0xbe25a88f	-0.16177581
12	0xbe22566f	-0.15853284
13	0xbe35155a	-0.17683926
14	0xbe0a0b08	-0.1348077
15	0x3e04e1ff	0.12976836
16	0xbd0fe240	-0.03512788
17	0xbe857701	-0.26067355
18	0xbe90be09	-0.28269985
19	0x3c8adca0	0.016950905
20	0x3e06c660	0.13161612
21	0xbe1aedff	-0.15129851
22	0xbe27fbc1	-0.1640463
23	0x3ca3c4ef	0.019991366
24	0x3e29c69f	0.16579674
25	0xbdd642e5	-0.10461978
26	0xbdc70026	-0.09716825
27	0x3d186aa9	0.037211094
28	0xbe886f8f	-0.26647612
29	0xbe2495cf	-0.16072772
30	0x3d8bc1a7	0.06824046
31	0x3e0d46f1	0.13796593
32	0x3de61441	0.11234332
33	0x3e27c7b1	0.1638477
34	0x3e3fe321	0.18738987
35	0x3e011091	0.12603976
36	0x3e201371	0.15632416
37	0xbae349f1	-0.0017340762
38	0x3d852340	0.06500864
39	0xbd79f921	-0.061028603
40	0x3e3c5a91	0.18393923
41	0xbdc01d90	-0.093806386
42	0xbe63f3c0	-0.22260952
43	0x3e76e56f	0.2411096
44	0x3e60ab51	0.21940352
45	0xbe49240a	-0.19642654
46	0xbdb75590	-0.089518666
47	0xbe609e9f	-0.21935509
48	0x3d40cf60	0.04707277
49	0x3d73c020	0.059509397
50	0xbdcaf8fb	-0.099107705
51	0xbd502b7b	-0.050822716
52	0x3dbef311	0.09323705
53	0x3bdc1671	0.0067165424
54	0x3e5ab225	0.21357019
55	0xbe9a30e1	-0.30115417
56	0x3e457d50	0.19286084
57	0xbe7322e1	-0.23743774
58	0xbd964a1f	-0.07338356
59	0x3dddbf45	0.108274974
60	0xbcce6750	-0.025195748
61	0x3d53eae5	0.051737685
62	0xbe0b618f	-0.13611434
63	0xbda3e291	-0.080021985
64	0x3caf8f00	0.021430492
65	0x3d09cb00	0.03364086
66	0xbe716f41	-0.23577596
67	0xbd323aa6	-0.043512963
68	0x3defe011	0.11712659
69	0x3dd51dbf	0.10406064
70	0xbe0a94d9	-0.13533343
71	0x3cfdbb6f	0.030973164
72	0x3b65f780	0.0035090148
73	0x3c296f31	0.0103414515
74	0x3d898238	0.067142904
75	0x3dad0f56	0.08450191
76	0x3da5e5f7	0.08100503
77	0xbe71c69f	-0.23610924
78	0xbd356481	-0.0442853
79	0x3d8ae1ef	0.06781375
80	0xbe09f8af	-0.13473772
81	0xbf0701df	-0.5273723
82	0xbe0ea4e1	-0.13930084
83	0x3d456fa6	0.04820218
84	0x3d0887b8	0.033332556
85	0xbe930671	-0.28715852
86	0x3e260a10	0.16214776
87	0xbf025901	-0.5091706
88	0xbe1bfbf8	-0.15232837
89	0xbf02b551	-0.51057917
90	0xbe79e130	-0.24402308
91	0xbeb9bba6	-0.36275977
92	0xbee0a44f	-0.43875358
93	0xbe038521	-0.12843753
94	0xbe43de45	-0.19127758
95	0xbddeb460	-0.108742476
96	0xbd9cb7a8	-0.07652217
97	0xbe6702ef	-0.22559713
98	0xbdd58a3b	-0.10426756
99	0x3e1d57b7	0.15365492
100	0x3e4072df	0.1879382
101	0x3dedddef	0.11614596
102	0xbd964248	-0.07336861
103	0x3e091d27	0.13390027
104	0xbe21cf07	-0.15801631
105	0xbd16cebf	-0.036818262
106	0x3e57933f	0.21052264
107	0xbe60ef10	-0.21966195
108	0x3dd46dc5	0.103724994
109	0x3a2fca00	0.00067058206
110	0x3bdbdc8b	0.0067096404
111	0xbe6b54ff	-0.22981642
112	0x3e6e5881	0.23275949
113	0xbe900411	-0.28128102
114	0xbe73ecb1	-0.2382076
115	0xbdc210c1	-0.09475852
116	0xbd7f8880	-0.062386036
117	0x3cd4fe2b	0.026000103
118	0xbd5d0185	-0.053956527
119	0x3e0f0717	0.13967548
120	0xbe72f2bf	-0.23725413
121	0x3df8ae3f	0.1214261
122	0xbe4b1dfa	-0.19835654
123	0x3e5b1a85	0.21396835
124	0xbe7b14bf	-0.24519633
125	0x3cebf5c0	0.028803706
126	0xbd5d8e5f	-0.054090854
127	0xbde171cf	-0.110080354
128	0x3dbdd261	0.09268642
129	0x3e6138b1	0.21994282
130	0xbd78b581	-0.06071997
131	0xbe376b8f	-0.17912124
132	0xbe0b18cf	-0.13583682
133	0xbde7b7b0	-0.113143325
134	0x3e0591f9	0.13043965
135	0xbe4f58f0	-0.2024877
136	0x3e3af43a	0.18257228
137	0x3da375a7	0.07981425
138	0x3d9a4168	0.075320065
139	0xbe34646f	-0.17616437
140	0xbde5feaf	-0.11230218
141	0xbe1867c1	-0.14883329
142	0x3dda1b05	0.10649685
143	0x3dd80830	0.10548437
144	0x3e3e7950	0.18600965
145	0xbb42f76a	-0.002974952
146	0x3d6fedef	0.05857652
147	0x3d7f08d0	0.062264264
148	0xbd60a710	-0.054846823
149	0x3d25a2b1	0.040438358
150	0xbe34152f	-0.17586206
151	0xbe6823f1	-0.2266996
152	0x3d37ef60	0.04490602
153	0xbc843a60	-0.016141117
154	0x3ccad100	0.024757862
155	0xbbf9deb0	-0.0076254234
156	0xbe40751a	-0.1879467
157	0xbdcda05b	-0.10040351
158	0xbdf81871	-0.12114037
159	0xbd0fb5a8	-0.03508535
160	0xbdb46b9f	-0.088095896
161	0x3e4a2f8f	0.19744705
162	0x3e19756f	0.14986204
163	0xbe703d01	-0.23460771
164	0x3dc08cbf	0.09401845
165	0xbe5cace1	-0.21550323
166	0x3db2fd30	0.08739698
167	0xbe78a2cf	-0.24280857
168	0x3d0fa2c8	0.03506735
169	0xbe1ac8cf	-0.15115665
170	0x3e7c88c0	0.24661541
171	0xbe61157f	-0.21980856
172	0xbdfcd9c1	-0.12346221
173	0x3e715ac1	0.23569776
174	0xbd46f79a	-0.048575975
175	0x3e7a14e1	0.24422027
176	0xbd602fa5	-0.054732937
177	0x3e0d22f1	0.1378286
178	0xbe794091	-0.24341036
179	0x3d3076e0	0.043082118
180	0x3d861ef0	0.065488696
181	0xbd8009af	-0.06251847
182	0xbdfe22b1	-0.124089606
183	0xbe6dc8ff	-0.23221205
184	0x3de1b2c5	0.11020426
185	0xbdaf4c11	-0.085594304
186	0x3e30833a	0.17237559
187	0x3e37e42a	0.17958131
188	0x3e1a801f	0.15087937
189	0x3d972e20	0.073818445
190	0xbe43c2ef	-0.1911733
191	0x3e333440	0.175004
192	0xbe3cc206	-0.18433389
193	0xbc386b21	-0.01125601
194	0xbdb71d2a	-0.089411095
195	0x3e1b1ea0	0.15148401
196	0x3e1dd15f	0.154119
197	0xbe3be1bf	-0.18347834
198	0x3e24b967	0.1608635
199	0x3dbebce1	0.093133695
200	0x3da5acef	0.08089625
201	0xbdf652f1	-0.120275386
202	0xbe1f327f	-0.15546606
203	0xbe6b85df	-0.23000287
204	0xbe36c3af	-0.17848085
205	0xbe51f74f	-0.20504497
206	0x3ccc2440	0.02491963
207	0x3e36f34f	0.17866252
208	0x3e62272b	0.22085254
209	0xbe0d60c0	-0.13806438
210	0xbe02b6bf	-0.12765025
211	0x3e61549f	0.22004937
212	0x3cbcea30	0.023060888
213	0xbd893819	-0.06700153
214	0x3e003cc0	0.12523174
215	0xbe431b1f	-0.19053315
216	0xbe3137f1	-0.17306496
217	0xbe114c8f	-0.14189361
218	0xbdc1c85a	-0.09462042
219	0x3d8c3699	0.06846351
220	0xbe02a96f	-0.12759946
221	0x3e7c196f	0.24619077
222	0xbe4ea395	-0.20179589
223	0xbe1188b0	-0.14212298
224	0x3e336766	0.17519912
225	0x3e749e41	0.23888494
226	0xbe6e9671	-0.23299576
227	0xbe4735da	-0.19454136
228	0xbe00c547	-0.12575255
229	0xbdc55381	-0.09635068
230	0xbe5a6780	-0.21328545
231	0x3dd30f25	0.10305623
232	0x3d924058	0.07141179
233	0x3d9afea0	0.07568097
234	0x3d5ac8d0	0.053414166
235	0x3e68ef11	0.22747447
236	0xbd94c118	-0.07263392
237	0xbe339836	-0.17538533
238	0x3d433d86	0.047666095
239	0x3e19c980	0.15018272
240	0xbe617750	-0.2201817
241	0xbd91ae0f	-0.07113277
242	0xbb19780f	-0.0023417508
243	0x3d6521c1	0.055940393
244	0xbc9611e0	-0.01831907
245	0xbd9c325f	-0.07626795
246	0x3b65ce80	0.003506571
247	0x3d574135	0.05255242
248	0xbd0f6820	-0.03501141
249	0xbdc8866f	-0.09791266
250	0x3de2c125	0.11071996
251	0x3d478a91	0.04871613
252	0x3e4c767f	0.19967078
253	0x3d94d9a0	0.07268071
254	0xbe0b8641	-0.13625433
255	0xbdb27e30	-0.087154746

lstm_cell.weight_ih f4 [256, 192]
0	0x3e005b7f	0.12534903
1	0x3e3cff30	0.18456721
2	0xbd9147b1	-0.07093752
3	0x3c993e08	0.018706337
4	0x3d293789	0.041312728
5	0xbe393106	-0.18085107
6	0x3d3aa8c1	0.045571093
7	0x3d8b63b7	0.068061285
8	0xbdd4159b	-0.103556834
9	0xbccef2ef	-0.025262324
10	0x3db3f1a6	0.08786325
11	0x3e10f679	0.14156522
12	0x3e0bc4ff	0.13649367
13	0x3e49821b	0.19678538
14	0x3bb0dd80	0.0053974986
15	0xbe4f7321	-0.20258762
16	0x3d1c4fb7	0.03816196
17	0x3e2c0711	0.1679957
18	0xbc43652f	-0.0119259795
19	0x3e01fc47	0.12693892
20	0x3de0b2c5	0.109715976
21	0x3c272781	0.01020229
22	0x3d2d8a16	0.042368017
23	0x3d71c27f	0.059023377
24	0xbd12ad20	-0.035809636
25	0x3dfc62ff	0.123235695
26	0x3deebe41	0.11657382
27	0x3e34ae3a	0.17644587
28	0xbd3f8cb1	-0.046765033
29	0xbeb89ea6	-0.3605854
30	0x3e4497ef	0.19198583
31	0xbd4783b6	-0.048709594
32	0xbc3c7130	-0.011501595
33	0x3e3a7926	0.18210277
34	0xbe4a3dc6	-0.19750127
35	0x3e21d999	0.15805663
36	0x3c869481	0.016428234
37	0xbdfe2db1	-0.12411059
38	0x3d26c3bf	0.04071402
39	0xbd0f3058	-0.034958214
40	0xbe0f93cf	-0.14021228
41	0x3dce3400	0.10068512
42	0x3dc7f1bf	0.09762906
43	0x3e0b2d48	0.13591492
44	0x3e4bdda6	0.19908771
45	0xbc359ca1	-0.0110847065
46	0x3da11fb7	0.07867377
47	0xbd3ddc50	-0.046352684
48	0xba3a543a	-0.00071078876
49	0xbc511e30	-0.012763545
50	0xbd2801a0	-0.041017175
51	0x3dd8eb8b	0.10591801
52	0x3da9be31	0.08288229
53	0x3e1e7157	0.15472923
54	0x3e469c6a	0.19395605
55	0xba144d88	-0.0005657305
56	0x3df06640	0.11738253
57	0x3e28a871	0.16470505
58	0xbab0bc61	-0.0013483876
59	0x3e5b15c1	0.21395017
60	0x3e1bac4f	0.1520245
61	0x3ded5ba0	0.11589742
62	0xbd5f82cb	-0.054568093
63	0x3d97a7a1	0.074050196
64	0xbf819db5	-1.0126253
65	0x405ca030	3.447277
66	0x4028c1d7	2.636831
67	0x40363e4e	2.8475528
68	0x4014bd6d	2.3240616
69	0x40b6e4f0	5.7154465
70	0x40e614d0	7.1900406
71	0xbdbd541f	-0.092445605
72	0x40b67835	5.7021737
73	0x40f325cc	7.598364
74	0x40f02f00	7.5057373
75	0x40d39abc	6.6126385
76	0x40cc2e3c	6.380644
77	0x40d7c0dc	6.7422924
78	0x410c8315	8.782002
79	0x40f4c56f	7.649101
80	0x40fcfb18	7.905651
81	0x40d9533d	6.791411
82	0x40ef0425	7.469256
83	0x40ed0364	7.406664
84	0x40ed0a87	7.407535
85	0x3dad02da	0.084478095
86	0x410607ae	8.376875
87	0x40ac3ba5	5.382281
88	0x40e602e1	7.1878514
89	0x40e60aef	7.1888347
90	0x40e0cb43	7.024812
91	0x41017c6d	8.092877
92	0x40ea63af	7.3246684
93	0x3be4e540	0.0069853365
94	0x3d443946	0.047906183
95	0x3d8f56a1	0.06998945
96	0xbd3ad6d1	-0.04561502
97	0xbdabe42a	-0.08393128
98	0x3d37e85f	0.04489934
99	0x3d09ef71	0.033675615
100	0x3dc09c9f	0.09404873
101	0x3d2a1f01	0.041533474
102	0xbdd439e1	-0.10362602
103	0x3b964920	0.004586354
104	0x3d90d801	0.070724495
105	0xbbfdf660	-0.0077503175
106	0xbdefb29f	-0.11703991
107	0xbde5c3c1	-0.11218978
108	0x3b6c8f00	0.0036095977
109	0xbd026670	-0.031835973
110	0x3c6d14f0	0.014470324
111	0xbd555bc0	-0.052089453
112	0xbd978ea0	-0.074002504
113	0x3d0585bf	0.032598253
114	0xbcfb6be0	-0.030691087
115	0x3b93c300	0.00450933
116	0xbc5366e0	-0.012902945
117	0xbda60c3f	-0.081078045
118	0xbdb12606	-0.086498305
119	0xbdf683b1	-0.12036837
120	0x3dc6feef	0.097165935
121	0x3c3c5ac0	0.011496246
122	0xbdb7b986	-0.08970933
123	0x3de854ff	0.11344337
124	0xbdae37bf	-0.085067265
125	0xbde67a0f	-0.112537496
126	0x3d431d41	0.04763532
127	0xbd90af08	-0.070646346
128	0xbcfec641	-0.031100394
129	0x3ffc17e6	1.9694793
130	0x3fa688ac	1.3010459
131	0xbef75d32	-0.4831329
132	0xbf065a9b	-0.52482
133	0x401762e6	2.3654113
134	0x3dd474ff	0.10373878
135	0x4059a507	3.4006975
136	0x40d4ff28	6.656147
137	0x40bb5dfe	5.8552237
138	0xbdc43a81	-0.09581471
139	0x40ec0c30	7.3764877
140	0x40f6fcbc	7.7183514
141	0x40f9a495	7.8013406
142	0x3dd49611	0.103801854
143	0x41062609	8.384286
144	0x411118cd	9.068555
145	0x41008019	8.031274
146	0x40f21dac	7.566122
147	0x40e553cb	7.1664786
148	0x40dc2a24	6.880144
149	0x40ced086	6.4629545
150	0x3c1f2c00	0.00971508
151	0x410470d7	8.277549
152	0x40cfe71e	6.4969625
153	0x40607aeb	3.5075023
154	0x3d6c5931	0.057702247
155	0x40e22b8d	7.0678163
156	0x40851573	4.1588683
157	0x4109bb9c	8.608303
158	0x3de2a70f	0.1106702
159	0x3d53d8b1	0.051720325
160	0x3d616a5b	0.05503307
161	0x3da2ade7	0.079433255
162	0xbdd73c1b	-0.10509511
163	0xbd4aa5da	-0.049474575
164	0xbdb738cf	-0.08946382
165	0xbdba409a	-0.09094353
166	0xbc5e2f70	-0.013561115
167	0xbddf3325	-0.10898427
168	0x3d49ca8f	0.04926544
169	0x3dea34df	0.114358656
170	0x3d912fff	0.07089233
171	0xbd24eebf	-0.04026675
172	0xbd023c11	-0.031795565
173	0x3d597565	0.05309047
174	0x3db6e1bf	0.089297764
175	0xbdc416d0	-0.09574664
176	0xbda6f849	-0.081528254
177	0xbd3da38f	-0.04629856
178	0xbd8ef498	-0.06980246
179	0x3d2cbaa6	0.04217019
180	0xbdf87be1	-0.12133003
181	0x3db95850	0.090500474
182	0xbb3efe40	-0.0029143244
183	0x3de36271	0.111027606
184	0x3d243bf1	0.040096227
185	0xbd834e21	-0.06411386
186	0xbd108a00	-0.035287857
187	0xbdac2466	-0.0840538
188	0x3d1e4359	0.038638446
189	0xbda8a7b1	-0.082351096
190	0x3df24e81	0.1183138
191	0x3db6944f	0.08915006
192	0x3d3effff	0.046630856
193	0x3d20859f	0.03918993
194	0x3f0dbf97	0.5537047
195	0x3dcf7e81	0.101315506
196	0x3db29266	0.087193295
197	0xbe128879	-0.14309873
198	0xbc64e171	-0.013969765
199	0x3cf95b6f	0.030439107
200	0xbc617dd0	-0.013762906
201	0xbce7dc60	-0.028303325
202	0x3dfb6741	0.122755535
203	0x3bdb4235	0.006691242
204	0xbd0dcd27	-0.034619477
205	0x3ec69cff	0.38791654
206	0xbda80d77	-0.08205693
207	0x3f17b5d1	0.59261805
208	0x3c8b5eb9	0.01701294
209	0x3d56fee1	0.052489165
210	0xbd00c661	-0.03143919
211	0x3df09701	0.11747552
212	0x3e3dbd0a	0.18529144
213	0x3da38800	0.07984924
214	0xbd4cdf81	-0.050017837
215	0x3e330f16	0.17486224
216	0x3d7ebee0	0.06219375
217	0x3d603d6f	0.054746088
218	0x3c0ed530	0.00871782
219	0x3e97c481	0.29642108
220	0xbc0bf819	-0.008543038
221	0x3f330720	0.69932747
222	0x3f14b019	0.58081204
223	0x3d291489	0.04127935
224	0x3d88523f	0.06656312
225	0xbd561cfb	-0.05227373
226	0x3f5693e1	0.83819395
227	0xbd327d5f	-0.043576594
228	0xbd47da9b	-0.048792463
229	0x3ddda1db	0.10821887
230	0xbcd914e0	-0.026499212
231	0x3c8273b8	0.01592432
232	0x3f2dd410	0.67901707
233	0x3cc718e0	0.024303854
234	0x3f4467ab	0.76720685
235	0x3e03a691	0.12856509
236	0x3eb31bbf	0.34982106
237	0x3e061289	0.13093008
238	0x3d491d71	0.049100343
239	0x3d9fe8a7	0.07808047
240	0xbdad433f	-0.08460092
241	0x3d14abc8	0.036296636
242	0x3eb69dcf	0.35667273
243	0xbe2b46bf	-0.16726206
244	0xbdbfefef	-0.093719356
245	0xbd960d89	-0.073268004
246	0x3debdfa1	0.11517263
247	0x3cd6b131	0.026207538
248	0xbd9fa787	-0.07795625
249	0x3e0b6439	0.1361245
250	0x3e21e4c1	0.15809919
251	0x3d6178db	0.055046897
252	0x3d51d5bf	0.051229235
253	0xbd620ebf	-0.055189844
254	0xbce5e11f	-0.028061448
255	0x3d035471	0.03206295

lstm_cell.weight_hh f4 [256, 64]
0	0x3ed9bdb8	0.42527556
1	0x3ebaa432	0.36453396
2	0x3f88e0da	1.0693619
3	0xc08577ff	-4.170898
4	0x3fa99821	1.3249551
5	0xc0356fd8	-2.8349514
6	0xc019f6af	-2.4056814
7	0x401b68ba	2.428267
8	0x405db161	3.4639513
9	0x3f3ed9de	0.7455119
10	0x3ee64442	0.44973952
11	0xbf9ff2b9	-1.2495948
12	0xbd5e97e3	-0.05434407
13	0xbfbc52bb	-1.4712747
14	0xbfec246e	-1.8448617
15	0xbe76b9b8	-0.24094284
16	0xbf4a23c7	-0.7896084
17	0x3f0f5a9c	0.55997634
18	0xc04a8940	-3.164627
19	0xbfc6a753	-1.5519813
20	0xbd87805d	-0.0661628
21	0x40265ce0	2.5994186
22	0x4023547d	2.5520318
23	0xbf41c0ac	-0.7568462
24	0x3efa0a40	0.48835945
25	0x401fb1cc	2.4952269
26	0xc01e2565	-2.4710324
27	0x3f629579	0.8850933
28	0xbe4b6811	-0.19863917
29	0xc039274d	-2.8930237
30	0xbff7cdfd	-1.9359738
31	0x3daf7009	0.08566291
32	0x3f98d03a	1.1938546
33	0xbff96523	-1.948399
34	0xbec5a633	-0.38603362
35	0x3f66d101	0.90162665
36	0x401d5853	2.458516
37	0xbfb0bf38	-1.3808355
38	0x3e56836b	0.2094857
39	0xc0106e0f	-2.2567174
40	0x3f9b898c	1.2151351
41	0xbd665c23	-0.056240212
42	0xc03340b0	-2.8008232
43	0xbf8fc32d	-1.1231438
44	0xbfa35fad	-1.2763573
45	0xbfeee599	-1.8663818
46	0x3f1645ac	0.5870006
47	0x3fc8ab59	1.5677291
48	0x3ee56924	0.44806778
49	0x4006afd1	2.104481
50	0xc001e87b	-2.0298145
51	0x3f363cbd	0.7118643
52	0x3fb9a9aa	1.4504902
53	0x3fc46e6d	1.5346199
54	0xc0173f4a	-2.3632379
55	0x40435a17	3.0523736
56	0x3fa61ff3	1.29785
57	0xc01787f8	-2.3676739
58	0x3f73b040	0.9519081
59	0x3e9fccbe	0.31210893
60	0x4036c6f1	2.8558924
61	0x3fa065a3	1.2531017
62	0x3ef907f9	0.48638895
63	0x403675f6	2.8509498
64	0x3ed6aed7	0.41930267
65	0xbee0b338	-0.43886733
66	0x3d71c934	0.059029773
67	0x3e9893fd	0.29800406
68	0xc00d550e	-2.2083163
69	0xc0322f45	-2.784135
70	0x3f0ec291	0.55765635
71	0x3eaceb99	0.33773497
72	0xc00309d1	-2.0474741
73	0xbf88e582	-1.069504
74	0xbf2decd7	-0.67939514
75	0xbf1e18ec	-0.6175678
76	0xbf82bcdc	-1.0213885
77	0xbf043fab	-0.5165965
78	0xbe61d2aa	-0.22053018
79	0x402e950f	2.7278478
80	0xbf163385	-0.5867236
81	0xbf7c538d	-0.9856499
82	0xbf4be701	-0.7964936
83	0xc0179734	-2.3686037
84	0xbf3ad823	-0.7298605
85	0x3feaf994	1.8357415
86	0x3eb78891	0.3584638
87	0x3f6f0ccd	0.9337891
88	0x3f926908	1.1438303
89	0xbe86e980	-0.2635002
90	0xc0167b91	-2.351292
91	0xc0791f21	-3.892525
92	0xbf466300	-0.7749481
93	0xbeaf9a18	-0.34297252
94	0xc00c45dc	-2.1917639
95	0xbf719216	-0.94363534
96	0x3e34f962	0.17673257
97	0x3fc64a74	1.5491471
98	0xc0682d53	-3.6277664
99	0x4005be70	2.0897484
100	0x3fd081df	1.6289634
101	0xbed6a37b	-0.419216
102	0xbd8f4e23	-0.06997325
103	0x403cdd6b	2.9510143
104	0xbf8b71db	-1.0894121
105	0xbf52d1af	-0.823512
106	0x40931ac5	4.597018
107	0x3f24c22d	0.6435879
108	0xbfc1761e	-1.5114172
109	0xbe992159	-0.29908255
110	0xbfb4094a	-1.4065335
111	0xbf5c5514	-0.8606732
112	0x408156b8	4.041836
113	0xc0005cf1	-2.0056727
114	0x3f9e2cf6	1.2357471
115	0xc00a6d25	-2.1629117
116	0x3e68c580	0.2273159
117	0xbe43b4e1	-0.19111969
118	0xc04e31c4	-3.2217875
119	0xbda3a224	-0.0798991
120	0xbddb7a50	-0.10716689
121	0xbfef45b7	-1.869315
122	0x3fe238a6	1.7673538
123	0x3f21e5d2	0.632413
124	0x3fcee2c5	1.6162955
125	0xbf949ecb	-1.161096
126	0x3df93346	0.12167983
127	0xbff9780b	-1.9489759
128	0x40296ffb	2.6474597
129	0x3f7a76c5	0.9783748
130	0x3ec1f6cc	0.37883604
131	0x3edd2188	0.43189645
132	0x408d740f	4.4204173
133	0x3eaaba5d	0.3334531
134	0x3eaaa0c9	0.33325794
135	0xbff9dd66	-1.952069
136	0x40084916	2.1294608
137	0xc01b2e7a	-2.4247117
138	0x3fd8e151	1.6943761
139	0x3c7204f5	0.01477169
140	0xbda1ce12	-0.07900633
141	0xbfadd631	-1.3580991
142	0xbff15285	-1.8853308
143	0xbf2c6a60	-0.67349815
144	0x3fc9dddd	1.5770832
145	0x3f373dab	0.7157847
146	0xbf02c66a	-0.51084006
147	0xbff8b436	-1.9429996
148	0x4074283d	3.814956
149	0x3ee8122c	0.45326364
150	0x3fba1470	1.4537487
151	0x3fc50319	1.539157
152	0x3f1fce44	0.6242411
153	0x3fb97621	1.4489175
154	0x3fd4419d	1.6582524
155	0xbea992ea	-0.331199
156	0xc0015183	-2.0206
157	0x402361f7	2.5528543
158	0x3f5c91ff	0.8616027
159	0x3f8e9693	1.1139702
160	0x3fc543b9	1.5411292
161	0xbfc30fb7	-1.5239171
162	0xbd7e14f7	-0.062031712
163	0xbf79c827	-0.97571033
164	0x3fe3c789	1.7795268
165	0x3ff1663d	1.8859326
166	0x3f9e101e	1.2348669
167	0x401fd291	2.497227
168	0xc00f7a2e	-2.2418323
169	0xbef48eb2	-0.47765118
170	0xc01a1fb9	-2.4081862
171	0xbee8f71d	-0.45501032
172	0x3fe896dd	1.817104
173	0xc04b64d8	-3.17803
174	0x3f4be76c	0.79649997
175	0x3f8a225c	1.0791736
176	0x3e4f0103	0.2021523
177	0xc08b0869	-4.3447766
178	0x3f6cc5a8	0.924891
179	0x3f66aeb9	0.90110356
180	0xc07a7959	-3.9136565
181	0x3f8f2c0f	1.1185321
182	0x3f53909d	0.8264254
183	0x3f927e34	1.1444764
184	0x3fdeeaac	1.7415366
185	0x3ea2fee2	0.31835085
186	0xbf53ddd2	-0.82760346
187	0x3f7ec086	0.9951252
188	0x403b420b	2.925906
189	0xbf9f7e60	-1.2460442
190	0xbedee272	-0.4353214
191	0xbfc7e5c9	-1.5617
192	0xbfd0054f	-1.625162
193	0x3f823228	1.0171556
194	0xbeac3dae	-0.33640808
195	0x3e56079e	0.20901343
196	0xbf2c8ede	-0.674055
197	0x3e4ae235	0.19812854
198	0xbf72e5e1	-0.9488202
199	0xbfebeb1f	-1.8431128
200	0xc04bfce9	-3.1873114
201	0x3fde3ed7	1.7362927
202	0xbfc579cc	-1.5427794
203	0xbf985271	-1.1900159
204	0x3f7db941	0.991108
205	0xbf46661b	-0.7749955
206	0x3e535e7b	0.2064151
207	0xbe871600	-0.26383972
208	0x3de046d6	0.10951011
209	0x3ffd3702	1.9782412
210	0x3ff37c95	1.9022394
211	0xbda96781	-0.08271695
212	0xbf84d304	-1.0376897
213	0xbf155b13	-0.58342093
214	0x3dbaab03	0.09114649
215	0x3ea668db	0.32501873
216	0x4034f780	2.8276062
217	0x3cd0f445	0.025507102
218	0x3f195773	0.5989906
219	0x4028e4cb	2.6389644
220	0x401cac4a	2.4480157
221	0x3fb87ea3	1.4413646
222	0xbdfcf2c9	-0.12350995
223	0xc095bb7b	-4.679136
224	0xbfe66d6a	-1.800214
225	0xbf601755	-0.875356
226	0x3fa2f524	1.2731061
227	0x3ee73afd	0.45162192
228	0x3fb14910	1.3850422
229	0xbe9d2e91	-0.3069959
230	0x4023ffc6	2.5624862
231	0x3f3b5517	0.7317671
232	0xbe419c0b	-0.18907182
233	0x403608fc	2.8442984
234	0xc03a5942	-2.9116979
235	0xc03a4c66	-2.910913
236	0x40044b1b	2.067084
237	0xbeb6dc22	-0.35714823
238	0x4031c3fd	2.7775872
239	0x3f4e515e	0.80592906
240	0x402a3970	2.6597557
241	0x3d397d5b	0.045285564
242	0xbf1b31b0	-0.6062269
243	0x3eebac66	0.46029967
244	0x3d04424a	0.03228978
245	0xbf4bddee	-0.7963551
246	0x3e9c213f	0.30494115
247	0xc01b7095	-2.4287465
248	0xbe8ea4c9	-0.27860096
249	0x4000f935	2.0152104
250	0xc04f7e5a	-3.242087
251	0xbeeb3ca3	-0.459447
252	0xbf9f79e8	-1.2459078
253	0xbf8d3f00	-1.1034851
254	0x3efe316a	0.49647075
255	0xc0233805	-2.5502942

lstm_cell.bias_ih f4 [256]
0	0xbfa2a45b	-1.2706407
1	0x3fd5db31	1.6707517
2	0x3f16fcc9	0.5897947
3	0x404d1694	3.204503
4	0x403ddf80	2.9667664
5	0x4051ffee	3.2812457
6	0x3f864521	1.0489846
7	0x402951b4	2.6456118
8	0x3f3718ac	0.7152202
9	0x3f29ba4d	0.662999
10	0x404f2a44	3.2369547
11	0x400a1825	2.1577237
12	0xc0740c72	-3.8132596
13	0x3cc024dd	0.023455078
14	0xc040abf2	-3.0104947
15	0x3db9c99f	0.09071659
16	0x403d0040	2.9531403
17	0xc01381de	-2.3048015
18	0xc03218b6	-2.7827582
19	0x3f5e8bbb	0.8693196
20	0xbfb4a285	-1.4112097
21	0xc08176a1	-4.045731
22	0xbfd31e34	-1.6493592
23	0x3eac983a	0.3370989
24	0x3fe6cb30	1.8030758
25	0xbf8fae41	-1.1225053
26	0x3f5e5536	0.8684877
27	0x3f9496b6	1.1608493
28	0xbf3ca4fe	-0.7368926
29	0x401e8d7d	2.4773858
30	0x401bef04	2.4364634
31	0x3e830e1e	0.25596708
32	0x3fcc5925	1.5964705
33	0x3feb7c13	1.839724
34	0xbf039fb6	-0.51415575
35	0xbfa38b6f	-1.2776927
36	0xbf16171d	-0.5862902
37	0x3fae842f	1.3634089
38	0xbe59eb55	-0.21281178
39	0x3fd20748	1.6408472
40	0x3ef7ca76	0.48396653
41	0x3f5abf88	0.85448503
42	0x3f3c6f10	0.7360697
43	0xbfbdf9f3	-1.4841903
44	0xc09983d4	-4.7973423
45	0xbfd80a94	-1.6878228
46	0x3f3e17a1	0.74254805
47	0xbd46fccd	-0.048580933
48	0xc08d381e	-4.4131002
49	0xc00a185e	-2.1577373
50	0xc035d6ea	-2.8412423
51	0x3f1ff54b	0.6248366
52	0xc01d0aa2	-2.453774
53	0xbfe815c0	-1.8131638
54	0xbe174ed6	-0.14776167
55	0xbde570c3	-0.11203148
56	0xc00ae945	-2.1704876
57	0xc043a9fa	-3.0572495
58	0x3fa62c75	1.2982317
59	0x3f2ffa28	0.68741083
60	0x3f643437	0.89142174
61	0x404ccdb7	3.2000558
62	0x40127f65	2.2890255
63	0xc037bf27	-2.871042
64	0xbf933c5a	-1.1502793
65	0xbf2d9443	-0.67804354
66	0xbeac78c8	-0.336859
67	0x3f601368	0.8752961
68	0xbfc674ac	-1.5504355
69	0x3e97c43c	0.29641902
70	0x3f770323	0.9648916
71	0xc0151874	-2.3296175
72	0x3f6397a5	0.88903266
73	0xbf8933be	-1.0718915
74	0xc056b77c	-3.354949
75	0xc0242d95	-2.565282
76	0x3f4048c0	0.7511101
77	0x3d150ffd	0.0363922
78	0xbff29f41	-1.895485
79	0x3e9be254	0.30446112
80	0xbf749004	-0.9553225
81	0x3eeffb16	0.4687125
82	0xbf1e933f	-0.6194343
83	0x4005b850	2.0893745
84	0xc02f6716	-2.7406669
85	0x3f4882f0	0.78324795
86	0xc02bc1ad	-2.683696
87	0xbf9f1a69	-1.2429935
88	0x3f4a0001	0.78906256
89	0xbf28af8d	-0.6589287
90	0x3e5bf208	0.21479046
91	0xbee1a298	-0.44069362
92	0xbfacd838	-1.3503485
93	0xbf831fb6	-1.0244052
94	0x3e963773	0.2933918
95	0xbf5eaaf0	-0.8697958
96	0xbd940c41	-0.072289
97	0xc03977a4	-2.8979273
98	0xbe35b680	-0.177454
99	0xc054ed85	-3.326997
100	0x402795b4	2.6185122
101	0xbf6c8fd1	-0.92406946
102	0xbed87c1f	-0.42282197
103	0xbfd39f6e	-1.6533029
104	0xbfc658e8	-1.5495882
105	0x3fe4d32f	1.7876948
106	0x3f2fb997	0.6864256
107	0x3f0e8525	0.5567191
108	0xbec80b55	-0.39071146
109	0xc0094540	-2.1448517
110	0xbf841205	-1.0317999
111	0xbf6a14cf	-0.91438
112	0xbfa4544d	-1.2838227
113	0x3f80ab2e	1.005224
114	0xbf094c79	-0.53632313
115	0xc00f367e	-2.237701
116	0xc024b982	-2.5738225
117	0x3e80842a	0.25100833
118	0x3ee6d850	0.45086908
119	0xbfd2e61a	-1.6476471
120	0x4017e7c4	2.3735209
121	0x3fa80e5f	1.3129386
122	0xc087ae6b	-4.2400413
123	0x40073c54	2.1130571
124	0xbe44bd1e	-0.19212767
125	0xc0024202	-2.0352788
126	0x3f3cb592	0.73714554
127	0xbeee90a7	-0.46594736
128	0x403e3568	2.9720097
129	0xbead96df	-0.33904168
130	0xc0648dca	-3.571154
131	0xc011bb67	-2.2770631
132	0x3fc543ee	1.5411355
133	0xbf0b7fe3	-0.54492015
134	0x3f11e6f1	0.56993014
135	0xbfbafe8d	-1.4608933
136	0x401504f8	2.3284283
137	0xc0083bf0	-2.1286583
138	0x40791f92	3.892552
139	0x3f26ed72	0.6520606
140	0x3e5deac4	0.21671587
141	0x4038b0dd	2.8857949
142	0x3fdca81f	1.7238806
143	0xbf12cad5	-0.5734075
144	0x401ae8c8	2.4204578
145	0x409086a5	4.516436
146	0xc00bf697	-2.1869256
147	0x3e800c81	0.2500954
148	0xbf6933f6	-0.9109491
149	0x3e6d81a7	0.2319399
150	0x3f108d51	0.5646563
151	0x3f488dc6	0.7834133
152	0x3f27cc41	0.6554604
153	0xbf081f86	-0.531731
154	0x3d9b666a	0.07587893
155	0xbfe4f021	-1.7885782
156	0x3f552883	0.8326494
157	0x3f428219	0.75979763
158	0x40147ddd	2.320182
159	0x401c4112	2.4414716
160	0x3ff33f61	1.9003717
161	0xbfbc25bb	-1.4699014
162	0xbed8b1ea	-0.42323238
163	0x3ff73c42	1.9315264
164	0x3ff181b5	1.8867708
165	0xbe9b6fbf	-0.30358693
166	0x3fb48847	1.4104089
167	0x3eaa1e10	0.3322606
168	0xbebaea39	-0.36506823
169	0x3fdea7dd	1.7394978
170	0xbf10d474	-0.5657418
171	0x3ff1d5ba	1.8893349
172	0x3f3871cb	0.72048634
173	0xbbf2471b	-0.0073937303
174	0x4055c1c1	3.3399508
175	0xc0279a76	-2.6188025
176	0xbffe9730	-1.9889889
177	0x3eb5cd7c	0.35508335
178	0x3ed66027	0.41870233
179	0xbf271f14	-0.65281796
180	0xbf9081ad	-1.1289574
181	0xc032df01	-2.794861
182	0xbfb43166	-1.4077575
183	0xbfed2877	-1.8527974
184	0xbea1b021	-0.31579688
185	0x3fa40b5c	1.2815967
186	0xbf9fee7d	-1.2494656
187	0xbd8d1eec	-0.068906635
188	0xbfe92616	-1.8214748
189	0xbfabe0d7	-1.3427991
190	0x400069dd	2.0064614
191	0x3f2bb900	0.6707916
192	0xbe886cb0	-0.26645422
193	0xc085d3d4	-4.182108
194	0x3f200221	0.6250325
195	0x40a59faa	5.1757402
196	0xbf463fa1	-0.7744084
197	0xc00ecf29	-2.231394
198	0x3fcc2e13	1.5951561
199	0x3ff6eef1	1.9291669
200	0xbf9e18ca	-1.2351315
201	0x3f5cca08	0.86245775
202	0xc0042093	-2.0644882
203	0x40561284	3.34488
204	0xbf64722c	-0.8923671
205	0x3fda2a82	1.7044222
206	0xc0313569	-2.768885
207	0xbefe192f	-0.4962859
208	0xc01cea37	-2.4517953
209	0xbf2bdc36	-0.6713289
210	0xc01f6899	-2.4907591
211	0x3e06a518	0.13148916
212	0x3f962535	1.1730105
213	0xbf805bc3	-1.0028003
214	0x3fa85118	1.3149748
215	0x3f4d317b	0.80153626
216	0xbf2a4882	-0.6651689
217	0x3e18049d	0.1484551
218	0x3fee7146	1.8628318
219	0xc04fbc34	-3.245862
220	0x3ed086f7	0.4072797
221	0xbfc38b69	-1.527692
222	0x3fb58ba4	1.418324
223	0xbeddd6b9	-0.43327883
224	0xbf495a2b	-0.7865321
225	0x400a7ae5	2.163751
226	0xbe8e1d56	-0.27756757
227	0xbf9828b0	-1.1887417
228	0xbedfcc4e	-0.4371056
229	0x4034a796	2.8227286
230	0xc00cc339	-2.1994154
231	0x40452e86	3.0809646
232	0x3f0c2a92	0.5475246
233	0x40534eeb	3.3016918
234	0xbfdba6e9	-1.7160312
235	0x3fdd38c2	1.7282946
236	0xc01655d2	-2.348988
237	0xc08723e1	-4.2231297
238	0x3fe349f0	1.7756939
239	0xbf4ba8fe	-0.79554737
240	0xc04d2dc1	-3.2059176
241	0xbfdd3cfb	-1.7284235
242	0xbff8f5cf	-1.9450015
243	0xc00acab1	-2.1686213
244	0xbf549027	-0.8303246
245	0xbfd4a531	-1.6612912
246	0x400b5474	2.1770296
247	0xc01b4230	-2.4259148
248	0x40194b87	2.3952348
249	0xbf900a6b	-1.1253179
250	0x3e95fc97	0.29294273
251	0xc0135007	-2.3017595
252	0xbf36473a	-0.71202433
253	0x3f891414	1.0709252
254	0xc01bbd03	-2.4334114
255	0x3ec00df8	0.37510657

lstm_cell.bias_hh f4 [256]
0	0xbfa6c913	-1.3030113
1	0x3fe3c231	1.7793638
2	0x3ebd18d3	0.36933002
3	0x4048a505	3.135072
4	0x40427d20	3.038887
5	0x4052b1f4	3.2921114
6	0x3f7290d4	0.9475224
7	0x402b96c4	2.681077
8	0x3f3cb933	0.7372009
9	0x3f23fa7d	0.6405409
10	0x404f68d4	3.2407732
11	0x401232ce	2.2843509
12	0xc07e62d2	-3.9747815
13	0x3df66407	0.120307975
14	0xc036faf2	-2.8590665
15	0x3e058afb	0.13041298
16	0x403cc3f5	2.9494603
17	0xc01c675e	-2.443809
18	0xc03225d0	-2.783558
19	0x3f3eb647	0.74496883
20	0xbfb5d525	-1.4205672
21	0xc079ade1	-3.9012377
22	0xbfded06c	-1.7407355
23	0x3eb75fa6	0.3581516
24	0x3fe10210	1.7578754
25	0xbf9cc31f	-1.2247046
26	0x3f8ca750	1.098856
27	0x3f876f26	1.0580795
28	0xbf25caca	-0.64762557
29	0x401a6aad	2.412761
30	0x4025d284	2.5909739
31	0x3e841190	0.2579465
32	0x3fced5ab	1.6158956
33	0x3fe89233	1.8169616
34	0xbf1a2007	-0.6020512
35	0xbf99b2bf	-1.2007674
36	0xbf2cce5d	-0.67502385
37	0x3fc5f1bd	1.5464398
38	0xbe37b4bb	-0.17940037
39	0x3fdff24e	1.749582
40	0x3e8b5a10	0.2721715
41	0x3f6f1439	0.9339023
42	0x3f658a90	0.89664555
43	0xbfaf0628	-1.3673754
44	0xc09b47a4	-4.852495
45	0xbfd34672	-1.6505873
46	0x3f41cef1	0.7570639
47	0xbc1b31b5	-0.0094723
48	0xc08d4e26	-4.4157896
49	0xc006ad7e	-2.1043391
50	0xc02e9163	-2.7276237
51	0x3f29757b	0.66194886
52	0xc0296642	-2.6468663
53	0xbfec8f60	-1.8481255
54	0xbaf20704	-0.0018465226
55	0xbe491f22	-0.19640782
56	0xc0077ab5	-2.1168644
57	0xc03b7b91	-2.929417
58	0x3fa00bed	1.250364
59	0x3f110916	0.5665449
60	0x3f559996	0.8343748
61	0x404a835a	3.164267
62	0x4009be56	2.1522422
63	0xc032ff6f	-2.7968404
64	0xbf8505ea	-1.039243
65	0xbf08748d	-0.5330284
66	0xbe9b84a4	-0.30374634
67	0x3f72b87c	0.9481275
68	0xbfbdc92c	-1.4827018
69	0x3e97fce0	0.29685116
70	0x3f86272c	1.0480704
71	0xc0185285	-2.3800366
72	0x3f501685	0.8128436
73	0xbf9b6bee	-1.2142313
74	0xc05b210c	-3.423892
75	0xc0259ce5	-2.587701
76	0x3f2c1d67	0.67232364
77	0x3e85b191	0.26112035
78	0xbfda9330	-1.7076168
79	0x3eb52a96	0.35384053
80	0xbf949536	-1.1608036
81	0x3ec83164	0.39100182
82	0xbf08fed7	-0.53513855
83	0x400310d8	2.047903
84	0xc02ecec6	-2.7313704
85	0x3f287120	0.65797615
86	0xc02d4a5b	-2.7076633
87	0xbf9fa512	-1.247225
88	0x3f483030	0.7819853
89	0xbf13213d	-0.5747259
90	0x3e088a00	0.13333893
91	0xbef186f7	-0.47173283
92	0xbfa7fa80	-1.3123322
93	0xbf7cd2ab	-0.98758954
94	0x3e86cefd	0.26329795
95	0xbf6ad2a0	-0.9172764
96	0xbdd9ecfe	-0.10640906
97	0xc03a43a4	-2.9103785
98	0xbe66cb7a	-0.22538558
99	0xc04ca967	-3.1978395
100	0x402d0fd3	2.7040908
101	0xbf8448ab	-1.0334677
102	0xbe996ec4	-0.2996732
103	0xbfe24d54	-1.7679849
104	0xbfaf8990	-1.3713856
105	0x3ff17c3f	1.8866042
106	0x3f5a9a28	0.85391474
107	0x3f1bd8d5	0.60877734
108	0xbea5845b	-0.32327542
109	0xc004c3a0	-2.07444
110	0xbf8942b5	-1.0723482
111	0xbf6afeef	-0.9179525
112	0xbf85abcc	-1.0443053
113	0x3f7cb492	0.9871303
114	0xbeb349aa	-0.3501714
115	0xc0127710	-2.288517
116	0xc01e2842	-2.4712071
117	0x3e6687fe	0.22512814
118	0x3ec8858f	0.39164397
119	0xbfdae92a	-1.7102406
120	0x40132584	2.2991648
121	0x3fb19c4f	1.3875827
122	0xc0811782	-4.0341196
123	0x400a538c	2.1613493
124	0xbe4171dc	-0.1889109
125	0xc00840da	-2.1289582
126	0x3f19b1de	0.6003703
127	0xbecf9328	-0.4054196
128	0x403a15a9	2.907572
129	0xbf124fbc	-0.57152915
130	0xc064213a	-3.564528
131	0xc01505c5	-2.3284771
132	0x3fb6120e	1.422426
133	0xbf081ceb	-0.53169125
134	0x3eeb28ef	0.45929667
135	0xbfba49b7	-1.4553746
136	0x400ea7e0	2.2289963
137	0xc005f270	-2.0929222
138	0x40812c55	4.0366616
139	0x3f4252ca	0.75907576
140	0x3e889a3e	0.26680177
141	0x40395fdd	2.896476
142	0x3fc2c0ed	1.5215126
143	0xbf26a88d	-0.6510094
144	0x4026b1f1	2.6046107
145	0x408d4935	4.4151864
146	0xc01031b0	-2.2530327
147	0x3e46b8d8	0.1940645
148	0xbf5c7746	-0.86119497
149	0x3e4bfc30	0.1992042
150	0x3f0d5af9	0.5521694
151	0x3f2c083d	0.6720007
152	0x3f5f10b3	0.87134856
153	0xbf072c96	-0.5280241
154	0x3d859c63	0.06523969
155	0xbfe9acf1	-1.8255903
156	0x3f4d2c93	0.8014614
157	0x3f4f5718	0.8099227
158	0x4019dd85	2.4041455
159	0x401061a2	2.255959
160	0x3fe738a9	1.8064166
161	0xbfa5aa83	-1.2942661
162	0xbec57bfa	-0.3857115
163	0x3ffdb5c8	1.98211
164	0x3fe559d5	1.791804
165	0xbe825d18	-0.2546165
166	0x3fa4ba87	1.2869424
167	0x3e82e6d0	0.2556672
168	0xbeb20609	-0.3477023
169	0x3fd78c0d	1.6839615
170	0xbf1825f0	-0.5943289
171	0x3ff3ddda	1.9052079
172	0x3f42eb2b	0.7614009
173	0x3d3f3047	0.0466769
174	0x40546c21	3.3190997
175	0xc0236cd6	-2.5535178
176	0xc0061b54	-2.095418
177	0x3e83ba98	0.25728297
178	0x3ed2e2c7	0.41188642
179	0xbf1b080b	-0.6055915
180	0xbfaa357b	-1.3297571
181	0xc0316331	-2.7716792
182	0xbfa0f855	-1.2575785
183	0xbff27727	-1.8942612
184	0xbec54b7b	-0.3853415
185	0x3fb7a4fe	1.4347227
186	0xbfa0e255	-1.2569071
187	0xbdd45f28	-0.10369712
188	0xbffbc420	-1.9669228
189	0xbfc36976	-1.5266559
190	0x3fe431d8	1.7827711
191	0x3f222b41	0.6334725
192	0xbe5c2098	-0.21496809
193	0xc0848f69	-4.142506
194	0x3f1ed6c1	0.6204644
195	0x40aabb76	5.3353834
196	0xbf4d0dcb	-0.8009917
197	0xc00f12f9	-2.235533
198	0x3fb61f1c	1.4228244
199	0x3feb372b	1.8376211
200	0xbf8fa66a	-1.122266
201	0x3f4ee28a	0.8081442
202	0xc0032ef3	-2.0497406
203	0x404e2844	3.2212076
204	0xbf7ca42c	-0.98688006
205	0x3fd94240	1.6973343
206	0xc030ce14	-2.762578
207	0xbf2fd700	-0.6868744
208	0xc010a0f7	-2.2598245
209	0xbf410d36	-0.75410783
210	0xc018ff69	-2.390589
211	0x3e0f533e	0.13996598
212	0x3faf0d31	1.3675901
213	0xbf86e962	-1.0539973
214	0x3faf1277	1.367751
215	0x3f50d0db	0.8156869
216	0xbf3ac26d	-0.7295292
217	0x3e6235b5	0.220908
218	0x3fedf126	1.8589218
219	0xc0533d3e	-3.300613
220	0x3eee7502	0.46573645
221	0xbfc766cf	-1.557825
222	0x3fbcaabc	1.4739604
223	0xbf018bdb	-0.5060403
224	0xbf30af79	-0.6901775
225	0x400d808d	2.210971
226	0xbe5178e6	-0.20456275
227	0xbf83fea0	-1.031208
228	0xbee78bb2	-0.45223767
229	0x40354c16	2.832769
230	0xc00d475f	-2.2074811
231	0x404887a6	3.1332793
232	0x3f1a810a	0.6035315
233	0x40559591	3.3372538
234	0xbfca504a	-1.5805752
235	0x3fde4364	1.7364316
236	0xc01fd403	-2.4973152
237	0xc0885f41	-4.2616277
238	0x3fe090c0	1.7544174
239	0xbf2a6caa	-0.6657206
240	0xc04a0c52	-3.157002
241	0xbfe2461b	-1.7677644
242	0xbfe9c4ef	-1.8263224
243	0xc00715be	-2.110702
244	0xbf67e887	-0.90589184
245	0xbfc3f8d1	-1.5310308
246	0x400bb44c	2.1828794
247	0xc00f9978	-2.243742
248	0x400f4a77	2.23892
249	0xbf845c9b	-1.0340761
250	0x3e8d17f1	0.27557328
251	0xc00febb1	-2.2487605
252	0xbf41afb8	-0.7565875
253	0x3f876ea4	1.058064
254	0xc0285a58	-2.6305141
255	0x3ed136b4	0.40862048

linear0.weight f4 [32, 384]
0	0xbd51f901	-0.05126286
1	0x3cb4cbf6	0.022069912
2	0xbda9ee59	-0.08297414
3	0xbcc52fba	-0.02407061
4	0x3d9a9e8f	0.07549774
5	0x3d9c0f61	0.07620121
6	0xbdc3d89a	-0.09562798
7	0x3d5dc1ff	0.054140087
8	0x3d80a201	0.062809
9	0x3db31e10	0.08745968
10	0xbd3961d1	-0.0452593
11	0x3d3a0821	0.04541791
12	0x3d47e3b1	0.048801128
13	0x3d2b76a6	0.0418612
14	0xbdd1f925	-0.10252599
15	0xbdd524c5	-0.10407404
16	0x3d14355f	0.03618371
17	0xbd66dadf	-0.056361075
18	0xbd20aa40	-0.039224863
19	0x3cb170c1	0.02166021
20	0xbc17ef79	-0.009273403
21	0xbcf8feef	-0.030395
22	0xbcde624b	-0.02714648
23	0xbdc41666	-0.09574585
24	0xbdcd746b	-0.100319706
25	0xbd9a33df	-0.07529425
26	0xbcb2f84a	-0.02184691
27	0x3d42bf51	0.047545735
28	0x3dcb38ff	0.099229805
29	0xbc9ed1d1	-0.019387158
30	0xbdd0ac7f	-0.10189151
31	0x3dbc72eb	0.09201606
32	0xbdaed736	-0.08537142
33	0x3ccf65fb	0.025317183
34	0x3ce1a151	0.027542742
35	0x3d194a30	0.037424266
36	0xbdc27d61	-0.094965704
37	0xbd41e9ef	-0.047342237
38	0xbcb4bdd6	-0.022063177
39	0xbdcf0d61	-0.10109974
40	0x3d872139	0.065981336
41	0x3de37345	0.1110597
42	0x3d9ad89f	0.075608484
43	0xbc4894b1	-0.012242482
44	0xbd66c7e1	-0.056342963
45	0x3d83b9b7	0.06431907
46	0xbce29025	-0.027656624
47	0x3c27fe79	0.010253542
48	0x3dc03b85	0.093863524
49	0xbd0465e7	-0.032323744
50	0x3d3f9e4a	0.046781816
51	0xbd3c2ffa	-0.04594419
52	0x3c894da0	0.016760647
53	0xbdd703eb	-0.10498794
54	0x3c9d7240	0.019219518
55	0xbcd64bbf	-0.026159165
56	0xbd64170f	-0.055686053
57	0x3dd8d4df	0.10587477
58	0x3cf121c1	0.02943504
59	0x3d59f7c5	0.053214807
60	0xbd0e17d7	-0.034690704
61	0x3d9cb939	0.07652516
62	0xbd62b73b	-0.055350523
63	0x3cfe8971	0.031071397
64	0xbd0a0108	-0.03369239
65	0x3d775401	0.060382847
66	0xbd916c1f	-0.071007006
67	0xbd13a787	-0.03604844
68	0x3d808261	0.06274868
69	0x3d484866	0.04889717
70	0xbdcbc621	-0.099498995
71	0x3da53fdf	0.08068823
72	0x3d45428f	0.04815918
73	0x3da2707f	0.07931613
74	0xbd3b2601	-0.04569054
75	0x3d9eaca1	0.0774777
76	0x3dbf2a91	0.09334291
77	0x3dd93a05	0.106067695
78	0xbdc1289a	-0.09431572
79	0xbda95c77	-0.082695894
80	0x3d00dd2f	0.031460937
81	0xbda08019	-0.07836933
82	0xbdcf3a4b	-0.101185404
83	0x3c81f85f	0.015865503
84	0xbdb631e1	-0.088962324
85	0xbc340ff6	-0.0109901335
86	0xbd7d5e11	-0.061857287
87	0xbd965399	-0.07340164
88	0xbdc9226f	-0.09821021
89	0xbda614f7	-0.081094675
90	0xbdae4eff	-0.08511161
91	0x3dc4ab45	0.096029796
92	0x3ddfc0df	0.10925459
93	0xbd832ea1	-0.06405378
94	0xbda6b799	-0.08140487
95	0x3dc0448f	0.093880765
96	0xbd9261d7	-0.07147568
97	0x3d97e3e1	0.07416511
98	0x3d72f5ef	0.05931657
99	0x3ca04cc1	0.01956785
100	0xbd18da7f	-0.03731775
101	0xbdd7b1f5	-0.105319895
102	0xbc6a497f	-0.014299749
103	0xbd118c29	-0.035534058
104	0x3dc11d20	0.09429383
105	0x3c70f2bf	0.014706313
106	0x3c62766b	0.013822178
107	0xbd9bbedf	-0.07604765
108	0xbd954a59	-0.07289571
109	0x3de0e901	0.10981942
110	0xbd50bc3f	-0.050960775
111	0x3de1e481	0.11029912
112	0x3d8849c1	0.066546924
113	0xbcf8c2cf	-0.03036633
114	0x3db3db3a	0.087820485
115	0xbdaf5e3a	-0.08562894
116	0x3da51aa1	0.0806172
117	0xbd87b318	-0.06625956
118	0x3d25c341	0.04046941
119	0xbc49609f	-0.012291103
120	0xbdd8e465	-0.10590438
121	0x3dc070ca	0.09396513
122	0x3d78d961	0.060754184
123	0x3d9c42e1	0.07629944
124	0xbdc1602a	-0.0944217
125	0x3d1376cf	0.036001977
126	0xbd8e485f	-0.069473974
127	0x3daa0fe0	0.08303809
128	0xbc73d921	-0.0148833105
129	0xbd168139	-0.03674433
130	0xbd24c3b1	-0.04022569
131	0xbcd1c625	-0.025607178
132	0xbcc5fe36	-0.024169069
133	0xbdcb5556	-0.09928386
134	0xbdb22256	-0.08697955
135	0xbdde06eb	-0.10841163
136	0x3d3cfb00	0.04613781
137	0xbcb71096	-0.022346776
138	0xbcd5dcff	-0.026106356
139	0xbd238259	-0.03991923
140	0xbdde20e5	-0.10846118
141	0xbd6c3221	-0.057664994
142	0x3be8e0d0	0.007106878
143	0xbdd8bc2f	-0.10582768
144	0xbc8c1c17	-0.017103238
145	0xbc5dbfab	-0.013534467
146	0xbd717c3f	-0.05895638
147	0xbd40263a	-0.046911456
148	0xbd0912b8	-0.033465117
149	0xbd4dd0ff	-0.050248142
150	0xbdc6732b	-0.09689935
151	0xbd33ffa6	-0.043944977
152	0xbc708921	-0.014681132
153	0xbddda43f	-0.10822343
154	0x3d20c501	0.039250378
155	0xbda15107	-0.07876783
156	0xbd973ba1	-0.0738442
157	0xbda56729	-0.08076317
158	0xbd8e47f7	-0.0694732
159	0xbda80139	-0.08203358
160	0xbc0955f8	-0.008382313
161	0xbd9d3f7f	-0.076781265
162	0xbc800229	-0.01562603
163	0xbc9307c9	-0.017948048
164	0xbcced151	-0.025246294
165	0xbd43d5e1	-0.047811393
166	0xbc3b3eff	-0.011428594
167	0xbd21e4e7	-0.03952494
168	0xbd8e6547	-0.06952911
169	0x3d162287	0.03665402
170	0xbdc6d5ef	-0.09708773
171	0xbda10b59	-0.078634925
172	0xbd327fdf	-0.04357898
173	0xbddd0a4b	-0.10792979
174	0xbcf76b71	-0.0302026
175	0xbce5afe1	-0.028037967
176	0xbc96a430	-0.018388838
177	0x3d0028b1	0.031288806
178	0xbd80f127	-0.06295996
179	0xbcc8d13a	-0.02451383
180	0x3bebcbf0	0.007195942
181	0xbd03022f	-0.031984504
182	0xbd92f789	-0.0717612
183	0xbd49f276	-0.049303494
184	0xbc5d56e5	-0.013509487
185	0xbd7a8200	-0.061159134
186	0xbd8328c1	-0.064042576
187	0xbca90aa7	-0.020634962
188	0xbd9a3331	-0.07529295
189	0xbdc30485	-0.095223464
190	0xbda82319	-0.08209819
191	0xbdd1d20b	-0.10245141
192	0xbd3437f1	-0.043998662
193	0x3d0ea217	0.03482255
194	0x3c924d68	0.017859176
195	0xbcc93c4f	-0.02456489
196	0x3cd7a471	0.026323529
197	0xbc938ea8	-0.01801236
198	0xbd1b54df	-0.037922736
199	0xbc4bbcb1	-0.012435124
200	0xbc4ce500	-0.01250577
201	0xbc6a029f	-0.0142828515
202	0xbb7a8720	-0.0038227513
203	0x3d025988	0.031823665
204	0x39202300	0.00015271828
205	0x3d48cf5a	0.04902587
206	0xbcf3c6af	-0.029757826
207	0x3c6482bf	0.013947188
208	0xbc35e760	-0.011102527
209	0xbc680bc0	-0.014162958
210	0x3ce239af	0.027615396
211	0x3d475496	0.04866465
212	0xbcafbaba	-0.021451343
213	0x3c2edf81	0.010673405
214	0x3b9fc4e7	0.0048757675
215	0xbc7ff061	-0.015621276
216	0x3cd4bcfb	0.02596902
217	0x3c507985	0.012724285
218	0x3b563f40	0.0032691509
219	0xbce2244f	-0.027605204
220	0xbc81e55f	-0.015856443
221	0xbd20b357	-0.03923353
222	0xbd3fdb71	-0.046840135
223	0x3d1fb077	0.03898665
224	0xbbe1daf0	-0.0068925545
225	0x3cfbfac0	0.030759215
226	0x3d0a4818	0.03376016
227	0x3d0c7891	0.03429467
228	0xbc73c3ff	-0.014878272
229	0x3d01ceaf	0.03169125
230	0xbccc8bfb	-0.024969092
231	0x3caace8f	0.020850448
232	0x3d4bed31	0.04978675
233	0x3d1b800f	0.037963923
234	0xbc299299	-0.010349893
235	0xbd4ee5d1	-0.05051214
236	0xbd1de8df	-0.03855216
237	0x39342f00	0.00017183647
238	0x3d44a76f	0.04801124
239	0x3c7175f0	0.014737591
240	0xbd426111	-0.04745585
241	0x3d36074a	0.044440545
242	0xbbd73ce5	-0.0065685385
243	0xbd3d7a80	-0.046259403
244	0x3d0050df	0.031327125
245	0x3d37421f	0.044740792
246	0xbd0cd9f7	-0.034387555
247	0x3d03aca8	0.03214708
248	0x3d3d2586	0.046178363
249	0x3d42abcf	0.04752713
250	0x3d48c15f	0.049012538
251	0xbc4f5abb	-0.012655909
252	0x3caa329f	0.020776091
253	0x3d1fbc30	0.03899783
254	0xbc8ae207	-0.016953481
255	0xbb7f6300	-0.003896892

linear0.bias f4 [32]
0	0xbdd85dbf	-0.10564756
1	0xbe80cd80	-0.25156784
2	0xbc73f1ef	-0.014889224
3	0xbe8ee581	-0.27909473
4	0xbd43782f	-0.047722038
5	0xbddc4b25	-0.1075652
6	0xbcb8e636	-0.02257071
7	0x3ed3b784	0.4135095
8	0xbe23884f	-0.15969966
9	0xbdbb005a	-0.091309264
10	0xbee6df11	-0.4509206
11	0xbe8445b7	-0.25834438
12	0xbe8cce1f	-0.27501008
13	0xbece94d0	-0.4034791
14	0xbd80c649	-0.0628782
15	0xbe64064f	-0.22268032
16	0xbe902dd1	-0.28159955
17	0xbca082e1	-0.019593658
18	0xbe4b6b86	-0.19865236
19	0xbdb82ec0	-0.08993292
20	0xbd9eb027	-0.07748442
21	0xbc325c66	-0.010886287
22	0xbd1894c0	-0.037251234
23	0x3e141077	0.14459406
24	0xbdc198ef	-0.09452998
25	0xbe21dc5f	-0.15806721
26	0xbb891c48	-0.0041842796
27	0xbd5f5f8f	-0.05453449
28	0xbd7c7b3f	-0.061640974
29	0xbdabf73a	-0.08396764
30	0xbe7920cf	-0.24328922
31	0xbe79de0f	-0.24401115
