model/global_model_3.pth (torch, 330938 bytes, 17 tensors)

conv1.lin_l.weight f4 [16, 1]
00000000: 712a 22bf efad 5ebc 46ac 31bf 91ff 26bf
00000010: e14e 00bf 792b 8d3e 110e 56bf 9fd2 1bbe
00000020: d7b5 22bf ca61 ae3d 385f 88be 55af 60bf
00000030: 4534 513d 3fa2 f8be a191 c63e 618f e8be
-0.6334601 -0.013591274 -0.69403493 -0.65233713 -0.5012036 0.2757223 -0.83615214 -0.15217064
-0.63558716 0.085147455 -0.26635146 -0.87767535 0.05107524 -0.48561284 0.3878298 -0.4542189

conv1.lin_l.bias f4 [16]
00000000: 07cb 1ebe 59bf 173f ef69 8abf 5ac6 be3e
00000010: 1b0d e33e 80af 91be b5bd 51bf ba0f c83e
00000020: ffcb 2a3f 2a27 32bf 8fe3 213f 01f3 70bf
00000030: 1f43 ff3e 507c 84be e103 cabe d053 d9bd
-0.15507136 0.5927635 -1.0813578 0.37260705 0.44345936 -0.28454208 -0.81930095 0.39074498
0.66717523 -0.6959101 0.6323785 -0.94120795 0.49855897 -0.25876093 -0.39456084 -0.10611689

conv1.lin_r.weight f4 [16, 1]
00000000: d1bd 7fbf a187 00bf 161c 3d3e b14b 5bbf
00000010: 116b a5be b7e8 163f 1a56 38bf c06f ec3d
00000020: 8fee f9be 4049 51bf 2b62 57bf 1bd1 db3d
00000030: 3f2c 44bf e6b7 4bbf e951 8abe 8034 65bd
-0.9989901 -0.50206953 0.18467745 -0.8566237 -0.32308248 0.58948845 -0.7200638 0.11544752
-0.48814818 -0.81752396 -0.8413417 0.10733243 -0.76630014 -0.7957748 -0.27015617 -0.05595827

conv2.lin_l.weight f4 [64, 16]
00000000: b199 acbd 5f13 0f3e 9fb9 b8bc a891 0f3e
00000010: 883a 0abd 8104 62bd f047 17be d02f c83d
00000020: 5f6a fc3d 2f9a 3e3d 27c1 06be 1745 0f3e
00000030: a95e 9d3d 892e 243e 9f3d c3be 512e 42be
00000040: 4796 173e c7e1 93be 41ad a43d f16e 2d3e
00000050: 2f3d 903d 31a4 493d 613d a1bd 38c6 86be
00000060: 75f1 563e efe9 88be e167 72be 97ce 9cbd
00000070: 8117 61be a061 1bbe 172b 99be af1f e4bd
00000080: 21e9 85bd 560c b7bd 5f51 253e e079 60bc
00000090: 4088 bc3b df83 debb a558 e23d c16c 143e
000000a0: 26f3 b63d ef7e cabd c0a1 23bc 4566 c23d
000000b0: c705 8abd 81d2 04be 2005 96be 60d2 48be
000000c0: af3e f83d afa2 6abe cf22 c9bd 5157 e83d
000000d0: bf00 e93d 0992 90be 802a 913c 775c 1ebe
000000e0: b0fc be3c 5aef b6be c180 223e 40de 86bc
000000f0: df2e aabe 5ace 3f3e c0a3 d53d 71b9 febd
00000100: 8f6e 433e 3522 de3d e61a 3abe e751 a83d
00000110: a0d9 53bc f02b 5ebe 5009 2f3e ffbf a6be
00000120: 6ff4 1f3e 51d1 72be 00bc 7e3e e16c 80bd
00000130: 91d3 1dbe c117 23be ef7a a3be 8148 39be
00000140: ea9d 48be 41f9 8ebd 3fc6 84be 418a f4bd
00000150: 41a0 753e f83b 13be b087 debd 0a5b 2bbd
00000160: c147 743e df99 72be bf38 1b3e effa c2be
00000170: d9c7 a9be f0ea e83c 3149 e6be 9036 00be
00000180: 2168 53be b94e a3bd c57a dabd c086 9e3b
00000190: 01f7 51be 1f7f 9dbe e183 22be c115 8cbe
000001a0: a0d8 1c3c 715a 1c3e 2142 4abe 1acf 2c3e
000001b0: 0148 363e 0f5b 7e3e bfe4 0abe f073 e03c
000001c0: 11b3 e33d 0fa7 51be 4fc7 e9bd ef91 c8bd
000001d0: 00b4 0e3e 8153 0cbe 2170 2bbe cf28 91be
000001e0: dfc2 e7bd 215c bcbc 6ff2 3cbe 97a4 84be
000001f0: a117 aebd c183 cbbd 4fa0 4dbe 810e 18be
00000200: d067 f0bc f0c5 303d c182 01be 5a91 c2bd
00000210: 7002 073e df2c 07be bf44 7bbe 1fe8 f23d
00000220: f1a2 d73d c592 543e 0100 c43d 002c d8bb
00000230: 4100 7f3d f1dc 523e a04a 09bc 2124 1cbe
00000240: 10a9 4abd fab3 37be 17f4 973d 7136 913d
00000250: 9a3a 4bbe a1f0 67be 6b0f 5ebe 7f1a e3bd
00000260: d0e0 033d 6b3c d33d bfe3 76be f93e 9dbe
00000270: 264c bd3d a16b 713e 5f8d ec3d 0082 153d
00000280: 70d5 83bd 7094 ccbc 9115 083e 016d 153e
00000290: e675 45bd bf1b 4dbe 7041 edbd 0624 313e
000002a0: 4117 00be 0f5f 823d 0545 cf3d 1053 fcbd
000002b0: 1a8b 2ebe bfe5 573e 1ad7 2f3e 50e2 29bd
000002c0: a1da 45be d1ce 31be 0024 eb3c 5064 fe3d
000002d0: 2138 5f3e 1f17 b73d 60fa 623c 69a8 23be
000002e0: b1a5 183e a7d5 9f3a 4fd7 72be 3bff c0bd
000002f0: b1bd 8bbd 30b4 8c3c b761 9ebe 86b5 4bbe
00000300: cfb7 48be 9f04 0bbe 4f9f 9bbc 0f93 ffbd
00000310: a578 573e db62 d3bd e09e 143d bf69 25be
00000320: 8f84 02be 0a1a afbd cfb3 063e 19b8 193d
00000330: ab15 d33d e5cb 563d c724 163e a058 c13c
00000340: 6161 7abd 5f18 02be 8166 fbbc 11af 243e
00000350: 51ac c33d 5722 8b3d a082 24be e158 b93c
00000360: cf5f 353e 57b5 063e f61e 32be 2f29 afbd
00000370: 66b7 b33c 90d7 11bd aa76 b73c f03c 893d
00000380: 1fcc 413e e76c a23d 8652 3a3e f080 fe3d
00000390: 10ec 58be 1931 0cbe d04a 603e 10fa 99bc
000003a0: b763 0cbe af7a 6d3e e0a8 e93c 110f 0cbe
000003b0: 1b1e 5fbe 4041 e3bb 2f33 8a3d 65da 54bd
000003c0: 71b6 143e c7cc 8b3e 21ac 0f3e d047 3b3e
000003d0: e179 f33d 5118 c33c 803a 82bc ff02 5e3c
000003e0: cf51 64be 5769 8b3c 01c4 ed3d a72f 9c3c
000003f0: ff80 0cbc e10d cc3d 353f 5a3d 00ff e53b
-0.08427752 0.13972233 -0.022549449 0.14020407 -0.033747226 -0.055180077 -0.14773536 0.097747445
0.12324976 0.04653376 -0.1315962 0.139912 0.076840706 0.16033377 -0.3813295 -0.18962981
0.1480342 -0.28883192 0.08040858 0.16936852 0.0704292 0.04922885 -0.07873035 -0.26323104
0.20990546 -0.26740977 -0.23672439 -0.076565914 -0.21981622 -0.1517396 -0.29915687 -0.11138856
-0.065386064 -0.089379 0.16144322 -0.013700932 0.005753547 -0.0067906226 0.11052064 0.14494611
0.08933096 -0.09887492 -0.009987295 0.094921626 -0.06739383 -0.12970926 -0.29300785 -0.19611502
0.12121331 -0.22913621 -0.09821092 0.11344779 0.113770954 -0.28236416 0.01772046 -0.1546496
0.02331385 -0.35729486 0.15869428 -0.016463399 -0.33238885 0.1873106 0.104316235 -0.12437714
0.19085144 0.10846368 -0.18174323 0.08218747 -0.012930304 -0.21696448 0.17093396 -0.32568356
0.15620588 -0.2371266 0.24876404 -0.06270767 -0.15412737 -0.1592703 -0.31929728 -0.18094064
-0.1959149 -0.06981135 -0.259325 -0.11940432 0.23986913 -0.14378345 -0.10865724 -0.04183487
0.23855497 -0.2369151 0.15158366 -0.38082072 -0.33160284 0.02843234 -0.44977716 -0.12520814
-0.20645191 -0.079739995 -0.10667948 0.004837841 -0.20504381 -0.30761048 -0.1587062 -0.27360347
0.009573132 0.15268876 -0.19751789 0.16875878 0.17800905 0.24839424 -0.13563822 0.027399033
0.111181386 -0.20473884 -0.11414968 -0.097934596 0.13935852 -0.13703729 -0.16741993 -0.28351447
-0.113164656 -0.02299315 -0.18451856 -0.25906822 -0.085006006 -0.099372394 -0.20080684 -0.14849283
-0.029346377 0.043157518 -0.12647535 -0.0950038 0.13184524 -0.1320071 -0.24537943 0.1186068
0.105291255 0.20759113 0.09570313 -0.006597042 0.0622561 0.20592095 -0.008379608 -0.15248157
-0.049477637 -0.1793975 0.07419603 0.07090462 -0.19846573 -0.22650386 -0.21685569 -0.11089038
0.03219682 0.10314258 -0.24110316 -0.30712107 0.0924304 0.23576213 0.11550402 0.03650093
-0.06437194 -0.024973124 0.13289477 0.14592363 -0.04820814 -0.20030116 -0.11584747 0.17298898
-0.1250887 0.06365787 0.10120586 -0.123205304 -0.1704525 0.21083735 0.17171898 -0.041475594
-0.19321682 -0.1736405 0.02870369 0.12421477 0.21798755 0.08939957 0.013853639 -0.15982212
0.14906956 0.0012194411 -0.23714946 -0.09423681 -0.0682329 0.017175764 -0.30933926 -0.19893464
-0.19601367 -0.13575982 -0.018996863 -0.12479221 0.21042116 -0.103215896 0.036284328 -0.1615362
-0.1274588 -0.085498884 0.13154529 0.037529085 0.10306867 0.052440543 0.14662467 0.02360183
-0.061128024 -0.1270461 -0.030688526 0.16082408 0.09554351 0.06793659 -0.16065454 0.022625389
0.1771233 0.13155113 -0.17394623 -0.08552777 0.021938037 -0.035605967 0.02239545 0.06701076
0.18925522 0.07930928 0.18195543 0.124269366 -0.211838 -0.13690604 0.21903539 -0.018795997
-0.13709913 0.23191331 0.028522909 -0.13677622 -0.21788828 -0.0069352686 0.06748044 -0.05196609
0.14522721 0.2730467 0.14030506 0.18289113 0.11888481 0.023815306 -0.015897036 0.013550519
-0.22296833 0.017018003 0.116096504 0.019065691 -0.008575677 0.09963585 0.053282935 0.0070189238

conv2.lin_l.bias f4 [64]
00000000: 99e6 96bd 5fee f7bd d925 a6be 7674 bbbe
00000010: 0fac ddbd 8f1b b2be 4f9f 2c3e ff1e 4d3d
00000020: e0d7 503d 6049 4ebe 9096 4f3d 214d 093d
00000030: 6fa0 013e 01fd a13c af9d 56be affb 75be
00000040: 6799 9ebd 3f83 6cbe a0e6 95be a777 9cbe
00000050: 919f 71be 5af2 ac3d c5cf cdbd 1fa6 62bd
00000060: 4a8a 2f3e 11b2 1dbe d057 023e 211d cabd
00000070: 7731 88be fa90 ad3d 6181 94be f5e3 e0be
00000080: bf55 5abe 2f69 493e 55ae dfbd e768 28be
00000090: 7f69 9bbe e93e 213e f081 303e 506e e43d
000000a0: a718 22bd 7b52 dbbd 78f1 07bc 6962 16be
000000b0: cf71 e3bd c5dc cfbc f01e 53be 80a5 c6be
000000c0: a7f0 a1be 8677 b5be 41ca 0f3d a5ff 56be
000000d0: b124 acbd 0077 a9bd 29d5 1c3e c6e9 b63d
000000e0: c169 b0be b1f5 403e 7ffe f9bd 9aa6 3abe
000000f0: cfa2 b93d 1181 9f3d 1f2b 1c3e 297f 953c
-0.07368202 -0.121060126 -0.3245075 -0.3661229 -0.10823833 -0.3478665 0.16857646 0.05007839
0.050987124 -0.20145178 0.050680697 0.03352082 0.12658857 0.019773962 -0.20958589 -0.24021791
-0.07744103 -0.23096941 -0.29277515 -0.30560037 -0.23596026 0.084446624 -0.100493945 -0.055334207
0.17142597 -0.15399958 0.1272881 -0.09868837 -0.2660024 0.08474918 -0.29004958 -0.43923917
-0.21321772 0.1966903 -0.10921923 -0.16446267 -0.30353925 0.15746655 0.17237067 0.11153853
-0.03957429 -0.10709091 -0.008297317 -0.14685978 -0.11105692 -0.025373826 -0.2061727 -0.3879814
-0.31628916 -0.35442752 0.035104994 -0.20995958 -0.08405436 -0.082746506 0.15315689 0.089313075
-0.34455684 0.18843724 -0.122067444 -0.18227616 0.090642564 0.07788289 0.15250824 0.018249111

conv2.lin_r.weight f4 [64, 16]
00000000: d0f6 22be 11fe c33d 0f00 97be a1ea a63d
00000010: 4f63 13be 5faf 833d 3713 263e 6a69 4cbe
00000020: 9fa4 06be 5733 003e c688 b7bd 8fa8 25be
00000030: 6f56 22be 5a15 35be 080b 0abe ffe1 043e
00000040: 40e2 0fbd 0177 85be 09be 90be a0dc 8a3c
00000050: 60c6 063e ffed 1abe c1fb 27be efc4 a33c
00000060: 9fc6 293e e542 d6bd 2600 c7bd a96a 183d
00000070: 8f6f 88be cf95 24be a7c1 8b3d f146 0d3e
00000080: 4114 e63d b1c7 273e 21e3 3f3e 9110 013e
00000090: 7113 203e f149 e3ba 4023 853d 21f9 79bd
000000a0: 915a 3c3e 901d c0bd c0f3 63be 6fe5 763e
000000b0: 51ab 603e 0a24 49be 9055 b7bd 9f9e 60be
000000c0: 60cf 403d 20c0 733d fbf8 cabd 7b2b 50bd
000000d0: 11f3 be3d 7116 dc3b 25b2 5a3e e130 9abe
000000e0: 507d 453e e122 73be 1f4a 96bd 45bf dd3d
000000f0: 5067 cebc e5ea 533d 8f61 0bbe 91e2 a3bd
00000100: 008f af3c 00cb 093d 416f 71be a63a 32bd
00000110: 11e0 ef3d bf1d d53d d994 0abe 6fbb fd3c
00000120: 80f7 653b 316f 293c 3882 893d 560f ad3d
00000130: f7e5 a53d 9fc6 71be 8164 35bd efe1 8a3d
00000140: aff8 09be df01 07bf e1a4 0ebe a66f 453d
00000150: b887 083d 7106 93be 100a 263e 0159 02bf
00000160: f8fb 1bbe 51b5 02bf 30e1 79be a6bb b9be
00000170: 4fa4 e0be 2185 03be 45de 43be 60b4 debd
00000180: a8b7 9cbd ef02 67be 3b8a d5bd b757 1d3e
00000190: df72 403e efdd ed3d 4842 96bd 271d 093e
000001a0: 07cf 21be bfce 16bd 3f93 573e 10ef 60be
000001b0: c56d d43d 00ca 2f3a 8bdc db3b ff54 6bbe
000001c0: 8158 6e3e 1104 90be b1ec 73be c110 c2bd
000001d0: 8088 7fbd 2bfe d43c 8501 5dbd 1707 0f3e
000001e0: bff2 72be 3fae f83d fa1d 4bbe 851a 5b3e
000001f0: bf14 7bbe c0f5 eb3c 5f8e 5dbd cf71 e1bd
00000200: 61d2 bd3d b138 613e 81b5 78bd 8f6b 37be
00000210: cf18 0bbe b0b7 e7bd f991 053e f058 4fbe
00000220: 3af4 3a3e a775 a33d 6841 9a3d 6f64 34be
00000230: affe e5bd c167 18be 051b da3d 3008 d83d
00000240: 5079 3e3e 6af7 42bb efed 6f3d d008 7f3d
00000250: 10a7 60bd b1a2 253d 2f15 34be f123 68be
00000260: 60ef 373d 603a 84bc 00d1 ca3c b0de f9bb
00000270: 1a75 40be 5ba0 cdbd 7118 f8bd a8b5 0fbd
00000280: 9f6b b4bd 8f2f 4a3e 6f75 193e 013d 70be
00000290: bf8c c03d e1ac 5cbe 30fd b23d cfa2 78be
000002a0: c8a2 0f3d cfc8 1abe c088 7c3e 7f15 61be
000002b0: c1d9 fcbd c15a 713e 9af7 46bd e114 7a3e
000002c0: a52f 60bd f122 0d3e 9140 79be e076 303d
000002d0: f01e 863d af09 80bd b122 febd ffc8 6dbe
000002e0: c5b2 e13d 114c afbd 3a83 303e 2ae4 373e
000002f0: 1f80 1a3e 202e 973d efc2 43be 4034 333e
00000300: 06c2 3cbe 216b 38bc 2a1d b7bd a01e 1b3e
00000310: 5fd1 1d3e bfe1 3bbe 67b9 243e e1bc be3d
00000320: efac a53d f152 f6bd 7f32 1fbe df85 6bbe
00000330: afc3 36be 4ff7 51be 4024 cc3c 4ff3 363e
00000340: 2b27 623e c060 0dbe bfb6 02be 9f54 613e
00000350: 30ea bc3c 1938 89bd c03c 003e 1f1b 43be
00000360: f137 31be 8f4c 11be 5ac8 c1bd 9936 8c3d
00000370: 6fa9 02be 6f19 7c3e 95a3 4ebe b088 11be
00000380: 6667 333e 419e 743e 7196 6ebe da35 47be
00000390: 47c5 00be 8153 c5bd 8067 5abe 250f d33d
000003a0: 5840 923d a0fe 9a3d d0c8 5a3d 11ef 683e
000003b0: 18c1 94bd 3698 33be 863d 433d 80c9 193e
000003c0: 5077 61be 0fae 91bd 0f78 19bb c121 653d
000003d0: e011 96bc 5f32 9cbd 80ce 653b 3541 573d
000003e0: 2068 0fbd 6f86 c8bd 25c1 e23d 918a 473d
000003f0: 7f76 4c3e a0d9 943d 4186 0bbe 307e b2bd
-0.15914464 0.09569944 -0.29492232 0.08150221 -0.14393352 0.06429934 0.16218267 -0.19962087
-0.13148735 0.12519585 -0.08961634 -0.16177581 -0.15853284 -0.17683926 -0.1348077 0.12976836
-0.03512788 -0.26067355 -0.28269985 0.016950905 0.13161612 -0.15129851 -0.1640463 0.019991366
0.16579674 -0.10461978 -0.09716825 0.037211094 -0.26647612 -0.16072772 0.06824046 0.13796593
0.11234332 0.1638477 0.18738987 0.12603976 0.15632416 -0.0017340762 0.06500864 -0.061028603
0.18393923 -0.093806386 -0.22260952 0.2411096 0.21940352 -0.19642654 -0.089518666 -0.21935509
0.04707277 0.059509397 -0.099107705 -0.050822716 0.09323705 0.0067165424 0.21357019 -0.30115417
0.19286084 -0.23743774 -0.07338356 0.108274974 -0.025195748 0.051737685 -0.13611434 -0.080021985
0.021430492 0.03364086 -0.23577596 -0.043512963 0.11712659 0.10406064 -0.13533343 0.030973164
0.0035090148 0.0103414515 0.067142904 0.08450191 0.08100503 -0.23610924 -0.0442853 0.06781375
-0.13473772 -0.5273723 -0.13930084 0.04820218 0.033332556 -0.28715852 0.16214776 -0.5091706
-0.15232837 -0.51057917 -0.24402308 -0.36275977 -0.43875358 -0.12843753 -0.19127758 -0.108742476
-0.07652217 -0.22559713 -0.10426756 0.15365492 0.1879382 0.11614596 -0.07336861 0.13390027
-0.15801631 -0.036818262 0.21052264 -0.21966195 0.103724994 0.00067058206 0.0067096404 -0.22981642
0.23275949 -0.28128102 -0.2382076 -0.09475852 -0.062386036 0.026000103 -0.053956527 0.13967548
-0.23725413 0.1214261 -0.19835654 0.21396835 -0.24519633 0.028803706 -0.054090854 -0.110080354
0.09268642 0.21994282 -0.06071997 -0.17912124 -0.13583682 -0.113143325 0.13043965 -0.2024877
0.18257228 0.07981425 0.075320065 -0.17616437 -0.11230218 -0.14883329 0.10649685 0.10548437
0.18600965 -0.002974952 0.05857652 0.062264264 -0.054846823 0.040438358 -0.17586206 -0.2266996
0.04490602 -0.016141117 0.024757862 -0.0076254234 -0.1879467 -0.10040351 -0.12114037 -0.03508535
-0.088095896 0.19744705 0.14986204 -0.23460771 0.09401845 -0.21550323 0.08739698 -0.24280857
0.03506735 -0.15115665 0.24661541 -0.21980856 -0.12346221 0.23569776 -0.048575975 0.24422027
-0.054732937 0.1378286 -0.24341036 0.043082118 0.065488696 -0.06251847 -0.124089606 -0.23221205
0.11020426 -0.085594304 0.17237559 0.17958131 0.15087937 0.073818445 -0.1911733 0.175004
-0.18433389 -0.01125601 -0.089411095 0.15148401 0.154119 -0.18347834 0.1608635 0.093133695
0.08089625 -0.120275386 -0.15546606 -0.23000287 -0.17848085 -0.20504497 0.02491963 0.17866252
0.22085254 -0.13806438 -0.12765025 0.22004937 0.023060888 -0.06700153 0.12523174 -0.19053315
-0.17306496 -0.14189361 -0.09462042 0.06846351 -0.12759946 0.24619077 -0.20179589 -0.14212298
0.17519912 0.23888494 -0.23299576 -0.19454136 -0.12575255 -0.09635068 -0.21328545 0.10305623
0.07141179 0.07568097 0.053414166 0.22747447 -0.07263392 -0.17538533 0.047666095 0.15018272
-0.2201817 -0.07113277 -0.0023417508 0.055940393 -0.01831907 -0.07626795 0.003506571 0.05255242
-0.03501141 -0.09791266 0.11071996 0.04871613 0.19967078 0.07268071 -0.13625433 -0.087154746

lstm_cell.weight_ih f4 [256, 192]
00000000: 7f5b 003e 30ff 3c3e b147 91bd 083e 993c
00000010: 8937 293d 0631 39be c1a8 3a3d b763 8b3d
00000020: 9b15 d4bd eff2 cebc a6f1 b33d 79f6 103e
00000030: ffc4 0b3e 1b82 493e 80dd b03b 2173 4fbe
00000040: b74f 1c3d 1107 2c3e 2f65 43bc 47fc 013e
00000050: c5b2 e03d 8127 273c 168a 2d3d 7fc2 713d
00000060: 20ad 12bd ff62 fc3d 41be ee3d 3aae 343e
00000070: b18c 3fbd a69e b8be ef97 443e b683 47bd
00000080: 3071 3cbc 2679 3a3e c63d 4abe 99d9 213e
00000090: 8194 863c b12d febd bfc3 263d 5830 0fbd
000000a0: cf93 0fbe 0034 ce3d bff1 c73d 482d 0b3e
000000b0: a6dd 4b3e a19c 35bc b71f a13d 50dc 3dbd
000000c0: 3a54 3aba 301e 51bc a001 28bd 8beb d83d
000000d0: 31be a93d 5771 1e3e 6a9c 463e 884d 14ba
000000e0: 4066 f03d 71a8 283e 61bc b0ba c115 5b3e
000000f0: 4fac 1b3e a05b ed3d cb82 5fbd a1a7 973d
00000100: f9bc 82bf 5c74 5a40 ca02 2940 806e 3640
00000110: e772 1440 4a04 b740 4d55 e640 1f54 bdbd
00000120: 6567 b640 66a7 f340 3f9a f040 bef0 d340
00000130: a11e cc40 aef4 d740 2990 0c41 f3d4 f440
00000140: 2207 fd40 b564 d940 4f28 ef40 0125 ed40
00000150: 2b32 ed40 da02 ad3d 49f3 0541 3697 ab40
00000160: 733a e640 6bc1 e540 07b1 e040 235a 0141
00000170: af63 ea40 40e5 e43b 4639 443d a156 8f3d
00000180: d1d6 3abd 2ae4 abbd 5fe8 373d 71ef 093d
00000190: 9f9c c03d 011f 2a3d e139 d4bd 2049 963b
000001a0: 01d8 903d 60f6 fdbb 9fb2 efbd c1c3 e5bd
000001b0: 008f 6c3b 7066 02bd f014 6d3c c05b 55bd
000001c0: a08e 97bd bf85 053d e06b fbbc 00c3 933b
000001d0: e066 53bc 3f0c a6bd 0626 b1bd b183 f6bd
000001e0: effe c63d c05a 3c3c 86b9 b7bd ff54 e83d
000001f0: bf37 aebd 0f7a e6bd 411d 433d 08af 90bd
00000200: 41c6 febc 9051 fe3f f7c3 a43f 1d1e f3be
00000210: 39eb 07bf 6018 1740 ff74 d43d c213 5840
00000220: 838d d540 2e4d bb40 813a c4bd 6f77 ec40
00000230: 567e f740 0e95 f940 1196 d43d d726 0641
00000240: 9220 1141 1a86 0041 813e f240 38af e540
00000250: 303b dc40 02f1 ce40 002c 1f3c 475d 0441
00000260: 2343 cf40 0446 6040 3159 6c3d 4576 e140
00000270: 4ecc 8440 02c5 0941 0fa7 e23d b1d8 533d
00000280: 5b6a 613d e7ad a23d 1b3c d7bd daa5 4abd
00000290: cf38 b7bd 9a40 babd 702f 5ebc 2533 dfbd
000002a0: 8fca 493d df34 ea3d ff2f 913d bfee 24bd
000002b0: 113c 02bd 6575 593d bfe1 b63d d016 c4bd
000002c0: 49f8 a6bd 8fa3 3dbd 98f4 8ebd a6ba 2c3d
000002d0: e17b f8bd 5058 b93d 40fe 3ebb 7162 e33d
000002e0: f13b 243d 214e 83bd 008a 10bd 6624 acbd
000002f0: 5943 1e3d b1a7 a8bd 814e f23d 4f94 b63d
00000300: ffff 3e3d 9f85 203d 97bf 0d3f 817e cf3d
00000310: 6692 b23d 7988 12be 71e1 64bc 6f5b f93c
00000320: d07d 61bc 60dc e7bc 4167 fb3d 3542 db3b
00000330: 27cd 0dbd ff9c c63e 770d a8bd d1b5 173f
00000340: b95e 8b3c e1fe 563d 61c6 00bd 0197 f03d
00000350: 0abd 3d3e 0088 a33d 81df 4cbd 160f 333e
00000360: e0be 7e3d 6f3d 603d 30d5 0e3c 81c4 973e
00000370: 19f8 0bbc 2007 333f 19b0 143f 8914 293d
00000380: 3f52 883d fb1c 56bd e193 563f 5f7d 32bd
00000390: 9bda 47bd dba1 dd3d e014 d9bc b873 823c
000003a0: 10d4 2d3f e018 c73c ab67 443f 91a6 033e
000003b0: bf1b b33e 8912 063e 711d 493d a7e8 9f3d
000003c0: 3f43 adbd c8ab 143d cf9d b63e bf46 2bbe
000003d0: efef bfbd 890d 96bd a1df eb3d 31b1 d63c
000003e0: 87a7 9fbd 3964 0b3e c1e4 213e db78 613d
000003f0: bfd5 513d bf0e 62bd 1fe1 e5bc 7154 033d
0.12534903 0.18456721 -0.07093752 0.018706337 0.041312728 -0.18085107 0.045571093 0.068061285
-0.103556834 -0.025262324 0.08786325 0.14156522 0.13649367 0.19678538 0.0053974986 -0.20258762
0.03816196 0.1679957 -0.0119259795 0.12693892 0.109715976 0.01020229 0.042368017 0.059023377
-0.035809636 0.123235695 0.11657382 0.17644587 -0.046765033 -0.3605854 0.19198583 -0.048709594
-0.011501595 0.18210277 -0.19750127 0.15805663 0.016428234 -0.12411059 0.04071402 -0.034958214
-0.14021228 0.10068512 0.09762906 0.13591492 0.19908771 -0.0110847065 0.07867377 -0.046352684
-0.00071078876 -0.012763545 -0.041017175 0.10591801 0.08288229 0.15472923 0.19395605 -0.0005657305
0.11738253 0.16470505 -0.0013483876 0.21395017 0.1520245 0.11589742 -0.054568093 0.074050196
-1.021392 3.413352 2.6407952 2.8504944 2.319513 5.7192736 7.1979127 -0.092445605
5.7001214 7.6141844 7.518829 6.6231375 6.378739 6.748618 8.785195 7.650995
7.9071207 6.7935433 7.4736705 7.410767 7.412374 0.084478095 8.371896 5.3622084
7.194635 7.1798606 7.02161 8.084506 7.3246684 0.0069853365 0.047906183 0.06998945
-0.04561502 -0.08393128 0.04489934 0.033675615 0.09404873 0.041533474 -0.10362602 0.004586354
0.070724495 -0.0077503175 -0.11703991 -0.11218978 0.0036095977 -0.031835973 0.014470324 -0.052089453
-0.074002504 0.032598253 -0.030691087 0.00450933 -0.012902945 -0.081078045 -0.086498305 -0.12036837
0.097165935 0.011496246 -0.08970933 0.11344337 -0.085067265 -0.112537496 0.04763532 -0.070646346
-0.031100394 1.9868641 1.2872304 -0.47483912 -0.53093296 2.3608627 0.10373878 3.376206
6.6735244 5.8531713 -0.09581471 7.3895793 7.734172 7.799445 0.103801854 8.384482
9.070452 8.03274 7.57013 7.177639 6.882225 6.46692 0.00971508 8.272773
6.4769454 3.5042734 0.057702247 7.045687 4.1499395 8.610598 0.1106702 0.051720325
0.05503307 0.079433255 -0.10509511 -0.049474575 -0.08946382 -0.09094353 -0.013561115 -0.10898427
0.04926544 0.114358656 0.07089233 -0.04026675 -0.031795565 0.05309047 0.089297764 -0.09574664
-0.081528254 -0.04629856 -0.06980246 0.04217019 -0.12133003 0.090500474 -0.0029143244 0.111027606
0.040096227 -0.06411386 -0.035287857 -0.0840538 0.038638446 -0.082351096 0.1183138 0.08915006
0.046630856 0.03918993 0.5537047 0.101315506 0.087193295 -0.14309873 -0.013969765 0.030439107
-0.013762906 -0.028303325 0.122755535 0.006691242 -0.034619477 0.38791654 -0.08205693 0.59261805
0.01701294 0.052489165 -0.03143919 0.11747552 0.18529144 0.07984924 -0.050017837 0.17486224
0.06219375 0.054746088 0.00871782 0.29642108 -0.008543038 0.69932747 0.58081204 0.04127935
0.06656312 -0.05227373 0.83819395 -0.043576594 -0.048792463 0.10821887 -0.026499212 0.01592432
0.67901707 0.024303854 0.76720685 0.12856509 0.34982106 0.13093008 0.049100343 0.07808047
-0.08460092 0.036296636 0.35667273 -0.16726206 -0.093719356 -0.073268004 0.11517263 0.026207538
-0.07795625 0.1361245 0.15809919 0.055046897 0.051229235 -0.055189844 -0.028061448 0.03206295

lstm_cell.weight_hh f4 [256, 64]
00000000: 8a1a dd3e a67a bb3e 9e21 893f 2c02 86c0
00000010: 4399 aa3f b203 36c0 aba6 18c0 d3aa 1b40
00000020: 8e67 5f40 dc12 403f fb25 df3e 53e7 a1bf
00000030: b804 5dbd f765 bcbf 8752 e9bf c74e 5dbe
00000040: 877d 4abf a121 173f 408a 48c0 6676 c6bf
00000050: 2606 75bd 2857 2540 5882 2240 76d1 41bf
00000060: 08bb f53e cce9 2040 4ddb 1dc0 e4d8 663f
00000070: 4a1d 27be 5420 3bc0 e993 f7bf 8abc c43d
00000080: 2c2e 973f eea0 fabf e989 c4be fb3c 6a3f
00000090: cd06 1c40 50d6 b1bf 22fa 6a3e c9b6 10c0
000000a0: 7212 9d3f 1b7e 9ebd 32ec 32c0 dfda 91bf
000000b0: ad5c a2bf 573b ecbf 57f6 0d3f 409a c83f
000000c0: a433 e53e f9a7 0640 80ff 00c0 1c75 343f
000000d0: d55e ba3f f28d c53f ee6b 18c0 48f4 4240
000000e0: 8ba5 a43f 63db 16c0 27a4 6f3f 82cd 993e
000000f0: b5ee 3540 6321 a23f 1c80 fb3e e1ca 3540
00000100: f50f d93e 8b53 e9be d37f 333d 404e a43e
00000110: 9f17 0dc0 16e8 30c0 f579 0e3f 7521 a93e
00000120: 1622 04c0 a84c 89bf f78e 28bf 920f 21bf
00000130: afda 80bf 4b2e 04bf 2382 5dbe 17d3 2f40
00000140: bdf3 0cbf 3b1a 81bf eb97 4ebf f5a0 18c0
00000150: 7947 38bf 79c9 e93f 9c9a c03e d13d 6b3f
00000160: c2cd 913f 1682 84be 4453 15c0 69c1 78c0
00000170: 32b4 4cbf 545d aebe d61f 0dc0 ee00 6fbf
00000180: 6ed5 343e 095e c43f ebb4 67c0 aa51 0540
00000190: 6f6d d13f 117a d4be a697 a1bd 5a14 3c40
000001a0: 05a5 8cbf 27f7 50bf 3c06 9340 d384 293f
000001b0: 57a3 c2bf 7d4c 94be 70c8 b7bf f289 59bf
000001c0: d1e1 8040 1c79 02c0 098f 9d3f ef6b 0ac0
000001d0: c44e 703e 7e58 3dbe c1bb 4dc0 c3f9 c4bd
000001e0: 1d10 ddbd 19e5 ecbf a8df e13f 35b2 1f3f
000001f0: bbde cd3f e119 94bf 2a32 f83d 5ac0 f7bf
00000200: 6620 2a40 8c0c 793f 5706 be3e 686c e13e
00000210: 0d74 8d40 45b6 ab3e 0608 a13e adba f9bf
00000220: 3326 0640 f536 1ac0 d375 d53f 4bf2 fe3b
00000230: 784f dbbd a2a8 acbf c2e8 f3bf 8c55 25bf
00000240: 52a0 c93f da6b 2f3f 2721 01bf fe06 fbbf
00000250: 45d7 7440 7404 ed3e d0d0 b83f 07f1 c43f
00000260: db39 223f 4514 b93f 9e0f d43f c410 adbe
00000270: e65b 01c0 9adb 2240 263f 5e3f 5165 8c3f
00000280: f12e c83f bd75 c0bf 1584 a3bd 4480 75bf
00000290: 281c e73f 8902 f53f 64ab a03f ea55 2040
000002a0: d13b 0dc0 45c5 f0be 69eb 19c0 ae93 f4be
000002b0: 0007 e93f e783 4bc0 df8b 503f 3dc5 8a3f
000002c0: e93d 533e ade0 8bc0 f5a2 673f 079f 6d3f
000002d0: a8c5 79c0 a0a5 8d3f e754 513f 5122 8f3f
000002e0: 6394 de3f 1182 9c3e 5c60 51bf cc49 7c3f
000002f0: 6ddd 3b40 d0dd 9ebf 33be e4be 0868 cbbf
00000300: 04ff d0bf d1fd 803f 7c3e a1be cf1c 493e
00000310: 3058 2cbf 1f07 533e 6f44 75bf d0b5 eebf
00000320: 7663 4cc0 d175 dc3f ba89 c7bf f286 98bf
00000330: 23c3 793f abf5 47bf eb57 453e 7eed 8bbe
00000340: a6d9 d83d da5e fd3f 5226 f43f 9c25 70bd
00000350: 8df1 86bf 919d 18bf 95fa ce3d e9de a03e
00000360: cafe 3440 a169 34bc 19bf 153f 2577 2840
00000370: d0b2 1c40 9898 b83f 4108 fdbd 48be 95c0
00000380: 0b9f e6bf 1015 67bf ed5d a03f 9fe5 ea3e
00000390: 3525 b03f a0d4 9dbe bc39 2440 ce7b 3c3f
000003a0: 6e4d 3abe dece 3640 00ab 3bc0 8f1b 39c0
000003b0: 8d70 0440 241f bdbe 0d00 3140 b8be 4e3f
000003c0: bbb5 2840 96c9 0e3d 5453 15bf ab78 e33e
000003d0: 2a54 0a3d 7ce8 4bbf 0258 953e 9868 19c0
000003e0: 968d 94be b75c 0140 e92e 50c0 2a36 e0be
000003f0: 0cee 9ebf 24ef 8fbf 5e25 033f 3b58 23c0
0.4318431 0.3661701 1.0713384 -4.187765 1.3328022 -2.8439755 -2.3851726 2.4323013
3.4906955 0.7502878 0.43583664 -1.264872 -0.05395958 -1.4718617 -1.822831 -0.21612082
-0.7909779 0.5903569 -3.133438 -1.5504882 -0.059820317 2.5834446 2.5392056 -0.7571024
0.47994256 2.5142698 -2.46651 0.901747 -0.16319767 -2.9238482 -1.9342014 0.096062735
1.1810966 -1.9580362 -0.38386467 0.914993 2.437915 -1.3893528 0.2294698 -2.2611563
1.2271254 -0.077388965 -2.7956662 -1.1394919 -1.2684532 -1.8455609 0.5545401 1.5672073
0.4476596 2.1040022 -2.0155945 0.70491195 1.456019 1.5433943 -2.3815875 3.0461597
1.286302 -2.3571403 0.9360985 0.30039603 2.8426945 1.2666439 0.49121177 2.8405077
0.42394987 -0.4557155 0.043823075 0.3209095 -2.2045667 -2.7641654 0.5565484 0.33033338
-2.0645804 -1.0726519 -0.6584315 -0.62914383 -1.0066737 -0.5163314 -0.21631674 2.747259
-0.55059415 -1.008613 -0.8070056 -2.384824 -0.7198406 1.826461 0.37617958 0.918912
1.1390917 -0.25880498 -2.3332071 -3.8868048 -0.79962456 -0.3405558 -2.205068 -0.93360794
0.17659542 1.5341197 -3.6204174 2.0831094 1.6361521 -0.4149938 -0.07890253 2.9387422
-1.098786 -0.81627125 4.594511 0.662183 -1.5206097 -0.28964606 -1.4358044 -0.8497611
4.0275655 -2.038642 1.2309276 -2.1628377 0.23467547 -0.18490788 -3.2145846 -0.09617951
-0.10794089 -1.8507415 1.764638 0.623813 1.6083597 -1.1570398 0.12118943 -1.9355576
2.6582274 0.9728477 0.37114212 0.4402802 4.4204164 0.33537498 0.31451434 -1.9510094
2.0960815 -2.4096043 1.6676582 0.0077803484 -0.10708517 -1.3488963 -1.9055407 -0.6458366
1.5752051 0.68523943 -0.5044121 -1.9611509 3.825639 0.4629246 1.4438725 1.5386056
0.6336953 1.4459311 1.6567266 -0.33801854 -2.021234 2.5446534 0.86815107 1.0968419
1.5639325 -1.5035931 -0.07984177 -0.9589884 1.8055468 1.9141399 1.2552304 2.5052438
-2.206776 -0.47025505 -2.4049933 -0.4776892 1.8205261 -3.1799257 0.81463426 1.0841442
0.20629086 -4.3711762 0.9048303 0.9282078 -3.902689 1.106617 0.81770176 1.1182348
1.7389034 0.30567983 -0.8178766 0.98550105 2.9353898 -1.2411442 -0.4467636 -1.5891123
-1.6327825 1.0077459 -0.31492984 0.19639896 -0.67322063 0.20608185 -0.95807546 -1.8649235
-3.1935706 1.7223455 -1.5588906 -1.1916182 0.9756338 -0.78109235 0.1927182 -0.2732963
0.10588388 1.9794571 1.9074194 -0.058629617 -1.0542465 -0.5961543 0.101063885 0.31420067
2.828051 -0.011011512 0.58494717 2.632272 2.4484138 1.4421568 -0.1235509 -4.6794777
-1.8017286 -0.90266514 1.2528664 0.45878312 1.3761355 -0.30826283 2.5660238 0.7362641
-0.181936 2.8563762 -2.932312 -2.892307 2.0693696 -0.3693782 2.765628 0.80759764
2.636092 0.034860216 -0.58330274 0.44428 0.03377167 -0.7965162 0.29168707 -2.397009
-0.29014271 2.0212839 -3.2528632 -0.43791324 -1.2416396 -1.1244855 0.5122889 -2.5522602

lstm_cell.bias_ih f4 [256]
00000000: bd61 a3bf 142a d83f e55c 153f 31a1 4d40
00000010: c399 3e40 2905 5140 306b 863f ff73 2840
00000020: dd03 353f 0802 2a3f 6540 4f40 3a39 0940
00000030: 6f96 73c0 b270 313d ee5b 40c0 f67a 973d
00000040: 94bf 3b40 5c04 14c0 042a 31c0 0c59 5d3f
00000050: 59c3 b7bf 47d2 81c0 96e7 d0bf 67dc a83e
00000060: 9aec e43f 356d 90bf ae68 5a3f 3836 923f
00000070: 5d47 3abf 89d8 1d40 f7bc 1c40 4dd4 8e3e
00000080: d1f7 ce3f 5b03 ed3f fb6a 06bf 1654 a0bf
00000090: 55c7 1cbf 11ce ae3f c95b 6ebe 4a11 d23f
000000a0: fe9f f43e 6f68 553f a09b 373f 10a4 bbbf
000000b0: ff67 99c0 851d dbbf 0c19 433f 5ec7 16bd
000000c0: a055 8cc0 e07a 09c0 e68c 37c0 6491 203f
000000d0: 43ef 1cc0 8a00 eabf e984 22be 7646 e0bd
000000e0: f76f 0bc0 165f 42c0 d506 a53f 2330 313f
000000f0: f0a9 613f 54cf 4c40 cdd6 1140 ec06 37c0
00000100: ffcc 95bf f63b 28bf cfac aabe e7dd 5e3f
00000110: 8e40 c3bf 5663 943e bdc7 723f f754 14c0
00000120: 6535 5f3f e643 8bbf 44f1 56c0 28ea 24c0
00000130: b8d4 3f3f aa08 e83c 90f5 f0bf 530e 923e
00000140: 7b14 6ebf 6eab f53e b692 1abf 6d63 0540
00000150: 57cb 2fc0 5e18 443f a5b0 2bc0 b5a7 a0bf
00000160: 89e1 473f 3a9b 25bf ab9e 5e3e c818 e1be
00000170: b1e9 adbf 3f3b 82bf d491 983e 56b3 5cbf
00000180: b328 90bd c12a 3ac0 8a0d 58be 08d4 56c0
00000190: 8f0e 2840 c8ac 69bf 897e d9be 308d d3bf
000001a0: 6683 c4bf 226a e13f 3615 2d3f 5cee 123f
000001b0: a60a cbbe be9c 09c0 3d9d 82bf 8745 65bf
000001c0: 9fb2 a0bf d82c 813f 357b 05bf e9a7 0ec0
000001d0: 3151 24c0 8c88 7b3e f60f e83e 7784 d4bf
000001e0: 4e20 1840 0ea2 a53f 1107 88c0 bcf2 0740
000001f0: 93c3 4bbe 3a21 02c0 d75c 353f be3f e7be
00000200: e9b5 3e40 42e7 a2be 71cd 63c0 ba21 13c0
00000210: 21fb c73f 350c 0abf e06e 0f3f 71af bcbf
00000220: 9c0f 1440 2770 07c0 c7b0 7740 de31 263f
00000230: 1541 383e 7b86 3840 d6f8 dd3f 3de0 14bf
00000240: b3c4 1840 98c2 9040 2fa5 0cc0 d875 803e
00000250: 58fe 67bf d948 603e 46de 103f 8b80 473f
00000260: 8e1e 233f 615e 05bf 8d2f 953d 7eba e5bf
00000270: b17d 503f 880d 413f 4755 1640 3778 1d40
00000280: b47d f43f 93dd c0bf 3fcc cbbe 837d f63f
00000290: 0a3d f13f 5f08 95be 8ca8 b43f 6dc1 a63e
000002a0: 74cc c0be a82f de3f cb23 10bf 3267 f23f
000002b0: 5103 3b3f e476 97ba 6778 5540 ca94 28c0
000002c0: 67d8 00c0 13ac b03e 80a0 d43e 83c3 25bf
000002d0: c911 92bf 2799 32c0 d0d7 b6bf dac6 ecbf
000002e0: f9e1 9ebe adee a23f 983f 9ebf 2bd9 58bd
000002f0: ab94 e9bf f23c abbf c205 0140 b42c 2a3f
00000300: 6973 87be ebf3 85c0 d5f4 1d3f f63a a540
00000310: e057 4abf 079a 0fc0 f6f6 ce3f 7c84 f63f
00000320: af62 9abf 55c3 5e3f 2f83 03c0 da49 5740
00000330: 03fe 63bf 3373 d83f e083 30c0 9dad 01bf
00000340: f37c 1cc0 d5ca 24bf 528f 20c0 3e22 c63d
00000350: fc0f 963f 1b65 80bf 193b a43f 260b 4b3f
00000360: b114 30bf 01e2 013e 7a99 ec3f c323 50c0
00000370: 9a93 d13e 8787 c0bf c2cf b83f d300 e4be
00000380: b190 4cbf 8686 0a40 74c0 90be 19db 9abf
00000390: 85a8 e1be cfa0 3540 bb54 0bc0 141a 4440
000003a0: 6b36 153f 1448 5340 171c ddbf fdaa dc3f
000003b0: 57bc 16c0 6708 87c0 e144 e33f f557 51bf
000003c0: 522b 4dc0 c996 ddbf c4ee fabf 2282 0ac0
000003d0: c593 57bf 77fd d3bf 3b9a 0a40 2710 1ac0
000003e0: 91b1 1940 f83d 8cbf ac42 9a3e 2718 13c0
000003f0: f344 37bf 05cf 863f f3dd 1bc0 3f6f b43e
-1.2764202 1.6887841 0.5834487 3.2129633 2.9781349 3.26594 1.0501461 2.6320798
0.7070902 0.6640935 3.2383053 2.1441178 -3.8060567 0.043320365 -3.005611 0.073965
2.933568 -2.312766 -2.7681894 0.86464 -1.435649 -4.0569186 -1.6320674 0.32980654
1.7884705 -1.1283327 0.8531598 1.1422796 -0.7276514 2.4663413 2.4490335 0.27896348
1.6169378 1.8516649 -0.5250699 -1.2525661 -0.61241657 1.3656636 -0.23277201 1.6411526
0.47778314 0.8336248 0.7172184 -1.4659443 -4.793945 -1.7118384 0.76210093 -0.036811225
-4.3854523 -2.1481247 -2.8679748 0.6272185 -2.4521034 -1.8281415 -0.15871014 -0.10950939
-2.1787088 -3.0370536 1.289271 0.69214076 0.8814993 3.2001543 2.2787354 -2.8597975
-1.1703185 -0.65716493 -0.33334967 0.87057346 -1.5254076 0.28982037 0.94836026 -2.3176858
0.8719085 -1.0880096 -3.3584757 -2.5767918 0.7493396 0.028324444 -1.882494 0.28526554
-0.93 0.47982353 -0.60380113 2.0841935 -2.7467859 0.7659968 -2.6826565 -1.255118
0.78078514 -0.6468998 0.21740215 -0.4396422 -1.3586942 -1.017433 0.29798758 -0.86211145
-0.07039013 -2.9088595 -0.21098915 -3.3566914 2.6258886 -0.9127927 -0.4247935 -1.6527462
-1.53526 1.7610514 0.6761049 0.5739496 -0.39656562 -2.1501918 -1.0204235 -0.89559215
-1.2554511 1.009181 -0.52141124 -2.2289984 -2.5674555 0.24563807 0.45324677 -1.6602925
2.3769717 1.294008 -4.2508626 2.1241903 -0.19898824 -2.033278 0.7084479 -0.4516582
2.979853 -0.3181706 -3.5594141 -2.2989335 1.5623513 -0.53924876 0.56028557 -1.474104
2.3134527 -2.1162202 3.8701646 0.6491984 0.17993577 2.883208 1.7341564 -0.5815466
2.3870056 4.523754 -2.197582 0.25089908 -0.9062247 0.21902789 0.5658916 0.77930516
0.637185 -0.52097136 0.0728446 -1.7947538 0.8144179 0.7541127 2.348955 2.4604623
1.9100862 -1.5067619 -0.39804265 1.9257053 1.8846753 -0.2910795 1.4113936 0.32569447
-0.37655985 1.7358294 -0.56304616 1.8937743 0.73051935 -0.0011555818 3.3354738 -2.6340814
-2.0132082 0.34506282 0.41528702 -0.6475145 -1.1411678 -2.7905977 -1.4284611 -1.8498185
-0.31031778 1.2729088 -1.2363157 -0.052941483 -1.8248495 -1.3377974 2.0159764 0.6647446
-0.26455238 -4.186025 0.6170171 5.1634474 -0.79040337 -2.243776 1.6169116 1.9259181
-1.2061366 0.87016803 -2.0548818 3.3638825 -0.89059466 1.6910156 -2.758049 -0.5065554
-2.4451263 -0.64372 -2.5087476 0.096745 1.1723628 -1.0030855 1.2830535 0.79313886
-0.6878157 0.1268387 1.8484337 -3.2521827 0.40932924 -1.504136 1.4438403 -0.4453188
-0.7990828 2.1644607 -0.2827183 -1.2098113 -0.44073883 2.83794 -2.1770465 3.0640917
0.5828616 3.3012743 -1.7274197 1.7239681 -2.3552454 -4.2197757 1.7755395 -0.81774837
-3.205769 -1.7311641 -1.9604115 -2.1641927 -0.84209853 -1.6561726 2.1656635 -2.4072359
2.4014628 -1.0956411 0.30128992 -2.2983491 -0.71589583 1.0531927 -2.4354217 0.35241124

lstm_cell.bias_hh f4 [256]
00000000: 7586 a7bf 1411 e63f 1cd8 b93e a52f 4940
00000010: 6337 4340 2bb7 5140 69dd 723f 0fb9 2a40
00000020: 60a4 3a3f 3842 243f f57e 4f40 e353 1140
00000030: cfec 7dc0 7989 0f3e eeaa 36c0 e0c7 e83d
00000040: 4983 3b40 dce9 1cc0 1e37 31c0 9683 3d3f
00000050: f9f5 b8bf ed64 7ac0 d499 dcbf d3a3 b33e
00000060: 7a23 df3f 1382 9dbf 0ab1 8a3f a80e 853f
00000070: 276d 23bf b9b5 1940 77a0 2640 a4d7 8f3e
00000080: 5774 d13f 7b19 ea3f 4beb 1cbf 667b 96bf
00000090: 977e 33bf a13b c63f 2d25 4cbe 52fc df3f
000000a0: 9a2f 883e 23bd 693f 20b7 603f 46b0 acbf
000000b0: cf2b 9bc0 6559 d6bf 5cd0 463f bd8d 163b
000000c0: a86b 8cc0 0010 06c0 5d47 30c0 9411 2a3f
000000d0: e34a 29c0 2a7a eebf 459e 51bc 268a 46be
000000e0: 6701 08c0 ad30 3ac0 4de6 9e3f 133f 123f
000000f0: 500f 533f f984 4a40 be15 0940 3547 32c0
00000100: 8f96 87bf 431c 03bf a9b8 99be ff82 713f
00000110: 0e95 babf f89b 943e 7f09 843f 0b8f 17c0
00000120: 47b4 4b3f 167c 9dbf d45a 5bc0 7859 26c0
00000130: 5ea9 2b3f 1090 813e 7fe9 d8bf 9756 ab3e
00000140: 8357 91bf bce1 cd3e 4efe 04bf f5bb 0240
00000150: 0733 2fc0 8e06 243f 5039 2dc0 5d32 a1bf
00000160: b811 463f ea0c 10bf a536 0b3e 24fd f0be
00000170: f80b a9bf 500a 7bbf 6029 893e 06db 68bf
00000180: 2909 d6bd c1f6 3ac0 1091 84be e98f 4ec0
00000190: ae88 2d40 2ed7 82bf 2c71 9abe 123b e2bf
000001a0: 0fb4 adbf 3213 ee3f c7f5 573f 0c42 203f
000001b0: ab83 a8be 1e1b 05c0 edcd 87bf a72f 66bf
000001c0: 1f0a 82bf 00b8 7d3f 76a7 abbe 7ae8 11c0
000001d0: f1bf 1dc0 a208 613e 35bd c93e 8787 dcbf
000001e0: 0e5e 1340 fe2f af3f 2870 81c0 f809 0b40
000001f0: 5278 48be 1220 08c0 2559 123f 4042 c8be
00000200: 2c96 3a40 02f8 0cbf e160 63c0 196c 16c0
00000210: 41c9 b83f 3aa9 06bf f238 e63e 98fa bbbf
00000220: 84b2 0d40 a726 05c0 6975 8040 3797 413f
00000230: 508b 6b3e 7b35 3940 a611 c43f f5bd 28bf
00000240: dc8d 2440 2885 8d40 48e0 10c0 a28b 473e
00000250: a841 5bbf 65c3 3e3e eeab 0d3f 03fb 2a3f
00000260: fe62 5a3f 716b 04bf 4acb 7e3d 4e77 eabf
00000270: c181 483f 88e2 4d3f efb4 1b40 c798 1140
00000280: fe76 e83f 5a62 aabf 4e96 b8be 07f7 fc3f
00000290: 2a15 e53f 5feb 77be cdda a43f 6014 7f3e
000002a0: 44e8 b7be d813 d73f 4975 17bf 526f f43f
000002b0: b27c 453f 65bd 583d c722 5440 2a67 24c0
000002c0: 26a8 07c0 5632 7d3e 2023 d13e 7bac 19bf
000002d0: 95c5 abbf 571d 31c0 c09e a3bf 8a15 f2bf
000002e0: 537d c2be 4e88 b63f 7033 9fbf c9ac b3bd
000002f0: b632 fcbf 92c5 c2bf 7369 e53f f59e 203f
00000300: 042e 5abe 82af 84c0 75c9 1c3f c356 aa40
00000310: 0a26 51bf d7dd 0fc0 03e8 b83f b7cc ea3f
00000320: 4ff0 8bbf d9db 503f 8f91 02c0 9a5f 4f40
00000330: 0330 7cbf f28a d73f 881c 30c0 0d78 32bf
00000340: b333 10c0 d5fb 39bf 2226 1ac0 a27e d73d
00000350: f7f7 ae3f caf2 86bf 76fc aa3f 86aa 4e3f
00000360: 9f8e 40bf 1613 4c3e 5a19 ec3f d1a4 53c0
00000370: a681 ef3e ec62 c4bf deee bf3f ffa0 04bf
00000380: 00e6 33bf 2e8c 0d40 28bf 56be 09b1 86bf
00000390: e767 e9be 4f45 3640 e1d8 0bc0 3473 4740
000003a0: e38c 233f ba8e 5540 76c5 cbbf 9db5 dd3f
000003b0: 883a 20c0 c743 88c0 b18b e03f 9f1b 30bf
000003c0: e209 4ac0 e99f e2bf e4bd ebbf 30cd 06c0
000003d0: 25ec 6abf 1751 c3bf 17fa 0a40 6f67 0ec0
000003e0: 81b0 0f40 2890 80bf 065e 913e d1b3 0fc0
000003f0: 72ad 42bf 9529 853f 4a7b 28c0 f797 c53e
-1.3087908 1.7973962 0.3629769 3.143533 3.0502555 3.2768047 0.94869095 2.667545
0.72907066 0.6416354 3.2421238 2.270745 -3.9675786 0.14017285 -2.8541827 0.11366248
2.929888 -2.4517736 -2.768989 0.7402891 -1.4450065 -3.91241 -1.7234445 0.35085925
1.7432702 -1.230532 1.0835278 1.0395098 -0.6383843 2.4017165 2.603544 0.28094208
1.6363629 1.8289026 -0.6129653 -1.1756408 -0.70115036 1.5486947 -0.19936056 1.7498877
0.26598817 0.91304225 0.87779427 -1.3491294 -4.8490977 -1.6746031 0.7766168 0.0022972666
-4.3881416 -2.0947266 -2.7543557 0.6643307 -2.6451957 -1.8631032 -0.012794082 -0.19388637
-2.1250856 -2.909221 1.2414032 0.57127494 0.8244524 3.164366 2.141952 -2.7855961
-1.0592822 -0.51215 -0.30023697 0.9434051 -1.4576738 0.29025245 1.0315398 -2.3681056
0.79571956 -1.2303493 -3.4274187 -2.5992107 0.6705531 0.25305223 -1.6946257 0.334645
-1.1354831 0.40211284 -0.5195054 2.042722 -2.7374895 0.640725 -2.706623 -1.2593495
0.77370787 -0.56269705 0.13595064 -0.4706813 -1.3206778 -0.9806261 0.2678938 -0.90959203
-0.10450966 -2.9213107 -0.25891924 -3.2275336 2.7114673 -1.0221918 -0.30164468 -1.7674277
-1.3570575 1.8599608 0.843594 0.6260078 -0.32912955 -2.07978 -1.0609719 -0.8991646
-1.0159339 0.99108887 -0.335262 -2.2798142 -2.4648402 0.2197595 0.39402166 -1.722886
2.3026156 1.3686521 -4.044941 2.1724834 -0.19577149 -2.1269574 0.57167274 -0.39113045
2.9154158 -0.5506593 -3.552788 -2.3503478 1.4436418 -0.5260197 0.4496532 -1.468585
2.2140207 -2.0804842 4.0143323 0.7562136 0.23002362 2.8938892 1.5317886 -0.6591485
2.5711584 4.4225044 -2.263689 0.1948686 -0.8564706 0.18629225 0.5534047 0.66789263
0.853073 -0.5172644 0.06220559 -1.8317659 0.7832299 0.80423784 2.4329183 2.2749498
1.8161314 -1.3311265 -0.36052173 1.9762887 1.7897084 -0.2421088 1.2879273 0.24910116
-0.35919392 1.6802931 -0.5916334 1.9096472 0.77143395 0.052914996 3.3146226 -2.5687966
-2.119638 0.24726233 0.4084711 -0.6002881 -1.3419672 -2.7674158 -1.2782822 -1.8912823
-0.3798624 1.4260347 -1.2437572 -0.087731905 -1.9702976 -1.5216544 1.7922806 0.6274255
-0.21306616 -4.1464243 0.612449 5.323091 -0.8169867 -2.247915 1.4445804 1.8343724
-1.0932711 0.8158546 -2.0401342 3.24021 -0.9851076 1.6839278 -2.7517414 -0.6971443
-2.2531555 -0.7264989 -2.4085774 0.105222 1.3669423 -1.0542843 1.3358295 0.8072895
-0.7521762 0.19929156 1.8445237 -3.3069346 0.467786 -1.5342689 1.4994771 -0.5180816
-0.7027283 2.211681 -0.20971358 -1.0522777 -0.45587084 2.8479803 -2.1851122 3.1164064
0.6388685 3.3368363 -1.5919635 1.7321049 -2.5035725 -4.2582736 1.754263 -0.68792146
-3.1568532 -1.7705051 -1.8417325 -2.1062737 -0.9176658 -1.5259122 2.1715143 -2.225063
2.245148 -1.0043993 0.28392047 -2.2453501 -0.76045907 1.0403315 -2.632525 0.38592502

linear0.weight f4 [32, 384]
00000000: 01f9 51bd f6cb b43c 59ee a9bd ba2f c5bc
00000010: 8f9e 9a3d 610f 9c3d 9ad8 c3bd ffc1 5d3d
00000020: 01a2 803d 101e b33d d161 39bd 2108 3a3d
00000030: b1e3 473d a676 2b3d 25f9 d1bd c524 d5bd
00000040: 5f35 143d dfda 66bd 40aa 20bd c170 b13c
00000050: 79ef 17bc effe f8bc 4b62 debc 6616 c4bd
00000060: 6b74 cdbd df33 9abd 4af8 b2bc 51bf 423d
00000070: ff38 cb3d d1d1 9ebc 7fac d0bd eb72 bc3d
00000080: 36d7 aebd fb65 cf3c 51a1 e13c 304a 193d
00000090: 617d c2bd efe9 41bd d6bd b4bc 610d cfbd
000000a0: 3921 873d 4573 e33d 9fd8 9a3d b194 48bc
000000b0: e1c7 66bd b7b9 833d 2590 e2bc 79fe 273c
000000c0: 853b c03d e765 04bd 4a9e 3f3d fa2f 3cbd
000000d0: a04d 893c eb03 d7bd 4072 9d3c bf4b d6bc
000000e0: 0f17 64bd dfd4 d83d c121 f13c c5f7 593d
000000f0: d717 0ebd 39b9 9c3d 3bb7 62bd 7189 fe3c
00000100: 0801 0abd 0154 773d 1f6c 91bd 87a7 13bd
00000110: 6182 803d 6648 483d 21c6 cbbd df3f a53d
00000120: 8f42 453d 7f70 a23d 0126 3bbd a1ac 9e3d
00000130: 912a bf3d 053a d93d 9a28 c1bd 775c a9bd
00000140: 2fdd 003d 1980 a0bd 4b3a cfbd 5ff8 813c
00000150: e131 b6bd f60f 34bc 115e 7dbd 9953 96bd
00000160: 6f22 c9bd f714 a6bd ff4e aebd 45ab c43d
00000170: dfc0 df3d a12e 83bd 99b7 a6bd 8f44 c03d
00000180: d761 92bd e1e3 973d eff5 723d c14c a03c
00000190: 7fda 18bd f5b1 d7bd 7f49 6abc 298c 11bd
000001a0: 201d c13d bff2 703c 6b76 623c dfbe 9bbd
000001b0: 594a 95bd 01e9 e03d 3fbc 50bd 81e4 e13d
000001c0: c149 883d cfc2 f8bc 3adb b33d 3a5e afbd
000001d0: a11a a53d 18b3 87bd 41c3 253d 9f60 49bc
000001e0: 65e4 d8bd ca70 c03d 61d9 783d e142 9c3d
000001f0: 2a60 c1bd cf76 133d 5f48 8ebd e00f aa3d
00000200: 21d9 73bc 3981 16bd b1c3 24bd 25c6 d1bc
00000210: 36fe c5bc 5655 cbbd 5622 b2bd eb06 debd
00000220: 00fb 3c3d 9610 b7bc ffdc d5bc 5982 23bd
00000230: e520 debd 2132 6cbd d0e0 e83b 2fbc d8bd
00000240: 171c 8cbc abbf 5dbc 3f7c 71bd 3a26 40bd
00000250: b812 09bd ffd0 4dbd 2b73 c6bd a6ff 33bd
00000260: 2189 70bc 3fa4 ddbd 01c5 203d 0751 a1bd
00000270: a13b 97bd 2967 a5bd f747 8ebd 3901 a8bd
00000280: f855 09bc 7f3f 9dbd 2902 80bc c907 93bc
00000290: 51d1 cebc e1d5 43bd ff3e 3bbc e7e4 21bd
000002a0: 4765 8ebd 8722 163d efd5 c6bd 590b a1bd
000002b0: df7f 32bd 4b0a ddbd 716b f7bc e1af e5bc
000002c0: 30a4 96bc b128 003d 27f1 80bd 3ad1 c8bc
000002d0: f0cb eb3b 2f02 03bd 89f7 92bd 76f2 49bd
000002e0: e556 5dbc 0082 7abd c128 83bd a70a a9bc
000002f0: 3133 9abd 8504 c3bd 1923 a8bd 0bd2 d1bd
00000300: f137 34bd 17a2 0e3d 684d 923c 4f3c c9bc
00000310: 71a4 d73c a88e 93bc df54 1bbd b1bc 4bbc
00000320: 00e5 4cbc 9f02 6abc 2087 7abb 8859 023d
00000330: 0023 2039 5acf 483d afc6 f3bc bf82 643c
00000340: 60e7 35bc c00b 68bc af39 e23c 9654 473d
00000350: baba afbc 81df 2e3c e7c4 9f3b 61f0 7fbc
00000360: fbbc d43c 8579 503c 403f 563b 4f24 e2bc
00000370: 5fe5 81bc 57b3 20bd 71db 3fbd 77b0 1f3d
00000380: f0da e1bb c0fa fb3c 1848 0a3d 9178 0c3d
00000390: ffc3 73bc afce 013d fb8b ccbc 8fce aa3c
000003a0: 31ed 4b3d 0f80 1b3d 9992 29bc d1e5 4ebd
000003b0: dfe8 1dbd 002f 3439 6fa7 443d f075 713c
000003c0: 1161 42bd 4a07 363d e53c d7bb 807a 3dbd
000003d0: df50 003d 1f42 373d f7d9 0cbd a8ac 033d
000003e0: 8625 3d3d cfab 423d 5fc1 483d bb5a 4fbc
000003f0: 9f32 aa3c 30bc 1f3d 07e2 8abc 0063 7fbb
-0.05126286 0.022069912 -0.08297414 -0.02407061 0.07549774 0.07620121 -0.09562798 0.054140087
0.062809 0.08745968 -0.0452593 0.04541791 0.048801128 0.0418612 -0.10252599 -0.10407404
0.03618371 -0.056361075 -0.039224863 0.02166021 -0.009273403 -0.030395 -0.02714648 -0.09574585
-0.100319706 -0.07529425 -0.02184691 0.047545735 0.099229805 -0.019387158 -0.10189151 0.09201606
-0.08537142 0.025317183 0.027542742 0.037424266 -0.094965704 -0.047342237 -0.022063177 -0.10109974
0.065981336 0.1110597 0.075608484 -0.012242482 -0.056342963 0.06431907 -0.027656624 0.010253542
0.093863524 -0.032323744 0.046781816 -0.04594419 0.016760647 -0.10498794 0.019219518 -0.026159165
-0.055686053 0.10587477 0.02943504 0.053214807 -0.034690704 0.07652516 -0.055350523 0.031071397
-0.03369239 0.060382847 -0.071007006 -0.03604844 0.06274868 0.04889717 -0.099498995 0.08068823
0.04815918 0.07931613 -0.04569054 0.0774777 0.09334291 0.106067695 -0.09431572 -0.082695894
0.031460937 -0.07836933 -0.101185404 0.015865503 -0.088962324 -0.0109901335 -0.061857287 -0.07340164
-0.09821021 -0.081094675 -0.08511161 0.096029796 0.10925459 -0.06405378 -0.08140487 0.093880765
-0.07147568 0.07416511 0.05931657 0.01956785 -0.03731775 -0.105319895 -0.014299749 -0.035534058
0.09429383 0.014706313 0.013822178 -0.07604765 -0.07289571 0.10981942 -0.050960775 0.11029912
0.066546924 -0.03036633 0.087820485 -0.08562894 0.0806172 -0.06625956 0.04046941 -0.012291103
-0.10590438 0.09396513 0.060754184 0.07629944 -0.0944217 0.036001977 -0.069473974 0.08303809
-0.0148833105 -0.03674433 -0.04022569 -0.025607178 -0.024169069 -0.09928386 -0.08697955 -0.10841163
0.04613781 -0.022346776 -0.026106356 -0.03991923 -0.10846118 -0.057664994 0.007106878 -0.10582768
-0.017103238 -0.013534467 -0.05895638 -0.046911456 -0.033465117 -0.050248142 -0.09689935 -0.043944977
-0.014681132 -0.10822343 0.039250378 -0.07876783 -0.0738442 -0.08076317 -0.0694732 -0.08203358
-0.008382313 -0.076781265 -0.01562603 -0.017948048 -0.025246294 -0.047811393 -0.011428594 -0.03952494
-0.06952911 0.03665402 -0.09708773 -0.078634925 -0.04357898 -0.10792979 -0.0302026 -0.028037967
-0.018388838 0.031288806 -0.06295996 -0.02451383 0.007195942 -0.031984504 -0.0717612 -0.049303494
-0.013509487 -0.061159134 -0.064042576 -0.020634962 -0.07529295 -0.095223464 -0.08209819 -0.10245141
-0.043998662 0.03482255 0.017859176 -0.02456489 0.026323529 -0.01801236 -0.037922736 -0.012435124
-0.01250577 -0.0142828515 -0.0038227513 0.031823665 0.00015271828 0.04902587 -0.029757826 0.013947188
-0.011102527 -0.014162958 0.027615396 0.04866465 -0.021451343 0.010673405 0.0048757675 -0.015621276
0.02596902 0.012724285 0.0032691509 -0.027605204 -0.015856443 -0.03923353 -0.046840135 0.03898665
-0.0068925545 0.030759215 0.03376016 0.03429467 -0.014878272 0.03169125 -0.024969092 0.020850448
0.04978675 0.037963923 -0.010349893 -0.05051214 -0.03855216 0.00017183647 0.04801124 0.014737591
-0.04745585 0.044440545 -0.0065685385 -0.046259403 0.031327125 0.044740792 -0.034387555 0.03214708
0.046178363 0.04752713 0.049012538 -0.012655909 0.020776091 0.03899783 -0.016953481 -0.003896892

linear0.bias f4 [32]
00000000: bf5d d8bd 80cd 80be eff1 73bc 81e5 8ebe
00000010: 2f78 43bd 254b dcbd 36e6 b8bc e15b cd3e
00000020: 4f88 23be 5a00 bbbd 11df e6be b745 84be
00000030: 1fce 8cbe d094 cebe 49c6 80bd 4f06 64be
00000040: d12d 90be e182 a0bc 866b 4bbe c02e b8bd
00000050: 27b0 9ebd 665c 32bc c094 18bd 8535 0b3e
00000060: ef98 c1bd 5fdc 21be 481c 89bb 8f5f 5fbd
00000070: 3f7b 7cbd 3af7 abbd cf20 79be 0fde 79be
-0.10564756 -0.25156784 -0.014889224 -0.27909473 -0.047722038 -0.1075652 -0.02257071 0.4010916
-0.15969966 -0.091309264 -0.4509206 -0.25834438 -0.27501008 -0.4034791 -0.0628782 -0.22268032
-0.28159955 -0.019593658 -0.19865236 -0.08993292 -0.07748442 -0.010886287 -0.037251234 0.13594635
-0.09452998 -0.15806721 -0.0041842796 -0.05453449 -0.061640974 -0.08396764 -0.24328922 -0.24401115
