model/global_model_7.pth (torch, 330938 bytes, 17 tensors)

conv1.lin_l.weight f4 [16, 1]
000000 71 2a 22 bf ef ad 5e bc 46 ac 31 bf 91 ff 26 bf
       -0.6334601 -0.013591274 -0.69403493 -0.65233713
000010 e1 4e 00 bf 79 2b 8d 3e 11 0e 56 bf 9f d2 1b be
       -0.5012036 0.2757223 -0.83615214 -0.15217064
000020 d7 b5 22 bf ca 61 ae 3d 38 5f 88 be 55 af 60 bf
       -0.63558716 0.085147455 -0.26635146 -0.87767535
000030 45 34 51 3d 3f a2 f8 be a1 91 c6 3e 61 8f e8 be
       0.05107524 -0.48561284 0.3878298 -0.4542189

conv1.lin_l.bias f4 [16]
000000 07 cb 1e be 59 bf 17 3f ef 69 8a bf 5a c6 be 3e
       -0.15507136 0.5927635 -1.0813578 0.37260705
000010 1b 0d e3 3e 80 af 91 be b5 bd 51 bf ba 0f c8 3e
       0.44345936 -0.28454208 -0.81930095 0.39074498
000020 ff cb 2a 3f 2a 27 32 bf 8f e3 21 3f 01 f3 70 bf
       0.66717523 -0.6959101 0.6323785 -0.94120795
000030 1f 43 ff 3e 50 7c 84 be e1 03 ca be d0 53 d9 bd
       0.49855897 -0.25876093 -0.39456084 -0.10611689

conv1.lin_r.weight f4 [16, 1]
000000 d1 bd 7f bf a1 87 00 bf 16 1c 3d 3e b1 4b 5b bf
       -0.9989901 -0.50206953 0.18467745 -0.8566237
000010 11 6b a5 be b7 e8 16 3f 1a 56 38 bf c0 6f ec 3d
       -0.32308248 0.58948845 -0.7200638 0.11544752
000020 8f ee f9 be 40 49 51 bf 2b 62 57 bf 1b d1 db 3d
       -0.48814818 -0.81752396 -0.8413417 0.10733243
000030 3f 2c 44 bf e6 b7 4b bf e9 51 8a be 80 34 65 bd
       -0.76630014 -0.7957748 -0.27015617 -0.05595827

conv2.lin_l.weight f4 [64, 16]
000000 b1 99 ac bd 5f 13 0f 3e 9f b9 b8 bc a8 91 0f 3e
       -0.08427752 0.13972233 -0.022549449 0.14020407
000010 88 3a 0a bd 81 04 62 bd f0 47 17 be d0 2f c8 3d
       -0.033747226 -0.055180077 -0.14773536 0.097747445
000020 5f 6a fc 3d 2f 9a 3e 3d 27 c1 06 be 17 45 0f 3e
       0.12324976 0.04653376 -0.1315962 0.139912
000030 a9 5e 9d 3d 89 2e 24 3e 9f 3d c3 be 51 2e 42 be
       0.076840706 0.16033377 -0.3813295 -0.18962981
000040 47 96 17 3e c7 e1 93 be 41 ad a4 3d f1 6e 2d 3e
       0.1480342 -0.28883192 0.08040858 0.16936852
000050 2f 3d 90 3d 31 a4 49 3d 61 3d a1 bd 38 c6 86 be
       0.0704292 0.04922885 -0.07873035 -0.26323104
000060 75 f1 56 3e ef e9 88 be e1 67 72 be 97 ce 9c bd
       0.20990546 -0.26740977 -0.23672439 -0.076565914
000070 81 17 61 be a0 61 1b be 17 2b 99 be af 1f e4 bd
       -0.21981622 -0.1517396 -0.29915687 -0.11138856
000080 21 e9 85 bd 56 0c b7 bd 5f 51 25 3e e0 79 60 bc
       -0.065386064 -0.089379 0.16144322 -0.013700932
000090 40 88 bc 3b df 83 de bb a5 58 e2 3d c1 6c 14 3e
       0.005753547 -0.0067906226 0.11052064 0.14494611
0000a0 26 f3 b6 3d ef 7e ca bd c0 a1 23 bc 45 66 c2 3d
       0.08933096 -0.09887492 -0.009987295 0.094921626
0000b0 c7 05 8a bd 81 d2 04 be 20 05 96 be 60 d2 48 be
       -0.06739383 -0.12970926 -0.29300785 -0.19611502
0000c0 af 3e f8 3d af a2 6a be cf 22 c9 bd 51 57 e8 3d
       0.12121331 -0.22913621 -0.09821092 0.11344779
0000d0 bf 00 e9 3d 09 92 90 be 80 2a 91 3c 77 5c 1e be
       0.113770954 -0.28236416 0.01772046 -0.1546496
0000e0 b0 fc be 3c 5a ef b6 be c1 80 22 3e 40 de 86 bc
       0.02331385 -0.35729486 0.15869428 -0.016463399
0000f0 df 2e aa be 5a ce 3f 3e c0 a3 d5 3d 71 b9 fe bd
       -0.33238885 0.1873106 0.104316235 -0.12437714
000100 8f 6e 43 3e 35 22 de 3d e6 1a 3a be e7 51 a8 3d
       0.19085144 0.10846368 -0.18174323 0.08218747
000110 a0 d9 53 bc f0 2b 5e be 50 09 2f 3e ff bf a6 be
       -0.012930304 -0.21696448 0.17093396 -0.32568356
000120 6f f4 1f 3e 51 d1 72 be 00 bc 7e 3e e1 6c 80 bd
       0.15620588 -0.2371266 0.24876404 -0.06270767
000130 91 d3 1d be c1 17 23 be ef 7a a3 be 81 48 39 be
       -0.15412737 -0.1592703 -0.31929728 -0.18094064
000140 ea 9d 48 be 41 f9 8e bd 3f c6 84 be 41 8a f4 bd
       -0.1959149 -0.06981135 -0.259325 -0.11940432
000150 41 a0 75 3e f8 3b 13 be b0 87 de bd 0a 5b 2b bd
       0.23986913 -0.14378345 -0.10865724 -0.04183487
000160 c1 47 74 3e df 99 72 be bf 38 1b 3e ef fa c2 be
       0.23855497 -0.2369151 0.15158366 -0.38082072
000170 d9 c7 a9 be f0 ea e8 3c 31 49 e6 be 90 36 00 be
       -0.33160284 0.02843234 -0.44977716 -0.12520814
000180 21 68 53 be b9 4e a3 bd c5 7a da bd c0 86 9e 3b
       -0.20645191 -0.079739995 -0.10667948 0.004837841
000190 01 f7 51 be 1f 7f 9d be e1 83 22 be c1 15 8c be
       -0.20504381 -0.30761048 -0.1587062 -0.27360347
0001a0 a0 d8 1c 3c 71 5a 1c 3e 21 42 4a be 1a cf 2c 3e
       0.009573132 0.15268876 -0.19751789 0.16875878
0001b0 01 48 36 3e 0f 5b 7e 3e bf e4 0a be f0 73 e0 3c
       0.17800905 0.24839424 -0.13563822 0.027399033
0001c0 11 b3 e3 3d 0f a7 51 be 4f c7 e9 bd ef 91 c8 bd
       0.111181386 -0.20473884 -0.11414968 -0.097934596
0001d0 00 b4 0e 3e 81 53 0c be 21 70 2b be cf 28 91 be
       0.13935852 -0.13703729 -0.16741993 -0.28351447
0001e0 df c2 e7 bd 21 5c bc bc 6f f2 3c be 97 a4 84 be
       -0.113164656 -0.02299315 -0.18451856 -0.25906822
0001f0 a1 17 ae bd c1 83 cb bd 4f a0 4d be 81 0e 18 be
       -0.085006006 -0.099372394 -0.20080684 -0.14849283
000200 d0 67 f0 bc f0 c5 30 3d c1 82 01 be 5a 91 c2 bd
       -0.029346377 0.043157518 -0.12647535 -0.0950038
000210 70 02 07 3e df 2c 07 be bf 44 7b be 1f e8 f2 3d
       0.13184524 -0.1320071 -0.24537943 0.1186068
000220 f1 a2 d7 3d c5 92 54 3e 01 00 c4 3d 00 2c d8 bb
       0.105291255 0.20759113 0.09570313 -0.006597042
000230 41 00 7f 3d f1 dc 52 3e a0 4a 09 bc 21 24 1c be
       0.0622561 0.20592095 -0.008379608 -0.15248157
000240 10 a9 4a bd fa b3 37 be 17 f4 97 3d 71 36 91 3d
       -0.049477637 -0.1793975 0.07419603 0.07090462
000250 9a 3a 4b be a1 f0 67 be 6b 0f 5e be 7f 1a e3 bd
       -0.19846573 -0.22650386 -0.21685569 -0.11089038
000260 d0 e0 03 3d 6b 3c d3 3d bf e3 76 be f9 3e 9d be
       0.03219682 0.10314258 -0.24110316 -0.30712107
000270 26 4c bd 3d a1 6b 71 3e 5f 8d ec 3d 00 82 15 3d
       0.0924304 0.23576213 0.11550402 0.03650093
000280 70 d5 83 bd 70 94 cc bc 91 15 08 3e 01 6d 15 3e
       -0.06437194 -0.024973124 0.13289477 0.14592363
000290 e6 75 45 bd bf 1b 4d be 70 41 ed bd 06 24 31 3e
       -0.04820814 -0.20030116 -0.11584747 0.17298898
0002a0 41 17 00 be 0f 5f 82 3d 05 45 cf 3d 10 53 fc bd
       -0.1250887 0.06365787 0.10120586 -0.123205304
0002b0 1a 8b 2e be bf e5 57 3e 1a d7 2f 3e 50 e2 29 bd
       -0.1704525 0.21083735 0.17171898 -0.041475594
0002c0 a1 da 45 be d1 ce 31 be 00 24 eb 3c 50 64 fe 3d
       -0.19321682 -0.1736405 0.02870369 0.12421477
0002d0 21 38 5f 3e 1f 17 b7 3d 60 fa 62 3c 69 a8 23 be
       0.21798755 0.08939957 0.013853639 -0.15982212
0002e0 b1 a5 18 3e a7 d5 9f 3a 4f d7 72 be 3b ff c0 bd
       0.14906956 0.0012194411 -0.23714946 -0.09423681
0002f0 b1 bd 8b bd 30 b4 8c 3c b7 61 9e be 86 b5 4b be
       -0.0682329 0.017175764 -0.30933926 -0.19893464
000300 cf b7 48 be 9f 04 0b be 4f 9f 9b bc 0f 93 ff bd
       -0.19601367 -0.13575982 -0.018996863 -0.12479221
000310 a5 78 57 3e db 62 d3 bd e0 9e 14 3d bf 69 25 be
       0.21042116 -0.103215896 0.036284328 -0.1615362
000320 8f 84 02 be 0a 1a af bd cf b3 06 3e 19 b8 19 3d
       -0.1274588 -0.085498884 0.13154529 0.037529085
000330 ab 15 d3 3d e5 cb 56 3d c7 24 16 3e a0 58 c1 3c
       0.10306867 0.052440543 0.14662467 0.02360183
000340 61 61 7a bd 5f 18 02 be 81 66 fb bc 11 af 24 3e
       -0.061128024 -0.1270461 -0.030688526 0.16082408
000350 51 ac c3 3d 57 22 8b 3d a0 82 24 be e1 58 b9 3c
       0.09554351 0.06793659 -0.16065454 0.022625389
000360 cf 5f 35 3e 57 b5 06 3e f6 1e 32 be 2f 29 af bd
       0.1771233 0.13155113 -0.17394623 -0.08552777
000370 66 b7 b3 3c 90 d7 11 bd aa 76 b7 3c f0 3c 89 3d
       0.021938037 -0.035605967 0.02239545 0.06701076
000380 1f cc 41 3e e7 6c a2 3d 86 52 3a 3e f0 80 fe 3d
       0.18925522 0.07930928 0.18195543 0.124269366
000390 10 ec 58 be 19 31 0c be d0 4a 60 3e 10 fa 99 bc
       -0.211838 -0.13690604 0.21903539 -0.018795997
0003a0 b7 63 0c be af 7a 6d 3e e0 a8 e9 3c 11 0f 0c be
       -0.13709913 0.23191331 0.028522909 -0.13677622
0003b0 1b 1e 5f be 40 41 e3 bb 2f 33 8a 3d 65 da 54 bd
       -0.21788828 -0.0069352686 0.06748044 -0.05196609
0003c0 71 b6 14 3e c7 cc 8b 3e 21 ac 0f 3e d0 47 3b 3e
       0.14522721 0.2730467 0.14030506 0.18289113
0003d0 e1 79 f3 3d 51 18 c3 3c 80 3a 82 bc ff 02 5e 3c
       0.11888481 0.023815306 -0.015897036 0.013550519
0003e0 cf 51 64 be 57 69 8b 3c 01 c4 ed 3d a7 2f 9c 3c
       -0.22296833 0.017018003 0.116096504 0.019065691
0003f0 ff 80 0c bc e1 0d cc 3d 35 3f 5a 3d 00 ff e5 3b
       -0.008575677 0.09963585 0.053282935 0.0070189238

conv2.lin_l.bias f4 [64]
000000 99 e6 96 bd 5f ee f7 bd d9 25 a6 be 76 74 bb be
       -0.07368202 -0.121060126 -0.3245075 -0.3661229
000010 0f ac dd bd 8f 1b b2 be 4f 9f 2c 3e ff 1e 4d 3d
       -0.10823833 -0.3478665 0.16857646 0.05007839
000020 e0 d7 50 3d 60 49 4e be 90 96 4f 3d 21 4d 09 3d
       0.050987124 -0.20145178 0.050680697 0.03352082
000030 6f a0 01 3e 01 fd a1 3c af 9d 56 be af fb 75 be
       0.12658857 0.019773962 -0.20958589 -0.24021791
000040 67 99 9e bd 3f 83 6c be a0 e6 95 be a7 77 9c be
       -0.07744103 -0.23096941 -0.29277515 -0.30560037
000050 91 9f 71 be 5a f2 ac 3d c5 cf cd bd 1f a6 62 bd
       -0.23596026 0.084446624 -0.100493945 -0.055334207
000060 4a 8a 2f 3e 11 b2 1d be d0 57 02 3e 21 1d ca bd
       0.17142597 -0.15399958 0.1272881 -0.09868837
000070 77 31 88 be fa 90 ad 3d 61 81 94 be f5 e3 e0 be
       -0.2660024 0.08474918 -0.29004958 -0.43923917
000080 bf 55 5a be 2f 69 49 3e 55 ae df bd e7 68 28 be
       -0.21321772 0.1966903 -0.10921923 -0.16446267
000090 7f 69 9b be e9 3e 21 3e f0 81 30 3e 50 6e e4 3d
       -0.30353925 0.15746655 0.17237067 0.11153853
0000a0 a7 18 22 bd 7b 52 db bd 78 f1 07 bc 69 62 16 be
       -0.03957429 -0.10709091 -0.008297317 -0.14685978
0000b0 cf 71 e3 bd c5 dc cf bc f0 1e 53 be 80 a5 c6 be
       -0.11105692 -0.025373826 -0.2061727 -0.3879814
0000c0 a7 f0 a1 be 86 77 b5 be 41 ca 0f 3d a5 ff 56 be
       -0.31628916 -0.35442752 0.035104994 -0.20995958
0000d0 b1 24 ac bd 00 77 a9 bd 29 d5 1c 3e c6 e9 b6 3d
       -0.08405436 -0.082746506 0.15315689 0.089313075
0000e0 c1 69 b0 be b1 f5 40 3e 7f fe f9 bd 9a a6 3a be
       -0.34455684 0.18843724 -0.122067444 -0.18227616
0000f0 cf a2 b9 3d 11 81 9f 3d 1f 2b 1c 3e 29 7f 95 3c
       0.090642564 0.07788289 0.15250824 0.018249111

conv2.lin_r.weight f4 [64, 16]
000000 d0 f6 22 be 11 fe c3 3d 0f 00 97 be a1 ea a6 3d
       -0.15914464 0.09569944 -0.29492232 0.08150221
000010 4f 63 13 be 5f af 83 3d 37 13 26 3e 6a 69 4c be
       -0.14393352 0.06429934 0.16218267 -0.19962087
000020 9f a4 06 be 57 33 00 3e c6 88 b7 bd 8f a8 25 be
       -0.13148735 0.12519585 -0.08961634 -0.16177581
000030 6f 56 22 be 5a 15 35 be 08 0b 0a be ff e1 04 3e
       -0.15853284 -0.17683926 -0.1348077 0.12976836
000040 40 e2 0f bd 01 77 85 be 09 be 90 be a0 dc 8a 3c
       -0.03512788 -0.26067355 -0.28269985 0.016950905
000050 60 c6 06 3e ff ed 1a be c1 fb 27 be ef c4 a3 3c
       0.13161612 -0.15129851 -0.1640463 0.019991366
000060 9f c6 29 3e e5 42 d6 bd 26 00 c7 bd a9 6a 18 3d
       0.16579674 -0.10461978 -0.09716825 0.037211094
000070 8f 6f 88 be cf 95 24 be a7 c1 8b 3d f1 46 0d 3e
       -0.26647612 -0.16072772 0.06824046 0.13796593
000080 41 14 e6 3d b1 c7 27 3e 21 e3 3f 3e 91 10 01 3e
       0.11234332 0.1638477 0.18738987 0.12603976
000090 71 13 20 3e f1 49 e3 ba 40 23 85 3d 21 f9 79 bd
       0.15632416 -0.0017340762 0.06500864 -0.061028603
0000a0 91 5a 3c 3e 90 1d c0 bd c0 f3 63 be 6f e5 76 3e
       0.18393923 -0.093806386 -0.22260952 0.2411096
0000b0 51 ab 60 3e 0a 24 49 be 90 55 b7 bd 9f 9e 60 be
       0.21940352 -0.19642654 -0.089518666 -0.21935509
0000c0 60 cf 40 3d 20 c0 73 3d fb f8 ca bd 7b 2b 50 bd
       0.04707277 0.059509397 -0.099107705 -0.050822716
0000d0 11 f3 be 3d 71 16 dc 3b 25 b2 5a 3e e1 30 9a be
       0.09323705 0.0067165424 0.21357019 -0.30115417
0000e0 50 7d 45 3e e1 22 73 be 1f 4a 96 bd 45 bf dd 3d
       0.19286084 -0.23743774 -0.07338356 0.108274974
0000f0 50 67 ce bc e5 ea 53 3d 8f 61 0b be 91 e2 a3 bd
       -0.025195748 0.051737685 -0.13611434 -0.080021985
000100 00 8f af 3c 00 cb 09 3d 41 6f 71 be a6 3a 32 bd
       0.021430492 0.03364086 -0.23577596 -0.043512963
000110 11 e0 ef 3d bf 1d d5 3d d9 94 0a be 6f bb fd 3c
       0.11712659 0.10406064 -0.13533343 0.030973164
000120 80 f7 65 3b 31 6f 29 3c 38 82 89 3d 56 0f ad 3d
       0.0035090148 0.0103414515 0.067142904 0.08450191
000130 f7 e5 a5 3d 9f c6 71 be 81 64 35 bd ef e1 8a 3d
       0.08100503 -0.23610924 -0.0442853 0.06781375
000140 af f8 09 be df 01 07 bf e1 a4 0e be a6 6f 45 3d
       -0.13473772 -0.5273723 -0.13930084 0.04820218
000150 b8 87 08 3d 71 06 93 be 10 0a 26 3e 01 59 02 bf
       0.033332556 -0.28715852 0.16214776 -0.5091706
000160 f8 fb 1b be 51 b5 02 bf 30 e1 79 be a6 bb b9 be
       -0.15232837 -0.51057917 -0.24402308 -0.36275977
000170 4f a4 e0 be 21 85 03 be 45 de 43 be 60 b4 de bd
       -0.43875358 -0.12843753 -0.19127758 -0.108742476
000180 a8 b7 9c bd ef 02 67 be 3b 8a d5 bd b7 57 1d 3e
       -0.07652217 -0.22559713 -0.10426756 0.15365492
000190 df 72 40 3e ef dd ed 3d 48 42 96 bd 27 1d 09 3e
       0.1879382 0.11614596 -0.07336861 0.13390027
0001a0 07 cf 21 be bf ce 16 bd 3f 93 57 3e 10 ef 60 be
       -0.15801631 -0.036818262 0.21052264 -0.21966195
0001b0 c5 6d d4 3d 00 ca 2f 3a 8b dc db 3b ff 54 6b be
       0.103724994 0.00067058206 0.0067096404 -0.22981642
0001c0 81 58 6e 3e 11 04 90 be b1 ec 73 be c1 10 c2 bd
       0.23275949 -0.28128102 -0.2382076 -0.09475852
0001d0 80 88 7f bd 2b fe d4 3c 85 01 5d bd 17 07 0f 3e
       -0.062386036 0.026000103 -0.053956527 0.13967548
0001e0 bf f2 72 be 3f ae f8 3d fa 1d 4b be 85 1a 5b 3e
       -0.23725413 0.1214261 -0.19835654 0.21396835
0001f0 bf 14 7b be c0 f5 eb 3c 5f 8e 5d bd cf 71 e1 bd
       -0.24519633 0.028803706 -0.054090854 -0.110080354
000200 61 d2 bd 3d b1 38 61 3e 81 b5 78 bd 8f 6b 37 be
       0.09268642 0.21994282 -0.06071997 -0.17912124
000210 cf 18 0b be b0 b7 e7 bd f9 91 05 3e f0 58 4f be
       -0.13583682 -0.113143325 0.13043965 -0.2024877
000220 3a f4 3a 3e a7 75 a3 3d 68 41 9a 3d 6f 64 34 be
       0.18257228 0.07981425 0.075320065 -0.17616437
000230 af fe e5 bd c1 67 18 be 05 1b da 3d 30 08 d8 3d
       -0.11230218 -0.14883329 0.10649685 0.10548437
000240 50 79 3e 3e 6a f7 42 bb ef ed 6f 3d d0 08 7f 3d
       0.18600965 -0.002974952 0.05857652 0.062264264
000250 10 a7 60 bd b1 a2 25 3d 2f 15 34 be f1 23 68 be
       -0.054846823 0.040438358 -0.17586206 -0.2266996
000260 60 ef 37 3d 60 3a 84 bc 00 d1 ca 3c b0 de f9 bb
       0.04490602 -0.016141117 0.024757862 -0.0076254234
000270 1a 75 40 be 5b a0 cd bd 71 18 f8 bd a8 b5 0f bd
       -0.1879467 -0.10040351 -0.12114037 -0.03508535
000280 9f 6b b4 bd 8f 2f 4a 3e 6f 75 19 3e 01 3d 70 be
       -0.088095896 0.19744705 0.14986204 -0.23460771
000290 bf 8c c0 3d e1 ac 5c be 30 fd b2 3d cf a2 78 be
       0.09401845 -0.21550323 0.08739698 -0.24280857
0002a0 c8 a2 0f 3d cf c8 1a be c0 88 7c 3e 7f 15 61 be
       0.03506735 -0.15115665 0.24661541 -0.21980856
0002b0 c1 d9 fc bd c1 5a 71 3e 9a f7 46 bd e1 14 7a 3e
       -0.12346221 0.23569776 -0.048575975 0.24422027
0002c0 a5 2f 60 bd f1 22 0d 3e 91 40 79 be e0 76 30 3d
       -0.054732937 0.1378286 -0.24341036 0.043082118
0002d0 f0 1e 86 3d af 09 80 bd b1 22 fe bd ff c8 6d be
       0.065488696 -0.06251847 -0.124089606 -0.23221205
0002e0 c5 b2 e1 3d 11 4c af bd 3a 83 30 3e 2a e4 37 3e
       0.11020426 -0.085594304 0.17237559 0.17958131
0002f0 1f 80 1a 3e 20 2e 97 3d ef c2 43 be 40 34 33 3e
       0.15087937 0.073818445 -0.1911733 0.175004
000300 06 c2 3c be 21 6b 38 bc 2a 1d b7 bd a0 1e 1b 3e
       -0.18433389 -0.01125601 -0.089411095 0.15148401
000310 5f d1 1d 3e bf e1 3b be 67 b9 24 3e e1 bc be 3d
       0.154119 -0.18347834 0.1608635 0.093133695
000320 ef ac a5 3d f1 52 f6 bd 7f 32 1f be df 85 6b be
       0.08089625 -0.120275386 -0.15546606 -0.23000287
000330 af c3 36 be 4f f7 51 be 40 24 cc 3c 4f f3 36 3e
       -0.17848085 -0.20504497 0.02491963 0.17866252
000340 2b 27 62 3e c0 60 0d be bf b6 02 be 9f 54 61 3e
       0.22085254 -0.13806438 -0.12765025 0.22004937
000350 30 ea bc 3c 19 38 89 bd c0 3c 00 3e 1f 1b 43 be
       0.023060888 -0.06700153 0.12523174 -0.19053315
000360 f1 37 31 be 8f 4c 11 be 5a c8 c1 bd 99 36 8c 3d
       -0.17306496 -0.14189361 -0.09462042 0.06846351
000370 6f a9 02 be 6f 19 7c 3e 95 a3 4e be b0 88 11 be
       -0.12759946 0.24619077 -0.20179589 -0.14212298
000380 66 67 33 3e 41 9e 74 3e 71 96 6e be da 35 47 be
       0.17519912 0.23888494 -0.23299576 -0.19454136
000390 47 c5 00 be 81 53 c5 bd 80 67 5a be 25 0f d3 3d
       -0.12575255 -0.09635068 -0.21328545 0.10305623
0003a0 58 40 92 3d a0 fe 9a 3d d0 c8 5a 3d 11 ef 68 3e
       0.07141179 0.07568097 0.053414166 0.22747447
0003b0 18 c1 94 bd 36 98 33 be 86 3d 43 3d 80 c9 19 3e
       -0.07263392 -0.17538533 0.047666095 0.15018272
0003c0 50 77 61 be 0f ae 91 bd 0f 78 19 bb c1 21 65 3d
       -0.2201817 -0.07113277 -0.0023417508 0.055940393
0003d0 e0 11 96 bc 5f 32 9c bd 80 ce 65 3b 35 41 57 3d
       -0.01831907 -0.07626795 0.003506571 0.05255242
0003e0 20 68 0f bd 6f 86 c8 bd 25 c1 e2 3d 91 8a 47 3d
       -0.03501141 -0.09791266 0.11071996 0.04871613
0003f0 7f 76 4c 3e a0 d9 94 3d 41 86 0b be 30 7e b2 bd
       0.19967078 0.07268071 -0.13625433 -0.087154746

lstm_cell.weight_ih f4 [256, 192]
000000 7f 5b 00 3e 30 ff 3c 3e b1 47 91 bd 08 3e 99 3c
       0.12534903 0.18456721 -0.07093752 0.018706337
000010 89 37 29 3d 06 31 39 be c1 a8 3a 3d b7 63 8b 3d
       0.041312728 -0.18085107 0.045571093 0.068061285
000020 9b 15 d4 bd ef f2 ce bc a6 f1 b3 3d 79 f6 10 3e
       -0.103556834 -0.025262324 0.08786325 0.14156522
000030 ff c4 0b 3e 1b 82 49 3e 80 dd b0 3b 21 73 4f be
       0.13649367 0.19678538 0.0053974986 -0.20258762
000040 b7 4f 1c 3d 11 07 2c 3e 2f 65 43 bc 47 fc 01 3e
       0.03816196 0.1679957 -0.0119259795 0.12693892
000050 c5 b2 e0 3d 81 27 27 3c 16 8a 2d 3d 7f c2 71 3d
       0.109715976 0.01020229 0.042368017 0.059023377
000060 20 ad 12 bd ff 62 fc 3d 41 be ee 3d 3a ae 34 3e
       -0.035809636 0.123235695 0.11657382 0.17644587
000070 b1 8c 3f bd a6 9e b8 be ef 97 44 3e b6 83 47 bd
       -0.046765033 -0.3605854 0.19198583 -0.048709594
000080 30 71 3c bc 26 79 3a 3e c6 3d 4a be 99 d9 21 3e
       -0.011501595 0.18210277 -0.19750127 0.15805663
000090 81 94 86 3c b1 2d fe bd bf c3 26 3d 58 30 0f bd
       0.016428234 -0.12411059 0.04071402 -0.034958214
0000a0 cf 93 0f be 00 34 ce 3d bf f1 c7 3d 48 2d 0b 3e
       -0.14021228 0.10068512 0.09762906 0.13591492
0000b0 a6 dd 4b 3e a1 9c 35 bc b7 1f a1 3d 50 dc 3d bd
       0.19908771 -0.0110847065 0.07867377 -0.046352684
0000c0 3a 54 3a ba 30 1e 51 bc a0 01 28 bd 8b eb d8 3d
       -0.00071078876 -0.012763545 -0.041017175 0.10591801
0000d0 31 be a9 3d 57 71 1e 3e 6a 9c 46 3e 88 4d 14 ba
       0.08288229 0.15472923 0.19395605 -0.0005657305
0000e0 40 66 f0 3d 71 a8 28 3e 61 bc b0 ba c1 15 5b 3e
       0.11738253 0.16470505 -0.0013483876 0.21395017
0000f0 4f ac 1b 3e a0 5b ed 3d cb 82 5f bd a1 a7 97 3d
       0.1520245 0.11589742 -0.054568093 0.074050196
000100 bd 57 83 bf f6 19 56 40 27 f6 29 40 61 a5 34 40
       -1.0261151 3.3453345 2.655649 2.822594
000110 88 1a 14 40 16 53 b4 40 88 75 e5 40 1f 54 bd bd
       2.3141193 5.6351423 7.170597 -0.092445605
000120 ee b3 b4 40 f6 c5 f2 40 ae 7b ef 40 5a 3f d3 40
       5.646964 7.586665 7.4838476 6.6014833
000130 72 88 ca 40 56 cd d7 40 92 76 0c 41 92 6f f4 40
       6.329156 6.7438154 8.778948 7.6386194
000140 ac f4 fc 40 f7 1e d9 40 d0 a9 ee 40 7f f5 ec 40
       7.904867 6.78503 7.458229 7.404968
000150 2c 07 ed 40 da 02 ad 3d ea db 05 41 15 00 aa 40
       7.4071255 0.084478095 8.36619 5.31251
000160 fa f8 e5 40 8e f2 e5 40 46 1f e0 40 34 58 01 41
       7.1866426 7.1858587 7.0038176 8.084034
000170 11 a6 ea 40 40 e5 e4 3b 46 39 44 3d a1 56 8f 3d
       7.332772 0.0069853365 0.047906183 0.06998945
000180 d1 d6 3a bd 2a e4 ab bd 5f e8 37 3d 71 ef 09 3d
       -0.04561502 -0.08393128 0.04489934 0.033675615
000190 9f 9c c0 3d 01 1f 2a 3d e1 39 d4 bd 20 49 96 3b
       0.09404873 0.041533474 -0.10362602 0.004586354
0001a0 01 d8 90 3d 60 f6 fd bb 9f b2 ef bd c1 c3 e5 bd
       0.070724495 -0.0077503175 -0.11703991 -0.11218978
0001b0 00 8f 6c 3b 70 66 02 bd f0 14 6d 3c c0 5b 55 bd
       0.0036095977 -0.031835973 0.014470324 -0.052089453
0001c0 a0 8e 97 bd bf 85 05 3d e0 6b fb bc 00 c3 93 3b
       -0.074002504 0.032598253 -0.030691087 0.00450933
0001d0 e0 66 53 bc 3f 0c a6 bd 06 26 b1 bd b1 83 f6 bd
       -0.012902945 -0.081078045 -0.086498305 -0.12036837
0001e0 ef fe c6 3d c0 5a 3c 3c 86 b9 b7 bd ff 54 e8 3d
       0.097165935 0.011496246 -0.08970933 0.11344337
0001f0 bf 37 ae bd 0f 7a e6 bd 41 1d 43 3d 08 af 90 bd
       -0.085067265 -0.112537496 0.04763532 -0.070646346
000200 41 c6 fe bc b8 84 fd 3f 82 88 a3 3f 9f a9 e9 be
       -0.031100394 1.9806128 1.2776034 -0.45637223
000210 68 56 07 bf 04 c0 16 40 ff 74 d4 3d ea 7a 53 40
       -0.5286622 2.3554697 0.10373878 3.304377
000220 9e 6b d4 40 b4 99 b9 40 81 3a c4 bd de 58 eb 40
       6.638137 5.8000126 -0.09581471 7.354598
000230 e5 9c f6 40 c0 d2 f7 40 11 96 d4 3d 97 08 06 41
       7.706652 7.7444763 0.103801854 8.377097
000240 0f 08 11 41 e7 7c 00 41 eb 2f f2 40 95 e5 e4 40
       9.064467 8.030494 7.5683494 7.153025
000250 c1 e5 db 40 0a 28 cc 40 00 2c 1f 3c ea 36 04 41
       6.871796 6.3798876 0.00971508 8.263407
000260 96 c1 cd 40 bc ce 5e 40 31 59 6c 3d 30 61 df 40
       6.429881 3.481368 0.057702247 6.9806137
000270 fd f6 81 40 72 6d 09 41 0f a7 e2 3d b1 d8 53 3d
       4.0614 8.58922 0.1106702 0.051720325
000280 5b 6a 61 3d e7 ad a2 3d 1b 3c d7 bd da a5 4a bd
       0.05503307 0.079433255 -0.10509511 -0.049474575
000290 cf 38 b7 bd 9a 40 ba bd 70 2f 5e bc 25 33 df bd
       -0.08946382 -0.09094353 -0.013561115 -0.10898427
0002a0 8f ca 49 3d df 34 ea 3d ff 2f 91 3d bf ee 24 bd
       0.04926544 0.114358656 0.07089233 -0.04026675
0002b0 11 3c 02 bd 65 75 59 3d bf e1 b6 3d d0 16 c4 bd
       -0.031795565 0.05309047 0.089297764 -0.09574664
0002c0 49 f8 a6 bd 8f a3 3d bd 98 f4 8e bd a6 ba 2c 3d
       -0.081528254 -0.04629856 -0.06980246 0.04217019
0002d0 e1 7b f8 bd 50 58 b9 3d 40 fe 3e bb 71 62 e3 3d
       -0.12133003 0.090500474 -0.0029143244 0.111027606
0002e0 f1 3b 24 3d 21 4e 83 bd 00 8a 10 bd 66 24 ac bd
       0.040096227 -0.06411386 -0.035287857 -0.0840538
0002f0 59 43 1e 3d b1 a7 a8 bd 81 4e f2 3d 4f 94 b6 3d
       0.038638446 -0.082351096 0.1183138 0.08915006
000300 ff ff 3e 3d 9f 85 20 3d 97 bf 0d 3f 81 7e cf 3d
       0.046630856 0.03918993 0.5537047 0.101315506
000310 66 92 b2 3d 79 88 12 be 71 e1 64 bc 6f 5b f9 3c
       0.087193295 -0.14309873 -0.013969765 0.030439107
000320 d0 7d 61 bc 60 dc e7 bc 41 67 fb 3d 35 42 db 3b
       -0.013762906 -0.028303325 0.122755535 0.006691242
000330 27 cd 0d bd ff 9c c6 3e 77 0d a8 bd d1 b5 17 3f
       -0.034619477 0.38791654 -0.08205693 0.59261805
000340 b9 5e 8b 3c e1 fe 56 3d 61 c6 00 bd 01 97 f0 3d
       0.01701294 0.052489165 -0.03143919 0.11747552
000350 0a bd 3d 3e 00 88 a3 3d 81 df 4c bd 16 0f 33 3e
       0.18529144 0.07984924 -0.050017837 0.17486224
000360 e0 be 7e 3d 6f 3d 60 3d 30 d5 0e 3c 81 c4 97 3e
       0.06219375 0.054746088 0.00871782 0.29642108
000370 19 f8 0b bc 20 07 33 3f 19 b0 14 3f 89 14 29 3d
       -0.008543038 0.69932747 0.58081204 0.04127935
000380 3f 52 88 3d fb 1c 56 bd e1 93 56 3f 5f 7d 32 bd
       0.06656312 -0.05227373 0.83819395 -0.043576594
000390 9b da 47 bd db a1 dd 3d e0 14 d9 bc b8 73 82 3c
       -0.048792463 0.10821887 -0.026499212 0.01592432
0003a0 10 d4 2d 3f e0 18 c7 3c ab 67 44 3f 91 a6 03 3e
       0.67901707 0.024303854 0.76720685 0.12856509
0003b0 bf 1b b3 3e 89 12 06 3e 71 1d 49 3d a7 e8 9f 3d
       0.34982106 0.13093008 0.049100343 0.07808047
0003c0 3f 43 ad bd c8 ab 14 3d cf 9d b6 3e bf 46 2b be
       -0.08460092 0.036296636 0.35667273 -0.16726206
0003d0 ef ef bf bd 89 0d 96 bd a1 df eb 3d 31 b1 d6 3c
       -0.093719356 -0.073268004 0.11517263 0.026207538
0003e0 87 a7 9f bd 39 64 0b 3e c1 e4 21 3e db 78 61 3d
       -0.07795625 0.1361245 0.15809919 0.055046897
0003f0 bf d5 51 3d bf 0e 62 bd 1f e1 e5 bc 71 54 03 3d
       0.051229235 -0.055189844 -0.028061448 0.03206295

lstm_cell.weight_hh f4 [256, 64]
000000 f3 8d fe 3e 80 c1 c4 3e 4f 0e 8b 3f 98 2c 86 c0
       0.49717674 0.3842888 1.0863742 -4.1929436
000010 83 e6 ab 3f e2 ee 34 c0 f4 69 18 c0 08 1b 1f 40
       1.3429722 -2.8270802 -2.3814669 2.4860249
000020 74 dc 60 40 47 fb 46 3f 03 c7 de 3e f1 a0 9e bf
       3.5134554 0.7772717 0.4351121 -1.2392865
000030 8b 71 32 bd 3f 80 ba bf d2 7e ec bf 89 0a 62 be
       -0.043565314 -1.4570388 -1.8476202 -0.22074331
000040 3c 0a 50 bf 5e ee 1f 3f 9b 8e 49 c0 fc e9 c2 bf
       -0.81265616 0.62473094 -3.149329 -1.5227656
000050 56 52 f4 bc e0 64 25 40 a4 51 1f 40 84 0a 44 bf
       -0.029824417 2.584282 2.489358 -0.76578546
000060 fd 5e 06 3f aa 2b 23 40 7b 67 1c c0 0e 0e 67 3f
       0.5248869 2.54954 -2.443816 0.9025582
000070 19 ce 07 be 15 60 3a c0 1d 94 f5 bf 1c c6 7e 3d
       -0.13262214 -2.9121144 -1.9185826 0.06220065
000080 19 48 94 3f ef ce fc bf ab 92 c2 be 4f b1 6c 3f
       1.1584502 -1.9750651 -0.38002524 0.9245805
000090 94 05 1c 40 af be b5 bf 38 33 56 3e 1d ef 0f c0
       2.4378405 -1.4198817 0.20917976 -2.2489693
0000a0 a3 a5 9d 3f 75 41 80 bd bb 8d 32 c0 42 f7 95 bf
       1.2316173 -0.06262485 -2.7899005 -1.1716082
0000b0 08 ce 9f bf 9a f1 eb bf 94 c0 0a 3f 79 a7 ca 3f
       -1.2484751 -1.8433106 0.542001 1.5832359
0000c0 14 f8 f1 3e e6 d4 03 40 57 38 00 c0 cf 96 30 3f
       0.4725958 2.0598693 -2.0034387 0.68980116
0000d0 f0 4b b1 3f 26 c5 ca 3f 20 18 16 c0 73 03 44 40
       1.3851299 1.5841415 -2.3452225 3.0627105
0000e0 b9 79 a4 3f e7 11 14 c0 58 45 6f 3f d0 fe 6b 3e
       1.2849647 -2.3135927 0.93465185 0.23046422
0000f0 35 c3 37 40 de 38 a3 3f d4 d1 f2 3e d6 14 37 40
       2.8712895 1.275173 0.4742571 2.8606467
000100 a8 ab ef 3e e9 49 f0 be e8 77 1a 3d b1 3e a7 3e
       0.4681065 -0.4693139 0.037712008 0.32665017
000110 f0 2b 0d c0 9b f8 2f c0 ce b9 0d 3f 8c 2e c1 3e
       -2.2058067 -2.7495487 0.5536164 0.37730825
000120 15 5b 05 c0 f3 91 8d bf 64 9a 1a bf fa 49 2a bf
       -2.0836842 -1.1060165 -0.6039183 -0.6651913
000130 71 fa 7f bf f0 89 06 bf 7c d3 64 be 5f 1f 32 40
       -0.9999152 -0.52554226 -0.223463 2.7831647
000140 be 60 0a bf 1f 09 7b bf 69 d0 54 bf e4 17 1a c0
       -0.54053867 -0.9806079 -0.8313051 -2.4077082
000150 48 89 34 bf 50 a2 e7 3f 4f 4a bd 3e a5 5a 6c 3f
       -0.70521975 1.8096409 0.36970755 0.9232581
000160 24 fb 94 3f f0 ea 4b be 5f 07 13 c0 2d bf 76 c0
       1.1639142 -0.1991384 -2.297325 -3.8554184
000170 8d a4 53 bf 25 2f a4 be f8 4d 0a c0 38 cd 7d bf
       -0.8267296 -0.32067218 -2.1610088 -0.99141264
000180 ac 02 28 3e 1e 86 c7 3f 8b 8e 68 c0 6c e0 05 40
       0.16407269 1.5587804 -3.6337001 2.0918226
000190 f9 ed cf 3f c9 35 d0 be 8e 54 c9 bd ef 88 39 40
       1.6244498 -0.40666035 -0.09830581 2.8989828
0001a0 4c 20 8a bf 55 ad 51 bf b8 b4 92 40 d5 f9 30 3f
       -1.0791106 -0.8190511 4.5845604 0.69131213
0001b0 97 fd c8 bf dc 03 b3 be 76 b6 b9 bf 6f c1 53 bf
       -1.570239 -0.34963882 -1.4508808 -0.8271703
0001c0 b7 2b 80 40 f8 85 02 c0 99 6e 9f 3f 35 94 0d c0
       4.0053363 -2.0394268 1.2455627 -2.2121708
0001d0 52 f2 32 3e c9 ef 34 be e9 4b 4f c0 6e df 00 be
       0.1747525 -0.17669596 -3.2390082 -0.12585232
0001e0 2d 34 d2 bd b3 1c e6 bf 31 13 e3 3f 19 14 1f 3f
       -0.10263858 -1.7977508 1.7740232 0.6214004
0001f0 5a f6 cf 3f 94 35 92 bf 4a c9 b7 3d e2 54 f9 bf
       1.6247056 -1.1422601 0.0897394 -1.9479029
000200 e4 8e 28 40 ec 27 82 3f 63 8c d3 3e 79 b9 db 3e
       2.6337214 1.0168433 0.41318044 0.42914942
000210 40 9c 8e 40 06 22 a6 3e 2a 2b 9c 3e 13 82 f8 bf
       4.4565735 0.32447833 0.30501682 -1.9414696
000220 f4 c8 05 40 c2 e4 1b c0 47 23 d7 3f 9a 89 12 3d
       2.0903902 -2.4358373 1.6807641 0.03577576
000230 49 9d 09 be cc e0 aa bf 46 dc f8 bf fd dd 25 bf
       -0.13438906 -1.3349853 -1.9442222 -0.6479185
000240 a1 1f c1 3f 9b e6 26 3f 2f ba fd be d7 61 fa bf
       1.5087777 0.65195626 -0.4955611 -1.9561108
000250 fa 8f 73 40 64 a2 ec 3e 2c 69 b9 3f 30 fd c4 3f
       3.8056626 0.46217644 1.4485221 1.5389767
000260 24 bc 28 3f f4 5e bb 3f dc 20 d3 3f fe 95 b8 be
       0.6591208 1.4638352 1.6494403 -0.36051935
000270 f8 30 02 c0 79 e8 22 40 c0 d6 60 3f 01 8d 8a 3f
       -2.0342388 2.545439 0.8782768 1.0824281
000280 3d f0 c6 3f c5 5a bc bf e8 c9 a1 bd 86 a7 77 bf
       1.5542065 -1.4715201 -0.07899839 -0.96739995
000290 50 06 e5 3f 0f 65 f7 3f b6 1a 95 3f 67 24 21 40
       1.7892551 1.9327716 1.1648777 2.5178468
0002a0 a8 db 0e c0 3d 20 03 bf 1d ff 19 c0 20 5e 07 bf
       -2.2321568 -0.51221067 -2.4061959 -0.52878
0002b0 96 d0 e9 3f 20 fb 4b c0 e9 2d 4b 3f aa cd 8d 3f
       1.826678 -3.1872025 0.7936693 1.1078389
0002c0 e8 9f 28 3e 56 c3 89 c0 ca 8e 60 3f 21 f8 6f 3f
       0.1646725 -4.3050947 0.8771788 0.9373799
0002d0 f9 6f 7b c0 80 ff 92 3f 54 75 54 3f 4a 4e 8f 3f
       -3.9287093 1.1484222 0.8299153 1.1195767
0002e0 02 21 df 3f 3a cd 87 3e de 4a 48 bf 4a 93 7c 3f
       1.7431948 0.26523763 -0.7823924 0.98662245
0002f0 8a 52 3b 40 4c ca 9a bf a2 18 d1 be 2e 1b cd bf
       2.9269128 -1.2092986 -0.40839106 -1.602392
000300 4d d2 cd bf 0a f4 79 3f 0e ac 8c be b0 68 f7 3d
       -1.6079804 0.97638 -0.27475017 0.120805144
000310 72 6c 2d bf 34 6b 47 3e f0 21 78 bf bb 20 ee bf
       -0.677436 0.19474488 -0.96926785 -1.8603739
000320 cf b7 4b c0 03 02 dd 3f bd 01 d1 bf 0d 63 9b bf
       -3.1830938 1.7266239 -1.6328655 -1.2139603
000330 04 87 7d 3f e8 a6 41 bf 43 78 4c 3e 25 da 65 be
       0.9903414 -0.75645304 0.19967751 -0.22446497
000340 9b bf 8d 3d da 43 ff 3f 91 b0 f2 3f 23 a0 44 bd
       0.069213115 1.9942582 1.8960134 -0.04800428
000350 ef 8e 87 bf a5 13 1c bf 76 4c f7 3d e6 f6 a2 3e
       -1.0590495 -0.60967475 0.12075131 0.31828994
000360 d5 48 38 40 5c a2 26 bd 9a 06 1f 3f c6 ca 27 40
       2.8794453 -0.04068218 0.6211945 2.6217513
000370 70 c3 1c 40 fe 72 b8 3f 29 a7 7f bd c4 e3 96 c0
       2.4494286 1.4410093 -0.062415276 -4.7153034
000380 01 58 e3 bf 66 5b 60 bf 5f 56 9c 3f 72 26 da 3e
       -1.7761232 -0.8763946 1.2213858 0.42607456
000390 03 12 ad 3f a2 45 8e be 18 34 27 40 ae 9b 40 3f
       1.3521122 -0.277875 2.6125546 0.7523755
0003a0 5e 6e 27 be 8d 8b 35 40 12 04 3b c0 f8 92 37 c0
       -0.16350695 2.8366425 -2.9221234 -2.8683453
0003b0 54 89 01 40 46 d8 c1 be 4b 49 31 40 dc ca 51 3f
       2.0240068 -0.37860316 2.7700984 0.81950164
0003c0 c0 b6 2c 40 e1 92 91 3c 33 58 08 bf 6c 3d e5 3e
       2.6986542 0.017770233 -0.5325958 0.44773424
0003d0 c2 11 58 3d 0c d6 46 bf f4 50 86 3e d2 4a 17 c0
       0.05275131 -0.7767036 0.26233637 -2.3639417
0003e0 7d 80 95 be 38 8d 04 40 42 18 4e c0 1b c9 d6 be
       -0.2919959 2.0711193 -3.2202306 -0.41950306
0003f0 60 5c a0 bf 4b 15 88 bf 3e 8a fa 3e 17 6f 22 c0
       -1.2528191 -1.0631498 0.48933595 -2.5380304

lstm_cell.bias_ih f4 [256]
000000 f9 3b a3 bf 83 6f db 3f ec 49 12 3f e5 f2 4d 40
       -1.2752677 1.7143406 0.57144046 3.21795
000010 de 18 42 40 29 a3 4e 40 7f b4 7d 3f e5 90 24 40
       3.0327678 3.2287085 0.9910354 2.5713437
000020 b6 14 2f 3f bc d3 26 3f e8 ba 4b 40 ac 48 07 40
       0.6839098 0.6516683 3.1832829 2.1138105
000030 6f e5 73 c0 2f 37 4d 3d 7d eb 40 c0 31 71 8f 3d
       -3.8108785 0.050101455 -3.014373 0.070040114
000040 26 fe 37 40 f6 ba 14 c0 57 b1 2f c0 83 84 58 3f
       2.874887 -2.3239112 -2.745199 0.84577197
000050 9e 76 bb bf d2 dc 81 c0 76 24 cc bf fa 84 aa 3e
       -1.4645574 -4.0582056 -1.5948627 0.33304578
000060 be e2 df 3f a4 78 8a bf 36 96 53 3f c9 82 8f 3f
       1.7491071 -1.0818067 0.8265108 1.1211787
000070 bc 7a 37 bf d1 dd 1e 40 7a 87 1a 40 70 ed 89 3e
       -0.7167165 2.4822886 2.4145188 0.26938963
000080 1f e7 d4 3f 01 3f e9 3f 82 d4 0a bf ec 8c a1 bf
       1.6633033 1.8222352 -0.5423051 -1.2621131
000090 d8 0f 2c bf d6 4a b0 3f 1c a6 92 be 66 22 cf 3f
       -0.67211676 1.3772838 -0.28642356 1.6182373
0000a0 b9 8b dc 3e af 0e 55 3f 00 d7 31 3f 5e 63 b8 bf
       0.4307535 0.8322553 0.6946869 -1.4405324
0000b0 ed 5b 98 c0 8e 37 d5 bf f4 f6 50 3f 8a ef 5d bc
       -4.7612214 -1.6657579 0.8162682 -0.01354588
0000c0 e8 98 8b c0 da ef 08 c0 88 67 3a c0 8f 7b 1f 3f
       -4.3624153 -2.1396394 -2.912569 0.6229791
0000d0 c7 88 1e c0 77 c0 eb bf c8 75 12 be 87 7b 0d be
       -2.4770982 -1.8418111 -0.14302742 -0.13816653
0000e0 b7 5a 0f c0 ee 54 3e c0 a7 09 a1 3f 3a 82 31 3f
       -2.2399118 -2.9739337 1.2581071 0.69339335
0000f0 43 8f 65 3f 11 6e 4b 40 1f aa 13 40 e2 c4 36 c0
       0.89671725 3.178593 2.3072584 -2.8557668
000100 f0 8d 96 bf 94 9b 20 bf 67 3f a3 be 80 5c 5c 3f
       -1.1762066 -0.62737393 -0.3188431 0.86078644
000110 13 ac c7 bf 8c 9b 79 3e ba fc 75 3f e5 c0 15 c0
       -1.5599388 0.24375743 0.96088755 -2.3398983
000120 4b 46 59 3f 47 78 83 bf 6b 3f 5a c0 8a f0 25 c0
       0.84872884 -1.0271081 -3.4101207 -2.5928063
000130 77 c4 4b 3f 40 ed 1e 3d 5a ff ec bf 9e e5 85 3e
       0.79596657 0.038800478 -1.8515427 0.26151747
000140 bf 59 71 bf b1 99 df 3e 58 c0 1d bf ac c4 07 40
       -0.94277567 0.43671945 -0.6162162 2.121379
000150 14 64 32 c0 3d dc 4e 3f d6 a2 29 c0 50 14 a4 bf
       -2.7873583 0.80804807 -2.6505637 -1.2818699
000160 26 a8 38 3f aa 11 1a bf 51 e5 82 3e 1b 59 cf be
       0.72131574 -0.60183203 0.2556558 -0.4049767
000170 c2 1a a9 bf 88 21 7f bf 7c b5 72 3e 08 92 57 bf
       -1.3211291 -0.9966054 0.23702043 -0.842072
000180 8d 37 5f bd bd b6 3c c0 25 a1 64 be 6c 14 56 c0
       -0.054496337 -2.9486535 -0.22327097 -3.3449965
000190 ca f8 24 40 54 33 64 bf 48 77 d9 be b6 08 d9 bf
       2.5776849 -0.8914082 -0.42473817 -1.6955783
0001a0 83 83 c0 bf a6 1d e5 3f 50 60 3b 3f 32 29 0f 3f
       -1.5040134 1.7899673 0.73193836 0.55922234
0001b0 4c af b1 be 15 3d 0a c0 2d f0 82 bf 9b 29 61 bf
       -0.34704053 -2.1599782 -1.0229546 -0.8795411
0001c0 1b 67 9f bf 95 fd 80 3f f5 52 00 bf 57 53 0e c0
       -1.245334 1.0077387 -0.5012658 -2.2238367
0001d0 29 05 26 c0 c4 7c 69 3e 21 fb f9 3e c5 ce d4 bf
       -2.594065 0.228015 0.4882441 -1.6625601
0001e0 4e ca 17 40 37 cd ab 3f 47 28 88 c0 8c d7 08 40
       2.3717227 1.3422002 -4.2549167 2.138156
0001f0 83 78 6b be 1e fb 02 c0 a6 79 3f 3f 9b 37 d7 be
       -0.2299519 -2.046577 0.74794996 -0.4203461
000200 dd 34 41 40 5c 4c 98 be 5d 92 68 c0 7b ff 12 c0
       3.0188515 -0.29745758 -3.6339333 -2.2968433
000210 e9 dc c8 3f 25 85 f8 be e8 41 12 3f 37 8c bb bf
       1.5692416 -0.4853908 0.57131815 -1.4652165
000220 a7 6b 10 40 1d a9 04 c0 d4 7b 72 40 8d 8c 34 3f
       2.2565706 -2.0728219 3.7888079 0.70526963
000230 f5 d0 3d 3e 97 9c 38 40 a0 8e e3 3f 36 4d 1c bf
       0.18536742 2.8845575 1.7777901 -0.61055315
000240 f8 6b 17 40 81 84 91 40 44 51 0b c0 61 31 7e 3e
       2.365965 4.547425 -2.176835 0.24823524
000250 77 8d 7d bf 6d 00 6a 3e b4 99 11 3f 46 51 47 3f
       -0.99043983 0.22851725 0.5687516 0.7785839
000260 15 04 0c 3f dc 31 05 bf 85 f6 4c 3d 06 65 e3 bf
       0.5469373 -0.52029204 0.050039787 -1.7765205
000270 eb 02 59 3f 4d 92 44 3f f6 3b 14 40 dd f2 1b 40
       0.8477008 0.7678574 2.3161597 2.4366982
000280 da fc f7 3f c0 b7 bb bf 15 c4 c3 be e0 14 fe 3f
       1.9374039 -1.4665451 -0.38235536 1.985012
000290 17 dd e9 3f 2f b9 8f be 0a e4 af 3f ae d6 a3 3e
       1.8270596 -0.2807097 1.3741467 0.31999725
0002a0 d0 ae a5 be d7 b3 d8 3f 1b 2d 03 bf 05 84 f1 3f
       -0.32359934 1.6929883 -0.512407 1.8868414
0002b0 05 f9 3e 3f 71 7d 13 bc 00 2d 56 40 33 71 27 c0
       0.74598724 -0.0090020755 3.3464966 -2.6162841
0002c0 ab 7f 01 c0 1f 70 84 3e 21 3f b2 3e cb 62 2d bf
       -2.0234172 0.25866792 0.3481379 -0.6772887
0002d0 4a b3 8c bf 9a 63 33 c0 3a f6 b4 bf be 7d eb bf
       -1.0992215 -2.8029542 -1.4137642 -1.8397748
0002e0 38 26 cc be 61 cd a3 3f f1 16 9e bf c0 03 06 bd
       -0.3987291 1.2797052 -1.2350751 -0.03271842
0002f0 c7 e7 e5 bf 20 26 a6 bf 42 92 01 40 1b 3a 28 3f
       -1.7961358 -1.2980385 2.0245519 0.6571366
000300 04 1a 61 be 6d ad 86 c0 64 97 20 3f 83 b3 a5 40
       -0.2198258 -4.20867 0.62731004 5.178163
000310 b3 45 46 bf e1 f4 0d c0 2b 69 cb 3f e5 89 fb 3f
       -0.774501 -2.2180712 1.589147 1.9651457
000320 b7 7d 9f bf 3c f3 6a 3f c7 5e 03 c0 25 4b 58 40
       -1.246024 0.91777396 -2.0526597 3.3795865
000330 2d 88 6b bf 9b 17 db 3f 4d 7e 2d c0 a6 88 ed be
       -0.9200466 1.7116579 -2.7108338 -0.46393317
000340 ec b7 1a c0 01 60 24 bf f4 0a 22 c0 4a fc ce 3d
       -2.4174757 -0.6420899 -2.5319185 0.10106714
000350 d8 1f 90 3f 5a b2 7e bf 6b 4c ac 3f 18 9d 36 3f
       1.1259718 -0.9949089 1.3460821 0.71333456
000360 65 02 37 bf 86 36 57 3e a9 e7 eb 3f 58 04 4f c0
       -0.7148803 0.21016893 1.8430072 -3.2346401
000370 16 50 df 3e e0 8a bd bf 9f 66 b3 3f 03 45 00 bf
       0.43615788 -1.4808006 1.4015692 -0.50105304
000380 05 b0 43 bf 99 63 0a 40 8d a8 ab be ca 3d 9a bf
       -0.7644046 2.162329 -0.33527032 -1.2050107
000390 7f 6c ec be c0 87 35 40 73 a5 09 c0 8f db 44 40
       -0.46176526 2.8364105 -2.1507232 3.0759008
0003a0 33 79 0d 3f 6c 08 53 40 12 fb d6 bf b6 f0 df 3f
       0.5526306 3.297389 -1.679537 1.7495334
0003b0 e2 b4 18 c0 ef 08 87 c0 c6 3e e7 3f 20 d3 4b bf
       -2.3860402 -4.2198405 1.8066032 -0.79619026
0003c0 6b 88 4b c0 e6 d3 e2 bf 68 83 f2 bf 87 d4 09 c0
       -3.1802013 -1.7720916 -1.8946352 -2.1535966
0003d0 ec 65 49 bf 7c f1 d8 bf 25 c7 0d 40 9b 6b 19 c0
       -0.78671145 -1.6948695 2.2152798 -2.3971927
0003e0 12 dc 18 40 9a b1 88 bf 5f 4f be 3e dd ac 0f c0
       2.388432 -1.06792 0.3716993 -2.2449257
0003f0 f0 08 3c bf 63 ac 84 3f 4d d3 1b c0 c5 76 b5 3e
       -0.7345114 1.0365108 -2.4347718 0.35442176

lstm_cell.bias_hh f4 [256]
000000 b1 60 a7 bf 83 56 e9 3f 87 b2 b3 3e 5a 81 49 40
       -1.3076383 1.8229526 0.35097143 3.14852
000010 7e b6 46 40 29 55 4f 40 ef ba 63 3f f5 d5 26 40
       3.1048884 3.2395728 0.88957113 2.606809
000020 36 b5 34 3f ee 13 21 3f 78 f9 4b 40 50 63 0f 40
       0.70589006 0.62921035 3.1871014 2.2404366
000030 cf 3b 7e c0 bd 7b 16 3e 7d 3a 37 c0 55 be e0 3d
       -3.9724004 0.1469564 -2.8629448 0.10973803
000040 d8 c1 37 40 76 a0 1d c0 77 be 2f c0 11 af 38 3f
       2.8712063 -2.4629188 -2.746 0.7214213
000050 3e a9 bc bf 3a 79 7a c0 b0 d6 d7 bf 67 4c b5 3e
       -1.4739149 -3.913649 -1.6862392 0.35409853
000060 9e 19 da 3f 83 8d 97 bf c0 47 87 3f 39 5b 82 3f
       1.7039068 -1.1840061 1.0568771 1.0184089
000070 86 a0 20 bf 01 bb 1a 40 fb 6a 24 40 c2 f0 8a 3e
       -0.6274494 2.4176638 2.5690296 0.2713681
000080 a5 63 d7 3f 21 55 e6 3f d2 54 21 bf 3c b4 97 bf
       1.6827284 1.7994729 -0.6302005 -1.1851878
000090 18 c7 42 bf 66 b8 c7 3f fa 8a 81 be 6c 0d dd 3f
       -0.7608504 1.5603149 -0.25301343 1.7269721
0000a0 36 35 60 3e 5f 63 69 3f 80 f2 5a 3f 96 6f a9 bf
       0.21895298 0.91167253 0.85526276 -1.3237178
0000b0 bd 1f 9a c0 6e 73 d0 bf 44 ae 54 3f 4b 68 d1 3c
       -4.8163743 -1.6285226 0.8307841 0.025562426
0000c0 f0 ae 8b c0 fa 84 05 c0 04 22 33 c0 bf fb 28 3f
       -4.3651047 -2.0862412 -2.7989511 0.66009134
0000d0 67 e4 2a c0 17 3a f0 bf 71 6a 3d 3b 79 e2 63 be
       -2.6701906 -1.8767728 0.0028902555 -0.22254361
0000e0 27 ec 0b c0 8c 26 36 c0 1f e9 9a 3f 2b 91 12 3f
       -2.1862886 -2.8461027 1.2102393 0.5725276
0000f0 a2 f4 56 3f b7 23 49 40 14 e9 0a 40 2b 05 32 c0
       0.8396703 3.1428049 2.170476 -2.7815654
000100 80 57 88 bf ab f7 f6 be 3f 4b 92 be a0 01 6f 3f
       -1.0651703 -0.4823583 -0.28573033 0.93361855
000110 93 00 bf bf dc 0c 7a 3e 7f a4 85 3f fc fa 18 c0
       -1.492205 0.24418968 1.0440825 -2.3903189
000120 2a c5 45 3f 77 b0 95 bf fb a8 5e c0 db 5f 27 c0
       0.77253973 -1.1694478 -3.4790637 -2.6152256
000130 1d 99 37 3f f7 ec 86 3e 40 f3 d4 bf e5 2d 9f 3e
       0.7171801 0.26352665 -1.6636734 0.31089702
000140 fe fa 92 bf 01 d0 b7 3e f0 2b 08 bf 30 1d 05 40
       -1.1482847 0.35900882 -0.53192043 2.0799065
000150 c4 cb 31 c0 6d ca 2e 3f 79 2b 2b c0 f8 9e a4 bf
       -2.7780619 0.6827763 -2.6745284 -1.2861013
000160 56 d8 36 3f 5a 83 04 bf 50 62 32 3e 7b 3d df be
       0.7142385 -0.51762927 0.17420316 -0.43601593
000170 0b 3d a4 bf 67 b6 75 bf 2e e4 53 3e b8 b9 63 bf
       -1.2831129 -0.9598145 0.20692512 -0.8895526
000180 e0 7b b5 bd bd 82 3d c0 0f db 8a be 4c d0 4d c0
       -0.08861518 -2.9611046 -0.27120253 -3.2158384
000190 ea 72 2a 40 8a 1a 80 bf ea 69 9a be 96 b6 e7 bf
       2.6632638 -1.0008099 -0.3015893 -1.8102596
0001a0 32 b4 a9 bf b6 c6 f1 3f dd 40 66 3f e2 7c 1c 3f
       -1.3258116 1.8888767 0.89942724 0.61128056
0001b0 54 28 8f be 75 bb 05 c0 dd 20 88 bf bb 13 62 bf
       -0.27960455 -2.0895665 -1.0635029 -0.88311356
0001c0 f9 be 80 bf 92 5b 7d 3f 1a 58 a1 be e7 93 11 c0
       -1.005828 0.9896785 -0.3151253 -2.2746522
0001d0 e9 73 1f c0 44 fd 4e 3e 61 a8 db 3e d5 d1 dc bf
       -2.4914496 0.202138 0.429019 -1.7251536
0001e0 0e 08 13 40 27 5b b5 3f 5e 91 81 c0 c5 ee 0b 40
       2.2973666 1.4168442 -4.048995 2.1864483
0001f0 43 2d 68 be f6 f9 08 c0 f5 75 1c 3f 18 3a b8 be
       -0.22673516 -2.1402564 0.6111749 -0.35981822
000200 23 15 3d 40 7d aa 07 bf d4 25 68 c0 db 49 16 c0
       2.954415 -0.5299452 -3.6273088 -2.3482578
000210 09 ab b9 3f 55 bf f1 be 7d e1 eb 3e 5f d7 ba bf
       1.4505321 -0.47216287 0.4607047 -1.4596976
000220 87 0e 0a 40 9d 5f 02 c0 56 b6 7b 40 e2 f1 4f 3f
       2.1571367 -2.0370858 3.933004 0.8122846
000230 4c 1b 71 3e 97 4b 39 40 75 a7 c9 3f f2 2a 30 bf
       0.23545569 2.8952386 1.5754229 -0.6881553
000240 21 35 23 40 11 47 8e 40 57 8c 0f c0 bf d1 44 3e
       2.5501177 4.446175 -2.2429407 0.19220637
000250 c3 d0 70 bf ff 7a 48 3e 5c 67 0e 3f b8 cb 2a 3f
       -0.94068545 0.1957817 0.55626464 0.667171
000260 85 48 43 3f ec 3e 04 bf ed 62 21 3d d6 21 e8 bf
       0.7628253 -0.5165851 0.039400984 -1.8135326
000270 f7 06 51 3f 4d 67 51 3f a4 9b 19 40 6d 13 10 40
       0.8165125 0.8179825 2.4001245 2.2511857
000280 2a f6 eb 3f 86 3c a5 bf 25 8e b0 be ad 47 02 40
       1.8434498 -1.2909095 -0.34483448 2.0356247
000290 37 b5 dd 3f 24 4d 6d be 49 16 a0 3f 2a 3e 79 3e
       1.7320927 -0.23173958 1.2506801 0.2434012
0002a0 a0 ca 9c be 07 98 d1 3f 9b 7e 0a bf 25 8c f3 3f
       -0.3062334 1.637452 -0.54099435 1.9027144
0002b0 65 72 49 3f 3c 9a 38 3d 60 d7 54 40 93 43 23 c0
       0.7869018 0.045068964 3.3256454 -2.5509994
0002c0 6b 4f 08 c0 b1 bb 24 3e c1 c1 ae 3e c3 4b 21 bf
       -2.1298473 0.16087224 0.34132197 -0.6300623
0002d0 19 67 a6 bf ca e7 31 c0 2a bd a1 bf 6e cc f0 bf
       -1.3000213 -2.7797723 -1.2635853 -1.8812387
0002e0 90 c1 ef be 01 67 b7 3f c5 0a 9f bf 2c 42 8a bd
       -0.46827364 1.4328309 -1.2425162 -0.067509025
0002f0 c9 85 f8 bf c0 ae bd bf c8 82 e6 3f 5e ac 1e 3f
       -1.9415828 -1.4818954 1.8008661 0.6198176
000300 9a 61 2c be 04 69 85 c0 04 6c 1f 3f 4b cf aa 40
       -0.16834107 -4.1690693 0.62274194 5.3378043
000310 de 13 4d bf b1 38 0e c0 37 5a b5 3f 1f d2 ef 3f
       -0.8010844 -2.2222102 1.4168156 1.8735999
000320 57 0b 91 bf c0 0b 5d 3f 27 6d 02 c0 e5 60 50 40
       -1.1331586 0.86346054 -2.0379121 3.255914
000330 28 dd 81 bf 5b 2f da 3f f1 16 2d c0 60 8f 27 bf
       -1.0145617 1.7045702 -2.7045252 -0.6545315
000340 ac 6e 0e c0 02 91 39 bf c4 a1 1b c0 aa 58 e0 3d
       -2.2255049 -0.7248689 -2.4317484 0.10954411
000350 d0 07 a9 3f f5 e6 85 bf c6 0d b3 3f 72 3c 3a 3f
       1.3205509 -1.0461107 1.3988578 0.7274848
000360 55 7c 47 bf 9d b3 90 3e 89 67 eb 3f 68 85 52 c0
       -0.7792409 0.28262034 1.8390971 -3.2893925
000370 24 3e fd 3e 4d 66 c1 bf bb 85 ba 3f bb e5 12 bf
       0.49461472 -1.5109345 1.4572061 -0.5738179
000380 55 05 2b bf 41 69 0d 40 b2 47 86 be ba 13 86 bf
       -0.6680501 2.2095492 -0.26226574 -1.047477
000390 df 2b f4 be 40 2c 36 40 95 29 0a c0 af 34 48 40
       -0.4768972 2.8464508 -2.158788 3.1282156
0003a0 ab cf 1b 3f 1a 4f 55 40 73 a4 c5 bf 56 fb e0 3f
       0.6086375 3.332953 -1.5440811 1.7576702
0003b0 12 33 22 c0 4f 44 88 c0 96 85 e4 3f c6 96 2a bf
       -2.534367 -4.2583385 1.7853267 -0.6663631
0003c0 fe 66 48 c0 06 dd e7 bf 88 52 e3 bf 93 1f 06 c0
       -3.1312861 -1.8114326 -1.7759562 -2.0956771
0003d0 48 be 5c bf 1c 45 c8 bf 05 27 0e 40 e3 c2 0d c0
       -0.86227846 -1.564609 2.2211316 -2.21502
0003e0 02 db 0e 40 5c 07 7a bf b7 6a b5 3e 86 48 0c c0
       2.2321172 -0.9766748 0.3543298 -2.1919265
0003f0 70 71 47 bf 03 07 83 3f a5 70 28 c0 7b 9f c6 3e
       -0.77907467 1.0236515 -2.6318753 0.3879355
