model/global_model_5.pth (torch, 330938 bytes, 17 tensors)

conv1.lin_l.weight f4 [16, 1]
000000 71 2a 22 bf ef ad 5e bc 46 ac 31 bf 91 ff 26 bf
       -0.6334601 -0.013591274 -0.69403493 -0.65233713
000010 e1 4e 00 bf 79 2b 8d 3e 11 0e 56 bf 9f d2 1b be
       -0.5012036 0.2757223 -0.83615214 -0.15217064
000020 d7 b5 22 bf ca 61 ae 3d 38 5f 88 be 55 af 60 bf
       -0.63558716 0.085147455 -0.26635146 -0.87767535
000030 45 34 51 3d 3f a2 f8 be a1 91 c6 3e 61 8f e8 be
       0.05107524 -0.48561284 0.3878298 -0.4542189

conv1.lin_l.bias f4 [16]
000000 07 cb 1e be 59 bf 17 3f ef 69 8a bf 5a c6 be 3e
       -0.15507136 0.5927635 -1.0813578 0.37260705
000010 1b 0d e3 3e 80 af 91 be b5 bd 51 bf ba 0f c8 3e
       0.44345936 -0.28454208 -0.81930095 0.39074498
000020 ff cb 2a 3f 2a 27 32 bf 8f e3 21 3f 01 f3 70 bf
       0.66717523 -0.6959101 0.6323785 -0.94120795
000030 1f 43 ff 3e 50 7c 84 be e1 03 ca be d0 53 d9 bd
       0.49855897 -0.25876093 -0.39456084 -0.10611689

conv1.lin_r.weight f4 [16, 1]
000000 d1 bd 7f bf a1 87 00 bf 16 1c 3d 3e b1 4b 5b bf
       -0.9989901 -0.50206953 0.18467745 -0.8566237
000010 11 6b a5 be b7 e8 16 3f 1a 56 38 bf c0 6f ec 3d
       -0.32308248 0.58948845 -0.7200638 0.11544752
000020 8f ee f9 be 40 49 51 bf 2b 62 57 bf 1b d1 db 3d
       -0.48814818 -0.81752396 -0.8413417 0.10733243
000030 3f 2c 44 bf e6 b7 4b bf e9 51 8a be 80 34 65 bd
       -0.76630014 -0.7957748 -0.27015617 -0.05595827

conv2.lin_l.weight f4 [64, 16]
000000 b1 99 ac bd 5f 13 0f 3e 9f b9 b8 bc a8 91 0f 3e
       -0.08427752 0.13972233 -0.022549449 0.14020407
000010 88 3a 0a bd 81 04 62 bd f0 47 17 be d0 2f c8 3d
       -0.033747226 -0.055180077 -0.14773536 0.097747445
000020 5f 6a fc 3d 2f 9a 3e 3d 27 c1 06 be 17 45 0f 3e
       0.12324976 0.04653376 -0.1315962 0.139912
000030 a9 5e 9d 3d 89 2e 24 3e 9f 3d c3 be 51 2e 42 be
       0.076840706 0.16033377 -0.3813295 -0.18962981
000040 47 96 17 3e c7 e1 93 be 41 ad a4 3d f1 6e 2d 3e
       0.1480342 -0.28883192 0.08040858 0.16936852
000050 2f 3d 90 3d 31 a4 49 3d 61 3d a1 bd 38 c6 86 be
       0.0704292 0.04922885 -0.07873035 -0.26323104
000060 75 f1 56 3e ef e9 88 be e1 67 72 be 97 ce 9c bd
       0.20990546 -0.26740977 -0.23672439 -0.076565914
000070 81 17 61 be a0 61 1b be 17 2b 99 be af 1f e4 bd
       -0.21981622 -0.1517396 -0.29915687 -0.11138856
000080 21 e9 85 bd 56 0c b7 bd 5f 51 25 3e e0 79 60 bc
       -0.065386064 -0.089379 0.16144322 -0.013700932
000090 40 88 bc 3b df 83 de bb a5 58 e2 3d c1 6c 14 3e
       0.005753547 -0.0067906226 0.11052064 0.14494611
0000a0 26 f3 b6 3d ef 7e ca bd c0 a1 23 bc 45 66 c2 3d
       0.08933096 -0.09887492 -0.009987295 0.094921626
0000b0 c7 05 8a bd 81 d2 04 be 20 05 96 be 60 d2 48 be
       -0.06739383 -0.12970926 -0.29300785 -0.19611502
0000c0 af 3e f8 3d af a2 6a be cf 22 c9 bd 51 57 e8 3d
       0.12121331 -0.22913621 -0.09821092 0.11344779
0000d0 bf 00 e9 3d 09 92 90 be 80 2a 91 3c 77 5c 1e be
       0.113770954 -0.28236416 0.01772046 -0.1546496
0000e0 b0 fc be 3c 5a ef b6 be c1 80 22 3e 40 de 86 bc
       0.02331385 -0.35729486 0.15869428 -0.016463399
0000f0 df 2e aa be 5a ce 3f 3e c0 a3 d5 3d 71 b9 fe bd
       -0.33238885 0.1873106 0.104316235 -0.12437714
000100 8f 6e 43 3e 35 22 de 3d e6 1a 3a be e7 51 a8 3d
       0.19085144 0.10846368 -0.18174323 0.08218747
000110 a0 d9 53 bc f0 2b 5e be 50 09 2f 3e ff bf a6 be
       -0.012930304 -0.21696448 0.17093396 -0.32568356
000120 6f f4 1f 3e 51 d1 72 be 00 bc 7e 3e e1 6c 80 bd
       0.15620588 -0.2371266 0.24876404 -0.06270767
000130 91 d3 1d be c1 17 23 be ef 7a a3 be 81 48 39 be
       -0.15412737 -0.1592703 -0.31929728 -0.18094064
000140 ea 9d 48 be 41 f9 8e bd 3f c6 84 be 41 8a f4 bd
       -0.1959149 -0.06981135 -0.259325 -0.11940432
000150 41 a0 75 3e f8 3b 13 be b0 87 de bd 0a 5b 2b bd
       0.23986913 -0.14378345 -0.10865724 -0.04183487
000160 c1 47 74 3e df 99 72 be bf 38 1b 3e ef fa c2 be
       0.23855497 -0.2369151 0.15158366 -0.38082072
000170 d9 c7 a9 be f0 ea e8 3c 31 49 e6 be 90 36 00 be
       -0.33160284 0.02843234 -0.44977716 -0.12520814
000180 21 68 53 be b9 4e a3 bd c5 7a da bd c0 86 9e 3b
       -0.20645191 -0.079739995 -0.10667948 0.004837841
000190 01 f7 51 be 1f 7f 9d be e1 83 22 be c1 15 8c be
       -0.20504381 -0.30761048 -0.1587062 -0.27360347
0001a0 a0 d8 1c 3c 71 5a 1c 3e 21 42 4a be 1a cf 2c 3e
       0.009573132 0.15268876 -0.19751789 0.16875878
0001b0 01 48 36 3e 0f 5b 7e 3e bf e4 0a be f0 73 e0 3c
       0.17800905 0.24839424 -0.13563822 0.027399033
0001c0 11 b3 e3 3d 0f a7 51 be 4f c7 e9 bd ef 91 c8 bd
       0.111181386 -0.20473884 -0.11414968 -0.097934596
0001d0 00 b4 0e 3e 81 53 0c be 21 70 2b be cf 28 91 be
       0.13935852 -0.13703729 -0.16741993 -0.28351447
0001e0 df c2 e7 bd 21 5c bc bc 6f f2 3c be 97 a4 84 be
       -0.113164656 -0.02299315 -0.18451856 -0.25906822
0001f0 a1 17 ae bd c1 83 cb bd 4f a0 4d be 81 0e 18 be
       -0.085006006 -0.099372394 -0.20080684 -0.14849283
000200 d0 67 f0 bc f0 c5 30 3d c1 82 01 be 5a 91 c2 bd
       -0.029346377 0.043157518 -0.12647535 -0.0950038
000210 70 02 07 3e df 2c 07 be bf 44 7b be 1f e8 f2 3d
       0.13184524 -0.1320071 -0.24537943 0.1186068
000220 f1 a2 d7 3d c5 92 54 3e 01 00 c4 3d 00 2c d8 bb
       0.105291255 0.20759113 0.09570313 -0.006597042
000230 41 00 7f 3d f1 dc 52 3e a0 4a 09 bc 21 24 1c be
       0.0622561 0.20592095 -0.008379608 -0.15248157
000240 10 a9 4a bd fa b3 37 be 17 f4 97 3d 71 36 91 3d
       -0.049477637 -0.1793975 0.07419603 0.07090462
000250 9a 3a 4b be a1 f0 67 be 6b 0f 5e be 7f 1a e3 bd
       -0.19846573 -0.22650386 -0.21685569 -0.11089038
000260 d0 e0 03 3d 6b 3c d3 3d bf e3 76 be f9 3e 9d be
       0.03219682 0.10314258 -0.24110316 -0.30712107
000270 26 4c bd 3d a1 6b 71 3e 5f 8d ec 3d 00 82 15 3d
       0.0924304 0.23576213 0.11550402 0.03650093
000280 70 d5 83 bd 70 94 cc bc 91 15 08 3e 01 6d 15 3e
       -0.06437194 -0.024973124 0.13289477 0.14592363
000290 e6 75 45 bd bf 1b 4d be 70 41 ed bd 06 24 31 3e
       -0.04820814 -0.20030116 -0.11584747 0.17298898
0002a0 41 17 00 be 0f 5f 82 3d 05 45 cf 3d 10 53 fc bd
       -0.1250887 0.06365787 0.10120586 -0.123205304
0002b0 1a 8b 2e be bf e5 57 3e 1a d7 2f 3e 50 e2 29 bd
       -0.1704525 0.21083735 0.17171898 -0.041475594
0002c0 a1 da 45 be d1 ce 31 be 00 24 eb 3c 50 64 fe 3d
       -0.19321682 -0.1736405 0.02870369 0.12421477
0002d0 21 38 5f 3e 1f 17 b7 3d 60 fa 62 3c 69 a8 23 be
       0.21798755 0.08939957 0.013853639 -0.15982212
0002e0 b1 a5 18 3e a7 d5 9f 3a 4f d7 72 be 3b ff c0 bd
       0.14906956 0.0012194411 -0.23714946 -0.09423681
0002f0 b1 bd 8b bd 30 b4 8c 3c b7 61 9e be 86 b5 4b be
       -0.0682329 0.017175764 -0.30933926 -0.19893464
000300 cf b7 48 be 9f 04 0b be 4f 9f 9b bc 0f 93 ff bd
       -0.19601367 -0.13575982 -0.018996863 -0.12479221
000310 a5 78 57 3e db 62 d3 bd e0 9e 14 3d bf 69 25 be
       0.21042116 -0.103215896 0.036284328 -0.1615362
000320 8f 84 02 be 0a 1a af bd cf b3 06 3e 19 b8 19 3d
       -0.1274588 -0.085498884 0.13154529 0.037529085
000330 ab 15 d3 3d e5 cb 56 3d c7 24 16 3e a0 58 c1 3c
       0.10306867 0.052440543 0.14662467 0.02360183
000340 61 61 7a bd 5f 18 02 be 81 66 fb bc 11 af 24 3e
       -0.061128024 -0.1270461 -0.030688526 0.16082408
000350 51 ac c3 3d 57 22 8b 3d a0 82 24 be e1 58 b9 3c
       0.09554351 0.06793659 -0.16065454 0.022625389
000360 cf 5f 35 3e 57 b5 06 3e f6 1e 32 be 2f 29 af bd
       0.1771233 0.13155113 -0.17394623 -0.08552777
000370 66 b7 b3 3c 90 d7 11 bd aa 76 b7 3c f0 3c 89 3d
       0.021938037 -0.035605967 0.02239545 0.06701076
000380 1f cc 41 3e e7 6c a2 3d 86 52 3a 3e f0 80 fe 3d
       0.18925522 0.07930928 0.18195543 0.124269366
000390 10 ec 58 be 19 31 0c be d0 4a 60 3e 10 fa 99 bc
       -0.211838 -0.13690604 0.21903539 -0.018795997
0003a0 b7 63 0c be af 7a 6d 3e e0 a8 e9 3c 11 0f 0c be
       -0.13709913 0.23191331 0.028522909 -0.13677622
0003b0 1b 1e 5f be 40 41 e3 bb 2f 33 8a 3d 65 da 54 bd
       -0.21788828 -0.0069352686 0.06748044 -0.05196609
0003c0 71 b6 14 3e c7 cc 8b 3e 21 ac 0f 3e d0 47 3b 3e
       0.14522721 0.2730467 0.14030506 0.18289113
0003d0 e1 79 f3 3d 51 18 c3 3c 80 3a 82 bc ff 02 5e 3c
       0.11888481 0.023815306 -0.015897036 0.013550519
0003e0 cf 51 64 be 57 69 8b 3c 01 c4 ed 3d a7 2f 9c 3c
       -0.22296833 0.017018003 0.116096504 0.019065691
0003f0 ff 80 0c bc e1 0d cc 3d 35 3f 5a 3d 00 ff e5 3b
       -0.008575677 0.09963585 0.053282935 0.0070189238

conv2.lin_l.bias f4 [64]
000000 99 e6 96 bd 5f ee f7 bd d9 25 a6 be 76 74 bb be
       -0.07368202 -0.121060126 -0.3245075 -0.3661229
000010 0f ac dd bd 8f 1b b2 be 4f 9f 2c 3e ff 1e 4d 3d
       -0.10823833 -0.3478665 0.16857646 0.05007839
000020 e0 d7 50 3d 60 49 4e be 90 96 4f 3d 21 4d 09 3d
       0.050987124 -0.20145178 0.050680697 0.03352082
000030 6f a0 01 3e 01 fd a1 3c af 9d 56 be af fb 75 be
       0.12658857 0.019773962 -0.20958589 -0.24021791
000040 67 99 9e bd 3f 83 6c be a0 e6 95 be a7 77 9c be
       -0.07744103 -0.23096941 -0.29277515 -0.30560037
000050 91 9f 71 be 5a f2 ac 3d c5 cf cd bd 1f a6 62 bd
       -0.23596026 0.084446624 -0.100493945 -0.055334207
000060 4a 8a 2f 3e 11 b2 1d be d0 57 02 3e 21 1d ca bd
       0.17142597 -0.15399958 0.1272881 -0.09868837
000070 77 31 88 be fa 90 ad 3d 61 81 94 be f5 e3 e0 be
       -0.2660024 0.08474918 -0.29004958 -0.43923917
000080 bf 55 5a be 2f 69 49 3e 55 ae df bd e7 68 28 be
       -0.21321772 0.1966903 -0.10921923 -0.16446267
000090 7f 69 9b be e9 3e 21 3e f0 81 30 3e 50 6e e4 3d
       -0.30353925 0.15746655 0.17237067 0.11153853
0000a0 a7 18 22 bd 7b 52 db bd 78 f1 07 bc 69 62 16 be
       -0.03957429 -0.10709091 -0.008297317 -0.14685978
0000b0 cf 71 e3 bd c5 dc cf bc f0 1e 53 be 80 a5 c6 be
       -0.11105692 -0.025373826 -0.2061727 -0.3879814
0000c0 a7 f0 a1 be 86 77 b5 be 41 ca 0f 3d a5 ff 56 be
       -0.31628916 -0.35442752 0.035104994 -0.20995958
0000d0 b1 24 ac bd 00 77 a9 bd 29 d5 1c 3e c6 e9 b6 3d
       -0.08405436 -0.082746506 0.15315689 0.089313075
0000e0 c1 69 b0 be b1 f5 40 3e 7f fe f9 bd 9a a6 3a be
       -0.34455684 0.18843724 -0.122067444 -0.18227616
0000f0 cf a2 b9 3d 11 81 9f 3d 1f 2b 1c 3e 29 7f 95 3c
       0.090642564 0.07788289 0.15250824 0.018249111

conv2.lin_r.weight f4 [64, 16]
000000 d0 f6 22 be 11 fe c3 3d 0f 00 97 be a1 ea a6 3d
       -0.15914464 0.09569944 -0.29492232 0.08150221
000010 4f 63 13 be 5f af 83 3d 37 13 26 3e 6a 69 4c be
       -0.14393352 0.06429934 0.16218267 -0.19962087
000020 9f a4 06 be 57 33 00 3e c6 88 b7 bd 8f a8 25 be
       -0.13148735 0.12519585 -0.08961634 -0.16177581
000030 6f 56 22 be 5a 15 35 be 08 0b 0a be ff e1 04 3e
       -0.15853284 -0.17683926 -0.1348077 0.12976836
000040 40 e2 0f bd 01 77 85 be 09 be 90 be a0 dc 8a 3c
       -0.03512788 -0.26067355 -0.28269985 0.016950905
000050 60 c6 06 3e ff ed 1a be c1 fb 27 be ef c4 a3 3c
       0.13161612 -0.15129851 -0.1640463 0.019991366
000060 9f c6 29 3e e5 42 d6 bd 26 00 c7 bd a9 6a 18 3d
       0.16579674 -0.10461978 -0.09716825 0.037211094
000070 8f 6f 88 be cf 95 24 be a7 c1 8b 3d f1 46 0d 3e
       -0.26647612 -0.16072772 0.06824046 0.13796593
000080 41 14 e6 3d b1 c7 27 3e 21 e3 3f 3e 91 10 01 3e
       0.11234332 0.1638477 0.18738987 0.12603976
000090 71 13 20 3e f1 49 e3 ba 40 23 85 3d 21 f9 79 bd
       0.15632416 -0.0017340762 0.06500864 -0.061028603
0000a0 91 5a 3c 3e 90 1d c0 bd c0 f3 63 be 6f e5 76 3e
       0.18393923 -0.093806386 -0.22260952 0.2411096
0000b0 51 ab 60 3e 0a 24 49 be 90 55 b7 bd 9f 9e 60 be
       0.21940352 -0.19642654 -0.089518666 -0.21935509
0000c0 60 cf 40 3d 20 c0 73 3d fb f8 ca bd 7b 2b 50 bd
       0.04707277 0.059509397 -0.099107705 -0.050822716
0000d0 11 f3 be 3d 71 16 dc 3b 25 b2 5a 3e e1 30 9a be
       0.09323705 0.0067165424 0.21357019 -0.30115417
0000e0 50 7d 45 3e e1 22 73 be 1f 4a 96 bd 45 bf dd 3d
       0.19286084 -0.23743774 -0.07338356 0.108274974
0000f0 50 67 ce bc e5 ea 53 3d 8f 61 0b be 91 e2 a3 bd
       -0.025195748 0.051737685 -0.13611434 -0.080021985
000100 00 8f af 3c 00 cb 09 3d 41 6f 71 be a6 3a 32 bd
       0.021430492 0.03364086 -0.23577596 -0.043512963
000110 11 e0 ef 3d bf 1d d5 3d d9 94 0a be 6f bb fd 3c
       0.11712659 0.10406064 -0.13533343 0.030973164
000120 80 f7 65 3b 31 6f 29 3c 38 82 89 3d 56 0f ad 3d
       0.0035090148 0.0103414515 0.067142904 0.08450191
000130 f7 e5 a5 3d 9f c6 71 be 81 64 35 bd ef e1 8a 3d
       0.08100503 -0.23610924 -0.0442853 0.06781375
000140 af f8 09 be df 01 07 bf e1 a4 0e be a6 6f 45 3d
       -0.13473772 -0.5273723 -0.13930084 0.04820218
000150 b8 87 08 3d 71 06 93 be 10 0a 26 3e 01 59 02 bf
       0.033332556 -0.28715852 0.16214776 -0.5091706
000160 f8 fb 1b be 51 b5 02 bf 30 e1 79 be a6 bb b9 be
       -0.15232837 -0.51057917 -0.24402308 -0.36275977
000170 4f a4 e0 be 21 85 03 be 45 de 43 be 60 b4 de bd
       -0.43875358 -0.12843753 -0.19127758 -0.108742476
000180 a8 b7 9c bd ef 02 67 be 3b 8a d5 bd b7 57 1d 3e
       -0.07652217 -0.22559713 -0.10426756 0.15365492
000190 df 72 40 3e ef dd ed 3d 48 42 96 bd 27 1d 09 3e
       0.1879382 0.11614596 -0.07336861 0.13390027
0001a0 07 cf 21 be bf ce 16 bd 3f 93 57 3e 10 ef 60 be
       -0.15801631 -0.036818262 0.21052264 -0.21966195
0001b0 c5 6d d4 3d 00 ca 2f 3a 8b dc db 3b ff 54 6b be
       0.103724994 0.00067058206 0.0067096404 -0.22981642
0001c0 81 58 6e 3e 11 04 90 be b1 ec 73 be c1 10 c2 bd
       0.23275949 -0.28128102 -0.2382076 -0.09475852
0001d0 80 88 7f bd 2b fe d4 3c 85 01 5d bd 17 07 0f 3e
       -0.062386036 0.026000103 -0.053956527 0.13967548
0001e0 bf f2 72 be 3f ae f8 3d fa 1d 4b be 85 1a 5b 3e
       -0.23725413 0.1214261 -0.19835654 0.21396835
0001f0 bf 14 7b be c0 f5 eb 3c 5f 8e 5d bd cf 71 e1 bd
       -0.24519633 0.028803706 -0.054090854 -0.110080354
000200 61 d2 bd 3d b1 38 61 3e 81 b5 78 bd 8f 6b 37 be
       0.09268642 0.21994282 -0.06071997 -0.17912124
000210 cf 18 0b be b0 b7 e7 bd f9 91 05 3e f0 58 4f be
       -0.13583682 -0.113143325 0.13043965 -0.2024877
000220 3a f4 3a 3e a7 75 a3 3d 68 41 9a 3d 6f 64 34 be
       0.18257228 0.07981425 0.075320065 -0.17616437
000230 af fe e5 bd c1 67 18 be 05 1b da 3d 30 08 d8 3d
       -0.11230218 -0.14883329 0.10649685 0.10548437
000240 50 79 3e 3e 6a f7 42 bb ef ed 6f 3d d0 08 7f 3d
       0.18600965 -0.002974952 0.05857652 0.062264264
000250 10 a7 60 bd b1 a2 25 3d 2f 15 34 be f1 23 68 be
       -0.054846823 0.040438358 -0.17586206 -0.2266996
000260 60 ef 37 3d 60 3a 84 bc 00 d1 ca 3c b0 de f9 bb
       0.04490602 -0.016141117 0.024757862 -0.0076254234
000270 1a 75 40 be 5b a0 cd bd 71 18 f8 bd a8 b5 0f bd
       -0.1879467 -0.10040351 -0.12114037 -0.03508535
000280 9f 6b b4 bd 8f 2f 4a 3e 6f 75 19 3e 01 3d 70 be
       -0.088095896 0.19744705 0.14986204 -0.23460771
000290 bf 8c c0 3d e1 ac 5c be 30 fd b2 3d cf a2 78 be
       0.09401845 -0.21550323 0.08739698 -0.24280857
0002a0 c8 a2 0f 3d cf c8 1a be c0 88 7c 3e 7f 15 61 be
       0.03506735 -0.15115665 0.24661541 -0.21980856
0002b0 c1 d9 fc bd c1 5a 71 3e 9a f7 46 bd e1 14 7a 3e
       -0.12346221 0.23569776 -0.048575975 0.24422027
0002c0 a5 2f 60 bd f1 22 0d 3e 91 40 79 be e0 76 30 3d
       -0.054732937 0.1378286 -0.24341036 0.043082118
0002d0 f0 1e 86 3d af 09 80 bd b1 22 fe bd ff c8 6d be
       0.065488696 -0.06251847 -0.124089606 -0.23221205
0002e0 c5 b2 e1 3d 11 4c af bd 3a 83 30 3e 2a e4 37 3e
       0.11020426 -0.085594304 0.17237559 0.17958131
0002f0 1f 80 1a 3e 20 2e 97 3d ef c2 43 be 40 34 33 3e
       0.15087937 0.073818445 -0.1911733 0.175004
000300 06 c2 3c be 21 6b 38 bc 2a 1d b7 bd a0 1e 1b 3e
       -0.18433389 -0.01125601 -0.089411095 0.15148401
000310 5f d1 1d 3e bf e1 3b be 67 b9 24 3e e1 bc be 3d
       0.154119 -0.18347834 0.1608635 0.093133695
000320 ef ac a5 3d f1 52 f6 bd 7f 32 1f be df 85 6b be
       0.08089625 -0.120275386 -0.15546606 -0.23000287
000330 af c3 36 be 4f f7 51 be 40 24 cc 3c 4f f3 36 3e
       -0.17848085 -0.20504497 0.02491963 0.17866252
000340 2b 27 62 3e c0 60 0d be bf b6 02 be 9f 54 61 3e
       0.22085254 -0.13806438 -0.12765025 0.22004937
000350 30 ea bc 3c 19 38 89 bd c0 3c 00 3e 1f 1b 43 be
       0.023060888 -0.06700153 0.12523174 -0.19053315
000360 f1 37 31 be 8f 4c 11 be 5a c8 c1 bd 99 36 8c 3d
       -0.17306496 -0.14189361 -0.09462042 0.06846351
000370 6f a9 02 be 6f 19 7c 3e 95 a3 4e be b0 88 11 be
       -0.12759946 0.24619077 -0.20179589 -0.14212298
000380 66 67 33 3e 41 9e 74 3e 71 96 6e be da 35 47 be
       0.17519912 0.23888494 -0.23299576 -0.19454136
000390 47 c5 00 be 81 53 c5 bd 80 67 5a be 25 0f d3 3d
       -0.12575255 -0.09635068 -0.21328545 0.10305623
0003a0 58 40 92 3d a0 fe 9a 3d d0 c8 5a 3d 11 ef 68 3e
       0.07141179 0.07568097 0.053414166 0.22747447
0003b0 18 c1 94 bd 36 98 33 be 86 3d 43 3d 80 c9 19 3e
       -0.07263392 -0.17538533 0.047666095 0.15018272
0003c0 50 77 61 be 0f ae 91 bd 0f 78 19 bb c1 21 65 3d
       -0.2201817 -0.07113277 -0.0023417508 0.055940393
0003d0 e0 11 96 bc 5f 32 9c bd 80 ce 65 3b 35 41 57 3d
       -0.01831907 -0.07626795 0.003506571 0.05255242
0003e0 20 68 0f bd 6f 86 c8 bd 25 c1 e2 3d 91 8a 47 3d
       -0.03501141 -0.09791266 0.11071996 0.04871613
0003f0 7f 76 4c 3e a0 d9 94 3d 41 86 0b be 30 7e b2 bd
       0.19967078 0.07268071 -0.13625433 -0.087154746

lstm_cell.weight_ih f4 [256, 192]
000000 7f 5b 00 3e 30 ff 3c 3e b1 47 91 bd 08 3e 99 3c
       0.12534903 0.18456721 -0.07093752 0.018706337
000010 89 37 29 3d 06 31 39 be c1 a8 3a 3d b7 63 8b 3d
       0.041312728 -0.18085107 0.045571093 0.068061285
000020 9b 15 d4 bd ef f2 ce bc a6 f1 b3 3d 79 f6 10 3e
       -0.103556834 -0.025262324 0.08786325 0.14156522
000030 ff c4 0b 3e 1b 82 49 3e 80 dd b0 3b 21 73 4f be
       0.13649367 0.19678538 0.0053974986 -0.20258762
000040 b7 4f 1c 3d 11 07 2c 3e 2f 65 43 bc 47 fc 01 3e
       0.03816196 0.1679957 -0.0119259795 0.12693892
000050 c5 b2 e0 3d 81 27 27 3c 16 8a 2d 3d 7f c2 71 3d
       0.109715976 0.01020229 0.042368017 0.059023377
000060 20 ad 12 bd ff 62 fc 3d 41 be ee 3d 3a ae 34 3e
       -0.035809636 0.123235695 0.11657382 0.17644587
000070 b1 8c 3f bd a6 9e b8 be ef 97 44 3e b6 83 47 bd
       -0.046765033 -0.3605854 0.19198583 -0.048709594
000080 30 71 3c bc 26 79 3a 3e c6 3d 4a be 99 d9 21 3e
       -0.011501595 0.18210277 -0.19750127 0.15805663
000090 81 94 86 3c b1 2d fe bd bf c3 26 3d 58 30 0f bd
       0.016428234 -0.12411059 0.04071402 -0.034958214
0000a0 cf 93 0f be 00 34 ce 3d bf f1 c7 3d 48 2d 0b 3e
       -0.14021228 0.10068512 0.09762906 0.13591492
0000b0 a6 dd 4b 3e a1 9c 35 bc b7 1f a1 3d 50 dc 3d bd
       0.19908771 -0.0110847065 0.07867377 -0.046352684
0000c0 3a 54 3a ba 30 1e 51 bc a0 01 28 bd 8b eb d8 3d
       -0.00071078876 -0.012763545 -0.041017175 0.10591801
0000d0 31 be a9 3d 57 71 1e 3e 6a 9c 46 3e 88 4d 14 ba
       0.08288229 0.15472923 0.19395605 -0.0005657305
0000e0 40 66 f0 3d 71 a8 28 3e 61 bc b0 ba c1 15 5b 3e
       0.11738253 0.16470505 -0.0013483876 0.21395017
0000f0 4f ac 1b 3e a0 5b ed 3d cb 82 5f bd a1 a7 97 3d
       0.1520245 0.11589742 -0.054568093 0.074050196
000100 58 b1 81 bf c1 b8 58 40 50 d0 29 40 10 d1 35 40
       -1.0132246 3.3862765 2.6533394 2.8408852
000110 b5 ab 12 40 5a cd b6 40 a9 9d e6 40 1f 54 bd bd
       2.2917302 5.7125673 7.2067456 -0.092445605
000120 58 d0 b5 40 e4 a2 f2 40 34 2c f0 40 bb d2 d3 40
       5.6816826 7.582384 7.505396 6.619474
000130 64 47 cb 40 37 b4 d7 40 d0 85 0c 41 a8 b9 f4 40
       6.3524647 6.740749 8.782669 7.647663
000140 84 07 fd 40 5f 41 d9 40 93 f4 ee 40 ad 2b ed 40
       7.9071674 6.78923 7.4673553 7.4115815
000150 d4 33 ed 40 da 02 ad 3d db f4 05 41 0a 31 ab 40
       7.4125767 0.084478095 8.372279 5.349736
000160 41 48 e6 40 03 20 e6 40 9a 6f e0 40 58 66 01 41
       7.19632 7.1914077 7.013623 8.087486
000170 f2 81 ea 40 40 e5 e4 3b 46 39 44 3d a1 56 8f 3d
       7.3283625 0.0069853365 0.047906183 0.06998945
000180 d1 d6 3a bd 2a e4 ab bd 5f e8 37 3d 71 ef 09 3d
       -0.04561502 -0.08393128 0.04489934 0.033675615
000190 9f 9c c0 3d 01 1f 2a 3d e1 39 d4 bd 20 49 96 3b
       0.09404873 0.041533474 -0.10362602 0.004586354
0001a0 01 d8 90 3d 60 f6 fd bb 9f b2 ef bd c1 c3 e5 bd
       0.070724495 -0.0077503175 -0.11703991 -0.11218978
0001b0 00 8f 6c 3b 70 66 02 bd f0 14 6d 3c c0 5b 55 bd
       0.0036095977 -0.031835973 0.014470324 -0.052089453
0001c0 a0 8e 97 bd bf 85 05 3d e0 6b fb bc 00 c3 93 3b
       -0.074002504 0.032598253 -0.030691087 0.00450933
0001d0 e0 66 53 bc 3f 0c a6 bd 06 26 b1 bd b1 83 f6 bd
       -0.012902945 -0.081078045 -0.086498305 -0.12036837
0001e0 ef fe c6 3d c0 5a 3c 3c 86 b9 b7 bd ff 54 e8 3d
       0.097165935 0.011496246 -0.08970933 0.11344337
0001f0 bf 37 ae bd 0f 7a e6 bd 41 1d 43 3d 08 af 90 bd
       -0.085067265 -0.112537496 0.04763532 -0.070646346
000200 41 c6 fe bc db 69 fd 3f 96 95 a4 3f d7 78 e9 be
       -0.031100394 1.979793 1.285815 -0.45600006
000210 c8 ef 06 bf 2e 51 15 40 ff 74 d4 3d 34 63 56 40
       -0.5270963 2.3330798 0.10373878 3.3498049
000220 5f 71 d5 40 1f b6 ba 40 81 3a c4 bd 64 09 ec 40
       6.6700892 5.8347316 -0.09581471 7.3761463
000230 ce 79 f6 40 6f 84 f8 40 11 96 d4 3d b2 1c 06 41
       7.7023687 7.766166 0.103801854 8.382006
000240 6c 16 11 41 4e 86 00 41 a5 4e f2 40 0b 69 e5 40
       9.067974 8.032789 7.5721 7.1690726
000250 fe 0f dc 40 12 ad ce 40 00 2c 1f 3c cb 54 04 41
       6.876952 6.4586267 0.00971508 8.270701
000260 ec db ce 40 7a 54 5f 40 31 59 6c 3d a6 c2 e0 40
       6.464346 3.489531 0.057702247 7.023761
000270 a0 0a 84 40 18 9e 09 41 0f a7 e2 3d b1 d8 53 3d
       4.126297 8.601097 0.1106702 0.051720325
000280 5b 6a 61 3d e7 ad a2 3d 1b 3c d7 bd da a5 4a bd
       0.05503307 0.079433255 -0.10509511 -0.049474575
000290 cf 38 b7 bd 9a 40 ba bd 70 2f 5e bc 25 33 df bd
       -0.08946382 -0.09094353 -0.013561115 -0.10898427
0002a0 8f ca 49 3d df 34 ea 3d ff 2f 91 3d bf ee 24 bd
       0.04926544 0.114358656 0.07089233 -0.04026675
0002b0 11 3c 02 bd 65 75 59 3d bf e1 b6 3d d0 16 c4 bd
       -0.031795565 0.05309047 0.089297764 -0.09574664
0002c0 49 f8 a6 bd 8f a3 3d bd 98 f4 8e bd a6 ba 2c 3d
       -0.081528254 -0.04629856 -0.06980246 0.04217019
0002d0 e1 7b f8 bd 50 58 b9 3d 40 fe 3e bb 71 62 e3 3d
       -0.12133003 0.090500474 -0.0029143244 0.111027606
0002e0 f1 3b 24 3d 21 4e 83 bd 00 8a 10 bd 66 24 ac bd
       0.040096227 -0.06411386 -0.035287857 -0.0840538
0002f0 59 43 1e 3d b1 a7 a8 bd 81 4e f2 3d 4f 94 b6 3d
       0.038638446 -0.082351096 0.1183138 0.08915006
000300 ff ff 3e 3d 9f 85 20 3d 97 bf 0d 3f 81 7e cf 3d
       0.046630856 0.03918993 0.5537047 0.101315506
000310 66 92 b2 3d 79 88 12 be 71 e1 64 bc 6f 5b f9 3c
       0.087193295 -0.14309873 -0.013969765 0.030439107
000320 d0 7d 61 bc 60 dc e7 bc 41 67 fb 3d 35 42 db 3b
       -0.013762906 -0.028303325 0.122755535 0.006691242
000330 27 cd 0d bd ff 9c c6 3e 77 0d a8 bd d1 b5 17 3f
       -0.034619477 0.38791654 -0.08205693 0.59261805
000340 b9 5e 8b 3c e1 fe 56 3d 61 c6 00 bd 01 97 f0 3d
       0.01701294 0.052489165 -0.03143919 0.11747552
000350 0a bd 3d 3e 00 88 a3 3d 81 df 4c bd 16 0f 33 3e
       0.18529144 0.07984924 -0.050017837 0.17486224
000360 e0 be 7e 3d 6f 3d 60 3d 30 d5 0e 3c 81 c4 97 3e
       0.06219375 0.054746088 0.00871782 0.29642108
000370 19 f8 0b bc 20 07 33 3f 19 b0 14 3f 89 14 29 3d
       -0.008543038 0.69932747 0.58081204 0.04127935
000380 3f 52 88 3d fb 1c 56 bd e1 93 56 3f 5f 7d 32 bd
       0.06656312 -0.05227373 0.83819395 -0.043576594
000390 9b da 47 bd db a1 dd 3d e0 14 d9 bc b8 73 82 3c
       -0.048792463 0.10821887 -0.026499212 0.01592432
0003a0 10 d4 2d 3f e0 18 c7 3c ab 67 44 3f 91 a6 03 3e
       0.67901707 0.024303854 0.76720685 0.12856509
0003b0 bf 1b b3 3e 89 12 06 3e 71 1d 49 3d a7 e8 9f 3d
       0.34982106 0.13093008 0.049100343 0.07808047
0003c0 3f 43 ad bd c8 ab 14 3d cf 9d b6 3e bf 46 2b be
       -0.08460092 0.036296636 0.35667273 -0.16726206
0003d0 ef ef bf bd 89 0d 96 bd a1 df eb 3d 31 b1 d6 3c
       -0.093719356 -0.073268004 0.11517263 0.026207538
0003e0 87 a7 9f bd 39 64 0b 3e c1 e4 21 3e db 78 61 3d
       -0.07795625 0.1361245 0.15809919 0.055046897
0003f0 bf d5 51 3d bf 0e 62 bd 1f e1 e5 bc 71 54 03 3d
       0.051229235 -0.055189844 -0.028061448 0.03206295

lstm_cell.weight_hh f4 [256, 64]
000000 ce 0e ef 3e 2a 72 bf 3e 40 c2 8a 3f 56 5a 86 c0
       0.46690983 0.37391788 1.084053 -4.1985273
000010 d4 5e a9 3f 38 67 35 c0 69 a3 17 c0 a2 54 1c 40
       1.3232064 -2.834425 -2.3693488 2.4426656
000020 16 cd 5f 40 1c a8 47 3f 44 d2 e1 3e 4b 82 a1 bf
       3.4968925 0.7799089 0.44105732 -1.2617887
000030 cb da 97 bd fd 34 ba bf a3 3c ec bf ed 1c 62 be
       -0.07414778 -1.4547421 -1.8456005 -0.22081347
000040 8d 95 4c bf 3c 71 20 3f 18 37 48 c0 59 f6 c2 bf
       -0.79915696 0.6267278 -3.1283627 -1.5231429
000050 04 d5 1e bd 8f 41 25 40 58 e6 20 40 8b 10 46 bf
       -0.038777366 2.5821264 2.514059 -0.7736899
000060 49 3e 06 3f 0f c3 22 40 e6 08 1c c0 d7 d9 6a 3f
       0.5243879 2.5431554 -2.438043 0.9173865
000070 d5 1a 2b be 65 b5 39 c0 44 6e f7 bf 1a f6 c2 3d
       -0.16709454 -2.9016964 -1.9330525 0.095195964
000080 7c 14 96 3f 9b 4d fc bf ac dd c9 be 32 c1 6b 3f
       1.1725001 -1.9711183 -0.39426935 0.9209167
000090 6c c2 1b 40 94 61 af bf 48 02 48 3e a0 c1 0f c0
       2.4337416 -1.3701653 0.1953212 -2.246193
0000a0 3c 85 9d 3f a6 a7 9e bd 33 de 32 c0 c3 bf 94 bf
       1.2306285 -0.0774682 -2.794812 -1.1621021
0000b0 fe 5f 9d bf 21 80 ee bf 08 19 0d 3f 5d c5 cb 3f
       -1.229492 -1.8632852 0.5511632 1.5919605
0000c0 d5 be f1 3e 9b ac 04 40 5f 1c 00 c0 6c 8c 33 3f
       0.47215906 2.073035 -2.0017316 0.7013614
0000d0 d9 e0 ba 3f 8a 7f c6 3f e3 16 18 c0 2e 67 43 40
       1.4599868 1.5507672 -2.376397 3.0531726
0000e0 a1 fb a5 3f c2 56 16 c0 f1 d2 70 3f be 6c 89 3e
       1.2967416 -2.3490453 0.9407187 0.26840776
0000f0 fc 05 36 40 97 b1 a2 3f eb 70 f7 3e ef 3a 37 40
       2.8441153 1.2710446 0.48328337 2.862972
000100 4e a7 e7 3e 81 1a e8 be 0a a5 8e 3c df 7b a6 3e
       0.4524483 -0.4533272 0.017412681 0.3251638
000110 27 71 0d c0 2b e8 30 c0 65 8e 14 3f 7d eb af 3e
       -2.2100313 -2.7641704 0.58029777 0.3435935
000120 9b 07 05 c0 f0 6a 8c bf 17 28 22 bf 40 e4 27 bf
       -2.0785892 -1.0970135 -0.6334242 -0.65582657
000130 31 b1 81 bf 25 0b 0b bf 90 f2 62 be ad 8b 31 40
       -1.01322 -0.5431388 -0.22162843 2.7741501
000140 94 24 0d bf 95 2e 7d bf 62 15 50 bf 5e d1 19 c0
       -0.5513394 -0.98899204 -0.8128263 -2.4034038
000150 07 92 39 bf bd 4d e8 3f b9 24 bf 3e c5 0e 6f 3f
       -0.72488445 1.8148724 0.37332705 0.9338191
000160 e2 a6 96 3f b5 53 85 be 26 82 14 c0 0e 6d 76 c0
       1.1769679 -0.26040426 -2.3204436 -3.8504062
000170 8f 4c 45 bf 53 36 a4 be 75 96 0b c0 c9 16 78 bf
       -0.77069944 -0.32072696 -2.1810582 -0.9690977
000180 3b aa 36 3e a2 a1 c6 3f cf e5 68 c0 0d 21 06 40
       0.17838375 1.5518076 -3.6390264 2.0957673
000190 ef cb d2 3f 95 96 d4 be e7 d0 ac bd a3 a9 3a 40
       1.6468486 -0.41521135 -0.084382825 2.9166038
0001a0 f8 2b 8d bf da a9 50 bf 7e 8d 92 40 00 5a 26 3f
       -1.1029043 -0.8150917 4.579772 0.6498108
0001b0 b6 ce c4 bf 36 1d a3 be a6 a5 ba bf 18 92 55 bf
       -1.5375583 -0.31858224 -1.4581802 -0.83426046
0001c0 a2 1d 80 40 51 cb 00 c0 fb c4 9f 3f 01 ad 0b c0
       4.0036173 -2.0124094 1.2481989 -2.1824343
0001d0 a5 b0 53 3e 45 f3 31 be ff e7 4e c0 eb 9b 06 be
       0.20672853 -0.17377956 -3.23291 -0.13145415
0001e0 c5 d8 c1 bd ca fd eb bf e9 6b e3 3f cb 2b 1d 3f
       -0.09465174 -1.8436825 1.7767307 0.6139495
0001f0 9b f8 d0 3f d1 f9 91 bf 9e f6 f4 3d 40 51 f7 bf
       1.6325868 -1.1404363 0.11961101 -1.932167
000200 e7 cd 2a 40 48 a7 7c 3f 22 76 c7 3e fb f9 d4 3e
       2.6688173 0.9869275 0.38957316 0.4159697
000210 c3 51 8e 40 cd 89 a7 3e 6a 7e 9c 3e 36 5b f9 bf
       4.4474807 0.3272232 0.30565196 -1.948096
000220 28 6a 07 40 a6 9f 1c c0 33 05 d5 3f 5d 96 fe 3c
       2.1158543 -2.4472442 1.6642212 0.031077558
000230 dd 25 00 be 9d 54 a8 bf a3 55 f7 bf ad 2a 22 bf
       -0.12514444 -1.3150822 -1.9323009 -0.6334637
000240 c8 ec c5 3f 1c 3e 28 3f 0f a8 00 bf bb e5 f9 bf
       1.5462885 0.6571977 -0.5025644 -1.9523233
000250 1c 1b 73 40 51 bc f7 3e 14 0d b9 3f 1c cc c6 3f
       3.7985296 0.48385862 1.4457116 1.5531039
000260 91 84 21 3f 22 f4 b9 3f 8e 5d d3 3f bb fa b0 be
       0.63092905 1.4527628 1.6512926 -0.34566292
000270 7a 2e 00 c0 6a e7 21 40 a8 23 62 3f 11 f6 8c 3f
       -2.0028367 2.5297494 0.8833566 1.1012594
000280 69 86 c6 3f ae 62 bf bf 66 37 80 bd db 06 79 bf
       1.5509769 -1.495199 -0.062605664 -0.97276086
000290 e0 e1 e5 3f 7e bd f8 3f c6 d5 9b 3f 2f 84 21 40
       1.7959557 1.9432828 1.2174613 2.5236928
0002a0 4b 9e 0e c0 7e 42 ff be ec 28 1a c0 1d 52 fb be
       -2.2284114 -0.49855417 -2.4087477 -0.49086085
0002b0 01 f2 e9 3f a6 b1 4a c0 74 09 4f 3f d4 7b 8d 3f
       1.8276979 -3.1670928 0.808738 1.1053414
0002c0 21 1b 4a 3e ca 27 8a c0 10 6c 64 3f 2d 34 6c 3f
       0.19736911 -4.317357 0.8922739 0.92267114
0002d0 d6 fd 79 c0 cb 8e 90 3f 94 b6 57 3f fe 22 90 3f
       -3.906118 1.1293577 0.8426297 1.1260679
0002e0 a2 a2 df 3f 43 af 8d 3e 16 80 51 bf f0 c3 74 3f
       1.7471507 0.27672777 -0.8183607 0.95611477
0002f0 35 6e 3b 40 cc 99 9d bf 65 d9 e1 be c7 2e c9 bf
       2.9286015 -1.231256 -0.4411117 -1.57174
000300 05 f6 ce bf 0b 1f 7d 3f 75 5c 94 be 13 53 02 3e
       -1.6168829 0.9887549 -0.2897679 0.12727003
000310 c0 e2 2e bf 8a f3 47 3e ef 88 7b bf 24 0e f0 bf
       -0.68314743 0.19526497 -0.9825582 -1.8754315
000320 25 b7 4b c0 22 13 db 3f 98 41 cb bf bd f3 98 bf
       -3.1830533 1.7115214 -1.5879393 -1.1949383
000330 e9 54 80 3f ab ce 42 bf 96 66 53 3e 61 07 72 be
       1.0025913 -0.760966 0.20644602 -0.23635627
000340 1b 28 ab 3d f2 38 fd 3f f9 d4 f2 3f 12 3e 81 bd
       0.08357259 1.9783003 1.8971244 -0.06310667
000350 6f fa 87 bf 44 a7 19 bf 1c 67 fc 3d ff 0d a3 3e
       -1.0623301 -0.6002085 0.12324354 0.31846616
000360 d2 b5 36 40 79 ca 10 bc 32 c1 18 3f 3e 76 27 40
       2.8548474 -0.008837336 0.5966979 2.616592
000370 0d af 1c 40 ba 7a b8 3f 82 cc b0 bd 40 69 96 c0
       2.4481843 1.4412453 -0.08632757 -4.700348
000380 0f 3c e5 bf 6d d8 62 bf b7 55 9d 3f 19 48 e4 3e
       -1.7908953 -0.8861149 1.2291783 0.44586256
000390 d4 ce b0 3f 75 97 95 be 48 eb 25 40 8f d6 40 3f
       1.3813119 -0.29217115 2.5924854 0.7532739
0003a0 f1 52 2e be e5 d3 35 40 21 ab 3c c0 a5 68 38 c0
       -0.17023827 2.841058 -2.9479449 -2.881387
0003b0 35 72 02 40 2b f7 ba be 2d 68 30 40 83 6c 4a 3f
       2.0382206 -0.365167 2.7563584 0.79071826
0003c0 25 7e 2a 40 a4 86 60 3d c4 30 0e bf 65 98 e5 3e
       2.6639493 0.054815903 -0.5554316 0.4484283
0003d0 c6 53 e1 3c a1 a4 4b bf e4 61 93 3e 1f 33 18 c0
       0.027505767 -0.7954808 0.28785622 -2.3781202
0003e0 aa c1 95 be d6 bf 02 40 b5 2d 4e c0 1b 05 e7 be
       -0.29249316 2.0429587 -3.2215397 -0.45121083
0003f0 b3 61 9d bf 0d 3b 8b bf 64 0c fa 3e 87 62 23 c0
       -1.229544 -1.0877396 0.48837578 -2.5528886

lstm_cell.bias_ih f4 [256]
000000 ee 8b a2 bf d2 a1 d8 3f 9c cf 14 3f b4 26 4e 40
       -1.2698953 1.6924384 0.58129287 3.2211123
000010 ca bd 40 40 8c 76 4f 40 ae 88 82 3f 2c 67 26 40
       3.0115838 3.2416105 1.0197961 2.600047
000020 82 74 35 3f f5 d4 2a 3f 23 47 4e 40 5b 9a 0a 40
       0.708809 0.66731197 3.2230918 2.165671
000030 7f 85 75 c0 62 4a 22 3d 6d b4 40 c0 ff b3 71 3d
       -3.836273 0.03962172 -3.0110123 0.05900955
000040 5e 98 38 40 b9 d6 12 c0 4f 8d 2f c0 7f a4 5c 3f
       2.8842998 -2.2943556 -2.7429998 0.861885
000050 69 f8 b8 bf dc 99 81 c0 70 8d ce bf 25 a3 a6 3e
       -1.4450809 -4.0500317 -1.6136913 0.32546344
000060 97 2e e4 3f 34 5e 8c bf fa d4 56 3f 4f a1 90 3f
       1.7826718 -1.0966249 0.83918726 1.1299227
000070 87 fa 36 bf 9d 7e 1d 40 ae b0 1a 40 f9 1b 90 3e
       -0.71476024 2.4608529 2.4170337 0.2814634
000080 f4 ef ce 3f 75 9a ea 3f 65 22 09 bf df ce a1 bf
       1.6166978 1.8328387 -0.53568107 -1.2641257
000090 bf 3e 29 bf ed 73 b0 3f 09 c4 83 be d8 e4 d1 3f
       -0.6611137 1.3785378 -0.257355 1.6397963
0000a0 b3 77 e1 3e 7d d2 4e 3f 0a 51 36 3f 8b 9a b7 bf
       0.44036636 0.8078993 0.71217406 -1.4344038
0000b0 a2 5b 99 c0 c6 c4 d6 bf 66 eb 4b 3f cc e8 23 bd
       -4.7924356 -1.67788 0.79656065 -0.040016934
0000c0 9d ee 8b c0 4d a1 08 c0 72 2a 39 c0 a0 3e 1c 3f
       -4.3728776 -2.134845 -2.8932157 0.6103306
0000d0 c0 92 1c c0 b9 c3 e8 bf c0 28 27 be 40 5b c7 bd
       -2.446457 -1.818473 -0.16324139 -0.097342014
0000e0 0e b4 0c c0 0b d8 41 c0 9b 46 a2 3f a6 92 33 3f
       -2.1984897 -3.0288112 1.2677797 0.7014564
0000f0 60 f2 66 3f 17 cb 4d 40 fb 7d 12 40 9f da 35 c0
       0.90213585 3.2155206 2.2889392 -2.8414686
000100 49 5b 96 bf ef 26 24 bf bf da aa be eb e7 60 3f
       -1.1746608 -0.6412191 -0.33370015 0.8785388
000110 bb 0d c6 bf 4a 4f 84 3e a7 8e 77 3f a1 35 14 c0
       -1.547294 0.25841743 0.96702045 -2.3157732
000120 a2 fd 59 3f a8 f8 87 bf 56 88 57 c0 c7 49 26 c0
       0.8515264 -1.0622759 -3.3676963 -2.598253
000130 1c 27 47 3f 5e 70 e9 3c 5d cf f1 bf 47 ae 94 3e
       0.7779405 0.028495964 -1.8891407 0.29039213
000140 f7 b3 71 bf 9d 98 e7 3e db 0f 20 bf 11 80 06 40
       -0.9441523 0.45233622 -0.62524194 2.1015666
000150 9e c9 31 c0 39 39 4d 3f 3a 28 2b c0 19 c9 a4 bf
       -2.7779307 0.8016544 -2.6743302 -1.287387
000160 e4 38 4c 3f 7f b1 20 bf 8f e3 71 3e 74 0f df be
       0.7977431 -0.6277084 0.23621963 -0.43566477
000170 6d 9d ac bf a5 de 80 bf c5 c3 86 3e 15 ea 59 bf
       -1.3485543 -1.0067946 0.26321235 -0.85122806
000180 72 93 3e bd 1a e7 3b c0 8e fc 57 be 2c 2e 57 c0
       -0.046527334 -2.9359803 -0.21092436 -3.362193
000190 1e 52 26 40 5b f6 62 bf 89 e6 da be ed f7 d5 bf
       2.598762 -0.8865716 -0.4275401 -1.6716286
0001a0 13 54 c2 bf ca 93 e2 3f a5 22 34 3f 35 31 0e 3f
       -1.5181907 1.7701352 0.70365363 0.55543834
0001b0 fb 62 c0 be 0d f9 07 c0 ce 02 82 bf 86 3d 66 bf
       -0.37575516 -2.1245759 -1.0157106 -0.8993763
0001c0 9d 85 9e bf b0 c2 81 3f e3 a9 02 bf 25 ef 0f c0
       -1.2384526 1.0137539 -0.51040477 -2.2489712
0001d0 fd 1e 26 c0 00 b7 6f 3e b0 24 e4 3e d5 4c d4 bf
       -2.5956414 0.23409653 0.4455924 -1.6585947
0001e0 68 5e 18 40 00 43 a7 3f 39 95 88 c0 e8 e7 07 40
       2.380762 1.3067322 -4.2682157 2.1235294
0001f0 9d b1 75 be ca 61 01 c0 9e 8c 3c 3f 79 74 db be
       -0.23993535 -2.0215936 0.73652065 -0.428623
000200 1a 90 3f 40 f8 c4 88 be 69 de 65 c0 05 61 12 c0
       2.9931703 -0.26712775 -3.5916998 -2.2871716
000210 d1 01 c6 3f a0 5e 05 bf 36 93 13 3f a5 82 bd bf
       1.5469304 -0.5209751 0.576465 -1.4805495
000220 ac 10 12 40 32 5f 05 c0 ce cb 75 40 14 24 2b 3f
       2.2822676 -2.0839353 3.8405643 0.66851926
000230 23 36 3f 3e bc 09 39 40 06 0a e1 3f e0 51 16 bf
       0.18672995 2.8912191 1.7581184 -0.5871868
000240 b1 d4 17 40 df a3 91 40 dc 62 0b c0 a7 22 85 3e
       2.3723567 4.551254 -2.177909 0.26003
000250 a2 09 6d bf 0f 9f 5f 3e 76 be 0d 3f 4c a8 41 3f
       -0.92592824 0.2183802 0.55368745 0.75647426
000260 d7 16 17 3f 5f aa 08 bf 12 bf 8d 3d 81 32 e3 bf
       0.59019226 -0.53384966 0.069212094 -1.7749788
000270 6c dd 52 3f 60 50 44 3f 84 36 16 40 4f 8a 1c 40
       0.8236911 0.7668514 2.3470774 2.4459417
000280 37 72 f6 3f 61 c2 bf bf c4 63 c7 be 9f 08 fd 3f
       1.9253606 -1.4981195 -0.38943303 1.9768256
000290 07 5f f0 3f 91 4d 91 be d1 94 b2 3f e8 6f 9d 3e
       1.8779 -0.2837949 1.3951665 0.3074944
0002a0 31 2f bc be 65 d1 da 3f e3 df 04 bf d1 03 f2 3f
       -0.36754754 1.7095152 -0.51904124 1.8907415
0002b0 83 16 46 3f 85 bf 0c bc 4c d4 54 40 ad 1b 28 c0
       0.773781 -0.008590584 3.3254576 -2.6266892
0002c0 4f 16 02 c0 c4 55 9b 3e 27 93 ca 3e d0 3a 2d bf
       -2.0326116 0.3033887 0.39565393 -0.67667866
0002d0 c1 b9 90 bf 65 3b 33 c0 8e 6d b7 bf da 14 ec bf
       -1.1306688 -2.8005002 -1.4330308 -1.8443863
0002e0 7d 7c bb be e3 3d a5 3f cf d3 9f bf 78 23 74 bd
       -0.36618415 1.2909511 -1.2486514 -0.059604138
0002f0 5f cc e8 bf 39 42 a8 bf 46 e2 00 40 33 7d 27 3f
       -1.8187369 -1.314521 2.0138106 0.65425414
000300 d2 fd 7c be fe 5d 86 c0 5a cf 1e 3f 56 a9 a4 40
       -0.247062 -4.1989737 0.62035143 5.145671
000310 1a 26 4a bf 28 ff 0f c0 40 e9 cc 3f 66 b9 fa 3f
       -0.7896439 -2.2499485 1.6008682 1.9587829
000320 11 ec a0 bf bb a2 64 3f c4 d8 03 c0 f8 d7 56 40
       -1.2572042 0.89310807 -2.0601053 3.3569317
000330 8f 0d 67 bf d9 6c d9 3f 15 60 2e c0 fb c0 ff be
       -0.90255064 1.6986343 -2.7246144 -0.4995192
000340 8b 29 1c c0 2a af 22 bf 82 df 1f c0 94 fe ce 3d
       -2.4400356 -0.6354853 -2.4980168 0.10107151
000350 26 24 92 3f 85 a3 7b bf 25 07 a7 3f 67 24 40 3f
       1.1417282 -0.98296386 1.3049055 0.75055546
000360 30 2c 33 bf e7 24 36 3e 1b 90 ea 3f a3 34 50 c0
       -0.699893 0.17787515 1.8325227 -3.2532127
000370 e6 13 cf 3e 15 e4 bd bf 51 01 b5 3f e7 e5 e0 be
       0.4044487 -1.483523 1.4141027 -0.43925402
000380 f1 8a 45 bf 6b a3 08 40 42 62 a6 be 5e e1 98 bf
       -0.7716513 2.1349742 -0.3249684 -1.1943777
000390 99 1f e7 be 0e e4 36 40 15 ec 09 c0 d9 36 45 40
       -0.45141295 2.8576694 -2.1550343 3.0814726
0003a0 57 8d 10 3f 65 79 52 40 00 48 db bf 0e 22 dc 3f
       0.5646567 3.2886593 -1.7131348 1.7197893
0003b0 ba 7f 17 c0 18 92 87 c0 83 37 e5 3f 8f f6 4e bf
       -2.3671708 -4.2365837 1.7907566 -0.8084497
0003c0 8c 4b 4c c0 ca aa dd bf 51 9d f4 bf 1e 79 09 c0
       -3.192111 -1.7317746 -1.9110509 -2.1480174
0003d0 14 9f 4c bf 55 b6 d3 bf 9f 69 0b 40 8e e5 18 c0
       -0.79930234 -1.6540018 2.1783216 -2.389011
0003e0 b6 00 1a 40 d8 9b 88 bf 1f cd af 3e e7 b7 11 c0
       2.4062934 -1.067256 0.34336182 -2.2768495
0003f0 56 01 3b bf c0 ed 83 3f 6d 29 1c c0 52 4f bd 3e
       -0.73048913 1.030693 -2.4400284 0.3697458

lstm_cell.bias_hh f4 [256]
000000 a7 b0 a6 bf d2 88 e6 3f 6a be b8 3e 28 b5 49 40
       -1.302266 1.8010504 0.36082774 3.151682
000010 6a 5b 45 40 8c 28 50 40 fe 17 6b 3f 3c ac 28 40
       3.0837045 3.2524748 0.91833484 2.6355124
000020 02 15 3b 3f 26 15 25 3f b3 85 4e 40 04 b5 12 40
       0.7307893 0.64485395 3.2269104 2.2922983
000030 df db 7f c0 23 c0 0b 3e 6d 03 37 c0 1c 27 ca 3d
       -3.9977949 0.13647513 -2.859584 0.09870741
000040 12 5c 38 40 39 bc 1b c0 6d 9a 2f c0 09 cf 3c 3f
       2.8806195 -2.4333632 -2.7438004 0.7375341
000050 09 2b ba bf ab f3 79 c0 aa 3f da bf 8d 6a b1 3e
       -1.4544383 -3.9054973 -1.7050679 0.34651604
000060 77 65 de 3f 11 73 99 bf 2b e7 88 3f bf 79 83 3f
       1.7374715 -1.198824 1.0695547 1.0271529
000070 50 20 20 bf cd 5b 19 40 2e 94 24 40 4d 1f 91 3e
       -0.62549305 2.396228 2.5715442 0.28344193
000080 78 6c d1 3f 95 b0 e7 3f b5 a2 1f bf 2f f6 97 bf
       1.6361227 1.8100764 -0.62357646 -1.1872004
000090 ff f5 3f bf 7d e1 c7 3f b7 51 65 be dc cf df 3f
       -0.74984735 1.5615689 -0.22394453 1.7485309
0000a0 93 0e 6a 3e 2d 27 63 3f 89 6c 5f 3f be a6 a8 bf
       0.22857122 0.8873165 0.87274987 -1.3175886
0000b0 72 1f 9b c0 a6 00 d2 bf b6 a2 4f 3f fc 23 6e ba
       -4.8475885 -1.6406448 0.8110765 -0.00090843416
0000c0 a5 04 8c c0 6d 36 05 c0 ec e4 31 c0 d0 be 25 3f
       -4.375567 -2.081447 -2.7795973 0.6474428
0000d0 60 ee 28 c0 59 3d ed bf 04 eb 8d bc 6b 14 3a be
       -2.6395493 -1.8534347 -0.017323978 -0.18171851
0000e0 7e 45 09 c0 a8 a9 39 c0 13 26 9c 3f 96 a1 14 3f
       -2.1448665 -2.90098 1.2199119 0.5805906
0000f0 c0 57 58 3f be 80 4b 40 ec bc 09 40 e8 1a 31 c0
       0.84508896 3.1797328 2.1521559 -2.7672672
000100 d9 24 88 bf 5f 0e fe be 97 e6 99 be 09 8d 73 3f
       -1.0636245 -0.4962034 -0.3005874 0.9513708
000110 3b 62 bd bf ec 87 84 3e 16 6d 86 3f b6 6f 17 c0
       -1.4795603 0.2588495 1.050204 -2.3661933
000120 81 7c 46 3f d8 30 9a bf e6 f1 5b c0 18 b9 27 c0
       0.7753373 -1.2046156 -3.4366393 -2.6206722
000130 c2 fb 32 3f 70 a6 81 3e 47 c3 d9 bf 8d f6 ad 3e
       0.699154 0.25322294 -1.7012719 0.33977166
000140 a2 27 93 bf ee ce bf 3e 73 7b 0a bf 99 d8 03 40
       -1.149647 0.37462562 -0.5409462 2.060095
000150 4e 31 31 c0 6a 27 2d 3f e1 b0 2c c0 c1 53 a5 bf
       -2.7686343 0.67638266 -2.6982958 -1.2916185
000160 13 69 4a 3f 2f 23 0b bf 94 7b 1e 3e d2 f3 ee be
       0.7906658 -0.5435056 0.15476829 -0.46670395
000170 b5 bf a7 bf 8b 51 78 bf ad b6 6e 3e c5 11 66 bf
       -1.3105379 -0.96999425 0.23311873 -0.89870864
000180 65 2a a5 bd 1a b3 3c c0 a0 88 84 be 10 ea 4e c0
       -0.08064727 -2.9484315 -0.25885487 -3.233036
000190 3f cc 2b 40 dc f7 7e bf 2d d9 9b be cd a5 e4 bf
       2.6843412 -0.99596953 -0.3043913 -1.7863098
0001a0 c0 84 ab bf da 3c ef 3f 35 03 5f 3f e5 84 1b 3f
       -1.3399887 1.8690445 0.8711427 0.60749656
0001b0 00 dc 9d be 6d 77 03 c0 7e 33 87 bf a6 27 67 bf
       -0.3083191 -2.0541642 -1.0562589 -0.90294874
0001c0 5b ba 7f bf 64 e4 7e 3f ed 04 a6 be b5 2f 13 c0
       -0.9989373 0.99567246 -0.32425633 -2.2997868
0001d0 bd 8d 1f c0 82 37 55 3e f0 d1 c5 3e e5 4f dc bf
       -2.493026 0.20821956 0.38636732 -1.7211882
0001e0 28 9c 13 40 f1 d0 b0 3f 50 fe 81 c0 21 ff 0a 40
       2.306406 1.3813764 -4.062294 2.1718218
0001f0 5d 66 72 be a2 60 07 c0 ee 88 19 3f f9 76 bc be
       -0.23671861 -2.115273 0.59974563 -0.3680952
000200 5e 70 3b 40 27 cd ff be df 71 65 c0 65 ab 15 c0
       2.9287333 -0.49961206 -3.5850751 -2.338586
000210 f1 cf b6 3f 8c fb 01 bf 36 83 ee 3e cb cd bc bf
       1.4282209 -0.50774455 0.4658448 -1.4750303
000220 8e b3 0b 40 b2 15 03 c0 57 06 7f 40 68 89 46 3f
       2.1828341 -2.0481992 3.984762 0.77553415
000230 5a 80 72 3e bc b8 39 40 da 22 c7 3f 98 2f 2a bf
       0.23681775 2.9019003 1.5557511 -0.6647887
000240 db 9d 23 40 6f 66 8e 40 f4 9d 0f c0 48 e5 50 3e
       2.5565097 4.450004 -2.2440157 0.20399964
000250 ef 4c 60 bf 9d 19 3e 3e 1e 8c 0a 3f c2 22 25 3f
       -0.8761739 0.18564458 0.5412005 0.6450616
000260 46 5b 4e 3f 6f b7 07 bf 60 ea 6f 3d 51 ef e7 bf
       0.8060802 -0.5301427 0.058573127 -1.8119909
000270 7c e1 4a 3f 61 25 51 3f 2c 96 1b 40 df aa 10 40
       0.7925031 0.8169766 2.4310408 2.2604291
000280 87 6b ea 3f 2a 47 a9 bf d4 2d b4 be 38 c1 01 40
       1.8314065 -1.3224843 -0.35191214 2.0274181
000290 27 37 e4 3f 16 76 70 be 11 c7 a2 3f aa 70 6c 3e
       1.7829331 -0.23482546 1.2717 0.23089853
0002a0 02 4b b3 be 95 b5 d3 3f 62 31 0c bf f1 0b f4 3f
       -0.35018164 1.653979 -0.5476285 1.9066144
0002b0 e3 8f 50 3f b7 49 3a 3d ac 7e 53 40 0d ee 23 c0
       0.81469554 0.045480456 3.3046064 -2.5614045
0002c0 0f e6 08 c0 43 86 52 3e c7 15 c7 3e c9 23 21 bf
       -2.1390417 0.2055903 0.38883802 -0.6294523
0002d0 8f 6d aa bf 95 bf 31 c0 7e 34 a4 bf 8a 63 f1 bf
       -1.3314685 -2.7773182 -1.2828519 -1.8858502
0002e0 d6 17 df be 84 d7 b8 3f a7 c7 a0 bf 02 52 c1 bd
       -0.43572873 1.444077 -1.2560929 -0.0943947
0002f0 65 6a fb bf d9 ca bf bf 54 22 e5 3f 76 ef 1d 3f
       -1.9641844 -1.4983779 1.7901101 0.61693513
000300 61 45 48 be 95 19 85 c0 fa a3 1d 3f 20 c5 a9 40
       -0.19557716 -4.159373 0.61578333 5.305313
000310 46 f4 50 bf f8 42 10 c0 4e da b6 3f 9a 01 ef 3f
       -0.8162273 -2.2540874 1.4285371 1.8672364
000320 b1 79 92 bf 3d bb 56 3f 24 e7 02 c0 b8 ed 4e 40
       -1.1443387 0.8387945 -2.0453577 3.2332592
000330 9b 3f 7f bf 99 84 d8 3f bc f8 2d c0 28 ab 30 bf
       -0.9970643 1.6915466 -2.7183065 -0.69011164
000340 4b e0 0f c0 2a e0 37 bf 52 76 19 c0 f4 5a e0 3d
       -2.2480648 -0.7182642 -2.3978467 0.10954848
000350 1d 0c ab 3f 2c 5f 84 bf 81 c8 ad 3f c3 c3 43 3f
       1.3363072 -1.0341544 1.3576814 0.76470584
000360 1f a6 43 bf fb 2a 80 3e fb 0f ea 3f b3 b5 53 c0
       -0.76425356 0.25032791 1.8286127 -3.307965
000370 f2 01 ed 3e 7c bf c1 bf 6d 20 bc 3f b0 13 03 bf
       0.46290547 -1.5136561 1.4697396 -0.51201916
000380 40 e0 2c bf 13 a9 0b 40 3c 01 81 be 4e b7 84 bf
       -0.6752968 2.1821945 -0.25196254 -1.036844
000390 f9 de ee be 8e 88 37 40 39 70 0a c0 f9 8f 48 40
       -0.4665449 2.8677096 -2.1630995 3.1337874
0003a0 cf e3 1e 3f 13 c0 54 40 60 f1 c9 bf ae 2c dd 3f
       0.6206636 3.3242233 -1.5776787 1.727926
0003b0 ea fd 20 c0 78 cd 88 c0 53 7e e2 3f 37 ba 2d bf
       -2.5154977 -4.2750816 1.7694801 -0.67862266
0003c0 1e 2a 49 c0 ea b3 e2 bf 71 6c e5 bf 2d c4 05 c0
       -3.1431956 -1.7711155 -1.7923719 -2.0900986
0003d0 70 f7 5f bf f6 09 c3 bf 7e c9 0b 40 d6 3c 0d c0
       -0.87486935 -1.5237415 2.184173 -2.2068381
0003e0 a6 ff 0f 40 bd db 79 bf 77 e8 a6 3e 91 53 0e c0
       2.2499785 -0.9760092 0.32599232 -2.2238505
0003f0 d6 69 46 bf 62 48 82 3f c5 c6 28 c0 08 78 ce 3e
       -0.7750524 1.017834 -2.637132 0.40325952
