model/global_model_0.pth (torch, 330938 bytes, 17 tensors)

conv1.lin_l.weight f4 [16, 1]
000000 71 2a 22 bf ef ad 5e bc 46 ac 31 bf 91 ff 26 bf
       -0.6334601 -0.013591274 -0.69403493 -0.65233713
000010 e1 4e 00 bf 79 2b 8d 3e 11 0e 56 bf 9f d2 1b be
       -0.5012036 0.2757223 -0.83615214 -0.15217064
000020 d7 b5 22 bf ca 61 ae 3d 38 5f 88 be 55 af 60 bf
       -0.63558716 0.085147455 -0.26635146 -0.87767535
000030 45 34 51 3d 3f a2 f8 be a1 91 c6 3e 61 8f e8 be
       0.05107524 -0.48561284 0.3878298 -0.4542189

conv1.lin_l.bias f4 [16]
000000 07 cb 1e be 59 bf 17 3f ef 69 8a bf 5a c6 be 3e
       -0.15507136 0.5927635 -1.0813578 0.37260705
000010 1b 0d e3 3e 80 af 91 be b5 bd 51 bf ba 0f c8 3e
       0.44345936 -0.28454208 -0.81930095 0.39074498
000020 ff cb 2a 3f 2a 27 32 bf 8f e3 21 3f 01 f3 70 bf
       0.66717523 -0.6959101 0.6323785 -0.94120795
000030 1f 43 ff 3e 50 7c 84 be e1 03 ca be d0 53 d9 bd
       0.49855897 -0.25876093 -0.39456084 -0.10611689

conv1.lin_r.weight f4 [16, 1]
000000 d1 bd 7f bf a1 87 00 bf 16 1c 3d 3e b1 4b 5b bf
       -0.9989901 -0.50206953 0.18467745 -0.8566237
000010 11 6b a5 be b7 e8 16 3f 1a 56 38 bf c0 6f ec 3d
       -0.32308248 0.58948845 -0.7200638 0.11544752
000020 8f ee f9 be 40 49 51 bf 2b 62 57 bf 1b d1 db 3d
       -0.48814818 -0.81752396 -0.8413417 0.10733243
000030 3f 2c 44 bf e6 b7 4b bf e9 51 8a be 80 34 65 bd
       -0.76630014 -0.7957748 -0.27015617 -0.05595827

conv2.lin_l.weight f4 [64, 16]
000000 b1 99 ac bd 5f 13 0f 3e 9f b9 b8 bc a8 91 0f 3e
       -0.08427752 0.13972233 -0.022549449 0.14020407
000010 88 3a 0a bd 81 04 62 bd f0 47 17 be d0 2f c8 3d
       -0.033747226 -0.055180077 -0.14773536 0.097747445
000020 5f 6a fc 3d 2f 9a 3e 3d 27 c1 06 be 17 45 0f 3e
       0.12324976 0.04653376 -0.1315962 0.139912
000030 a9 5e 9d 3d 89 2e 24 3e 9f 3d c3 be 51 2e 42 be
       0.076840706 0.16033377 -0.3813295 -0.18962981
000040 47 96 17 3e c7 e1 93 be 41 ad a4 3d f1 6e 2d 3e
       0.1480342 -0.28883192 0.08040858 0.16936852
000050 2f 3d 90 3d 31 a4 49 3d 61 3d a1 bd 38 c6 86 be
       0.0704292 0.04922885 -0.07873035 -0.26323104
000060 75 f1 56 3e ef e9 88 be e1 67 72 be 97 ce 9c bd
       0.20990546 -0.26740977 -0.23672439 -0.076565914
000070 81 17 61 be a0 61 1b be 17 2b 99 be af 1f e4 bd
       -0.21981622 -0.1517396 -0.29915687 -0.11138856
000080 21 e9 85 bd 56 0c b7 bd 5f 51 25 3e e0 79 60 bc
       -0.065386064 -0.089379 0.16144322 -0.013700932
000090 40 88 bc 3b df 83 de bb a5 58 e2 3d c1 6c 14 3e
       0.005753547 -0.0067906226 0.11052064 0.14494611
0000a0 26 f3 b6 3d ef 7e ca bd c0 a1 23 bc 45 66 c2 3d
       0.08933096 -0.09887492 -0.009987295 0.094921626
0000b0 c7 05 8a bd 81 d2 04 be 20 05 96 be 60 d2 48 be
       -0.06739383 -0.12970926 -0.29300785 -0.19611502
0000c0 af 3e f8 3d af a2 6a be cf 22 c9 bd 51 57 e8 3d
       0.12121331 -0.22913621 -0.09821092 0.11344779
0000d0 bf 00 e9 3d 09 92 90 be 80 2a 91 3c 77 5c 1e be
       0.113770954 -0.28236416 0.01772046 -0.1546496
0000e0 b0 fc be 3c 5a ef b6 be c1 80 22 3e 40 de 86 bc
       0.02331385 -0.35729486 0.15869428 -0.016463399
0000f0 df 2e aa be 5a ce 3f 3e c0 a3 d5 3d 71 b9 fe bd
       -0.33238885 0.1873106 0.104316235 -0.12437714
000100 8f 6e 43 3e 35 22 de 3d e6 1a 3a be e7 51 a8 3d
       0.19085144 0.10846368 -0.18174323 0.08218747
000110 a0 d9 53 bc f0 2b 5e be 50 09 2f 3e ff bf a6 be
       -0.012930304 -0.21696448 0.17093396 -0.32568356
000120 6f f4 1f 3e 51 d1 72 be 00 bc 7e 3e e1 6c 80 bd
       0.15620588 -0.2371266 0.24876404 -0.06270767
000130 91 d3 1d be c1 17 23 be ef 7a a3 be 81 48 39 be
       -0.15412737 -0.1592703 -0.31929728 -0.18094064
000140 ea 9d 48 be 41 f9 8e bd 3f c6 84 be 41 8a f4 bd
       -0.1959149 -0.06981135 -0.259325 -0.11940432
000150 41 a0 75 3e f8 3b 13 be b0 87 de bd 0a 5b 2b bd
       0.23986913 -0.14378345 -0.10865724 -0.04183487
000160 c1 47 74 3e df 99 72 be bf 38 1b 3e ef fa c2 be
       0.23855497 -0.2369151 0.15158366 -0.38082072
000170 d9 c7 a9 be f0 ea e8 3c 31 49 e6 be 90 36 00 be
       -0.33160284 0.02843234 -0.44977716 -0.12520814
000180 21 68 53 be b9 4e a3 bd c5 7a da bd c0 86 9e 3b
       -0.20645191 -0.079739995 -0.10667948 0.004837841
000190 01 f7 51 be 1f 7f 9d be e1 83 22 be c1 15 8c be
       -0.20504381 -0.30761048 -0.1587062 -0.27360347
0001a0 a0 d8 1c 3c 71 5a 1c 3e 21 42 4a be 1a cf 2c 3e
       0.009573132 0.15268876 -0.19751789 0.16875878
0001b0 01 48 36 3e 0f 5b 7e 3e bf e4 0a be f0 73 e0 3c
       0.17800905 0.24839424 -0.13563822 0.027399033
0001c0 11 b3 e3 3d 0f a7 51 be 4f c7 e9 bd ef 91 c8 bd
       0.111181386 -0.20473884 -0.11414968 -0.097934596
0001d0 00 b4 0e 3e 81 53 0c be 21 70 2b be cf 28 91 be
       0.13935852 -0.13703729 -0.16741993 -0.28351447
0001e0 df c2 e7 bd 21 5c bc bc 6f f2 3c be 97 a4 84 be
       -0.113164656 -0.02299315 -0.18451856 -0.25906822
0001f0 a1 17 ae bd c1 83 cb bd 4f a0 4d be 81 0e 18 be
       -0.085006006 -0.099372394 -0.20080684 -0.14849283
000200 d0 67 f0 bc f0 c5 30 3d c1 82 01 be 5a 91 c2 bd
       -0.029346377 0.043157518 -0.12647535 -0.0950038
000210 70 02 07 3e df 2c 07 be bf 44 7b be 1f e8 f2 3d
       0.13184524 -0.1320071 -0.24537943 0.1186068
000220 f1 a2 d7 3d c5 92 54 3e 01 00 c4 3d 00 2c d8 bb
       0.105291255 0.20759113 0.09570313 -0.006597042
000230 41 00 7f 3d f1 dc 52 3e a0 4a 09 bc 21 24 1c be
       0.0622561 0.20592095 -0.008379608 -0.15248157
000240 10 a9 4a bd fa b3 37 be 17 f4 97 3d 71 36 91 3d
       -0.049477637 -0.1793975 0.07419603 0.07090462
000250 9a 3a 4b be a1 f0 67 be 6b 0f 5e be 7f 1a e3 bd
       -0.19846573 -0.22650386 -0.21685569 -0.11089038
000260 d0 e0 03 3d 6b 3c d3 3d bf e3 76 be f9 3e 9d be
       0.03219682 0.10314258 -0.24110316 -0.30712107
000270 26 4c bd 3d a1 6b 71 3e 5f 8d ec 3d 00 82 15 3d
       0.0924304 0.23576213 0.11550402 0.03650093
000280 70 d5 83 bd 70 94 cc bc 91 15 08 3e 01 6d 15 3e
       -0.06437194 -0.024973124 0.13289477 0.14592363
000290 e6 75 45 bd bf 1b 4d be 70 41 ed bd 06 24 31 3e
       -0.04820814 -0.20030116 -0.11584747 0.17298898
0002a0 41 17 00 be 0f 5f 82 3d 05 45 cf 3d 10 53 fc bd
       -0.1250887 0.06365787 0.10120586 -0.123205304
0002b0 1a 8b 2e be bf e5 57 3e 1a d7 2f 3e 50 e2 29 bd
       -0.1704525 0.21083735 0.17171898 -0.041475594
0002c0 a1 da 45 be d1 ce 31 be 00 24 eb 3c 50 64 fe 3d
       -0.19321682 -0.1736405 0.02870369 0.12421477
0002d0 21 38 5f 3e 1f 17 b7 3d 60 fa 62 3c 69 a8 23 be
       0.21798755 0.08939957 0.013853639 -0.15982212
0002e0 b1 a5 18 3e a7 d5 9f 3a 4f d7 72 be 3b ff c0 bd
       0.14906956 0.0012194411 -0.23714946 -0.09423681
0002f0 b1 bd 8b bd 30 b4 8c 3c b7 61 9e be 86 b5 4b be
       -0.0682329 0.017175764 -0.30933926 -0.19893464
000300 cf b7 48 be 9f 04 0b be 4f 9f 9b bc 0f 93 ff bd
       -0.19601367 -0.13575982 -0.018996863 -0.12479221
000310 a5 78 57 3e db 62 d3 bd e0 9e 14 3d bf 69 25 be
       0.21042116 -0.103215896 0.036284328 -0.1615362
000320 8f 84 02 be 0a 1a af bd cf b3 06 3e 19 b8 19 3d
       -0.1274588 -0.085498884 0.13154529 0.037529085
000330 ab 15 d3 3d e5 cb 56 3d c7 24 16 3e a0 58 c1 3c
       0.10306867 0.052440543 0.14662467 0.02360183
000340 61 61 7a bd 5f 18 02 be 81 66 fb bc 11 af 24 3e
       -0.061128024 -0.1270461 -0.030688526 0.16082408
000350 51 ac c3 3d 57 22 8b 3d a0 82 24 be e1 58 b9 3c
       0.09554351 0.06793659 -0.16065454 0.022625389
000360 cf 5f 35 3e 57 b5 06 3e f6 1e 32 be 2f 29 af bd
       0.1771233 0.13155113 -0.17394623 -0.08552777
000370 66 b7 b3 3c 90 d7 11 bd aa 76 b7 3c f0 3c 89 3d
       0.021938037 -0.035605967 0.02239545 0.06701076
000380 1f cc 41 3e e7 6c a2 3d 86 52 3a 3e f0 80 fe 3d
       0.18925522 0.07930928 0.18195543 0.124269366
000390 10 ec 58 be 19 31 0c be d0 4a 60 3e 10 fa 99 bc
       -0.211838 -0.13690604 0.21903539 -0.018795997
0003a0 b7 63 0c be af 7a 6d 3e e0 a8 e9 3c 11 0f 0c be
       -0.13709913 0.23191331 0.028522909 -0.13677622
0003b0 1b 1e 5f be 40 41 e3 bb 2f 33 8a 3d 65 da 54 bd
       -0.21788828 -0.0069352686 0.06748044 -0.05196609
0003c0 71 b6 14 3e c7 cc 8b 3e 21 ac 0f 3e d0 47 3b 3e
       0.14522721 0.2730467 0.14030506 0.18289113
0003d0 e1 79 f3 3d 51 18 c3 3c 80 3a 82 bc ff 02 5e 3c
       0.11888481 0.023815306 -0.015897036 0.013550519
0003e0 cf 51 64 be 57 69 8b 3c 01 c4 ed 3d a7 2f 9c 3c
       -0.22296833 0.017018003 0.116096504 0.019065691
0003f0 ff 80 0c bc e1 0d cc 3d 35 3f 5a 3d 00 ff e5 3b
       -0.008575677 0.09963585 0.053282935 0.0070189238

conv2.lin_l.bias f4 [64]
000000 99 e6 96 bd 5f ee f7 bd d9 25 a6 be 76 74 bb be
       -0.07368202 -0.121060126 -0.3245075 -0.3661229
000010 0f ac dd bd 8f 1b b2 be 4f 9f 2c 3e ff 1e 4d 3d
       -0.10823833 -0.3478665 0.16857646 0.05007839
000020 e0 d7 50 3d 60 49 4e be 90 96 4f 3d 21 4d 09 3d
       0.050987124 -0.20145178 0.050680697 0.03352082
000030 6f a0 01 3e 01 fd a1 3c af 9d 56 be af fb 75 be
       0.12658857 0.019773962 -0.20958589 -0.24021791
000040 67 99 9e bd 3f 83 6c be a0 e6 95 be a7 77 9c be
       -0.07744103 -0.23096941 -0.29277515 -0.30560037
000050 91 9f 71 be 5a f2 ac 3d c5 cf cd bd 1f a6 62 bd
       -0.23596026 0.084446624 -0.100493945 -0.055334207
000060 4a 8a 2f 3e 11 b2 1d be d0 57 02 3e 21 1d ca bd
       0.17142597 -0.15399958 0.1272881 -0.09868837
000070 77 31 88 be fa 90 ad 3d 61 81 94 be f5 e3 e0 be
       -0.2660024 0.08474918 -0.29004958 -0.43923917
000080 bf 55 5a be 2f 69 49 3e 55 ae df bd e7 68 28 be
       -0.21321772 0.1966903 -0.10921923 -0.16446267
000090 7f 69 9b be e9 3e 21 3e f0 81 30 3e 50 6e e4 3d
       -0.30353925 0.15746655 0.17237067 0.11153853
0000a0 a7 18 22 bd 7b 52 db bd 78 f1 07 bc 69 62 16 be
       -0.03957429 -0.10709091 -0.008297317 -0.14685978
0000b0 cf 71 e3 bd c5 dc cf bc f0 1e 53 be 80 a5 c6 be
       -0.11105692 -0.025373826 -0.2061727 -0.3879814
0000c0 a7 f0 a1 be 86 77 b5 be 41 ca 0f 3d a5 ff 56 be
       -0.31628916 -0.35442752 0.035104994 -0.20995958
0000d0 b1 24 ac bd 00 77 a9 bd 29 d5 1c 3e c6 e9 b6 3d
       -0.08405436 -0.082746506 0.15315689 0.089313075
0000e0 c1 69 b0 be b1 f5 40 3e 7f fe f9 bd 9a a6 3a be
       -0.34455684 0.18843724 -0.122067444 -0.18227616
0000f0 cf a2 b9 3d 11 81 9f 3d 1f 2b 1c 3e 29 7f 95 3c
       0.090642564 0.07788289 0.15250824 0.018249111

conv2.lin_r.weight f4 [64, 16]
000000 d0 f6 22 be 11 fe c3 3d 0f 00 97 be a1 ea a6 3d
       -0.15914464 0.09569944 -0.29492232 0.08150221
000010 4f 63 13 be 5f af 83 3d 37 13 26 3e 6a 69 4c be
       -0.14393352 0.06429934 0.16218267 -0.19962087
000020 9f a4 06 be 57 33 00 3e c6 88 b7 bd 8f a8 25 be
       -0.13148735 0.12519585 -0.08961634 -0.16177581
000030 6f 56 22 be 5a 15 35 be 08 0b 0a be ff e1 04 3e
       -0.15853284 -0.17683926 -0.1348077 0.12976836
000040 40 e2 0f bd 01 77 85 be 09 be 90 be a0 dc 8a 3c
       -0.03512788 -0.26067355 -0.28269985 0.016950905
000050 60 c6 06 3e ff ed 1a be c1 fb 27 be ef c4 a3 3c
       0.13161612 -0.15129851 -0.1640463 0.019991366
000060 9f c6 29 3e e5 42 d6 bd 26 00 c7 bd a9 6a 18 3d
       0.16579674 -0.10461978 -0.09716825 0.037211094
000070 8f 6f 88 be cf 95 24 be a7 c1 8b 3d f1 46 0d 3e
       -0.26647612 -0.16072772 0.06824046 0.13796593
000080 41 14 e6 3d b1 c7 27 3e 21 e3 3f 3e 91 10 01 3e
       0.11234332 0.1638477 0.18738987 0.12603976
000090 71 13 20 3e f1 49 e3 ba 40 23 85 3d 21 f9 79 bd
       0.15632416 -0.0017340762 0.06500864 -0.061028603
0000a0 91 5a 3c 3e 90 1d c0 bd c0 f3 63 be 6f e5 76 3e
       0.18393923 -0.093806386 -0.22260952 0.2411096
0000b0 51 ab 60 3e 0a 24 49 be 90 55 b7 bd 9f 9e 60 be
       0.21940352 -0.19642654 -0.089518666 -0.21935509
0000c0 60 cf 40 3d 20 c0 73 3d fb f8 ca bd 7b 2b 50 bd
       0.04707277 0.059509397 -0.099107705 -0.050822716
0000d0 11 f3 be 3d 71 16 dc 3b 25 b2 5a 3e e1 30 9a be
       0.09323705 0.0067165424 0.21357019 -0.30115417
0000e0 50 7d 45 3e e1 22 73 be 1f 4a 96 bd 45 bf dd 3d
       0.19286084 -0.23743774 -0.07338356 0.108274974
0000f0 50 67 ce bc e5 ea 53 3d 8f 61 0b be 91 e2 a3 bd
       -0.025195748 0.051737685 -0.13611434 -0.080021985
000100 00 8f af 3c 00 cb 09 3d 41 6f 71 be a6 3a 32 bd
       0.021430492 0.03364086 -0.23577596 -0.043512963
000110 11 e0 ef 3d bf 1d d5 3d d9 94 0a be 6f bb fd 3c
       0.11712659 0.10406064 -0.13533343 0.030973164
000120 80 f7 65 3b 31 6f 29 3c 38 82 89 3d 56 0f ad 3d
       0.0035090148 0.0103414515 0.067142904 0.08450191
000130 f7 e5 a5 3d 9f c6 71 be 81 64 35 bd ef e1 8a 3d
       0.08100503 -0.23610924 -0.0442853 0.06781375
000140 af f8 09 be df 01 07 bf e1 a4 0e be a6 6f 45 3d
       -0.13473772 -0.5273723 -0.13930084 0.04820218
000150 b8 87 08 3d 71 06 93 be 10 0a 26 3e 01 59 02 bf
       0.033332556 -0.28715852 0.16214776 -0.5091706
000160 f8 fb 1b be 51 b5 02 bf 30 e1 79 be a6 bb b9 be
       -0.15232837 -0.51057917 -0.24402308 -0.36275977
000170 4f a4 e0 be 21 85 03 be 45 de 43 be 60 b4 de bd
       -0.43875358 -0.12843753 -0.19127758 -0.108742476
000180 a8 b7 9c bd ef 02 67 be 3b 8a d5 bd b7 57 1d 3e
       -0.07652217 -0.22559713 -0.10426756 0.15365492
000190 df 72 40 3e ef dd ed 3d 48 42 96 bd 27 1d 09 3e
       0.1879382 0.11614596 -0.07336861 0.13390027
0001a0 07 cf 21 be bf ce 16 bd 3f 93 57 3e 10 ef 60 be
       -0.15801631 -0.036818262 0.21052264 -0.21966195
0001b0 c5 6d d4 3d 00 ca 2f 3a 8b dc db 3b ff 54 6b be
       0.103724994 0.00067058206 0.0067096404 -0.22981642
0001c0 81 58 6e 3e 11 04 90 be b1 ec 73 be c1 10 c2 bd
       0.23275949 -0.28128102 -0.2382076 -0.09475852
0001d0 80 88 7f bd 2b fe d4 3c 85 01 5d bd 17 07 0f 3e
       -0.062386036 0.026000103 -0.053956527 0.13967548
0001e0 bf f2 72 be 3f ae f8 3d fa 1d 4b be 85 1a 5b 3e
       -0.23725413 0.1214261 -0.19835654 0.21396835
0001f0 bf 14 7b be c0 f5 eb 3c 5f 8e 5d bd cf 71 e1 bd
       -0.24519633 0.028803706 -0.054090854 -0.110080354
000200 61 d2 bd 3d b1 38 61 3e 81 b5 78 bd 8f 6b 37 be
       0.09268642 0.21994282 -0.06071997 -0.17912124
000210 cf 18 0b be b0 b7 e7 bd f9 91 05 3e f0 58 4f be
       -0.13583682 -0.113143325 0.13043965 -0.2024877
000220 3a f4 3a 3e a7 75 a3 3d 68 41 9a 3d 6f 64 34 be
       0.18257228 0.07981425 0.075320065 -0.17616437
000230 af fe e5 bd c1 67 18 be 05 1b da 3d 30 08 d8 3d
       -0.11230218 -0.14883329 0.10649685 0.10548437
000240 50 79 3e 3e 6a f7 42 bb ef ed 6f 3d d0 08 7f 3d
       0.18600965 -0.002974952 0.05857652 0.062264264
000250 10 a7 60 bd b1 a2 25 3d 2f 15 34 be f1 23 68 be
       -0.054846823 0.040438358 -0.17586206 -0.2266996
000260 60 ef 37 3d 60 3a 84 bc 00 d1 ca 3c b0 de f9 bb
       0.04490602 -0.016141117 0.024757862 -0.0076254234
000270 1a 75 40 be 5b a0 cd bd 71 18 f8 bd a8 b5 0f bd
       -0.1879467 -0.10040351 -0.12114037 -0.03508535
000280 9f 6b b4 bd 8f 2f 4a 3e 6f 75 19 3e 01 3d 70 be
       -0.088095896 0.19744705 0.14986204 -0.23460771
000290 bf 8c c0 3d e1 ac 5c be 30 fd b2 3d cf a2 78 be
       0.09401845 -0.21550323 0.08739698 -0.24280857
0002a0 c8 a2 0f 3d cf c8 1a be c0 88 7c 3e 7f 15 61 be
       0.03506735 -0.15115665 0.24661541 -0.21980856
0002b0 c1 d9 fc bd c1 5a 71 3e 9a f7 46 bd e1 14 7a 3e
       -0.12346221 0.23569776 -0.048575975 0.24422027
0002c0 a5 2f 60 bd f1 22 0d 3e 91 40 79 be e0 76 30 3d
       -0.054732937 0.1378286 -0.24341036 0.043082118
0002d0 f0 1e 86 3d af 09 80 bd b1 22 fe bd ff c8 6d be
       0.065488696 -0.06251847 -0.124089606 -0.23221205
0002e0 c5 b2 e1 3d 11 4c af bd 3a 83 30 3e 2a e4 37 3e
       0.11020426 -0.085594304 0.17237559 0.17958131
0002f0 1f 80 1a 3e 20 2e 97 3d ef c2 43 be 40 34 33 3e
       0.15087937 0.073818445 -0.1911733 0.175004
000300 06 c2 3c be 21 6b 38 bc 2a 1d b7 bd a0 1e 1b 3e
       -0.18433389 -0.01125601 -0.089411095 0.15148401
000310 5f d1 1d 3e bf e1 3b be 67 b9 24 3e e1 bc be 3d
       0.154119 -0.18347834 0.1608635 0.093133695
000320 ef ac a5 3d f1 52 f6 bd 7f 32 1f be df 85 6b be
       0.08089625 -0.120275386 -0.15546606 -0.23000287
000330 af c3 36 be 4f f7 51 be 40 24 cc 3c 4f f3 36 3e
       -0.17848085 -0.20504497 0.02491963 0.17866252
000340 2b 27 62 3e c0 60 0d be bf b6 02 be 9f 54 61 3e
       0.22085254 -0.13806438 -0.12765025 0.22004937
000350 30 ea bc 3c 19 38 89 bd c0 3c 00 3e 1f 1b 43 be
       0.023060888 -0.06700153 0.12523174 -0.19053315
000360 f1 37 31 be 8f 4c 11 be 5a c8 c1 bd 99 36 8c 3d
       -0.17306496 -0.14189361 -0.09462042 0.06846351
000370 6f a9 02 be 6f 19 7c 3e 95 a3 4e be b0 88 11 be
       -0.12759946 0.24619077 -0.20179589 -0.14212298
000380 66 67 33 3e 41 9e 74 3e 71 96 6e be da 35 47 be
       0.17519912 0.23888494 -0.23299576 -0.19454136
000390 47 c5 00 be 81 53 c5 bd 80 67 5a be 25 0f d3 3d
       -0.12575255 -0.09635068 -0.21328545 0.10305623
0003a0 58 40 92 3d a0 fe 9a 3d d0 c8 5a 3d 11 ef 68 3e
       0.07141179 0.07568097 0.053414166 0.22747447
0003b0 18 c1 94 bd 36 98 33 be 86 3d 43 3d 80 c9 19 3e
       -0.07263392 -0.17538533 0.047666095 0.15018272
0003c0 50 77 61 be 0f ae 91 bd 0f 78 19 bb c1 21 65 3d
       -0.2201817 -0.07113277 -0.0023417508 0.055940393
0003d0 e0 11 96 bc 5f 32 9c bd 80 ce 65 3b 35 41 57 3d
       -0.01831907 -0.07626795 0.003506571 0.05255242
0003e0 20 68 0f bd 6f 86 c8 bd 25 c1 e2 3d 91 8a 47 3d
       -0.03501141 -0.09791266 0.11071996 0.04871613
0003f0 7f 76 4c 3e a0 d9 94 3d 41 86 0b be 30 7e b2 bd
       0.19967078 0.07268071 -0.13625433 -0.087154746

lstm_cell.weight_ih f4 [256, 192]
000000 7f 5b 00 3e 30 ff 3c 3e b1 47 91 bd 08 3e 99 3c
       0.12534903 0.18456721 -0.07093752 0.018706337
000010 89 37 29 3d 06 31 39 be c1 a8 3a 3d b7 63 8b 3d
       0.041312728 -0.18085107 0.045571093 0.068061285
000020 9b 15 d4 bd ef f2 ce bc a6 f1 b3 3d 79 f6 10 3e
       -0.103556834 -0.025262324 0.08786325 0.14156522
000030 ff c4 0b 3e 1b 82 49 3e 80 dd b0 3b 21 73 4f be
       0.13649367 0.19678538 0.0053974986 -0.20258762
000040 b7 4f 1c 3d 11 07 2c 3e 2f 65 43 bc 47 fc 01 3e
       0.03816196 0.1679957 -0.0119259795 0.12693892
000050 c5 b2 e0 3d 81 27 27 3c 16 8a 2d 3d 7f c2 71 3d
       0.109715976 0.01020229 0.042368017 0.059023377
000060 20 ad 12 bd ff 62 fc 3d 41 be ee 3d 3a ae 34 3e
       -0.035809636 0.123235695 0.11657382 0.17644587
000070 b1 8c 3f bd a6 9e b8 be ef 97 44 3e b6 83 47 bd
       -0.046765033 -0.3605854 0.19198583 -0.048709594
000080 30 71 3c bc 26 79 3a 3e c6 3d 4a be 99 d9 21 3e
       -0.011501595 0.18210277 -0.19750127 0.15805663
000090 81 94 86 3c b1 2d fe bd bf c3 26 3d 58 30 0f bd
       0.016428234 -0.12411059 0.04071402 -0.034958214
0000a0 cf 93 0f be 00 34 ce 3d bf f1 c7 3d 48 2d 0b 3e
       -0.14021228 0.10068512 0.09762906 0.13591492
0000b0 a6 dd 4b 3e a1 9c 35 bc b7 1f a1 3d 50 dc 3d bd
       0.19908771 -0.0110847065 0.07867377 -0.046352684
0000c0 3a 54 3a ba 30 1e 51 bc a0 01 28 bd 8b eb d8 3d
       -0.00071078876 -0.012763545 -0.041017175 0.10591801
0000d0 31 be a9 3d 57 71 1e 3e 6a 9c 46 3e 88 4d 14 ba
       0.08288229 0.15472923 0.19395605 -0.0005657305
0000e0 40 66 f0 3d 71 a8 28 3e 61 bc b0 ba c1 15 5b 3e
       0.11738253 0.16470505 -0.0013483876 0.21395017
0000f0 4f ac 1b 3e a0 5b ed 3d cb 82 5f bd a1 a7 97 3d
       0.1520245 0.11589742 -0.054568093 0.074050196
000100 f3 97 84 bf 89 4a 58 40 1d 43 29 40 e3 0d 34 40
       -1.0358871 3.3795493 2.6447213 2.8133476
000110 2d 19 14 40 16 0c b5 40 b3 77 e6 40 1f 54 bd bd
       2.3140366 5.6577253 7.2021117 -0.092445605
000120 33 46 b5 40 48 eb f3 40 94 dc ef 40 9e 87 d3 40
       5.6648192 7.622471 7.495676 6.610305
000130 08 ca ca 40 7d 47 d8 40 95 7e 0c 41 ae 75 f4 40
       6.337162 6.7587266 8.780904 7.639365
000140 2c 0d fd 40 d5 f0 d8 40 23 48 ee 40 40 c5 ec 40
       7.907858 6.7793984 7.4463058 7.3990784
000150 de 9b ec 40 da 02 ad 3d 00 d0 05 41 7a 16 aa 40
       7.3940268 0.084478095 8.363281 5.3152437
000160 66 0f e6 40 28 25 e6 40 bf ee df 40 ba e5 00 41
       7.1893797 7.1920357 6.997894 8.056086
000170 b9 cf ea 40 40 e5 e4 3b 46 39 44 3d a1 56 8f 3d
       7.337857 0.0069853365 0.047906183 0.06998945
000180 d1 d6 3a bd 2a e4 ab bd 5f e8 37 3d 71 ef 09 3d
       -0.04561502 -0.08393128 0.04489934 0.033675615
000190 9f 9c c0 3d 01 1f 2a 3d e1 39 d4 bd 20 49 96 3b
       0.09404873 0.041533474 -0.10362602 0.004586354
0001a0 01 d8 90 3d 60 f6 fd bb 9f b2 ef bd c1 c3 e5 bd
       0.070724495 -0.0077503175 -0.11703991 -0.11218978
0001b0 00 8f 6c 3b 70 66 02 bd f0 14 6d 3c c0 5b 55 bd
       0.0036095977 -0.031835973 0.014470324 -0.052089453
0001c0 a0 8e 97 bd bf 85 05 3d e0 6b fb bc 00 c3 93 3b
       -0.074002504 0.032598253 -0.030691087 0.00450933
0001d0 e0 66 53 bc 3f 0c a6 bd 06 26 b1 bd b1 83 f6 bd
       -0.012902945 -0.081078045 -0.086498305 -0.12036837
0001e0 ef fe c6 3d c0 5a 3c 3c 86 b9 b7 bd ff 54 e8 3d
       0.097165935 0.011496246 -0.08970933 0.11344337
0001f0 bf 37 ae bd 0f 7a e6 bd 41 1d 43 3d 08 af 90 bd
       -0.085067265 -0.112537496 0.04763532 -0.070646346
000200 41 c6 fe bc 72 ee fb 3f f3 5e a1 3f 2c c9 ed be
       -0.031100394 1.9682143 1.2607101 -0.46442544
000210 1e a6 07 bf a9 be 16 40 ff 74 d4 3d 48 3f 56 40
       -0.5298785 2.355387 0.10373878 3.3476124
000220 55 44 d5 40 f9 2b ba 40 81 3a c4 bd c4 b9 eb 40
       6.6645913 5.8178678 -0.09581471 7.3664265
000230 37 c2 f7 40 90 7d f8 40 11 96 d4 3d 5c 10 06 41
       7.742458 7.7653275 0.103801854 8.378994
000240 75 15 11 41 23 89 00 41 7c 34 f2 40 ae 12 e5 40
       9.067739 8.033481 7.568907 7.15853
000250 98 92 db 40 51 d8 cc 40 00 2c 1f 3c 72 37 04 41
       6.8616447 6.401406 0.00971508 8.263536
000260 f9 e2 cd 40 6a 30 5e 40 31 59 6c 3d 19 55 df 40
       6.4339566 3.471705 0.057702247 6.979138
000270 e7 a7 81 40 7a 63 09 41 0f a7 e2 3d b1 d8 53 3d
       4.051746 8.586786 0.1106702 0.051720325
000280 5b 6a 61 3d e7 ad a2 3d 1b 3c d7 bd da a5 4a bd
       0.05503307 0.079433255 -0.10509511 -0.049474575
000290 cf 38 b7 bd 9a 40 ba bd 70 2f 5e bc 25 33 df bd
       -0.08946382 -0.09094353 -0.013561115 -0.10898427
0002a0 8f ca 49 3d df 34 ea 3d ff 2f 91 3d bf ee 24 bd
       0.04926544 0.114358656 0.07089233 -0.04026675
0002b0 11 3c 02 bd 65 75 59 3d bf e1 b6 3d d0 16 c4 bd
       -0.031795565 0.05309047 0.089297764 -0.09574664
0002c0 49 f8 a6 bd 8f a3 3d bd 98 f4 8e bd a6 ba 2c 3d
       -0.081528254 -0.04629856 -0.06980246 0.04217019
0002d0 e1 7b f8 bd 50 58 b9 3d 40 fe 3e bb 71 62 e3 3d
       -0.12133003 0.090500474 -0.0029143244 0.111027606
0002e0 f1 3b 24 3d 21 4e 83 bd 00 8a 10 bd 66 24 ac bd
       0.040096227 -0.06411386 -0.035287857 -0.0840538
0002f0 59 43 1e 3d b1 a7 a8 bd 81 4e f2 3d 4f 94 b6 3d
       0.038638446 -0.082351096 0.1183138 0.08915006
000300 ff ff 3e 3d 9f 85 20 3d 97 bf 0d 3f 81 7e cf 3d
       0.046630856 0.03918993 0.5537047 0.101315506
000310 66 92 b2 3d 79 88 12 be 71 e1 64 bc 6f 5b f9 3c
       0.087193295 -0.14309873 -0.013969765 0.030439107
000320 d0 7d 61 bc 60 dc e7 bc 41 67 fb 3d 35 42 db 3b
       -0.013762906 -0.028303325 0.122755535 0.006691242
000330 27 cd 0d bd ff 9c c6 3e 77 0d a8 bd d1 b5 17 3f
       -0.034619477 0.38791654 -0.08205693 0.59261805
000340 b9 5e 8b 3c e1 fe 56 3d 61 c6 00 bd 01 97 f0 3d
       0.01701294 0.052489165 -0.03143919 0.11747552
000350 0a bd 3d 3e 00 88 a3 3d 81 df 4c bd 16 0f 33 3e
       0.18529144 0.07984924 -0.050017837 0.17486224
000360 e0 be 7e 3d 6f 3d 60 3d 30 d5 0e 3c 81 c4 97 3e
       0.06219375 0.054746088 0.00871782 0.29642108
000370 19 f8 0b bc 20 07 33 3f 19 b0 14 3f 89 14 29 3d
       -0.008543038 0.69932747 0.58081204 0.04127935
000380 3f 52 88 3d fb 1c 56 bd e1 93 56 3f 5f 7d 32 bd
       0.06656312 -0.05227373 0.83819395 -0.043576594
000390 9b da 47 bd db a1 dd 3d e0 14 d9 bc b8 73 82 3c
       -0.048792463 0.10821887 -0.026499212 0.01592432
0003a0 10 d4 2d 3f e0 18 c7 3c ab 67 44 3f 91 a6 03 3e
       0.67901707 0.024303854 0.76720685 0.12856509
0003b0 bf 1b b3 3e 89 12 06 3e 71 1d 49 3d a7 e8 9f 3d
       0.34982106 0.13093008 0.049100343 0.07808047
0003c0 3f 43 ad bd c8 ab 14 3d cf 9d b6 3e bf 46 2b be
       -0.08460092 0.036296636 0.35667273 -0.16726206
0003d0 ef ef bf bd 89 0d 96 bd a1 df eb 3d 31 b1 d6 3c
       -0.093719356 -0.073268004 0.11517263 0.026207538
0003e0 87 a7 9f bd 39 64 0b 3e c1 e4 21 3e db 78 61 3d
       -0.07795625 0.1361245 0.15809919 0.055046897
0003f0 bf d5 51 3d bf 0e 62 bd 1f e1 e5 bc 71 54 03 3d
       0.051229235 -0.055189844 -0.028061448 0.03206295

lstm_cell.weight_hh f4 [256, 64]
000000 c2 ad fc 3e 20 68 c3 3e f1 dd 89 3f b3 db 85 c0
       0.49351317 0.3816538 1.0770856 -4.1830688
000010 fd 14 ac 3f f8 52 36 c0 1f 0d 1a c0 5d f9 1e 40
       1.3443905 -2.848814 -2.4070508 2.48397
000020 e8 cd 60 40 3b 5d 49 3f 2d 31 da 3e ee 0c a0 bf
       3.5125675 0.78657883 0.42615643 -1.2503946
000030 3c 67 5f bd 4e 34 b9 bf 8a 9a e9 bf d6 5f 4a be
       -0.05454181 -1.4469087 -1.8250287 -0.19763121
000040 60 a2 4f bf cd 5a 1b 3f e3 d3 49 c0 9f ca c2 bf
       -0.8110714 0.60685426 -3.1535575 -1.5218085
000050 5b 59 26 bd 42 73 25 40 3a 6b 1f 40 8f b1 40 bf
       -0.04061256 2.5851598 2.4909196 -0.7527093
000060 b1 cd 04 3f 9f ee 22 40 60 23 1d c0 09 e0 65 3f
       0.5187636 2.5458143 -2.455284 0.89794976
000070 72 c2 f0 bd 64 1d 39 c0 b6 72 f6 bf f3 3d 52 3d
       -0.117558375 -2.8924189 -1.9253757 0.05132861
000080 30 b9 91 3f 74 2e fe bf 42 96 bc be 70 16 67 3f
       1.138464 -1.9857926 -0.36833388 0.9026861
000090 89 70 1c 40 71 13 b4 bf b3 cd 4b 3e 44 a1 10 c0
       2.4443686 -1.4068433 0.19902687 -2.2598429
0000a0 45 6e 9e 3f d7 7c 78 bd fc af 31 c0 42 a4 95 bf
       1.2377402 -0.06066593 -2.7763662 -1.1690753
0000b0 80 df 9f bf 85 c8 ec bf 0b 43 07 3f a5 c8 ca 3f
       -1.2490082 -1.8498694 0.52836674 1.5842482
0000c0 1f 18 f0 3e 49 ea 03 40 1f 6e ff bf 45 c8 2c 3f
       0.46893403 2.0611746 -1.9955481 0.6749309
0000d0 71 e5 ae 3f bf 87 cb 3f 7c a6 16 c0 01 c8 44 40
       1.366377 1.5900801 -2.3539114 3.0747073
0000e0 1c bb a1 3f a5 65 14 c0 af ef 6e 3f 68 61 70 3e
       1.2635226 -2.318704 0.9333448 0.23474658
0000f0 20 42 37 40 d5 a5 a5 3f aa 65 f1 3e 10 e7 36 40
       2.863411 1.2941233 0.47147876 2.857853
000100 01 55 f3 3e 51 41 f6 be 69 a8 ef 3c 07 5c a8 3e
       0.4752579 -0.48096707 0.029255109 0.3288271
000110 32 60 0d c0 20 d8 2f c0 80 22 0e 3f 58 fb c3 3e
       -2.2089963 -2.7475662 0.5552139 0.38277698
000120 fa 7f 07 c0 48 fe 8d bf 53 a9 1d bf eb 9a 2c bf
       -2.117186 -1.1093225 -0.61586493 -0.67423886
000130 d6 ed 80 bf 61 ce 0a bf 6c 8c 6f be cc 62 32 40
       -1.0072582 -0.5422116 -0.2339341 2.78728
000140 0e 2f 09 bf 34 bf 79 bf 5e 74 50 bf 42 48 19 c0
       -0.53587425 -0.9755738 -0.8142756 -2.3950353
000150 58 25 37 bf 33 b8 e3 3f 9f d8 c3 3e 2f 84 69 3f
       -0.7154136 1.7790588 0.38251206 0.9121732
000160 0c 1d 95 3f f3 97 52 be 8c 93 12 c0 93 a7 76 c0
       1.1649489 -0.20565777 -2.2902555 -3.853978
000170 4d a5 54 bf b5 fb 9a be bb f5 08 c0 9c 6d 80 bf
       -0.8306473 -0.30270162 -2.1399982 -1.003345
000180 34 6a 3e 3e d3 a1 c8 3f 8e 0b 68 c0 04 60 06 40
       0.18595201 1.5674385 -3.6257052 2.0996103
000190 cd a6 cd 3f 1d 1a d0 be 1f d4 dc bd af d7 38 40
       1.6066529 -0.40644923 -0.107826464 2.8881643
0001a0 a7 ae 8a bf 65 00 50 bf e0 9e 92 40 80 f1 30 3f
       -1.083455 -0.812506 4.581894 0.691185
0001b0 2b fb c8 bf b1 6a c0 be fb 8d b9 bf 2c ce 54 bf
       -1.570165 -0.375814 -1.4496454 -0.83127093
0001c0 09 1c 80 40 23 e1 01 c0 0e a7 a0 3f 0a 6e 0e c0
       4.0034223 -2.0293663 1.2550981 -2.2254663
0001d0 a8 55 1d 3e 96 12 3d be 63 a0 4e c0 b9 2f f8 bd
       0.15364707 -0.18464121 -3.2285392 -0.121184774
0001e0 07 eb eb bd 3e 40 ea bf 18 58 e3 3f 68 bc 1a 3f
       -0.11519437 -1.8300855 1.7761259 0.60443735
0001f0 53 58 d0 3f 8d b0 8e bf ce a2 9b 3d c7 66 fb bf
       1.6276954 -1.1147629 0.07599412 -1.964074
000200 6a eb 26 40 5f 13 82 3f 3e 2b cd 3e e5 ef ec 3e
       2.6081185 1.0162162 0.40072054 0.46276775
000210 99 15 8e 40 12 e0 a2 3e 46 ff 98 3e 42 48 f7 bf
       4.4401364 0.31811577 0.29882258 -1.9318926
000220 39 43 06 40 0c 66 1b c0 89 41 d8 3f 52 a1 33 3d
       2.097853 -2.4281034 1.6895 0.04385502
000230 dd 45 0d be f6 cf ae bf 9a 92 f7 bf 4d 50 28 bf
       -0.13796182 -1.3657215 -1.9341614 -0.6574753
000240 5e 17 c4 3f 7d d9 30 3f c4 b0 01 bf 39 cf fb bf
       1.5319631 0.6908186 -0.5066035 -1.9672614
000250 d3 ac 74 40 e9 85 e5 3e 3e e1 b4 3f 3d b8 c3 3f
       3.8230484 0.44828728 1.4131238 1.52906
000260 a1 6d 25 3f 21 f1 ba 3f 32 4c d2 3f 96 f1 af be
       0.64620405 1.4604837 1.6429503 -0.34364003
000270 76 8d 01 c0 9a 5b 23 40 38 3d 5f 3f af 78 8a 3f
       -2.024259 2.552466 0.8720279 1.081808
000280 a9 39 c7 3f a6 12 bd bf 77 91 a6 bd 99 db 78 bf
       1.5564471 -1.4771316 -0.08133214 -0.9721008
000290 c8 6a e5 3f a3 5d f8 3f ba 9e 95 3f 30 ae 20 40
       1.7923212 1.9403576 1.1689065 2.5106316
0002a0 1a 0c 0e c0 5f 30 02 bf da 47 19 c0 a3 95 04 bf
       -2.2194886 -0.5085506 -2.3950105 -0.5179083
0002b0 57 c5 e9 3f 84 88 4c c0 86 6c 50 3f eb 4d 8b 3f
       1.8263348 -3.1958323 0.81415594 1.0883154
0002c0 68 6c 2a 3e 59 06 89 c0 74 02 5e 3f 35 74 6d 3f
       0.16642916 -4.282025 0.86722493 0.9275544
0002d0 22 d8 7c c0 7d 78 8f 3f c8 93 53 3f a8 26 8c 3f
       -3.9506917 1.1208645 0.8264737 1.0949297
0002e0 71 46 dd 3f 65 06 86 3e 21 79 4b bf 78 69 7b 3f
       1.7287122 0.26176754 -0.79481703 0.9820781
0002f0 f3 62 3a 40 d2 38 9b bf f5 96 d7 be 27 ea cc bf
       2.9122894 -1.2126715 -0.4210736 -1.6008958
000300 9e ca cb bf 73 f8 74 3f 08 d9 92 be 4d 3f 03 3e
       -1.5921209 0.95691603 -0.28681207 0.12817116
000310 12 2a 2a bf 58 05 60 3e c0 1a 71 bf 8f e2 ec bf
       -0.66470444 0.21877038 -0.9418144 -1.850664
000320 db ec 4b c0 2f 47 dc 3f c2 60 ce bf a3 bb 9a bf
       -3.1863315 1.7209224 -1.6123278 -1.2088512
000330 3e 1c 7f 3f 97 5f 3d bf 28 6b 51 3e 42 1a 66 be
       0.9965247 -0.73973984 0.20451033 -0.22470954
000340 e8 c5 a9 3d 91 96 ff 3f 0a 5c f0 3f 7e 7f 7b bd
       0.08289701 1.9967824 1.8778088 -0.061400883
000350 18 8e 87 bf dc 66 1a bf 2d 99 03 3e 03 86 a2 3e
       -1.0590239 -0.603132 0.128514 0.31742868
000360 1a 81 39 40 98 3f 02 bd e9 a4 20 3f fd 9f 27 40
       2.8985047 -0.03179893 0.6275163 2.61914
000370 a2 93 1c 40 80 70 ba 3f 77 05 8f bd 3b 6f 96 c0
       2.4465108 1.4565582 -0.06983464 -4.701078
000380 c2 6c e0 bf 3f 1c 66 bf 85 0b 9a 3f 4e 6b e7 3e
       -1.753319 -0.8988685 1.2034765 0.45199054
000390 cc 3e ae 3f ce 91 9b be 31 c7 28 40 e7 22 41 3f
       1.3612914 -0.30384678 2.6371577 0.7544388
0003a0 d5 d2 2d be d8 df 34 40 e5 fa 39 c0 96 3b 36 c0
       -0.16974957 2.8261623 -2.9059384 -2.8473868
0003b0 17 77 01 40 4e 3f c0 be c8 9c 31 40 09 a4 52 3f
       2.0228937 -0.37548298 2.7751942 0.8228155
0003c0 03 41 2b 40 37 f1 22 3d 61 4f 02 bf 56 87 ed 3e
       2.675843 0.03978082 -0.5090237 0.46392316
0003d0 c6 91 1b 3d 8f b9 3a bf 6a 72 7b 3e 3f 93 16 c0
       0.037980817 -0.7293939 0.24555364 -2.3527372
0003e0 31 dc a1 be 91 5d 05 40 c6 f9 4d c0 18 cb d7 be
       -0.31613305 2.0838358 -3.21837 -0.42147136
0003f0 6b 15 9d bf 85 f3 8a bf 76 ba fa 3e b6 24 23 c0
       -1.2272161 -1.0855566 0.48970383 -2.5491157

lstm_cell.bias_ih f4 [256]
000000 6d 39 a4 bf 8c 84 dc 3f 1f 59 0f 3f 3c d0 4f 40
       -1.2830025 1.722795 0.55995363 3.2470846
000010 27 b6 43 40 b3 ab 4e 40 24 64 7e 3f a3 ef 23 40
       3.0579927 3.2292297 0.9937155 2.5615013
000020 ae a6 30 3f dd e5 24 3f a4 eb 4c 40 81 b0 07 40
       0.69004333 0.64413244 3.2018824 2.120148
000030 53 b3 72 c0 f8 47 84 3d 96 0a 42 c0 b8 5c 63 3d
       -3.792195 0.064590394 -3.031896 0.055508345
000040 99 13 3a 40 29 36 13 c0 f1 aa 2e c0 cd 68 53 3f
       2.9074461 -2.3001807 -2.7291834 0.8258179
000050 c2 69 bc bf 7f 56 82 c0 09 ac cc bf 80 93 b2 3e
       -1.4719775 -4.0730586 -1.5990001 0.3487816
000060 94 6d e0 3f 70 fb 88 bf 78 31 4f 3f 9c 3d 8e 3f
       1.753344 -1.0701733 0.8093486 1.1112552
000070 7e 44 36 bf a1 79 1f 40 84 6b 1b 40 f2 74 7d 3e
       -0.7119826 2.4917986 2.4284372 0.24751642
000080 a0 f3 d5 3f ce 81 e9 3f 75 55 04 bf fc a3 a0 bf
       1.6714973 1.8242738 -0.516929 -1.2550044
000090 a3 3c 2f bf 84 c1 ad 3f 03 8e 98 be 64 a1 cf 3f
       -0.684519 1.3574681 -0.29795846 1.6221128
0000a0 cd 4d d9 3e 84 19 56 3f 85 5a 34 3f ba a1 b8 bf
       0.4244217 0.83632684 0.7045062 -1.4424355
0000b0 27 04 98 c0 b0 9f d4 bf 6d c8 4d 3f fa 21 c8 ba
       -4.750507 -1.6611233 0.8038395 -0.0015268915
0000c0 3e 6e 8b c0 c4 0b 08 c0 1d 7b 39 c0 26 8d 1f 3f
       -4.3572073 -2.125718 -2.8981392 0.6232475
0000d0 68 4e 1f c0 11 34 eb bf 0f 61 0f be 02 69 07 be
       -2.4891605 -1.8375264 -0.14001869 -0.13223651
0000e0 dd 72 0f c0 77 1a 3d c0 c2 2e a1 3f 63 7c 38 3f
       -2.2413857 -2.9547403 1.2592394 0.720648
0000f0 98 27 69 3f 2c d4 4a 40 e4 6a 14 40 2a 65 37 c0
       0.9107604 3.1692 2.319024 -2.8655496
000100 67 e0 96 bf 94 7b 20 bf 15 56 a0 be 13 b8 54 3f
       -1.1787232 -0.62688565 -0.31315675 0.83093375
000110 85 c2 c8 bf f7 03 80 3e 3c d7 78 3f dc ec 16 c0
       -1.5684363 0.25003025 0.9720342 -2.3582067
000120 dc c3 51 3f 49 dc 80 bf 56 78 5b c0 89 a2 26 c0
       0.8193948 -1.0067226 -3.4292197 -2.6036704
000130 6f ed 4d 3f c1 e7 e7 3c 2f 36 ed bf 6a 03 85 3e
       0.8044042 0.028308751 -1.853216 0.25979167
000140 0a b6 68 bf e3 94 e0 3e cd 56 1b bf bb fb 08 40
       -0.9090277 0.43863592 -0.6067932 2.1403644
000150 ee 83 32 c0 86 12 4d 3f 13 00 28 c0 8c af a3 bf
       -2.7893023 0.8010639 -2.6250045 -1.2787948
000160 eb ea 3c 3f 00 ef 1a bf a0 90 8d 3e e0 5a c3 be
       0.73795956 -0.60520935 0.27649403 -0.3815527
000170 1e d3 ab bf 4e bc 81 bf b5 3a 6a 3e 6e 95 59 bf
       -1.3423803 -1.0135591 0.22873957 -0.84993637
000180 6b ef 22 bd 82 21 3c c0 ae 1d 56 be 38 e3 56 c0
       -0.039779108 -2.9395452 -0.2090976 -3.3576183
000190 7a 74 26 40 f6 24 64 bf 29 99 d8 be bf 3e da bf
       2.6008592 -0.891189 -0.42304352 -1.7050399
0001a0 a4 76 bf bf c0 79 e5 3f bb 2f 38 3f 20 9b 0b 3f
       -1.4958081 1.792778 0.7194783 0.54533577
0001b0 b5 25 a2 be b9 05 0a c0 15 4d 83 bf 38 17 5d bf
       -0.31669393 -2.1565993 -1.0257899 -0.86363554
0001c0 c7 ac 9c bf 28 4f 80 3f 63 a7 f6 be b4 d0 0e c0
       -1.2240227 1.0024157 -0.4817458 -2.2314882
0001d0 be d8 24 c0 dd 52 68 3e 84 68 02 3f 0c 8f d2 bf
       -2.575729 0.2268786 0.5094073 -1.6449904
0001e0 8d 40 17 40 38 0b ac 3f 2b b7 88 c0 cf 41 09 40
       2.3633149 1.3440924 -4.2723594 2.1446416
0001f0 71 0b 77 be d9 28 03 c0 55 2d 39 3f 02 94 dd be
       -0.24125458 -2.0493681 0.72334796 -0.43276983
000200 49 b0 41 40 d3 7d 94 be 44 bb 68 c0 b1 2f 14 c0
       3.0263846 -0.29002246 -3.6364298 -2.3154109
000210 7b e0 cc 3f 72 c3 f2 be 48 65 11 3f 9a 91 bd bf
       1.6006006 -0.47414738 0.5679517 -1.4810059
000220 4f 79 10 40 50 99 03 c0 83 b0 71 40 17 db 2f 3f
       2.257404 -2.0562325 3.7763984 0.6869368
000230 92 db 37 3e 9e b6 38 40 06 99 e4 3f d0 8f 1d bf
       0.17954853 2.886146 1.7859199 -0.61547565
000240 15 16 17 40 f7 ba 91 40 8b f1 0a c0 45 28 81 3e
       2.3607228 4.554073 -2.1709926 0.25226036
000250 ee 16 7c bf 89 41 50 3e af dc 13 3f 76 a8 45 3f
       -0.9847249 0.203375 0.5775861 0.77210176
000260 65 72 0c 3f 17 ae 04 bf e8 c5 6b 3d 9a 5a e3 bf
       0.5486205 -0.5182814 0.057561785 -1.7762024
000270 3f b6 55 3f 5e 13 4c 3f 84 9e 13 40 55 fa 1b 40
       0.8348121 0.7971705 2.30655 2.437154
000280 2b b0 fa 3f 00 42 be bf 2a 89 b7 be 3f b8 fd 3f
       1.9585012 -1.4863892 -0.35846835 1.9821852
000290 f6 ce e8 3f 8d af 98 be 51 1f ae 3f c0 30 b4 3e
       1.818816 -0.29821435 1.3603307 0.35193443
0002a0 6c 9f a3 be 1b 0d d7 3f 1b 23 04 bf 85 85 f1 3f
       -0.31957567 1.6800874 -0.51616067 1.8868872
0002b0 8e 4d 3f 3f 65 d3 41 3c ad 4c 56 40 a9 5b 28 c0
       0.74727714 0.011830186 3.34843 -2.6305945
0002c0 1d e8 00 c0 7d d3 85 3e 08 9a ad 3e 51 2a 2c bf
       -2.014167 0.26137915 0.3390658 -0.6725207
0002d0 e4 2c 8f bf 4a e6 34 c0 9f 13 b5 bf 5c ad eb bf
       -1.1185575 -2.8265557 -1.4146613 -1.841228
0002e0 ac c5 c5 be 60 b2 a4 3f 83 12 9e bf 38 b6 1a bd
       -0.38627374 1.2866936 -1.2349399 -0.037771434
0002f0 06 63 e6 bf d3 4f a4 bf 7d 17 02 40 e3 ec 25 3f
       -1.799897 -1.283686 2.0326836 0.64814585
000300 a8 dd 64 be c3 35 86 c0 a7 46 1f 3f ee 50 a5 40
       -0.2235018 -4.1940627 0.6221718 5.166129
000310 60 6e 48 bf 16 43 0e c0 72 79 c8 3f 92 ba fa 3f
       -0.7829342 -2.2228446 1.5662062 1.9588187
000320 24 5c 9e bf f3 29 69 3f d2 6c 03 c0 be 1b 58 40
       -1.2371869 0.91079634 -2.0535169 3.3766932
000330 11 3d 73 bf 23 2f db 3f ba 44 2d c0 77 bd f5 be
       -0.95015055 1.712376 -2.7073197 -0.47996113
000340 a4 d0 19 c0 e7 f8 26 bf 81 fe 21 c0 53 95 d0 3d
       -2.4033594 -0.65223545 -2.5311587 0.10184731
000350 99 58 8f 3f 21 d7 7d bf 33 c4 ab 3f a1 ef 37 3f
       1.1198913 -0.99156386 1.341925 0.7185002
000360 50 ce 33 bf 16 ec 58 3e d8 2e ea 3f 01 ba 4e c0
       -0.7023668 0.2118381 1.8295546 -3.2301028
000370 5a 8c e1 3e 2b fd ba bf bb 6e b2 3f 31 bd 00 bf
       0.44052392 -1.4608511 1.3940042 -0.50288683
000380 4d 2e 40 bf 0d 10 0b 40 32 eb ac be 66 69 9c bf
       -0.7507065 2.1728547 -0.3377319 -1.2219665
000390 14 90 e8 be f4 ee 35 40 26 82 0a c0 b3 88 43 40
       -0.45422423 2.8427095 -2.1641936 3.0552185
0003a0 66 54 13 3f ed 2b 54 40 47 ff d6 bf bb 0e e1 3f
       0.57550657 3.315181 -1.6796654 1.758262
0003b0 eb 28 17 c0 3e cc 86 c0 23 5b e5 3f bb 37 48 bf
       -2.3618724 -4.212432 1.7918438 -0.7821004
0003c0 4f c7 4a c0 b9 4b e0 bf fe 4e f1 bf 3b c0 0b c0
       -3.1684148 -1.7523109 -1.8852232 -2.1836078
0003d0 52 56 4b bf 1d 5d d7 bf 62 ad 0d 40 ee 83 19 c0
       -0.7942859 -1.6825291 2.2137074 -2.3986773
0003e0 8e b1 17 40 83 c4 89 bf 30 55 c2 3e 1d 66 10 c0
       2.370212 -1.0763096 0.37955618 -2.2562325
0003f0 c3 a3 3f bf ee 05 85 3f 8b 14 1c c0 6a 50 ae 3e
       -0.74859256 1.0392435 -2.4387538 0.34045726

lstm_cell.bias_hh f4 [256]
000000 25 5e a8 bf 8c 6b ea 3f af d0 ad 3e b1 5e 4b 40
       -1.3153731 1.8314071 0.33948275 3.1776545
000010 c7 53 48 40 b3 5d 4f 40 96 6a 64 3f b3 34 26 40
       3.1301134 3.240094 0.8922514 2.5969665
000020 2e 47 36 3f 0f 26 1f 3f 34 2a 4d 40 25 cb 0f 40
       0.7120236 0.6216745 3.2057009 2.246774
000030 b3 09 7d c0 da 51 25 3e 96 59 38 c0 a3 fb c2 3d
       -3.953717 0.16144505 -2.880468 0.09520652
000040 4b d7 39 40 a9 1b 1c c0 11 b8 2e c0 5b 93 33 3f
       2.9037654 -2.4391882 -2.7299845 0.7014672
000050 62 9c bd bf 8e 6c 7b c0 43 5e d8 bf ed 5a bd 3e
       -1.4813349 -3.9285007 -1.6903766 0.36983433
000060 74 a4 da 3f 4f 10 96 bf d7 14 85 3f 0e 16 81 3f
       1.7081437 -1.1723727 1.0396985 1.0084856
000070 48 6a 1f bf d1 56 1b 40 05 4f 25 40 68 7b 7f 3e
       -0.6227155 2.4271739 2.582948 0.2494942
000080 26 70 d8 3f ee 97 e6 3f c5 d5 1a bf 4c cb 96 bf
       1.6909225 1.8015115 -0.60482436 -1.1780791
000090 e3 f3 45 bf 14 2f c5 3f e1 72 87 be 6a 8c dd 3f
       -0.77325267 1.5404992 -0.26454833 1.7308476
0000a0 42 b9 59 3e 34 6e 6a 3f 05 76 5d 3f f2 ad a9 bf
       0.21262076 0.91574407 0.8650821 -1.3256209
0000b0 f7 c7 99 c0 90 db cf bf bd 7f 51 3f 37 ef 19 3d
       -4.80566 -1.623888 0.8183554 0.03758165
0000c0 46 84 8b c0 e4 a0 04 c0 99 35 32 c0 56 0d 29 3f
       -4.3598967 -2.07232 -2.7845213 0.66035974
0000d0 08 aa 2b c0 b1 ad ef bf 3d 4e c1 3b fa cf 5d be
       -2.682253 -1.8724881 0.0058992193 -0.21661368
0000e0 4d 04 0c c0 15 ec 34 c0 3a 0e 9b 3f 54 8b 19 3f
       -2.1877625 -2.8269093 1.2113717 0.5997822
0000f0 f7 8c 5a 3f d2 89 48 40 d9 a9 0b 40 73 a5 32 c0
       0.85371345 3.133412 2.1822417 -2.7913482
000100 f7 a9 88 bf b5 b7 f6 be ed 61 8f be 33 5d 67 3f
       -1.0676869 -0.48187032 -0.280044 0.90376586
000110 05 17 c0 bf a1 3c 80 3e b9 11 87 3f f3 26 1a c0
       -1.5007025 0.25046256 1.0552284 -2.4086273
000120 bb 42 3e 3f 79 14 93 bf e6 e1 5f c0 da 11 28 c0
       0.7432057 -1.1490623 -3.4981627 -2.6260896
000130 15 c2 39 3f 7f 8d 81 3e 15 2a d5 bf ae 4b 9e 3e
       0.7256177 0.25303265 -1.6653467 0.30917114
000140 ff a8 8e bf 33 cb b8 3e 65 c2 05 bf 3f 54 06 40
       -1.1145324 0.3609253 -0.5224975 2.098892
000150 9e eb 31 c0 b6 00 2d 3f b6 88 29 c0 34 3a a4 bf
       -2.780006 0.6757921 -2.6489692 -1.2830262
000160 1b 1b 3b 3f b0 60 05 bf 42 b9 47 3e 40 3f d3 be
       0.73088235 -0.5210066 0.19504264 -0.41259193
000170 67 f5 a6 bf c5 0d 7a bf 67 69 4b 3e 1e bd 65 bf
       -1.3043641 -0.9767726 0.19864427 -0.89741695
000180 b9 57 97 bd 82 ed 3c c0 55 99 83 be 18 9f 4e c0
       -0.07389779 -2.9519963 -0.2570292 -3.2284603
000190 9a ee 2b 40 3e 13 80 bf cb 8b 99 be 9f ec e8 bf
       2.686438 -1.0005872 -0.29989466 -1.8197211
0001a0 53 a7 a8 bf d0 22 f2 3f 47 10 63 3f d0 ee 18 3f
       -1.3176063 1.8916874 0.8869671 0.597394
0001b0 8e 3d 7f be 19 84 05 c0 c5 7d 88 bf 58 01 5e bf
       -0.24925825 -2.0861876 -1.0663382 -0.867208
0001c0 71 09 7c bf 02 fe 7b 3f 8b 59 97 be 44 11 12 c0
       -0.98451906 0.9843446 -0.29560503 -2.2823038
0001d0 7e 47 1e c0 5d d3 4d 3e 9c 7e e6 3e 1c 92 da bf
       -2.4731135 0.2010016 0.4501847 -1.7075839
0001e0 4d 7e 12 40 28 99 b5 3f 42 20 82 c0 08 59 0c 40
       2.2889588 1.4187365 -4.0664377 2.192934
0001f0 31 c0 73 be b1 27 09 c0 a4 29 16 3f 7f 96 be be
       -0.23803784 -2.1430476 0.5865729 -0.37224194
000200 8f 90 3d 40 9f c3 05 bf bb 4e 68 c0 11 7a 17 c0
       2.9619482 -0.5225162 -3.6298053 -2.3668253
000210 9b ae bd 3f a2 fd eb be d2 28 ea 3e c2 dc bc bf
       1.481891 -0.46091944 0.45734268 -1.475487
000220 2f 1c 0a 40 d0 4f 01 c0 05 eb 7a 40 6d 40 4b 3f
       2.1579702 -2.0204964 3.9205945 0.7939518
000230 e9 25 6b 3e 9e 65 39 40 db b1 ca 3f 8c 6d 31 bf
       0.2296368 2.8968272 1.5835527 -0.6930778
000240 3e df 22 40 87 7d 8e 40 9e 2c 0f c0 ba f0 48 3e
       2.5448756 4.452823 -2.2370982 0.1962308
000250 3a 5a 6f bf 1b bc 2e 3e 57 aa 10 3f e8 22 29 3f
       -0.9349705 0.17063944 0.5650992 0.6606889
000260 d5 b6 43 3f 27 bb 03 bf 67 32 40 3d 6a 17 e8 bf
       0.76450855 -0.51457447 0.046923067 -1.8132145
000270 4b ba 4d 3f 5e e8 58 3f 32 fe 18 40 e5 1a 10 40
       0.80362386 0.84729564 2.3905149 2.2516415
000280 7b a9 ee 3f c6 c6 a7 bf 3a 53 a4 be 8b 19 02 40
       1.8645471 -1.3107536 -0.32094747 2.032809
000290 16 a7 dc 3f ec 39 7f be 91 51 9e 3f 2e f9 8c 3e
       1.723849 -0.24924439 1.2368642 0.2753386
0002a0 3c bb 9a be 4b f1 cf 3f 9b 74 0b bf a5 8d f3 3f
       -0.30220973 1.6245512 -0.544748 1.9027601
0002b0 ee c6 49 3f 3b f7 86 3d 0d f7 54 40 09 2e 24 c0
       0.7881917 0.06590124 3.3275788 -2.5653098
0002c0 dd b7 07 c0 ea 82 27 3e a8 1c aa 3e 49 13 20 bf
       -2.1205971 0.16358534 0.33224988 -0.62529427
0002d0 b3 e0 a8 bf 7a 6a 33 c0 8f da a1 bf 0c fc f0 bf
       -1.3193573 -2.8033738 -1.2644824 -1.8826919
0002e0 04 61 e9 be 00 4c b8 3f 57 06 9f bf 75 9b 94 bd
       -0.4558183 1.4398193 -1.242381 -0.072562136
0002f0 08 01 f9 bf 73 d8 bb bf cf 8d e7 3f 26 5f 1c 3f
       -1.945344 -1.467543 1.8090152 0.61082685
000300 3e 25 30 be 5a f1 84 c0 47 1b 1e 3f b6 6c aa 40
       -0.17201707 -4.154462 0.6176037 5.3257704
000310 8b 3c 4f bf e6 86 0e c0 7e 6a b2 3f cc 02 ef 3f
       -0.80951756 -2.2269835 1.3938749 1.8672729
000320 c4 e9 8f bf 77 42 5b 3f 32 7b 02 c0 7e 31 50 40
       -1.1243215 0.8564829 -2.0387692 3.2530208
000330 d6 b7 85 bf e3 46 da 3f 5e dd 2c c0 e8 a9 2b bf
       -1.0446727 1.7052883 -2.7010112 -0.6705613
000340 64 87 0d c0 e9 29 3c bf 51 95 1b c0 b3 f1 e1 3d
       -2.2113886 -0.7350145 -2.4309886 0.110324286
000350 91 40 a8 3f 5b 79 85 bf 8f 85 b2 3f fb 8e 3b 3f
       1.3144704 -1.042766 1.3947009 0.73265046
000360 40 48 44 bf 98 8e 91 3e b8 ae e9 3f 11 3b 52 c0
       -0.76672745 0.28429103 1.8256445 -3.2848551
000370 24 7a ff 3e 98 d8 be bf d7 8d b9 3f ee 5d 13 bf
       0.49897873 -1.4909849 1.4496411 -0.575652
000380 9d 83 27 bf b5 15 0e 40 57 8a 87 be 56 3f 88 bf
       -0.654352 2.220075 -0.26472732 -1.0644329
000390 74 4f f0 be 74 93 36 40 48 06 0b c0 d3 e1 46 40
       -0.46935618 2.8527498 -2.1722584 3.1075332
0003a0 de aa 21 3f 9b 72 56 40 a8 a8 c5 bf 5b 19 e2 3f
       0.6315135 3.350745 -1.5442095 1.7663988
0003b0 1b a7 20 c0 9e 07 88 c0 f3 a1 e2 3f 61 fb 26 bf
       -2.5101993 -4.25093 1.7705673 -0.65227324
0003c0 e2 a5 47 c0 d9 54 e5 bf 1e 1e e2 bf 47 0b 08 c0
       -3.1194997 -1.7916518 -1.7665441 -2.1256883
0003d0 ae ae 5e bf bd b0 c6 bf 42 0d 0e 40 36 db 0d c0
       -0.8698529 -1.5522686 2.2195592 -2.2165046
0003e0 7e b0 0d 40 94 2d 7c bf 88 70 b9 3e c6 01 0d c0
       2.2138972 -0.98507047 0.36218667 -2.2032332
0003f0 43 0c 4b bf 8e 60 83 3f e3 b1 28 c0 20 79 bf 3e
       -0.79315585 1.0263841 -2.6358573 0.373971
