model/global_model_8.pth (torch, 330938 bytes, 17 tensors)

conv1.lin_l.weight f4 [16, 1]
00000000: 712a 22bf efad 5ebc 46ac 31bf 91ff 26bf
00000010: e14e 00bf 792b 8d3e 110e 56bf 9fd2 1bbe
00000020: d7b5 22bf ca61 ae3d 385f 88be 55af 60bf
00000030: 4534 513d 3fa2 f8be a191 c63e 618f e8be
-0.6334601 -0.013591274 -0.69403493 -0.65233713 -0.5012036 0.2757223 -0.83615214 -0.15217064
-0.63558716 0.085147455 -0.26635146 -0.87767535 0.05107524 -0.48561284 0.3878298 -0.4542189

conv1.lin_l.bias f4 [16]
00000000: 07cb 1ebe 59bf 173f ef69 8abf 5ac6 be3e
00000010: 1b0d e33e 80af 91be b5bd 51bf ba0f c83e
00000020: ffcb 2a3f 2a27 32bf 8fe3 213f 01f3 70bf
00000030: 1f43 ff3e 507c 84be e103 cabe d053 d9bd
-0.15507136 0.5927635 -1.0813578 0.37260705 0.44345936 -0.28454208 -0.81930095 0.39074498
0.66717523 -0.6959101 0.6323785 -0.94120795 0.49855897 -0.25876093 -0.39456084 -0.10611689

conv1.lin_r.weight f4 [16, 1]
00000000: d1bd 7fbf a187 00bf 161c 3d3e b14b 5bbf
00000010: 116b a5be b7e8 163f 1a56 38bf c06f ec3d
00000020: 8fee f9be 4049 51bf 2b62 57bf 1bd1 db3d
00000030: 3f2c 44bf e6b7 4bbf e951 8abe 8034 65bd
-0.9989901 -0.50206953 0.18467745 -0.8566237 -0.32308248 0.58948845 -0.7200638 0.11544752
-0.48814818 -0.81752396 -0.8413417 0.10733243 -0.76630014 -0.7957748 -0.27015617 -0.05595827

conv2.lin_l.weight f4 [64, 16]
00000000: b199 acbd 5f13 0f3e 9fb9 b8bc a891 0f3e
00000010: 883a 0abd 8104 62bd f047 17be d02f c83d
00000020: 5f6a fc3d 2f9a 3e3d 27c1 06be 1745 0f3e
00000030: a95e 9d3d 892e 243e 9f3d c3be 512e 42be
00000040: 4796 173e c7e1 93be 41ad a43d f16e 2d3e
00000050: 2f3d 903d 31a4 493d 613d a1bd 38c6 86be
00000060: 75f1 563e efe9 88be e167 72be 97ce 9cbd
00000070: 8117 61be a061 1bbe 172b 99be af1f e4bd
00000080: 21e9 85bd 560c b7bd 5f51 253e e079 60bc
00000090: 4088 bc3b df83 debb a558 e23d c16c 143e
000000a0: 26f3 b63d ef7e cabd c0a1 23bc 4566 c23d
000000b0: c705 8abd 81d2 04be 2005 96be 60d2 48be
000000c0: af3e f83d afa2 6abe cf22 c9bd 5157 e83d
000000d0: bf00 e93d 0992 90be 802a 913c 775c 1ebe
000000e0: b0fc be3c 5aef b6be c180 223e 40de 86bc
000000f0: df2e aabe 5ace 3f3e c0a3 d53d 71b9 febd
00000100: 8f6e 433e 3522 de3d e61a 3abe e751 a83d
00000110: a0d9 53bc f02b 5ebe 5009 2f3e ffbf a6be
00000120: 6ff4 1f3e 51d1 72be 00bc 7e3e e16c 80bd
00000130: 91d3 1dbe c117 23be ef7a a3be 8148 39be
00000140: ea9d 48be 41f9 8ebd 3fc6 84be 418a f4bd
00000150: 41a0 753e f83b 13be b087 debd 0a5b 2bbd
00000160: c147 743e df99 72be bf38 1b3e effa c2be
00000170: d9c7 a9be f0ea e83c 3149 e6be 9036 00be
00000180: 2168 53be b94e a3bd c57a dabd c086 9e3b
00000190: 01f7 51be 1f7f 9dbe e183 22be c115 8cbe
000001a0: a0d8 1c3c 715a 1c3e 2142 4abe 1acf 2c3e
000001b0: 0148 363e 0f5b 7e3e bfe4 0abe f073 e03c
000001c0: 11b3 e33d 0fa7 51be 4fc7 e9bd ef91 c8bd
000001d0: 00b4 0e3e 8153 0cbe 2170 2bbe cf28 91be
000001e0: dfc2 e7bd 215c bcbc 6ff2 3cbe 97a4 84be
000001f0: a117 aebd c183 cbbd 4fa0 4dbe 810e 18be
00000200: d067 f0bc f0c5 303d c182 01be 5a91 c2bd
00000210: 7002 073e df2c 07be bf44 7bbe 1fe8 f23d
00000220: f1a2 d73d c592 543e 0100 c43d 002c d8bb
00000230: 4100 7f3d f1dc 523e a04a 09bc 2124 1cbe
00000240: 10a9 4abd fab3 37be 17f4 973d 7136 913d
00000250: 9a3a 4bbe a1f0 67be 6b0f 5ebe 7f1a e3bd
00000260: d0e0 033d 6b3c d33d bfe3 76be f93e 9dbe
00000270: 264c bd3d a16b 713e 5f8d ec3d 0082 153d
00000280: 70d5 83bd 7094 ccbc 9115 083e 016d 153e
00000290: e675 45bd bf1b 4dbe 7041 edbd 0624 313e
000002a0: 4117 00be 0f5f 823d 0545 cf3d 1053 fcbd
000002b0: 1a8b 2ebe bfe5 573e 1ad7 2f3e 50e2 29bd
000002c0: a1da 45be d1ce 31be 0024 eb3c 5064 fe3d
000002d0: 2138 5f3e 1f17 b73d 60fa 623c 69a8 23be
000002e0: b1a5 183e a7d5 9f3a 4fd7 72be 3bff c0bd
000002f0: b1bd 8bbd 30b4 8c3c b761 9ebe 86b5 4bbe
00000300: cfb7 48be 9f04 0bbe 4f9f 9bbc 0f93 ffbd
00000310: a578 573e db62 d3bd e09e 143d bf69 25be
00000320: 8f84 02be 0a1a afbd cfb3 063e 19b8 193d
00000330: ab15 d33d e5cb 563d c724 163e a058 c13c
00000340: 6161 7abd 5f18 02be 8166 fbbc 11af 243e
00000350: 51ac c33d 5722 8b3d a082 24be e158 b93c
00000360: cf5f 353e 57b5 063e f61e 32be 2f29 afbd
00000370: 66b7 b33c 90d7 11bd aa76 b73c f03c 893d
00000380: 1fcc 413e e76c a23d 8652 3a3e f080 fe3d
00000390: 10ec 58be 1931 0cbe d04a 603e 10fa 99bc
000003a0: b763 0cbe af7a 6d3e e0a8 e93c 110f 0cbe
000003b0: 1b1e 5fbe 4041 e3bb 2f33 8a3d 65da 54bd
000003c0: 71b6 143e c7cc 8b3e 21ac 0f3e d047 3b3e
000003d0: e179 f33d 5118 c33c 803a 82bc ff02 5e3c
000003e0: cf51 64be 5769 8b3c 01c4 ed3d a72f 9c3c
000003f0: ff80 0cbc e10d cc3d 353f 5a3d 00ff e53b
-0.08427752 0.13972233 -0.022549449 0.14020407 -0.033747226 -0.055180077 -0.14773536 0.097747445
0.12324976 0.04653376 -0.1315962 0.139912 0.076840706 0.16033377 -0.3813295 -0.18962981
0.1480342 -0.28883192 0.08040858 0.16936852 0.0704292 0.04922885 -0.07873035 -0.26323104
0.20990546 -0.26740977 -0.23672439 -0.076565914 -0.21981622 -0.1517396 -0.29915687 -0.11138856
-0.065386064 -0.089379 0.16144322 -0.013700932 0.005753547 -0.0067906226 0.11052064 0.14494611
0.08933096 -0.09887492 -0.009987295 0.094921626 -0.06739383 -0.12970926 -0.29300785 -0.19611502
0.12121331 -0.22913621 -0.09821092 0.11344779 0.113770954 -0.28236416 0.01772046 -0.1546496
0.02331385 -0.35729486 0.15869428 -0.016463399 -0.33238885 0.1873106 0.104316235 -0.12437714
0.19085144 0.10846368 -0.18174323 0.08218747 -0.012930304 -0.21696448 0.17093396 -0.32568356
0.15620588 -0.2371266 0.24876404 -0.06270767 -0.15412737 -0.1592703 -0.31929728 -0.18094064
-0.1959149 -0.06981135 -0.259325 -0.11940432 0.23986913 -0.14378345 -0.10865724 -0.04183487
0.23855497 -0.2369151 0.15158366 -0.38082072 -0.33160284 0.02843234 -0.44977716 -0.12520814
-0.20645191 -0.079739995 -0.10667948 0.004837841 -0.20504381 -0.30761048 -0.1587062 -0.27360347
0.009573132 0.15268876 -0.19751789 0.16875878 0.17800905 0.24839424 -0.13563822 0.027399033
0.111181386 -0.20473884 -0.11414968 -0.097934596 0.13935852 -0.13703729 -0.16741993 -0.28351447
-0.113164656 -0.02299315 -0.18451856 -0.25906822 -0.085006006 -0.099372394 -0.20080684 -0.14849283
-0.029346377 0.043157518 -0.12647535 -0.0950038 0.13184524 -0.1320071 -0.24537943 0.1186068
0.105291255 0.20759113 0.09570313 -0.006597042 0.0622561 0.20592095 -0.008379608 -0.15248157
-0.049477637 -0.1793975 0.07419603 0.07090462 -0.19846573 -0.22650386 -0.21685569 -0.11089038
0.03219682 0.10314258 -0.24110316 -0.30712107 0.0924304 0.23576213 0.11550402 0.03650093
-0.06437194 -0.024973124 0.13289477 0.14592363 -0.04820814 -0.20030116 -0.11584747 0.17298898
-0.1250887 0.06365787 0.10120586 -0.123205304 -0.1704525 0.21083735 0.17171898 -0.041475594
-0.19321682 -0.1736405 0.02870369 0.12421477 0.21798755 0.08939957 0.013853639 -0.15982212
0.14906956 0.0012194411 -0.23714946 -0.09423681 -0.0682329 0.017175764 -0.30933926 -0.19893464
-0.19601367 -0.13575982 -0.018996863 -0.12479221 0.21042116 -0.103215896 0.036284328 -0.1615362
-0.1274588 -0.085498884 0.13154529 0.037529085 0.10306867 0.052440543 0.14662467 0.02360183
-0.061128024 -0.1270461 -0.030688526 0.16082408 0.09554351 0.06793659 -0.16065454 0.022625389
0.1771233 0.13155113 -0.17394623 -0.08552777 0.021938037 -0.035605967 0.02239545 0.06701076
0.18925522 0.07930928 0.18195543 0.124269366 -0.211838 -0.13690604 0.21903539 -0.018795997
-0.13709913 0.23191331 0.028522909 -0.13677622 -0.21788828 -0.0069352686 0.06748044 -0.05196609
0.14522721 0.2730467 0.14030506 0.18289113 0.11888481 0.023815306 -0.015897036 0.013550519
-0.22296833 0.017018003 0.116096504 0.019065691 -0.008575677 0.09963585 0.053282935 0.0070189238

conv2.lin_l.bias f4 [64]
00000000: 99e6 96bd 5fee f7bd d925 a6be 7674 bbbe
00000010: 0fac ddbd 8f1b b2be 4f9f 2c3e ff1e 4d3d
00000020: e0d7 503d 6049 4ebe 9096 4f3d 214d 093d
00000030: 6fa0 013e 01fd a13c af9d 56be affb 75be
00000040: 6799 9ebd 3f83 6cbe a0e6 95be a777 9cbe
00000050: 919f 71be 5af2 ac3d c5cf cdbd 1fa6 62bd
00000060: 4a8a 2f3e 11b2 1dbe d057 023e 211d cabd
00000070: 7731 88be fa90 ad3d 6181 94be f5e3 e0be
00000080: bf55 5abe 2f69 493e 55ae dfbd e768 28be
00000090: 7f69 9bbe e93e 213e f081 303e 506e e43d
000000a0: a718 22bd 7b52 dbbd 78f1 07bc 6962 16be
000000b0: cf71 e3bd c5dc cfbc f01e 53be 80a5 c6be
000000c0: a7f0 a1be 8677 b5be 41ca 0f3d a5ff 56be
000000d0: b124 acbd 0077 a9bd 29d5 1c3e c6e9 b63d
000000e0: c169 b0be b1f5 403e 7ffe f9bd 9aa6 3abe
000000f0: cfa2 b93d 1181 9f3d 1f2b 1c3e 297f 953c
-0.07368202 -0.121060126 -0.3245075 -0.3661229 -0.10823833 -0.3478665 0.16857646 0.05007839
0.050987124 -0.20145178 0.050680697 0.03352082 0.12658857 0.019773962 -0.20958589 -0.24021791
-0.07744103 -0.23096941 -0.29277515 -0.30560037 -0.23596026 0.084446624 -0.100493945 -0.055334207
0.17142597 -0.15399958 0.1272881 -0.09868837 -0.2660024 0.08474918 -0.29004958 -0.43923917
-0.21321772 0.1966903 -0.10921923 -0.16446267 -0.30353925 0.15746655 0.17237067 0.11153853
-0.03957429 -0.10709091 -0.008297317 -0.14685978 -0.11105692 -0.025373826 -0.2061727 -0.3879814
-0.31628916 -0.35442752 0.035104994 -0.20995958 -0.08405436 -0.082746506 0.15315689 0.089313075
-0.34455684 0.18843724 -0.122067444 -0.18227616 0.090642564 0.07788289 0.15250824 0.018249111

conv2.lin_r.weight f4 [64, 16]
00000000: d0f6 22be 11fe c33d 0f00 97be a1ea a63d
00000010: 4f63 13be 5faf 833d 3713 263e 6a69 4cbe
00000020: 9fa4 06be 5733 003e c688 b7bd 8fa8 25be
00000030: 6f56 22be 5a15 35be 080b 0abe ffe1 043e
00000040: 40e2 0fbd 0177 85be 09be 90be a0dc 8a3c
00000050: 60c6 063e ffed 1abe c1fb 27be efc4 a33c
00000060: 9fc6 293e e542 d6bd 2600 c7bd a96a 183d
00000070: 8f6f 88be cf95 24be a7c1 8b3d f146 0d3e
00000080: 4114 e63d b1c7 273e 21e3 3f3e 9110 013e
00000090: 7113 203e f149 e3ba 4023 853d 21f9 79bd
000000a0: 915a 3c3e 901d c0bd c0f3 63be 6fe5 763e
000000b0: 51ab 603e 0a24 49be 9055 b7bd 9f9e 60be
000000c0: 60cf 403d 20c0 733d fbf8 cabd 7b2b 50bd
000000d0: 11f3 be3d 7116 dc3b 25b2 5a3e e130 9abe
000000e0: 507d 453e e122 73be 1f4a 96bd 45bf dd3d
000000f0: 5067 cebc e5ea 533d 8f61 0bbe 91e2 a3bd
00000100: 008f af3c 00cb 093d 416f 71be a63a 32bd
00000110: 11e0 ef3d bf1d d53d d994 0abe 6fbb fd3c
00000120: 80f7 653b 316f 293c 3882 893d 560f ad3d
00000130: f7e5 a53d 9fc6 71be 8164 35bd efe1 8a3d
00000140: aff8 09be df01 07bf e1a4 0ebe a66f 453d
00000150: b887 083d 7106 93be 100a 263e 0159 02bf
00000160: f8fb 1bbe 51b5 02bf 30e1 79be a6bb b9be
00000170: 4fa4 e0be 2185 03be 45de 43be 60b4 debd
00000180: a8b7 9cbd ef02 67be 3b8a d5bd b757 1d3e
00000190: df72 403e efdd ed3d 4842 96bd 271d 093e
000001a0: 07cf 21be bfce 16bd 3f93 573e 10ef 60be
000001b0: c56d d43d 00ca 2f3a 8bdc db3b ff54 6bbe
000001c0: 8158 6e3e 1104 90be b1ec 73be c110 c2bd
000001d0: 8088 7fbd 2bfe d43c 8501 5dbd 1707 0f3e
000001e0: bff2 72be 3fae f83d fa1d 4bbe 851a 5b3e
000001f0: bf14 7bbe c0f5 eb3c 5f8e 5dbd cf71 e1bd
00000200: 61d2 bd3d b138 613e 81b5 78bd 8f6b 37be
00000210: cf18 0bbe b0b7 e7bd f991 053e f058 4fbe
00000220: 3af4 3a3e a775 a33d 6841 9a3d 6f64 34be
00000230: affe e5bd c167 18be 051b da3d 3008 d83d
00000240: 5079 3e3e 6af7 42bb efed 6f3d d008 7f3d
00000250: 10a7 60bd b1a2 253d 2f15 34be f123 68be
00000260: 60ef 373d 603a 84bc 00d1 ca3c b0de f9bb
00000270: 1a75 40be 5ba0 cdbd 7118 f8bd a8b5 0fbd
00000280: 9f6b b4bd 8f2f 4a3e 6f75 193e 013d 70be
00000290: bf8c c03d e1ac 5cbe 30fd b23d cfa2 78be
000002a0: c8a2 0f3d cfc8 1abe c088 7c3e 7f15 61be
000002b0: c1d9 fcbd c15a 713e 9af7 46bd e114 7a3e
000002c0: a52f 60bd f122 0d3e 9140 79be e076 303d
000002d0: f01e 863d af09 80bd b122 febd ffc8 6dbe
000002e0: c5b2 e13d 114c afbd 3a83 303e 2ae4 373e
000002f0: 1f80 1a3e 202e 973d efc2 43be 4034 333e
00000300: 06c2 3cbe 216b 38bc 2a1d b7bd a01e 1b3e
00000310: 5fd1 1d3e bfe1 3bbe 67b9 243e e1bc be3d
00000320: efac a53d f152 f6bd 7f32 1fbe df85 6bbe
00000330: afc3 36be 4ff7 51be 4024 cc3c 4ff3 363e
00000340: 2b27 623e c060 0dbe bfb6 02be 9f54 613e
00000350: 30ea bc3c 1938 89bd c03c 003e 1f1b 43be
00000360: f137 31be 8f4c 11be 5ac8 c1bd 9936 8c3d
00000370: 6fa9 02be 6f19 7c3e 95a3 4ebe b088 11be
00000380: 6667 333e 419e 743e 7196 6ebe da35 47be
00000390: 47c5 00be 8153 c5bd 8067 5abe 250f d33d
000003a0: 5840 923d a0fe 9a3d d0c8 5a3d 11ef 683e
000003b0: 18c1 94bd 3698 33be 863d 433d 80c9 193e
000003c0: 5077 61be 0fae 91bd 0f78 19bb c121 653d
000003d0: e011 96bc 5f32 9cbd 80ce 653b 3541 573d
000003e0: 2068 0fbd 6f86 c8bd 25c1 e23d 918a 473d
000003f0: 7f76 4c3e a0d9 943d 4186 0bbe 307e b2bd
-0.15914464 0.09569944 -0.29492232 0.08150221 -0.14393352 0.06429934 0.16218267 -0.19962087
-0.13148735 0.12519585 -0.08961634 -0.16177581 -0.15853284 -0.17683926 -0.1348077 0.12976836
-0.03512788 -0.26067355 -0.28269985 0.016950905 0.13161612 -0.15129851 -0.1640463 0.019991366
0.16579674 -0.10461978 -0.09716825 0.037211094 -0.26647612 -0.16072772 0.06824046 0.13796593
0.11234332 0.1638477 0.18738987 0.12603976 0.15632416 -0.0017340762 0.06500864 -0.061028603
0.18393923 -0.093806386 -0.22260952 0.2411096 0.21940352 -0.19642654 -0.089518666 -0.21935509
0.04707277 0.059509397 -0.099107705 -0.050822716 0.09323705 0.0067165424 0.21357019 -0.30115417
0.19286084 -0.23743774 -0.07338356 0.108274974 -0.025195748 0.051737685 -0.13611434 -0.080021985
0.021430492 0.03364086 -0.23577596 -0.043512963 0.11712659 0.10406064 -0.13533343 0.030973164
0.0035090148 0.0103414515 0.067142904 0.08450191 0.08100503 -0.23610924 -0.0442853 0.06781375
-0.13473772 -0.5273723 -0.13930084 0.04820218 0.033332556 -0.28715852 0.16214776 -0.5091706
-0.15232837 -0.51057917 -0.24402308 -0.36275977 -0.43875358 -0.12843753 -0.19127758 -0.108742476
-0.07652217 -0.22559713 -0.10426756 0.15365492 0.1879382 0.11614596 -0.07336861 0.13390027
-0.15801631 -0.036818262 0.21052264 -0.21966195 0.103724994 0.00067058206 0.0067096404 -0.22981642
0.23275949 -0.28128102 -0.2382076 -0.09475852 -0.062386036 0.026000103 -0.053956527 0.13967548
-0.23725413 0.1214261 -0.19835654 0.21396835 -0.24519633 0.028803706 -0.054090854 -0.110080354
0.09268642 0.21994282 -0.06071997 -0.17912124 -0.13583682 -0.113143325 0.13043965 -0.2024877
0.18257228 0.07981425 0.075320065 -0.17616437 -0.11230218 -0.14883329 0.10649685 0.10548437
0.18600965 -0.002974952 0.05857652 0.062264264 -0.054846823 0.040438358 -0.17586206 -0.2266996
0.04490602 -0.016141117 0.024757862 -0.0076254234 -0.1879467 -0.10040351 -0.12114037 -0.03508535
-0.088095896 0.19744705 0.14986204 -0.23460771 0.09401845 -0.21550323 0.08739698 -0.24280857
0.03506735 -0.15115665 0.24661541 -0.21980856 -0.12346221 0.23569776 -0.048575975 0.24422027
-0.054732937 0.1378286 -0.24341036 0.043082118 0.065488696 -0.06251847 -0.124089606 -0.23221205
0.11020426 -0.085594304 0.17237559 0.17958131 0.15087937 0.073818445 -0.1911733 0.175004
-0.18433389 -0.01125601 -0.089411095 0.15148401 0.154119 -0.18347834 0.1608635 0.093133695
0.08089625 -0.120275386 -0.15546606 -0.23000287 -0.17848085 -0.20504497 0.02491963 0.17866252
0.22085254 -0.13806438 -0.12765025 0.22004937 0.023060888 -0.06700153 0.12523174 -0.19053315
-0.17306496 -0.14189361 -0.09462042 0.06846351 -0.12759946 0.24619077 -0.20179589 -0.14212298
0.17519912 0.23888494 -0.23299576 -0.19454136 -0.12575255 -0.09635068 -0.21328545 0.10305623
0.07141179 0.07568097 0.053414166 0.22747447 -0.07263392 -0.17538533 0.047666095 0.15018272
-0.2201817 -0.07113277 -0.0023417508 0.055940393 -0.01831907 -0.07626795 0.003506571 0.05255242
-0.03501141 -0.09791266 0.11071996 0.04871613 0.19967078 0.07268071 -0.13625433 -0.087154746

lstm_cell.weight_ih f4 [256, 192]
00000000: 7f5b 003e 30ff 3c3e b147 91bd 083e 993c
00000010: 8937 293d 0631 39be c1a8 3a3d b763 8b3d
00000020: 9b15 d4bd eff2 cebc a6f1 b33d 79f6 103e
00000030: ffc4 0b3e 1b82 493e 80dd b03b 2173 4fbe
00000040: b74f 1c3d 1107 2c3e 2f65 43bc 47fc 013e
00000050: c5b2 e03d 8127 273c 168a 2d3d 7fc2 713d
00000060: 20ad 12bd ff62 fc3d 41be ee3d 3aae 343e
00000070: b18c 3fbd a69e b8be ef97 443e b683 47bd
00000080: 3071 3cbc 2679 3a3e c63d 4abe 99d9 213e
00000090: 8194 863c b12d febd bfc3 263d 5830 0fbd
000000a0: cf93 0fbe 0034 ce3d bff1 c73d 482d 0b3e
000000b0: a6dd 4b3e a19c 35bc b71f a13d 50dc 3dbd
000000c0: 3a54 3aba 301e 51bc a001 28bd 8beb d83d
000000d0: 31be a93d 5771 1e3e 6a9c 463e 884d 14ba
000000e0: 4066 f03d 71a8 283e 61bc b0ba c115 5b3e
000000f0: 4fac 1b3e a05b ed3d cb82 5fbd a1a7 973d
00000100: a9a3 80bf 8f01 5740 cdf4 2940 c61a 3440
00000110: 5c9e 1640 82c3 b440 fbd6 e540 1f54 bdbd
00000120: f1e2 b440 3e8d f340 0db3 ef40 6582 d340
00000130: d01c cb40 edd1 d740 a1c5 0c41 34d7 f440
00000140: 9c15 fd40 da58 d940 febd ee40 780c ed40
00000150: 9d14 ed40 da02 ad3d 47f8 0541 5d4e aa40
00000160: 9b9a e540 020d e640 09ad df40 24f8 0041
00000170: a572 ea40 40e5 e43b 4639 443d a156 8f3d
00000180: d1d6 3abd 2ae4 abbd 5fe8 373d 71ef 093d
00000190: 9f9c c03d 011f 2a3d e139 d4bd 2049 963b
000001a0: 01d8 903d 60f6 fdbb 9fb2 efbd c1c3 e5bd
000001b0: 008f 6c3b 7066 02bd f014 6d3c c05b 55bd
000001c0: a08e 97bd bf85 053d e06b fbbc 00c3 933b
000001d0: e066 53bc 3f0c a6bd 0626 b1bd b183 f6bd
000001e0: effe c63d c05a 3c3c 86b9 b7bd ff54 e83d
000001f0: bf37 aebd 0f7a e6bd 411d 433d 08af 90bd
00000200: 41c6 febc aae3 fd3f 4ddc a53f 9e99 edbe
00000210: bb85 05bf d643 1940 ff74 d43d 4444 5440
00000220: 4cac d440 b4c8 b940 813a c4bd 3d90 eb40
00000230: 2d64 f740 4c9d f840 1196 d43d 050b 0641
00000240: a04a 1141 528d 0041 c925 f240 b43e e540
00000250: 3805 dc40 7c9c cc40 002c 1f3c 397d 0441
00000260: a510 ce40 e587 5e40 3159 6c3d 5ca4 de40
00000270: 0ca3 8140 3742 0941 0fa7 e23d b1d8 533d
00000280: 5b6a 613d e7ad a23d 1b3c d7bd daa5 4abd
00000290: cf38 b7bd 9a40 babd 702f 5ebc 2533 dfbd
000002a0: 8fca 493d df34 ea3d ff2f 913d bfee 24bd
000002b0: 113c 02bd 6575 593d bfe1 b63d d016 c4bd
000002c0: 49f8 a6bd 8fa3 3dbd 98f4 8ebd a6ba 2c3d
000002d0: e17b f8bd 5058 b93d 40fe 3ebb 7162 e33d
000002e0: f13b 243d 214e 83bd 008a 10bd 6624 acbd
000002f0: 5943 1e3d b1a7 a8bd 814e f23d 4f94 b63d
00000300: ffff 3e3d 9f85 203d 97bf 0d3f 817e cf3d
00000310: 6692 b23d 7988 12be 71e1 64bc 6f5b f93c
00000320: d07d 61bc 60dc e7bc 4167 fb3d 3542 db3b
00000330: 27cd 0dbd ff9c c63e 770d a8bd d1b5 173f
00000340: b95e 8b3c e1fe 563d 61c6 00bd 0197 f03d
00000350: 0abd 3d3e 0088 a33d 81df 4cbd 160f 333e
00000360: e0be 7e3d 6f3d 603d 30d5 0e3c 81c4 973e
00000370: 19f8 0bbc 2007 333f 19b0 143f 8914 293d
00000380: 3f52 883d fb1c 56bd e193 563f 5f7d 32bd
00000390: 9bda 47bd dba1 dd3d e014 d9bc b873 823c
000003a0: 10d4 2d3f e018 c73c ab67 443f 91a6 033e
000003b0: bf1b b33e 8912 063e 711d 493d a7e8 9f3d
000003c0: 3f43 adbd c8ab 143d cf9d b63e bf46 2bbe
000003d0: efef bfbd 890d 96bd a1df eb3d 31b1 d63c
000003e0: 87a7 9fbd 3964 0b3e c1e4 213e db78 613d
000003f0: bfd5 513d bf0e 62bd 1fe1 e5bc 7154 033d
0.12534903 0.18456721 -0.07093752 0.018706337 0.041312728 -0.18085107 0.045571093 0.068061285
-0.103556834 -0.025262324 0.08786325 0.14156522 0.13649367 0.19678538 0.0053974986 -0.20258762
0.03816196 0.1679957 -0.0119259795 0.12693892 0.109715976 0.01020229 0.042368017 0.059023377
-0.035809636 0.123235695 0.11657382 0.17644587 -0.046765033 -0.3605854 0.19198583 -0.048709594
-0.011501595 0.18210277 -0.19750127 0.15805663 0.016428234 -0.12411059 0.04071402 -0.034958214
-0.14021228 0.10068512 0.09762906 0.13591492 0.19908771 -0.0110847065 0.07867377 -0.046352684
-0.00071078876 -0.012763545 -0.041017175 0.10591801 0.08288229 0.15472923 0.19395605 -0.0005657305
0.11738253 0.16470505 -0.0013483876 0.21395017 0.1520245 0.11589742 -0.054568093 0.074050196
-1.0049945 3.3594701 2.6555665 2.8141341 2.3534155 5.6488657 7.1824927 -0.092445605
5.652703 7.6109915 7.490607 6.6096673 6.347267 6.7443757 8.798249 7.65127
7.908888 6.792096 7.4606924 7.407772 7.4087663 0.084478095 8.373115 5.322066
7.1751227 7.189088 6.9898725 8.060581 7.3264947 0.0069853365 0.047906183 0.06998945
-0.04561502 -0.08393128 0.04489934 0.033675615 0.09404873 0.041533474 -0.10362602 0.004586354
0.070724495 -0.0077503175 -0.11703991 -0.11218978 0.0036095977 -0.031835973 0.014470324 -0.052089453
-0.074002504 0.032598253 -0.030691087 0.00450933 -0.012902945 -0.081078045 -0.086498305 -0.12036837
0.097165935 0.011496246 -0.08970933 0.11344337 -0.085067265 -0.112537496 0.04763532 -0.070646346
-0.031100394 1.9835103 1.2957855 -0.46406263 -0.5215718 2.3947654 0.10373878 3.3166666
6.6460323 5.80575 -0.09581471 7.361357 7.7309785 7.7692013 0.103801854 8.37769
9.080719 8.034502 7.5671124 7.163904 6.875637 6.394102 0.00971508 8.280572
6.439532 3.4770443 0.057702247 6.9575634 4.051153 8.578666 0.1106702 0.051720325
0.05503307 0.079433255 -0.10509511 -0.049474575 -0.08946382 -0.09094353 -0.013561115 -0.10898427
0.04926544 0.114358656 0.07089233 -0.04026675 -0.031795565 0.05309047 0.089297764 -0.09574664
-0.081528254 -0.04629856 -0.06980246 0.04217019 -0.12133003 0.090500474 -0.0029143244 0.111027606
0.040096227 -0.06411386 -0.035287857 -0.0840538 0.038638446 -0.082351096 0.1183138 0.08915006
0.046630856 0.03918993 0.5537047 0.101315506 0.087193295 -0.14309873 -0.013969765 0.030439107
-0.013762906 -0.028303325 0.122755535 0.006691242 -0.034619477 0.38791654 -0.08205693 0.59261805
0.01701294 0.052489165 -0.03143919 0.11747552 0.18529144 0.07984924 -0.050017837 0.17486224
0.06219375 0.054746088 0.00871782 0.29642108 -0.008543038 0.69932747 0.58081204 0.04127935
0.06656312 -0.05227373 0.83819395 -0.043576594 -0.048792463 0.10821887 -0.026499212 0.01592432
0.67901707 0.024303854 0.76720685 0.12856509 0.34982106 0.13093008 0.049100343 0.07808047
-0.08460092 0.036296636 0.35667273 -0.16726206 -0.093719356 -0.073268004 0.11517263 0.026207538
-0.07795625 0.1361245 0.15809919 0.055046897 0.051229235 -0.055189844 -0.028061448 0.03206295

lstm_cell.weight_hh f4 [256, 64]
00000000: b6f0 043f 3b10 c43e c005 8c3f 62a3 85c0
00000010: fc61 ac3f 6a1f 35c0 0a96 17c0 2fb9 1e40
00000020: 9008 6140 b2f8 453f 85ab d23e ac42 9bbf
00000030: 0e4d 46bd d9ec babf 3777 eebf f01f 61be
00000040: 1205 54bf e55f 1a3f 8e4e 49c0 b2fd c0bf
00000050: 9777 37bc cbc0 2440 d7f1 1f40 aa5b 3fbf
00000060: 968b 063f 2aaf 2440 4ae9 1cc0 9875 663f
00000070: ed05 eabd 061e 3ac0 8ec0 f6bf fbbc 3a3d
00000080: ac32 953f 3c6f ffbf 4156 c0be 60b3 6a3f
00000090: 3eb4 1b40 24f3 b4bf 69bd 583e 04f7 0fc0
000000a0: 1b00 9a3f 075d 39bd bf83 31c0 6508 97bf
000000b0: 74f7 a1bf 30b3 eabf c3ab 0e3f f0ab ca3f
000000c0: 9012 fb3e 1551 0440 9c8b ffbf 92b0 2f3f
000000d0: 0cd2 b03f e8b0 cc3f 1325 17c0 3f2f 4340
000000e0: 944c a33f cf36 14c0 7999 763f 191a 7f3e
000000f0: 8408 3840 d947 a43f 3880 e93e 9b93 3940
00000100: 1895 f43e 12f9 f0be 8acb 013d df6a 9d3e
00000110: c0df 0cc0 0a8f 2ec0 9ceb 0b3f 9067 bb3e
00000120: 8951 05c0 0560 8ebf 803d 1abf 36f3 2abf
00000130: 1a8b 7ebf 5aa3 febe 4fee 6abe 721f 3240
00000140: 511f 05bf 4017 7abf f1ce 54bf 39c0 19c0
00000150: 98a9 37bf 84ad e63f a755 b83e b483 6c3f
00000160: 4daf 953f cde1 3bbe 4bf7 11c0 ea38 76c0
00000170: 7b15 55bf 1cda a6be 7c1b 0ac0 5361 7fbf
00000180: 4c27 423e 40e4 c53f 517b 69c0 fc6e 0740
00000190: c45b d03f 4a8f d7be a777 dabd b0df 3940
000001a0: e2a0 89bf 4038 53bf 08cf 9140 1e51 353f
000001b0: 58c3 c7bf c2c5 b3be 88b1 b9bf 18c8 56bf
000001c0: d92b 8040 fa41 02c0 7880 a03f 4b6c 0dc0
000001d0: f558 3e3e 734f 3cbe 8931 4fc0 5d38 0fbe
000001e0: 2bbb cbbd 79cc e8bf af02 e33f 2d7c 203f
000001f0: ba30 d03f c958 92bf 306f b43d 3c45 f9bf
00000200: 8606 2940 747d 853f 3bd8 dd3e ccbc d83e
00000210: fc34 8f40 ba4e a73e de7b 9c3e a70a fbbf
00000220: 3d4e 0640 e836 1ac0 d57a d73f cabf c73c
00000230: ef81 17be cf35 a8bf f0f4 fbbf 2632 26bf
00000240: c046 bf3f 8445 273f c0a8 fcbe ba51 fabf
00000250: bfb8 7240 47bb e53e eede ba3f 667a c63f
00000260: 3b42 2c3f 8cff b93f 9d07 d53f 4895 c2be
00000270: a246 02c0 2af7 2240 edb6 633f 66d3 8a3f
00000280: 4339 c53f 6802 babf c611 76bd b6a3 72bf
00000290: f152 e83f 0862 f63f 4224 953f 6efc 1f40
000002a0: 59d1 0ec0 38c9 04bf d6a2 18c0 4e5e 07bf
000002b0: cd00 e83f 676b 4ac0 8415 4b3f d525 8d3f
000002c0: 000b 2a3e 3477 8ac0 ed01 643f 570a 6d3f
000002d0: 020d 7cc0 7360 913f a425 543f 0220 923f
000002e0: 4364 de3f 58d8 813e 93c9 48bf 9568 7c3f
000002f0: d2aa 3b40 35dd 99bf fc0e d6be ef73 cdbf
00000300: e6cd cabf 47ea 7b3f 1c1e 8bbe b9d8 af3d
00000310: 0b9b 2dbf ee84 6a3e f305 75bf 52e8 edbf
00000320: 046c 4ac0 61ac db3f 9d2b d2bf d476 9dbf
00000330: b124 7e3f c0c4 44bf 8fac 583e 1e70 5fbe
00000340: 0179 663d d4cb fe3f 0346 f13f 57cd 4dbd
00000350: e725 88bf e1a8 1cbf f975 e13d 4f37 a13e
00000360: d542 3840 834f 65bd 10f7 223f eb1c 2940
00000370: e4c5 1e40 cf63 b93f 936b 5bbd 02dc 96c0
00000380: 5e1d e2bf 7243 64bf 6827 9c3f 448c d83e
00000390: 978c ae3f 51a2 96be 403b 2940 8e6b 413f
000003a0: cc13 16be 3353 3540 f729 3cc0 71bd 38c0
000003b0: 7422 0340 360b b3be b22a 3140 b114 543f
000003c0: 9122 2c40 4829 19bc 5ad0 06bf 2c16 e13e
000003d0: b0ca 8a3d e2e2 46bf 597c 7c3e 2fd4 16c0
000003e0: 384d a5be fc85 0340 dcd1 4ec0 77cb c9be
000003f0: f748 a2bf fb05 8abf 8cd7 ff3e 7e9b 22c0
0.51929796 0.38293633 1.0939255 -4.176194 1.3467402 -2.8300424 -2.3685327 2.4800527
3.5161476 0.77332604 0.41146484 -1.2129722 -0.04841333 -1.460353 -1.8630131 -0.2198484
-0.82820237 0.60302573 -3.1454196 -1.5077422 -0.011197946 2.5742671 2.4991357 -0.74749243
0.5255674 2.5731912 -2.4517388 0.90023184 -0.114269115 -2.9080825 -1.9277513 0.045590382
1.1656089 -1.9955821 -0.37565807 0.91679955 2.432876 -1.4136701 0.21166004 -2.2494516
1.2031282 -0.045254733 -2.7736661 -1.1799437 -1.2653642 -1.8335934 0.5573084 1.5833721
0.490376 2.0674489 -1.996448 0.686288 1.3814101 1.5991488 -2.3616378 3.0497587
1.2757745 -2.3158453 0.9632793 0.24912299 2.8755198 1.2834426 0.45605636 2.8996341
0.4777 -0.47065026 0.03168825 0.307456 -2.2011566 -2.7274804 0.54656386 0.3660245
-2.0831015 -1.1123053 -0.6025009 -0.6677736 -0.99431 -0.49734002 -0.2294247 2.7831693
-0.5200091 -0.97691727 -0.8312827 -2.4023573 -0.71743155 1.8021703 0.36002848 0.92388463
1.1694123 -0.18347855 -2.2807186 -3.8472238 -0.832359 -0.3258828 -2.1579275 -0.9975788
0.18960303 1.5460281 -3.6481516 2.116149 1.6278005 -0.42101508 -0.10667353 2.9042778
-1.0752223 -0.82507706 4.5565224 0.708269 -1.5606489 -0.35111815 -1.4507303 -0.8389907
4.0053525 -2.035277 1.2539206 -2.2097347 0.18588622 -0.18389682 -3.2373984 -0.13986345
-0.09947809 -1.81874 1.7735194 0.6268948 1.626487 -1.1433345 0.0881027 -1.9474254
2.6410232 1.042891 0.43329033 0.4233154 4.475218 0.3267725 0.30563253 -1.9612626
2.0985253 -2.4096012 1.683436 0.024383444 -0.1479566 -1.3141421 -1.9684124 -0.6492027
1.4943466 0.6534045 -0.49347496 -1.9556191 3.792526 0.44869444 1.4599283 1.5506103
0.6728856 1.4531112 1.6642948 -0.38004518 -2.035561 2.5463357 0.88951 1.0845764
1.54081 -1.4531984 -0.060075544 -0.94781053 1.8150312 1.9248667 1.165169 2.499782
-2.2315276 -0.51869535 -2.3849387 -0.5287827 1.8125244 -3.1628053 0.79329705 1.102717
0.16605759 -4.327051 0.8906544 0.925939 -3.938294 1.1357559 0.82869935 1.1416018
1.7374347 0.2536037 -0.7843258 0.9859708 2.932301 -1.2020632 -0.41808307 -1.6051005
-1.5844085 0.98404354 -0.2717141 0.085862584 -0.678147 0.22902271 -0.957122 -1.8586524
-3.1628428 1.7161981 -1.641956 -1.2301888 0.99274737 -0.76862717 0.21159576 -0.21820113
0.056267742 1.9905953 1.8849491 -0.050244655 -1.0636567 -0.6119519 0.110088296 0.3148751
2.879079 -0.05598403 0.6365824 2.64239 2.4808283 1.4483584 -0.053569388 -4.7143564
-1.7665212 -0.89165413 1.2199526 0.42294514 1.3636655 -0.29420713 2.6442413 0.7555474
-0.1465599 2.833203 -2.9400613 -2.8865626 2.0489779 -0.3496949 2.768231 0.8284407
2.6896098 -0.009348221 -0.5266167 0.43962228 0.06776941 -0.77689946 0.2465681 -2.3567007
-0.32285476 2.0550528 -3.2315588 -0.39413044 -1.2678517 -1.0783075 0.49969137 -2.5407405

lstm_cell.bias_ih f4 [256]
00000000: 4bc1 a0bf 69c1 dc3f b3bc 123f 734b 4d40
00000010: 2ba4 4240 9965 4f40 9c61 7f3f 0c44 2540
00000020: 9c11 2f3f 3b6d 2b3f d2af 4b40 2e82 0640
00000030: dfcf 73c0 f9ab 793d 9373 40c0 42e6 9b3d
00000040: 8c9d 3840 7c75 16c0 09c7 2fc0 2b11 553f
00000050: f77a bdbf fdf0 81c0 c51d cdbf 52af aa3e
00000060: ef7b de3f ef6b 89bf 901c 503f 690c 8f3f
00000070: e157 3abf 42fd 1e40 8321 1c40 8e08 853e
00000080: 9303 d73f 08ac ea3f e41b 0bbf 781f a1bf
00000090: 1ac4 31bf 1a1f b03f bab2 91be 4704 cb3f
000000a0: 6353 d73e b636 523f de3c 2f3f d839 b8bf
000000b0: b801 98c0 dbd3 d4bf 37b3 543f 3afb abbc
000000c0: 61e0 8bc0 44b2 09c0 e22c 39c0 5906 1c3f
000000d0: f673 1ec0 1d67 eabf 629f 01be ab69 fcbd
000000e0: 5185 0fc0 74f7 3dc0 e383 a03f df2d 323f
000000f0: cee9 673f 3917 4b40 f9ee 1340 90ae 38c0
00000100: 5e52 96bf 75df 19bf 9fe6 9ebe 6e23 643f
00000110: 6564 c9bf 774c 6b3e 9f26 753f 761a 14c0
00000120: d456 5a3f 8cf7 86bf b4e0 5ac0 6855 25c0
00000130: 18a8 4b3f fd77 323d ec80 ecbf 4f11 7e3e
00000140: 11fc 68bf 1f8e e03e b455 1cbf 2811 0940
00000150: b161 30c0 29a1 503f ac70 29c0 e5cc a7bf
00000160: 2f6e 3b3f e5f1 18bf d0e7 7c3e e81c cabe
00000170: 13e9 a8bf ea27 80bf db10 873e 5d5b 5abf
00000180: 6b3c 14bd 2c25 3cc0 ac13 55be 6b5a 56c0
00000190: 338c 2440 2725 65bf a564 e0be 5216 dbbf
000001a0: 8eee c1bf ff5c e93f 85c0 393f 92da 123f
000001b0: 0fae b4be 7e18 0cc0 5cf6 81bf 587f 5bbf
000001c0: cfb9 9ebf 0a77 7e3f 8df0 00bf 5fc7 0fc0
000001d0: ebaa 27c0 8767 693e 0572 f63e e4d9 d0bf
000001e0: 9a17 1740 81a1 a93f 6eb9 87c0 782e 0840
000001f0: 25e4 70be f8b6 03c0 8d72 363f 615b dcbe
00000200: 8b91 4140 a15d 92be d842 6ac0 4139 14c0
00000210: b17b c73f 2982 f8be b60d 103f e441 bdbf
00000220: 4620 1140 3f76 05c0 0dd7 7340 1854 2d3f
00000230: d1e9 3b3e 65cf 3840 7afd e23f be3a 1abf
00000240: 1fe0 1840 1a28 9140 e3a3 0bc0 bf39 8d3e
00000250: c056 80bf aa11 6a3e ac57 113f 85bf 463f
00000260: e5a7 093f 6016 07bf 2dff 0b3d f232 e5bf
00000270: 3de6 5a3f ddf6 433f 6cbf 1340 aac5 1b40
00000280: 66dd f83f 5771 bcbf 6e2f c1be f91e 0040
00000290: dbe5 e63f 985f 93be ff89 af3f 0811 9e3e
000002a0: 6f8e a1be 0fae db3f 08eb 01bf 0934 f13f
000002b0: 4765 3e3f f9f7 bb3b 4e37 5540 3f27 27c0
000002c0: d985 02c0 563e 883e 72f9 b53e 0076 2cbf
000002d0: 5fb2 8bbf 1d1d 33c0 66f1 b5bf c42e ecbf
000002e0: 36d2 cbbe 7ba4 a13f 626d 9bbf 9726 2dbd
000002f0: 3a4e e5bf 7d25 a5bf a96d 0140 19f1 253f
00000300: 9418 56be c8d9 86c0 12b0 1c3f 0545 a540
00000310: e4dd 45bf 704e 0dc0 cf47 cc3f 2f42 fb3f
00000320: 4463 9ebf f447 693f fc9f 04c0 1141 5840
00000330: 8afa 67bf 0217 da3f 918f 2cc0 f508 eabe
00000340: 7d33 19c0 234a 24bf a429 22c0 b040 a63d
00000350: 984e 8f3f 8534 7bbf a117 aa3f 0214 2f3f
00000360: 2472 37bf 176b 4d3e b2e1 ec3f 079e 4ec0
00000370: 224b de3e 5d20 bfbf b980 b33f 5565 f5be
00000380: 09d3 3abf 9450 0c40 f531 a8be c7ea 99bf
00000390: ebeb ebbe 31ab 3540 48ff 09c0 cecd 4440
000003a0: 743c 0f3f 4ea8 5240 2094 d2bf 33b8 e13f
000003b0: 5546 1ac0 f0ac 86c0 e4a8 e93f bcb1 49bf
000003c0: b078 4ac0 0bae e5bf 8f8f f2bf 1a7f 0ac0
000003d0: 92e6 47bf 3897 d5bf 98db 0d40 23ae 19c0
000003e0: 4ceb 1740 9dfb 86bf 39bc c53e 812c 10c0
000003f0: c861 39bf 184d 863f 8a82 1dc0 e71e aa3e
-1.2558988 1.7246524 0.5731918 3.20773 3.04127 3.240576 0.99758315 2.5822783
0.68386245 0.6696355 3.1826062 2.1016955 -3.8095624 0.06095502 -3.007054 0.076122776
2.884616 -2.3509207 -2.7465231 0.8322932 -1.4803151 -4.0606675 -1.602471 0.33336884
1.7381572 -1.0736064 0.8129358 1.1175662 -0.7279034 2.4842076 2.4395454 0.2598309
1.6797966 1.833375 -0.5433943 -1.2587729 -0.6943985 1.3759491 -0.2845667 1.586068
0.42055807 0.8211473 0.6845225 -1.4392653 -4.75021 -1.6627153 0.8308596 -0.020993818
-4.37114 -2.1515055 -2.8933644 0.60947186 -2.4758277 -1.8312718 -0.12658456 -0.12324842
-2.242512 -2.9682283 1.2540249 0.69601244 0.9059113 3.1732924 2.3114607 -2.8856544
-1.1743886 -0.60106593 -0.31035325 0.8911656 -1.5733763 0.22978388 0.95762056 -2.314115
0.8528874 -1.0544295 -3.4199648 -2.5833378 0.79553366 0.04357146 -1.8476844 0.2481129
-0.9100962 0.4385843 -0.6106827 2.1416721 -2.7559626 0.8149591 -2.647502 -1.3109404
0.73215 -0.597441 0.24697804 -0.3947518 -1.3196129 -1.0012181 0.26380047 -0.8529566
-0.03619043 -2.9397688 -0.20808285 -3.3492687 2.571057 -0.89509815 -0.43826786 -1.7116187
-1.5150926 1.8231505 0.72559386 0.5736476 -0.35289046 -2.188995 -1.0153308 -0.85741186
-1.2400454 0.9940039 -0.5036705 -2.2465436 -2.619807 0.22793399 0.48133865 -1.6316495
2.3608155 1.3252412 -4.2413855 2.1278362 -0.2352453 -2.0580425 0.7126854 -0.43038467
3.0245082 -0.28587058 -3.6603298 -2.3159945 1.5584623 -0.48536804 0.5627092 -1.4785733
2.2675948 -2.0853422 3.8100007 0.6770644 0.18350913 2.8876584 1.7733605 -0.60245883
2.3886793 4.536145 -2.1818779 0.2758312 -1.0026474 0.22858301 0.567744 0.77635986
0.5377181 -0.52768517 0.0341789 -1.7906172 0.85507566 0.7654856 2.3085585 2.4339395
1.9442565 -1.4722089 -0.37731498 2.0018904 1.8038896 -0.2878387 1.3713988 0.3087237
-0.3155398 1.7162493 -0.50749254 1.8844005 0.74373287 0.0057363478 3.3315005 -2.6117704
-2.0394194 0.2661006 0.35541874 -0.67367554 -1.091381 -2.798652 -1.4214294 -1.8451772
-0.39808816 1.262832 -1.2142756 -0.04227313 -1.7914498 -1.2902066 2.0223181 0.6482101
-0.20907813 -4.2140846 0.6120616 5.164675 -0.77291703 -2.2079124 1.5959414 1.9629573
-1.2374043 0.91125417 -2.0722647 3.3789713 -0.9061667 1.7038271 -2.6962626 -0.4570996
-2.3937676 -0.64175624 -2.5337915 0.08117807 1.119586 -0.98127013 1.3288461 0.68389904
-0.7165854 0.20060383 1.8506377 -3.2283952 0.43416697 -1.4931751 1.4023658 -0.47928873
-0.72978264 2.192418 -0.32850614 -1.2024773 -0.4607843 2.8385737 -2.1562061 3.0750613
0.5595162 3.2915225 -1.6451454 1.7634338 -2.4105427 -4.2086105 1.8254666 -0.78786826
-3.1636162 -1.7943739 -1.8950061 -2.1640077 -0.780862 -1.6686773 2.216528 -2.4012535
2.3737364 -1.0545536 0.38620165 -2.2527163 -0.7241483 1.0492277 -2.4610925 0.33226702

lstm_cell.bias_hh f4 [256]
00000000: 03e6 a4bf 69a8 ea3f c997 b43e e8d9 4840
00000010: cb41 4740 9917 5040 0c68 653f 1c89 2740
00000020: 1cb2 343f 6cad 253f 64ee 4b40 d09c 0e40
00000030: 3f26 7ec0 cc98 213e 93c2 36c0 6633 ed3d
00000040: 3f61 3840 fc5a 1fc0 29d4 2fc0 bb3b 353f
00000050: 97ad bebf b3a1 7ac0 ffcf d8bf be76 b53e
00000060: cfb2 d83f cf80 96bf 898a 853f d9e4 813f
00000070: aa7d 23bf 72da 1a40 0405 2640 df0b 863e
00000080: 1980 d93f 28c2 e73f 349c 21bf c846 97bf
00000090: 5a7b 48bf aa8c c73f 9497 80be 51ef d83f
000000a0: ebc4 553e 668b 663f 5e58 583f 1046 a9bf
000000b0: 88c5 99c0 bb0f d0bf 876a 583f ea64 943c
000000c0: 69f6 8bc0 6447 06c0 5de7 31c0 8986 253f
000000d0: 94cf 2ac0 bde0 eebf b261 9e3c cc9b 54be
000000e0: c116 0cc0 13c9 35c0 5b63 9a3f cf3c 133f
000000f0: 2e4f 593f decc 4840 ec2d 0b40 d9ee 33c0
00000100: ee1b 88bf ee7e e9be 77f2 8dbe 8ec8 763f
00000110: e5b8 c0bf c7bd 6b3e 7739 853f 8e54 17c0
00000120: b3d5 463f bc2f 99bf 444a 5fc0 b9c4 26c0
00000130: c17c 373f 375e 893e d174 d4bf e850 983e
00000140: 1fcc 8ebf 6fc4 b83e 4bc1 06bf aa69 0640
00000150: 61c9 2fc0 598f 303f 4ff9 2ac0 8e57 a8bf
00000160: 5f9e 393f 9563 03bf 757f 293e 4801 dabe
00000170: 5c0b a4bf d0e4 76bf 9e50 6f3e 1183 66bf
00000180: 44fe 8fbd 2cf1 3cc0 5314 83be 4b16 4ec0
00000190: 5306 2a40 9d93 80bf 4757 a1be 32c4 e9bf
000001a0: 3e1f abbf 0f06 f63f 14a1 643f 422e 203f
000001b0: 1327 92be de96 07c0 0c27 87bf 7869 5cbf
000001c0: b511 80bf 83d7 793f af93 a2be ef07 13c0
000001d0: ab19 21c0 07e8 4e3e 451f d83e f4dc d8bf
000001e0: 5a55 1240 712f b33f 8622 81c0 b045 0b40
000001f0: e598 6dbe d0b5 09c0 dd6e 133f df5d bdbe
00000200: cd71 3d40 4cb3 04bf 4ad6 69c0 a183 17c0
00000210: d149 b83f 59bc f1be 5479 e73e 0c8d bcbf
00000220: 26c3 0a40 bf2c 03c0 9111 7d40 6ab9 483f
00000230: 2b34 6f3e 657e 3940 5016 c93f 7818 2ebf
00000240: 48a9 2440 aaea 8d40 f8de 0fc0 2913 613e
00000250: f7f0 73bf 3a8c 483e 5825 0e3f f739 2a3f
00000260: 54ec 403f 7023 06bf 45d7 c03c c2ef e9bf
00000270: 47ea 523f ddcb 503f 171f 1940 3ae6 0f40
00000280: b6d6 ec3f 1ff6 a5bf 7ef9 adbe 465c 0340
00000290: fbbd da3f af9a 74be 3ebc 9f3f 9db2 6d3e
000002a0: 3faa 98be 3f92 d43f 883c 09bf 293c f33f
000002b0: a7de 483f aef8 743d aee1 5340 9ff9 22c0
000002c0: 9955 09c0 8058 2c3e 127c b23e f85e 20bf
000002d0: 2f66 a5bf 4da1 31c0 54b8 a2bf 747d f1bf
000002e0: 8d6d efbe 1b3e b53f 3761 9cbf b6d3 9dbd
000002f0: 40ec f7bf 1dae bcbf a339 e63f 5e63 1c3f
00000300: 2e60 21be 5c95 85c0 b284 1b3f cd60 aa40
00000310: 12ac 4cbf 4092 0dc0 d938 b63f 698a ef3f
00000320: e4f0 8fbf 7560 5b3f 5cae 03c0 d156 5040
00000330: 7016 80bf c22e d93f 3328 2cc0 46cf 25bf
00000340: 3dea 0cc0 237b 39bf 74c0 1bc0 109d b73d
00000350: 9036 a83f fe27 84bf fdd8 b03f 5ab3 323f
00000360: 14ec 47bf c1cd 8b3e 9261 ec3f 151f 52c0
00000370: 3c39 fc3e ccfb c2bf d59f ba3f 6d53 0dbf
00000380: 5a28 22bf 3c56 0f40 17d1 82be b7c0 85bf
00000390: 4bab f3be b14f 3640 6c83 0ac0 ee26 4840
000003a0: ec92 1d3f faee 5440 803d c1bf d3c2 e23f
000003b0: 85c4 23c0 50e8 87c0 b4ef e63f 6375 28bf
000003c0: 4457 47c0 2bb7 eabf b15e e3bf 25ca 06c0
000003d0: eb3e 5bbf d7ea c4bf 783b 0e40 6b05 0ec0
000003e0: 3cea 0d40 f79a 76bf 91d7 bc3e 2ac8 0cc0
000003f0: 48ca 44bf b8a7 843f e21f 2ac0 9b47 bb3e
-1.2882694 1.8332645 0.35272053 3.1383 3.1133907 3.2514403 0.8961189 2.6177435
0.70584273 0.64717746 3.1864252 2.228321 -3.9710844 0.15780944 -2.8556259 0.11582069
2.8809354 -2.4899282 -2.7473242 0.70794266 -1.4896725 -3.9161193 -1.6938475 0.35442156
1.6929568 -1.1758059 1.0432903 1.0147964 -0.63863623 2.4195828 2.5940561 0.26180932
1.6992217 1.8106127 -0.6312897 -1.1818476 -0.7831322 1.5589802 -0.25115645 1.6948034
0.208759 0.90056455 0.8450984 -1.3224506 -4.8053627 -1.62548 0.8453755 0.018114526
-4.3738294 -2.0981073 -2.7797463 0.6465841 -2.6689196 -1.8662335 0.019333694 -0.20762557
-2.1888888 -2.8403976 1.2061571 0.5751466 0.84886444 3.137504 2.1746778 -2.811453
-1.0633523 -0.45604652 -0.27724048 0.9639977 -1.5056425 0.23021613 1.0408162 -2.3645358
0.7766983 -1.1967692 -3.4889078 -2.605757 0.71674734 0.26829693 -1.659815 0.29749227
-1.1156043 0.36087367 -0.5263869 2.1001992 -2.7466662 0.6896873 -2.6714666 -1.315172
0.7250728 -0.51323825 0.16552527 -0.42579103 -1.2815967 -0.9644289 0.23370597 -0.9004374
-0.07030919 -2.95222 -0.25601444 -3.2201107 2.656636 -1.0045048 -0.315119 -1.8262999
-1.3368909 1.9220599 0.89308286 0.62570584 -0.28545436 -2.1185832 -1.0558791 -0.8609843
-1.0005404 0.9759447 -0.317533 -2.2973592 -2.5171916 0.20205699 0.42211357 -1.694243
2.2864594 1.3998853 -4.0354643 2.1761284 -0.23202856 -2.151722 0.5759104 -0.3698568
2.9600708 -0.51836085 -3.6537042 -2.367409 1.4397527 -0.4721401 0.45209754 -1.4730544
2.168161 -2.049606 3.9541972 0.7840792 0.23359744 2.8983395 1.5709934 -0.68006086
2.572832 4.4348955 -2.247984 0.21979965 -0.9528956 0.19584742 0.5552573 0.664947
0.7536061 -0.52397823 0.023540149 -1.8276293 0.8238873 0.8156107 2.3925226 2.248427
1.8503025 -1.2965735 -0.3397941 2.052507 1.7089227 -0.23887132 1.2479322 0.23212667
-0.29817387 1.6607131 -0.5360799 1.9002734 0.7846474 0.059807472 3.3106494 -2.5464857
-2.1458495 0.16830635 0.34860283 -0.6264491 -1.2921809 -2.77547 -1.2712502 -1.886641
-0.46763268 1.4159578 -1.2217168 -0.07706396 -1.9368973 -1.4740635 1.7986339 0.6108912
-0.15759346 -4.1744823 0.6074935 5.3243165 -0.7995006 -2.2120514 1.4236099 1.8714114
-1.1245389 0.85694057 -2.057517 3.2552989 -1.0006847 1.6967394 -2.6899536 -0.647694
-2.2017968 -0.72453517 -2.4336214 0.08965504 1.3141651 -1.0324705 1.381622 0.6980492
-0.780946 0.27305415 1.8467276 -3.283147 0.49262416 -1.5233092 1.4580027 -0.5520542
-0.6334282 2.2396383 -0.25550148 -1.0449437 -0.47591624 2.848614 -2.1642714 3.127376
0.6155231 3.327086 -1.5096893 1.7715706 -2.5588696 -4.2471085 1.8041902 -0.6580412
-3.1147013 -1.8337148 -1.7763273 -2.106088 -0.8564288 -1.5384167 2.2223797 -2.2190807
2.2174215 -0.9633021 0.36883214 -2.199717 -0.76871157 1.0363684 -2.658196 0.36578068

linear0.weight f4 [32, 384]
00000000: 01f9 51bd f6cb b43c 59ee a9bd ba2f c5bc
00000010: 8f9e 9a3d 610f 9c3d 9ad8 c3bd ffc1 5d3d
00000020: 01a2 803d 101e b33d d161 39bd 2108 3a3d
00000030: b1e3 473d a676 2b3d 25f9 d1bd c524 d5bd
00000040: 5f35 143d dfda 66bd 40aa 20bd c170 b13c
00000050: 79ef 17bc effe f8bc 4b62 debc 6616 c4bd
00000060: 6b74 cdbd df33 9abd 4af8 b2bc 51bf 423d
00000070: ff38 cb3d d1d1 9ebc 7fac d0bd eb72 bc3d
00000080: 36d7 aebd fb65 cf3c 51a1 e13c 304a 193d
00000090: 617d c2bd efe9 41bd d6bd b4bc 610d cfbd
000000a0: 3921 873d 4573 e33d 9fd8 9a3d b194 48bc
000000b0: e1c7 66bd b7b9 833d 2590 e2bc 79fe 273c
000000c0: 853b c03d e765 04bd 4a9e 3f3d fa2f 3cbd
000000d0: a04d 893c eb03 d7bd 4072 9d3c bf4b d6bc
000000e0: 0f17 64bd dfd4 d83d c121 f13c c5f7 593d
000000f0: d717 0ebd 39b9 9c3d 3bb7 62bd 7189 fe3c
00000100: 0801 0abd 0154 773d 1f6c 91bd 87a7 13bd
00000110: 6182 803d 6648 483d 21c6 cbbd df3f a53d
00000120: 8f42 453d 7f70 a23d 0126 3bbd a1ac 9e3d
00000130: 912a bf3d 053a d93d 9a28 c1bd 775c a9bd
00000140: 2fdd 003d 1980 a0bd 4b3a cfbd 5ff8 813c
00000150: e131 b6bd f60f 34bc 115e 7dbd 9953 96bd
00000160: 6f22 c9bd f714 a6bd ff4e aebd 45ab c43d
00000170: dfc0 df3d a12e 83bd 99b7 a6bd 8f44 c03d
00000180: d761 92bd e1e3 973d eff5 723d c14c a03c
00000190: 7fda 18bd f5b1 d7bd 7f49 6abc 298c 11bd
000001a0: 201d c13d bff2 703c 6b76 623c dfbe 9bbd
000001b0: 594a 95bd 01e9 e03d 3fbc 50bd 81e4 e13d
000001c0: c149 883d cfc2 f8bc 3adb b33d 3a5e afbd
000001d0: a11a a53d 18b3 87bd 41c3 253d 9f60 49bc
000001e0: 65e4 d8bd ca70 c03d 61d9 783d e142 9c3d
000001f0: 2a60 c1bd cf76 133d 5f48 8ebd e00f aa3d
00000200: 21d9 73bc 3981 16bd b1c3 24bd 25c6 d1bc
00000210: 36fe c5bc 5655 cbbd 5622 b2bd eb06 debd
00000220: 00fb 3c3d 9610 b7bc ffdc d5bc 5982 23bd
00000230: e520 debd 2132 6cbd d0e0 e83b 2fbc d8bd
00000240: 171c 8cbc abbf 5dbc 3f7c 71bd 3a26 40bd
00000250: b812 09bd ffd0 4dbd 2b73 c6bd a6ff 33bd
00000260: 2189 70bc 3fa4 ddbd 01c5 203d 0751 a1bd
00000270: a13b 97bd 2967 a5bd f747 8ebd 3901 a8bd
00000280: f855 09bc 7f3f 9dbd 2902 80bc c907 93bc
00000290: 51d1 cebc e1d5 43bd ff3e 3bbc e7e4 21bd
000002a0: 4765 8ebd 8722 163d efd5 c6bd 590b a1bd
000002b0: df7f 32bd 4b0a ddbd 716b f7bc e1af e5bc
000002c0: 30a4 96bc b128 003d 27f1 80bd 3ad1 c8bc
000002d0: f0cb eb3b 2f02 03bd 89f7 92bd 76f2 49bd
000002e0: e556 5dbc 0082 7abd c128 83bd a70a a9bc
000002f0: 3133 9abd 8504 c3bd 1923 a8bd 0bd2 d1bd
00000300: f137 34bd 17a2 0e3d 684d 923c 4f3c c9bc
00000310: 71a4 d73c a88e 93bc df54 1bbd b1bc 4bbc
00000320: 00e5 4cbc 9f02 6abc 2087 7abb 8859 023d
00000330: 0023 2039 5acf 483d afc6 f3bc bf82 643c
00000340: 60e7 35bc c00b 68bc af39 e23c 9654 473d
00000350: baba afbc 81df 2e3c e7c4 9f3b 61f0 7fbc
00000360: fbbc d43c 8579 503c 403f 563b 4f24 e2bc
00000370: 5fe5 81bc 57b3 20bd 71db 3fbd 77b0 1f3d
00000380: f0da e1bb c0fa fb3c 1848 0a3d 9178 0c3d
00000390: ffc3 73bc afce 013d fb8b ccbc 8fce aa3c
000003a0: 31ed 4b3d 0f80 1b3d 9992 29bc d1e5 4ebd
000003b0: dfe8 1dbd 002f 3439 6fa7 443d f075 713c
000003c0: 1161 42bd 4a07 363d e53c d7bb 807a 3dbd
000003d0: df50 003d 1f42 373d f7d9 0cbd a8ac 033d
000003e0: 8625 3d3d cfab 423d 5fc1 483d bb5a 4fbc
000003f0: 9f32 aa3c 30bc 1f3d 07e2 8abc 0063 7fbb
-0.05126286 0.022069912 -0.08297414 -0.02407061 0.07549774 0.07620121 -0.09562798 0.054140087
0.062809 0.08745968 -0.0452593 0.04541791 0.048801128 0.0418612 -0.10252599 -0.10407404
0.03618371 -0.056361075 -0.039224863 0.02166021 -0.009273403 -0.030395 -0.02714648 -0.09574585
-0.100319706 -0.07529425 -0.02184691 0.047545735 0.099229805 -0.019387158 -0.10189151 0.09201606
-0.08537142 0.025317183 0.027542742 0.037424266 -0.094965704 -0.047342237 -0.022063177 -0.10109974
0.065981336 0.1110597 0.075608484 -0.012242482 -0.056342963 0.06431907 -0.027656624 0.010253542
0.093863524 -0.032323744 0.046781816 -0.04594419 0.016760647 -0.10498794 0.019219518 -0.026159165
-0.055686053 0.10587477 0.02943504 0.053214807 -0.034690704 0.07652516 -0.055350523 0.031071397
-0.03369239 0.060382847 -0.071007006 -0.03604844 0.06274868 0.04889717 -0.099498995 0.08068823
0.04815918 0.07931613 -0.04569054 0.0774777 0.09334291 0.106067695 -0.09431572 -0.082695894
0.031460937 -0.07836933 -0.101185404 0.015865503 -0.088962324 -0.0109901335 -0.061857287 -0.07340164
-0.09821021 -0.081094675 -0.08511161 0.096029796 0.10925459 -0.06405378 -0.08140487 0.093880765
-0.07147568 0.07416511 0.05931657 0.01956785 -0.03731775 -0.105319895 -0.014299749 -0.035534058
0.09429383 0.014706313 0.013822178 -0.07604765 -0.07289571 0.10981942 -0.050960775 0.11029912
0.066546924 -0.03036633 0.087820485 -0.08562894 0.0806172 -0.06625956 0.04046941 -0.012291103
-0.10590438 0.09396513 0.060754184 0.07629944 -0.0944217 0.036001977 -0.069473974 0.08303809
-0.0148833105 -0.03674433 -0.04022569 -0.025607178 -0.024169069 -0.09928386 -0.08697955 -0.10841163
0.04613781 -0.022346776 -0.026106356 -0.03991923 -0.10846118 -0.057664994 0.007106878 -0.10582768
-0.017103238 -0.013534467 -0.05895638 -0.046911456 -0.033465117 -0.050248142 -0.09689935 -0.043944977
-0.014681132 -0.10822343 0.039250378 -0.07876783 -0.0738442 -0.08076317 -0.0694732 -0.08203358
-0.008382313 -0.076781265 -0.01562603 -0.017948048 -0.025246294 -0.047811393 -0.011428594 -0.03952494
-0.06952911 0.03665402 -0.09708773 -0.078634925 -0.04357898 -0.10792979 -0.0302026 -0.028037967
-0.018388838 0.031288806 -0.06295996 -0.02451383 0.007195942 -0.031984504 -0.0717612 -0.049303494
-0.013509487 -0.061159134 -0.064042576 -0.020634962 -0.07529295 -0.095223464 -0.08209819 -0.10245141
-0.043998662 0.03482255 0.017859176 -0.02456489 0.026323529 -0.01801236 -0.037922736 -0.012435124
-0.01250577 -0.0142828515 -0.0038227513 0.031823665 0.00015271828 0.04902587 -0.029757826 0.013947188
-0.011102527 -0.014162958 0.027615396 0.04866465 -0.021451343 0.010673405 0.0048757675 -0.015621276
0.02596902 0.012724285 0.0032691509 -0.027605204 -0.015856443 -0.03923353 -0.046840135 0.03898665
-0.0068925545 0.030759215 0.03376016 0.03429467 -0.014878272 0.03169125 -0.024969092 0.020850448
0.04978675 0.037963923 -0.010349893 -0.05051214 -0.03855216 0.00017183647 0.04801124 0.014737591
-0.04745585 0.044440545 -0.0065685385 -0.046259403 0.031327125 0.044740792 -0.034387555 0.03214708
0.046178363 0.04752713 0.049012538 -0.012655909 0.020776091 0.03899783 -0.016953481 -0.003896892

linear0.bias f4 [32]
00000000: bf5d d8bd 80cd 80be eff1 73bc 81e5 8ebe
00000010: 2f78 43bd 254b dcbd 36e6 b8bc 901b 983e
00000020: 4f88 23be 5a00 bbbd 11df e6be b745 84be
00000030: 1fce 8cbe d094 cebe 49c6 80bd 4f06 64be
00000040: d12d 90be e182 a0bc 866b 4bbe c02e b8bd
00000050: 27b0 9ebd 665c 32bc c094 18bd a923 703d
00000060: ef98 c1bd 5fdc 21be 481c 89bb 8f5f 5fbd
00000070: 3f7b 7cbd 3af7 abbd cf20 79be 0fde 79be
-0.10564756 -0.25156784 -0.014889224 -0.27909473 -0.047722038 -0.1075652 -0.02257071 0.2970853
-0.15969966 -0.091309264 -0.4509206 -0.25834438 -0.27501008 -0.4034791 -0.0628782 -0.22268032
-0.28159955 -0.019593658 -0.19865236 -0.08993292 -0.07748442 -0.010886287 -0.037251234 0.05862776
-0.09452998 -0.15806721 -0.0041842796 -0.05453449 -0.061640974 -0.08396764 -0.24328922 -0.24401115
