model/global_model_1.pth (torch, 330938 bytes, 17 tensors)

conv1.lin_l.weight f4 [16, 1]
0	0xbf222a71	-0.6334601
1	0xbc5eadef	-0.013591274
2	0xbf31ac46	-0.69403493
3	0xbf26ff91	-0.65233713
4	0xbf004ee1	-0.5012036
5	0x3e8d2b79	0.2757223
6	0xbf560e11	-0.83615214
7	0xbe1bd29f	-0.15217064
8	0xbf22b5d7	-0.63558716
9	0x3dae61ca	0.085147455
10	0xbe885f38	-0.26635146
11	0xbf60af55	-0.87767535
12	0x3d513445	0.05107524
13	0xbef8a23f	-0.48561284
14	0x3ec691a1	0.3878298
15	0xbee88f61	-0.4542189

conv1.lin_l.bias f4 [16]
0	0xbe1ecb07	-0.15507136
1	0x3f17bf59	0.5927635
2	0xbf8a69ef	-1.0813578
3	0x3ebec65a	0.37260705
4	0x3ee30d1b	0.44345936
5	0xbe91af80	-0.28454208
6	0xbf51bdb5	-0.81930095
7	0x3ec80fba	0.39074498
8	0x3f2acbff	0.66717523
9	0xbf32272a	-0.6959101
10	0x3f21e38f	0.6323785
11	0xbf70f301	-0.94120795
12	0x3eff431f	0.49855897
13	0xbe847c50	-0.25876093
14	0xbeca03e1	-0.39456084
15	0xbdd953d0	-0.10611689

conv1.lin_r.weight f4 [16, 1]
0	0xbf7fbdd1	-0.9989901
1	0xbf0087a1	-0.50206953
2	0x3e3d1c16	0.18467745
3	0xbf5b4bb1	-0.8566237
4	0xbea56b11	-0.32308248
5	0x3f16e8b7	0.58948845
6	0xbf38561a	-0.7200638
7	0x3dec6fc0	0.11544752
8	0xbef9ee8f	-0.48814818
9	0xbf514940	-0.81752396
10	0xbf57622b	-0.8413417
11	0x3ddbd11b	0.10733243
12	0xbf442c3f	-0.76630014
13	0xbf4bb7e6	-0.7957748
14	0xbe8a51e9	-0.27015617
15	0xbd653480	-0.05595827

conv2.lin_l.weight f4 [64, 16]
0	0xbdac99b1	-0.08427752
1	0x3e0f135f	0.13972233
2	0xbcb8b99f	-0.022549449
3	0x3e0f91a8	0.14020407
4	0xbd0a3a88	-0.033747226
5	0xbd620481	-0.055180077
6	0xbe1747f0	-0.14773536
7	0x3dc82fd0	0.097747445
8	0x3dfc6a5f	0.12324976
9	0x3d3e9a2f	0.04653376
10	0xbe06c127	-0.1315962
11	0x3e0f4517	0.139912
12	0x3d9d5ea9	0.076840706
13	0x3e242e89	0.16033377
14	0xbec33d9f	-0.3813295
15	0xbe422e51	-0.18962981
16	0x3e179647	0.1480342
17	0xbe93e1c7	-0.28883192
18	0x3da4ad41	0.08040858
19	0x3e2d6ef1	0.16936852
20	0x3d903d2f	0.0704292
21	0x3d49a431	0.04922885
22	0xbda13d61	-0.07873035
23	0xbe86c638	-0.26323104
24	0x3e56f175	0.20990546
25	0xbe88e9ef	-0.26740977
26	0xbe7267e1	-0.23672439
27	0xbd9cce97	-0.076565914
28	0xbe611781	-0.21981622
29	0xbe1b61a0	-0.1517396
30	0xbe992b17	-0.29915687
31	0xbde41faf	-0.11138856
32	0xbd85e921	-0.065386064
33	0xbdb70c56	-0.089379
34	0x3e25515f	0.16144322
35	0xbc6079e0	-0.013700932
36	0x3bbc8840	0.005753547
37	0xbbde83df	-0.0067906226
38	0x3de258a5	0.11052064
39	0x3e146cc1	0.14494611
40	0x3db6f326	0.08933096
41	0xbdca7eef	-0.09887492
42	0xbc23a1c0	-0.009987295
43	0x3dc26645	0.094921626
44	0xbd8a05c7	-0.06739383
45	0xbe04d281	-0.12970926
46	0xbe960520	-0.29300785
47	0xbe48d260	-0.19611502
48	0x3df83eaf	0.12121331
49	0xbe6aa2af	-0.22913621
50	0xbdc922cf	-0.09821092
51	0x3de85751	0.11344779
52	0x3de900bf	0.113770954
53	0xbe909209	-0.28236416
54	0x3c912a80	0.01772046
55	0xbe1e5c77	-0.1546496
56	0x3cbefcb0	0.02331385
57	0xbeb6ef5a	-0.35729486
58	0x3e2280c1	0.15869428
59	0xbc86de40	-0.016463399
60	0xbeaa2edf	-0.33238885
61	0x3e3fce5a	0.1873106
62	0x3dd5a3c0	0.104316235
63	0xbdfeb971	-0.12437714
64	0x3e436e8f	0.19085144
65	0x3dde2235	0.10846368
66	0xbe3a1ae6	-0.18174323
67	0x3da851e7	0.08218747
68	0xbc53d9a0	-0.012930304
69	0xbe5e2bf0	-0.21696448
70	0x3e2f0950	0.17093396
71	0xbea6bfff	-0.32568356
72	0x3e1ff46f	0.15620588
73	0xbe72d151	-0.2371266
74	0x3e7ebc00	0.24876404
75	0xbd806ce1	-0.06270767
76	0xbe1dd391	-0.15412737
77	0xbe2317c1	-0.1592703
78	0xbea37aef	-0.31929728
79	0xbe394881	-0.18094064
80	0xbe489dea	-0.1959149
81	0xbd8ef941	-0.06981135
82	0xbe84c63f	-0.259325
83	0xbdf48a41	-0.11940432
84	0x3e75a041	0.23986913
85	0xbe133bf8	-0.14378345
86	0xbdde87b0	-0.10865724
87	0xbd2b5b0a	-0.04183487
88	0x3e7447c1	0.23855497
89	0xbe7299df	-0.2369151
90	0x3e1b38bf	0.15158366
91	0xbec2faef	-0.38082072
92	0xbea9c7d9	-0.33160284
93	0x3ce8eaf0	0.02843234
94	0xbee64931	-0.44977716
95	0xbe003690	-0.12520814
96	0xbe536821	-0.20645191
97	0xbda34eb9	-0.079739995
98	0xbdda7ac5	-0.10667948
99	0x3b9e86c0	0.004837841
100	0xbe51f701	-0.20504381
101	0xbe9d7f1f	-0.30761048
102	0xbe2283e1	-0.1587062
103	0xbe8c15c1	-0.27360347
104	0x3c1cd8a0	0.009573132
105	0x3e1c5a71	0.15268876
106	0xbe4a4221	-0.19751789
107	0x3e2ccf1a	0.16875878
108	0x3e364801	0.17800905
109	0x3e7e5b0f	0.24839424
110	0xbe0ae4bf	-0.13563822
111	0x3ce073f0	0.027399033
112	0x3de3b311	0.111181386
113	0xbe51a70f	-0.20473884
114	0xbde9c74f	-0.11414968
115	0xbdc891ef	-0.097934596
116	0x3e0eb400	0.13935852
117	0xbe0c5381	-0.13703729
118	0xbe2b7021	-0.16741993
119	0xbe9128cf	-0.28351447
120	0xbde7c2df	-0.113164656
121	0xbcbc5c21	-0.02299315
122	0xbe3cf26f	-0.18451856
123	0xbe84a497	-0.25906822
124	0xbdae17a1	-0.085006006
125	0xbdcb83c1	-0.099372394
126	0xbe4da04f	-0.20080684
127	0xbe180e81	-0.14849283
128	0xbcf067d0	-0.029346377
129	0x3d30c5f0	0.043157518
130	0xbe0182c1	-0.12647535
131	0xbdc2915a	-0.0950038
132	0x3e070270	0.13184524
133	0xbe072cdf	-0.1320071
134	0xbe7b44bf	-0.24537943
135	0x3df2e81f	0.1186068
136	0x3dd7a2f1	0.105291255
137	0x3e5492c5	0.20759113
138	0x3dc40001	0.09570313
139	0xbbd82c00	-0.006597042
140	0x3d7f0041	0.0622561
141	0x3e52dcf1	0.20592095
142	0xbc094aa0	-0.008379608
143	0xbe1c2421	-0.15248157
144	0xbd4aa910	-0.049477637
145	0xbe37b3fa	-0.1793975
146	0x3d97f417	0.07419603
147	0x3d913671	0.07090462
148	0xbe4b3a9a	-0.19846573
149	0xbe67f0a1	-0.22650386
150	0xbe5e0f6b	-0.21685569
151	0xbde31a7f	-0.11089038
152	0x3d03e0d0	0.03219682
153	0x3dd33c6b	0.10314258
154	0xbe76e3bf	-0.24110316
155	0xbe9d3ef9	-0.30712107
156	0x3dbd4c26	0.0924304
157	0x3e716ba1	0.23576213
158	0x3dec8d5f	0.11550402
159	0x3d158200	0.03650093
160	0xbd83d570	-0.06437194
161	0xbccc9470	-0.024973124
162	0x3e081591	0.13289477
163	0x3e156d01	0.14592363
164	0xbd4575e6	-0.04820814
165	0xbe4d1bbf	-0.20030116
166	0xbded4170	-0.11584747
167	0x3e312406	0.17298898
168	0xbe001741	-0.1250887
169	0x3d825f0f	0.06365787
170	0x3dcf4505	0.10120586
171	0xbdfc5310	-0.123205304
172	0xbe2e8b1a	-0.1704525
173	0x3e57e5bf	0.21083735
174	0x3e2fd71a	0.17171898
175	0xbd29e250	-0.041475594
176	0xbe45daa1	-0.19321682
177	0xbe31ced1	-0.1736405
178	0x3ceb2400	0.02870369
179	0x3dfe6450	0.12421477
180	0x3e5f3821	0.21798755
181	0x3db7171f	0.08939957
182	0x3c62fa60	0.013853639
183	0xbe23a869	-0.15982212
184	0x3e18a5b1	0.14906956
185	0x3a9fd5a7	0.0012194411
186	0xbe72d74f	-0.23714946
187	0xbdc0ff3b	-0.09423681
188	0xbd8bbdb1	-0.0682329
189	0x3c8cb430	0.017175764
190	0xbe9e61b7	-0.30933926
191	0xbe4bb586	-0.19893464
192	0xbe48b7cf	-0.19601367
193	0xbe0b049f	-0.13575982
194	0xbc9b9f4f	-0.018996863
195	0xbdff930f	-0.12479221
196	0x3e5778a5	0.21042116
197	0xbdd362db	-0.103215896
198	0x3d149ee0	0.036284328
199	0xbe2569bf	-0.1615362
200	0xbe02848f	-0.1274588
201	0xbdaf1a0a	-0.085498884
202	0x3e06b3cf	0.13154529
203	0x3d19b819	0.037529085
204	0x3dd315ab	0.10306867
205	0x3d56cbe5	0.052440543
206	0x3e1624c7	0.14662467
207	0x3cc158a0	0.02360183
208	0xbd7a6161	-0.061128024
209	0xbe02185f	-0.1270461
210	0xbcfb6681	-0.030688526
211	0x3e24af11	0.16082408
212	0x3dc3ac51	0.09554351
213	0x3d8b2257	0.06793659
214	0xbe2482a0	-0.16065454
215	0x3cb958e1	0.022625389
216	0x3e355fcf	0.1771233
217	0x3e06b557	0.13155113
218	0xbe321ef6	-0.17394623
219	0xbdaf292f	-0.08552777
220	0x3cb3b766	0.021938037
221	0xbd11d790	-0.035605967
222	0x3cb776aa	0.02239545
223	0x3d893cf0	0.06701076
224	0x3e41cc1f	0.18925522
225	0x3da26ce7	0.07930928
226	0x3e3a5286	0.18195543
227	0x3dfe80f0	0.124269366
228	0xbe58ec10	-0.211838
229	0xbe0c3119	-0.13690604
230	0x3e604ad0	0.21903539
231	0xbc99fa10	-0.018795997
232	0xbe0c63b7	-0.13709913
233	0x3e6d7aaf	0.23191331
234	0x3ce9a8e0	0.028522909
235	0xbe0c0f11	-0.13677622
236	0xbe5f1e1b	-0.21788828
237	0xbbe34140	-0.0069352686
238	0x3d8a332f	0.06748044
239	0xbd54da65	-0.05196609
240	0x3e14b671	0.14522721
241	0x3e8bccc7	0.2730467
242	0x3e0fac21	0.14030506
243	0x3e3b47d0	0.18289113
244	0x3df379e1	0.11888481
245	0x3cc31851	0.023815306
246	0xbc823a80	-0.015897036
247	0x3c5e02ff	0.013550519
248	0xbe6451cf	-0.22296833
249	0x3c8b6957	0.017018003
250	0x3dedc401	0.116096504
251	0x3c9c2fa7	0.019065691
252	0xbc0c80ff	-0.008575677
253	0x3dcc0de1	0.09963585
254	0x3d5a3f35	0.053282935
255	0x3be5ff00	0.0070189238

conv2.lin_l.bias f4 [64]
0	0xbd96e699	-0.07368202
1	0xbdf7ee5f	-0.121060126
2	0xbea625d9	-0.3245075
3	0xbebb7476	-0.3661229
4	0xbdddac0f	-0.10823833
5	0xbeb21b8f	-0.3478665
6	0x3e2c9f4f	0.16857646
7	0x3d4d1eff	0.05007839
8	0x3d50d7e0	0.050987124
9	0xbe4e4960	-0.20145178
10	0x3d4f9690	0.050680697
11	0x3d094d21	0.03352082
12	0x3e01a06f	0.12658857
13	0x3ca1fd01	0.019773962
14	0xbe569daf	-0.20958589
15	0xbe75fbaf	-0.24021791
16	0xbd9e9967	-0.07744103
17	0xbe6c833f	-0.23096941
18	0xbe95e6a0	-0.29277515
19	0xbe9c77a7	-0.30560037
20	0xbe719f91	-0.23596026
21	0x3dacf25a	0.084446624
22	0xbdcdcfc5	-0.100493945
23	0xbd62a61f	-0.055334207
24	0x3e2f8a4a	0.17142597
25	0xbe1db211	-0.15399958
26	0x3e0257d0	0.1272881
27	0xbdca1d21	-0.09868837
28	0xbe883177	-0.2660024
29	0x3dad90fa	0.08474918
30	0xbe948161	-0.29004958
31	0xbee0e3f5	-0.43923917
32	0xbe5a55bf	-0.21321772
33	0x3e49692f	0.1966903
34	0xbddfae55	-0.10921923
35	0xbe2868e7	-0.16446267
36	0xbe9b697f	-0.30353925
37	0x3e213ee9	0.15746655
38	0x3e3081f0	0.17237067
39	0x3de46e50	0.11153853
40	0xbd2218a7	-0.03957429
41	0xbddb527b	-0.10709091
42	0xbc07f178	-0.008297317
43	0xbe166269	-0.14685978
44	0xbde371cf	-0.11105692
45	0xbccfdcc5	-0.025373826
46	0xbe531ef0	-0.2061727
47	0xbec6a580	-0.3879814
48	0xbea1f0a7	-0.31628916
49	0xbeb57786	-0.35442752
50	0x3d0fca41	0.035104994
51	0xbe56ffa5	-0.20995958
52	0xbdac24b1	-0.08405436
53	0xbda97700	-0.082746506
54	0x3e1cd529	0.15315689
55	0x3db6e9c6	0.089313075
56	0xbeb069c1	-0.34455684
57	0x3e40f5b1	0.18843724
58	0xbdf9fe7f	-0.122067444
59	0xbe3aa69a	-0.18227616
60	0x3db9a2cf	0.090642564
61	0x3d9f8111	0.07788289
62	0x3e1c2b1f	0.15250824
63	0x3c957f29	0.018249111

conv2.lin_r.weight f4 [64, 16]
0	0xbe22f6d0	-0.15914464
1	0x3dc3fe11	0.09569944
2	0xbe97000f	-0.29492232
3	0x3da6eaa1	0.08150221
4	0xbe13634f	-0.14393352
5	0x3d83af5f	0.06429934
6	0x3e261337	0.16218267
7	0xbe4c696a	-0.19962087
8	0xbe06a49f	-0.13148735
9	0x3e003357	0.12519585
10	0xbdb788c6	-0.08961634
11	0xbe25a88f	-0.16177581
12	0xbe22566f	-0.15853284
13	0xbe35155a	-0.17683926
14	0xbe0a0b08	-0.1348077
15	0x3e04e1ff	0.12976836
16	0xbd0fe240	-0.03512788
17	0xbe857701	-0.26067355
18	0xbe90be09	-0.28269985
19	0x3c8adca0	0.016950905
20	0x3e06c660	0.13161612
21	0xbe1aedff	-0.15129851
22	0xbe27fbc1	-0.1640463
23	0x3ca3c4ef	0.019991366
24	0x3e29c69f	0.16579674
25	0xbdd642e5	-0.10461978
26	0xbdc70026	-0.09716825
27	0x3d186aa9	0.037211094
28	0xbe886f8f	-0.26647612
29	0xbe2495cf	-0.16072772
30	0x3d8bc1a7	0.06824046
31	0x3e0d46f1	0.13796593
32	0x3de61441	0.11234332
33	0x3e27c7b1	0.1638477
34	0x3e3fe321	0.18738987
35	0x3e011091	0.12603976
36	0x3e201371	0.15632416
37	0xbae349f1	-0.0017340762
38	0x3d852340	0.06500864
39	0xbd79f921	-0.061028603
40	0x3e3c5a91	0.18393923
41	0xbdc01d90	-0.093806386
42	0xbe63f3c0	-0.22260952
43	0x3e76e56f	0.2411096
44	0x3e60ab51	0.21940352
45	0xbe49240a	-0.19642654
46	0xbdb75590	-0.089518666
47	0xbe609e9f	-0.21935509
48	0x3d40cf60	0.04707277
49	0x3d73c020	0.059509397
50	0xbdcaf8fb	-0.099107705
51	0xbd502b7b	-0.050822716
52	0x3dbef311	0.09323705
53	0x3bdc1671	0.0067165424
54	0x3e5ab225	0.21357019
55	0xbe9a30e1	-0.30115417
56	0x3e457d50	0.19286084
57	0xbe7322e1	-0.23743774
58	0xbd964a1f	-0.07338356
59	0x3dddbf45	0.108274974
60	0xbcce6750	-0.025195748
61	0x3d53eae5	0.051737685
62	0xbe0b618f	-0.13611434
63	0xbda3e291	-0.080021985
64	0x3caf8f00	0.021430492
65	0x3d09cb00	0.03364086
66	0xbe716f41	-0.23577596
67	0xbd323aa6	-0.043512963
68	0x3defe011	0.11712659
69	0x3dd51dbf	0.10406064
70	0xbe0a94d9	-0.13533343
71	0x3cfdbb6f	0.030973164
72	0x3b65f780	0.0035090148
73	0x3c296f31	0.0103414515
74	0x3d898238	0.067142904
75	0x3dad0f56	0.08450191
76	0x3da5e5f7	0.08100503
77	0xbe71c69f	-0.23610924
78	0xbd356481	-0.0442853
79	0x3d8ae1ef	0.06781375
80	0xbe09f8af	-0.13473772
81	0xbf0701df	-0.5273723
82	0xbe0ea4e1	-0.13930084
83	0x3d456fa6	0.04820218
84	0x3d0887b8	0.033332556
85	0xbe930671	-0.28715852
86	0x3e260a10	0.16214776
87	0xbf025901	-0.5091706
88	0xbe1bfbf8	-0.15232837
89	0xbf02b551	-0.51057917
90	0xbe79e130	-0.24402308
91	0xbeb9bba6	-0.36275977
92	0xbee0a44f	-0.43875358
93	0xbe038521	-0.12843753
94	0xbe43de45	-0.19127758
95	0xbddeb460	-0.108742476
96	0xbd9cb7a8	-0.07652217
97	0xbe6702ef	-0.22559713
98	0xbdd58a3b	-0.10426756
99	0x3e1d57b7	0.15365492
100	0x3e4072df	0.1879382
101	0x3dedddef	0.11614596
102	0xbd964248	-0.07336861
103	0x3e091d27	0.13390027
104	0xbe21cf07	-0.15801631
105	0xbd16cebf	-0.036818262
106	0x3e57933f	0.21052264
107	0xbe60ef10	-0.21966195
108	0x3dd46dc5	0.103724994
109	0x3a2fca00	0.00067058206
110	0x3bdbdc8b	0.0067096404
111	0xbe6b54ff	-0.22981642
112	0x3e6e5881	0.23275949
113	0xbe900411	-0.28128102
114	0xbe73ecb1	-0.2382076
115	0xbdc210c1	-0.09475852
116	0xbd7f8880	-0.062386036
117	0x3cd4fe2b	0.026000103
118	0xbd5d0185	-0.053956527
119	0x3e0f0717	0.13967548
120	0xbe72f2bf	-0.23725413
121	0x3df8ae3f	0.1214261
122	0xbe4b1dfa	-0.19835654
123	0x3e5b1a85	0.21396835
124	0xbe7b14bf	-0.24519633
125	0x3cebf5c0	0.028803706
126	0xbd5d8e5f	-0.054090854
127	0xbde171cf	-0.110080354
128	0x3dbdd261	0.09268642
129	0x3e6138b1	0.21994282
130	0xbd78b581	-0.06071997
131	0xbe376b8f	-0.17912124
132	0xbe0b18cf	-0.13583682
133	0xbde7b7b0	-0.113143325
134	0x3e0591f9	0.13043965
135	0xbe4f58f0	-0.2024877
136	0x3e3af43a	0.18257228
137	0x3da375a7	0.07981425
138	0x3d9a4168	0.075320065
139	0xbe34646f	-0.17616437
140	0xbde5feaf	-0.11230218
141	0xbe1867c1	-0.14883329
142	0x3dda1b05	0.10649685
143	0x3dd80830	0.10548437
144	0x3e3e7950	0.18600965
145	0xbb42f76a	-0.002974952
146	0x3d6fedef	0.05857652
147	0x3d7f08d0	0.062264264
148	0xbd60a710	-0.054846823
149	0x3d25a2b1	0.040438358
150	0xbe34152f	-0.17586206
151	0xbe6823f1	-0.2266996
152	0x3d37ef60	0.04490602
153	0xbc843a60	-0.016141117
154	0x3ccad100	0.024757862
155	0xbbf9deb0	-0.0076254234
156	0xbe40751a	-0.1879467
157	0xbdcda05b	-0.10040351
158	0xbdf81871	-0.12114037
159	0xbd0fb5a8	-0.03508535
160	0xbdb46b9f	-0.088095896
161	0x3e4a2f8f	0.19744705
162	0x3e19756f	0.14986204
163	0xbe703d01	-0.23460771
164	0x3dc08cbf	0.09401845
165	0xbe5cace1	-0.21550323
166	0x3db2fd30	0.08739698
167	0xbe78a2cf	-0.24280857
168	0x3d0fa2c8	0.03506735
169	0xbe1ac8cf	-0.15115665
170	0x3e7c88c0	0.24661541
171	0xbe61157f	-0.21980856
172	0xbdfcd9c1	-0.12346221
173	0x3e715ac1	0.23569776
174	0xbd46f79a	-0.048575975
175	0x3e7a14e1	0.24422027
176	0xbd602fa5	-0.054732937
177	0x3e0d22f1	0.1378286
178	0xbe794091	-0.24341036
179	0x3d3076e0	0.043082118
180	0x3d861ef0	0.065488696
181	0xbd8009af	-0.06251847
182	0xbdfe22b1	-0.124089606
183	0xbe6dc8ff	-0.23221205
184	0x3de1b2c5	0.11020426
185	0xbdaf4c11	-0.085594304
186	0x3e30833a	0.17237559
187	0x3e37e42a	0.17958131
188	0x3e1a801f	0.15087937
189	0x3d972e20	0.073818445
190	0xbe43c2ef	-0.1911733
191	0x3e333440	0.175004
192	0xbe3cc206	-0.18433389
193	0xbc386b21	-0.01125601
194	0xbdb71d2a	-0.089411095
195	0x3e1b1ea0	0.15148401
196	0x3e1dd15f	0.154119
197	0xbe3be1bf	-0.18347834
198	0x3e24b967	0.1608635
199	0x3dbebce1	0.093133695
200	0x3da5acef	0.08089625
201	0xbdf652f1	-0.120275386
202	0xbe1f327f	-0.15546606
203	0xbe6b85df	-0.23000287
204	0xbe36c3af	-0.17848085
205	0xbe51f74f	-0.20504497
206	0x3ccc2440	0.02491963
207	0x3e36f34f	0.17866252
208	0x3e62272b	0.22085254
209	0xbe0d60c0	-0.13806438
210	0xbe02b6bf	-0.12765025
211	0x3e61549f	0.22004937
212	0x3cbcea30	0.023060888
213	0xbd893819	-0.06700153
214	0x3e003cc0	0.12523174
215	0xbe431b1f	-0.19053315
216	0xbe3137f1	-0.17306496
217	0xbe114c8f	-0.14189361
218	0xbdc1c85a	-0.09462042
219	0x3d8c3699	0.06846351
220	0xbe02a96f	-0.12759946
221	0x3e7c196f	0.24619077
222	0xbe4ea395	-0.20179589
223	0xbe1188b0	-0.14212298
224	0x3e336766	0.17519912
225	0x3e749e41	0.23888494
226	0xbe6e9671	-0.23299576
227	0xbe4735da	-0.19454136
228	0xbe00c547	-0.12575255
229	0xbdc55381	-0.09635068
230	0xbe5a6780	-0.21328545
231	0x3dd30f25	0.10305623
232	0x3d924058	0.07141179
233	0x3d9afea0	0.07568097
234	0x3d5ac8d0	0.053414166
235	0x3e68ef11	0.22747447
236	0xbd94c118	-0.07263392
237	0xbe339836	-0.17538533
238	0x3d433d86	0.047666095
239	0x3e19c980	0.15018272
240	0xbe617750	-0.2201817
241	0xbd91ae0f	-0.07113277
242	0xbb19780f	-0.0023417508
243	0x3d6521c1	0.055940393
244	0xbc9611e0	-0.01831907
245	0xbd9c325f	-0.07626795
246	0x3b65ce80	0.003506571
247	0x3d574135	0.05255242
248	0xbd0f6820	-0.03501141
249	0xbdc8866f	-0.09791266
250	0x3de2c125	0.11071996
251	0x3d478a91	0.04871613
252	0x3e4c767f	0.19967078
253	0x3d94d9a0	0.07268071
254	0xbe0b8641	-0.13625433
255	0xbdb27e30	-0.087154746

lstm_cell.weight_ih f4 [256, 192]
0	0x3e005b7f	0.12534903
1	0x3e3cff30	0.18456721
2	0xbd9147b1	-0.07093752
3	0x3c993e08	0.018706337
4	0x3d293789	0.041312728
5	0xbe393106	-0.18085107
6	0x3d3aa8c1	0.045571093
7	0x3d8b63b7	0.068061285
8	0xbdd4159b	-0.103556834
9	0xbccef2ef	-0.025262324
10	0x3db3f1a6	0.08786325
11	0x3e10f679	0.14156522
12	0x3e0bc4ff	0.13649367
13	0x3e49821b	0.19678538
14	0x3bb0dd80	0.0053974986
15	0xbe4f7321	-0.20258762
16	0x3d1c4fb7	0.03816196
17	0x3e2c0711	0.1679957
18	0xbc43652f	-0.0119259795
19	0x3e01fc47	0.12693892
20	0x3de0b2c5	0.109715976
21	0x3c272781	0.01020229
22	0x3d2d8a16	0.042368017
23	0x3d71c27f	0.059023377
24	0xbd12ad20	-0.035809636
25	0x3dfc62ff	0.123235695
26	0x3deebe41	0.11657382
27	0x3e34ae3a	0.17644587
28	0xbd3f8cb1	-0.046765033
29	0xbeb89ea6	-0.3605854
30	0x3e4497ef	0.19198583
31	0xbd4783b6	-0.048709594
32	0xbc3c7130	-0.011501595
33	0x3e3a7926	0.18210277
34	0xbe4a3dc6	-0.19750127
35	0x3e21d999	0.15805663
36	0x3c869481	0.016428234
37	0xbdfe2db1	-0.12411059
38	0x3d26c3bf	0.04071402
39	0xbd0f3058	-0.034958214
40	0xbe0f93cf	-0.14021228
41	0x3dce3400	0.10068512
42	0x3dc7f1bf	0.09762906
43	0x3e0b2d48	0.13591492
44	0x3e4bdda6	0.19908771
45	0xbc359ca1	-0.0110847065
46	0x3da11fb7	0.07867377
47	0xbd3ddc50	-0.046352684
48	0xba3a543a	-0.00071078876
49	0xbc511e30	-0.012763545
50	0xbd2801a0	-0.041017175
51	0x3dd8eb8b	0.10591801
52	0x3da9be31	0.08288229
53	0x3e1e7157	0.15472923
54	0x3e469c6a	0.19395605
55	0xba144d88	-0.0005657305
56	0x3df06640	0.11738253
57	0x3e28a871	0.16470505
58	0xbab0bc61	-0.0013483876
59	0x3e5b15c1	0.21395017
60	0x3e1bac4f	0.1520245
61	0x3ded5ba0	0.11589742
62	0xbd5f82cb	-0.054568093
63	0x3d97a7a1	0.074050196
64	0xbf82a198	-1.0205564
65	0x405e4b48	3.4733448
66	0x4029a576	2.650724
67	0x4037cc5e	2.8718486
68	0x4014fe68	2.3280277
69	0x40b764e1	5.7310643
70	0x40e6ba8b	7.2102714
71	0xbdbd541f	-0.092445605
72	0x40b74eb2	5.7283564
73	0x40f35012	7.603524
74	0x40f0238e	7.50434
75	0x40d3b40c	6.6157284
76	0x40cc1f19	6.378796
77	0x40d79577	6.736995
78	0x410c7070	8.777451
79	0x40f4c56c	7.6490993
80	0x40fcd5a7	7.9010806
81	0x40d93ae6	6.7884398
82	0x40eeebd7	7.466289
83	0x40ecebec	7.403799
84	0x40ece70d	7.4032044
85	0x3dad02da	0.084478095
86	0x410628fd	8.385007
87	0x40acaf86	5.396426
88	0x40e63cc4	7.1949177
89	0x40e624d5	7.191996
90	0x40e0fced	7.0308747
91	0x4101b877	8.107535
92	0x40ea543f	7.322784
93	0x3be4e540	0.0069853365
94	0x3d443946	0.047906183
95	0x3d8f56a1	0.06998945
96	0xbd3ad6d1	-0.04561502
97	0xbdabe42a	-0.08393128
98	0x3d37e85f	0.04489934
99	0x3d09ef71	0.033675615
100	0x3dc09c9f	0.09404873
101	0x3d2a1f01	0.041533474
102	0xbdd439e1	-0.10362602
103	0x3b964920	0.004586354
104	0x3d90d801	0.070724495
105	0xbbfdf660	-0.0077503175
106	0xbdefb29f	-0.11703991
107	0xbde5c3c1	-0.11218978
108	0x3b6c8f00	0.0036095977
109	0xbd026670	-0.031835973
110	0x3c6d14f0	0.014470324
111	0xbd555bc0	-0.052089453
112	0xbd978ea0	-0.074002504
113	0x3d0585bf	0.032598253
114	0xbcfb6be0	-0.030691087
115	0x3b93c300	0.00450933
116	0xbc5366e0	-0.012902945
117	0xbda60c3f	-0.081078045
118	0xbdb12606	-0.086498305
119	0xbdf683b1	-0.12036837
120	0x3dc6feef	0.097165935
121	0x3c3c5ac0	0.011496246
122	0xbdb7b986	-0.08970933
123	0x3de854ff	0.11344337
124	0xbdae37bf	-0.085067265
125	0xbde67a0f	-0.112537496
126	0x3d431d41	0.04763532
127	0xbd90af08	-0.070646346
128	0xbcfec641	-0.031100394
129	0x3ffbe2ea	1.9678624
130	0x3fa4df8f	1.2880725
131	0xbeeec9df	-0.4663839
132	0xbf05294a	-0.5201613
133	0x4017a3e1	2.3693774
134	0x3dd474ff	0.10373878
135	0x405ae742	3.4203649
136	0x40d534c8	6.662693
137	0x40bc347a	5.881406
138	0xbdc43a81	-0.09581471
139	0x40ec00be	7.3750906
140	0x40f72702	7.7235117
141	0x40f9a33e	7.801177
142	0x3dd49611	0.103801854
143	0x41061cc5	8.382024
144	0x41110641	9.064027
145	0x41006d62	8.026705
146	0x40f20557	7.563152
147	0x40e568bc	7.169035
148	0x40dc126a	6.877248
149	0x40cf5050	6.478554
150	0x3c1f2c00	0.00971508
151	0x41049227	8.285682
152	0x40d05aff	6.511108
153	0x4062236b	3.5334117
154	0x3d6c5931	0.057702247
155	0x40e202b4	7.06283
156	0x4085db12	4.182992
157	0x4109b03e	8.605528
158	0x3de2a70f	0.1106702
159	0x3d53d8b1	0.051720325
160	0x3d616a5b	0.05503307
161	0x3da2ade7	0.079433255
162	0xbdd73c1b	-0.10509511
163	0xbd4aa5da	-0.049474575
164	0xbdb738cf	-0.08946382
165	0xbdba409a	-0.09094353
166	0xbc5e2f70	-0.013561115
167	0xbddf3325	-0.10898427
168	0x3d49ca8f	0.04926544
169	0x3dea34df	0.114358656
170	0x3d912fff	0.07089233
171	0xbd24eebf	-0.04026675
172	0xbd023c11	-0.031795565
173	0x3d597565	0.05309047
174	0x3db6e1bf	0.089297764
175	0xbdc416d0	-0.09574664
176	0xbda6f849	-0.081528254
177	0xbd3da38f	-0.04629856
178	0xbd8ef498	-0.06980246
179	0x3d2cbaa6	0.04217019
180	0xbdf87be1	-0.12133003
181	0x3db95850	0.090500474
182	0xbb3efe40	-0.0029143244
183	0x3de36271	0.111027606
184	0x3d243bf1	0.040096227
185	0xbd834e21	-0.06411386
186	0xbd108a00	-0.035287857
187	0xbdac2466	-0.0840538
188	0x3d1e4359	0.038638446
189	0xbda8a7b1	-0.082351096
190	0x3df24e81	0.1183138
191	0x3db6944f	0.08915006
192	0x3d3effff	0.046630856
193	0x3d20859f	0.03918993
194	0x3f0dbf97	0.5537047
195	0x3dcf7e81	0.101315506
196	0x3db29266	0.087193295
197	0xbe128879	-0.14309873
198	0xbc64e171	-0.013969765
199	0x3cf95b6f	0.030439107
200	0xbc617dd0	-0.013762906
201	0xbce7dc60	-0.028303325
202	0x3dfb6741	0.122755535
203	0x3bdb4235	0.006691242
204	0xbd0dcd27	-0.034619477
205	0x3ec69cff	0.38791654
206	0xbda80d77	-0.08205693
207	0x3f17b5d1	0.59261805
208	0x3c8b5eb9	0.01701294
209	0x3d56fee1	0.052489165
210	0xbd00c661	-0.03143919
211	0x3df09701	0.11747552
212	0x3e3dbd0a	0.18529144
213	0x3da38800	0.07984924
214	0xbd4cdf81	-0.050017837
215	0x3e330f16	0.17486224
216	0x3d7ebee0	0.06219375
217	0x3d603d6f	0.054746088
218	0x3c0ed530	0.00871782
219	0x3e97c481	0.29642108
220	0xbc0bf819	-0.008543038
221	0x3f330720	0.69932747
222	0x3f14b019	0.58081204
223	0x3d291489	0.04127935
224	0x3d88523f	0.06656312
225	0xbd561cfb	-0.05227373
226	0x3f5693e1	0.83819395
227	0xbd327d5f	-0.043576594
228	0xbd47da9b	-0.048792463
229	0x3ddda1db	0.10821887
230	0xbcd914e0	-0.026499212
231	0x3c8273b8	0.01592432
232	0x3f2dd410	0.67901707
233	0x3cc718e0	0.024303854
234	0x3f4467ab	0.76720685
235	0x3e03a691	0.12856509
236	0x3eb31bbf	0.34982106
237	0x3e061289	0.13093008
238	0x3d491d71	0.049100343
239	0x3d9fe8a7	0.07808047
240	0xbdad433f	-0.08460092
241	0x3d14abc8	0.036296636
242	0x3eb69dcf	0.35667273
243	0xbe2b46bf	-0.16726206
244	0xbdbfefef	-0.093719356
245	0xbd960d89	-0.073268004
246	0x3debdfa1	0.11517263
247	0x3cd6b131	0.026207538
248	0xbd9fa787	-0.07795625
249	0x3e0b6439	0.1361245
250	0x3e21e4c1	0.15809919
251	0x3d6178db	0.055046897
252	0x3d51d5bf	0.051229235
253	0xbd620ebf	-0.055189844
254	0xbce5e11f	-0.028061448
255	0x3d035471	0.03206295

lstm_cell.weight_hh f4 [256, 64]
0	0x3edd5e74	0.43236125
1	0x3ebc9bd9	0.36837652
2	0x3f8a877a	1.0822594
3	0xc085440b	-4.164556
4	0x3fae2f96	1.3608272
5	0xc034f988	-2.8277302
6	0xc01a1cc9	-2.408007
7	0x401b1355	2.423055
8	0x405c4fcb	3.4423702
9	0x3f405447	0.751286
10	0x3ed4a7f3	0.41534385
11	0xbfa0069e	-1.250202
12	0xbd7cbb49	-0.061702047
13	0xbfbe9d7a	-1.4891808
14	0xbfebc5dc	-1.8419757
15	0xbe7b4dff	-0.24541472
16	0xbf4c7509	-0.7986608
17	0x3f0b1eac	0.54343677
18	0xc04af731	-3.1713374
19	0xbfc3d403	-1.5299076
20	0xbda6bea9	-0.08141834
21	0x4023d044	2.5595865
22	0x40250558	2.5784512
23	0xbf3d3854	-0.73914075
24	0x3efc1bde	0.4924001
25	0x401f309e	2.4873424
26	0xc01f214a	-2.4864068
27	0x3f654a34	0.8956635
28	0xbe52838a	-0.2055799
29	0xc038413e	-2.878982
30	0xbff5a676	-1.9191425
31	0x3ddb8148	0.10718018
32	0x3f9693a3	1.1763805
33	0xbff7865c	-1.9337878
34	0xbed3657d	-0.41288367
35	0x3f6d0a9e	0.92594326
36	0x401e44fe	2.472961
37	0xbfb11016	-1.3833034
38	0x3e5ab371	0.21357514
39	0xc010bfa7	-2.2616975
40	0x3f9cad9a	1.2240479
41	0xbd81a752	-0.06330742
42	0xc033d801	-2.8100588
43	0xbf933adf	-1.1502341
44	0xbfa560d0	-1.292017
45	0xbfecf7d4	-1.8513131
46	0x3f14c639	0.58114964
47	0x3fcb7601	1.5895387
48	0x3ee4c5af	0.4468207
49	0x40071f34	2.1112795
50	0xc001b70a	-2.0267968
51	0x3f3972ad	0.72440606
52	0x3fba37ac	1.454824
53	0x3fc48a1d	1.5354649
54	0xc0173674	-2.3626986
55	0x4041d505	3.0286267
56	0x3fa60339	1.2969733
57	0xc0166981	-2.3501894
58	0x3f799397	0.9749083
59	0x3ea25002	0.31701666
60	0x4037d4a4	2.8723536
61	0x3f9e7f7f	1.2382659
62	0x3ef48a3b	0.4776171
63	0x403528ac	2.8306074
64	0x3ed7ce13	0.4214941
65	0xbee96b3e	-0.45589632
66	0x3d7f7bed	0.062374044
67	0x3e9e20e0	0.30884457
68	0xc00d7144	-2.2100382
69	0xc031d84f	-2.7788274
70	0x3f172871	0.59046084
71	0x3eaa8cba	0.3331049
72	0xc0038569	-2.0550177
73	0xbf8a05ec	-1.0783057
74	0xbf2f3195	-0.6843503
75	0xbf16332c	-0.5867183
76	0xbf80b0a7	-1.005391
77	0xbf046ea8	-0.5173135
78	0xbe661f19	-0.224728
79	0x402e7135	2.7256596
80	0xbf160a46	-0.58609426
81	0xbf80b83e	-1.0056226
82	0xbf4fcdc7	-0.81173366
83	0xc017cbd8	-2.3718166
84	0xbf399d83	-0.7250597
85	0x3fea5c48	1.8309412
86	0x3eb1a985	0.34699646
87	0x3f709d32	0.9398986
88	0x3f96a4d9	1.1769058
89	0xbe788794	-0.24270469
90	0xc015eb9c	-2.3425055
91	0xc0797b1b	-3.8981388
92	0xbf42ba9d	-0.76066
93	0xbeb17038	-0.3465593
94	0xc00bd91e	-2.1851268
95	0xbf73d43b	-0.95245713
96	0x3e34f2e9	0.17670788
97	0x3fc58841	1.5432206
98	0xc06846f7	-3.6293314
99	0x4005e7cf	2.0922735
100	0x3fce1cf1	1.6102582
101	0xbed30bff	-0.4122009
102	0xbd4abe8e	-0.049498133
103	0x403d1303	2.9542854
104	0xbf8b2388	-1.0870218
105	0xbf557517	-0.8338179
106	0x4093163f	4.5964656
107	0x3f211780	0.62926483
108	0xbfc0d37d	-1.5064541
109	0xbe9d553c	-0.3072909
110	0xbfb24097	-1.3925961
111	0xbf5bf51c	-0.8592088
112	0x4080ab7b	4.0209327
113	0xc001fe7c	-2.0311575
114	0x3f9db155	1.2319742
115	0xc00ae751	-2.1703684
116	0x3e572c5e	0.21013018
117	0xbe460bb5	-0.19340403
118	0xc04e44a9	-3.2229407
119	0xbda3ad41	-0.0799203
120	0xbdd34804	-0.1031647
121	0xbfee7077	-1.8628072
122	0x3fe17a14	1.761538
123	0x3f20b9de	0.6278361
124	0x3fcdec96	1.6087825
125	0xbf96d199	-1.1782714
126	0x3df23506	0.1182652
127	0xbffc308f	-1.9702319
128	0x402a204e	2.6582217
129	0x3f7f1a49	0.9964948
130	0x3ebebf04	0.37255108
131	0x3ecd141b	0.40054402
132	0x408d8c73	4.4233947
133	0x3ea95eed	0.33080235
134	0x3eb5ae40	0.35484505
135	0xbff986a4	-1.9494214
136	0x400840a1	2.1289446
137	0xc01c08f4	-2.4380465
138	0x3fdad053	1.7094826
139	0x3ca0914c	0.019600533
140	0xbd9689ba	-0.07350488
141	0xbfad3457	-1.3531598
142	0xbff11125	-1.8833357
143	0xbf27104e	-0.65259254
144	0x3fcd475c	1.6037402
145	0x3f394d1f	0.723833
146	0xbf00a560	-0.5025234
147	0xbff911aa	-1.9458516
148	0x4073e80e	3.8110385
149	0x3ee08300	0.43849945
150	0x3fb85f29	1.440404
151	0x3fc56f60	1.5424614
152	0x3f1e43d2	0.61822236
153	0x3fb88e37	1.44184
154	0x3fd31d47	1.649331
155	0xbead0df6	-0.33799714
156	0xc0023ef9	-2.0350935
157	0x40232f23	2.549752
158	0x3f5955f3	0.84896773
159	0x3f8ebf35	1.1152102
160	0x3fc2eb39	1.5228034
161	0xbfc52acd	-1.5403687
162	0xbd9108de	-0.070817694
163	0xbf7b39a7	-0.98134845
164	0x3fe4e1d7	1.7881421
165	0x3ff1d651	1.8893529
166	0x3f9dce9d	1.2328678
167	0x401fb854	2.4956255
168	0xc00f89ea	-2.2427926
169	0xbef99fe1	-0.4875479
170	0xc01a065b	-2.406638
171	0xbedc48f3	-0.43024406
172	0x3fe702b2	1.8047698
173	0xc04b429d	-3.1759408
174	0x3f4ac94e	0.79213417
175	0x3f8a344a	1.0797207
176	0x3e57d26b	0.21076362
177	0xc08b2a78	-4.348934
178	0x3f64f525	0.8943656
179	0x3f602591	0.8755732
180	0xc0794d04	-3.8953257
181	0x3f8f0904	1.1174626
182	0x3f53a1ed	0.82668954
183	0x3f919be1	1.1375695
184	0x3fdc3080	1.7202301
185	0x3ea62c4e	0.32455677
186	0xbf501c4d	-0.81293184
187	0x3f7c50ef	0.98560995
188	0x403c0b67	2.938196
189	0xbfa013d5	-1.2506052
190	0xbee0c7ba	-0.4390238
191	0xbfc8e99d	-1.5696293
192	0xbfcd6000	-1.6044922
193	0x3f81da94	1.014483
194	0xbea73a5b	-0.3266171
195	0x3e4c1b26	0.19932231
196	0xbf2aa951	-0.66664606
197	0x3e4cfe5d	0.20018907
198	0xbf6e29fa	-0.930328
199	0xbfeab597	-1.8336667
200	0xc04ba174	-3.1817293
201	0x3fdcc07b	1.724624
202	0xbfc6b37e	-1.5523527
203	0xbf95b70a	-1.1696484
204	0x3f7b16fc	0.98081946
205	0xbf450a17	-0.7696852
206	0x3e5079d9	0.20358981
207	0xbe7eb6d9	-0.24874438
208	0x3db1f751	0.0868975
209	0x3ffbe441	1.9679033
210	0x3ff09640	1.8795853
211	0xbdab6ec4	-0.08370736
212	0xbf831c49	-1.0243007
213	0xbf121dd7	-0.5707678
214	0x3decfa62	0.11571194
215	0x3eacbfb5	0.3374001
216	0x4033beda	2.8085237
217	0x3bcd5d03	0.0062671914
218	0x3f1a0d35	0.601764
219	0x4029cb7e	2.6530452
220	0x401d30b6	2.456098
221	0x3fb620ea	1.4228795
222	0xbdd5d68b	-0.104413114
223	0xc094f893	-4.6553435
224	0xbfe718bc	-1.8054423
225	0xbf65fa6e	-0.8983525
226	0x3fa31c8b	1.2743086
227	0x3ee952f3	0.45571098
228	0x3fb49383	1.4107517
229	0xbe8fc535	-0.28080145
230	0x40245cae	2.5681567
231	0x3f380d17	0.71894974
232	0xbe3e3f80	-0.18578911
233	0x4035cc9e	2.8406138
234	0xc03ac30e	-2.9181552
235	0xc039f44f	-2.9055364
236	0x40045c0f	2.0681188
237	0xbeb1b0d0	-0.3470521
238	0x40322762	2.7836537
239	0x3f4d7822	0.80261433
240	0x402ab3da	2.6672273
241	0x3d4ed069	0.050491724
242	0xbf15b937	-0.5848574
243	0x3eecd0e7	0.4625313
244	0x3d0e1a44	0.034693018
245	0xbf5476e9	-0.8299394
246	0x3e93a7c7	0.2883894
247	0xc01a8f06	-2.4149795
248	0xbe8ad130	-0.27112722
249	0x4002d026	2.0439544
250	0xc04e324a	-3.2218194
251	0xbee8707b	-0.45398316
252	0xbf9fcda8	-1.2484636
253	0xbf8e94d4	-1.1139169
254	0x3efbc4bf	0.49173543
255	0xc0235f66	-2.5526977

lstm_cell.bias_ih f4 [256]
0	0xbfa32835	-1.2746645
1	0x3fd86569	1.6905948
2	0x3f19fe4d	0.6015366
3	0x404e7d04	3.2263803
4	0x403ea579	2.9788496
5	0x4052bf1e	3.2929149
6	0x3f8734d5	1.0562998
7	0x402a9531	2.665356
8	0x3f3767a9	0.7164255
9	0x3f2b2d88	0.6686635
10	0x40505c42	3.255631
11	0x400b050a	2.1721826
12	0xc074ed2e	-3.8269763
13	0x3ca7dc73	0.02049086
14	0xc040370d	-3.00336
15	0x3dd8f982	0.10594465
16	0x403ce093	2.951207
17	0xc0129136	-2.290113
18	0xc0329456	-2.7903037
19	0x3f656eb6	0.89622056
20	0xbfb47084	-1.4096837
21	0xc0813d07	-4.0386996
22	0xbfd35b58	-1.6512251
23	0x3e9f7014	0.31140196
24	0x3fe678d4	1.8005624
25	0xbf8c0cba	-1.0941384
26	0x3f5a2c6c	0.8522403
27	0x3f936dae	1.1517847
28	0xbf409259	-0.7522331
29	0x401e1bb3	2.4704406
30	0x401d1e60	2.454979
31	0x3e7c1dc7	0.24620734
32	0x3fce1e3c	1.6102977
33	0x3fedca69	1.8577396
34	0xbf02023a	-0.5078465
35	0xbfa249ff	-1.2678832
36	0xbf1690e6	-0.5881485
37	0x3facca04	1.349915
38	0xbe53dfa6	-0.20690784
39	0x3fd1c3e2	1.6387904
40	0x3ef869d6	0.48518246
41	0x3f5c53cb	0.8606536
42	0x3f3b46c1	0.73154837
43	0xbfbfd8ba	-1.4988015
44	0xc0997142	-4.7950754
45	0xbfdb1214	-1.7114892
46	0x3f3cb19a	0.737085
47	0xbd17865e	-0.036993377
48	0xc08d71bd	-4.420134
49	0xc00aeae2	-2.170586
50	0xc0359d96	-2.8377433
51	0x3f246dde	0.64230144
52	0xc01d7694	-2.4603624
53	0xbfe8e5bf	-1.8195113
54	0xbe16db67	-0.14732133
55	0xbdbf8911	-0.09352315
56	0xc00bdbea	-2.1852975
57	0xc0436aa9	-3.053385
58	0x3fa74a22	1.3069499
59	0x3f312bd2	0.6920749
60	0x3f631142	0.8869821
61	0x404c7fbe	3.1952968
62	0x40134351	2.3009837
63	0xc0386a8a	-2.8815026
64	0xbf950742	-1.164284
65	0xbf2fd148	-0.6867871
66	0xbeadc154	-0.3393656
67	0x3f61c29b	0.8818757
68	0xbfc2f1c7	-1.5230035
69	0x3e9fce8a	0.31212264
70	0x3f753439	0.9578281
71	0xc014bc9e	-2.3240123
72	0x3f5f2189	0.87160546
73	0xbf87219d	-1.0557133
74	0xc05531e5	-3.3311703
75	0xc021f0d3	-2.5303237
76	0x3f41bc4d	0.7567795
77	0x3d06a3a2	0.032870896
78	0xbff206eb	-1.8908361
79	0x3e9de8d7	0.30841705
80	0xbf7325b4	-0.94979405
81	0x3eeb4123	0.45948133
82	0xbf19419e	-0.5986575
83	0x4005584f	2.083515
84	0xc02f5fea	-2.7402291
85	0x3f43433c	0.76274467
86	0xc02bc614	-2.6839647
87	0xbfa15708	-1.2604685
88	0x3f4e93d1	0.806943
89	0xbf27db23	-0.6556875
90	0x3e6eff58	0.23339593
91	0xbee0dbe1	-0.43917754
92	0xbfac2b16	-1.3450649
93	0xbf82ea3f	-1.0227736
94	0x3e922075	0.28540388
95	0xbf5caf1e	-0.8620471
96	0xbd3a5039	-0.045486663
97	0xc0395127	-2.8955781
98	0xbe223127	-0.15839063
99	0xc053a346	-3.3068404
100	0x4028c9e3	2.6373222
101	0xbf725d7b	-0.9467389
102	0xbee217b7	-0.44158718
103	0xbfd1cfb6	-1.6391513
104	0xbfc69114	-1.5513024
105	0x3fe426c3	1.7824329
106	0x3f2b2e40	0.66867447
107	0x3f0b1c4b	0.54340047
108	0xbecc2080	-0.39868546
109	0xc0074016	-2.1132865
110	0xbf85996d	-1.0437447
111	0xbf688b3b	-0.9083745
112	0xbfa28cbb	-1.2699198
113	0x3f826bbe	1.018913
114	0xbf0736ee	-0.5281819
115	0xc00ee27c	-2.2325735
116	0xc024f9a0	-2.577736
117	0x3e820269	0.25392464
118	0x3eee976b	0.46599898
119	0xbfd19019	-1.63721
120	0x4018ebbc	2.389388
121	0x3fa6e535	1.3038698
122	0xc0871910	-4.2218094
123	0x40044750	2.0668526
124	0xbe53d768	-0.2068764
125	0xc00151e2	-2.0206227
126	0x3f42a2c5	0.76029617
127	0xbee65176	-0.44984025
128	0x403dc533	2.965161
129	0xbeaf3659	-0.3422115
130	0xc06499db	-3.5718906
131	0xc0122d17	-2.284002
132	0x3fc4bd39	1.5370246
133	0xbf0b69fd	-0.544586
134	0x3f0f38f1	0.5594626
135	0xbfba3e25	-1.4550215
136	0x4015728a	2.335116
137	0xc00809c3	-2.1255958
138	0x407a478e	3.9106174
139	0x3f2666d8	0.6500068
140	0x3e4175f3	0.1889265
141	0x4039a1bf	2.9004972
142	0x3fdd2534	1.7276978
143	0xbf196f3b	-0.5993535
144	0x4019fef0	2.4061852
145	0x409038bb	4.506925
146	0xc00ceffd	-2.2021477
147	0x3e818d9f	0.2530336
148	0xbf66c5d3	-0.90145606
149	0x3e81a79c	0.25323188
150	0x3f154008	0.5830083
151	0x3f46b15d	0.77614385
152	0x3f2c310c	0.6726234
153	0xbf090509	-0.5352331
154	0x3de0ebbd	0.109824635
155	0xbfe53a02	-1.7908328
156	0x3f569120	0.83815193
157	0x3f45ed96	0.7731565
158	0x40133f19	2.3007262
159	0x401c2399	2.4396727
160	0x3ff1f295	1.8902155
161	0xbfbf27b1	-1.4933988
162	0xbed010c0	-0.4063778
163	0x3ff51c4d	1.9149262
164	0x3fefeec2	1.8744738
165	0xbe99a4ba	-0.3000849
166	0x3fb4a9b5	1.411429
167	0x3eae76f6	0.34075135
168	0xbec3a05b	-0.3820828
169	0x3fdf39b1	1.7439481
170	0xbf1560ad	-0.5835064
171	0x3ff49c55	1.9110209
172	0x3f38cd4a	0.72188246
173	0xbb63097b	-0.0034643102
174	0x405504be	3.3284144
175	0xc026894b	-2.6021297
176	0xc00040cd	-2.0039551
177	0x3eb48bb7	0.35262844
178	0x3ecaf815	0.39642397
179	0xbf25786a	-0.6463686
180	0xbf917b72	-1.1365798
181	0xc034378e	-2.8158908
182	0xbfb28e64	-1.3949704
183	0xbfec97d3	-1.8483833
184	0xbea4f815	-0.32220522
185	0x3fa3131f	1.274021
186	0xbf9d83e8	-1.230588
187	0xbd8d9da9	-0.06914837
188	0xbfe7afd4	-1.8100533
189	0xbfa98848	-1.3244715
190	0x4000d194	2.0127916
191	0x3f266b08	0.65007067
192	0xbe8a3b31	-0.26998284
193	0xc086625a	-4.199506
194	0x3f226ac8	0.63444185
195	0x40a5f115	5.185679
196	0xbf480ca4	-0.7814429
197	0xc00f70c1	-2.241257
198	0x3fca4626	1.5802658
199	0x3ff880a3	1.9414257
200	0xbf9ce7e0	-1.2258263
201	0x3f579f7d	0.84227735
202	0xc003e5b8	-2.060896
203	0x4057de27	3.372934
204	0xbf640eeb	-0.89085263
205	0x3fd82034	1.6884828
206	0xc0319b0f	-2.775089
207	0xbeff1654	-0.49821723
208	0xc01c9d92	-2.4471173
209	0xbf2b9284	-0.6702044
210	0xc020b66b	-2.511134
211	0x3e0c817b	0.13721268
212	0x3f9664d3	1.1749519
213	0xbf7e26d6	-0.9927801
214	0x3fa70e76	1.3051288
215	0x3f491060	0.7854061
216	0xbf2f476b	-0.6846835
217	0x3e2785e7	0.16359673
218	0x3fee0493	1.8595146
219	0xc04f1941	-3.2359164
220	0x3ecfaf86	0.405636
221	0xbfc29c0b	-1.520387
222	0x3fb664e4	1.4249539
223	0xbedcb918	-0.43109965
224	0xbf4c6754	-0.79845166
225	0x400c5938	2.1929455
226	0xbe7cab38	-0.2467469
227	0xbf97bb22	-1.1853983
228	0xbee47d6b	-0.44626936
229	0x40343bf9	2.8161604
230	0xc00ba642	-2.1820226
231	0x4044848a	3.0705895
232	0x3f0e3182	0.5554429
233	0x4051f56d	3.2806046
234	0xbfdd82a6	-1.7305496
235	0x3fdbbe6d	1.7167488
236	0xc014eca8	-2.3269444
237	0xc086bec1	-4.2107854
238	0x3fe3b293	1.7788872
239	0xbf494c54	-0.7863209
240	0xc04d1f94	-3.2050524
241	0xbfe03bea	-1.7518284
242	0xbff907a4	-1.9455457
243	0xc00a25bb	-2.158553
244	0xbf527e86	-0.8222431
245	0xbfd46193	-1.6592277
246	0x4008d67b	2.1380908
247	0xc01ad4d1	-2.4192393
248	0x401b0def	2.4227254
249	0xbf902758	-1.1262007
250	0x3e897ff8	0.26855445
251	0xc014cc0f	-2.3249547
252	0xbf38ef11	-0.72239786
253	0x3f8b4210	1.0879536
254	0xc01abcb4	-2.4177675
255	0x3ec80084	0.39062893

lstm_cell.bias_hh f4 [256]
0	0xbfa74ced	-1.3070351
1	0x3fe64c69	1.7992069
2	0x3ec31bb1	0.38107064
3	0x404a0b74	3.156949
4	0x40434319	3.0509703
5	0x40537126	3.303781
6	0x3f747102	0.95484936
7	0x402cda41	2.7008212
8	0x3f3d0832	0.7384063
9	0x3f256db6	0.6462053
10	0x40509ad2	3.2594495
11	0x40131fb3	2.2988098
12	0xc07f438f	-3.9884984
13	0x3df05211	0.11734403
14	0xc036860d	-2.8519318
15	0x3e152316	0.14564165
16	0x403ca447	2.9475267
17	0xc01b76b6	-2.4291205
18	0xc032a16d	-2.7911026
19	0x3f459942	0.7718698
20	0xbfb5a324	-1.4190412
21	0xc0793a16	-3.8941703
22	0xbfdf0d92	-1.7426016
23	0x3eaa377e	0.33245462
24	0x3fe0afb4	1.755362
25	0xbf992197	-1.1963376
26	0x3f8a92ff	1.082611
27	0x3f86461e	1.0490148
28	0xbf29b827	-0.6629662
29	0x4019f8e3	2.4058158
30	0x402701e0	2.6094894
31	0x3e7e24af	0.24818681
32	0x3fd09ac6	1.6297233
33	0x3feae089	1.8349773
34	0xbf18828a	-0.59574187
35	0xbf98714e	-1.1909578
36	0xbf2d4827	-0.6768822
37	0x3fc4378d	1.5329453
38	0xbe31a90a	-0.1734964
39	0x3fdfaee8	1.7475252
40	0x3e8bf96f	0.2733874
41	0x3f70a87b	0.9400708
42	0x3f646243	0.89212435
43	0xbfb0e4ef	-1.3819865
44	0xc09b3512	-4.8502283
45	0xbfd64def	-1.6742533
46	0x3f4068ea	0.75160086
47	0x3b0aa2a6	0.0021154075
48	0xc08d87c5	-4.4228234
49	0xc0078001	-2.1171877
50	0xc02e580d	-2.7241242
51	0x3f2dee0d	0.6794136
52	0xc029d234	-2.6534548
53	0xbfed5f5f	-1.854473
54	0xbab86869	-0.0014069203
55	0xbe362b10	-0.17789865
56	0xc0086d5a	-2.1316743
57	0xc03b3c42	-2.9255528
58	0x3fa12998	1.2590818
59	0x3f123abe	0.57120883
60	0x3f5476a0	0.8299351
61	0x404a3564	3.1595087
62	0x400a8244	2.1642008
63	0xc033aad4	-2.8073015
64	0xbf86d0d2	-1.0532477
65	0xbf0ab191	-0.54177195
66	0xbe9ccd2c	-0.30625284
67	0x3f7467ad	0.95470697
68	0xbfba4647	-1.4552697
69	0x3ea0072c	0.31255472
70	0x3f853fbd	1.0410076
71	0xc017f6b0	-2.3744316
72	0x3f4ba06b	0.79541653
73	0xbf9959cd	-1.198053
74	0xc0599b75	-3.4001133
75	0xc0236023	-2.5527427
76	0x3f2d90f5	0.6779931
77	0x3e83e41c	0.2575997
78	0xbfd9fadb	-1.702968
79	0x3eb7311b	0.35779652
80	0xbf93e01a	-1.1552765
81	0x3ec3776f	0.38177058
82	0xbf03ad36	-0.51436174
83	0x4002b0d7	2.0420434
84	0xc02ec799	-2.7309325
85	0x3f23316c	0.63747287
86	0xc02d4ec0	-2.7079315
87	0xbfa1e1b0	-1.2646999
88	0x3f4cc400	0.7998657
89	0xbf124cd3	-0.57148474
90	0x3e1b9750	0.1519444
91	0xbef0c040	-0.47021675
92	0xbfa74d5c	-1.3070483
93	0xbf7c679a	-0.98595583
94	0x3e82b808	0.2553103
95	0xbf68d6ce	-0.90952766
96	0xbda308ca	-0.07960661
97	0xc03a1d26	-2.908029
98	0xbe534621	-0.20632221
99	0xc04b5f27	-3.1776826
100	0x402e4403	2.722901
101	0xbf872fdd	-1.0561482
102	0xbea30a5b	-0.31843838
103	0xbfe07d9a	-1.753833
104	0xbfafc1ba	-1.3730996
105	0x3ff0cfd3	1.8813423
106	0x3f560ed3	0.8361637
107	0x3f186ffb	0.5954587
108	0xbea99986	-0.33124942
109	0xc002be76	-2.0428748
110	0xbf8aca1d	-1.084293
111	0xbf69755b	-0.91194695
112	0xbf83e439	-1.0304023
113	0x3f801b0a	1.0008252
114	0xbeaf1f14	-0.34203398
115	0xc0122310	-2.28339
116	0xc01e6860	-2.4751205
117	0x3e69849a	0.2280449
118	0x3ed044ab	0.4067739
119	0xbfd99329	-1.6998035
120	0x4014297d	2.3150322
121	0x3fb07326	1.378514
122	0xc0808226	-4.0158873
123	0x40075e88	2.1151447
124	0xbe508c26	-0.20365962
125	0xc00750ba	-2.1143022
126	0x3f1f9f11	0.6235209
127	0xbec753f6	-0.38931245
128	0x4039a574	2.9007235
129	0xbf131f7e	-0.5746993
130	0xc0642d4b	-3.5652645
131	0xc0157775	-2.335416
132	0x3fb58b58	1.4183149
133	0xbf080707	-0.5313572
134	0x3ee5cc2e	0.4488234
135	0xbfb9894d	-1.4495026
136	0x400f1572	2.235684
137	0xc005c043	-2.0898597
138	0x4081c082	4.0547495
139	0x3f41cc31	0.75702196
140	0x3e74c043	0.23901467
141	0x403a50bf	2.9111784
142	0x3fc33dfe	1.5253294
143	0xbf2d4cf3	-0.6769554
144	0x4025c818	2.5903378
145	0x408cfb4b	4.4056754
146	0xc0112b17	-2.268255
147	0x3e49bb05	0.19700249
148	0xbf5a0923	-0.8517019
149	0x3e61c9c3	0.22049622
150	0x3f120db0	0.57052135
151	0x3f2a2bd5	0.6647313
152	0x3f637582	0.8885118
153	0xbf081219	-0.53152615
154	0x3dcb21c6	0.09918551
155	0xbfe9f6d2	-1.8278449
156	0x3f4e9530	0.8069639
157	0x3f52c296	0.82328165
158	0x40189ec1	2.3846896
159	0x40104429	2.2541602
160	0x3fe5ebdb	1.7962602
161	0xbfa8ac7a	-1.3177636
162	0xbebcdad0	-0.3688569
163	0x3ffb95d7	1.9655102
164	0x3fe3c6e2	1.7795069
165	0xbe80922a	-0.25111514
166	0x3fa4dbf5	1.2879626
167	0x3e873fc8	0.2641585
168	0xbebabc2b	-0.36471686
169	0x3fd81de1	1.6884118
170	0xbf1cb22b	-0.6120936
171	0x3ff6a475	1.9268938
172	0x3f4346aa	0.762797
173	0x3d4f487d	0.05060624
174	0x4053af1d	3.307563
175	0xc0225bab	-2.536845
176	0xc00710b5	-2.1103947
177	0x3e8278cd	0.2548279
178	0x3ec77ab5	0.38960806
179	0xbf196160	-0.5991421
180	0xbfab2f3d	-1.3373791
181	0xc032bbbe	-2.7927089
182	0xbf9f5552	-1.2447913
183	0xbff1e683	-1.8898472
184	0xbec89370	-0.39174986
185	0x3fb6acc3	1.4271473
186	0xbf9e77c0	-1.2380295
187	0xbdd4ddf9	-0.103939004
188	0xbffa4dd8	-1.9555006
189	0xbfc110e7	-1.5083283
190	0x3fe50156	1.7891033
191	0x3f1cdd48	0.6127515
192	0xbe5fbd6b	-0.21849601
193	0xc0851ded	-4.159903
194	0x3f213f68	0.62987375
195	0x40ab0ce4	5.3453236
196	0xbf4edaca	-0.80802596
197	0xc00fb491	-2.245396
198	0x3fb4372f	1.4079341
199	0x3fecc8d9	1.8498794
200	0xbf8e7580	-1.1129608
201	0x3f49b801	0.7879639
202	0xc002f418	-2.0461483
203	0x404ff3e7	3.2492616
204	0xbf7c40eb	-0.98536557
205	0x3fd737ee	1.6813943
206	0xc03133bb	-2.7687824
207	0xbf3055a2	-0.68880665
208	0xc0105452	-2.2551465
209	0xbf40c384	-0.75298333
210	0xc01a4d3b	-2.4109638
211	0x3e152fa0	0.14568949
212	0x3faf4ccc	1.3695312
213	0xbf85a0ef	-1.0439738
214	0x3fadcfd5	1.357905
215	0x3f4cafc0	0.79955673
216	0xbf3fc155	-0.74904376
217	0x3e71b6fd	0.2360496
218	0x3fed8473	1.8556045
219	0xc0529a49	-3.2906668
220	0x3eed9d90	0.46409273
221	0xbfc67773	-1.5505203
222	0x3fbd83fa	1.4805901
223	0xbf00fd35	-0.50386363
224	0xbf33bca1	-0.702097
225	0x400f5ee0	2.2401657
226	0xbe31e8fd	-0.17374034
227	0xbf839112	-1.0278647
228	0xbeec3cd0	-0.46140146
229	0x4034e079	2.8262007
230	0xc00c2a67	-2.190088
231	0x4047ddaa	3.1229043
232	0x3f1c87fa	0.61144984
233	0x40543c17	3.3161676
234	0xbfcc2c06	-1.5950935
235	0x3fdcc913	1.7248863
236	0xc01e6ad9	-2.4752715
237	0xc087fa21	-4.2492833
238	0x3fe0f963	1.7576107
239	0xbf280ffc	-0.6564939
240	0xc049fe24	-3.1561365
241	0xbfe5450a	-1.7911694
242	0xbfe9d6c4	-1.8268666
243	0xc00670c7	-2.1006334
244	0xbf65d6e6	-0.89781034
245	0xbfc3b531	-1.528967
246	0x40093653	2.1439407
247	0xc00f2c19	-2.2370665
248	0x40110cdf	2.2664106
249	0xbf847988	-1.0349588
250	0x3e809b53	0.25118503
251	0xc01167ba	-2.271956
252	0xbf44578f	-0.76696104
253	0x3f899ca0	1.0750923
254	0xc0275a08	-2.61487
255	0x3ed9293c	0.42414272

linear0.weight f4 [32, 384]
0	0xbd51f901	-0.05126286
1	0x3cb4cbf6	0.022069912
2	0xbda9ee59	-0.08297414
3	0xbcc52fba	-0.02407061
4	0x3d9a9e8f	0.07549774
5	0x3d9c0f61	0.07620121
6	0xbdc3d89a	-0.09562798
7	0x3d5dc1ff	0.054140087
8	0x3d80a201	0.062809
9	0x3db31e10	0.08745968
10	0xbd3961d1	-0.0452593
11	0x3d3a0821	0.04541791
12	0x3d47e3b1	0.048801128
13	0x3d2b76a6	0.0418612
14	0xbdd1f925	-0.10252599
15	0xbdd524c5	-0.10407404
16	0x3d14355f	0.03618371
17	0xbd66dadf	-0.056361075
18	0xbd20aa40	-0.039224863
19	0x3cb170c1	0.02166021
20	0xbc17ef79	-0.009273403
21	0xbcf8feef	-0.030395
22	0xbcde624b	-0.02714648
23	0xbdc41666	-0.09574585
24	0xbdcd746b	-0.100319706
25	0xbd9a33df	-0.07529425
26	0xbcb2f84a	-0.02184691
27	0x3d42bf51	0.047545735
28	0x3dcb38ff	0.099229805
29	0xbc9ed1d1	-0.019387158
30	0xbdd0ac7f	-0.10189151
31	0x3dbc72eb	0.09201606
32	0xbdaed736	-0.08537142
33	0x3ccf65fb	0.025317183
34	0x3ce1a151	0.027542742
35	0x3d194a30	0.037424266
36	0xbdc27d61	-0.094965704
37	0xbd41e9ef	-0.047342237
38	0xbcb4bdd6	-0.022063177
39	0xbdcf0d61	-0.10109974
40	0x3d872139	0.065981336
41	0x3de37345	0.1110597
42	0x3d9ad89f	0.075608484
43	0xbc4894b1	-0.012242482
44	0xbd66c7e1	-0.056342963
45	0x3d83b9b7	0.06431907
46	0xbce29025	-0.027656624
47	0x3c27fe79	0.010253542
48	0x3dc03b85	0.093863524
49	0xbd0465e7	-0.032323744
50	0x3d3f9e4a	0.046781816
51	0xbd3c2ffa	-0.04594419
52	0x3c894da0	0.016760647
53	0xbdd703eb	-0.10498794
54	0x3c9d7240	0.019219518
55	0xbcd64bbf	-0.026159165
56	0xbd64170f	-0.055686053
57	0x3dd8d4df	0.10587477
58	0x3cf121c1	0.02943504
59	0x3d59f7c5	0.053214807
60	0xbd0e17d7	-0.034690704
61	0x3d9cb939	0.07652516
62	0xbd62b73b	-0.055350523
63	0x3cfe8971	0.031071397
64	0xbd0a0108	-0.03369239
65	0x3d775401	0.060382847
66	0xbd916c1f	-0.071007006
67	0xbd13a787	-0.03604844
68	0x3d808261	0.06274868
69	0x3d484866	0.04889717
70	0xbdcbc621	-0.099498995
71	0x3da53fdf	0.08068823
72	0x3d45428f	0.04815918
73	0x3da2707f	0.07931613
74	0xbd3b2601	-0.04569054
75	0x3d9eaca1	0.0774777
76	0x3dbf2a91	0.09334291
77	0x3dd93a05	0.106067695
78	0xbdc1289a	-0.09431572
79	0xbda95c77	-0.082695894
80	0x3d00dd2f	0.031460937
81	0xbda08019	-0.07836933
82	0xbdcf3a4b	-0.101185404
83	0x3c81f85f	0.015865503
84	0xbdb631e1	-0.088962324
85	0xbc340ff6	-0.0109901335
86	0xbd7d5e11	-0.061857287
87	0xbd965399	-0.07340164
88	0xbdc9226f	-0.09821021
89	0xbda614f7	-0.081094675
90	0xbdae4eff	-0.08511161
91	0x3dc4ab45	0.096029796
92	0x3ddfc0df	0.10925459
93	0xbd832ea1	-0.06405378
94	0xbda6b799	-0.08140487
95	0x3dc0448f	0.093880765
96	0xbd9261d7	-0.07147568
97	0x3d97e3e1	0.07416511
98	0x3d72f5ef	0.05931657
99	0x3ca04cc1	0.01956785
100	0xbd18da7f	-0.03731775
101	0xbdd7b1f5	-0.105319895
102	0xbc6a497f	-0.014299749
103	0xbd118c29	-0.035534058
104	0x3dc11d20	0.09429383
105	0x3c70f2bf	0.014706313
106	0x3c62766b	0.013822178
107	0xbd9bbedf	-0.07604765
108	0xbd954a59	-0.07289571
109	0x3de0e901	0.10981942
110	0xbd50bc3f	-0.050960775
111	0x3de1e481	0.11029912
112	0x3d8849c1	0.066546924
113	0xbcf8c2cf	-0.03036633
114	0x3db3db3a	0.087820485
115	0xbdaf5e3a	-0.08562894
116	0x3da51aa1	0.0806172
117	0xbd87b318	-0.06625956
118	0x3d25c341	0.04046941
119	0xbc49609f	-0.012291103
120	0xbdd8e465	-0.10590438
121	0x3dc070ca	0.09396513
122	0x3d78d961	0.060754184
123	0x3d9c42e1	0.07629944
124	0xbdc1602a	-0.0944217
125	0x3d1376cf	0.036001977
126	0xbd8e485f	-0.069473974
127	0x3daa0fe0	0.08303809
128	0xbc73d921	-0.0148833105
129	0xbd168139	-0.03674433
130	0xbd24c3b1	-0.04022569
131	0xbcd1c625	-0.025607178
132	0xbcc5fe36	-0.024169069
133	0xbdcb5556	-0.09928386
134	0xbdb22256	-0.08697955
135	0xbdde06eb	-0.10841163
136	0x3d3cfb00	0.04613781
137	0xbcb71096	-0.022346776
138	0xbcd5dcff	-0.026106356
139	0xbd238259	-0.03991923
140	0xbdde20e5	-0.10846118
141	0xbd6c3221	-0.057664994
142	0x3be8e0d0	0.007106878
143	0xbdd8bc2f	-0.10582768
144	0xbc8c1c17	-0.017103238
145	0xbc5dbfab	-0.013534467
146	0xbd717c3f	-0.05895638
147	0xbd40263a	-0.046911456
148	0xbd0912b8	-0.033465117
149	0xbd4dd0ff	-0.050248142
150	0xbdc6732b	-0.09689935
151	0xbd33ffa6	-0.043944977
152	0xbc708921	-0.014681132
153	0xbddda43f	-0.10822343
154	0x3d20c501	0.039250378
155	0xbda15107	-0.07876783
156	0xbd973ba1	-0.0738442
157	0xbda56729	-0.08076317
158	0xbd8e47f7	-0.0694732
159	0xbda80139	-0.08203358
160	0xbc0955f8	-0.008382313
161	0xbd9d3f7f	-0.076781265
162	0xbc800229	-0.01562603
163	0xbc9307c9	-0.017948048
164	0xbcced151	-0.025246294
165	0xbd43d5e1	-0.047811393
166	0xbc3b3eff	-0.011428594
167	0xbd21e4e7	-0.03952494
168	0xbd8e6547	-0.06952911
169	0x3d162287	0.03665402
170	0xbdc6d5ef	-0.09708773
171	0xbda10b59	-0.078634925
172	0xbd327fdf	-0.04357898
173	0xbddd0a4b	-0.10792979
174	0xbcf76b71	-0.0302026
175	0xbce5afe1	-0.028037967
176	0xbc96a430	-0.018388838
177	0x3d0028b1	0.031288806
178	0xbd80f127	-0.06295996
179	0xbcc8d13a	-0.02451383
180	0x3bebcbf0	0.007195942
181	0xbd03022f	-0.031984504
182	0xbd92f789	-0.0717612
183	0xbd49f276	-0.049303494
184	0xbc5d56e5	-0.013509487
185	0xbd7a8200	-0.061159134
186	0xbd8328c1	-0.064042576
187	0xbca90aa7	-0.020634962
188	0xbd9a3331	-0.07529295
189	0xbdc30485	-0.095223464
190	0xbda82319	-0.08209819
191	0xbdd1d20b	-0.10245141
192	0xbd3437f1	-0.043998662
193	0x3d0ea217	0.03482255
194	0x3c924d68	0.017859176
195	0xbcc93c4f	-0.02456489
196	0x3cd7a471	0.026323529
197	0xbc938ea8	-0.01801236
198	0xbd1b54df	-0.037922736
199	0xbc4bbcb1	-0.012435124
200	0xbc4ce500	-0.01250577
201	0xbc6a029f	-0.0142828515
202	0xbb7a8720	-0.0038227513
203	0x3d025988	0.031823665
204	0x39202300	0.00015271828
205	0x3d48cf5a	0.04902587
206	0xbcf3c6af	-0.029757826
207	0x3c6482bf	0.013947188
208	0xbc35e760	-0.011102527
209	0xbc680bc0	-0.014162958
210	0x3ce239af	0.027615396
211	0x3d475496	0.04866465
212	0xbcafbaba	-0.021451343
213	0x3c2edf81	0.010673405
214	0x3b9fc4e7	0.0048757675
215	0xbc7ff061	-0.015621276
216	0x3cd4bcfb	0.02596902
217	0x3c507985	0.012724285
218	0x3b563f40	0.0032691509
219	0xbce2244f	-0.027605204
220	0xbc81e55f	-0.015856443
221	0xbd20b357	-0.03923353
222	0xbd3fdb71	-0.046840135
223	0x3d1fb077	0.03898665
224	0xbbe1daf0	-0.0068925545
225	0x3cfbfac0	0.030759215
226	0x3d0a4818	0.03376016
227	0x3d0c7891	0.03429467
228	0xbc73c3ff	-0.014878272
229	0x3d01ceaf	0.03169125
230	0xbccc8bfb	-0.024969092
231	0x3caace8f	0.020850448
232	0x3d4bed31	0.04978675
233	0x3d1b800f	0.037963923
234	0xbc299299	-0.010349893
235	0xbd4ee5d1	-0.05051214
236	0xbd1de8df	-0.03855216
237	0x39342f00	0.00017183647
238	0x3d44a76f	0.04801124
239	0x3c7175f0	0.014737591
240	0xbd426111	-0.04745585
241	0x3d36074a	0.044440545
242	0xbbd73ce5	-0.0065685385
243	0xbd3d7a80	-0.046259403
244	0x3d0050df	0.031327125
245	0x3d37421f	0.044740792
246	0xbd0cd9f7	-0.034387555
247	0x3d03aca8	0.03214708
248	0x3d3d2586	0.046178363
249	0x3d42abcf	0.04752713
250	0x3d48c15f	0.049012538
251	0xbc4f5abb	-0.012655909
252	0x3caa329f	0.020776091
253	0x3d1fbc30	0.03899783
254	0xbc8ae207	-0.016953481
255	0xbb7f6300	-0.003896892

linear0.bias f4 [32]
0	0xbdd85dbf	-0.10564756
1	0xbe80cd80	-0.25156784
2	0xbc73f1ef	-0.014889224
3	0xbe8ee581	-0.27909473
4	0xbd43782f	-0.047722038
5	0xbddc4b25	-0.1075652
6	0xbcb8e636	-0.02257071
7	0x3eda3eda	0.42626077
8	0xbe23884f	-0.15969966
9	0xbdbb005a	-0.091309264
10	0xbee6df11	-0.4509206
11	0xbe8445b7	-0.25834438
12	0xbe8cce1f	-0.27501008
13	0xbece94d0	-0.4034791
14	0xbd80c649	-0.0628782
15	0xbe64064f	-0.22268032
16	0xbe902dd1	-0.28159955
17	0xbca082e1	-0.019593658
18	0xbe4b6b86	-0.19865236
19	0xbdb82ec0	-0.08993292
20	0xbd9eb027	-0.07748442
21	0xbc325c66	-0.010886287
22	0xbd1894c0	-0.037251234
23	0x3e1bf496	0.15230021
24	0xbdc198ef	-0.09452998
25	0xbe21dc5f	-0.15806721
26	0xbb891c48	-0.0041842796
27	0xbd5f5f8f	-0.05453449
28	0xbd7c7b3f	-0.061640974
29	0xbdabf73a	-0.08396764
30	0xbe7920cf	-0.24328922
31	0xbe79de0f	-0.24401115
