model/1714141768/0_Claranet_global_model_0.pth (torch, 331244 bytes, 17 tensors)

conv1.lin_l.weight f4 [16, 1]
000000 71 2a 22 bf ee 0a 5e bc ff 73 32 bf 91 ff 26 bf
       -0.6334601 -0.0135524105 -0.69708246 -0.65233713
000010 e1 4e 00 bf 77 83 8c 3e 11 0e 56 bf dd c0 1b be
       -0.5012036 0.2744405 -0.83615214 -0.1521029
000020 d7 b5 22 bf ae 3f aa 3d 38 5f 88 be 8c 2c 61 bf
       -0.63558716 0.08312927 -0.26635146 -0.879586
000030 e9 cc 37 3d 3f a2 f8 be 50 f1 c5 3e 61 8f e8 be
       0.044873152 -0.48561284 0.3866067 -0.4542189

conv1.lin_l.bias f4 [16]
000000 07 cb 1e be f4 3d 18 3f bf cd 8a bf 5a c6 be 3e
       -0.15507136 0.5946953 -1.0844039 0.37260705
000010 1b 0d e3 3e a4 9a 93 be b5 bd 51 bf ac 75 c9 3e
       0.44345936 -0.2882892 -0.81930095 0.3934759
000020 ff cb 2a 3f b4 b1 32 bf 8f e3 21 3f 38 70 71 bf
       0.66717523 -0.69802403 0.6323785 -0.9431186
000030 bd 12 fc 3e 50 7c 84 be 19 84 cb be d0 53 d9 bd
       0.49233046 -0.25876093 -0.3974922 -0.10611689

conv1.lin_r.weight f4 [16, 1]
000000 d1 bd 7f bf 06 09 00 bf 83 4d 39 3e b1 4b 5b bf
       -0.9989901 -0.5001377 0.18095975 -0.8566237
000010 11 6b a5 be f7 e4 18 3f 1a 56 38 bf 95 c9 ea 3d
       -0.32308248 0.5972437 -0.7200638 0.1146423
000020 8f ee f9 be ca d3 51 bf 2b 62 57 bf 4c d5 d8 3d
       -0.48814818 -0.8196379 -0.8413417 0.10587558
000030 77 c4 45 bf e6 b7 4b bf 39 62 89 be 80 34 65 bd
       -0.77252907 -0.7957748 -0.2683275 -0.05595827

conv2.lin_l.weight f4 [64, 16]
000000 b1 99 ac bd 5f 13 0f 3e 9f b9 b8 bc a8 91 0f 3e
       -0.08427752 0.13972233 -0.022549449 0.14020407
000010 88 3a 0a bd 81 04 62 bd f0 47 17 be d0 2f c8 3d
       -0.033747226 -0.055180077 -0.14773536 0.097747445
000020 5f 6a fc 3d 2f 9a 3e 3d 27 c1 06 be 17 45 0f 3e
       0.12324976 0.04653376 -0.1315962 0.139912
000030 a9 5e 9d 3d 89 2e 24 3e 9f 3d c3 be 51 2e 42 be
       0.076840706 0.16033377 -0.3813295 -0.18962981
000040 47 96 17 3e c7 e1 93 be 41 ad a4 3d f1 6e 2d 3e
       0.1480342 -0.28883192 0.08040858 0.16936852
000050 2f 3d 90 3d 31 a4 49 3d 61 3d a1 bd 38 c6 86 be
       0.0704292 0.04922885 -0.07873035 -0.26323104
000060 75 f1 56 3e ef e9 88 be e1 67 72 be 97 ce 9c bd
       0.20990546 -0.26740977 -0.23672439 -0.076565914
000070 81 17 61 be a0 61 1b be 17 2b 99 be af 1f e4 bd
       -0.21981622 -0.1517396 -0.29915687 -0.11138856
000080 21 e9 85 bd 56 0c b7 bd 5f 51 25 3e e0 79 60 bc
       -0.065386064 -0.089379 0.16144322 -0.013700932
000090 40 88 bc 3b df 83 de bb a5 58 e2 3d c1 6c 14 3e
       0.005753547 -0.0067906226 0.11052064 0.14494611
0000a0 26 f3 b6 3d ef 7e ca bd c0 a1 23 bc 45 66 c2 3d
       0.08933096 -0.09887492 -0.009987295 0.094921626
0000b0 c7 05 8a bd 81 d2 04 be 20 05 96 be 60 d2 48 be
       -0.06739383 -0.12970926 -0.29300785 -0.19611502
0000c0 af 3e f8 3d af a2 6a be cf 22 c9 bd 51 57 e8 3d
       0.12121331 -0.22913621 -0.09821092 0.11344779
0000d0 bf 00 e9 3d 09 92 90 be 80 2a 91 3c 77 5c 1e be
       0.113770954 -0.28236416 0.01772046 -0.1546496
0000e0 b0 fc be 3c 5a ef b6 be c1 80 22 3e 40 de 86 bc
       0.02331385 -0.35729486 0.15869428 -0.016463399
0000f0 df 2e aa be 5a ce 3f 3e c0 a3 d5 3d 71 b9 fe bd
       -0.33238885 0.1873106 0.104316235 -0.12437714
000100 8f 6e 43 3e 35 22 de 3d e6 1a 3a be e7 51 a8 3d
       0.19085144 0.10846368 -0.18174323 0.08218747
000110 a0 d9 53 bc f0 2b 5e be 50 09 2f 3e ff bf a6 be
       -0.012930304 -0.21696448 0.17093396 -0.32568356
000120 6f f4 1f 3e 51 d1 72 be 00 bc 7e 3e e1 6c 80 bd
       0.15620588 -0.2371266 0.24876404 -0.06270767
000130 91 d3 1d be c1 17 23 be ef 7a a3 be 81 48 39 be
       -0.15412737 -0.1592703 -0.31929728 -0.18094064
000140 ea 9d 48 be 41 f9 8e bd 3f c6 84 be 41 8a f4 bd
       -0.1959149 -0.06981135 -0.259325 -0.11940432
000150 41 a0 75 3e f8 3b 13 be b0 87 de bd 0a 5b 2b bd
       0.23986913 -0.14378345 -0.10865724 -0.04183487
000160 c1 47 74 3e df 99 72 be bf 38 1b 3e ef fa c2 be
       0.23855497 -0.2369151 0.15158366 -0.38082072
000170 d9 c7 a9 be f0 ea e8 3c 31 49 e6 be 90 36 00 be
       -0.33160284 0.02843234 -0.44977716 -0.12520814
000180 21 68 53 be 0e 2d a2 bd c5 7a da bd c0 86 9e 3b
       -0.20645191 -0.0791875 -0.10667948 0.004837841
000190 01 f7 51 be 1a 67 9e be e1 83 22 be c5 fd 8c be
       -0.20504381 -0.30938035 -0.1587062 -0.2753736
0001a0 a0 d8 1c 3c 71 5a 1c 3e 21 42 4a be 1a cf 2c 3e
       0.009573132 0.15268876 -0.19751789 0.16875878
0001b0 d8 76 34 3e 0f 5b 7e 3e c0 b4 0c be f0 73 e0 3c
       0.1762346 0.24839424 -0.13740826 0.027399033
0001c0 11 b3 e3 3d 0f a7 51 be 4f c7 e9 bd ef 91 c8 bd
       0.111181386 -0.20473884 -0.11414968 -0.097934596
0001d0 00 b4 0e 3e 81 53 0c be 21 70 2b be cf 28 91 be
       0.13935852 -0.13703729 -0.16741993 -0.28351447
0001e0 df c2 e7 bd 21 5c bc bc 6f f2 3c be 97 a4 84 be
       -0.113164656 -0.02299315 -0.18451856 -0.25906822
0001f0 a1 17 ae bd c1 83 cb bd 4f a0 4d be 81 0e 18 be
       -0.085006006 -0.099372394 -0.20080684 -0.14849283
000200 d0 67 f0 bc f0 c5 30 3d c1 82 01 be 5a 91 c2 bd
       -0.029346377 0.043157518 -0.12647535 -0.0950038
000210 70 02 07 3e df 2c 07 be bf 44 7b be 1f e8 f2 3d
       0.13184524 -0.1320071 -0.24537943 0.1186068
000220 f1 a2 d7 3d c5 92 54 3e 01 00 c4 3d 00 2c d8 bb
       0.105291255 0.20759113 0.09570313 -0.006597042
000230 41 00 7f 3d f1 dc 52 3e a0 4a 09 bc 21 24 1c be
       0.0622561 0.20592095 -0.008379608 -0.15248157
000240 10 a9 4a bd fa b3 37 be 17 f4 97 3d 71 36 91 3d
       -0.049477637 -0.1793975 0.07419603 0.07090462
000250 9a 3a 4b be a1 f0 67 be 6b 0f 5e be 7f 1a e3 bd
       -0.19846573 -0.22650386 -0.21685569 -0.11089038
000260 d0 e0 03 3d 6b 3c d3 3d bf e3 76 be f9 3e 9d be
       0.03219682 0.10314258 -0.24110316 -0.30712107
000270 26 4c bd 3d a1 6b 71 3e 5f 8d ec 3d 00 82 15 3d
       0.0924304 0.23576213 0.11550402 0.03650093
000280 70 d5 83 bd 70 94 cc bc 91 15 08 3e 01 6d 15 3e
       -0.06437194 -0.024973124 0.13289477 0.14592363
000290 e6 75 45 bd bf 1b 4d be 70 41 ed bd 06 24 31 3e
       -0.04820814 -0.20030116 -0.11584747 0.17298898
0002a0 41 17 00 be 0f 5f 82 3d 05 45 cf 3d 10 53 fc bd
       -0.1250887 0.06365787 0.10120586 -0.123205304
0002b0 1a 8b 2e be bf e5 57 3e 1a d7 2f 3e 50 e2 29 bd
       -0.1704525 0.21083735 0.17171898 -0.041475594
0002c0 a1 da 45 be d1 ce 31 be 00 24 eb 3c 50 64 fe 3d
       -0.19321682 -0.1736405 0.02870369 0.12421477
0002d0 21 38 5f 3e 1a 7b b5 3d 60 fa 62 3c 66 76 24 be
       0.21798755 0.088613704 0.013853639 -0.1606079
0002e0 b1 a5 18 3e a7 d5 9f 3a 4f d7 72 be 3b ff c0 bd
       0.14906956 0.0012194411 -0.23714946 -0.09423681
0002f0 b1 bd 8b bd 30 b4 8c 3c bc c8 9e be 86 b5 4b be
       -0.0682329 0.017175764 -0.31012523 -0.19893464
000300 cf b7 48 be 95 a0 0f be 4f 9f 9b bc 0f 93 ff bd
       -0.19601367 -0.14026101 -0.018996863 -0.12479221
000310 a5 78 57 3e a9 8e dc bd e0 9e 14 3d 70 ff 29 be
       0.21042116 -0.10769398 0.036284328 -0.16601348
000320 8f 84 02 be 0a 1a af bd cf b3 06 3e 19 b8 19 3d
       -0.1274588 -0.085498884 0.13154529 0.037529085
000330 f8 04 ca 3d e5 cb 56 3d 8d 8e 11 3e a0 58 c1 3c
       0.09864229 0.052440543 0.14214535 0.02360183
000340 61 61 7a bd ae 47 04 be 81 66 fb bc 11 af 24 3e
       -0.061128024 -0.12917969 -0.030688526 0.16082408
000350 51 ac c3 3d 8a 46 89 3d a0 82 24 be a6 2e ac 3c
       0.09554351 0.067029074 -0.16065454 0.021018337
000360 cf 5f 35 3e b9 29 09 3e f6 1e 32 be 2f 29 af bd
       0.1771233 0.13394822 -0.17394623 -0.08552777
000370 b0 40 af 3c 90 d7 11 bd b5 e9 b2 3c f0 3c 89 3d
       0.02139315 -0.035605967 0.021839956 0.06701076
000380 1f cc 41 3e e7 6c a2 3d 86 52 3a 3e f0 80 fe 3d
       0.18925522 0.07930928 0.18195543 0.124269366
000390 10 ec 58 be 19 31 0c be d0 4a 60 3e 10 fa 99 bc
       -0.211838 -0.13690604 0.21903539 -0.018795997
0003a0 b7 63 0c be af 7a 6d 3e e0 a8 e9 3c 11 0f 0c be
       -0.13709913 0.23191331 0.028522909 -0.13677622
0003b0 1b 1e 5f be 40 41 e3 bb 2f 33 8a 3d 65 da 54 bd
       -0.21788828 -0.0069352686 0.06748044 -0.05196609
0003c0 71 b6 14 3e c7 cc 8b 3e 21 ac 0f 3e d0 47 3b 3e
       0.14522721 0.2730467 0.14030506 0.18289113
0003d0 e1 79 f3 3d 51 18 c3 3c 80 3a 82 bc ff 02 5e 3c
       0.11888481 0.023815306 -0.015897036 0.013550519
0003e0 cf 51 64 be 57 69 8b 3c 01 c4 ed 3d a7 2f 9c 3c
       -0.22296833 0.017018003 0.116096504 0.019065691
0003f0 ff 80 0c bc e1 0d cc 3d 35 3f 5a 3d 00 ff e5 3b
       -0.008575677 0.09963585 0.053282935 0.0070189238

conv2.lin_l.bias f4 [64]
000000 99 e6 96 bd 5f ee f7 bd d9 25 a6 be 76 74 bb be
       -0.07368202 -0.121060126 -0.3245075 -0.3661229
000010 0f ac dd bd 8f 1b b2 be 5f cf 2a 3e ff 1e 4d 3d
       -0.10823833 -0.3478665 0.16680668 0.05007839
000020 e0 d7 50 3d 60 49 4e be 90 96 4f 3d 1e 15 06 3d
       0.050987124 -0.20145178 0.050680697 0.032734983
000030 bd 13 fa 3d 1e f8 a1 3c af 9d 56 be af fb 75 be
       0.12210796 0.019771632 -0.20958589 -0.24021791
000040 67 99 9e bd 3f 83 6c be a0 e6 95 be a7 50 9a be
       -0.07744103 -0.23096941 -0.29277515 -0.30139658
000050 91 9f 71 be 5a f2 ac 3d c5 cf cd bd 1f a6 62 bd
       -0.23596026 0.084446624 -0.100493945 -0.055334207
000060 4a 8a 2f 3e 11 b2 1d be d0 57 02 3e 21 1d ca bd
       0.17142597 -0.15399958 0.1272881 -0.09868837
000070 77 31 88 be 81 9c b5 3d 61 81 94 be f5 e3 e0 be
       -0.2660024 0.088677414 -0.29004958 -0.43923917
000080 bf 55 5a be 25 27 45 3e 55 ae df bd e7 68 28 be
       -0.21321772 0.19253214 -0.10921923 -0.16446267
000090 7f 69 9b be e9 3e 21 3e f0 81 30 3e 50 6e e4 3d
       -0.30353925 0.15746655 0.17237067 0.11153853
0000a0 a7 18 22 bd 7b 52 db bd 78 f1 07 bc 69 62 16 be
       -0.03957429 -0.10709091 -0.008297317 -0.14685978
0000b0 27 78 e5 bd c5 dc cf bc f0 1e 53 be 80 a5 c6 be
       -0.11204558 -0.025373826 -0.2061727 -0.3879814
0000c0 a7 f0 a1 be 86 77 b5 be e0 ab 2b 3d a5 ff 56 be
       -0.31628916 -0.35442752 0.04191196 -0.20995958
0000d0 b1 24 ac bd 00 77 a9 bd 5d 93 1c 3e 9a af bc 3d
       -0.08405436 -0.082746506 0.1529059 0.09213181
0000e0 c1 69 b0 be b1 f5 40 3e 7f fe f9 bd 9a a6 3a be
       -0.34455684 0.18843724 -0.122067444 -0.18227616
0000f0 cf a2 b9 3d c0 a8 9b 3d e2 3d 1f 3e 29 7f 95 3c
       0.090642564 0.07600546 0.1555095 0.018249111

conv2.lin_r.weight f4 [64, 16]
000000 d0 f6 22 be 11 fe c3 3d 0f 00 97 be a1 ea a6 3d
       -0.15914464 0.09569944 -0.29492232 0.08150221
000010 4f 63 13 be 5f af 83 3d 37 13 26 3e 6a 69 4c be
       -0.14393352 0.06429934 0.16218267 -0.19962087
000020 9f a4 06 be 57 33 00 3e c6 88 b7 bd 8f a8 25 be
       -0.13148735 0.12519585 -0.08961634 -0.16177581
000030 6f 56 22 be 5a 15 35 be 08 0b 0a be ff e1 04 3e
       -0.15853284 -0.17683926 -0.1348077 0.12976836
000040 40 e2 0f bd 01 77 85 be 09 be 90 be a0 dc 8a 3c
       -0.03512788 -0.26067355 -0.28269985 0.016950905
000050 60 c6 06 3e ff ed 1a be c1 fb 27 be ef c4 a3 3c
       0.13161612 -0.15129851 -0.1640463 0.019991366
000060 9f c6 29 3e e5 42 d6 bd 26 00 c7 bd a9 6a 18 3d
       0.16579674 -0.10461978 -0.09716825 0.037211094
000070 8f 6f 88 be cf 95 24 be a7 c1 8b 3d f1 46 0d 3e
       -0.26647612 -0.16072772 0.06824046 0.13796593
000080 41 14 e6 3d b1 c7 27 3e 21 e3 3f 3e 91 10 01 3e
       0.11234332 0.1638477 0.18738987 0.12603976
000090 71 13 20 3e f1 49 e3 ba 40 23 85 3d 21 f9 79 bd
       0.15632416 -0.0017340762 0.06500864 -0.061028603
0000a0 91 5a 3c 3e 90 1d c0 bd c0 f3 63 be 6f e5 76 3e
       0.18393923 -0.093806386 -0.22260952 0.2411096
0000b0 51 ab 60 3e 0a 24 49 be 90 55 b7 bd 9f 9e 60 be
       0.21940352 -0.19642654 -0.089518666 -0.21935509
0000c0 60 cf 40 3d 20 c0 73 3d fb f8 ca bd 7b 2b 50 bd
       0.04707277 0.059509397 -0.099107705 -0.050822716
0000d0 11 f3 be 3d 71 16 dc 3b 25 b2 5a 3e e1 30 9a be
       0.09323705 0.0067165424 0.21357019 -0.30115417
0000e0 50 7d 45 3e e1 22 73 be 1f 4a 96 bd 45 bf dd 3d
       0.19286084 -0.23743774 -0.07338356 0.108274974
0000f0 50 67 ce bc e5 ea 53 3d 8f 61 0b be 91 e2 a3 bd
       -0.025195748 0.051737685 -0.13611434 -0.080021985
000100 00 8f af 3c 00 cb 09 3d 41 6f 71 be a6 3a 32 bd
       0.021430492 0.03364086 -0.23577596 -0.043512963
000110 11 e0 ef 3d bf 1d d5 3d d9 94 0a be 6f bb fd 3c
       0.11712659 0.10406064 -0.13533343 0.030973164
000120 80 f7 65 3b 31 6f 29 3c 38 82 89 3d 56 0f ad 3d
       0.0035090148 0.0103414515 0.067142904 0.08450191
000130 f7 e5 a5 3d 9f c6 71 be 81 64 35 bd ef e1 8a 3d
       0.08100503 -0.23610924 -0.0442853 0.06781375
000140 af f8 09 be df 01 07 bf e1 a4 0e be a6 6f 45 3d
       -0.13473772 -0.5273723 -0.13930084 0.04820218
000150 b8 87 08 3d 71 06 93 be 10 0a 26 3e 01 59 02 bf
       0.033332556 -0.28715852 0.16214776 -0.5091706
000160 f8 fb 1b be 51 b5 02 bf 30 e1 79 be a6 bb b9 be
       -0.15232837 -0.51057917 -0.24402308 -0.36275977
000170 4f a4 e0 be 21 85 03 be 45 de 43 be 60 b4 de bd
       -0.43875358 -0.12843753 -0.19127758 -0.108742476
000180 a8 b7 9c bd ef 02 67 be 3b 8a d5 bd b7 57 1d 3e
       -0.07652217 -0.22559713 -0.10426756 0.15365492
000190 df 72 40 3e d8 3d ea 3d 48 42 96 bd 19 4d 07 3e
       0.1879382 0.11437577 -0.07336861 0.13213004
0001a0 07 cf 21 be bf ce 16 bd 3f 93 57 3e 10 ef 60 be
       -0.15801631 -0.036818262 0.21052264 -0.21966195
0001b0 c5 6d d4 3d 00 ca 2f 3a 8b dc db 3b ff 54 6b be
       0.103724994 0.00067058206 0.0067096404 -0.22981642
0001c0 81 58 6e 3e 11 04 90 be b1 ec 73 be c1 10 c2 bd
       0.23275949 -0.28128102 -0.2382076 -0.09475852
0001d0 80 88 7f bd 2b fe d4 3c 85 01 5d bd 17 07 0f 3e
       -0.062386036 0.026000103 -0.053956527 0.13967548
0001e0 bf f2 72 be 3f ae f8 3d fa 1d 4b be 85 1a 5b 3e
       -0.23725413 0.1214261 -0.19835654 0.21396835
0001f0 bf 14 7b be c0 f5 eb 3c 5f 8e 5d bd cf 71 e1 bd
       -0.24519633 0.028803706 -0.054090854 -0.110080354
000200 61 d2 bd 3d b1 38 61 3e 81 b5 78 bd 8f 6b 37 be
       0.09268642 0.21994282 -0.06071997 -0.17912124
000210 cf 18 0b be b0 b7 e7 bd f9 91 05 3e f0 58 4f be
       -0.13583682 -0.113143325 0.13043965 -0.2024877
000220 3a f4 3a 3e a7 75 a3 3d 68 41 9a 3d 6f 64 34 be
       0.18257228 0.07981425 0.075320065 -0.17616437
000230 af fe e5 bd c1 67 18 be 05 1b da 3d 30 08 d8 3d
       -0.11230218 -0.14883329 0.10649685 0.10548437
000240 50 79 3e 3e 6a f7 42 bb ef ed 6f 3d d0 08 7f 3d
       0.18600965 -0.002974952 0.05857652 0.062264264
000250 10 a7 60 bd b1 a2 25 3d 2f 15 34 be f1 23 68 be
       -0.054846823 0.040438358 -0.17586206 -0.2266996
000260 60 ef 37 3d 60 3a 84 bc 00 d1 ca 3c b0 de f9 bb
       0.04490602 -0.016141117 0.024757862 -0.0076254234
000270 1a 75 40 be 5b a0 cd bd 71 18 f8 bd a8 b5 0f bd
       -0.1879467 -0.10040351 -0.12114037 -0.03508535
000280 9f 6b b4 bd 8f 2f 4a 3e 6f 75 19 3e 01 3d 70 be
       -0.088095896 0.19744705 0.14986204 -0.23460771
000290 bf 8c c0 3d e1 ac 5c be 30 fd b2 3d cf a2 78 be
       0.09401845 -0.21550323 0.08739698 -0.24280857
0002a0 c8 a2 0f 3d cf c8 1a be c0 88 7c 3e 7f 15 61 be
       0.03506735 -0.15115665 0.24661541 -0.21980856
0002b0 c1 d9 fc bd c1 5a 71 3e 9a f7 46 bd e1 14 7a 3e
       -0.12346221 0.23569776 -0.048575975 0.24422027
0002c0 a5 2f 60 bd f5 54 0c 3e 91 40 79 be e0 76 30 3d
       -0.054732937 0.13704284 -0.24341036 0.043082118
0002d0 f0 1e 86 3d b4 a5 81 bd b1 22 fe bd fc 96 6e be
       0.065488696 -0.063304335 -0.124089606 -0.23299783
0002e0 c5 b2 e1 3d 11 4c af bd 3a 83 30 3e 2a e4 37 3e
       0.11020426 -0.085594304 0.17237559 0.17958131
0002f0 1f 80 1a 3e 20 2e 97 3d f3 90 44 be 40 34 33 3e
       0.15087937 0.073818445 -0.19195919 0.175004
000300 06 c2 3c be 21 6b 38 bc 2a 1d b7 bd a0 1e 1b 3e
       -0.18433389 -0.01125601 -0.089411095 0.15148401
000310 5f d1 1d 3e 56 79 40 be 67 b9 24 3e 59 91 b5 3d
       0.154119 -0.18796286 0.1608635 0.088656135
000320 ef ac a5 3d f1 52 f6 bd 7f 32 1f be df 85 6b be
       0.08089625 -0.120275386 -0.15546606 -0.23000287
000330 af c3 36 be 4f f7 51 be 40 24 cc 3c 4f f3 36 3e
       -0.17848085 -0.20504497 0.02491963 0.17866252
000340 2b 27 62 3e d1 11 0b be bf b6 02 be 9f 54 61 3e
       0.22085254 -0.13581015 -0.12765025 0.22004937
000350 30 ea bc 3c 1e 4b 89 bd c0 3c 00 3e 42 1c 45 be
       0.023060888 -0.067037806 0.12523174 -0.19249061
000360 f1 37 31 be 8f 4c 11 be 5a c8 c1 bd 99 36 8c 3d
       -0.17306496 -0.14189361 -0.09462042 0.06846351
000370 6f a9 02 be 6f 19 7c 3e 32 f1 4e be b0 88 11 be
       -0.12759946 0.24619077 -0.20209196 -0.14212298
000380 66 67 33 3e 41 9e 74 3e 71 96 6e be da 35 47 be
       0.17519912 0.23888494 -0.23299576 -0.19454136
000390 47 c5 00 be 81 53 c5 bd 80 67 5a be 25 0f d3 3d
       -0.12575255 -0.09635068 -0.21328545 0.10305623
0003a0 58 40 92 3d a0 fe 9a 3d d0 c8 5a 3d 11 ef 68 3e
       0.07141179 0.07568097 0.053414166 0.22747447
0003b0 18 c1 94 bd 36 98 33 be 86 3d 43 3d 80 c9 19 3e
       -0.07263392 -0.17538533 0.047666095 0.15018272
0003c0 50 77 61 be 0f ae 91 bd 0f 78 19 bb c1 21 65 3d
       -0.2201817 -0.07113277 -0.0023417508 0.055940393
0003d0 e0 11 96 bc 5f 32 9c bd 80 ce 65 3b 35 41 57 3d
       -0.01831907 -0.07626795 0.003506571 0.05255242
0003e0 20 68 0f bd 6f 86 c8 bd 25 c1 e2 3d 91 8a 47 3d
       -0.03501141 -0.09791266 0.11071996 0.04871613
0003f0 7f 76 4c 3e a0 d9 94 3d 41 86 0b be 30 7e b2 bd
       0.19967078 0.07268071 -0.13625433 -0.087154746

lstm_cell.weight_ih f4 [256, 192]
000000 7f 5b 00 3e 30 ff 3c 3e b1 47 91 bd 08 3e 99 3c
       0.12534903 0.18456721 -0.07093752 0.018706337
000010 89 37 29 3d 06 31 39 be c1 a8 3a 3d b7 63 8b 3d
       0.041312728 -0.18085107 0.045571093 0.068061285
000020 9b 15 d4 bd ef f2 ce bc a6 f1 b3 3d ac 10 11 3e
       -0.103556834 -0.025262324 0.08786325 0.14166516
000030 e3 1d 0b 3e 16 41 4b 3e 80 dd b0 3b 21 73 4f be
       0.1358562 0.19849047 0.0053974986 -0.20258762
000040 b7 4f 1c 3d 11 07 2c 3e 2f 65 43 bc 02 eb fd 3d
       0.03816196 0.1679957 -0.0119259795 0.1239834
000050 c5 b2 e0 3d 81 27 27 3c 16 8a 2d 3d 7f c2 71 3d
       0.109715976 0.01020229 0.042368017 0.059023377
000060 20 ad 12 bd ff 62 fc 3d 41 be ee 3d 3a ae 34 3e
       -0.035809636 0.123235695 0.11657382 0.17644587
000070 b1 8c 3f bd b4 39 b9 be ef 97 44 3e b6 83 47 bd
       -0.046765033 -0.36176836 0.19198583 -0.048709594
000080 30 71 3c bc f4 34 3a 3e c6 3d 4a be 99 d9 21 3e
       -0.011501595 0.18184263 -0.19750127 0.15805663
000090 81 94 86 3c b1 2d fe bd bf c3 26 3d 58 30 0f bd
       0.016428234 -0.12411059 0.04071402 -0.034958214
0000a0 cf 93 0f be 00 34 ce 3d bf f1 c7 3d 48 2d 0b 3e
       -0.14021228 0.10068512 0.09762906 0.13591492
0000b0 ad 2a 49 3e a1 9c 35 bc b7 1f a1 3d 50 dc 3d bd
       0.19645186 -0.0110847065 0.07867377 -0.046352684
0000c0 3a 54 3a ba 30 1e 51 bc 5f d5 21 bd 8b eb d8 3d
       -0.00071078876 -0.012763545 -0.039510127 0.10591801
0000d0 31 be a9 3d 57 71 1e 3e 9b 01 44 3e 9b 71 49 39
       0.08288229 0.15472923 0.19141237 0.00019211175
0000e0 40 66 f0 3d 71 a8 28 3e 61 bc b0 ba c1 15 5b 3e
       0.11738253 0.16470505 -0.0013483876 0.21395017
0000f0 4f ac 1b 3e 02 06 f0 3d 01 8c 63 bd a1 a7 97 3d
       0.1520245 0.11719896 -0.05555344 0.074050196
000100 a9 df 83 bf 06 36 5a 40 20 53 29 40 f8 61 36 40
       -1.0302631 3.4095473 2.6456985 2.8497295
000110 43 c3 12 40 a9 d3 b6 40 62 df e5 40 6f ad b9 bd
       2.2931678 5.7133374 7.1835184 -0.09066283
000120 c1 fb b5 40 9b 25 f3 40 9b 6c f0 40 41 ec d3 40
       5.6869817 7.5983405 7.5132575 6.6225896
000130 c8 ac cb 40 34 d6 d7 40 9f 8e 0c 41 36 d6 f4 40
       6.3648415 6.744898 8.78482 7.651149
000140 61 19 fd 40 a5 6c d9 40 47 43 ef 40 72 36 ed 40
       7.909348 6.7945123 7.4769626 7.412896
000150 cc 64 ed 40 41 28 ac 3d 1c fe 05 41 7f 23 ab 40
       7.4185543 0.08406115 8.374538 5.348083
000160 6e 18 e6 40 31 53 e6 40 f3 8f e0 40 c4 64 01 41
       7.190482 7.197655 7.017572 8.087101
000170 23 6e ea 40 54 2f 55 3b 17 71 49 3d cc d4 89 3d
       7.3259444 0.003252943 0.049180117 0.06730041
000180 b1 1f 44 bd 0c 02 b4 bd 26 3f 2a 3d db 57 fe 3c
       -0.047881786 -0.08789453 0.04156413 0.031047752
000190 af 25 bb 3d 01 1f 2a 3d 15 e8 e2 bd 20 49 96 3b
       0.09138047 0.041533474 -0.110794224 0.004586354
0001a0 01 d8 90 3d 60 f6 fd bb 9f b2 ef bd c1 c3 e5 bd
       0.070724495 -0.0077503175 -0.11703991 -0.11218978
0001b0 00 8f 6c 3b 70 66 02 bd f0 14 6d 3c c0 5b 55 bd
       0.0036095977 -0.031835973 0.014470324 -0.052089453
0001c0 a0 8e 97 bd bf 85 05 3d e0 6b fb bc 00 c3 93 3b
       -0.074002504 0.032598253 -0.030691087 0.00450933
0001d0 e0 66 53 bc 3f 0c a6 bd 06 26 b1 bd b1 83 f6 bd
       -0.012902945 -0.081078045 -0.086498305 -0.12036837
0001e0 ef fe c6 3d c0 5a 3c 3c 86 b9 b7 bd ff 54 e8 3d
       0.097165935 0.011496246 -0.08970933 0.11344337
0001f0 bf 37 ae bd 0f 7a e6 bd 41 1d 43 3d 08 af 90 bd
       -0.085067265 -0.112537496 0.04763532 -0.070646346
000200 41 c6 fe bc 9d c7 fe 3f 0a 38 a4 3f 6b 7c ee be
       -0.031100394 1.9904667 1.2829602 -0.46579298
000210 7b 3e 0b bf d8 6f 15 40 ff 74 d4 3d 4a 0f 57 40
       -0.5439221 2.3349514 0.10373878 3.3603082
000220 4e c1 d4 40 8a e1 ba 40 0e 98 c6 bd ae 4c ec 40
       6.648597 5.8400316 -0.09696971 7.3843603
000230 b0 11 f7 40 e5 f2 f8 40 56 2b d3 3d 24 27 06 41
       7.720909 7.77965 0.10311 8.384556
000240 a3 1f 11 41 3a 8f 00 41 6c 4d f2 40 d4 91 e5 40
       9.070224 8.034967 7.571951 7.1740513
000250 51 45 dc 40 86 c7 ce 40 eb 07 45 3c e2 64 04 41
       6.8834615 6.461856 0.012025814 8.27463
000260 7d d4 ce 40 d9 2d 60 40 f3 6b 6f 3d ac e7 e0 40
       6.4634385 3.5027983 0.058452558 7.0282803
000270 71 ac 84 40 30 bb 09 41 72 d5 de 3d 6e 26 5c 3d
       4.14605 8.6082 0.10880555 0.053747587
000280 36 98 67 3d b3 4a 9f 3d 5b af e5 bd 48 64 5b bd
       0.056541644 0.077779196 -0.11215087 -0.053562433
000290 50 ad bc bd b5 c3 ba bd 95 ef 84 bc ff 6b ec bd
       -0.09212744 -0.091193594 -0.016227523 -0.11544036
0002a0 8f ca 49 3d df 34 ea 3d ff 2f 91 3d bf ee 24 bd
       0.04926544 0.114358656 0.07089233 -0.04026675
0002b0 11 3c 02 bd 65 75 59 3d bf e1 b6 3d d0 16 c4 bd
       -0.031795565 0.05309047 0.089297764 -0.09574664
0002c0 49 f8 a6 bd 8f a3 3d bd 98 f4 8e bd a6 ba 2c 3d
       -0.081528254 -0.04629856 -0.06980246 0.04217019
0002d0 e1 7b f8 bd 50 58 b9 3d 40 fe 3e bb 71 62 e3 3d
       -0.12133003 0.090500474 -0.0029143244 0.111027606
0002e0 f1 3b 24 3d 21 4e 83 bd 00 8a 10 bd 66 24 ac bd
       0.040096227 -0.06411386 -0.035287857 -0.0840538
0002f0 59 43 1e 3d b1 a7 a8 bd 81 4e f2 3d 4f 94 b6 3d
       0.038638446 -0.082351096 0.1183138 0.08915006
000300 ff ff 3e 3d 9f 85 20 3d 97 bf 0d 3f 81 7e cf 3d
       0.046630856 0.03918993 0.5537047 0.101315506
000310 66 92 b2 3d 79 88 12 be 71 e1 64 bc 6f 5b f9 3c
       0.087193295 -0.14309873 -0.013969765 0.030439107
000320 d0 7d 61 bc 60 dc e7 bc 41 67 fb 3d 09 dc db 3b
       -0.013762906 -0.028303325 0.122755535 0.00670958
000330 fc 39 13 bd a7 a6 c6 3e 77 0d a8 bd d1 b5 17 3f
       -0.03594397 0.3879902 -0.08205693 0.59261805
000340 b9 5e 8b 3c e1 fe 56 3d 61 c6 00 bd 5d ea f2 3d
       0.01701294 0.052489165 -0.03143919 0.118611075
000350 0a bd 3d 3e 00 88 a3 3d 81 df 4c bd 16 0f 33 3e
       0.18529144 0.07984924 -0.050017837 0.17486224
000360 e0 be 7e 3d 6f 3d 60 3d 30 d5 0e 3c 81 c4 97 3e
       0.06219375 0.054746088 0.00871782 0.29642108
000370 19 f8 0b bc be 0f 33 3f 19 b0 14 3f 89 14 29 3d
       -0.008543038 0.69945896 0.58081204 0.04127935
000380 3f 52 88 3d 34 95 51 bd e1 93 56 3f 5f 7d 32 bd
       0.06656312 -0.05116768 0.83819395 -0.043576594
000390 9b da 47 bd db a1 dd 3d e0 14 d9 bc b8 73 82 3c
       -0.048792463 0.10821887 -0.026499212 0.01592432
0003a0 10 d4 2d 3f e0 18 c7 3c ab 67 44 3f 91 a6 03 3e
       0.67901707 0.024303854 0.76720685 0.12856509
0003b0 aa 9f b3 3e 89 12 06 3e 71 1d 49 3d a7 e8 9f 3d
       0.35082752 0.13093008 0.049100343 0.07808047
0003c0 3f 43 ad bd c8 ab 14 3d 6b a8 b3 3e bf 46 2b be
       -0.08460092 0.036296636 0.3508943 -0.16726206
0003d0 ef ef bf bd 89 0d 96 bd 87 f8 ef 3d be 3c ca 3c
       -0.093719356 -0.073268004 0.11717325 0.024687167
0003e0 87 a7 9f bd 39 64 0b 3e c1 e4 21 3e db 78 61 3d
       -0.07795625 0.1361245 0.15809919 0.055046897
0003f0 bf d5 51 3d 7a 77 6a bd ee 54 ec bc 71 54 03 3d
       0.051229235 -0.057242848 -0.028849091 0.03206295

lstm_cell.weight_hh f4 [256, 64]
000000 1e cc eb 3e 23 c2 c2 3e 32 c1 88 3f 94 16 86 c0
       0.46054167 0.3803874 1.0683959 -4.190256
000010 72 f9 aa 3f 95 26 35 c0 81 38 19 c0 2f 8e 1b 40
       1.3357375 -2.8304799 -2.3940737 2.4305532
000020 cf ca 5e 40 60 b9 44 3f 83 9c e2 3e 11 19 a3 bf
       3.4811285 0.7684536 0.44260034 -1.2742025
000030 c1 dc 21 bd b6 eb b9 bf 41 82 ec bf 36 1a 5e be
       -0.039517168 -1.4525058 -1.847725 -0.21689686
000040 d7 99 4c bf e6 fd 1a 3f 00 58 48 c0 66 7a c4 bf
       -0.7992224 0.6054367 -3.130371 -1.5349853
000050 bd d6 30 bd 0a 10 25 40 31 a9 21 40 ca 55 45 bf
       -0.04317354 2.579104 2.5259516 -0.7708403
000060 12 07 04 3f cd 68 21 40 06 d0 1d c0 1f dc 67 3f
       0.5157329 2.5220215 -2.4658217 0.90570253
000070 60 c7 2a be 56 df 39 c0 49 d1 f5 bf ad be d9 3d
       -0.16677618 -2.9042563 -1.9204494 0.10632072
000080 93 2a 97 3f 02 cf f9 bf 96 68 cb be 5a 2f 6d 3f
       1.1809868 -1.9516299 -0.3972823 0.9265038
000090 5c b9 1b 40 f3 07 b1 bf df 44 59 3e aa fa 0f c0
       2.4331884 -1.3830551 0.21217678 -2.2496743
0000a0 c7 2b 9d 3f f7 78 b8 bd 81 79 32 c0 69 04 94 bf
       1.2278985 -0.09007447 -2.788666 -1.1563846
0000b0 32 27 9f bf 15 60 ec bf 6a 6d 0f 3f 1a e0 c9 3f
       -1.2433836 -1.8466822 0.5602633 1.5771515
0000c0 85 1c ed 3e f8 3b 05 40 f4 7f 00 c0 ab 89 31 3f
       0.4631082 2.0817852 -2.0078096 0.6935069
0000d0 78 77 bd 3f b0 62 c6 3f 3d 65 18 c0 9d 65 43 40
       1.4802084 1.5498867 -2.381179 3.053077
0000e0 7b 83 a6 3f 13 da 16 c0 a5 24 6e 3f 0a a5 97 3e
       1.3008875 -2.3570602 0.93024665 0.29618102
0000f0 d7 61 35 40 87 4e a3 3f f3 6b f9 3e c0 8d 36 40
       2.8340967 1.275834 0.4871517 2.8524017
000100 46 a7 dd 3e 42 b3 ec be f4 be 0b 3d cd 1d a3 3e
       0.43291682 -0.46230513 0.034117654 0.31858674
000110 87 d3 0d c0 55 f5 2f c0 1a 0d 10 3f 52 07 b2 3e
       -2.2160356 -2.7493489 0.5626999 0.3477121
000120 52 a3 05 c0 9f f0 8c bf cb 88 23 bf 2d d5 24 bf
       -2.0880933 -1.1010932 -0.63880605 -0.6438778
000130 78 dd 81 bf 41 c4 0a bf b9 f4 5a be e1 55 2f 40
       -1.0145712 -0.5420571 -0.21382417 2.7396166
000140 1f b5 11 bf 47 b0 7e bf 87 e8 50 bf 8a 2a 18 c0
       -0.56916994 -0.9948773 -0.8160481 -2.3775964
000150 81 9e 33 bf d8 d1 e9 3f 70 5e b8 3e 54 c2 6d 3f
       -0.7016373 1.8267164 0.3600955 0.92874646
000160 09 1b 94 3f bf 06 8d be 11 42 15 c0 1a 1f 78 c0
       1.157075 -0.2754421 -2.3321574 -3.8768983
000170 45 5b 46 bf d2 41 a5 be 6b 30 0c c0 02 9a 71 bf
       -0.77483016 -0.3227678 -2.1904552 -0.9437562
000180 70 08 38 3e 1b 7c c4 3f e7 c4 68 c0 38 6f 06 40
       0.17971969 1.5350374 -3.637018 2.1005383
000190 e7 a3 d1 3f 2e 99 da be ec 79 88 bd 07 4d 3c 40
       1.6378144 -0.42694992 -0.0666388 2.9422014
0001a0 55 c1 8a bf 61 f9 51 bf 56 e1 92 40 85 20 29 3f
       -1.084025 -0.82021147 4.590007 0.66065246
0001b0 75 76 c6 bf f7 50 a3 be bd 43 b8 bf 26 25 55 bf
       -1.55049 -0.3189771 -1.4395672 -0.8325981
0001c0 81 84 80 40 76 32 01 c0 2f 8f a0 3f 32 56 0b c0
       4.016175 -2.018705 1.2543696 -2.177136
0001d0 dc 36 5a 3e d2 4e 36 be ec 8c 4d c0 6a f2 02 be
       0.2130999 -0.17803505 -3.2117262 -0.12787786
0001e0 1e 77 e2 bd a8 fc ec bf 88 be e1 3f 52 d4 19 3f
       -0.11057876 -1.8514605 1.763627 0.600896
0001f0 fe 2f cf 3f 9a 0e 94 bf 4d 88 e5 3d e8 6b f8 bf
       1.6186521 -1.1566956 0.11207638 -1.940793
000200 6a 0c 2a 40 10 7a 7c 3f 90 b2 bd 3e 03 34 e2 3e
       2.6570077 0.9862375 0.37050295 0.44180307
000210 72 10 8d 40 b2 f8 a4 3e 5d f1 a2 3e f8 2e f7 bf
       4.4082575 0.3222099 0.3182477 -1.9311209
000220 ae cf 06 40 7b 22 1b c0 f1 dc d7 3f 41 04 05 3d
       2.1064258 -2.4239795 1.6864301 0.03247476
000230 6e e5 df bd 7d 3e a9 bf b3 09 f3 bf dc eb 27 bf
       -0.10932432 -1.3222195 -1.8987335 -0.6559427
000240 34 02 c8 3f 78 48 2b 3f ba 0c 02 bf 04 a1 f9 bf
       1.5625672 0.66907454 -0.5080067 -1.9502263
000250 c6 89 73 40 7f 6e fb 3e a4 d4 b8 3f 17 a2 c5 3f
       3.805284 0.4910774 1.4439893 1.5440091
000260 c0 1d 25 3f 8d 2e b9 3f af c8 d2 3f a6 dd b4 be
       0.6449852 1.4467331 1.6467494 -0.35325354
000270 d3 b5 00 c0 b3 e7 22 40 a7 ad 62 3f 46 3c 8c 3f
       -2.0110977 2.5453918 0.8854622 1.0955894
000280 d4 e3 c5 3f 90 7c c2 bf 35 85 90 bd a4 58 73 bf
       1.5460153 -1.5194263 -0.07056657 -0.9505713
000290 b0 1b e6 3f 23 29 f7 3f 10 6a a0 3f fa dc 20 40
       1.79772 1.9309429 1.2532368 2.5134873
0002a0 1e 1d 0e c0 48 55 fb be e5 b6 1a c0 40 f6 fc be
       -2.2205272 -0.49088502 -2.417413 -0.49406624
0002b0 4e 71 ea 3f 93 b3 4b c0 1b 30 52 3f a4 fd 8b 3f
       1.8315828 -3.1828353 0.82104653 1.093678
0002c0 df 22 50 3e d4 2e 8b c0 45 8d 65 3f c8 4e 6c 3f
       0.20325802 -4.3494663 0.89668685 0.9230771
0002d0 75 19 7a c0 1a de 8e 3f 14 2f 52 3f 61 fd 8f 3f
       -3.9078038 1.116153 0.82103086 1.12492
0002e0 6c ca de 3f 16 8a 92 3e 92 92 53 bf 67 05 7c 3f
       1.7405524 0.28620976 -0.82645524 0.98445743
0002f0 ec c9 3c 40 b7 b1 9d bf b0 52 e4 be c1 b4 ca bf
       2.9498243 -1.2319859 -0.44594336 -1.5836412
000300 98 91 d0 bf 17 05 7c 3f d7 f4 93 be ee 7a 24 3e
       -1.6294432 0.98445266 -0.28897735 0.16062519
000310 20 b6 33 bf d1 c1 35 3e 68 e2 77 bf df fc ef bf
       -0.70199776 0.17749716 -0.96829844 -1.8749045
000320 bd 56 4b c0 62 20 db 3f 08 35 cb bf ac 51 9a bf
       -3.177169 1.7119257 -1.5875559 -1.2056174
000330 06 f3 7e 3f ff 6a 43 bf d1 4d 46 3e 1d fd 86 be
       0.99589574 -0.7633514 0.19365622 -0.26364985
000340 af 96 da 3d 7a d9 fc 3f ba 13 f2 3f 33 96 83 bd
       0.10673272 1.9753869 1.891227 -0.064251326
000350 78 69 87 bf b5 45 15 bf 75 3e d6 3d 9e 88 ad 3e
       -1.0579062 -0.5830949 0.104611315 0.33893293
000360 4b 2b 36 40 a0 20 b1 bb 6e 20 1a 3f 89 03 28 40
       2.8463924 -0.0054055005 0.60205734 2.6252158
000370 4c 30 1d 40 73 70 ba 3f 89 de cd bd 54 04 97 c0
       2.4560728 1.4565567 -0.10052211 -4.7192783
000380 c1 b5 e6 bf e6 3a 62 bf 98 50 9f 3f 5b 24 e7 3e
       -1.8024217 -0.8837112 1.244647 0.45144925
000390 43 61 b0 3f b5 2e 9c be 9d 53 26 40 12 e1 3b 3f
       1.3779682 -0.30504385 2.5988533 0.73390305
0003a0 e4 b4 37 be 71 6d 35 40 a0 7a 3c c0 c8 35 38 c0
       -0.17940098 2.8348048 -2.9449844 -2.8782825
0003b0 67 ec 02 40 b3 d9 ba be 1b a7 30 40 2a 49 4b 3f
       2.0456789 -0.36494216 2.7601993 0.79408514
0003c0 b0 c0 29 40 ef 60 0b 3d d4 ea 14 bf d9 d8 e2 3e
       2.6523857 0.03402799 -0.5817082 0.44306067
0003d0 9b 9f 05 3d 67 26 49 bf 50 ac 92 3e 66 20 1a c0
       0.032622915 -0.7857422 0.2864709 -2.4082274
0003e0 83 88 a3 be 01 26 02 40 ad a5 4f c0 c1 14 ef be
       -0.31940088 2.0335696 -3.244487 -0.4669552
0003f0 20 06 9e bf ca 13 8d bf 0d c0 03 3f 99 4e 23 c0
       -1.2345619 -1.1021664 0.5146492 -2.5516722

lstm_cell.bias_ih f4 [256]
000000 ef 09 a4 bf f0 90 d6 3f 54 af 14 3f 45 2c 4d 40
       -1.2815531 1.6762981 0.5808003 3.205827
000010 15 bb 3e 40 41 a9 50 40 94 b2 83 3f 27 08 28 40
       2.9801686 3.2603304 1.0288873 2.6254976
000020 c2 f5 33 3f 4e 01 2b 3f 75 42 4e 40 37 96 09 40
       0.7029687 0.66798866 3.2228062 2.1497934
000030 98 78 74 c0 2a 31 1d 3d 3b f2 40 c0 61 73 90 3d
       -3.8198605 0.038376965 -3.0147846 0.07053257
000040 12 35 3a 40 cb ed 13 c0 8f 06 31 c0 88 06 59 3f
       2.9094892 -2.3113887 -2.7660253 0.8477559
000050 75 a2 b8 bf 1f eb 81 c0 ec 95 cf bf d5 ff ad 3e
       -1.4424578 -4.0599513 -1.6217628 0.33984247
000060 0e 44 e3 3f 6d 53 8f bf 8b c7 53 3f 15 53 91 3f
       1.7755144 -1.1197335 0.82726353 1.135348
000070 b7 f3 35 bf c3 dd 1c 40 07 e6 1b 40 31 fe 85 3e
       -0.71075004 2.4510353 2.4359148 0.26170495
000080 f7 82 d0 3f ca 1c eb 3f f5 24 08 bf f5 b3 a0 bf
       1.6289967 1.8368161 -0.5318139 -1.2554919
000090 c9 fb 22 bf 6d bb b1 3f 4e ed 76 be b5 5d d2 3f
       -0.63665444 1.3885323 -0.24113962 1.6434847
0000a0 3c 38 f7 3e 1b a7 50 3f 36 74 33 3f 7a 7a ba bf
       0.4828509 0.8150498 0.700992 -1.4568627
0000b0 60 55 99 c0 ad 5d d9 bf ef bf 46 3f 61 ed 3c bd
       -4.7916718 -1.6981713 0.7763662 -0.04612482
0000c0 de 86 8c c0 a8 6c 08 c0 a4 26 39 c0 20 f3 1a 3f
       -4.3914633 -2.1316319 -2.8929834 0.6052723
0000d0 84 20 1d c0 e5 61 e9 bf 85 41 2e be f8 30 f5 bd
       -2.4551096 -1.8233 -0.17017181 -0.11972231
0000e0 54 bc 0c c0 7c b9 40 c0 4c 1f a2 3f 0d aa 31 3f
       -2.1989946 -3.011321 1.2665801 0.694001
0000f0 fc a4 5e 3f ad 3a 4d 40 3d 3c 11 40 53 2c 36 c0
       0.86970496 3.2067063 2.2693017 -2.8464553
000100 df c2 95 bf b7 b3 23 bf c4 4d aa be 17 e1 60 3f
       -1.1700095 -0.639461 -0.33262455 0.8784346
000110 97 82 c5 bf 6f 0e 8c 3e 90 cb 73 3f 7a f2 14 c0
       -1.5430478 0.27354762 0.95232487 -2.3272996
000120 31 e5 5b 3f de 52 89 bf 98 fa 57 c0 52 77 25 c0
       0.85896593 -1.0728414 -3.37467 -2.5854077
000130 71 58 3f 3f 9d 8f a4 3c 88 8c f1 bf 39 bb 8d 3e
       0.74744326 0.020088011 -1.8871012 0.27681902
000140 aa 82 6f bf 1a dc f1 3e 2e 98 1b bf 99 b5 05 40
       -0.9355875 0.47238237 -0.6077908 2.0892088
000150 ac 0f 31 c0 80 bd 42 3f 1a d9 2b c0 ea 2b a4 bf
       -2.7665815 0.76070404 -2.6851258 -1.2825902
000160 4a 31 4c 3f 7b 8f 22 bf d4 c6 76 3e 26 a2 d7 be
       0.7976271 -0.63500184 0.24099284 -0.42115897
000170 6f 57 ad bf b1 dc 7f bf 86 e8 89 3e 45 38 5d bf
       -1.3542308 -0.99946123 0.26935214 -0.86413985
000180 da db 69 bd f6 a4 3a c0 9f 35 61 be 67 52 56 c0
       -0.057094432 -2.9163184 -0.21993111 -3.3487794
000190 8f d3 26 40 a0 cd 69 bf 82 3c e1 be e7 1e d5 bf
       2.6066625 -0.91329384 -0.43991476 -1.6650056
0001a0 0d 84 c2 bf 16 58 e2 3f 0c 4c 2f 3f 15 80 10 3f
       -1.5196549 1.7683132 0.68475413 0.5644544
0001b0 a5 42 b4 be 4e 2b 08 c0 24 65 85 bf bd 1f 64 bf
       -0.35207096 -2.127643 -1.0421491 -0.8911093
0001c0 38 27 a1 bf 0a 66 81 3f fb 09 07 bf e8 8f 0f c0
       -1.2590094 1.0109265 -0.52749604 -2.2431583
0001d0 80 64 24 c0 ec 3d 85 3e 6d 1c e6 3e 11 0e d5 bf
       -2.568634 0.26023805 0.44943562 -1.6644918
0001e0 ca 33 18 40 46 94 a7 3f 7b 4c 88 c0 22 61 09 40
       2.378161 1.3092124 -4.259336 2.1465535
0001f0 fb 10 70 be 37 b1 02 c0 b8 c1 34 3f 75 9e ea be
       -0.23443978 -2.0420663 0.7060809 -0.45824018
000200 d9 2d 3f 40 90 47 97 be 2a 2d 65 c0 82 28 12 c0
       2.9871733 -0.29546785 -3.5808816 -2.2837224
000210 9e 2c c6 3f 8b b2 07 bf ab e1 10 3f b2 90 be bf
       1.5482366 -0.5300681 0.5659434 -1.4887908
000220 92 81 12 40 c5 b3 05 c0 de 25 77 40 99 77 29 3f
       2.2891583 -2.0890973 3.8616862 0.66198117
000230 25 0e 2e 3e 20 53 39 40 4b aa de 3f 03 c5 15 bf
       0.16997583 2.8956985 1.7395719 -0.5850374
000240 3c 6b 18 40 39 5c 91 40 2a 4b 0b c0 90 c8 85 3e
       2.381545 4.5425076 -2.1764627 0.2612958
000250 f6 a4 69 bf 31 cc 66 3e a7 7e 10 3f 13 34 42 3f
       -0.91267335 0.2253883 0.56443256 0.7586071
000260 b1 53 1a 3f d6 73 0a bf b7 e2 99 3d e9 ac e4 bf
       0.6028395 -0.54083 0.075139455 -1.7865268
000270 5d 6e 52 3f 12 93 42 3f 99 48 16 40 40 37 1d 40
       0.8219965 0.7600566 2.348181 2.4564972
000280 fe d4 f6 3f 84 28 c2 bf 60 e9 c1 be 01 18 f9 3f
       1.928375 -1.5168614 -0.37873363 1.946045
000290 55 23 f2 3f db 24 96 be 27 5d b4 3f b6 42 b0 3e
       1.8917032 -0.29324993 1.4090928 0.34425896
0002a0 ee b1 b7 be fd 6b dd 3f c0 94 0c bf a3 b7 f2 3f
       -0.35877937 1.729858 -0.54914474 1.8962291
0002b0 88 8d 42 3f d6 8f d0 3a 7b 08 55 40 51 25 28 c0
       0.7599721 0.0015912007 3.3286426 -2.6272776
0002c0 ed 20 02 c0 a8 d5 a5 3e 38 3f ce 3e 51 3c 31 bf
       -2.0332596 0.3238957 0.40282607 -0.6923266
0002d0 1b 6e 90 bf ee 75 33 c0 0d 57 b4 bf db f2 ed bf
       -1.1283602 -2.8040729 -1.4089066 -1.8589739
0002e0 89 5d ab be f0 ae a2 3f 11 20 9e bf 7e 62 61 bd
       -0.334698 1.2709637 -1.2353536 -0.05502557
0002f0 22 d5 e8 bf 23 c2 a6 bf f0 9e 01 40 44 fd 23 3f
       -1.8190043 -1.3027996 2.0253258 0.6405833
000300 6f 83 85 be 71 fa 85 c0 1e c9 1f 3f dc 4d a5 40
       -0.26076838 -4.1868215 0.62416255 5.1657543
000310 dd 38 47 bf 0d ac 0f c0 2f 77 ce 3f 38 7c fa 3f
       -0.7782114 -2.2448761 1.6130122 1.9569159
000320 06 e1 9e bf c2 75 60 3f af 12 02 c0 d1 f3 55 40
       -1.2412422 0.87679684 -2.0323904 3.3430064
000330 93 d2 6b bf 1d 6a d8 3f 61 08 30 c0 db fb fc be
       -0.92118186 1.6907383 -2.7505114 -0.494109
000340 c6 80 1b c0 0c 38 21 bf 1a 8a 20 c0 5a 06 c6 3d
       -2.4297347 -0.62976146 -2.508429 0.0966918
000350 01 37 92 3f df ff 7e bf 78 bf a7 3f cf eb 43 3f
       1.1423036 -0.9960918 1.3105307 0.7653169
000360 8b 24 36 bf ab e4 26 3e 2b 55 ea 3f 77 ea 4f c0
       -0.7114951 0.16298167 1.8307241 -3.2486856
000370 43 8a d8 3e ca 0e be bf b5 e2 b5 3f ca 05 e8 be
       0.42292985 -1.4848263 1.420981 -0.45316917
000380 13 8b 4d bf d1 4b 09 40 04 2e a1 be ac 45 9d bf
       -0.80290335 2.1452525 -0.3148042 -1.2286887
000390 2a aa e9 be 9e c7 36 40 b2 43 09 c0 4f 09 44 40
       -0.45637637 2.8559337 -2.1447568 3.0630682
0003a0 92 5e 14 3f 3e 48 53 40 a3 1e dd bf 43 e3 dc 3f
       0.579568 3.3012843 -1.7274975 1.7256855
0003b0 d5 02 18 c0 c0 eb 86 c0 6f 56 e3 3f 00 27 50 bf
       -2.3751729 -4.216278 1.7760752 -0.8130951
0003c0 c7 52 4d c0 cb 01 dc bf 3c 7d f9 bf 1e bb 0a c0
       -3.2081773 -1.7188047 -1.9491343 -2.1676707
0003d0 1c cb 55 bf 59 a2 d4 bf 0c 0d 0a 40 a7 e5 19 c0
       -0.83513045 -1.6612045 2.1570463 -2.4046419
0003e0 75 72 1b 40 98 21 8a bf ee 80 ab 3e 56 f4 12 c0
       2.428861 -1.0791502 0.33496803 -2.296163
0003f0 08 d0 3b bf 12 4a 82 3f cb 54 1b c0 6d b7 bc 3e
       -0.73364305 1.0178854 -2.4270504 0.36858693

lstm_cell.bias_hh f4 [256]
000000 a7 2e a8 bf f0 77 e4 3f bf 7d b8 3e b9 ba 48 40
       -1.3139237 1.7849102 0.36033437 3.1363966
000010 b5 58 43 40 41 5b 51 40 f8 6b 6d 3f 37 4d 2a 40
       3.0522892 3.2711947 0.9274287 2.6609628
000020 42 96 39 3f 80 41 25 3f 05 81 4e 40 e0 b0 11 40
       0.724949 0.6455307 3.2266247 2.2764206
000030 f8 ce 7e c0 bf 79 0a 3e 3b 41 37 c0 51 c0 e1 3d
       -3.9813824 0.13523005 -2.8633564 0.110230096
000040 ca f8 39 40 4b d3 1c c0 ac 13 31 c0 0e 31 39 3f
       2.9058099 -2.4503963 -2.7668257 0.72340477
000050 15 d5 b9 bf 65 96 7a c0 28 48 db bf 3f c7 b8 3e
       -1.4518152 -3.9154294 -1.7131395 0.36089513
000060 ee 7a dd 3f 49 68 9c bf 93 60 87 3f 85 2b 84 3f
       1.730314 -1.2219325 1.0576347 1.0325781
000070 7f 19 1f bf f3 ba 18 40 87 c9 25 40 85 01 87 3e
       -0.6214828 2.3864105 2.5904253 0.26368347
000080 7b ff d2 3f ea 32 e8 3f 45 a5 1e bf 45 db 96 bf
       1.6484216 1.8140538 -0.6197093 -1.1785666
000090 09 b3 39 bf fd 28 c9 3f b2 b6 54 be bb 48 e0 3f
       -0.7253881 1.5715634 -0.20772818 1.7522196
0000a0 d6 c7 8a 3e cd fb 64 3f b6 8f 5c 3f b0 86 ab bf
       0.27105588 0.8944672 0.86156785 -1.3400478
0000b0 30 19 9b c0 8d 99 d4 bf 3f 77 4a 3f 82 e8 e5 bb
       -4.8468246 -1.660936 0.79088205 -0.0070162425
0000c0 e6 9c 8c c0 c8 01 05 c0 1d e1 31 c0 50 73 24 3f
       -4.3941526 -2.0782337 -2.7793648 0.6423845
0000d0 24 7c 29 c0 85 db ed bf d6 b1 c6 bc 22 ff 50 be
       -2.648202 -1.8582617 -0.02425472 -0.20409825
0000e0 c4 4d 09 c0 15 8b 38 c0 c4 fe 9b 3f fe b8 12 3f
       -2.1453714 -2.883489 1.2187123 0.57313526
0000f0 5c 0a 50 3f 56 f0 4a 40 2e 7b 08 40 9b 6c 31 c0
       0.8126581 3.170919 2.1325183 -2.7722538
000100 6f 8c 87 bf d4 27 fd be 9e 59 99 be 31 86 73 3f
       -1.0589732 -0.4944445 -0.29951185 0.95126635
000110 17 d7 bc bf 11 47 8c 3e 78 8b 84 3f 8c 2c 18 c0
       -1.475314 0.2739797 1.0355062 -2.377719
000120 12 64 48 3f 0e 8b 9b bf 28 64 5c c0 a4 e6 26 c0
       0.78277695 -1.2151811 -3.443613 -2.6078272
000130 17 2d 2b 3f b2 b0 7a 3e 77 80 d9 bf 7d 03 a7 3e
       0.66865677 0.24481466 -1.6992329 0.3261985
000140 60 0e 92 bf 6a 12 ca 3e c6 03 06 bf 21 0e 03 40
       -1.1410637 0.39467174 -0.5234951 2.0477374
000150 5c 77 30 c0 b0 ab 22 3f c4 61 2d c0 92 b6 a4 bf
       -2.757285 0.63543224 -2.7090921 -1.2868216
000160 79 61 4a 3f 2b 01 0d bf ce 5e 23 3e 80 86 e7 be
       0.7905498 -0.5507991 0.15954134 -0.45219803
000170 b7 79 a8 bf 71 70 76 bf 63 00 75 3e f5 5f 69 bf
       -1.3162144 -0.9626532 0.23925929 -0.91162044
000180 8a ce ba bd f6 70 3b c0 0a 25 89 be 4b 0e 4e c0
       -0.091214254 -2.9287696 -0.2678607 -3.2196224
000190 af 4d 2c 40 b4 e7 82 bf 26 2f a2 be c8 cc e3 bf
       2.6922414 -1.022696 -0.31676596 -1.7796869
0001a0 b6 b4 ab bf 26 01 ef 3f 9c 2c 5a 3f c5 d3 1d 3f
       -1.3414524 1.8672225 0.8522432 0.6165126
0001b0 a9 bb 91 be ae a9 03 c0 d4 95 8a bf dd 09 65 bf
       -0.28463486 -2.0572314 -1.0826974 -0.89468175
0001c0 b6 7e 82 bf cd 2a 7e 3f ca c4 ae be 78 d0 12 c0
       -1.0194919 0.9928406 -0.34134513 -2.293974
0001d0 40 d3 1d c0 22 fc 6f 3e ad c9 c7 3e 21 11 dd bf
       -2.4660187 0.23436025 0.39021054 -1.7270852
0001e0 8a 71 13 40 36 22 b1 3f 92 b5 81 c0 5c 78 0c 40
       2.3038049 1.3838565 -4.0534143 2.1948462
0001f0 bb c5 6c be 0f b0 08 c0 08 be 11 3f f5 a0 cb be
       -0.23122303 -2.1357458 0.5693059 -0.39771238
000200 1d 0e 3b 40 ec 27 07 bf 9a c0 64 c0 e2 72 15 c0
       2.9227364 -0.5279529 -3.5742555 -2.335137
000210 be fa b6 3f 8d 4f 04 bf 08 1f e9 3e da db bd bf
       1.429527 -0.51683885 0.45531487 -1.4832718
000220 76 24 0c 40 45 6a 03 c0 2a 30 80 40 f0 dc 44 3f
       2.1897254 -2.0533612 4.0058794 0.76899624
000230 5f 58 61 3e 20 02 3a 40 1c c3 c4 3f bb a2 29 bf
       0.22006367 2.9063797 1.5372043 -0.6626393
000240 68 34 24 40 c9 1e 8e 40 43 86 0f c0 26 31 52 3e
       2.5656986 4.441258 -2.2425697 0.20526561
000250 42 e8 5c bf bb 46 45 3e 4f 4c 0d 3f 89 ae 25 3f
       -0.862919 0.19265263 0.5519456 0.64719445
000260 21 98 51 3f e6 80 09 bf c3 18 84 3d b9 69 e9 bf
       0.81872755 -0.5371231 0.064500354 -1.8235389
000270 6d 72 4a 3f 12 68 4f 3f 41 a8 1b 40 d0 57 11 40
       0.7908085 0.81018174 2.4321444 2.2709846
000280 4c ce ea 3f 4c ad ab bf 70 b3 ae be 85 91 ff 3f
       1.8344207 -1.3412261 -0.34121275 1.9966284
000290 75 fb e5 3f 55 24 7a be 67 8f a4 3f 3a 0b 89 3e
       1.7967364 -0.24427922 1.2856263 0.26766378
0002a0 be cd ae be 2f 50 d6 3f 3f e6 13 bf c3 bf f4 3f
       -0.34141344 1.674322 -0.577732 1.9121021
0002b0 e8 06 4d 3f fb fd 63 3d db b2 53 40 b1 f7 23 c0
       0.80088663 0.055662137 3.3077915 -2.561993
0002c0 ad f0 08 c0 c0 85 67 3e d8 c1 ca 3e 49 25 25 bf
       -2.1396897 0.22609615 0.39601016 -0.6451002
0002d0 e8 21 aa bf 1e fa 31 c0 fd 1d a1 bf 8b 41 f3 bf
       -1.3291597 -2.780891 -1.2587277 -1.9004377
0002e0 e1 f8 ce be 91 48 b6 3f e8 13 9f bf 56 f1 b7 bd
       -0.40424255 1.4240896 -1.242795 -0.08981578
0002f0 2b 73 fb bf c3 4a be bf 98 9b e6 3f 88 6f 1a 3f
       -1.9644521 -1.4866565 1.8016233 0.60326433
000300 eb 4d 56 be 08 b6 84 c0 be 9d 1e 3f a7 69 aa 40
       -0.20928161 -4.1472206 0.61959445 5.325397
000310 09 07 4e bf dd ef 0f c0 3b 68 b8 3f 6e c4 ee 3f
       -0.80479485 -2.249015 1.4406809 1.8653696
000320 a6 6e 90 bf 48 8e 52 3f 0f 21 01 c0 91 09 4e 40
       -1.1283767 0.82248354 -2.0176427 3.219334
000330 8d 02 82 bf dd 81 d7 3f 08 a1 2f c0 ad 48 2f bf
       -1.0157028 1.6836506 -2.7442036 -0.6847027
000340 86 37 0f c0 0c 69 36 bf ea 20 1a c0 bc 62 d7 3d
       -2.237764 -0.7125404 -2.408259 0.10516879
000350 f9 1e ab 3f 70 0d 86 bf d5 80 ae 3f 2d 8b 47 3f
       1.3368827 -1.0472851 1.3633066 0.7794674
000360 79 9e 46 bf bf 15 71 3e 0b d5 e9 3f 87 6b 53 c0
       -0.7758556 0.23543452 1.826814 -3.303438
000370 4d 78 f6 3e 32 ea c1 bf d3 01 bd 3f 51 a3 06 bf
       0.48138657 -1.5149596 1.4766182 -0.5259295
000380 63 e0 34 bf 79 51 0c 40 7a 9a 77 be 9c 1b 89 bf
       -0.70654887 2.1924727 -0.24180022 -1.0711551
000390 8a 69 f1 be 1e 6c 37 40 d9 c7 09 c0 6f 62 47 40
       -0.47150832 2.865974 -2.1528227 3.115383
0003a0 0a b5 22 3f e8 8e 55 40 04 c8 cb bf e3 ed dd 3f
       0.63557494 3.3368473 -1.5920415 1.7338222
0003b0 05 81 21 c0 20 27 88 c0 3f 9d e0 3f aa ea 2e bf
       -2.5234997 -4.254776 1.7547988 -0.6832682
0003c0 57 31 4a c0 eb 0a e1 bf 5c 4c ea bf 2d 06 07 c0
       -3.1592615 -1.7581457 -1.8304553 -2.109752
0003d0 7a 23 69 bf fa f5 c3 bf ea 6c 0a 40 ef 3c 0e c0
       -0.9106976 -1.5309441 2.1628976 -2.222469
0003e0 65 71 11 40 60 e7 7c bf 46 9c a2 3e 00 90 0f c0
       2.272546 -0.9879055 0.31759852 -2.243164
0003f0 88 38 47 bf a2 a4 80 3f 22 f2 27 c0 24 e0 cd 3e
       -0.77820635 1.0050242 -2.6241536 0.40210068
