model/1714141768/0_NSFnet_global_model_0.pth (torch, 331200 bytes, 17 tensors)

conv1.lin_l.weight f4 [16, 1]
000000 71 2a 22 bf ff cb 49 bc 5c 3d 32 bf 91 ff 26 bf
       -0.6334601 -0.012316703 -0.69624877 -0.65233713
000010 e1 4e 00 bf 3e 70 8b 3e 11 0e 56 bf c4 08 1c be
       -0.5012036 0.27234071 -0.83615214 -0.15237719
000020 d7 b5 22 bf 92 54 ac 3d 38 5f 88 be 8c 2c 61 bf
       -0.63558716 0.08414568 -0.26635146 -0.879586
000030 4a 85 40 3d 3f a2 f8 be a3 6a c6 3e 61 8f e8 be
       0.047002114 -0.48561284 0.38753232 -0.4542189

conv1.lin_l.bias f4 [16]
000000 07 cb 1e be ef 8e 18 3f 6d b2 8a bf 5a c6 be 3e
       -0.15507136 0.595931 -1.0835701 0.37260705
000010 1b 0d e3 3e 1b 9a 92 be b5 bd 51 bf 87 20 c9 3e
       0.44345936 -0.28633198 -0.81930095 0.3928263
000020 ff cb 2a 3f 47 69 32 bf 8f e3 21 3f 38 70 71 bf
       0.66717523 -0.6969189 0.6323785 -0.9431186
000030 02 2a fd 3e 50 7c 84 be e3 98 ca be d0 53 d9 bd
       0.49446112 -0.25876093 -0.39569768 -0.10611689

conv1.lin_r.weight f4 [16, 1]
000000 d1 bd 7f bf 15 70 ff be 06 28 3a 3e b1 4b 5b bf
       -0.9989901 -0.498902 0.1817933 -0.8566237
000010 11 6b a5 be 61 5a 18 3f 1a 56 38 bf ba b6 e9 3d
       -0.32308248 0.5951291 -0.7200638 0.114118055
000020 8f ee f9 be 5d 8b 51 bf 2b 62 57 bf 4c d5 d8 3d
       -0.48814818 -0.81853276 -0.8413417 0.10587558
000030 d4 38 45 bf e6 b7 4b bf b6 87 8a be 80 34 65 bd
       -0.7703984 -0.7957748 -0.27056664 -0.05595827

conv2.lin_l.weight f4 [64, 16]
000000 b1 99 ac bd 5f 13 0f 3e 9f b9 b8 bc a8 91 0f 3e
       -0.08427752 0.13972233 -0.022549449 0.14020407
000010 88 3a 0a bd 81 04 62 bd f0 47 17 be d0 2f c8 3d
       -0.033747226 -0.055180077 -0.14773536 0.097747445
000020 5f 6a fc 3d 2f 9a 3e 3d 27 c1 06 be 17 45 0f 3e
       0.12324976 0.04653376 -0.1315962 0.139912
000030 a9 5e 9d 3d 89 2e 24 3e 9f 3d c3 be 51 2e 42 be
       0.076840706 0.16033377 -0.3813295 -0.18962981
000040 47 96 17 3e c7 e1 93 be 41 ad a4 3d f1 6e 2d 3e
       0.1480342 -0.28883192 0.08040858 0.16936852
000050 2f 3d 90 3d 31 a4 49 3d 61 3d a1 bd 38 c6 86 be
       0.0704292 0.04922885 -0.07873035 -0.26323104
000060 75 f1 56 3e ef e9 88 be e1 67 72 be 97 ce 9c bd
       0.20990546 -0.26740977 -0.23672439 -0.076565914
000070 81 17 61 be a0 61 1b be 17 2b 99 be af 1f e4 bd
       -0.21981622 -0.1517396 -0.29915687 -0.11138856
000080 21 e9 85 bd 56 0c b7 bd 5f 51 25 3e e0 79 60 bc
       -0.065386064 -0.089379 0.16144322 -0.013700932
000090 40 88 bc 3b df 83 de bb a5 58 e2 3d c1 6c 14 3e
       0.005753547 -0.0067906226 0.11052064 0.14494611
0000a0 26 f3 b6 3d ef 7e ca bd c0 a1 23 bc 45 66 c2 3d
       0.08933096 -0.09887492 -0.009987295 0.094921626
0000b0 c7 05 8a bd 81 d2 04 be 20 05 96 be 60 d2 48 be
       -0.06739383 -0.12970926 -0.29300785 -0.19611502
0000c0 af 3e f8 3d af a2 6a be cf 22 c9 bd 51 57 e8 3d
       0.12121331 -0.22913621 -0.09821092 0.11344779
0000d0 bf 00 e9 3d 09 92 90 be 80 2a 91 3c 77 5c 1e be
       0.113770954 -0.28236416 0.01772046 -0.1546496
0000e0 b0 fc be 3c 5a ef b6 be c1 80 22 3e 40 de 86 bc
       0.02331385 -0.35729486 0.15869428 -0.016463399
0000f0 df 2e aa be 5a ce 3f 3e c0 a3 d5 3d 71 b9 fe bd
       -0.33238885 0.1873106 0.104316235 -0.12437714
000100 8f 6e 43 3e 35 22 de 3d e6 1a 3a be e7 51 a8 3d
       0.19085144 0.10846368 -0.18174323 0.08218747
000110 a0 d9 53 bc f0 2b 5e be 50 09 2f 3e ff bf a6 be
       -0.012930304 -0.21696448 0.17093396 -0.32568356
000120 6f f4 1f 3e 51 d1 72 be 00 bc 7e 3e e1 6c 80 bd
       0.15620588 -0.2371266 0.24876404 -0.06270767
000130 91 d3 1d be c1 17 23 be ef 7a a3 be 81 48 39 be
       -0.15412737 -0.1592703 -0.31929728 -0.18094064
000140 ea 9d 48 be 41 f9 8e bd 3f c6 84 be 41 8a f4 bd
       -0.1959149 -0.06981135 -0.259325 -0.11940432
000150 41 a0 75 3e f8 3b 13 be b0 87 de bd 0a 5b 2b bd
       0.23986913 -0.14378345 -0.10865724 -0.04183487
000160 c1 47 74 3e df 99 72 be bf 38 1b 3e ef fa c2 be
       0.23855497 -0.2369151 0.15158366 -0.38082072
000170 d9 c7 a9 be f0 ea e8 3c 31 49 e6 be 90 36 00 be
       -0.33160284 0.02843234 -0.44977716 -0.12520814
000180 21 68 53 be 0e 2d a2 bd c5 7a da bd c0 86 9e 3b
       -0.20645191 -0.0791875 -0.10667948 0.004837841
000190 01 f7 51 be 1a 67 9e be e1 83 22 be c5 fd 8c be
       -0.20504381 -0.30938035 -0.1587062 -0.2753736
0001a0 a0 d8 1c 3c 71 5a 1c 3e 21 42 4a be 1a cf 2c 3e
       0.009573132 0.15268876 -0.19751789 0.16875878
0001b0 d8 76 34 3e 0f 5b 7e 3e c0 b4 0c be f0 73 e0 3c
       0.1762346 0.24839424 -0.13740826 0.027399033
0001c0 11 b3 e3 3d 0f a7 51 be 4f c7 e9 bd ef 91 c8 bd
       0.111181386 -0.20473884 -0.11414968 -0.097934596
0001d0 00 b4 0e 3e 81 53 0c be 21 70 2b be cf 28 91 be
       0.13935852 -0.13703729 -0.16741993 -0.28351447
0001e0 df c2 e7 bd 21 5c bc bc 6f f2 3c be 97 a4 84 be
       -0.113164656 -0.02299315 -0.18451856 -0.25906822
0001f0 a1 17 ae bd c1 83 cb bd 4f a0 4d be 81 0e 18 be
       -0.085006006 -0.099372394 -0.20080684 -0.14849283
000200 d0 67 f0 bc f0 c5 30 3d c1 82 01 be 5a 91 c2 bd
       -0.029346377 0.043157518 -0.12647535 -0.0950038
000210 70 02 07 3e df 2c 07 be bf 44 7b be 1f e8 f2 3d
       0.13184524 -0.1320071 -0.24537943 0.1186068
000220 f1 a2 d7 3d c5 92 54 3e 01 00 c4 3d 00 2c d8 bb
       0.105291255 0.20759113 0.09570313 -0.006597042
000230 41 00 7f 3d f1 dc 52 3e a0 4a 09 bc 21 24 1c be
       0.0622561 0.20592095 -0.008379608 -0.15248157
000240 10 a9 4a bd fa b3 37 be 17 f4 97 3d 71 36 91 3d
       -0.049477637 -0.1793975 0.07419603 0.07090462
000250 9a 3a 4b be a1 f0 67 be 6b 0f 5e be 7f 1a e3 bd
       -0.19846573 -0.22650386 -0.21685569 -0.11089038
000260 d0 e0 03 3d 6b 3c d3 3d bf e3 76 be f9 3e 9d be
       0.03219682 0.10314258 -0.24110316 -0.30712107
000270 26 4c bd 3d a1 6b 71 3e 5f 8d ec 3d 00 82 15 3d
       0.0924304 0.23576213 0.11550402 0.03650093
000280 70 d5 83 bd 70 94 cc bc 91 15 08 3e 01 6d 15 3e
       -0.06437194 -0.024973124 0.13289477 0.14592363
000290 e6 75 45 bd bf 1b 4d be 70 41 ed bd 06 24 31 3e
       -0.04820814 -0.20030116 -0.11584747 0.17298898
0002a0 41 17 00 be 0f 5f 82 3d 05 45 cf 3d 10 53 fc bd
       -0.1250887 0.06365787 0.10120586 -0.123205304
0002b0 1a 8b 2e be bf e5 57 3e 1a d7 2f 3e 50 e2 29 bd
       -0.1704525 0.21083735 0.17171898 -0.041475594
0002c0 a1 da 45 be d1 ce 31 be 00 24 eb 3c 50 64 fe 3d
       -0.19321682 -0.1736405 0.02870369 0.12421477
0002d0 21 38 5f 3e 1a 7b b5 3d 60 fa 62 3c 66 76 24 be
       0.21798755 0.088613704 0.013853639 -0.1606079
0002e0 b1 a5 18 3e a7 d5 9f 3a 4f d7 72 be 3b ff c0 bd
       0.14906956 0.0012194411 -0.23714946 -0.09423681
0002f0 b1 bd 8b bd 30 b4 8c 3c bc c8 9e be 86 b5 4b be
       -0.0682329 0.017175764 -0.31012523 -0.19893464
000300 cf b7 48 be 95 a0 0f be 4f 9f 9b bc 0f 93 ff bd
       -0.19601367 -0.14026101 -0.018996863 -0.12479221
000310 a5 78 57 3e a9 8e dc bd e0 9e 14 3d 70 ff 29 be
       0.21042116 -0.10769398 0.036284328 -0.16601348
000320 8f 84 02 be 0a 1a af bd cf b3 06 3e 19 b8 19 3d
       -0.1274588 -0.085498884 0.13154529 0.037529085
000330 f8 04 ca 3d e5 cb 56 3d 8d 8e 11 3e a0 58 c1 3c
       0.09864229 0.052440543 0.14214535 0.02360183
000340 61 61 7a bd ae 47 04 be 81 66 fb bc 11 af 24 3e
       -0.061128024 -0.12917969 -0.030688526 0.16082408
000350 51 ac c3 3d 89 55 84 3d a0 82 24 be a6 2e ac 3c
       0.09554351 0.06461627 -0.16065454 0.021018337
000360 cf 5f 35 3e ac ac 06 3e f6 1e 32 be 2f 29 af bd
       0.1771233 0.13151807 -0.17394623 -0.08552777
000370 2a 78 9b 3c 90 d7 11 bd c6 25 9f 3c f0 3c 89 3d
       0.018978197 -0.035605967 0.019427191 0.06701076
000380 1f cc 41 3e e7 6c a2 3d 86 52 3a 3e f0 80 fe 3d
       0.18925522 0.07930928 0.18195543 0.124269366
000390 10 ec 58 be 19 31 0c be d0 4a 60 3e 10 fa 99 bc
       -0.211838 -0.13690604 0.21903539 -0.018795997
0003a0 b7 63 0c be af 7a 6d 3e e0 a8 e9 3c 11 0f 0c be
       -0.13709913 0.23191331 0.028522909 -0.13677622
0003b0 1b 1e 5f be 40 41 e3 bb 2f 33 8a 3d 65 da 54 bd
       -0.21788828 -0.0069352686 0.06748044 -0.05196609
0003c0 71 b6 14 3e c7 cc 8b 3e 21 ac 0f 3e d0 47 3b 3e
       0.14522721 0.2730467 0.14030506 0.18289113
0003d0 e1 79 f3 3d 51 18 c3 3c 80 3a 82 bc ff 02 5e 3c
       0.11888481 0.023815306 -0.015897036 0.013550519
0003e0 cf 51 64 be 57 69 8b 3c 01 c4 ed 3d a7 2f 9c 3c
       -0.22296833 0.017018003 0.116096504 0.019065691
0003f0 ff 80 0c bc e1 0d cc 3d 35 3f 5a 3d 00 ff e5 3b
       -0.008575677 0.09963585 0.053282935 0.0070189238

conv2.lin_l.bias f4 [64]
000000 99 e6 96 bd 5f ee f7 bd d9 25 a6 be 76 74 bb be
       -0.07368202 -0.121060126 -0.3245075 -0.3661229
000010 0f ac dd bd 8f 1b b2 be 5f cf 2a 3e ff 1e 4d 3d
       -0.10823833 -0.3478665 0.16680668 0.05007839
000020 e0 d7 50 3d 60 49 4e be 90 96 4f 3d 1e 15 06 3d
       0.050987124 -0.20145178 0.050680697 0.032734983
000030 bd 13 fa 3d c3 33 8e 3c af 9d 56 be af fb 75 be
       0.12210796 0.017358666 -0.20958589 -0.24021791
000040 67 99 9e bd 3f 83 6c be a0 e6 95 be a7 50 9a be
       -0.07744103 -0.23096941 -0.29277515 -0.30139658
000050 91 9f 71 be 5a f2 ac 3d c5 cf cd bd 1f a6 62 bd
       -0.23596026 0.084446624 -0.100493945 -0.055334207
000060 4a 8a 2f 3e 11 b2 1d be d0 57 02 3e 21 1d ca bd
       0.17142597 -0.15399958 0.1272881 -0.09868837
000070 77 31 88 be 1e a3 b3 3d 61 81 94 be f5 e3 e0 be
       -0.2660024 0.087713465 -0.29004958 -0.43923917
000080 bf 55 5a be 25 27 45 3e 55 ae df bd e7 68 28 be
       -0.21321772 0.19253214 -0.10921923 -0.16446267
000090 7f 69 9b be e9 3e 21 3e f0 81 30 3e 50 6e e4 3d
       -0.30353925 0.15746655 0.17237067 0.11153853
0000a0 a7 18 22 bd 7b 52 db bd 78 f1 07 bc 69 62 16 be
       -0.03957429 -0.10709091 -0.008297317 -0.14685978
0000b0 27 78 e5 bd c5 dc cf bc f0 1e 53 be 80 a5 c6 be
       -0.11204558 -0.025373826 -0.2061727 -0.3879814
0000c0 a7 f0 a1 be 86 77 b5 be 06 1e 22 3d a5 ff 56 be
       -0.31628916 -0.35442752 0.039579414 -0.20995958
0000d0 b1 24 ac bd 00 77 a9 bd 5d 93 1c 3e c9 e4 ba 3d
       -0.08405436 -0.082746506 0.1529059 0.091256686
0000e0 c1 69 b0 be b1 f5 40 3e 7f fe f9 bd 9a a6 3a be
       -0.34455684 0.18843724 -0.122067444 -0.18227616
0000f0 cf a2 b9 3d c0 a8 9b 3d e2 3d 1f 3e 29 7f 95 3c
       0.090642564 0.07600546 0.1555095 0.018249111

conv2.lin_r.weight f4 [64, 16]
000000 d0 f6 22 be 11 fe c3 3d 0f 00 97 be a1 ea a6 3d
       -0.15914464 0.09569944 -0.29492232 0.08150221
000010 4f 63 13 be 5f af 83 3d 37 13 26 3e 6a 69 4c be
       -0.14393352 0.06429934 0.16218267 -0.19962087
000020 9f a4 06 be 57 33 00 3e c6 88 b7 bd 8f a8 25 be
       -0.13148735 0.12519585 -0.08961634 -0.16177581
000030 6f 56 22 be 5a 15 35 be 08 0b 0a be ff e1 04 3e
       -0.15853284 -0.17683926 -0.1348077 0.12976836
000040 40 e2 0f bd 01 77 85 be 09 be 90 be a0 dc 8a 3c
       -0.03512788 -0.26067355 -0.28269985 0.016950905
000050 60 c6 06 3e ff ed 1a be c1 fb 27 be ef c4 a3 3c
       0.13161612 -0.15129851 -0.1640463 0.019991366
000060 9f c6 29 3e e5 42 d6 bd 26 00 c7 bd a9 6a 18 3d
       0.16579674 -0.10461978 -0.09716825 0.037211094
000070 8f 6f 88 be cf 95 24 be a7 c1 8b 3d f1 46 0d 3e
       -0.26647612 -0.16072772 0.06824046 0.13796593
000080 41 14 e6 3d b1 c7 27 3e 21 e3 3f 3e 91 10 01 3e
       0.11234332 0.1638477 0.18738987 0.12603976
000090 71 13 20 3e f1 49 e3 ba 40 23 85 3d 21 f9 79 bd
       0.15632416 -0.0017340762 0.06500864 -0.061028603
0000a0 91 5a 3c 3e 90 1d c0 bd c0 f3 63 be 6f e5 76 3e
       0.18393923 -0.093806386 -0.22260952 0.2411096
0000b0 51 ab 60 3e 0a 24 49 be 90 55 b7 bd 9f 9e 60 be
       0.21940352 -0.19642654 -0.089518666 -0.21935509
0000c0 60 cf 40 3d 20 c0 73 3d fb f8 ca bd 7b 2b 50 bd
       0.04707277 0.059509397 -0.099107705 -0.050822716
0000d0 11 f3 be 3d 71 16 dc 3b 25 b2 5a 3e e1 30 9a be
       0.09323705 0.0067165424 0.21357019 -0.30115417
0000e0 50 7d 45 3e e1 22 73 be 1f 4a 96 bd 45 bf dd 3d
       0.19286084 -0.23743774 -0.07338356 0.108274974
0000f0 50 67 ce bc e5 ea 53 3d 8f 61 0b be 91 e2 a3 bd
       -0.025195748 0.051737685 -0.13611434 -0.080021985
000100 00 8f af 3c 00 cb 09 3d 41 6f 71 be a6 3a 32 bd
       0.021430492 0.03364086 -0.23577596 -0.043512963
000110 11 e0 ef 3d bf 1d d5 3d d9 94 0a be 6f bb fd 3c
       0.11712659 0.10406064 -0.13533343 0.030973164
000120 80 f7 65 3b 31 6f 29 3c 38 82 89 3d 56 0f ad 3d
       0.0035090148 0.0103414515 0.067142904 0.08450191
000130 f7 e5 a5 3d 9f c6 71 be 81 64 35 bd ef e1 8a 3d
       0.08100503 -0.23610924 -0.0442853 0.06781375
000140 af f8 09 be df 01 07 bf e1 a4 0e be a6 6f 45 3d
       -0.13473772 -0.5273723 -0.13930084 0.04820218
000150 b8 87 08 3d 71 06 93 be 10 0a 26 3e 01 59 02 bf
       0.033332556 -0.28715852 0.16214776 -0.5091706
000160 f8 fb 1b be 51 b5 02 bf 30 e1 79 be a6 bb b9 be
       -0.15232837 -0.51057917 -0.24402308 -0.36275977
000170 4f a4 e0 be 21 85 03 be 45 de 43 be 60 b4 de bd
       -0.43875358 -0.12843753 -0.19127758 -0.108742476
000180 a8 b7 9c bd ef 02 67 be 3b 8a d5 bd b7 57 1d 3e
       -0.07652217 -0.22559713 -0.10426756 0.15365492
000190 df 72 40 3e d8 3d ea 3d 48 42 96 bd 19 4d 07 3e
       0.1879382 0.11437577 -0.07336861 0.13213004
0001a0 07 cf 21 be bf ce 16 bd 3f 93 57 3e 10 ef 60 be
       -0.15801631 -0.036818262 0.21052264 -0.21966195
0001b0 c5 6d d4 3d 00 ca 2f 3a 8b dc db 3b ff 54 6b be
       0.103724994 0.00067058206 0.0067096404 -0.22981642
0001c0 81 58 6e 3e 11 04 90 be b1 ec 73 be c1 10 c2 bd
       0.23275949 -0.28128102 -0.2382076 -0.09475852
0001d0 80 88 7f bd 2b fe d4 3c 85 01 5d bd 17 07 0f 3e
       -0.062386036 0.026000103 -0.053956527 0.13967548
0001e0 bf f2 72 be 3f ae f8 3d fa 1d 4b be 85 1a 5b 3e
       -0.23725413 0.1214261 -0.19835654 0.21396835
0001f0 bf 14 7b be c0 f5 eb 3c 5f 8e 5d bd cf 71 e1 bd
       -0.24519633 0.028803706 -0.054090854 -0.110080354
000200 61 d2 bd 3d b1 38 61 3e 81 b5 78 bd 8f 6b 37 be
       0.09268642 0.21994282 -0.06071997 -0.17912124
000210 cf 18 0b be b0 b7 e7 bd f9 91 05 3e f0 58 4f be
       -0.13583682 -0.113143325 0.13043965 -0.2024877
000220 3a f4 3a 3e a7 75 a3 3d 68 41 9a 3d 6f 64 34 be
       0.18257228 0.07981425 0.075320065 -0.17616437
000230 af fe e5 bd c1 67 18 be 05 1b da 3d 30 08 d8 3d
       -0.11230218 -0.14883329 0.10649685 0.10548437
000240 50 79 3e 3e 6a f7 42 bb ef ed 6f 3d d0 08 7f 3d
       0.18600965 -0.002974952 0.05857652 0.062264264
000250 10 a7 60 bd b1 a2 25 3d 2f 15 34 be f1 23 68 be
       -0.054846823 0.040438358 -0.17586206 -0.2266996
000260 60 ef 37 3d 60 3a 84 bc 00 d1 ca 3c b0 de f9 bb
       0.04490602 -0.016141117 0.024757862 -0.0076254234
000270 1a 75 40 be 5b a0 cd bd 71 18 f8 bd a8 b5 0f bd
       -0.1879467 -0.10040351 -0.12114037 -0.03508535
000280 9f 6b b4 bd 8f 2f 4a 3e 6f 75 19 3e 01 3d 70 be
       -0.088095896 0.19744705 0.14986204 -0.23460771
000290 bf 8c c0 3d e1 ac 5c be 30 fd b2 3d cf a2 78 be
       0.09401845 -0.21550323 0.08739698 -0.24280857
0002a0 c8 a2 0f 3d cf c8 1a be c0 88 7c 3e 7f 15 61 be
       0.03506735 -0.15115665 0.24661541 -0.21980856
0002b0 c1 d9 fc bd c1 5a 71 3e 9a f7 46 bd e1 14 7a 3e
       -0.12346221 0.23569776 -0.048575975 0.24422027
0002c0 a5 2f 60 bd f5 54 0c 3e 91 40 79 be e0 76 30 3d
       -0.054732937 0.13704284 -0.24341036 0.043082118
0002d0 f0 1e 86 3d b4 a5 81 bd b1 22 fe bd fc 96 6e be
       0.065488696 -0.063304335 -0.124089606 -0.23299783
0002e0 c5 b2 e1 3d 11 4c af bd 3a 83 30 3e 2a e4 37 3e
       0.11020426 -0.085594304 0.17237559 0.17958131
0002f0 1f 80 1a 3e 20 2e 97 3d f3 90 44 be 40 34 33 3e
       0.15087937 0.073818445 -0.19195919 0.175004
000300 06 c2 3c be 21 6b 38 bc 2a 1d b7 bd a0 1e 1b 3e
       -0.18433389 -0.01125601 -0.089411095 0.15148401
000310 5f d1 1d 3e 56 79 40 be 67 b9 24 3e 59 91 b5 3d
       0.154119 -0.18796286 0.1608635 0.088656135
000320 ef ac a5 3d f1 52 f6 bd 7f 32 1f be df 85 6b be
       0.08089625 -0.120275386 -0.15546606 -0.23000287
000330 af c3 36 be 4f f7 51 be 40 24 cc 3c 4f f3 36 3e
       -0.17848085 -0.20504497 0.02491963 0.17866252
000340 2b 27 62 3e 2b 8c 0d be bf b6 02 be 9f 54 61 3e
       0.22085254 -0.13823001 -0.12765025 0.22004937
000350 30 ea bc 3c 22 3c 8e bd c0 3c 00 3e 42 1c 45 be
       0.023060888 -0.06945063 0.12523174 -0.19249061
000360 f1 37 31 be 8f 4c 11 be 5a c8 c1 bd 99 36 8c 3d
       -0.17306496 -0.14189361 -0.09462042 0.06846351
000370 6f a9 02 be 6f 19 7c 3e b9 69 51 be b0 88 11 be
       -0.12759946 0.24619077 -0.20450486 -0.14212298
000380 66 67 33 3e 41 9e 74 3e 71 96 6e be da 35 47 be
       0.17519912 0.23888494 -0.23299576 -0.19454136
000390 47 c5 00 be 81 53 c5 bd 80 67 5a be 25 0f d3 3d
       -0.12575255 -0.09635068 -0.21328545 0.10305623
0003a0 58 40 92 3d a0 fe 9a 3d d0 c8 5a 3d 11 ef 68 3e
       0.07141179 0.07568097 0.053414166 0.22747447
0003b0 18 c1 94 bd 36 98 33 be 86 3d 43 3d 80 c9 19 3e
       -0.07263392 -0.17538533 0.047666095 0.15018272
0003c0 50 77 61 be 0f ae 91 bd 0f 78 19 bb c1 21 65 3d
       -0.2201817 -0.07113277 -0.0023417508 0.055940393
0003d0 e0 11 96 bc 5f 32 9c bd 80 ce 65 3b 35 41 57 3d
       -0.01831907 -0.07626795 0.003506571 0.05255242
0003e0 20 68 0f bd 6f 86 c8 bd 25 c1 e2 3d 91 8a 47 3d
       -0.03501141 -0.09791266 0.11071996 0.04871613
0003f0 7f 76 4c 3e a0 d9 94 3d 41 86 0b be 30 7e b2 bd
       0.19967078 0.07268071 -0.13625433 -0.087154746

lstm_cell.weight_ih f4 [256, 192]
000000 7f 5b 00 3e 30 ff 3c 3e b1 47 91 bd 08 3e 99 3c
       0.12534903 0.18456721 -0.07093752 0.018706337
000010 89 37 29 3d 06 31 39 be c1 a8 3a 3d b7 63 8b 3d
       0.041312728 -0.18085107 0.045571093 0.068061285
000020 9b 15 d4 bd ef f2 ce bc a6 f1 b3 3d ac 10 11 3e
       -0.103556834 -0.025262324 0.08786325 0.14166516
000030 e3 1d 0b 3e a1 7b 4a 3e 80 dd b0 3b 21 73 4f be
       0.1358562 0.19773723 0.0053974986 -0.20258762
000040 b7 4f 1c 3d 11 07 2c 3e 2f 65 43 bc 02 eb fd 3d
       0.03816196 0.1679957 -0.0119259795 0.1239834
000050 c5 b2 e0 3d 81 27 27 3c 16 8a 2d 3d 7f c2 71 3d
       0.109715976 0.01020229 0.042368017 0.059023377
000060 20 ad 12 bd ff 62 fc 3d 41 be ee 3d 3a ae 34 3e
       -0.035809636 0.123235695 0.11657382 0.17644587
000070 b1 8c 3f bd 1f 21 b8 be ef 97 44 3e b6 83 47 bd
       -0.046765033 -0.3596277 0.19198583 -0.048709594
000080 30 71 3c bc f4 34 3a 3e c6 3d 4a be 99 d9 21 3e
       -0.011501595 0.18184263 -0.19750127 0.15805663
000090 81 94 86 3c b1 2d fe bd bf c3 26 3d 58 30 0f bd
       0.016428234 -0.12411059 0.04071402 -0.034958214
0000a0 cf 93 0f be 00 34 ce 3d bf f1 c7 3d 48 2d 0b 3e
       -0.14021228 0.10068512 0.09762906 0.13591492
0000b0 ad 2a 49 3e a1 9c 35 bc b7 1f a1 3d 50 dc 3d bd
       0.19645186 -0.0110847065 0.07867377 -0.046352684
0000c0 3a 54 3a ba 30 1e 51 bc a4 22 27 bd 8b eb d8 3d
       -0.00071078876 -0.012763545 -0.04080452 0.10591801
0000d0 31 be a9 3d 57 71 1e 3e 9b 01 44 3e ef 62 16 ba
       0.08288229 0.15472923 0.19141237 -0.0005736788
0000e0 40 66 f0 3d 71 a8 28 3e 61 bc b0 ba c1 15 5b 3e
       0.11738253 0.16470505 -0.0013483876 0.21395017
0000f0 4f ac 1b 3e 02 06 f0 3d 01 8c 63 bd a1 a7 97 3d
       0.1520245 0.11719896 -0.05555344 0.074050196
000100 4e f9 83 bf 7b 1a 5a 40 35 6c 29 40 99 64 36 40
       -1.0310457 3.4078662 2.6472294 2.84989
000110 c5 a2 12 40 22 de b6 40 38 e4 e5 40 4c 67 bd bd
       2.2911847 5.714616 7.1841087 -0.09248218
000120 9f 06 b6 40 97 30 f3 40 f4 64 f0 40 d4 e2 d3 40
       5.6883082 7.5996814 7.5123234 6.621439
000130 b4 a5 cb 40 e2 da d7 40 9f 8e 0c 41 57 d6 f4 40
       6.3639774 6.745469 8.78482 7.6511645
000140 61 19 fd 40 a5 6c d9 40 47 43 ef 40 74 32 ed 40
       7.909348 6.7945123 7.4769626 7.412409
000150 e5 64 ed 40 bf 85 aa 3d 74 fb 05 41 00 26 ab 40
       7.418566 0.08326291 8.37389 5.3483887
000160 c0 18 e6 40 43 53 e6 40 28 9a e0 40 c4 64 01 41
       7.1905212 7.197664 7.018818 8.087101
000170 0b 71 ea 40 5b e3 96 3b 96 2d 49 3d 85 58 8e 3d
       7.326299 0.0046047396 0.04911574 0.069504775
000180 6c a6 40 bd 0c 02 b4 bd b1 e4 3a 3d db 57 fe 3c
       -0.047033712 -0.08789453 0.045628253 0.031047752
000190 af 25 bb 3d 01 1f 2a 3d 15 e8 e2 bd 20 49 96 3b
       0.09138047 0.041533474 -0.110794224 0.004586354
0001a0 01 d8 90 3d 60 f6 fd bb 9f b2 ef bd c1 c3 e5 bd
       0.070724495 -0.0077503175 -0.11703991 -0.11218978
0001b0 00 8f 6c 3b 70 66 02 bd f0 14 6d 3c c0 5b 55 bd
       0.0036095977 -0.031835973 0.014470324 -0.052089453
0001c0 a0 8e 97 bd bf 85 05 3d e0 6b fb bc 00 c3 93 3b
       -0.074002504 0.032598253 -0.030691087 0.00450933
0001d0 e0 66 53 bc 3f 0c a6 bd 06 26 b1 bd b1 83 f6 bd
       -0.012902945 -0.081078045 -0.086498305 -0.12036837
0001e0 ef fe c6 3d c0 5a 3c 3c 86 b9 b7 bd ff 54 e8 3d
       0.097165935 0.011496246 -0.08970933 0.11344337
0001f0 bf 37 ae bd 0f 7a e6 bd 41 1d 43 3d 08 af 90 bd
       -0.085067265 -0.112537496 0.04763532 -0.070646346
000200 41 c6 fe bc f8 ad fe 3f 0a 38 a4 3f b8 73 ef be
       -0.031100394 1.9896841 1.2829602 -0.46767974
000210 51 ca 0a bf 5a 4f 15 40 ff 74 d4 3d c5 29 57 40
       -0.5421496 2.3329682 0.10373878 3.3619244
000220 e5 c8 d4 40 68 ec ba 40 d5 fa c3 bd 07 45 ec 40
       6.6495233 5.841358 -0.09569327 7.383426
000230 b0 11 f7 40 2c fa f8 40 56 2b d3 3d ac 2a 06 41
       7.720909 7.7805386 0.10311 8.385418
000240 a3 1f 11 41 3a 8f 00 41 6c 4d f2 40 d4 91 e5 40
       9.070224 8.034967 7.571951 7.1740513
000250 51 45 dc 40 4c cf ce 40 eb 07 45 3c cd 61 04 41
       6.8834615 6.462805 0.012025814 8.273877
000260 5e d5 ce 40 79 2e 60 40 43 20 70 3d 12 f0 e0 40
       6.463546 3.5028365 0.058624517 7.0293055
000270 19 b9 84 40 5e b7 09 41 ea c6 dd 3d 00 cd 58 3d
       4.147595 8.607267 0.108289555 0.05292988
000280 13 6e 5f 3d 16 c6 9f 3d fd 59 df bd 3c 0d 4b bd
       0.054548334 0.07801454 -0.10905836 -0.04957317
000290 50 ad bc bd b5 c3 ba bd 95 ef 84 bc ff 6b ec bd
       -0.09212744 -0.091193594 -0.016227523 -0.11544036
0002a0 8f ca 49 3d df 34 ea 3d ff 2f 91 3d bf ee 24 bd
       0.04926544 0.114358656 0.07089233 -0.04026675
0002b0 11 3c 02 bd 65 75 59 3d bf e1 b6 3d d0 16 c4 bd
       -0.031795565 0.05309047 0.089297764 -0.09574664
0002c0 49 f8 a6 bd 8f a3 3d bd 98 f4 8e bd a6 ba 2c 3d
       -0.081528254 -0.04629856 -0.06980246 0.04217019
0002d0 e1 7b f8 bd 50 58 b9 3d 40 fe 3e bb 71 62 e3 3d
       -0.12133003 0.090500474 -0.0029143244 0.111027606
0002e0 f1 3b 24 3d 21 4e 83 bd 00 8a 10 bd 66 24 ac bd
       0.040096227 -0.06411386 -0.035287857 -0.0840538
0002f0 59 43 1e 3d b1 a7 a8 bd 81 4e f2 3d 4f 94 b6 3d
       0.038638446 -0.082351096 0.1183138 0.08915006
000300 ff ff 3e 3d 9f 85 20 3d 97 bf 0d 3f 81 7e cf 3d
       0.046630856 0.03918993 0.5537047 0.101315506
000310 66 92 b2 3d 79 88 12 be 71 e1 64 bc 6f 5b f9 3c
       0.087193295 -0.14309873 -0.013969765 0.030439107
000320 d0 7d 61 bc 60 dc e7 bc 41 67 fb 3d 09 dc db 3b
       -0.013762906 -0.028303325 0.122755535 0.00670958
000330 fc 39 13 bd 54 1e c7 3e 77 0d a8 bd d1 b5 17 3f
       -0.03594397 0.38890326 -0.08205693 0.59261805
000340 b9 5e 8b 3c e1 fe 56 3d 61 c6 00 bd 5d ea f2 3d
       0.01701294 0.052489165 -0.03143919 0.118611075
000350 0a bd 3d 3e 00 88 a3 3d 81 df 4c bd 16 0f 33 3e
       0.18529144 0.07984924 -0.050017837 0.17486224
000360 e0 be 7e 3d 6f 3d 60 3d 30 d5 0e 3c 81 c4 97 3e
       0.06219375 0.054746088 0.00871782 0.29642108
000370 19 f8 0b bc 0d 59 32 3f 19 b0 14 3f 89 14 29 3d
       -0.008543038 0.6966713 0.58081204 0.04127935
000380 3f 52 88 3d 34 95 51 bd e1 93 56 3f 5f 7d 32 bd
       0.06656312 -0.05116768 0.83819395 -0.043576594
000390 9b da 47 bd db a1 dd 3d e0 14 d9 bc b8 73 82 3c
       -0.048792463 0.10821887 -0.026499212 0.01592432
0003a0 10 d4 2d 3f e0 18 c7 3c ab 67 44 3f 91 a6 03 3e
       0.67901707 0.024303854 0.76720685 0.12856509
0003b0 aa 9f b3 3e 89 12 06 3e 71 1d 49 3d a7 e8 9f 3d
       0.35082752 0.13093008 0.049100343 0.07808047
0003c0 3f 43 ad bd c8 ab 14 3d 7d ae b4 3e bf 46 2b be
       -0.08460092 0.036296636 0.35289374 -0.16726206
0003d0 ef ef bf bd 89 0d 96 bd 87 f8 ef 3d 63 be d1 3c
       -0.093719356 -0.073268004 0.11717325 0.025603479
0003e0 87 a7 9f bd 39 64 0b 3e c1 e4 21 3e db 78 61 3d
       -0.07795625 0.1361245 0.15809919 0.055046897
0003f0 bf d5 51 3d 7a 77 6a bd ee 54 ec bc 71 54 03 3d
       0.051229235 -0.057242848 -0.028849091 0.03206295

lstm_cell.weight_hh f4 [256, 64]
000000 ed e8 ea 3e d5 f1 c2 3e e6 ce 88 3f de 1f 86 c0
       0.45880833 0.38075128 1.068814 -4.19139
000010 2b ff aa 3f 81 2c 35 c0 f9 46 19 c0 fa 8f 1b 40
       1.3359121 -2.8308413 -2.3949568 2.4306626
000020 4a b9 5e 40 33 e0 44 3f a5 1b e3 3e 67 f7 a2 bf
       3.4800591 0.769046 0.4435703 -1.2731751
000030 64 9c 21 bd 17 0e ba bf c5 ad ec bf 10 9d 5e be
       -0.039455786 -1.453555 -1.849053 -0.21739602
000040 d7 f3 4c bf 05 75 1b 3f e4 66 48 c0 f9 7d c4 bf
       -0.8005957 0.6072543 -3.13128 -1.5350944
000050 8f b0 37 bd 5c 1e 25 40 06 84 21 40 fa 7e 45 bf
       -0.044846114 2.579978 2.523683 -0.77146876
000060 ea e0 03 3f 70 75 21 40 22 c6 1d c0 c1 e8 67 3f
       0.51515067 2.5227928 -2.465218 0.9058953
000070 98 e3 2b be 4e ec 39 c0 b4 c8 f5 bf 3e 5e db 3d
       -0.16786039 -2.905048 -1.9201875 0.10711335
000080 f6 ed 96 3f 16 aa f9 bf 04 6d cb be 73 c4 6d 3f
       1.179137 -1.9505031 -0.3973161 0.9287788
000090 e7 c2 1b 40 92 1e b1 bf 6e 2f 5a 3e 48 de 0f c0
       2.433771 -1.3837454 0.21307155 -2.247942
0000a0 26 67 9d 3f 2d 00 b5 bd 85 64 32 c0 a4 24 94 bf
       1.2297103 -0.08837924 -2.7873852 -1.1573682
0000b0 c8 2f 9f bf fe 2e ec bf 03 6c 0f 3f 80 dc c9 3f
       -1.2436457 -1.8451841 0.5602419 1.5770416
0000c0 5c af ec 3e 21 44 05 40 9e 83 00 c0 8d bb 31 3f
       0.4622754 2.0822833 -2.0080333 0.69426805
0000d0 22 63 bd 3f 35 6c c6 3f cb 61 18 c0 99 45 43 40
       1.4795878 1.5501772 -2.3809688 3.051123
0000e0 c4 77 a6 3f e1 be 16 c0 c4 4f 6e 3f e5 3a 97 3e
       1.30053 -2.3554003 0.9309046 0.2953712
0000f0 ac 59 35 40 eb 1d a3 3f 73 fb f9 3e 2f 96 36 40
       2.8335981 1.2743505 0.48824653 2.8529165
000100 6f 49 de 3e 94 89 ed be e8 f3 05 3d d5 7e a3 3e
       0.434154 -0.46394026 0.03270331 0.31932703
000110 a0 cd 0d c0 95 e9 2f c0 60 d2 0f 3f 29 dc b1 3e
       -2.2156754 -2.7486317 0.5618038 0.3473828
000120 e4 ab 05 c0 6c ca 8c bf 71 c6 23 bf 8f c4 24 bf
       -2.0886164 -1.0999274 -0.6397467 -0.64362425
000130 35 ee 81 bf 4f 75 0a bf a4 7f 5c be 2f 4e 2f 40
       -1.015082 -0.5408525 -0.21533066 2.739147
000140 de e5 11 bf eb d5 7e bf ea 27 51 bf 36 38 18 c0
       -0.56991374 -0.9954516 -0.8170153 -2.3784308
000150 59 a0 33 bf 6e d7 e9 3f 07 86 b8 3e e1 b8 6d 3f
       -0.70166546 1.8268869 0.36039755 0.9286023
000160 4a 5d 94 3f 89 11 8d be 69 34 15 c0 cc 1b 78 c0
       1.159097 -0.2755244 -2.3313239 -3.8766966
000170 ad af 46 bf 34 93 a5 be 8b 3a 0c c0 1e bc 71 bf
       -0.7761181 -0.3233887 -2.1910732 -0.9442767
000180 62 6d 37 3e dc 6f c4 3f c8 bc 68 c0 f7 71 06 40
       0.1791282 1.5346637 -3.6365223 2.1007059
000190 d5 a1 d1 3f 05 13 db be 01 9c 8a bd f6 57 3c 40
       1.6377512 -0.42787948 -0.06768037 2.9428687
0001a0 41 fe 8a bf 9b d5 51 bf 11 e8 92 40 3a 34 29 3f
       -1.0858842 -0.8196656 4.5908284 0.66095316
0001b0 a7 28 c6 bf 25 f1 a2 be b0 3a b8 bf ec 5b 55 bf
       -1.5481156 -0.31824604 -1.439291 -0.83343387
0001c0 b5 90 80 40 b8 0f 01 c0 1b 84 a0 3f 53 68 0b c0
       4.0176644 -2.0165844 1.2540315 -2.1782424
0001d0 89 59 5a 3e 46 7c 36 be 38 86 4d c0 76 b9 01 be
       0.21323217 -0.17820844 -3.211317 -0.12668404
0001e0 9e a0 e6 bd a1 ed ec bf fa 08 e2 3f b9 27 1a 3f
       -0.11261104 -1.8510019 1.765899 0.6021686
0001f0 37 5e cf 3f 4d 2c 94 bf eb 88 e4 3d bb 4c f8 bf
       1.6200627 -1.157602 0.111589275 -1.9398416
000200 47 22 2a 40 06 be 7c 3f 0a e9 bd 3e ba c0 e2 3e
       2.6583421 0.9872745 0.37091857 0.44287664
000210 3b 1c 8d 40 cc e7 a5 3e da 4c a1 3e 39 49 f7 bf
       4.409696 0.3240341 0.31503946 -1.9319221
000220 c0 d0 06 40 74 39 1b c0 9d c3 d7 3f 17 b7 05 3d
       2.106491 -2.4253817 1.6856571 0.03264531
000230 4e 12 e3 bd 3c 13 a9 bf 51 5b f3 bf 9c ab 27 bf
       -0.11087476 -1.3208995 -1.9012243 -0.6549623
000240 a0 1d c8 3f 90 0c 2b 3f 26 98 01 bf 86 6f f9 bf
       1.5634041 0.66816044 -0.50622785 -1.9487159
000250 ff 98 73 40 43 91 fb 3e 7a 9c b8 3f 89 70 c5 3f
       3.8062131 0.49134263 1.4422753 1.5424968
000260 fc fc 24 3f 76 36 b9 3f df c1 d2 3f b0 60 b5 be
       0.64448524 1.4469745 1.6465415 -0.3542533
000270 fc 99 00 c0 10 f3 22 40 3e a2 62 3f ab 41 8c 3f
       -2.0093985 2.5460854 0.8852881 1.095754
000280 64 ee c5 3f 05 30 c2 bf 63 3a 90 bd 46 fd 73 bf
       1.5463376 -1.5170904 -0.070423864 -0.9530834
000290 a6 1a e6 3f 6f 11 f7 3f 05 59 a0 3f b3 f0 20 40
       1.7976882 1.9302195 1.2527167 2.514691
0002a0 5a 1e 0e c0 00 64 fb be 41 b7 1a c0 4a 3c fd be
       -2.2206025 -0.4909973 -2.417435 -0.4946006
0002b0 80 31 ea 3f 1a c7 4b c0 89 5c 52 3f 2b 2c 8c 3f
       1.8296356 -3.1840272 0.8217245 1.0950979
0002c0 df 74 51 3e 09 2e 8b c0 20 25 66 3f 03 1d 6c 3f
       0.20454739 -4.3493695 0.899004 0.9223177
0002d0 17 0b 7a c0 5d e2 8e 3f bb e2 51 3f f9 1a 90 3f
       -3.9069269 1.116283 0.8198659 1.1258231
0002e0 17 fa de 3f 7d e5 91 3e 73 70 53 bf 43 10 7c 3f
       1.7420071 0.28495398 -0.8259346 0.98462313
0002f0 3f c3 3c 40 52 ed 9d bf 88 a0 e3 be 93 aa ca bf
       2.9494169 -1.233805 -0.44458413 -1.5833305
000300 1f 2e d0 bf 6f a8 7c 3f a2 f5 94 be 50 ad 25 3e
       -1.6264075 0.9869451 -0.29093653 0.16179395
000310 78 a7 33 bf 28 2d 37 3e 66 1e 78 bf a0 54 f0 bf
       -0.7017741 0.1788832 -0.96921384 -1.8775826
000320 45 6d 4b c0 8e 4a db 3f 2b 23 cb bf 0c f7 99 bf
       -3.1785443 1.7132127 -1.5870107 -1.2028518
000330 06 ab 7f 3f 19 6b 43 bf 4a cf 45 3e 19 42 87 be
       0.99870336 -0.76335293 0.19317356 -0.26417616
000340 33 8f db 3d b6 1a fd 3f ed 31 f2 3f f6 c6 86 bd
       0.107206725 1.9773777 1.8921486 -0.065809175
000350 fb 52 87 bf d1 21 15 bf 0c a9 d7 3d 6b fc ad 3e
       -1.0572199 -0.58254725 0.1053029 0.33981642
000360 2a 1b 36 40 bb a4 a7 bb 90 93 1a 3f 97 e2 27 40
       2.845408 -0.005116073 0.6038141 2.623205
000370 05 1b 1d 40 c8 9d ba 3f 71 2a c9 bd a2 f9 96 c0
       2.4547741 1.4579401 -0.09822548 -4.7179728
000380 19 6a e6 bf 2d d2 62 bf 7b 00 9f 3f 5f f7 e5 3e
       -1.8001128 -0.8860195 1.2422022 0.44915292
000390 d8 22 b0 3f ec f3 9c be fd 52 26 40 89 0c 3c 3f
       1.3760633 -0.30654848 2.5988152 0.7345663
0003a0 76 9d 37 be c0 78 35 40 5d 85 3c c0 55 2d 38 c0
       -0.1793116 2.835495 -2.9456398 -2.8777668
0003b0 3f ec 02 40 85 a5 ba be fa b4 30 40 9b 3d 4b 3f
       2.0456693 -0.36454406 2.761046 0.7939088
0003c0 0f a0 29 40 6b 65 0b 3d 26 bf 14 bf f6 a5 e1 3e
       2.6503942 0.034032267 -0.5810417 0.4407193
0003d0 92 38 05 3d 12 15 49 bf 8a b1 93 3e 1d 15 1a c0
       0.032524653 -0.78547776 0.2884639 -2.4075387
0003e0 1d 25 a4 be b0 2a 02 40 3f 87 4f c0 f5 50 f0 be
       -0.32059565 2.0338554 -3.2426298 -0.46936765
0003f0 63 fb 9d bf bb 18 8d bf 5a 28 04 3f 30 3b 23 c0
       -1.2342342 -1.1023172 0.5162407 -2.5504875

lstm_cell.bias_ih f4 [256]
000000 45 46 a4 bf 7e 83 d6 3f 47 69 14 3f 56 2f 4d 40
       -1.2833945 1.6758878 0.5797314 3.2060142
000010 a5 b9 3e 40 1a c3 50 40 8d 94 83 3f 67 0e 28 40
       2.9800808 3.261908 1.0279709 2.625879
000020 3a ed 33 3f 1e d7 2a 3f ba 1e 4e 40 21 af 09 40
       0.70283854 0.6673449 3.2206254 2.151314
000030 53 8d 74 c0 f6 25 1c 3d 4a fd 40 c0 e3 e8 8c 3d
       -3.8211257 0.03812214 -3.0154595 0.06880357
000040 d1 3e 3a 40 4e 18 14 c0 59 fd 30 c0 d4 c6 58 3f
       2.910084 -2.3139834 -2.765463 0.8467839
000050 5d a2 b8 bf 2c ea 81 c0 fc 68 cf bf aa 0c af 3e
       -1.4424549 -4.0598354 -1.6203914 0.3418935
000060 11 1e e3 3f 9a 91 8f bf 6b 89 54 3f df 28 91 3f
       1.774355 -1.1216309 0.83022183 1.1340598
000070 9b b6 36 bf 1b d8 1c 40 e1 c0 1b 40 1e cc 85 3e
       -0.71372384 2.45069 2.4336474 0.26132292
000080 94 5a d0 3f a0 0e eb 3f 81 d0 07 bf b5 c5 a0 bf
       1.6277642 1.8363838 -0.53052527 -1.2560335
000090 c8 08 23 bf 5c 94 b1 3f ed 3c 75 be e6 74 d2 3f
       -0.63685274 1.3873401 -0.23949023 1.6441925
0000a0 67 e5 f6 3e 47 23 51 3f d2 67 33 3f ee c5 ba bf
       0.48221895 0.81694454 0.7008029 -1.4591653
0000b0 16 55 99 c0 57 65 d9 bf 4c 41 46 3f af 3b 42 bd
       -4.7916365 -1.6984051 0.77443385 -0.0474202
0000c0 6e 6c 8c c0 ed 5f 08 c0 6b 2d 39 c0 86 4c 1b 3f
       -4.388236 -2.1308548 -2.893397 0.6066364
0000d0 ae 22 1d c0 8b 88 e9 bf 36 1e 2e be 45 7d f5 bd
       -2.4552417 -1.8244795 -0.17003712 -0.11986784
0000e0 25 ed 0c c0 6d d0 40 c0 be d7 a1 3f 4f f6 30 3f
       -2.2019742 -3.0127213 1.2643964 0.6912584
0000f0 b3 e0 5e 3f 47 20 4d 40 21 40 11 40 c0 15 36 c0
       0.87061614 3.205095 2.269539 -2.8450775
000100 63 b2 95 bf 56 f0 23 bf a9 4e a9 be 15 12 61 3f
       -1.1695064 -0.640386 -0.33067825 0.87918216
000110 e8 4c c5 bf 76 3b 8c 3e 27 5a 74 3f 2f e7 14 c0
       -1.5414095 0.27389115 0.9545006 -2.3266103
000120 d1 3a 5c 3f 01 54 89 bf ff 1d 58 c0 8c 99 25 c0
       0.86027247 -1.0728761 -3.3768308 -2.5874968
000130 ed 03 3f 3f b9 a3 ab 3c 70 c8 f1 bf d5 3e 8e 3e
       0.74615365 0.020952092 -1.8889294 0.27782312
000140 37 cd 6f bf 3c 53 f2 3e 90 a3 1b bf c4 a1 05 40
       -0.9367251 0.47329128 -0.6079645 2.0879984
000150 ae 20 31 c0 2a 25 43 3f 64 b4 2b c0 3b 2e a4 bf
       -2.7676196 0.7622858 -2.6828852 -1.2826608
000160 14 87 4c 3f e5 90 22 bf 79 6c 77 3e 24 90 d8 be
       0.7989361 -0.6350234 0.24162473 -0.4229747
000170 9a 55 ad bf 79 18 80 bf 0e 63 89 3e f4 f1 5c bf
       -1.3541749 -1.0007468 0.26833385 -0.8630669
000180 10 40 74 bd bf bc 3a c0 d9 ee 61 be 38 48 56 c0
       -0.059631407 -2.9177701 -0.2206377 -3.348158
000190 12 be 26 40 54 a7 69 bf 89 63 e1 be d5 0f d5 bf
       2.605351 -0.9127095 -0.44021252 -1.6645457
0001a0 d2 7e c2 bf b6 54 e2 3f c2 8c 2f 3f f8 3a 10 3f
       -1.5194952 1.7682102 0.68574154 0.5633998
0001b0 7f 70 b4 be 8d 4a 08 c0 72 1d 85 bf 66 58 63 bf
       -0.35242078 -2.1295502 -1.0399611 -0.8880676
0001c0 41 2f a1 bf 71 68 81 3f 4c 5e 07 bf 7e a1 0f c0
       -1.2592546 1.0109998 -0.5287826 -2.2442317
0001d0 45 60 24 c0 40 61 84 3e a5 92 e5 3e 12 0d d5 bf
       -2.5683758 0.25855446 0.44838443 -1.6644614
0001e0 9c 2e 18 40 bc a7 a7 3f 31 49 88 c0 df 58 09 40
       2.3778448 1.3098063 -4.2589345 2.1460493
0001f0 2a 05 6e be 85 a2 02 c0 7e d6 34 3f e6 02 eb be
       -0.23244157 -2.0411694 0.7063979 -0.4590065
000200 f0 5a 3f 40 3d 7d 97 be 61 2b 65 c0 46 3b 12 c0
       2.9899254 -0.29587737 -3.5807726 -2.2848678
000210 5e 3b c6 3f de 37 07 bf 7c e2 10 3f df c3 be bf
       1.5486867 -0.5281962 0.5659559 -1.4903525
000220 80 54 12 40 13 a8 05 c0 52 19 77 40 d4 03 29 3f
       2.2864075 -2.0883834 3.8609204 0.66021466
000230 36 6a 2d 3e 3e 6f 39 40 f0 d3 de 3f d0 1d 16 bf
       0.16935048 2.8974147 1.7408428 -0.5863924
000240 ba 6f 18 40 90 4b 91 40 95 63 0b c0 29 24 86 3e
       2.3818192 4.540474 -2.177953 0.26199463
000250 8f c8 69 bf d8 2c 68 3e 7f 20 11 3f 94 1c 42 3f
       -0.91321653 0.22673357 0.5669021 0.75824857
000260 e0 53 1a 3f fe 9d 0a bf 82 13 9c 3d 52 a9 e4 bf
       0.60284233 -0.54147327 0.07620908 -1.7864172
000270 35 21 52 3f 81 78 42 3f 52 76 16 40 29 1a 1d 40
       0.8208192 0.75965124 2.3509717 2.4547217
000280 36 8f f6 3f 48 d2 c1 bf e7 56 c2 be 3c 05 f9 3f
       1.9262455 -1.5142298 -0.37956926 1.9454722
000290 47 04 f2 3f 5e e8 94 be 9d 94 b4 3f 12 74 af 3e
       1.8907555 -0.29083532 1.4107853 0.34268242
0002a0 6e c5 b7 be b6 68 dd 3f 95 e7 0b bf 9f c0 f2 3f
       -0.35892814 1.729758 -0.5465024 1.8965033
0002b0 0f f5 42 3f 85 ee ac 3a 35 ec 54 40 b1 19 28 c0
       0.7615518 0.0013193643 3.326917 -2.626568
0002c0 ba 15 02 c0 9c ce a4 3e 57 6c ce 3e 6d 47 31 bf
       -2.032576 0.3218888 0.40317032 -0.6924961
0002d0 e1 5a 90 bf db 70 33 c0 a4 9c b4 bf d1 f3 ed bf
       -1.1277734 -2.8037632 -1.4110303 -1.8590032
0002e0 94 76 aa be 37 e8 a2 3f ed fc 9d bf 1a 73 5a bd
       -0.33293593 1.2727116 -1.2342812 -0.053332426
0002f0 7b d0 e8 bf 9f bb a6 bf b8 87 01 40 8c 03 24 3f
       -1.8188623 -1.3026007 2.0239086 0.6406791
000300 b3 7e 84 be 49 00 86 c0 7a 09 20 3f e4 44 a5 40
       -0.25877914 -4.187535 0.6251446 5.1646595
000310 aa 98 46 bf 30 c0 0f c0 0c 7f ce 3f 9e 68 fa 3f
       -0.77576697 -2.2461052 1.6132522 1.9563177
000320 90 d5 9e bf 24 7d 60 3f 3e 20 02 c0 79 11 56 40
       -1.2408924 0.8769095 -2.033218 3.3448164
000330 d9 5b 6c bf af 8d d8 3f 68 ef 2f c0 6b 09 fe be
       -0.9232765 1.6918238 -2.7489872 -0.4961656
000340 c8 8e 1b c0 8c ab 21 bf 7c a8 20 c0 93 a4 c8 3d
       -2.4305897 -0.63152385 -2.5102835 0.09797015
000350 90 1f 92 3f f7 d6 7e bf a8 d7 a7 3f 31 17 44 3f
       1.1415882 -0.9954676 1.3112688 0.7659789
000360 6f b5 35 bf 5c 65 26 3e 44 6a ea 3f 77 fd 4f c0
       -0.7097997 0.16249603 1.831368 -3.2498453
000370 3b 0d d8 3e 48 5f be bf f4 e8 b5 3f 72 37 e9 be
       0.42197594 -1.4872828 1.4211717 -0.45550114
000380 92 4e 4d bf 0c 3d 09 40 04 38 a0 be ba 25 9d bf
       -0.80198014 2.144351 -0.31292737 -1.2277138
000390 36 ae ea be 3d 9d 36 40 48 5a 09 c0 7f 10 44 40
       -0.45836037 2.853347 -2.1461353 3.0635068
0003a0 e2 dd 14 3f 68 46 53 40 c5 4f dd bf 35 f1 dc 3f
       0.58151066 3.3011723 -1.7289969 1.726111
0003b0 28 1b 18 c0 67 f2 86 c0 db 15 e3 3f 81 38 50 bf
       -2.3766575 -4.21709 1.7741045 -0.8133622
0003c0 bd 53 4d c0 a9 32 dc bf 02 b3 f9 bf 3e b5 0a c0
       -3.208236 -1.720296 -1.9507754 -2.1673121
0003d0 d5 7d 55 bf c5 d0 d4 bf 46 19 0a 40 8e c9 19 c0
       -0.8339513 -1.6626211 2.1577926 -2.402927
0003e0 70 63 1b 40 cd 20 8a bf 13 2c ab 3e 79 14 13 c0
       2.4279442 -1.079126 0.33432063 -2.2981246
0003f0 32 3d 3b bf b0 3e 82 3f 57 68 1b c0 42 f8 bb 3e
       -0.7314025 1.0175381 -2.4282434 0.36712843

lstm_cell.bias_hh f4 [256]
000000 fd 6a a8 bf 7e 6a e4 3f 9d f1 b7 3e ca bd 48 40
       -1.315765 1.7844999 0.35926524 3.1365838
000010 45 57 43 40 1a 75 51 40 ea 2f 6d 3f 77 53 2a 40
       3.0522015 3.2727723 0.92651236 2.6613443
000020 ba 8d 39 3f 50 17 25 3f 4a 5d 4e 40 ca c9 11 40
       0.7248188 0.644887 3.224444 2.2779412
000030 b3 e3 7e c0 f4 36 0a 3e 4a 4c 37 c0 d3 35 de 3d
       -3.9826477 0.13497525 -2.8640313 0.1085011
000040 89 02 3a 40 ce fd 1c c0 76 0a 31 c0 5a f1 38 3f
       2.9064047 -2.452991 -2.7662635 0.72243273
000050 fd d4 b9 bf 70 94 7a c0 38 1b db bf 14 d4 b9 3e
       -1.4518124 -3.91531 -1.7117682 0.36294615
000060 f1 54 dd 3f 76 a6 9c bf 82 c1 87 3f 4f 01 84 3f
       1.7291547 -1.22383 1.0605929 1.0312899
000070 63 dc 1f bf 4b b5 18 40 61 a4 25 40 72 cf 86 3e
       -0.6244566 2.3860652 2.588158 0.26330143
000080 18 d7 d2 3f c0 24 e8 3f d1 50 1e bf 05 ed 96 bf
       1.6471891 1.8136215 -0.61842066 -1.1791083
000090 08 c0 39 bf ec 01 c9 3f 51 06 53 be ec 5f e0 3f
       -0.7255864 1.5703712 -0.20607878 1.7529273
0000a0 01 75 8a 3e f9 77 65 3f 52 83 5c 3f 24 d2 ab bf
       0.27042392 0.8963619 0.8613788 -1.3423505
0000b0 e6 18 9b c0 37 a1 d4 bf 9c f8 49 3f 70 2d 08 bc
       -4.8467894 -1.6611699 0.7889497 -0.008311614
0000c0 76 82 8c c0 0d f5 04 c0 e4 e7 31 c0 b6 cc 24 3f
       -4.3909254 -2.0774567 -2.7797785 0.64374864
0000d0 4e 7e 29 c0 2b 02 ee bf 3a 97 c5 bc 44 25 51 be
       -2.648334 -1.8594412 -0.024119962 -0.20424372
0000e0 95 7e 09 c0 06 a2 38 c0 36 b7 9b 3f 40 05 12 3f
       -2.148351 -2.8848891 1.2165287 0.5703926
0000f0 13 46 50 3f f0 d5 4a 40 12 7f 08 40 08 56 31 c0
       0.81356925 3.1693077 2.1327558 -2.770876
000100 f3 7b 87 bf 0a a1 fd be 83 5a 98 be 2f b7 73 3f
       -1.0584701 -0.49536926 -0.29756555 0.9520139
000110 68 a1 bc bf 18 74 8c 3e bc d2 84 3f 41 21 18 c0
       -1.4736757 0.27432323 1.0376811 -2.3770297
000120 b2 b9 48 3f 31 8c 9b bf 8f 87 5c c0 de 08 27 c0
       0.7840835 -1.2152158 -3.4457738 -2.6099162
000130 93 d8 2a 3f 39 93 7b 3e 5f bc d9 bf 19 87 a7 3e
       0.66736716 0.2456788 -1.7010611 0.3272026
000140 aa 33 92 bf 8c 89 ca 3e 28 0f 06 bf 4c fa 02 40
       -1.1422017 0.39558065 -0.52366877 2.046527
000150 5e 88 30 c0 5a 13 23 3f 0e 3d 2d c0 e3 b8 a4 bf
       -2.7583232 0.63701403 -2.7068515 -1.2868923
000160 43 b7 4a 3f 95 02 0d bf 73 04 24 3e 7e 74 e8 be
       0.79185885 -0.55082065 0.16017322 -0.45401376
000170 e2 77 a8 bf bb c4 76 bf 74 f5 73 3e a4 19 69 bf
       -1.3161585 -0.96393937 0.23824102 -0.9105475
000180 ac 00 c0 bd bf 88 3b c0 a7 81 89 be 1c 04 4e c0
       -0.09375128 -2.9302213 -0.2685673 -3.2190008
000190 32 38 2c 40 89 d4 82 bf 2d 56 a2 be b6 bd e3 bf
       2.69093 -1.022111 -0.31706372 -1.779227
0001a0 7b af ab bf c6 fd ee 3f 52 6d 5a 3f a8 8e 1d 3f
       -1.3412927 1.8671196 0.8532306 0.615458
0001b0 83 e9 91 be ed c8 03 c0 22 4e 8a bf 86 42 64 bf
       -0.28498468 -2.0591385 -1.0805094 -0.89164007
0001c0 bf 86 82 bf 97 2f 7e 3f 60 6d af be 0e e2 12 c0
       -1.0197371 0.99291366 -0.34263134 -2.2950473
0001d0 05 cf 1d c0 cb 42 6e 3e e5 3f c7 3e 22 10 dd bf
       -2.4657605 0.23267667 0.38915935 -1.7270548
0001e0 5c 6c 13 40 ac 35 b1 3f 48 b2 81 c0 19 70 0c 40
       2.3034887 1.3844504 -4.053013 2.194342
0001f0 ea b9 6a be 5d a1 08 c0 ce d2 11 3f 66 05 cc be
       -0.22922483 -2.1348488 0.5696229 -0.3984787
000200 34 3b 3b 40 c0 42 07 bf d1 be 64 c0 a6 85 15 c0
       2.9254885 -0.5283623 -3.5741465 -2.3362823
000210 7e 09 b7 3f e0 d4 03 bf b3 20 e9 3e 07 0f be bf
       1.4299772 -0.51496696 0.4553276 -1.4848336
000220 64 f7 0b 40 93 5e 03 c0 e1 29 80 40 2b 69 44 3f
       2.1869745 -2.0526474 4.005112 0.76722974
000230 70 b4 60 3e 3e 1e 3a 40 c1 ec c4 3f 88 fb 29 bf
       0.21943831 2.9080958 1.5384752 -0.6639943
000240 e6 38 24 40 20 0e 8e 40 ae 9e 0f c0 5e e8 52 3e
       2.5659728 4.4392242 -2.24406 0.20596454
000250 db 0b 5d bf 62 a7 46 3e 27 ee 0d 3f 0a 97 25 3f
       -0.86346215 0.19399789 0.55441517 0.6468359
000260 50 98 51 3f 0e ab 09 bf 8e 49 86 3d 22 66 e9 bf
       0.81873035 -0.53776634 0.06556998 -1.8234293
000270 45 25 4a 3f 81 4d 4f 3f fa d5 1b 40 b9 3a 11 40
       0.7896312 0.80977637 2.434935 2.2692091
000280 84 88 ea 3f 10 57 ab bf f7 20 af be c0 7e ff 3f
       1.8322911 -1.3385944 -0.34204838 1.9960556
000290 67 dc e5 3f 63 ab 77 be dd c6 a4 3f 96 3c 88 3e
       1.7957886 -0.24186473 1.2873188 0.26608723
0002a0 3e e1 ae be e8 4c d6 3f 14 39 13 bf bf c8 f4 3f
       -0.3415622 1.674222 -0.5750897 1.9123763
0002b0 6f 6e 4d 3f ef e0 62 3d 95 96 53 40 11 ec 23 c0
       0.80246633 0.055390295 3.3060658 -2.5612833
0002c0 7a e5 08 c0 a9 77 65 3e f7 ee ca 3e 65 30 25 bf
       -2.1390061 0.22408928 0.3963544 -0.6452697
0002d0 ae 0e aa bf 0b f5 31 c0 94 63 a1 bf 81 42 f3 bf
       -1.328573 -2.7805812 -1.2608514 -1.900467
0002e0 ec 11 ce be d8 81 b6 3f c4 f0 9e bf a5 79 b4 bd
       -0.40248048 1.4258375 -1.2417226 -0.08812264
0002f0 84 6e fb bf 3f 44 be bf 2b 6d e6 3f d0 75 1a 3f
       -1.9643102 -1.4864577 1.8002065 0.6033602
000300 61 44 54 be e0 bb 84 c0 1a de 1e 3f af 60 aa 40
       -0.2072921 -4.147934 0.6205765 5.324302
000310 d6 66 4d bf 00 04 10 c0 18 70 b8 3f d4 b0 ee 3f
       -0.8023504 -2.2502441 1.4409208 1.8647714
000320 30 63 90 bf aa 95 52 3f 9e 2e 01 c0 39 27 4e 40
       -1.128027 0.8225962 -2.0184703 3.221144
000330 33 47 82 bf 6f a5 d7 3f 0f 88 2f c0 6c cf 2f bf
       -1.0177978 1.6847361 -2.7426794 -0.68675876
000340 88 45 0f c0 8c dc 36 bf 4c 3f 1a c0 f5 00 da 3d
       -2.2386189 -0.7143028 -2.4101133 0.10644714
000350 88 07 ab 3f f8 f8 85 bf 05 99 ae 3f 8f b6 47 3f
       1.3361673 -1.0466604 1.3640448 0.7801294
000360 5d 2f 46 bf 70 96 70 3e 24 ea e9 3f 87 7e 53 c0
       -0.7741602 0.23494887 1.8274579 -3.3045976
000370 45 fb f5 3e b0 3a c2 bf 12 08 bd 3f 29 3c 07 bf
       0.48043266 -1.517416 1.4768088 -0.5282617
000380 e2 a3 34 bf b4 42 0c 40 76 ae 75 be aa fb 88 bf
       -0.70562565 2.1915712 -0.23992333 -1.0701802
000390 96 6d f2 be bd 41 37 40 6f de 09 c0 9f 69 47 40
       -0.47349232 2.8633873 -2.1542013 3.1158216
0003a0 5a 34 23 3f 12 8d 55 40 26 f9 cb bf d5 fb dd 3f
       0.6375176 3.3367352 -1.5935409 1.7342478
0003b0 58 99 21 c0 c7 2d 88 c0 ab 5c e0 3f 2b fc 2e bf
       -2.5249844 -4.255588 1.752828 -0.6835353
0003c0 4d 32 4a c0 c9 3b e1 bf 22 82 ea bf 4d 00 07 c0
       -3.15932 -1.759637 -1.8320963 -2.1093934
0003d0 33 d6 68 bf 66 24 c4 bf 24 79 0a 40 d6 20 0e c0
       -0.9095184 -1.5323608 2.1636438 -2.2207541
0003e0 60 62 11 40 bf e5 7c bf 6b 47 a2 3e 23 b0 0f c0
       2.2716293 -0.98788065 0.31695113 -2.2451255
0003f0 b2 a5 46 bf 40 99 80 3f ae 05 28 c0 f9 20 cd 3e
       -0.7759658 1.0046768 -2.6253467 0.4006422
