model/1714141768/0_Pee1_global_model_0.pth (torch, 331092 bytes, 17 tensors)

conv1.lin_l.weight f4 [16, 1]
00000000: 712a 22bf efad 5ebc cb87 31bf 91ff 26bf
00000010: e14e 00bf fed1 8c3e 110e 56bf 29d9 1abe
00000020: d7b5 22bf 9254 ac3d 385f 88be 8c2c 61bf
00000030: b3b2 533d 3fa2 f8be e2ec c63e 618f e8be
-0.6334601 -0.013591274 -0.6934783 -0.65233713 -0.5012036 0.2750396 -0.83615214 -0.15121903
-0.63558716 0.08414568 -0.26635146 -0.879586 0.051684093 -0.48561284 0.38852602 -0.4542189

conv1.lin_l.bias f4 [16]
00000000: 07cb 1ebe 59bf 173f a957 8abf 5ac6 be3e
00000010: 1b0d e33e 6532 92be b5bd 51bf 768c c83e
00000020: ffcb 2a3f 4769 32bf 8fe3 213f 3870 71bf
00000030: d492 ff3e 507c 84be 20a7 c9be d053 d9bd
-0.15507136 0.5927635 -1.0808002 0.37260705 0.44345936 -0.28554073 -0.81930095 0.39169663
0.66717523 -0.6969189 0.6323785 -0.9431186 0.49916708 -0.25876093 -0.3938532 -0.10611689

conv1.lin_r.weight f4 [16, 1]
00000000: d1bd 7fbf a187 00bf 4dfe 3c3e b14b 5bbf
00000010: 116b a5be 72ab 163f 1a56 38bf 186f ee3d
00000020: 8fee f9be 5d8b 51bf 2b62 57bf 4cd5 d83d
00000030: 6804 44bf e6b7 4bbf c2de 89be 8034 65bd
-0.9989901 -0.50206953 0.18456383 -0.8566237 -0.32308248 0.58855355 -0.7200638 0.11642283
-0.48814818 -0.81853276 -0.8413417 0.10587558 -0.76569223 -0.7957748 -0.26927763 -0.05595827

conv2.lin_l.weight f4 [64, 16]
00000000: b199 acbd 5f13 0f3e 9fb9 b8bc a891 0f3e
00000010: 883a 0abd 8104 62bd f047 17be d02f c83d
00000020: 5f6a fc3d 2f9a 3e3d 27c1 06be 1745 0f3e
00000030: a95e 9d3d 892e 243e 9f3d c3be 512e 42be
00000040: 4796 173e c7e1 93be 41ad a43d f16e 2d3e
00000050: 2f3d 903d 31a4 493d 613d a1bd 38c6 86be
00000060: 75f1 563e efe9 88be e167 72be 97ce 9cbd
00000070: 8117 61be a061 1bbe 172b 99be af1f e4bd
00000080: 21e9 85bd 560c b7bd 5f51 253e e079 60bc
00000090: 4088 bc3b df83 debb a558 e23d c16c 143e
000000a0: 26f3 b63d ef7e cabd c0a1 23bc 4566 c23d
000000b0: c705 8abd 81d2 04be 2005 96be 60d2 48be
000000c0: af3e f83d afa2 6abe cf22 c9bd 5157 e83d
000000d0: bf00 e93d 0992 90be 802a 913c 775c 1ebe
000000e0: b0fc be3c 5aef b6be c180 223e 40de 86bc
000000f0: df2e aabe 5ace 3f3e c0a3 d53d 71b9 febd
00000100: 8f6e 433e 3522 de3d e61a 3abe e751 a83d
00000110: a0d9 53bc f02b 5ebe 5009 2f3e ffbf a6be
00000120: 6ff4 1f3e 51d1 72be 00bc 7e3e e16c 80bd
00000130: 91d3 1dbe c117 23be ef7a a3be 8148 39be
00000140: ea9d 48be 41f9 8ebd 3fc6 84be 418a f4bd
00000150: 41a0 753e f83b 13be b087 debd 0a5b 2bbd
00000160: c147 743e df99 72be bf38 1b3e effa c2be
00000170: d9c7 a9be f0ea e83c 3149 e6be 9036 00be
00000180: 2168 53be b94e a3bd c57a dabd c086 9e3b
00000190: 01f7 51be 1f7f 9dbe e183 22be c115 8cbe
000001a0: a0d8 1c3c 715a 1c3e 2142 4abe 1acf 2c3e
000001b0: 0148 363e 0f5b 7e3e bfe4 0abe f073 e03c
000001c0: 11b3 e33d 0fa7 51be 4fc7 e9bd ef91 c8bd
000001d0: 00b4 0e3e 8153 0cbe 2170 2bbe cf28 91be
000001e0: dfc2 e7bd 215c bcbc 6ff2 3cbe 97a4 84be
000001f0: a117 aebd c183 cbbd 4fa0 4dbe 810e 18be
00000200: d067 f0bc f0c5 303d c182 01be 5a91 c2bd
00000210: 7002 073e df2c 07be bf44 7bbe 1fe8 f23d
00000220: f1a2 d73d c592 543e 0100 c43d 002c d8bb
00000230: 4100 7f3d f1dc 523e a04a 09bc 2124 1cbe
00000240: 10a9 4abd fab3 37be 17f4 973d 7136 913d
00000250: 9a3a 4bbe a1f0 67be 6b0f 5ebe 7f1a e3bd
00000260: d0e0 033d 6b3c d33d bfe3 76be f93e 9dbe
00000270: 264c bd3d a16b 713e 5f8d ec3d 0082 153d
00000280: 70d5 83bd 7094 ccbc 9115 083e 016d 153e
00000290: e675 45bd bf1b 4dbe 7041 edbd 0624 313e
000002a0: 4117 00be 0f5f 823d 0545 cf3d 1053 fcbd
000002b0: 1a8b 2ebe bfe5 573e 1ad7 2f3e 50e2 29bd
000002c0: a1da 45be d1ce 31be 0024 eb3c 5064 fe3d
000002d0: 2138 5f3e 1f17 b73d 60fa 623c 69a8 23be
000002e0: b1a5 183e a7d5 9f3a 4fd7 72be 3bff c0bd
000002f0: b1bd 8bbd 30b4 8c3c b761 9ebe 86b5 4bbe
00000300: cfb7 48be 9f04 0bbe 4f9f 9bbc 0f93 ffbd
00000310: a578 573e db62 d3bd e09e 143d bf69 25be
00000320: 8f84 02be 0a1a afbd cfb3 063e 19b8 193d
00000330: ab15 d33d e5cb 563d c724 163e a058 c13c
00000340: 6161 7abd 5f18 02be 8166 fbbc 11af 243e
00000350: 51ac c33d bbd3 883d a082 24be e158 b93c
00000360: cf5f 353e acac 063e f61e 32be 2f29 afbd
00000370: 7741 b33c 90d7 11bd 4865 b63c f03c 893d
00000380: 1fcc 413e e76c a23d 8652 3a3e f080 fe3d
00000390: 10ec 58be 1931 0cbe d04a 603e 10fa 99bc
000003a0: b763 0cbe af7a 6d3e e0a8 e93c 110f 0cbe
000003b0: 1b1e 5fbe 4041 e3bb 2f33 8a3d 65da 54bd
000003c0: 71b6 143e c7cc 8b3e 21ac 0f3e d047 3b3e
000003d0: e179 f33d 5118 c33c 803a 82bc ff02 5e3c
000003e0: cf51 64be 5769 8b3c 01c4 ed3d a72f 9c3c
000003f0: ff80 0cbc e10d cc3d 353f 5a3d 00ff e53b
-0.08427752 0.13972233 -0.022549449 0.14020407 -0.033747226 -0.055180077 -0.14773536 0.097747445
0.12324976 0.04653376 -0.1315962 0.139912 0.076840706 0.16033377 -0.3813295 -0.18962981
0.1480342 -0.28883192 0.08040858 0.16936852 0.0704292 0.04922885 -0.07873035 -0.26323104
0.20990546 -0.26740977 -0.23672439 -0.076565914 -0.21981622 -0.1517396 -0.29915687 -0.11138856
-0.065386064 -0.089379 0.16144322 -0.013700932 0.005753547 -0.0067906226 0.11052064 0.14494611
0.08933096 -0.09887492 -0.009987295 0.094921626 -0.06739383 -0.12970926 -0.29300785 -0.19611502
0.12121331 -0.22913621 -0.09821092 0.11344779 0.113770954 -0.28236416 0.01772046 -0.1546496
0.02331385 -0.35729486 0.15869428 -0.016463399 -0.33238885 0.1873106 0.104316235 -0.12437714
0.19085144 0.10846368 -0.18174323 0.08218747 -0.012930304 -0.21696448 0.17093396 -0.32568356
0.15620588 -0.2371266 0.24876404 -0.06270767 -0.15412737 -0.1592703 -0.31929728 -0.18094064
-0.1959149 -0.06981135 -0.259325 -0.11940432 0.23986913 -0.14378345 -0.10865724 -0.04183487
0.23855497 -0.2369151 0.15158366 -0.38082072 -0.33160284 0.02843234 -0.44977716 -0.12520814
-0.20645191 -0.079739995 -0.10667948 0.004837841 -0.20504381 -0.30761048 -0.1587062 -0.27360347
0.009573132 0.15268876 -0.19751789 0.16875878 0.17800905 0.24839424 -0.13563822 0.027399033
0.111181386 -0.20473884 -0.11414968 -0.097934596 0.13935852 -0.13703729 -0.16741993 -0.28351447
-0.113164656 -0.02299315 -0.18451856 -0.25906822 -0.085006006 -0.099372394 -0.20080684 -0.14849283
-0.029346377 0.043157518 -0.12647535 -0.0950038 0.13184524 -0.1320071 -0.24537943 0.1186068
0.105291255 0.20759113 0.09570313 -0.006597042 0.0622561 0.20592095 -0.008379608 -0.15248157
-0.049477637 -0.1793975 0.07419603 0.07090462 -0.19846573 -0.22650386 -0.21685569 -0.11089038
0.03219682 0.10314258 -0.24110316 -0.30712107 0.0924304 0.23576213 0.11550402 0.03650093
-0.06437194 -0.024973124 0.13289477 0.14592363 -0.04820814 -0.20030116 -0.11584747 0.17298898
-0.1250887 0.06365787 0.10120586 -0.123205304 -0.1704525 0.21083735 0.17171898 -0.041475594
-0.19321682 -0.1736405 0.02870369 0.12421477 0.21798755 0.08939957 0.013853639 -0.15982212
0.14906956 0.0012194411 -0.23714946 -0.09423681 -0.0682329 0.017175764 -0.30933926 -0.19893464
-0.19601367 -0.13575982 -0.018996863 -0.12479221 0.21042116 -0.103215896 0.036284328 -0.1615362
-0.1274588 -0.085498884 0.13154529 0.037529085 0.10306867 0.052440543 0.14662467 0.02360183
-0.061128024 -0.1270461 -0.030688526 0.16082408 0.09554351 0.066810094 -0.16065454 0.022625389
0.1771233 0.13151807 -0.17394623 -0.08552777 0.021881802 -0.035605967 0.022265092 0.06701076
0.18925522 0.07930928 0.18195543 0.124269366 -0.211838 -0.13690604 0.21903539 -0.018795997
-0.13709913 0.23191331 0.028522909 -0.13677622 -0.21788828 -0.0069352686 0.06748044 -0.05196609
0.14522721 0.2730467 0.14030506 0.18289113 0.11888481 0.023815306 -0.015897036 0.013550519
-0.22296833 0.017018003 0.116096504 0.019065691 -0.008575677 0.09963585 0.053282935 0.0070189238

conv2.lin_l.bias f4 [64]
00000000: 99e6 96bd 5fee f7bd d925 a6be 7674 bbbe
00000010: 0fac ddbd 8f1b b2be 4f9f 2c3e ff1e 4d3d
00000020: e0d7 503d 6049 4ebe 9096 4f3d 214d 093d
00000030: 6fa0 013e de07 9e3c af9d 56be affb 75be
00000040: 6799 9ebd 3f83 6cbe a0e6 95be a750 9abe
00000050: 919f 71be 5af2 ac3d c5cf cdbd 1fa6 62bd
00000060: 4a8a 2f3e 11b2 1dbe d057 023e 211d cabd
00000070: 7731 88be fa90 ad3d 6181 94be f5e3 e0be
00000080: bf55 5abe 2f69 493e 55ae dfbd e768 28be
00000090: 7f69 9bbe e93e 213e f081 303e 506e e43d
000000a0: a718 22bd 7b52 dbbd 78f1 07bc 6962 16be
000000b0: 2778 e5bd c5dc cfbc f01e 53be 80a5 c6be
000000c0: a7f0 a1be 8677 b5be 40d3 0c3d a5ff 56be
000000d0: b124 acbd 0077 a9bd d0db 193e c6e9 b63d
000000e0: c169 b0be b1f5 403e 7ffe f9bd 9aa6 3abe
000000f0: cfa2 b93d 8f73 a13d 1f2b 1c3e 297f 953c
-0.07368202 -0.121060126 -0.3245075 -0.3661229 -0.10823833 -0.3478665 0.16857646 0.05007839
0.050987124 -0.20145178 0.050680697 0.03352082 0.12658857 0.01929086 -0.20958589 -0.24021791
-0.07744103 -0.23096941 -0.29277515 -0.30139658 -0.23596026 0.084446624 -0.100493945 -0.055334207
0.17142597 -0.15399958 0.1272881 -0.09868837 -0.2660024 0.08474918 -0.29004958 -0.43923917
-0.21321772 0.1966903 -0.10921923 -0.16446267 -0.30353925 0.15746655 0.17237067 0.11153853
-0.03957429 -0.10709091 -0.008297317 -0.14685978 -0.11204558 -0.025373826 -0.2061727 -0.3879814
-0.31628916 -0.35442752 0.03438115 -0.20995958 -0.08405436 -0.082746506 0.15025258 0.089313075
-0.34455684 0.18843724 -0.122067444 -0.18227616 0.090642564 0.07883369 0.15250824 0.018249111

conv2.lin_r.weight f4 [64, 16]
00000000: d0f6 22be 11fe c33d 0f00 97be a1ea a63d
00000010: 4f63 13be 5faf 833d 3713 263e 6a69 4cbe
00000020: 9fa4 06be 5733 003e c688 b7bd 8fa8 25be
00000030: 6f56 22be 5a15 35be 080b 0abe ffe1 043e
00000040: 40e2 0fbd 0177 85be 09be 90be a0dc 8a3c
00000050: 60c6 063e ffed 1abe c1fb 27be efc4 a33c
00000060: 9fc6 293e e542 d6bd 2600 c7bd a96a 183d
00000070: 8f6f 88be cf95 24be a7c1 8b3d f146 0d3e
00000080: 4114 e63d b1c7 273e 21e3 3f3e 9110 013e
00000090: 7113 203e f149 e3ba 4023 853d 21f9 79bd
000000a0: 915a 3c3e 901d c0bd c0f3 63be 6fe5 763e
000000b0: 51ab 603e 0a24 49be 9055 b7bd 9f9e 60be
000000c0: 60cf 403d 20c0 733d fbf8 cabd 7b2b 50bd
000000d0: 11f3 be3d 7116 dc3b 25b2 5a3e e130 9abe
000000e0: 507d 453e e122 73be 1f4a 96bd 45bf dd3d
000000f0: 5067 cebc e5ea 533d 8f61 0bbe 91e2 a3bd
00000100: 008f af3c 00cb 093d 416f 71be a63a 32bd
00000110: 11e0 ef3d bf1d d53d d994 0abe 6fbb fd3c
00000120: 80f7 653b 316f 293c 3882 893d 560f ad3d
00000130: f7e5 a53d 9fc6 71be 8164 35bd efe1 8a3d
00000140: aff8 09be df01 07bf e1a4 0ebe a66f 453d
00000150: b887 083d 7106 93be 100a 263e 0159 02bf
00000160: f8fb 1bbe 51b5 02bf 30e1 79be a6bb b9be
00000170: 4fa4 e0be 2185 03be 45de 43be 60b4 debd
00000180: a8b7 9cbd ef02 67be 3b8a d5bd b757 1d3e
00000190: df72 403e efdd ed3d 4842 96bd 271d 093e
000001a0: 07cf 21be bfce 16bd 3f93 573e 10ef 60be
000001b0: c56d d43d 00ca 2f3a 8bdc db3b ff54 6bbe
000001c0: 8158 6e3e 1104 90be b1ec 73be c110 c2bd
000001d0: 8088 7fbd 2bfe d43c 8501 5dbd 1707 0f3e
000001e0: bff2 72be 3fae f83d fa1d 4bbe 851a 5b3e
000001f0: bf14 7bbe c0f5 eb3c 5f8e 5dbd cf71 e1bd
00000200: 61d2 bd3d b138 613e 81b5 78bd 8f6b 37be
00000210: cf18 0bbe b0b7 e7bd f991 053e f058 4fbe
00000220: 3af4 3a3e a775 a33d 6841 9a3d 6f64 34be
00000230: affe e5bd c167 18be 051b da3d 3008 d83d
00000240: 5079 3e3e 6af7 42bb efed 6f3d d008 7f3d
00000250: 10a7 60bd b1a2 253d 2f15 34be f123 68be
00000260: 60ef 373d 603a 84bc 00d1 ca3c b0de f9bb
00000270: 1a75 40be 5ba0 cdbd 7118 f8bd a8b5 0fbd
00000280: 9f6b b4bd 8f2f 4a3e 6f75 193e 013d 70be
00000290: bf8c c03d e1ac 5cbe 30fd b23d cfa2 78be
000002a0: c8a2 0f3d cfc8 1abe c088 7c3e 7f15 61be
000002b0: c1d9 fcbd c15a 713e 9af7 46bd e114 7a3e
000002c0: a52f 60bd f122 0d3e 9140 79be e076 303d
000002d0: f01e 863d af09 80bd b122 febd ffc8 6dbe
000002e0: c5b2 e13d 114c afbd 3a83 303e 2ae4 373e
000002f0: 1f80 1a3e 202e 973d efc2 43be 4034 333e
00000300: 06c2 3cbe 216b 38bc 2a1d b7bd a01e 1b3e
00000310: 5fd1 1d3e bfe1 3bbe 67b9 243e e1bc be3d
00000320: efac a53d f152 f6bd 7f32 1fbe df85 6bbe
00000330: afc3 36be 4ff7 51be 4024 cc3c 4ff3 363e
00000340: 2b27 623e c060 0dbe bfb6 02be 9f54 613e
00000350: 30ea bc3c 0c77 8abd c03c 003e fc0a 43be
00000360: f137 31be 8f4c 11be 5ac8 c1bd 9936 8c3d
00000370: 6fa9 02be 6f19 7c3e 7344 51be b088 11be
00000380: 6667 333e 419e 743e 7196 6ebe da35 47be
00000390: 47c5 00be 8153 c5bd 8067 5abe 250f d33d
000003a0: 5840 923d a0fe 9a3d d0c8 5a3d 11ef 683e
000003b0: 18c1 94bd 3698 33be 863d 433d 80c9 193e
000003c0: 5077 61be 0fae 91bd 0f78 19bb c121 653d
000003d0: e011 96bc 5f32 9cbd 80ce 653b 3541 573d
000003e0: 2068 0fbd 6f86 c8bd 25c1 e23d 918a 473d
000003f0: 7f76 4c3e a0d9 943d 4186 0bbe 307e b2bd
-0.15914464 0.09569944 -0.29492232 0.08150221 -0.14393352 0.06429934 0.16218267 -0.19962087
-0.13148735 0.12519585 -0.08961634 -0.16177581 -0.15853284 -0.17683926 -0.1348077 0.12976836
-0.03512788 -0.26067355 -0.28269985 0.016950905 0.13161612 -0.15129851 -0.1640463 0.019991366
0.16579674 -0.10461978 -0.09716825 0.037211094 -0.26647612 -0.16072772 0.06824046 0.13796593
0.11234332 0.1638477 0.18738987 0.12603976 0.15632416 -0.0017340762 0.06500864 -0.061028603
0.18393923 -0.093806386 -0.22260952 0.2411096 0.21940352 -0.19642654 -0.089518666 -0.21935509
0.04707277 0.059509397 -0.099107705 -0.050822716 0.09323705 0.0067165424 0.21357019 -0.30115417
0.19286084 -0.23743774 -0.07338356 0.108274974 -0.025195748 0.051737685 -0.13611434 -0.080021985
0.021430492 0.03364086 -0.23577596 -0.043512963 0.11712659 0.10406064 -0.13533343 0.030973164
0.0035090148 0.0103414515 0.067142904 0.08450191 0.08100503 -0.23610924 -0.0442853 0.06781375
-0.13473772 -0.5273723 -0.13930084 0.04820218 0.033332556 -0.28715852 0.16214776 -0.5091706
-0.15232837 -0.51057917 -0.24402308 -0.36275977 -0.43875358 -0.12843753 -0.19127758 -0.108742476
-0.07652217 -0.22559713 -0.10426756 0.15365492 0.1879382 0.11614596 -0.07336861 0.13390027
-0.15801631 -0.036818262 0.21052264 -0.21966195 0.103724994 0.00067058206 0.0067096404 -0.22981642
0.23275949 -0.28128102 -0.2382076 -0.09475852 -0.062386036 0.026000103 -0.053956527 0.13967548
-0.23725413 0.1214261 -0.19835654 0.21396835 -0.24519633 0.028803706 -0.054090854 -0.110080354
0.09268642 0.21994282 -0.06071997 -0.17912124 -0.13583682 -0.113143325 0.13043965 -0.2024877
0.18257228 0.07981425 0.075320065 -0.17616437 -0.11230218 -0.14883329 0.10649685 0.10548437
0.18600965 -0.002974952 0.05857652 0.062264264 -0.054846823 0.040438358 -0.17586206 -0.2266996
0.04490602 -0.016141117 0.024757862 -0.0076254234 -0.1879467 -0.10040351 -0.12114037 -0.03508535
-0.088095896 0.19744705 0.14986204 -0.23460771 0.09401845 -0.21550323 0.08739698 -0.24280857
0.03506735 -0.15115665 0.24661541 -0.21980856 -0.12346221 0.23569776 -0.048575975 0.24422027
-0.054732937 0.1378286 -0.24341036 0.043082118 0.065488696 -0.06251847 -0.124089606 -0.23221205
0.11020426 -0.085594304 0.17237559 0.17958131 0.15087937 0.073818445 -0.1911733 0.175004
-0.18433389 -0.01125601 -0.089411095 0.15148401 0.154119 -0.18347834 0.1608635 0.093133695
0.08089625 -0.120275386 -0.15546606 -0.23000287 -0.17848085 -0.20504497 0.02491963 0.17866252
0.22085254 -0.13806438 -0.12765025 0.22004937 0.023060888 -0.06760988 0.12523174 -0.19047159
-0.17306496 -0.14189361 -0.09462042 0.06846351 -0.12759946 0.24619077 -0.20436268 -0.14212298
0.17519912 0.23888494 -0.23299576 -0.19454136 -0.12575255 -0.09635068 -0.21328545 0.10305623
0.07141179 0.07568097 0.053414166 0.22747447 -0.07263392 -0.17538533 0.047666095 0.15018272
-0.2201817 -0.07113277 -0.0023417508 0.055940393 -0.01831907 -0.07626795 0.003506571 0.05255242
-0.03501141 -0.09791266 0.11071996 0.04871613 0.19967078 0.07268071 -0.13625433 -0.087154746

lstm_cell.weight_ih f4 [256, 192]
00000000: 7f5b 003e 30ff 3c3e b147 91bd 083e 993c
00000010: 8937 293d 0631 39be c1a8 3a3d b763 8b3d
00000020: 9b15 d4bd eff2 cebc a6f1 b33d 79f6 103e
00000030: ffc4 0b3e a253 4a3e 80dd b03b 2173 4fbe
00000040: b74f 1c3d 1107 2c3e 2f65 43bc 02eb fd3d
00000050: c5b2 e03d 8127 273c 168a 2d3d 7fc2 713d
00000060: 20ad 12bd ff62 fc3d 41be ee3d 3aae 343e
00000070: b18c 3fbd a69e b8be ef97 443e b683 47bd
00000080: 3071 3cbc 2679 3a3e c63d 4abe 99d9 213e
00000090: 8194 863c b12d febd bfc3 263d 5830 0fbd
000000a0: cf93 0fbe 0034 ce3d bff1 c73d 482d 0b3e
000000b0: ad2a 493e a19c 35bc b71f a13d 50dc 3dbd
000000c0: 3a54 3aba 301e 51bc 1fd5 27bd 8beb d83d
000000d0: 31be a93d 5771 1e3e 6343 443e 884d 14ba
000000e0: 4066 f03d 71a8 283e 61bc b0ba c115 5b3e
000000f0: 4fac 1b3e d37f ee3d cb82 5fbd a1a7 973d
00000100: 1d1d 84bf 3647 5a40 6868 2940 7876 3640
00000110: a6af 1240 95df b640 38f6 e540 4c67 bdbd
00000120: 361a b640 3c3a f340 f464 f040 d4e2 d340
00000130: 109f cb40 e2da d740 9f8e 0c41 57d6 f440
00000140: 6119 fd40 a56c d940 4743 ef40 7432 ed40
00000150: e564 ed40 bf85 aa3d 74fb 0541 6840 ab40
00000160: c018 e640 8e62 e640 8493 e040 726b 0141
00000170: 0b71 ea40 5be3 963b 962d 493d 8558 8e3d
00000180: 6ca6 40bd 0c02 b4bd b1e4 3a3d db57 fe3c
00000190: af25 bb3d 011f 2a3d 15e8 e2bd 2049 963b
000001a0: 01d8 903d 60f6 fdbb 9fb2 efbd c1c3 e5bd
000001b0: 008f 6c3b 7066 02bd f014 6d3c c05b 55bd
000001c0: a08e 97bd bf85 053d e06b fbbc 00c3 933b
000001d0: e066 53bc 3f0c a6bd 0626 b1bd b183 f6bd
000001e0: effe c63d c05a 3c3c 86b9 b7bd ff54 e83d
000001f0: bf37 aebd 0f7a e6bd 411d 433d 08af 90bd
00000200: 41c6 febc 4d82 fe3f 621c a43f f3c2 efbe
00000210: 43c8 0abf 3b5c 1540 ff74 d43d e261 5740
00000220: 63d6 d440 ffff ba40 d5fa c3bd 0745 ec40
00000230: 551b f740 88f3 f840 562b d33d ac2a 0641
00000240: a31f 1141 3a8f 0041 6c4d f240 d491 e540
00000250: 5145 dc40 bfd0 ce40 eb07 453c cd61 0441
00000260: c6ef ce40 c141 6040 4320 703d 5602 e140
00000270: 59c2 8440 5eb7 0941 eac6 dd3d 00cd 583d
00000280: 136e 5f3d 16c6 9f3d fd59 dfbd 3c0d 4bbd
00000290: 50ad bcbd b5c3 babd 95ef 84bc ff6b ecbd
000002a0: 8fca 493d df34 ea3d ff2f 913d bfee 24bd
000002b0: 113c 02bd 6575 593d bfe1 b63d d016 c4bd
000002c0: 49f8 a6bd 8fa3 3dbd 98f4 8ebd a6ba 2c3d
000002d0: e17b f8bd 5058 b93d 40fe 3ebb 7162 e33d
000002e0: f13b 243d 214e 83bd 008a 10bd 6624 acbd
000002f0: 5943 1e3d b1a7 a8bd 814e f23d 4f94 b63d
00000300: ffff 3e3d 9f85 203d 97bf 0d3f 817e cf3d
00000310: 6692 b23d 7988 12be 71e1 64bc 6f5b f93c
00000320: d07d 61bc 60dc e7bc 4167 fb3d 3542 db3b
00000330: 27cd 0dbd f998 c73e 770d a8bd d1b5 173f
00000340: b95e 8b3c e1fe 563d 61c6 00bd 5dea f23d
00000350: 0abd 3d3e 0088 a33d 81df 4cbd 160f 333e
00000360: e0be 7e3d 6f3d 603d 30d5 0e3c 81c4 973e
00000370: 19f8 0bbc 2007 333f 19b0 143f 8914 293d
00000380: 3f52 883d fb1c 56bd e193 563f 5f7d 32bd
00000390: 9bda 47bd dba1 dd3d e014 d9bc b873 823c
000003a0: 10d4 2d3f e018 c73c ab67 443f 91a6 033e
000003b0: aa9f b33e 8912 063e 711d 493d a7e8 9f3d
000003c0: 3f43 adbd c8ab 143d dfb0 b53e bf46 2bbe
000003d0: efef bfbd 890d 96bd e2a4 ed3d 31b1 d63c
000003e0: 87a7 9fbd 3964 0b3e c1e4 213e db78 613d
000003f0: bfd5 513d 32a7 64bd 1fe1 e5bc 7154 033d
0.12534903 0.18456721 -0.07093752 0.018706337 0.041312728 -0.18085107 0.045571093 0.068061285
-0.103556834 -0.025262324 0.08786325 0.14156522 0.13649367 0.19758466 0.0053974986 -0.20258762
0.03816196 0.1679957 -0.0119259795 0.1239834 0.109715976 0.01020229 0.042368017 0.059023377
-0.035809636 0.123235695 0.11657382 0.17644587 -0.046765033 -0.3605854 0.19198583 -0.048709594
-0.011501595 0.18210277 -0.19750127 0.15805663 0.016428234 -0.12411059 0.04071402 -0.034958214
-0.14021228 0.10068512 0.09762906 0.13591492 0.19645186 -0.0110847065 0.07867377 -0.046352684
-0.00071078876 -0.012763545 -0.040974732 0.10591801 0.08288229 0.15472923 0.19166331 -0.0005657305
0.11738253 0.16470505 -0.0013483876 0.21395017 0.1520245 0.11645474 -0.054568093 0.074050196
-1.0321385 3.4105964 2.6469975 2.8509808 2.2919707 5.7147927 7.186306 -0.09248218
5.6906996 7.6008587 7.5123234 6.621439 6.363167 6.745469 8.78482 7.6511645
7.909348 6.7945123 7.4769626 7.412409 7.418566 0.08326291 8.37389 5.351612
7.1905212 7.1995306 7.0180073 8.088732 7.326299 0.0046047396 0.04911574 0.069504775
-0.047033712 -0.08789453 0.045628253 0.031047752 0.09138047 0.041533474 -0.110794224 0.004586354
0.070724495 -0.0077503175 -0.11703991 -0.11218978 0.0036095977 -0.031835973 0.014470324 -0.052089453
-0.074002504 0.032598253 -0.030691087 0.00450933 -0.012902945 -0.081078045 -0.086498305 -0.12036837
0.097165935 0.011496246 -0.08970933 0.11344337 -0.085067265 -0.112537496 0.04763532 -0.070646346
-0.031100394 1.9883515 1.2821162 -0.46828422 -0.54211825 2.3337543 0.10373878 3.3653493
6.6511703 5.8437495 -0.09569327 7.383426 7.7220864 7.779728 0.10311 8.385418
9.070224 8.034967 7.571951 7.1740513 6.8834615 6.4629817 0.012025814 8.273877
6.466769 3.5040133 0.058624517 7.031535 4.148724 8.607267 0.108289555 0.05292988
0.054548334 0.07801454 -0.10905836 -0.04957317 -0.09212744 -0.091193594 -0.016227523 -0.11544036
0.04926544 0.114358656 0.07089233 -0.04026675 -0.031795565 0.05309047 0.089297764 -0.09574664
-0.081528254 -0.04629856 -0.06980246 0.04217019 -0.12133003 0.090500474 -0.0029143244 0.111027606
0.040096227 -0.06411386 -0.035287857 -0.0840538 0.038638446 -0.082351096 0.1183138 0.08915006
0.046630856 0.03918993 0.5537047 0.101315506 0.087193295 -0.14309873 -0.013969765 0.030439107
-0.013762906 -0.028303325 0.122755535 0.006691242 -0.034619477 0.38983896 -0.08205693 0.59261805
0.01701294 0.052489165 -0.03143919 0.118611075 0.18529144 0.07984924 -0.050017837 0.17486224
0.06219375 0.054746088 0.00871782 0.29642108 -0.008543038 0.69932747 0.58081204 0.04127935
0.06656312 -0.05227373 0.83819395 -0.043576594 -0.048792463 0.10821887 -0.026499212 0.01592432
0.67901707 0.024303854 0.76720685 0.12856509 0.35082752 0.13093008 0.049100343 0.07808047
-0.08460092 0.036296636 0.35486504 -0.16726206 -0.093719356 -0.073268004 0.116037145 0.026207538
-0.07795625 0.1361245 0.15809919 0.055046897 0.051229235 -0.055823512 -0.028061448 0.03206295

lstm_cell.weight_hh f4 [256, 64]
00000000: d61f eb3e dbb9 c23e baa6 883f 9e21 86c0
00000010: 4fd5 aa3f ed3d 35c0 0f50 19c0 c387 1b40
00000020: 8bbc 5e40 c73a 453f a93f e23e 6bea a2bf
00000030: 792e 21bd c646 babf 85ea ecbf 82be 5dbe
00000040: 0d36 4dbf 6a59 1b3f 3e69 48c0 a9d9 c4bf
00000050: 6cd1 36bd ed11 2540 6091 2140 904d 45bf
00000060: df7d 033f 886b 2140 a3b6 1dc0 257b 673f
00000070: 1d0c 2cbe e1f2 39c0 a0cf f5bf ccdd da3d
00000080: 7ee0 963f 07be f9bf f8fb cabe 51cb 6d3f
00000090: 87b4 1b40 e212 b1bf 5ed4 5b3e 5cdf 0fc0
000000a0: 6388 9d3f fb6c b4bd f26c 32c0 9467 94bf
000000b0: eb4a 9fbf d47e ecbf 15ec 0e3f 4cda c93f
000000c0: e3d6 ec3e 653a 0540 9c6a 00c0 abca 313f
000000d0: 9981 bd3f 76b9 c63f 3d4e 18c0 6034 4340
000000e0: ee44 a63f 3eae 16c0 8588 6e3f 9196 963e
000000f0: 5155 3540 455f a33f 6ede f83e dc7f 3640
00000100: a484 dd3e bb90 edbe 1956 f03c 4ddc a23e
00000110: b2de 0dc0 ffc0 2fc0 436f 103f ea82 b13e
00000120: 748f 05c0 e3c1 8cbf 4976 23bf 82e1 24bf
00000130: bc28 82bf 9eec 0abf 34bc 5ebe f254 2f40
00000140: 40bd 12bf f05a 7fbf 95cb 51bf d229 18c0
00000150: 1fc2 33bf e9e8 e93f e3f7 b73e 3031 6d3f
00000160: 1692 943f 5794 8dbe 541e 15c0 890b 78c0
00000170: 4b95 46bf bab4 a4be e302 0cc0 5bb3 71bf
00000180: 0ac1 333e b408 c43f 75e8 68c0 cb69 0640
00000190: 0fe3 d13f 4cf2 d9be 0aaf 8abd 004f 3c40
000001a0: 0d0d 8bbf 82a4 51bf 30f9 9240 d342 293f
000001b0: 8237 c6bf 90ea a1be 7e31 b8bf 5f38 56bf
000001c0: 8e8d 8040 f711 01c0 f35c a03f 9a60 0bc0
000001d0: 0f9b 5a3e 5eb1 36be 1fa1 4dc0 0668 02be
000001e0: c3d3 e4bd 3ee9 ecbf 00b4 e13f f050 1a3f
000001f0: 0a31 cf3f 51a9 94bf 7d91 e83d 2894 f8bf
00000200: 8e0f 2a40 f673 7c3f 305c be3e 470b e13e
00000210: 6d10 8d40 c9af a73e c0a7 a13e 4c54 f7bf
00000220: 8bb8 0640 9516 1bc0 32f8 d73f eab3 083d
00000230: 4103 e2bd aa10 a9bf ed90 f3bf ee10 27bf
00000240: d303 c83f b5b5 2b3f f72f 01bf fe85 f9bf
00000250: 52be 7340 f4c2 fb3e 1c97 b83f 0350 c53f
00000260: 0ca8 243f 2053 b93f 51e7 d23f 1b34 b4be
00000270: a18c 00c0 8e00 2340 eafa 623f bffd 8b3f
00000280: 0ce7 c53f ef14 c2bf 3d56 98bd fab6 74bf
00000290: ea87 e63f 2e96 f63f fd42 a03f 20ca 2040
000002a0: 4949 0ec0 33aa fcbe c7ae 1ac0 7095 fdbe
000002b0: e228 ea3f 3fc1 4bc0 4fbc 523f 3342 8c3f
000002c0: 7c48 503e 4538 8bc0 20ad 653f 4471 6b3f
000002d0: 8e18 7ac0 4a43 8f3f f831 523f 375b 903f
000002e0: eeb8 de3f 960c 913e 2899 53bf 112b 7c3f
000002f0: 26b0 3c40 7dc4 9dbf 23f9 e2be 7678 cabf
00000300: eb7d d0bf 5848 7d3f ce7e 95be 11a4 243e
00000310: 19b9 33bf cec5 373e b175 77bf d43b f0bf
00000320: e77d 4bc0 c45e db3f 13ec cabf ed22 9abf
00000330: 76f5 7e3f 0528 43bf 9c75 463e 330a 88be
00000340: dfc9 db3d 7e6c fd3f 646a f23f c679 87bd
00000350: 1713 87bf 9e8b 15bf b143 d23d 60f6 ad3e
00000360: f326 3640 a369 60bb 8f9d 193f 36c9 2740
00000370: 580e 1d40 624c ba3f 0eff c8bd bff1 96c0
00000380: 8338 e6bf e2aa 62bf 6133 9f3f ff31 e63e
00000390: d4e5 af3f 442c 9dbe 5445 2640 51e8 3c3f
000003a0: 42df 37be 5da8 3540 b69a 3cc0 bd4a 38c0
000003b0: 49f1 0240 ab6a bbbe 3873 3040 de3b 4b3f
000003c0: 2b92 2940 0895 0f3d b468 14bf ad0f e33e
000003d0: 6a25 033d 2470 49bf 8f70 923e 791b 1ac0
000003e0: 5805 a6be 0659 0240 ed49 4fc0 3a15 efbe
000003f0: e1ec 9dbf 5fc5 8cbf 759f 043f 7c52 23c0
0.45922726 0.3803242 1.0675881 -4.1916037 1.3346347 -2.8319046 -2.3955114 2.4301612
3.4802577 0.7704281 0.44189194 -1.2727789 -0.03935096 -1.4552848 -1.850907 -0.21654704
-0.801606 0.6068331 -3.1314235 -1.5378925 -0.044633314 2.579219 2.524498 -0.77071476
0.5136394 2.5221882 -2.4642723 0.9042228 -0.16801496 -2.9054492 -1.9203987 0.10686836
1.178726 -1.9511117 -0.39645362 0.9288836 2.4328935 -1.3833888 0.2146773 -2.2480078
1.2307247 -0.08809849 -2.7878995 -1.159411 -1.2444738 -1.8476205 0.5582898 1.5769744
0.46257696 2.0816891 -2.006507 0.6944987 1.4805175 1.5525348 -2.3797753 3.0500717
1.2989786 -2.354385 0.9317706 0.29411748 2.8333323 1.2763449 0.486072 2.851554
0.4326526 -0.46399483 0.02933793 0.318087 -2.2167172 -2.7461545 0.5641977 0.34670192
-2.0868807 -1.099667 -0.63852364 -0.644066 -1.0168681 -0.542673 -0.21751481 2.7395597
-0.5732002 -0.99748135 -0.81951267 -2.3775525 -0.7021808 1.8274204 0.3593131 0.9265318
1.1607082 -0.27652237 -2.329976 -3.875704 -0.77571553 -0.32169133 -2.1876762 -0.944143
0.17554107 1.5315156 -3.639188 2.100207 1.6397418 -0.4256767 -0.06771667 2.9423218
-1.0863358 -0.81891644 4.5929184 0.6611759 -1.548569 -0.3162427 -1.4390104 -0.83679765
4.0172796 -2.0167215 1.2528366 -2.177771 0.21348213 -0.17841098 -3.212959 -0.12734994
-0.11173203 -1.850868 1.7633057 0.6027975 1.618684 -1.1614171 0.11355875 -1.9420214
2.6571994 0.9861444 0.37179708 0.43953916 4.408255 0.327513 0.31573296 -1.93226
2.1050136 -2.4232533 1.6872618 0.033374704 -0.11035777 -1.320821 -1.9028603 -0.6526021
1.5626167 0.6707414 -0.50463814 -1.9494016 3.8084912 0.49172175 1.4421115 1.5415043
0.6431892 1.4478493 1.6476842 -0.35196003 -2.0085833 2.5469089 0.88664114 1.0936812
1.5461135 -1.5162638 -0.07438324 -0.955917 1.8010228 1.9264581 1.2520443 2.5123367
-2.223223 -0.49348602 -2.4169176 -0.49528074 1.8293726 -3.1836698 0.82318586 1.0957702
0.2034015 -4.350619 0.8971729 0.91969705 -3.9077487 1.119241 0.82107496 1.1277837
1.7400186 0.28329915 -0.8265557 0.98503214 2.9482512 -1.2325588 -0.443307 -1.5818012
-1.6288427 0.9893851 -0.29198307 0.16078211 -0.7020431 0.1794655 -0.9666396 -1.8768258
-3.1795595 1.7138295 -1.5853294 -1.2041909 0.99593294 -0.7623294 0.19380802 -0.2657028
0.10731863 1.9798734 1.8938718 -0.06615023 -1.0552701 -0.58416164 0.10266817 0.33977032
2.8461273 -0.0034242652 0.6000604 2.621656 2.4540005 1.455456 -0.09814273 -4.71701
-1.7985996 -0.88541996 1.2437555 0.4496002 1.3742013 -0.30697834 2.5979815 0.73791987
-0.1795626 2.838401 -2.9469428 -2.8795617 2.0459769 -0.3660482 2.7570324 0.79388225
2.6495464 0.035054237 -0.57972264 0.44347897 0.032018103 -0.7868674 0.286015 -2.4079268
-0.32425952 2.0366836 -3.238887 -0.46695882 -1.2337915 -1.0997733 0.5180581 -2.5519094

lstm_cell.bias_ih f4 [256]
00000000: f36b a4bf 39c6 d63f fab6 143f dc35 4d40
00000010: 4ab8 3e40 07e8 5040 12f6 833f b123 2840
00000020: beb2 343f 0ec6 2a3f e556 4e40 6ac9 0940
00000030: 9d90 74c0 cf45 233d 28e2 40c0 51d7 8d3d
00000040: e839 3a40 eef8 13c0 59df 30c0 701b 583f
00000050: 097d b8bf ebeb 81c0 ea72 cfbf f4a6 ad3e
00000060: de7e e33f 5fec 8fbf cb37 553f 2013 913f
00000070: 09d2 36bf 66dc 1c40 cde4 1b40 15b3 853e
00000080: 9831 d03f c10f eb3f 2040 07bf 27dc a0bf
00000090: acae 22bf be8e b13f a950 72be ed98 d23f
000000a0: f4d2 f63e 2f61 513f ee5a 333f c9dc babf
000000b0: cb47 99c0 ba97 d9bf 19d5 453f 6c38 47bd
000000c0: 5d84 8cc0 9e81 08c0 8aed 38c0 824d 1b3f
000000d0: 56f9 1cc0 cf7f e9bf 225a 2dbe ed03 ecbd
000000e0: 8eda 0cc0 85d3 40c0 3dd4 a13f f7b3 303f
000000f0: 620d 5f3f c269 4d40 8e47 1140 8514 36c0
00000100: 5a72 95bf bac6 23bf ae6e acbe c63a 613f
00000110: 80fc c4bf 256c 8d3e f926 743f 45c1 14c0
00000120: 69e6 5b3f 4687 89bf 85f2 57c0 188d 25c0
00000130: 356e 3f3f 344e a93c 818f f1bf a64f 903e
00000140: 8788 6fbf 7968 f03e 2437 1bbf e399 0540
00000150: 2b2b 31c0 fbb0 433f bd93 2bc0 5f80 a4bf
00000160: af03 4d3f 9d3b 22bf 5429 783e b7d8 d6be
00000170: 6a39 adbf f142 80bf 049e 8a3e 0fdf 5cbf
00000180: 5a62 6fbd 6cbb 3ac0 784c 5ebe e153 56c0
00000190: 80f6 2640 cb8a 69bf 1e7b e1be 9fc0 d4bf
000001a0: afc5 c2bf 095a e23f 2df8 2e3f a0c9 0f3f
000001b0: 4d1b b3be 3338 08c0 c027 85bf f72d 63bf
000001c0: b576 a1bf f96d 813f 0414 07bf 90ae 0fc0
000001d0: 4d4c 24c0 3b58 833e 98df e43e 0307 d5bf
000001e0: fe0e 1840 2c62 a73f 7547 88c0 ad51 0940
000001f0: 33fa 6dbe ae52 02c0 0346 343f 0b32 ebbe
00000200: 394f 3f40 e78c 95be c3de 64c0 ad25 12c0
00000210: 1c38 c63f 0fd1 07bf 6028 113f d032 bebf
00000220: 269c 1240 27c2 05c0 7e27 7740 dee7 283f
00000230: 2379 2a3e 0b77 3940 4eac de3f 97ea 15bf
00000240: c659 1840 3250 9140 a3c1 0bc0 06b6 853e
00000250: 8b1f 6abf cbb3 673e ac2e 113f 608a 423f
00000260: 4b6a 1b3f 2872 0abf 4733 a03d 2eaa e4bf
00000270: 8dbe 513f c0f1 423f c873 1640 a942 1d40
00000280: f962 f63f cca9 c1bf f563 c2be a4ef f83f
00000290: ab3f f23f eb35 94be a691 b43f 5720 ae3e
000002a0: 72bd b9be eb77 dd3f de54 0cbf 3609 f33f
000002b0: 6229 433f f505 c2ba 6aed 5440 050e 28c0
000002c0: d6d2 01c0 8552 a43e 3624 cf3e b428 31bf
000002d0: c65e 90bf f98b 33c0 d9ba b4bf 0f39 eebf
000002e0: 4805 a9be 42e6 a23f d505 9ebf 7ec0 55bd
000002f0: 22f3 e8bf 05c5 a6bf 0478 0140 41db 233f
00000300: f568 84be 2e09 86c0 85c9 1f3f f63e a540
00000310: c5b0 46bf efcb 0fc0 2d1c ce3f c130 fa3f
00000320: 9dee 9ebf 471f 603f fa0f 02c0 7f31 5640
00000330: f02e 6dbf ee80 d83f 69db 2fc0 5fe6 febe
00000340: 98ab 1bc0 d26f 21bf 318c 20c0 5970 c33d
00000350: 1946 923f 4b7f 7ebf 68ea a73f 725f 443f
00000360: 9666 35bf 8b7e 283e fd79 ea3f 1109 50c0
00000370: a045 d83e 5c3c bebf 0bb9 b53f 8305 e9be
00000380: 597e 4dbf d92c 0940 5706 9fbe bf19 9dbf
00000390: 039c eabe f1cc 3640 6098 09c0 0514 4440
000003a0: dd2b 153f c356 5340 b75d ddbf 49d7 dc3f
000003b0: 98ec 17c0 54e5 86c0 6821 e33f 7bd1 50bf
000003c0: c257 4dc0 2f5a dcbf c13f fabf 66be 0ac0
000003d0: 462f 55bf 9baf d4bf cf04 0a40 c7dc 19c0
000003e0: ab48 1b40 d445 8abf 59e7 a93e a31e 13c0
000003f0: 224c 3bbf fb0f 823f 9b3f 1bc0 2ed0 bb3e
-1.2845443 1.6779243 0.580917 3.2064123 2.979998 3.2641618 1.030947 2.6271784
0.7058524 0.6670846 3.2240536 2.1529183 -3.8213265 0.039861497 -3.0138035 0.06925834
2.9097843 -2.3120685 -2.763632 0.84416866 -1.4413158 -4.0600486 -1.6206944 0.33916438
1.7773092 -1.124401 0.8328826 1.1333961 -0.7141424 2.450952 2.43584 0.2611319
1.6265135 1.8364183 -0.5283222 -1.2567185 -0.6354778 1.3871686 -0.23663582 1.6452919
0.4820782 0.81788915 0.7006062 -1.4598628 -4.790014 -1.6999428 0.77278286 -0.048637792
-4.3911576 -2.1329112 -2.8894982 0.6066514 -2.4527183 -1.8242129 -0.16928914 -0.11524186
-2.2008395 -3.0129101 1.2642895 0.69024605 0.87129796 3.20958 2.2699924 -2.8450024
-1.1675522 -0.6397511 -0.33678192 0.87980306 -1.5389557 0.2762157 0.9537197 -2.3242962
0.85898453 -1.0744407 -3.3741772 -2.5867367 0.7477754 0.020667173 -1.8871919 0.28185767
-0.935677 0.46954706 -0.6063101 2.0875175 -2.7682598 0.76441926 -2.6808922 -1.2851676
0.80083746 -0.6337221 0.24234515 -0.41962215 -1.3533146 -1.0020429 0.2707368 -0.8627786
-0.058443405 -2.9176893 -0.21708858 -3.3488696 2.6087952 -0.91227406 -0.44039243 -1.6621283
-1.5216578 1.7683727 0.68347436 0.5616703 -0.34981766 -2.1284301 -1.0402756 -0.8874201
-1.2614352 1.0111686 -0.52764916 -2.2450294 -2.567157 0.25653252 0.44701838 -1.6642765
2.375915 1.3076835 -4.258723 2.14561 -0.23239975 -2.0362964 0.7041933 -0.45936617
2.9892104 -0.29209062 -3.5760963 -2.2835495 1.5485873 -0.53053373 0.5670223 -1.4859257
2.2907805 -2.089975 3.8617854 0.659788 0.16647772 2.8978908 1.7396333 -0.5856108
2.3804793 4.5410395 -2.1836936 0.26115435 -0.9145438 0.2262718 0.5671184 0.75992393
0.60709065 -0.5408044 0.078222804 -1.7864435 0.8193138 0.7615013 2.3508167 2.4571936
1.9248954 -1.5129943 -0.37966886 1.9448133 1.892568 -0.28947386 1.4106948 0.34009048
-0.36277348 1.7302221 -0.54817 1.8987186 0.7623502 -0.0014802801 3.3269906 -2.6258557
-2.0284934 0.32094207 0.40457314 -0.69202733 -1.1278923 -2.8054183 -1.4119521 -1.8611163
-0.33011842 1.2726519 -1.234553 -0.052185528 -1.8199198 -1.3028876 2.0229502 0.6400643
-0.25861326 -4.1886206 0.6241687 5.1639357 -0.7761348 -2.246822 1.6102349 1.9546129
-1.2416569 0.87547725 -2.0322251 3.346771 -0.92649746 1.6914346 -2.7477667 -0.49785134
-2.4323483 -0.6306125 -2.5085566 0.09542913 1.1427642 -0.99412984 1.311841 0.7670814
-0.7085966 0.16454522 1.8318478 -3.2505534 0.4224062 -1.486217 1.4197096 -0.45512018
-0.80270916 2.1433623 -0.31059524 -1.2273482 -0.45822152 2.8562586 -2.1499252 3.063722
0.58270055 3.3021705 -1.7294225 1.72532 -2.3738155 -4.215494 1.774457 -0.8156964
-3.2084813 -1.7215022 -1.9550706 -2.167871 -0.8327526 -1.661609 2.1565435 -2.4041002
2.4263103 -1.080256 0.33184317 -2.298745 -0.73163044 1.0161127 -2.4257572 0.36682266

lstm_cell.bias_hh f4 [256]
00000000: ab90 a8bf 39ad e43f 008d b83e 50c4 4840
00000010: ea55 4340 079a 5140 eef2 6d3f c168 2a40
00000020: 3e53 3a3f 4006 253f 7595 4e40 13e4 1140
00000030: fde6 7ec0 f1fe 0b3e 2831 37c0 4124 df3d
00000040: a0fd 3940 6ede 1cc0 76ec 30c0 f645 383f
00000050: a9af b9bf ec97 7ac0 2625 dbbf 5e6e b83e
00000060: beb5 dd3f 3b01 9dbf ac18 883f 90eb 833f
00000070: d1f7 1fbf 96b9 1840 4dc8 2540 69b6 863e
00000080: 1cae d23f e125 e83f 70c0 1dbf 7703 97bf
00000090: ec65 39bf 4efc c83f 0d1a 50be f383 e03f
000000a0: 8e62 8a3e e1b5 653f 6e76 5c3f ffe8 abbf
000000b0: 9b0b 9bc0 9ad3 d4bf 698c 493f 7920 1cbc
000000c0: 659a 8cc0 be16 05c0 03a8 31c0 b2cd 243f
000000d0: f654 29c0 6ff9 edbf 5f76 bfbc 9868 4cbe
000000e0: fe6b 09c0 1ea5 38c0 b5b3 9b3f e8c2 113f
000000f0: c272 503f 6b1f 4b40 7f86 0840 cd54 31c0
00000100: ea3b 87bf d24d fdbe 887a 9bbe e0df 733f
00000110: 0051 bcbf c7a4 8d3e 2db9 843f 57fb 17c0
00000120: 4a65 483f 76bf 9bbf 155c 5cc0 6afc 26c0
00000130: db42 2b3f 8b48 7b3e 7083 d9bf ea97 a93e
00000140: 4f11 92bf c99e c83e bca2 05bf 6bf2 0240
00000150: db92 30c0 2b9f 233f 671c 2dc0 070b a5bf
00000160: de33 4b3f 4dad 0cbf 4ec1 243e 11bd e6be
00000170: b25b a8bf b919 77bf 536b 763e bf06 69bf
00000180: d591 bdbd 6c87 3bc0 68b0 87be c50f 4ec0
00000190: a070 2c40 48c6 82bf c26d a2be 806e e3bf
000001a0: 58f6 abbf 1903 ef3f bdd8 593f 501d 1d3f
000001b0: 5194 90be 93b6 03c0 7058 8abf 1718 64bf
000001c0: 33ce 82bf ba3a 7e3f e3d8 aebe 20ef 12c0
000001d0: 0dbb 1dc0 c430 6c3e d88c c63e 130a ddbf
000001e0: be4c 1340 1cf0 b03f 8cb0 81c0 e768 0c40
000001f0: f3ae 6abe 8651 08c0 5342 113f 8b34 ccbe
00000200: 7d2f 3b40 924a 06bf 3372 64c0 0d70 15c0
00000210: 3c06 b73f 116e 04bf 87ac e93e f87d bdbf
00000220: 0a3f 0c40 a778 03c0 f730 8040 354d 443f
00000230: 5dc3 5d3e 0b26 3a40 1fc5 c43f 4fc8 29bf
00000240: f222 2440 c212 8e40 bcfc 0fc0 230c 523e
00000250: d762 5dbf 552e 463e 54fc 0d3f d604 263f
00000260: bbae 523f 387f 09bf 5369 8a3d fe66 e9bf
00000270: 9dc2 493f c0c6 4f3f 70d3 1b40 3963 1140
00000280: 475c ea3f 942e abbf 052e afbe 2869 ff3f
00000290: cb17 e63f 8946 76be e6c3 a43f dbe8 863e
000002a0: 42d9 b0be 1d5c d63f 5da6 13bf 5611 f53f
000002b0: c2a2 4d3f 4869 573d ca97 5340 65e0 23c0
000002c0: 96a2 08c0 717f 643e d6a6 cb3e ac11 25bf
000002d0: 9312 aabf 2910 32c0 c981 a1bf bf87 f3bf
000002e0: a0a0 ccbe e37f b63f acf9 9ebf 5d20 b2bd
000002f0: 2b91 fbbf a54d bebf db4d e63f 854d 1a3f
00000300: f518 54be c5c4 84c0 259e 1e3f c15a aa40
00000310: f17e 4dbf bf0f 10c0 390d b83f f778 ee3f
00000320: 3d7c 90bf cd37 523f 5a1e 01c0 3f47 4e40
00000330: bfb0 82bf ae98 d73f 1074 2fc0 dd3d 30bf
00000340: 5862 0fc0 d2a0 36bf 0123 1ac0 bbcc d43d
00000350: 112e ab3f 1ccd 85bf c5ab ae3f d0fe 473f
00000360: 84e0 45bf 9faf 723e ddf9 e93f 218a 53c0
00000370: aa33 f63e c417 c2bf 29d8 bc3f 3323 07bf
00000380: a9d3 34bf 8132 0c40 194b 73be afef 88bf
00000390: 635b f2be 7171 3740 871c 0ac0 256d 4740
000003a0: 5582 233f 6d9d 5540 1807 ccbf e9e1 dd3f
000003b0: c86a 21c0 b420 88c0 3868 e03f 2595 2fbf
000003c0: 5236 4ac0 4f63 e1bf e10e ebbf 7509 07c0
000003d0: a487 68bf 3c03 c4bf ad64 0a40 0f34 0ec0
000003e0: 9b47 1140 d82f 7dbf b102 a13e 4dba 0fc0
000003f0: a2b4 46bf 8b6a 803f f2dc 27c0 e5f8 cc3e
-1.3169149 1.7865363 0.36045074 3.136982 3.0521188 3.275026 0.92948806 2.6626437
0.7278327 0.6446266 3.2278721 2.2795455 -3.9828484 0.13671471 -2.8623753 0.10895587
2.906105 -2.451076 -2.7644324 0.7198175 -1.4506732 -3.9155226 -1.7120712 0.36021703
1.7321088 -1.2266 1.0632529 1.0306263 -0.6248751 2.3863273 2.5903504 0.26311043
1.6459384 1.813656 -0.6162176 -1.1797932 -0.72421145 1.5701997 -0.20322438 1.7540268
0.27028316 0.8973065 0.8611821 -1.343048 -4.8451667 -1.6627076 0.78729874 -0.009529226
-4.393847 -2.079513 -2.7758796 0.64376366 -2.6458106 -1.8591746 -0.023371873 -0.19961774
-2.1472163 -2.885078 1.2164217 0.5693803 0.81425107 3.1737926 2.133209 -2.7708008
-1.0565159 -0.49473435 -0.3036692 0.9526348 -1.4712219 0.27664778 1.0369011 -2.3747156
0.78279555 -1.2167804 -3.4431202 -2.6091561 0.6689889 0.24539392 -1.6993237 0.33123714
-1.1411532 0.39183643 -0.5220144 2.046046 -2.7589633 0.63914746 -2.7048585 -1.289399
0.7937602 -0.54951936 0.16089365 -0.4506612 -1.3152983 -0.96523625 0.24064378 -0.9102592
-0.09256331 -2.9301405 -0.26501775 -3.2197125 2.694374 -1.0216761 -0.31724364 -1.7768097
-1.3434553 1.867282 0.8509634 0.6137285 -0.28238156 -2.0580184 -1.0808239 -0.8909926
-1.0219177 0.9930836 -0.34149846 -2.295845 -2.4645417 0.23065478 0.3877933 -1.72687
2.301559 1.3823276 -4.052801 2.1939027 -0.229183 -2.1299758 0.5674183 -0.39883837
2.9247735 -0.52457535 -3.5694702 -2.334964 1.4298778 -0.5173045 0.4563944 -1.4804068
2.1913476 -2.054239 4.005977 0.7668031 0.21656556 2.908572 1.5372657 -0.6632127
2.564633 4.43979 -2.2498007 0.20512442 -0.8647894 0.19353612 0.5546315 0.6485113
0.8229787 -0.53709745 0.0675837 -1.8234556 0.7881258 0.81162643 2.4347801 2.271681
1.8309411 -1.337359 -0.34214798 1.9953966 1.7976011 -0.24050345 1.2872283 0.2634953
-0.34540755 1.6746861 -0.57675725 1.9145916 0.80326474 0.05259064 3.3061395 -2.560571
-2.1349235 0.2231424 0.39775723 -0.6448009 -1.3286918 -2.7822363 -1.2617732 -1.9025801
-0.39966297 1.4257778 -1.2419944 -0.08697579 -1.9653677 -1.4867445 1.799251 0.60274535
-0.20712645 -4.1490197 0.6196006 5.3235784 -0.8027182 -2.250961 1.4379035 1.8630666
-1.1287915 0.82116395 -2.0174775 3.2230985 -1.0210189 1.6843469 -2.741459 -0.68844396
-2.2403774 -0.7133914 -2.4083865 0.10390612 1.3373433 -1.045322 1.364617 0.7812319
-0.7729571 0.23699807 1.8279377 -3.3053057 0.48086292 -1.5163503 1.4753467 -0.52788085
-0.7063547 2.1905825 -0.23759116 -1.0698146 -0.47335348 2.866299 -2.1579912 3.1160367
0.63870746 3.3377335 -1.5939665 1.7334567 -2.5221424 -4.253992 1.7531805 -0.6858695
-3.1595654 -1.7608432 -1.8363916 -2.1099522 -0.9083197 -1.5313487 2.1623948 -2.2219274
2.2699955 -0.9890113 0.31447366 -2.245746 -0.77619374 1.0032514 -2.6228604 0.4003364

linear0.weight f4 [32, 384]
00000000: f45e 53bd 0b5e b43c c79a a9bd 3e59 c2bc
00000010: 22dc 993d 3df5 9b3d 992b c3bd 11f5 5e3d
00000020: 70ca 7f3d 69d2 b33d 2fce 3abd 79b8 343d
00000030: 9235 423d 2309 2a3d 7877 d3bd 11ee d7bd
00000040: 87cf 123d e32f 69bd cf47 1fbd a047 b43c
00000050: f41d 0dbc 52f1 f4bc e152 dabc 517c c3bd
00000060: 04c7 ccbd bd86 99bd 2fd0 b5bc 1725 443d
00000070: 26df cb3d c3c6 a1bc 845f d1bd a282 bb3d
00000080: 5e6e afbd 7b31 d23c dd6e e43c bec5 193d
00000090: 2d14 c3bd 74ce 40bd 76e3 a9bc 835a cebd
000000a0: 2771 863d e88c e03d 747e 9b3d ebeb 4dbc
000000b0: 549b 65bd 7062 833d 5517 e5bc 842f 2e3c
000000c0: efe0 c03d 7665 03bd b7c0 3d3d fb9d 3abd
000000d0: 8cff 8b3c e218 d7bd 5f0c a03c 6227 d3bc
000000e0: 4a93 65bd 5a65 d93d 517d f43c 99ac 583d
000000f0: 30dc 0cbd 156c 9d3d 4b50 64bd 52cf fa3c
00000100: d042 0bbd 2e23 763d abcb 91bd c341 12bd
00000110: 5e3d 7f3d 0380 493d d516 cbbd 8a2c a63d
00000120: 2503 443d d15b a33d 1c85 3dbd cc01 9c3d
00000130: 8488 bc3d 1786 d83d f342 c1bd 212b acbd
00000140: 523d ff3c 5588 a0bd c669 cebd cd58 843c
00000150: e3d6 b4bd 6c37 2cbc 4d31 7ebd 8db9 95bd
00000160: a750 c8bd e772 a5bd e601 afbd c38a c53d
00000170: 9a72 e13d be82 85bd 296a a7bd 468e bf3d
00000180: eefb 92bd 2882 983d d43c 743d b09a 9f3c
00000190: 9f52 1abd 6917 d7bd 5f28 54bc ae25 10bd
000001a0: e06b c03d 56bb 593c c57a 673c ca69 9cbd
000001b0: e6ec 93bd 581a e03d 9905 52bd 1bb8 e23d
000001c0: 49ee 883d 3802 f6bc 2e55 b23d 4883 aebd
000001d0: 73c7 a53d ad0c 88bd e2c5 293d d4ed 43bc
000001e0: 4fa2 d9bd aa10 c13d 5074 7a3d 0397 9b3d
000001f0: 33de c0bd ddef 123d 79e5 8ebd 4614 a93d
00000200: 21d9 73bc 3981 16bd b1c3 24bd 25c6 d1bc
00000210: 36fe c5bc 5655 cbbd 5622 b2bd eb06 debd
00000220: 00fb 3c3d 9610 b7bc ffdc d5bc 5982 23bd
00000230: e520 debd 9392 6dbd d0e0 e83b 2fbc d8bd
00000240: 171c 8cbc abbf 5dbc 3f7c 71bd 2591 41bd
00000250: b812 09bd ffd0 4dbd 2b73 c6bd a6ff 33bd
00000260: 2189 70bc 3fa4 ddbd 01c5 203d 0751 a1bd
00000270: a13b 97bd 2967 a5bd f747 8ebd 3901 a8bd
00000280: f855 09bc 7f3f 9dbd 2902 80bc c907 93bc
00000290: 51d1 cebc e1d5 43bd ff3e 3bbc e7e4 21bd
000002a0: 4765 8ebd 8722 163d efd5 c6bd 590b a1bd
000002b0: 1ae4 33bd 4b0a ddbd 716b f7bc e1af e5bc
000002c0: 30a4 96bc b128 003d 07a5 81bd 3ad1 c8bc
000002d0: f0cb eb3b 2f02 03bd 7ea2 93bd 76f2 49bd
000002e0: e556 5dbc 0082 7abd c128 83bd a70a a9bc
000002f0: 3133 9abd 27b3 c3bd 1923 a8bd 0bd2 d1bd
00000300: 3012 34bd 17a2 0e3d 2b73 8b3c 4f3c c9bc
00000310: 71a4 d73c a88e 93bc df54 1bbd b1bc 4bbc
00000320: 00e5 4cbc 9f02 6abc 2087 7abb 8859 023d
00000330: 0023 2039 5acf 483d afc6 f3bc bf82 643c
00000340: 60e7 35bc c00b 68bc af39 e23c 9654 473d
00000350: baba afbc 81df 2e3c e7c4 9f3b 61f0 7fbc
00000360: fbbc d43c 8579 503c 403f 563b 4f24 e2bc
00000370: 5fe5 81bc 57b3 20bd 71db 3fbd 77b0 1f3d
00000380: f0da e1bb c0fa fb3c 1848 0a3d 9178 0c3d
00000390: ffc3 73bc afce 013d fb8b ccbc 8fce aa3c
000003a0: 31ed 4b3d 0f80 1b3d 9992 29bc d1e5 4ebd
000003b0: dfe8 1dbd 002f 3439 6fa7 443d f075 713c
000003c0: 1161 42bd 4a07 363d e53c d7bb 807a 3dbd
000003d0: df50 003d 1f42 373d f7d9 0cbd a8ac 033d
000003e0: 8625 3d3d cfab 423d 5fc1 483d bb5a 4fbc
000003f0: 9f32 aa3c 30bc 1f3d 07e2 8abc 0063 7fbb
-0.051604226 0.0220175 -0.082814746 -0.023724195 0.0751269 0.07615135 -0.095298 0.054432932
0.06244892 0.08780367 -0.04560679 0.04412124 0.04741437 0.04151262 -0.10325521 -0.105434544
0.035842445 -0.056930434 -0.03888684 0.02200681 -0.008613098 -0.029900227 -0.026650848 -0.09545196
-0.09998897 -0.074964024 -0.022193996 0.047886934 0.099546716 -0.019748097 -0.10223296 0.091557756
-0.08565973 0.02565836 0.027884895 0.037542097 -0.095253326 -0.04707189 -0.020738345 -0.100758575
0.06564551 0.10964376 0.075924784 -0.012568454 -0.056056336 0.0641526 -0.027965227 0.010631446
0.09417903 -0.032079183 0.046326365 -0.04556082 0.017089628 -0.10502793 0.019537149 -0.025775615
-0.05604867 0.106150344 0.029844912 0.052898977 -0.034389675 0.07686631 -0.055740636 0.030616436
-0.033999264 0.060092144 -0.07118925 -0.035707247 0.062314384 0.049194347 -0.09916464 0.08113964
0.04785456 0.07976497 -0.04626952 0.0761753 0.09205726 0.105724506 -0.09436598 -0.08406664
0.03115717 -0.07838503 -0.100787684 0.016155625 -0.08830049 -0.0105112605 -0.062058736 -0.07310782
-0.09781008 -0.080785565 -0.08545284 0.09645607 0.11008187 -0.06519078 -0.08174545 0.093533084
-0.07176958 0.074467 0.059628323 0.01948294 -0.03767645 -0.10502512 -0.012949078 -0.035192184
0.093955755 0.013289293 0.014128392 -0.07637365 -0.07222919 0.10942525 -0.05127487 0.110702716
0.06686074 -0.030030355 0.08707653 -0.08521134 0.080946825 -0.06643043 0.04144848 -0.011958558
-0.10626661 0.094270065 0.06114608 0.075971626 -0.09417381 0.035873283 -0.06977362 0.0825582
-0.0148833105 -0.03674433 -0.04022569 -0.025607178 -0.024169069 -0.09928386 -0.08697955 -0.10841163
0.04613781 -0.022346776 -0.026106356 -0.03991923 -0.10846118 -0.058001112 0.007106878 -0.10582768
-0.017103238 -0.013534467 -0.05895638 -0.04725756 -0.033465117 -0.050248142 -0.09689935 -0.043944977
-0.014681132 -0.10822343 0.039250378 -0.07876783 -0.0738442 -0.08076317 -0.0694732 -0.08203358
-0.008382313 -0.076781265 -0.01562603 -0.017948048 -0.025246294 -0.047811393 -0.011428594 -0.03952494
-0.06952911 0.03665402 -0.09708773 -0.078634925 -0.043918706 -0.10792979 -0.0302026 -0.028037967
-0.018388838 0.031288806 -0.063303046 -0.02451383 0.007195942 -0.031984504 -0.07208727 -0.049303494
-0.013509487 -0.061159134 -0.064042576 -0.020634962 -0.07529295 -0.09555655 -0.08209819 -0.10245141
-0.043962657 0.03482255 0.01702269 -0.02456489 0.026323529 -0.01801236 -0.037922736 -0.012435124
-0.01250577 -0.0142828515 -0.0038227513 0.031823665 0.00015271828 0.04902587 -0.029757826 0.013947188
-0.011102527 -0.014162958 0.027615396 0.04866465 -0.021451343 0.010673405 0.0048757675 -0.015621276
0.02596902 0.012724285 0.0032691509 -0.027605204 -0.015856443 -0.03923353 -0.046840135 0.03898665
-0.0068925545 0.030759215 0.03376016 0.03429467 -0.014878272 0.03169125 -0.024969092 0.020850448
0.04978675 0.037963923 -0.010349893 -0.05051214 -0.03855216 0.00017183647 0.04801124 0.014737591
-0.04745585 0.044440545 -0.0065685385 -0.046259403 0.031327125 0.044740792 -0.034387555 0.03214708
0.046178363 0.04752713 0.049012538 -0.012655909 0.020776091 0.03899783 -0.016953481 -0.003896892

linear0.bias f4 [32]
00000000: 9d10 d9bd 95fa 75be 70ab cd3a 81e5 8ebe
00000010: f8b8 53bd ffd2 e0bd 36e6 b8bc 719f cf3e
00000020: 4f88 23be d6e2 bcbd 11df e6be b745 84be
00000030: 1fce 8cbe b0fa d0be 6b01 3bbd c54f 65be
00000040: d12d 90be 4e43 94bc 866b 4bbe c02e b8bd
00000050: ccaa 9ebd 3ef4 12bb 4cfc 9fbc 3627 133e
00000060: c44d 9dbd f61c 20be 481c 89bb 8f5f 5fbd
00000070: acf5 3dbd 324c adbd 52bf 7cbe 7b50 7bbe
-0.10598872 -0.2402137 0.0015691351 -0.27909473 -0.05169007 -0.10977744 -0.02257071 0.40551332
-0.15969966 -0.09222953 -0.4509206 -0.25834438 -0.27501008 -0.4081626 -0.04565565 -0.22393711
-0.28159955 -0.0180985 -0.19865236 -0.08993292 -0.07747421 -0.0022423412 -0.019529484 0.14370427
-0.07680848 -0.15636048 -0.0041842796 -0.05453449 -0.04637687 -0.08461799 -0.24682358 -0.2454242
