model/1714141768/1_NSFnet_global_model_0.pth (torch, 331200 bytes, 17 tensors)

conv1.lin_l.weight f4 [16, 1]
00000000: 712a 22bf 5911 0dbb 8afc 32bf 91ff 26bf
00000010: e14e 00bf 33a0 873e 110e 56bf 1cce 25be
00000020: d7b5 22bf 6082 a53d 385f 88be edfd 61bf
00000030: a2a7 0e3d 3fa2 f8be 4bc8 cb3e 618f e8be
-0.6334601 -0.0021525233 -0.69916594 -0.65233713 -0.5012036 0.2648941 -0.83615214 -0.16191906
-0.63558716 0.08081508 -0.26635146 -0.88278085 0.034827836 -0.48561284 0.3980125 -0.4542189

conv1.lin_l.bias f4 [16]
00000000: 07cb 1ebe 3a86 1a3f fb11 8bbf 5ac6 be3e
00000010: 1b0d e33e 0565 99be b5bd 51bf 2e5a c63e
00000020: ffcb 2a3f e647 33bf 8fe3 213f 9941 72bf
00000030: 2b28 f73e 507c 84be 9470 c7be d053 d9bd
-0.15507136 0.60361063 -1.0864862 0.37260705 0.44345936 -0.29959884 -0.81930095 0.38740677
0.66717523 -0.70031583 0.6323785 -0.94631344 0.48272833 -0.25876093 -0.38953078 -0.10611689

conv1.lin_r.weight f4 [16, 1]
00000000: d1bd 7fbf 7d81 fbbe 33e9 363e b14b 5bbf
00000010: 116b a5be 6ab0 1a3f 1a56 38bf 6b19 d73d
00000020: 8fee f9be fc69 52bf 2b62 57bf b66a d23d
00000030: b839 48bf e6b7 4bbf 6e9b 84be 8034 65bd
-0.9989901 -0.4912223 0.17862396 -0.8566237 -0.32308248 0.60425436 -0.7200638 0.10502895
-0.48814818 -0.8219297 -0.8413417 0.1027426 -0.7821307 -0.7957748 -0.25899833 -0.05595827

conv2.lin_l.weight f4 [64, 16]
00000000: b199 acbd 5f13 0f3e 9fb9 b8bc a891 0f3e
00000010: 883a 0abd 8104 62bd f047 17be d02f c83d
00000020: 5f6a fc3d 2f9a 3e3d 27c1 06be 1745 0f3e
00000030: a95e 9d3d 892e 243e 9f3d c3be 512e 42be
00000040: 4796 173e c7e1 93be 41ad a43d f16e 2d3e
00000050: 2f3d 903d 31a4 493d 613d a1bd 38c6 86be
00000060: 75f1 563e efe9 88be e167 72be 97ce 9cbd
00000070: 8117 61be a061 1bbe 172b 99be af1f e4bd
00000080: 21e9 85bd 560c b7bd 5f51 253e e079 60bc
00000090: 4088 bc3b df83 debb a558 e23d c16c 143e
000000a0: 26f3 b63d ef7e cabd c0a1 23bc 4566 c23d
000000b0: c705 8abd 81d2 04be 2005 96be 60d2 48be
000000c0: af3e f83d afa2 6abe cf22 c9bd 5157 e83d
000000d0: bf00 e93d 0992 90be 802a 913c 775c 1ebe
000000e0: b0fc be3c 5aef b6be c180 223e 40de 86bc
000000f0: df2e aabe 5ace 3f3e c0a3 d53d 71b9 febd
00000100: 8f6e 433e 3522 de3d e61a 3abe e751 a83d
00000110: a0d9 53bc f02b 5ebe 5009 2f3e ffbf a6be
00000120: 6ff4 1f3e 51d1 72be 00bc 7e3e e16c 80bd
00000130: 91d3 1dbe c117 23be ef7a a3be 8148 39be
00000140: ea9d 48be 41f9 8ebd 3fc6 84be 418a f4bd
00000150: 41a0 753e f83b 13be b087 debd 0a5b 2bbd
00000160: c147 743e df99 72be bf38 1b3e effa c2be
00000170: d9c7 a9be f0ea e83c 3149 e6be 9036 00be
00000180: 2168 53be 0e2d a2bd c57a dabd c086 9e3b
00000190: 01f7 51be 1a67 9ebe e183 22be c5fd 8cbe
000001a0: a0d8 1c3c 715a 1c3e 2142 4abe 1acf 2c3e
000001b0: d876 343e 0f5b 7e3e c0b4 0cbe f073 e03c
000001c0: 11b3 e33d 0fa7 51be 4fc7 e9bd ef91 c8bd
000001d0: 00b4 0e3e 8153 0cbe 2170 2bbe cf28 91be
000001e0: dfc2 e7bd 215c bcbc 6ff2 3cbe 97a4 84be
000001f0: a117 aebd c183 cbbd 4fa0 4dbe 810e 18be
00000200: d067 f0bc f0c5 303d c182 01be 5a91 c2bd
00000210: 7002 073e df2c 07be bf44 7bbe 1fe8 f23d
00000220: f1a2 d73d c592 543e 0100 c43d 002c d8bb
00000230: 4100 7f3d f1dc 523e a04a 09bc 2124 1cbe
00000240: 10a9 4abd fab3 37be 17f4 973d 7136 913d
00000250: 9a3a 4bbe a1f0 67be 6b0f 5ebe 7f1a e3bd
00000260: d0e0 033d 6b3c d33d bfe3 76be f93e 9dbe
00000270: 264c bd3d a16b 713e 5f8d ec3d 0082 153d
00000280: 70d5 83bd 7094 ccbc 9115 083e 016d 153e
00000290: e675 45bd bf1b 4dbe 7041 edbd 0624 313e
000002a0: 4117 00be 0f5f 823d 0545 cf3d 1053 fcbd
000002b0: 1a8b 2ebe bfe5 573e 1ad7 2f3e 50e2 29bd
000002c0: a1da 45be d1ce 31be 0024 eb3c 5064 fe3d
000002d0: 2138 5f3e 3fe9 b23d 60fa 623c 52bf 25be
000002e0: b1a5 183e a7d5 9f3a 4fd7 72be 3bff c0bd
000002f0: b1bd 8bbd 30b4 8c3c 306d 9fbe 86b5 4bbe
00000300: cfb7 48be 7577 17be 4f9f 9bbc 0f93 ffbd
00000310: a578 573e d5d6 e9bd e09e 143d 0391 30be
00000320: 8f84 02be 0a1a afbd cfb3 063e 19b8 193d
00000330: 4453 be3d e5cb 563d d8d9 0a3e a058 c13c
00000340: 6161 7abd 32b4 0dbe 8166 fbbc 11af 243e
00000350: 51ac c33d 2e18 743d a082 24be 8e83 873c
00000360: cf5f 353e 9d8b 073e f61e 32be 2f29 afbd
00000370: 1d19 523c 90d7 11bd f465 4d3c f03c 893d
00000380: 1fcc 413e e76c a23d 8652 3a3e f080 fe3d
00000390: 10ec 58be 1931 0cbe d04a 603e 10fa 99bc
000003a0: b763 0cbe af7a 6d3e e0a8 e93c 110f 0cbe
000003b0: 1b1e 5fbe 4041 e3bb 2f33 8a3d 65da 54bd
000003c0: 71b6 143e c7cc 8b3e 21ac 0f3e d047 3b3e
000003d0: e179 f33d 5118 c33c 803a 82bc ff02 5e3c
000003e0: cf51 64be 5769 8b3c 01c4 ed3d a72f 9c3c
000003f0: ff80 0cbc e10d cc3d 353f 5a3d 00ff e53b
-0.08427752 0.13972233 -0.022549449 0.14020407 -0.033747226 -0.055180077 -0.14773536 0.097747445
0.12324976 0.04653376 -0.1315962 0.139912 0.076840706 0.16033377 -0.3813295 -0.18962981
0.1480342 -0.28883192 0.08040858 0.16936852 0.0704292 0.04922885 -0.07873035 -0.26323104
0.20990546 -0.26740977 -0.23672439 -0.076565914 -0.21981622 -0.1517396 -0.29915687 -0.11138856
-0.065386064 -0.089379 0.16144322 -0.013700932 0.005753547 -0.0067906226 0.11052064 0.14494611
0.08933096 -0.09887492 -0.009987295 0.094921626 -0.06739383 -0.12970926 -0.29300785 -0.19611502
0.12121331 -0.22913621 -0.09821092 0.11344779 0.113770954 -0.28236416 0.01772046 -0.1546496
0.02331385 -0.35729486 0.15869428 -0.016463399 -0.33238885 0.1873106 0.104316235 -0.12437714
0.19085144 0.10846368 -0.18174323 0.08218747 -0.012930304 -0.21696448 0.17093396 -0.32568356
0.15620588 -0.2371266 0.24876404 -0.06270767 -0.15412737 -0.1592703 -0.31929728 -0.18094064
-0.1959149 -0.06981135 -0.259325 -0.11940432 0.23986913 -0.14378345 -0.10865724 -0.04183487
0.23855497 -0.2369151 0.15158366 -0.38082072 -0.33160284 0.02843234 -0.44977716 -0.12520814
-0.20645191 -0.0791875 -0.10667948 0.004837841 -0.20504381 -0.30938035 -0.1587062 -0.2753736
0.009573132 0.15268876 -0.19751789 0.16875878 0.1762346 0.24839424 -0.13740826 0.027399033
0.111181386 -0.20473884 -0.11414968 -0.097934596 0.13935852 -0.13703729 -0.16741993 -0.28351447
-0.113164656 -0.02299315 -0.18451856 -0.25906822 -0.085006006 -0.099372394 -0.20080684 -0.14849283
-0.029346377 0.043157518 -0.12647535 -0.0950038 0.13184524 -0.1320071 -0.24537943 0.1186068
0.105291255 0.20759113 0.09570313 -0.006597042 0.0622561 0.20592095 -0.008379608 -0.15248157
-0.049477637 -0.1793975 0.07419603 0.07090462 -0.19846573 -0.22650386 -0.21685569 -0.11089038
0.03219682 0.10314258 -0.24110316 -0.30712107 0.0924304 0.23576213 0.11550402 0.03650093
-0.06437194 -0.024973124 0.13289477 0.14592363 -0.04820814 -0.20030116 -0.11584747 0.17298898
-0.1250887 0.06365787 0.10120586 -0.123205304 -0.1704525 0.21083735 0.17171898 -0.041475594
-0.19321682 -0.1736405 0.02870369 0.12421477 0.21798755 0.087358944 0.013853639 -0.16186264
0.14906956 0.0012194411 -0.23714946 -0.09423681 -0.0682329 0.017175764 -0.3113799 -0.19893464
-0.19601367 -0.14791663 -0.018996863 -0.12479221 0.21042116 -0.11417929 0.036284328 -0.17242818
-0.1274588 -0.085498884 0.13154529 0.037529085 0.092932254 0.052440543 0.13559663 0.02360183
-0.061128024 -0.1383827 -0.030688526 0.16082408 0.09554351 0.059593372 -0.16065454 0.016542222
0.1771233 0.13236852 -0.17394623 -0.08552777 0.01282337 -0.035605967 0.012536515 0.06701076
0.18925522 0.07930928 0.18195543 0.124269366 -0.211838 -0.13690604 0.21903539 -0.018795997
-0.13709913 0.23191331 0.028522909 -0.13677622 -0.21788828 -0.0069352686 0.06748044 -0.05196609
0.14522721 0.2730467 0.14030506 0.18289113 0.11888481 0.023815306 -0.015897036 0.013550519
-0.22296833 0.017018003 0.116096504 0.019065691 -0.008575677 0.09963585 0.053282935 0.0070189238

conv2.lin_l.bias f4 [64]
00000000: 99e6 96bd 5fee f7bd d925 a6be 7674 bbbe
00000010: 0fac ddbd 8f1b b2be 5fcf 2a3e ff1e 4d3d
00000020: e0d7 503d 6049 4ebe 9096 4f3d 72f1 003d
00000030: c1ba ec3d 04d0 4e3c af9d 56be affb 75be
00000040: 6799 9ebd 3f83 6cbe a0e6 95be 5949 9cbe
00000050: 919f 71be 5af2 ac3d c5cf cdbd 1fa6 62bd
00000060: 4a8a 2f3e 11b2 1dbe d057 023e 211d cabd
00000070: 7731 88be 4edc c23d 6181 94be f5e3 e0be
00000080: bf55 5abe 7742 433e 55ae dfbd e768 28be
00000090: 7f69 9bbe e93e 213e f081 303e 506e e43d
000000a0: a718 22bd 7b52 dbbd 78f1 07bc 6962 16be
000000b0: a3fd ecbd c5dc cfbc 59bc 53be 80a5 c6be
000000c0: a7f0 a1be 8677 b5be 1925 663d a5ff 56be
000000d0: b124 acbd 1982 abbd 1297 253e 50a3 c13d
000000e0: c169 b0be b1f5 403e 7ffe f9bd 9aa6 3abe
000000f0: cfa2 b93d 40e0 923d e905 273e 297f 953c
-0.07368202 -0.121060126 -0.3245075 -0.3661229 -0.10823833 -0.3478665 0.16680668 0.05007839
0.050987124 -0.20145178 0.050680697 0.03148026 0.11559058 0.012622837 -0.20958589 -0.24021791
-0.07744103 -0.23096941 -0.29277515 -0.3052471 -0.23596026 0.084446624 -0.100493945 -0.055334207
0.17142597 -0.15399958 0.1272881 -0.09868837 -0.2660024 0.09514676 -0.29004958 -0.43923917
-0.21321772 0.19068323 -0.10921923 -0.16446267 -0.30353925 0.15746655 0.17237067 0.11153853
-0.03957429 -0.10709091 -0.008297317 -0.14685978 -0.11571815 -0.025373826 -0.20677318 -0.3879814
-0.31628916 -0.35442752 0.056187723 -0.20995958 -0.08405436 -0.083744235 0.1617091 0.094549775
-0.34455684 0.18843724 -0.122067444 -0.18227616 0.090642564 0.071716785 0.16310848 0.018249111

conv2.lin_r.weight f4 [64, 16]
00000000: d0f6 22be 11fe c33d 0f00 97be a1ea a63d
00000010: 4f63 13be 5faf 833d 3713 263e 6a69 4cbe
00000020: 9fa4 06be 5733 003e c688 b7bd 8fa8 25be
00000030: 6f56 22be 5a15 35be 080b 0abe ffe1 043e
00000040: 40e2 0fbd 0177 85be 09be 90be a0dc 8a3c
00000050: 60c6 063e ffed 1abe c1fb 27be efc4 a33c
00000060: 9fc6 293e e542 d6bd 2600 c7bd a96a 183d
00000070: 8f6f 88be cf95 24be a7c1 8b3d f146 0d3e
00000080: 4114 e63d b1c7 273e 21e3 3f3e 9110 013e
00000090: 7113 203e f149 e3ba 4023 853d 21f9 79bd
000000a0: 915a 3c3e 901d c0bd c0f3 63be 6fe5 763e
000000b0: 51ab 603e 0a24 49be 9055 b7bd 9f9e 60be
000000c0: 60cf 403d 20c0 733d fbf8 cabd 7b2b 50bd
000000d0: 11f3 be3d 7116 dc3b 25b2 5a3e e130 9abe
000000e0: 507d 453e e122 73be 1f4a 96bd 45bf dd3d
000000f0: 5067 cebc e5ea 533d 8f61 0bbe 91e2 a3bd
00000100: 008f af3c 00cb 093d 416f 71be a63a 32bd
00000110: 11e0 ef3d bf1d d53d d994 0abe 6fbb fd3c
00000120: 80f7 653b 316f 293c 3882 893d 560f ad3d
00000130: f7e5 a53d 9fc6 71be 8164 35bd efe1 8a3d
00000140: aff8 09be df01 07bf e1a4 0ebe a66f 453d
00000150: b887 083d 7106 93be 100a 263e 0159 02bf
00000160: f8fb 1bbe 51b5 02bf 30e1 79be a6bb b9be
00000170: 4fa4 e0be 2185 03be 45de 43be 60b4 debd
00000180: a8b7 9cbd ef02 67be 3b8a d5bd b757 1d3e
00000190: df72 403e d83d ea3d 4842 96bd 194d 073e
000001a0: 07cf 21be bfce 16bd 3f93 573e 10ef 60be
000001b0: c56d d43d 00ca 2f3a 8bdc db3b ff54 6bbe
000001c0: 8158 6e3e 1104 90be b1ec 73be c110 c2bd
000001d0: 8088 7fbd 2bfe d43c 8501 5dbd 1707 0f3e
000001e0: bff2 72be 3fae f83d fa1d 4bbe 851a 5b3e
000001f0: bf14 7bbe c0f5 eb3c 5f8e 5dbd cf71 e1bd
00000200: 61d2 bd3d b138 613e 81b5 78bd 8f6b 37be
00000210: cf18 0bbe b0b7 e7bd f991 053e f058 4fbe
00000220: 3af4 3a3e a775 a33d 6841 9a3d 6f64 34be
00000230: affe e5bd c167 18be 051b da3d 3008 d83d
00000240: 5079 3e3e 6af7 42bb efed 6f3d d008 7f3d
00000250: 10a7 60bd b1a2 253d 2f15 34be f123 68be
00000260: 60ef 373d 603a 84bc 00d1 ca3c b0de f9bb
00000270: 1a75 40be 5ba0 cdbd 7118 f8bd a8b5 0fbd
00000280: 9f6b b4bd 8f2f 4a3e 6f75 193e 013d 70be
00000290: bf8c c03d e1ac 5cbe 30fd b23d cfa2 78be
000002a0: c8a2 0f3d cfc8 1abe c088 7c3e 7f15 61be
000002b0: c1d9 fcbd c15a 713e 9af7 46bd e114 7a3e
000002c0: a52f 60bd 090c 0b3e 9140 79be e076 303d
000002d0: f01e 863d 8f37 84bd b122 febd e8df 6fbe
000002e0: c5b2 e13d 114c afbd 3a83 303e 2ae4 373e
000002f0: 1f80 1a3e 202e 973d dfd9 45be 4034 333e
00000300: 06c2 3cbe 216b 38bc 2a1d b7bd a01e 1b3e
00000310: 5fd1 1d3e d922 47be 67b9 243e 3c68 a83d
00000320: efac a53d f152 f6bd 7f32 1fbe df85 6bbe
00000330: afc3 36be 4ff7 51be 4024 cc3c 4ff3 363e
00000340: 2b27 623e 02cf 0ebe bfb6 02be 9f54 613e
00000350: 30ea bc3c 0a33 97bd c03c 003e c01d 4dbe
00000360: f137 31be 8f4c 11be 5ac8 c1bd 9936 8c3d
00000370: 6fa9 02be 6f19 7c3e e4f3 52be b088 11be
00000380: 6667 333e 419e 743e 7196 6ebe da35 47be
00000390: 47c5 00be 8153 c5bd 8067 5abe 250f d33d
000003a0: 5840 923d a0fe 9a3d d0c8 5a3d 11ef 683e
000003b0: 18c1 94bd 3698 33be 863d 433d 80c9 193e
000003c0: 5077 61be 0fae 91bd 0f78 19bb c121 653d
000003d0: e011 96bc 5f32 9cbd 80ce 653b 3541 573d
000003e0: 2068 0fbd 6f86 c8bd 25c1 e23d 918a 473d
000003f0: 7f76 4c3e a0d9 943d 4186 0bbe 307e b2bd
-0.15914464 0.09569944 -0.29492232 0.08150221 -0.14393352 0.06429934 0.16218267 -0.19962087
-0.13148735 0.12519585 -0.08961634 -0.16177581 -0.15853284 -0.17683926 -0.1348077 0.12976836
-0.03512788 -0.26067355 -0.28269985 0.016950905 0.13161612 -0.15129851 -0.1640463 0.019991366
0.16579674 -0.10461978 -0.09716825 0.037211094 -0.26647612 -0.16072772 0.06824046 0.13796593
0.11234332 0.1638477 0.18738987 0.12603976 0.15632416 -0.0017340762 0.06500864 -0.061028603
0.18393923 -0.093806386 -0.22260952 0.2411096 0.21940352 -0.19642654 -0.089518666 -0.21935509
0.04707277 0.059509397 -0.099107705 -0.050822716 0.09323705 0.0067165424 0.21357019 -0.30115417
0.19286084 -0.23743774 -0.07338356 0.108274974 -0.025195748 0.051737685 -0.13611434 -0.080021985
0.021430492 0.03364086 -0.23577596 -0.043512963 0.11712659 0.10406064 -0.13533343 0.030973164
0.0035090148 0.0103414515 0.067142904 0.08450191 0.08100503 -0.23610924 -0.0442853 0.06781375
-0.13473772 -0.5273723 -0.13930084 0.04820218 0.033332556 -0.28715852 0.16214776 -0.5091706
-0.15232837 -0.51057917 -0.24402308 -0.36275977 -0.43875358 -0.12843753 -0.19127758 -0.108742476
-0.07652217 -0.22559713 -0.10426756 0.15365492 0.1879382 0.11437577 -0.07336861 0.13213004
-0.15801631 -0.036818262 0.21052264 -0.21966195 0.103724994 0.00067058206 0.0067096404 -0.22981642
0.23275949 -0.28128102 -0.2382076 -0.09475852 -0.062386036 0.026000103 -0.053956527 0.13967548
-0.23725413 0.1214261 -0.19835654 0.21396835 -0.24519633 0.028803706 -0.054090854 -0.110080354
0.09268642 0.21994282 -0.06071997 -0.17912124 -0.13583682 -0.113143325 0.13043965 -0.2024877
0.18257228 0.07981425 0.075320065 -0.17616437 -0.11230218 -0.14883329 0.10649685 0.10548437
0.18600965 -0.002974952 0.05857652 0.062264264 -0.054846823 0.040438358 -0.17586206 -0.2266996
0.04490602 -0.016141117 0.024757862 -0.0076254234 -0.1879467 -0.10040351 -0.12114037 -0.03508535
-0.088095896 0.19744705 0.14986204 -0.23460771 0.09401845 -0.21550323 0.08739698 -0.24280857
0.03506735 -0.15115665 0.24661541 -0.21980856 -0.12346221 0.23569776 -0.048575975 0.24422027
-0.054732937 0.1357881 -0.24341036 0.043082118 0.065488696 -0.064559095 -0.124089606 -0.23425257
0.11020426 -0.085594304 0.17237559 0.17958131 0.15087937 0.073818445 -0.19321392 0.175004
-0.18433389 -0.01125601 -0.089411095 0.15148401 0.154119 -0.19446887 0.1608635 0.08223006
0.08089625 -0.120275386 -0.15546606 -0.23000287 -0.17848085 -0.20504497 0.02491963 0.17866252
0.22085254 -0.13946155 -0.12765025 0.22004937 0.023060888 -0.07382782 0.12523174 -0.2003088
-0.17306496 -0.14189361 -0.09462042 0.06846351 -0.12759946 0.24619077 -0.2060085 -0.14212298
0.17519912 0.23888494 -0.23299576 -0.19454136 -0.12575255 -0.09635068 -0.21328545 0.10305623
0.07141179 0.07568097 0.053414166 0.22747447 -0.07263392 -0.17538533 0.047666095 0.15018272
-0.2201817 -0.07113277 -0.0023417508 0.055940393 -0.01831907 -0.07626795 0.003506571 0.05255242
-0.03501141 -0.09791266 0.11071996 0.04871613 0.19967078 0.07268071 -0.13625433 -0.087154746

lstm_cell.weight_ih f4 [256, 192]
00000000: 7f5b 003e 30ff 3c3e b147 91bd 083e 993c
00000010: 8937 293d 0631 39be c1a8 3a3d b763 8b3d
00000020: 9b15 d4bd eff2 cebc a6f1 b33d 7c10 113e
00000030: e31d 0b3e e0bd 4b3e 80dd b03b 2173 4fbe
00000040: b74f 1c3d 1107 2c3e 2f65 43bc 3020 fe3d
00000050: c5b2 e03d 8127 273c 168a 2d3d 7fc2 713d
00000060: 20ad 12bd ff62 fc3d 41be ee3d 3aae 343e
00000070: b18c 3fbd 6909 b9be ef97 443e b683 47bd
00000080: 3071 3cbc d801 3a3e c63d 4abe 99d9 213e
00000090: 8194 863c b12d febd bfc3 263d 5830 0fbd
000000a0: cf93 0fbe 0034 ce3d bff1 c73d 482d 0b3e
000000b0: 8d39 483e a19c 35bc b71f a13d 50dc 3dbd
000000c0: 3a54 3aba 301e 51bc b265 1ebd 8beb d83d
000000d0: 31be a93d 736e 1d3e f79d 423e 4ffe 613a
000000e0: 4066 f03d 71a8 283e 61bc b0ba c115 5b3e
000000f0: 4fac 1b3e 8ad5 ee3d bf56 62bd a1a7 973d
00000100: 0aea 83bf 3b4b 5a40 692a 2940 2c47 3640
00000110: e2c2 1240 46d0 b640 5dc6 e540 c458 b5bd
00000120: 7908 b640 7d2f f340 9c83 f040 90ec d340
00000130: 479e cb40 a1dc d740 c28e 0c41 fad5 f440
00000140: 2222 fd40 a56c d940 c84e ef40 9a42 ed40
00000150: e279 ed40 f29c b23d 9dff 0541 1b0f ab40
00000160: f52a e640 974d e640 f38f e040 696b 0141
00000170: 236e ea40 964a 163b ef20 563d 69a2 8f3d
00000180: f079 3cbd a027 bdbd 18d5 303d c956 f43c
00000190: 4afb b33d 011f 2a3d b3d5 f2bd 2049 963b
000001a0: 01d8 903d 60f6 fdbb 9fb2 efbd c1c3 e5bd
000001b0: 008f 6c3b 7066 02bd f014 6d3c c05b 55bd
000001c0: a08e 97bd bf85 053d e06b fbbc 00c3 933b
000001d0: e066 53bc 3f0c a6bd 0626 b1bd b183 f6bd
000001e0: effe c63d c05a 3c3c 86b9 b7bd ff54 e83d
000001f0: bf37 aebd 0f7a e6bd 411d 433d 08af 90bd
00000200: 41c6 febc 66db fe3f 193d a43f 96cf efbe
00000210: 3818 0bbf 3369 1540 ff74 d43d 3419 5740
00000220: 2a9d d440 42ee ba40 8371 c3bd cb5e ec40
00000230: f912 f740 adfd f840 34cb d23d 5a23 0641
00000240: c31f 1141 9a93 0041 1044 f240 7f9b e540
00000250: 1b3c dc40 13c0 ce40 916d 4c3c d067 0441
00000260: 1eca ce40 0826 6040 0750 743d 95fc e040
00000270: 31a9 8440 ffbf 0941 4ade dc3d 46d6 683d
00000280: 7133 733d 931d a33d efd4 eebd 9409 52bd
00000290: 2da6 bebd 0c4b c2bd 048a a1bc 931b f3bd
000002a0: 8fca 493d df34 ea3d ff2f 913d bfee 24bd
000002b0: 113c 02bd 6575 593d bfe1 b63d d016 c4bd
000002c0: 49f8 a6bd 8fa3 3dbd 98f4 8ebd a6ba 2c3d
000002d0: e17b f8bd 5058 b93d 40fe 3ebb 7162 e33d
000002e0: f13b 243d 214e 83bd 008a 10bd 6624 acbd
000002f0: 5943 1e3d b1a7 a8bd 814e f23d 4f94 b63d
00000300: ffff 3e3d 9f85 203d 97bf 0d3f 817e cf3d
00000310: 6692 b23d 7988 12be 71e1 64bc 6f5b f93c
00000320: d07d 61bc 60dc e7bc 4167 fb3d 0edc db3b
00000330: 96e3 12bd 5dce c63e 770d a8bd d1b5 173f
00000340: b95e 8b3c e1fe 563d 61c6 00bd 4d56 f73d
00000350: 0abd 3d3e 0088 a33d 81df 4cbd 160f 333e
00000360: e0be 7e3d 6f3d 603d 30d5 0e3c 81c4 973e
00000370: 19f8 0bbc 33aa 333f 19b0 143f 8914 293d
00000380: 3f52 883d 3ea3 43bd e193 563f 5f7d 32bd
00000390: 9bda 47bd dba1 dd3d e014 d9bc b873 823c
000003a0: 10d4 2d3f e018 c73c ab67 443f 91a6 033e
000003b0: 1553 b43e 8912 063e 711d 493d a7e8 9f3d
000003c0: 3f43 adbd c8ab 143d fe4f b43e bf46 2bbe
000003d0: efef bfbd cf03 94bd 9637 fa3d aa53 df3c
000003e0: 87a7 9fbd 3964 0b3e c1e4 213e db78 613d
000003f0: bfd5 513d f959 6dbd 40f5 dcbc 7154 033d
0.12534903 0.18456721 -0.07093752 0.018706337 0.041312728 -0.18085107 0.045571093 0.068061285
-0.103556834 -0.025262324 0.08786325 0.14166445 0.1358562 0.1989665 0.0053974986 -0.20258762
0.03816196 0.1679957 -0.0119259795 0.12408483 0.109715976 0.01020229 0.042368017 0.059023377
-0.035809636 0.123235695 0.11657382 0.17644587 -0.046765033 -0.36139992 0.19198583 -0.048709594
-0.011501595 0.18164766 -0.19750127 0.15805663 0.016428234 -0.12411059 0.04071402 -0.034958214
-0.14021228 0.10068512 0.09762906 0.13591492 0.19553204 -0.0110847065 0.07867377 -0.046352684
-0.00071078876 -0.012763545 -0.038671203 0.10591801 0.08288229 0.15374164 0.19005571 0.0008620964
0.11738253 0.16470505 -0.0013483876 0.21395017 0.1520245 0.11661823 -0.05525851 0.074050196
-1.0305798 3.4108417 2.6432135 2.848094 2.2931447 5.712924 7.1804643 -0.08854821
5.6885343 7.599547 7.5160656 6.6226273 6.363071 6.7456822 8.784853 7.65112
7.9104166 6.7945123 7.478367 7.41438 7.4211283 0.08721341 8.374906 5.345594
7.192744 7.1969714 7.017572 8.088723 7.3259444 0.002293264 0.0522775 0.07013399
-0.046014726 -0.092360735 0.043171972 0.029826539 0.08788164 0.041533474 -0.11857166 0.004586354
0.070724495 -0.0077503175 -0.11703991 -0.11218978 0.0036095977 -0.031835973 0.014470324 -0.052089453
-0.074002504 0.032598253 -0.030691087 0.00450933 -0.012902945 -0.081078045 -0.086498305 -0.12036837
0.097165935 0.011496246 -0.08970933 0.11344337 -0.085067265 -0.112537496 0.04763532 -0.070646346
-0.031100394 1.9910705 1.2831146 -0.46838063 -0.5433383 2.3345459 0.10373878 3.3609133
6.644185 5.841584 -0.09543135 7.3865714 7.721066 7.7809663 0.10292664 8.383631
9.070254 8.036036 7.5708084 7.1752315 6.882337 6.4609466 0.012477295 8.275345
6.4621725 3.5023212 0.059646633 7.030833 4.1456532 8.609374 0.10784586 0.056844972
0.05937523 0.07964625 -0.116617076 -0.051278666 -0.09309039 -0.0948697 -0.019719131 -0.11870494
0.04926544 0.114358656 0.07089233 -0.04026675 -0.031795565 0.05309047 0.089297764 -0.09574664
-0.081528254 -0.04629856 -0.06980246 0.04217019 -0.12133003 0.090500474 -0.0029143244 0.111027606
0.040096227 -0.06411386 -0.035287857 -0.0840538 0.038638446 -0.082351096 0.1183138 0.08915006
0.046630856 0.03918993 0.5537047 0.101315506 0.087193295 -0.14309873 -0.013969765 0.030439107
-0.013762906 -0.028303325 0.122755535 0.006709582 -0.035861574 0.38829318 -0.08205693 0.59261805
0.01701294 0.052489165 -0.03143919 0.120770074 0.18529144 0.07984924 -0.050017837 0.17486224
0.06219375 0.054746088 0.00871782 0.29642108 -0.008543038 0.7018158 0.58081204 0.04127935
0.06656312 -0.0477631 0.83819395 -0.043576594 -0.048792463 0.10821887 -0.026499212 0.01592432
0.67901707 0.024303854 0.76720685 0.12856509 0.35219637 0.13093008 0.049100343 0.07808047
-0.08460092 0.036296636 0.3521728 -0.16726206 -0.093719356 -0.07227289 0.122176334 0.027261574
-0.07795625 0.1361245 0.15809919 0.055046897 0.051229235 -0.057947133 -0.026972413 0.03206295

lstm_cell.weight_hh f4 [256, 64]
00000000: e191 eb3e 5fb7 c23e 4d96 883f 2217 86c0
00000010: f937 ab3f 7c0c 35c0 082e 19c0 9fab 1b40
00000020: 8401 5f40 9077 443f 03df e33e 43c2 a2bf
00000030: 1fde 30bd e538 babf e08e ecbf 58ae 5fbe
00000040: 8e72 4cbf 8596 1b3f 4185 48c0 cd85 c4bf
00000050: c178 29bd 35f1 2440 ac7c 2140 0bb9 44bf
00000060: a07b 033f ac6e 2140 46e7 1dc0 b7ed 673f
00000070: 8cb8 2bbe 5ad3 39c0 6b1c f6bf 6ab1 db3d
00000080: 702f 973f 2876 f9bf 935c ccbe 2986 6c3f
00000090: 38b9 1b40 afe1 b0bf ee63 5b3e 61f7 0fc0
000000a0: 13b0 9d3f e16e b2bd 0877 32c0 71c5 93bf
000000b0: fb28 9fbf 7053 ecbf 14fa 0e3f 3f99 c93f
000000c0: 8e98 ee3e b115 0540 744e 00c0 1391 313f
000000d0: d002 bd3f 1464 c63f ba84 18c0 0976 4340
000000e0: b46b a63f f2f5 16c0 6718 6e3f 5d2c 983e
000000f0: 2a5a 3540 e344 a33f 96e8 f93e 9d8d 3640
00000100: b812 de3e 3f90 eabe 3e7c 0c3d 7904 a23e
00000110: d6be 0dc0 3af2 2fc0 84b0 0f3f 7f77 b23e
00000120: 4d87 05c0 21c3 8cbf 5f70 23bf 8cf2 24bf
00000130: c2fa 81bf b474 0abf e480 59be 2b5c 2f40
00000140: cbbb 11bf 6c17 7fbf 326e 51bf 4f38 18c0
00000150: 9160 32bf 831f ea3f 8c0c b93e 0bd0 6d3f
00000160: f616 943f 9505 8fbe f910 15c0 9741 78c0
00000170: 14e7 46bf daa1 a6be 0938 0cc0 d5f7 71bf
00000180: 7bca 383e 4b2c c43f 6700 69c0 729a 0640
00000190: e87e d13f 1e2f d8be 10eb 83bd e324 3c40
000001a0: 6ae7 8abf 14a4 52bf aad3 9240 e701 2a3f
000001b0: f80c c6bf 9282 a3be da8a b8bf 8f15 55bf
000001c0: 377a 8040 d568 01c0 48f4 a03f b089 0bc0
000001d0: d2aa 583e dc58 39be dcc8 4dc0 a45d 03be
000001e0: b042 e6bd 8a86 ecbf 1c8f e13f 4b3b 1a3f
000001f0: 1bfe ce3f ece3 93bf 7a07 e93d 5770 f8bf
00000200: 52dc 2940 7ab2 7c3f 1e24 bc3e fa4a e23e
00000210: 1f08 8d40 723e a53e 9889 a23e 6bed f6bf
00000220: b5d5 0640 6611 1bc0 00d0 d73f 1fa7 003d
00000230: 8568 dfbd 6c6d a9bf 0cf7 f2bf b424 29bf
00000240: 53c9 c73f 4817 2c3f 7d18 01bf 9b6e f9bf
00000250: 548c 7340 8433 fc3e d330 b93f 4604 c63f
00000260: b2ad 243f 0e63 b93f fbb1 d23f 3193 b4be
00000270: 00bb 00c0 e8e3 2240 c965 613f bb1f 8c3f
00000280: 4e34 c63f ae79 c2bf f1c6 90bd 164b 73bf
00000290: 011b e63f bbb5 f63f 1656 a03f 6ed4 2040
000002a0: a830 0ec0 e83d fcbe deba 1ac0 f2d0 fcbe
000002b0: 71b9 ea3f 8006 4cc0 e339 523f d5f5 8b3f
000002c0: 4048 503e c437 8bc0 300d 653f 1a96 6c3f
000002d0: e718 7ac0 d4f1 8e3f 371e 523f 2349 903f
000002e0: e957 de3f 9b74 923e 8de8 52bf 30c7 7b3f
000002f0: 2ca5 3c40 7ab6 9dbf 78ef e6be 046c cabf
00000300: 7dc7 d0bf faa2 7b3f be12 94be 1ec8 233e
00000310: 09ee 32bf 0de1 363e 3710 77bf a3de efbf
00000320: 4273 4bc0 2c14 db3f 6fbe cbbf a483 9abf
00000330: 8d2a 7f3f 683f 43bf e3bd 493e 27a3 87be
00000340: 7570 db3d 9ff2 fc3f 41a0 f23f cc03 72bd
00000350: 8ad5 86bf d39b 14bf 405b d73d 18e3 ae3e
00000360: 7c52 3640 fcc9 07bb 9179 1a3f 0117 2840
00000370: 4d59 1d40 93d6 ba3f 2916 c8bd 6205 97c0
00000380: 1018 e7bf 150a 62bf 88c3 9f3f 2311 e73e
00000390: 1b5c b03f c1f9 9abe 1965 2640 02a6 3c3f
000003a0: 965d 38be b393 3540 e865 3cc0 514d 38c0
000003b0: e8f4 0240 3078 babe cabc 3040 a504 4b3f
000003c0: b5a3 2940 1858 103d aef4 13bf 7179 e13e
000003d0: 508c 0b3d 8908 4abf ab44 933e af21 1ac0
000003e0: 686a a5be dc5f 0240 bbd7 4fc0 f851 f0be
000003f0: a010 9ebf c50f 8dbf df18 033f a73e 23c0
0.46009734 0.38030526 1.0670868 -4.190324 1.3376456 -2.828887 -2.3934345 2.43235
3.4844675 0.7674494 0.44506082 -1.2715534 -0.04318058 -1.4548613 -1.8481102 -0.2184385
-0.79862297 0.6077655 -3.1331332 -1.5353333 -0.041374926 2.577222 2.5232344 -0.76844853
0.5136051 2.5223799 -2.4672408 0.905971 -0.16769618 -2.9035249 -1.9227422 0.107271984
1.1811352 -1.9489183 -0.3991438 0.9239221 2.4331799 -1.3818873 0.21424839 -2.2494738
1.2319359 -0.08712555 -2.788515 -1.1544629 -1.2434381 -1.8462963 0.5585034 1.5749892
0.46600765 2.079449 -2.0047884 0.6936199 1.4766483 1.5499291 -2.383101 3.0540793
1.3001618 -2.3587613 0.93005985 0.29721346 2.8336282 1.2755398 0.4881026 2.8523934
0.43373656 -0.45813176 0.034298174 0.31644037 -2.2147727 -2.7491593 0.56128716 0.34856793
-2.086383 -1.0997049 -0.6384334 -0.644326 -1.015465 -0.54084325 -0.21240574 2.7400005
-0.56927174 -0.99645114 -0.8180877 -2.3784368 -0.696786 1.8290867 0.36142385 0.92895573
1.1569507 -0.27933946 -2.329161 -3.8790033 -0.7769635 -0.32545358 -2.19092 -0.94518787
0.1804599 1.5326017 -3.6406496 2.1031766 1.6366854 -0.42223448 -0.06441319 2.9397514
-1.0851872 -0.82281613 4.588338 0.6640915 -1.5472708 -0.31935555 -1.4417374 -0.8323602
4.014919 -2.0220234 1.2574549 -2.1802788 0.21158913 -0.18100303 -3.2153845 -0.1282869
-0.112431884 -1.8478558 1.7621799 0.60246724 1.6171297 -1.1553931 0.11378379 -1.9409283
2.6540723 0.98709834 0.36746305 0.44197828 4.4072413 0.32274204 0.317456 -1.9291204
2.1067936 -2.422937 1.6860352 0.03140938 -0.109086074 -1.3236518 -1.8981643 -0.6607163
1.5608314 0.67223024 -0.5042799 -1.9486879 3.80544 0.49258053 1.4468025 1.5470054
0.6432754 1.4483354 1.6460565 -0.35268548 -2.0114136 2.5451603 0.88045937 1.0947183
1.5484712 -1.5193384 -0.07069195 -0.9503645 1.7976991 1.927421 1.2526271 2.5129657
-2.2217197 -0.4926598 -2.4176555 -0.49378163 1.8337842 -3.1878967 0.8211958 1.0934397
0.20340061 -4.3505573 0.8947325 0.92416537 -3.90777 1.116755 0.82077354 1.127232
1.7370578 0.28604588 -0.82386094 0.9835081 2.9475813 -1.2321312 -0.45104575 -1.5814214
-1.6310879 0.9829556 -0.2892055 0.15994307 -0.6989446 0.17859288 -0.96509117 -1.8739818
-3.1789098 1.7115531 -1.5917491 -1.2071424 0.996743 -0.76268625 0.19701342 -0.26491663
0.10714809 1.9761542 1.8955156 -0.059085652 -1.0533917 -0.5805027 0.105154514 0.34157634
2.8487844 -0.0020719757 0.60341746 2.626404 2.4585755 1.4596733 -0.09769852 -4.719407
-1.8054218 -0.88296634 1.2481546 0.45130262 1.3778108 -0.30268672 2.5999205 0.7369081
-0.1800445 2.8371398 -2.9437199 -2.879719 2.046198 -0.3641982 2.7615228 0.7930396
2.650617 0.035240263 -0.57795227 0.44037965 0.03406936 -0.78919274 0.28763327 -2.408306
-0.32307744 2.0371008 -3.2475421 -0.46937537 -1.2348824 -1.1020437 0.51209825 -2.550699

lstm_cell.bias_ih f4 [256]
00000000: eb0f a4bf ad89 d63f 8059 143f e6e4 4c40
00000010: 7ab6 3e40 21a0 5040 1193 833f b7cb 2740
00000020: 0c8c 333f 0559 2c3f bbc5 4d40 884a 0940
00000030: ff51 74c0 8eda 183d 1b19 41c0 c0eb 913d
00000040: 4f32 3a40 10c2 13c0 3941 31c0 530c 593f
00000050: bce1 b8bf 90cf 81c0 24d5 cebf 0388 ae3e
00000060: 66f7 e23f 104a 8fbf 9363 523f 9df0 903f
00000070: c91f 36bf d9be 1c40 d92c 1c40 0ebd 833e
00000080: e031 d13f 1a67 eb3f 9f6b 09bf cf40 a0bf
00000090: b1f1 22bf 3802 b23f 65b9 76be 5792 d23f
000000a0: d0c4 f73e c25f 503f 604b 333f dea4 b9bf
000000b0: e85e 99c0 7bcf d8bf e6cc 463f 3faf 40bd
000000c0: 6088 8cc0 2f5f 08c0 8a47 39c0 f21c 1b3f
000000d0: dfde 1cc0 8e85 e9bf 86ba 2cbe cc23 03be
000000e0: 71d4 0cc0 0267 40c0 e1b9 a13f 3df2 303f
000000f0: c295 5e3f 023e 4d40 ab3d 1140 963e 36c0
00000100: e629 96bf 07c3 22bf a731 a7be 8c16 613f
00000110: 6ed2 c5bf e3ad 8a3e 9b02 733f 2853 15c0
00000120: ba6b 5b3f e167 89bf a487 58c0 b8cc 25c0
00000130: 105c 3f3f 0328 c13c c260 f1bf 06b7 883e
00000140: 524d 6fbf b4de f13e 2033 1cbf a5f9 0540
00000150: 0a2c 31c0 7401 443f 60c2 2bc0 f13c a4bf
00000160: a521 4b3f 597b 23bf c541 783e 4711 d9be
00000170: 414d adbf 1fc3 7fbf 1d34 8a3e 6930 5cbf
00000180: 7d20 63bd 6f8d 3ac0 781a 64be d89d 56c0
00000190: 448e 2640 bc5a 69bf 2589 e1be dcef d5bf
000001a0: d3ff c1bf 6222 e23f 913a 2f3f f3e4 103f
000001b0: 8800 b6be 4444 08c0 5a36 85bf 90af 64bf
000001c0: e97e a1bf 09ce 813f 90a3 06bf f3ca 0fc0
000001d0: d885 24c0 c77c 853e 1b04 e53e 9444 d5bf
000001e0: c419 1840 f61a a83f e467 88c0 3495 0940
000001f0: 389b 70be 2307 03c0 a427 343f 6b5b ebbe
00000200: d70d 3f40 06f8 96be e14a 65c0 0be9 11c0
00000210: 8e51 c63f fead 06bf ac53 113f 3699 bebf
00000220: 7701 1240 e8a0 05c0 37d2 7640 8a7d 293f
00000230: 30b0 323e be3a 3940 3999 de3f 6f06 16bf
00000240: 1379 1840 ed5e 9140 10c8 0ac0 f63c 863e
00000250: 7907 6abf 09d3 663e 43e9 0f3f 2faf 413f
00000260: 6807 1a3f 8e1b 0abf 9c61 973d d495 e4bf
00000270: fd0d 533f c42b 423f 8c36 1640 b7cf 1c40
00000280: 1f0f f73f 555a c2bf 9599 bfbe dd86 f93f
00000290: ca91 f13f 14b5 95be c0d1 b33f daa5 b13e
000002a0: fcab b4be 0741 dd3f da70 0cbf 77fb f23f
000002b0: ffc1 423f 3c08 b33b 5417 5540 4522 28c0
000002c0: c720 02c0 4be5 a63e 5dad cc3e eec2 31bf
000002d0: f02e 90bf 0351 33c0 1bf6 b3bf 7ddd edbf
000002e0: 91f0 aabe f4ed a23f 41e2 9dbf c1ac 5ebd
000002f0: 0778 e8bf cef1 a6bf 5c98 0140 4818 233f
00000300: 13db 85be acf9 85c0 4df1 1e3f d93e a540
00000310: 490c 47bf c4ab 0fc0 f02c ce3f 1a41 fa3f
00000320: f683 9fbf fc3c 603f ca39 02c0 e442 5640
00000330: 5df2 6abf 5b79 d83f 770f 30c0 ecee f8be
00000340: b769 1bc0 c21f 21bf f190 20c0 6387 bb3d
00000350: 229e 913f 1f0d 7ebf c33f a83f 698f 433f
00000360: 71ac 36bf c78f 263e c331 ea3f e7ae 4fc0
00000370: bede d93e 93ef bdbf 26b0 b63f 1d2c e9be
00000380: dad6 4cbf 234a 0940 094e a4be 16f5 9cbf
00000390: 057f e7be 36fd 3640 40fe 08c0 411b 4440
000003a0: 4425 143f 2487 5340 0458 ddbf fa78 dd3f
000003b0: 2f20 18c0 5700 87c0 fbcc e33f d94f 4fbf
000003c0: 5736 4dc0 53b3 dbbf 6b1c f8bf 34b9 0ac0
000003d0: e8b4 55bf e4eb d4bf 8723 0a40 cfa0 19c0
000003e0: 6378 1b40 0a88 89bf d665 ac3e 36d9 12c0
000003f0: cfb0 3abf c206 823f b35e 1bc0 83d5 bb3e
-1.2817358 1.6760765 0.57949066 3.2014709 2.9798875 3.2597735 1.0279256 2.6218088
0.7013557 0.67323333 3.2151935 2.145174 -3.8175046 0.037317805 -3.0171573 0.07125044
2.9093206 -2.3087196 -2.7696059 0.8478443 -1.4443889 -4.056587 -1.6158795 0.34088144
1.773175 -1.1194477 0.8218319 1.1323429 -0.7114225 2.4491484 2.4402373 0.25730175
1.6343346 1.8390839 -0.5367984 -1.2519778 -0.6365004 1.3906927 -0.2409416 1.6450909
0.48392344 0.81396115 0.7003689 -1.4503438 -4.792835 -1.6938318 0.776564 -0.047042128
-4.3916473 -2.1308095 -2.8949914 0.6059104 -2.451103 -1.8243883 -0.16868028 -0.12806624
-2.2004664 -3.006287 1.2634851 0.69119626 0.8694726 3.2069097 2.269389 -2.84757
-1.1731536 -0.6357884 -0.3265507 0.8792503 -1.5454843 0.2708579 0.9492585 -2.3332005
0.8571125 -1.0734826 -3.3832788 -2.59062 0.7474985 0.02357865 -1.8857653 0.26702136
-0.93477356 0.47240222 -0.6101551 2.093362 -2.768313 0.7656472 -2.6837387 -1.2831098
0.7934821 -0.6386009 0.24243839 -0.42395994 -1.3539201 -0.99907106 0.26992884 -0.8601137
-0.055450905 -2.9148824 -0.22275722 -3.353384 2.6024332 -0.91154075 -0.44049945 -1.6713824
-1.5156196 1.7666743 0.6844874 0.5659935 -0.3554728 -2.1291666 -1.0407212 -0.8933039
-1.2616855 1.0141002 -0.52593327 -2.246762 -2.5706692 0.2607176 0.44729695 -1.6661553
2.3765726 1.3133228 -4.262682 2.1497316 -0.23496711 -2.0473106 0.70372987 -0.45968184
2.9852197 -0.29486102 -3.5826952 -2.2798488 1.5493639 -0.5260924 0.567683 -1.4890506
2.2813394 -2.087946 3.8565805 0.6620718 0.17450023 2.8942103 1.739051 -0.58603567
2.3823898 4.5428376 -2.1684608 0.26218385 -0.9141765 0.22541441 0.56215304 0.75657934
0.6016755 -0.53948295 0.073916644 -1.7858224 0.8244322 0.7584803 2.3470793 2.450178
1.930149 -1.5183817 -0.3742186 1.9494282 1.8872616 -0.29239714 1.4048386 0.34696847
-0.35287464 1.728547 -0.548597 1.8982991 0.76077265 0.005463628 3.3295488 -2.6270916
-2.0332506 0.32596812 0.39976016 -0.69438064 -1.1264324 -2.8018196 -1.405948 -1.8583218
-0.33386663 1.2728868 -1.2334672 -0.05436397 -1.816163 -1.3042543 2.0249243 0.63708925
-0.26143703 -4.1867275 0.62086946 5.163922 -0.7775312 -2.2448587 1.6107464 1.9551117
-1.2462146 0.87593055 -2.0347772 3.3478327 -0.91776067 1.6912035 -2.750944 -0.48619783
-2.4283273 -0.62939084 -2.5088465 0.09156682 1.1376383 -0.9923877 1.3144459 0.763907
-0.71356875 0.16265784 1.8296436 -3.2450502 0.4255275 -1.4838737 1.4272506 -0.45541468
-0.8001534 2.14515 -0.32090786 -1.2262294 -0.45214096 2.8592048 -2.1405182 3.0641634
0.5786936 3.3051233 -1.7292485 1.7302544 -2.3769643 -4.2187915 1.779693 -0.8098121
-3.2064416 -1.71641 -1.9383672 -2.167554 -0.83479166 -1.6634488 2.1584184 -2.40044
2.4292228 -1.0744641 0.33671445 -2.2945075 -0.7292604 1.0158312 -2.427655 0.36686334

lstm_cell.bias_hh f4 [256]
00000000: a334 a8bf ad70 e43f 15d2 b73e 5a73 4840
00000010: 1a54 4340 2152 5140 da2c 6d3f c710 2a40
00000020: 8c2c 393f 3799 263f 4b04 4e40 3165 1140
00000030: 5fa8 7ec0 2864 093e 1b68 37c0 b038 e33d
00000040: 07f6 3940 90a7 1cc0 564e 31c0 d936 393f
00000050: 5c14 babf 405f 7ac0 6087 dabf 6d4f b93e
00000060: 462e dd3f ec5e 9cbf 8fae 863f 0dc9 833f
00000070: 9145 1fbf 099c 1840 5910 2640 62c0 843e
00000080: 64ae d33f 3a7d e83f efeb 1fbf 1f68 96bf
00000090: f1a8 39bf c86f c93f c982 54be 5d7d e03f
000000a0: 6a54 8b3e 74b4 643f e066 5c3f 14b1 aabf
000000b0: b822 9bc0 5b0b d4bf 3684 4a3f 94fb 01bc
000000c0: 689e 8cc0 4ff4 04c0 0302 32c0 229d 243f
000000d0: 7f3a 29c0 2eff edbf bf79 babc 758a 59be
000000e0: e165 09c0 9b38 38c0 5999 9b3f 2e01 123f
000000f0: 22fb 4f3f abf3 4a40 9c7c 0840 de7e 31c0
00000100: 76f3 87bf 6146 fbbe 813d 96be a6bb 733f
00000110: ee26 bdbf 85e6 8a3e fd26 843f 3a8d 18c0
00000120: 9bea 473f 11a0 9bbf 34f1 5cc0 0a3c 27c0
00000130: b630 2b3f bc43 7e3e b154 d9bf 4aff a13e
00000140: bef3 91bf 0415 ca3e b89e 06bf 2d52 0340
00000150: ba93 30c0 a4ef 233f 0a4b 2dc0 99c7 a4bf
00000160: d451 493f 09ed 0dbf bfd9 243e a1f5 e8be
00000170: 896f a8bf e856 76bf b497 753e 1958 68bf
00000180: d670 b7bd 6f59 3bc0 7397 8abe bc59 4ec0
00000190: 6408 2c40 4bae 82bf c97b a2be bd9d e4bf
000001a0: 7c30 abbf 72cb ee3f 211b 5a3f a338 1e3f
000001b0: 8c79 93be a4c2 03c0 0a67 8abf b099 65bf
000001c0: 67d6 82bf d1fa 7e3f f0f7 adbe 830b 13c0
000001d0: 98f4 1dc0 d579 703e 5bb1 c63e a447 ddbf
000001e0: 8457 1340 e6a8 b13f fbd0 81c0 6eac 0c40
000001f0: f84f 6dbe fb05 09c0 f423 113f eb5d ccbe
00000200: 1bee 3a40 2500 07bf 51de 64c0 6b33 15c0
00000210: ae1f b73f 004b 03bf 0303 ea3e 5ee4 bdbf
00000220: 5ba4 0b40 6857 03c0 5306 8040 e1e2 443f
00000230: 6afa 653e bee9 3940 0ab2 c43f 27e4 29bf
00000240: 3f42 2440 7d21 8e40 2903 0fc0 e019 533e
00000250: c54a 5dbf 934d 453e ebb6 0c3f a529 253f
00000260: d84b 513f 9e28 09bf a897 813d a452 e9bf
00000270: 0d12 4b3f c400 4f3f 3496 1b40 47f0 1040
00000280: 6d08 eb3f 1ddf abbf a563 acbe 3100 0040
00000290: ea69 e53f c344 79be 0004 a43f 5e6e 8a3e
000002a0: ccc7 abbe 3925 d63f 59c2 13bf 9703 f53f
000002b0: 5f3b 4d3f 79da 733d b4c1 5340 a5f4 23c0
000002c0: 87f0 08c0 11a5 693e fd2f c93e e6ab 25bf
000002d0: bde2 a9bf 33d5 31c0 0bbd a0bf 2d2c f3bf
000002e0: e98b cebe 9587 b63f 18d6 9ebf 7796 b6bd
000002f0: 1016 fbbf 6e7a bebf 798e e63f 8c8a 193f
00000300: 2bfd 56be 43b5 84c0 edc5 1d3f a45a aa40
00000310: 75da 4dbf 94ef 0fc0 fc1d b83f 5089 ee3f
00000320: 9611 91bf 8255 523f 2a48 01c0 a458 4e40
00000330: 7392 81bf 1b91 d73f 1ea8 2fc0 3542 2dbf
00000340: 7720 0fc0 c250 36bf c127 1ac0 c5e3 cc3d
00000350: 1a86 aa3f 1294 85bf 2001 af3f c72e 473f
00000360: 5f26 47bf dbc0 703e a3b1 e93f f72f 53c0
00000370: c8cc f73e fbca c1bf 44cf bd3f 7836 07bf
00000380: 2a2c 34bf cb4f 0c40 70da 7dbe 06cb 88bf
00000390: 653e efbe b6a1 3740 6782 09c0 6174 4740
000003a0: bc7b 223f cecd 5540 6501 ccbf 9a83 de3f
000003b0: 5f9e 21c0 b73b 88c0 cb13 e13f 8313 2ebf
000003c0: e714 4ac0 73bc e0bf 8beb e8bf 4304 07c0
000003d0: 460d 69bf 853f c4bf 6583 0a40 17f8 0dc0
000003e0: 5377 1140 33b4 7bbf 2e81 a33e e074 0fc0
000003f0: 4f19 46bf 5261 803f 0afc 27c0 3afe cc3e
-1.3141063 1.7846886 0.35902467 3.1320405 3.0520082 3.2706378 0.92646563 2.657274
0.723336 0.6507754 3.219012 2.2718012 -3.9790266 0.13417113 -2.865729 0.11094797
2.9056413 -2.4477272 -2.7704062 0.72349316 -1.4537463 -3.9120636 -1.7072563 0.3619341
1.7279747 -1.2216468 1.0522021 1.0295731 -0.62215525 2.3845236 2.5947478 0.25928026
1.6537595 1.8163216 -0.6246938 -1.1750525 -0.7252341 1.5737238 -0.20753016 1.7538258
0.2721284 0.8933785 0.86094475 -1.333529 -4.847988 -1.6565965 0.7910799 -0.007933516
-4.3943367 -2.0774114 -2.7813728 0.64302266 -2.6441953 -1.85935 -0.022763131 -0.21244223
-2.1468432 -2.878455 1.2156173 0.5703305 0.81242573 3.1711223 2.1326056 -2.7733684
-1.0621173 -0.49077132 -0.293438 0.95208204 -1.4777505 0.27128997 1.0324398 -2.3836198
0.78092355 -1.2158223 -3.4522219 -2.6130395 0.668712 0.24830526 -1.6978971 0.31640083
-1.1402509 0.3946916 -0.52585936 2.0518906 -2.7590165 0.6403754 -2.707705 -1.2873412
0.78640485 -0.5543981 0.16098689 -0.454999 -1.3159038 -0.9622636 0.23983651 -0.90759426
-0.089570686 -2.9273336 -0.27068672 -3.224227 2.6880121 -1.020944 -0.31735066 -1.7860638
-1.3374171 1.8655837 0.85197645 0.6180517 -0.2880367 -2.058755 -1.0812695 -0.89687634
-1.022168 0.99601465 -0.33978224 -2.2975776 -2.4680538 0.23483975 0.38807186 -1.7287488
2.3022165 1.3879669 -4.0567603 2.1980243 -0.23175037 -2.14099 0.56695485 -0.39915404
2.9207828 -0.52734596 -3.576069 -2.3312633 1.4306543 -0.51286316 0.45705423 -1.4835317
2.1819065 -2.0522099 4.000772 0.7690869 0.22458807 2.9048915 1.5366833 -0.6636376
2.5665433 4.441588 -2.2345679 0.2061534 -0.86442214 0.19267873 0.5496661 0.6451667
0.81756353 -0.535776 0.06327754 -1.8228345 0.7932442 0.80860543 2.4310427 2.2646654
1.8361946 -1.3427464 -0.33669773 2.0000117 1.7922947 -0.24342637 1.2813721 0.27037328
-0.3355087 1.673011 -0.57718426 1.914172 0.8016872 0.059534524 3.3086977 -2.561807
-2.1396806 0.22816874 0.39294425 -0.6471542 -1.327232 -2.7786376 -1.2557691 -1.8997856
-0.40341118 1.4260126 -1.2409086 -0.08915418 -1.9616108 -1.4881113 1.8012229 0.5997703
-0.20995013 -4.1471267 0.61630136 5.3235645 -0.80411464 -2.2489977 1.438415 1.8635654
-1.1333492 0.82161725 -2.0200295 3.2241602 -1.0122818 1.6841158 -2.744636 -0.6767915
-2.2363565 -0.71216977 -2.4086764 0.10004381 1.3322175 -1.0435812 1.3672218 0.7780575
-0.77792925 0.23511069 1.8257335 -3.2998025 0.48398423 -1.514007 1.4828877 -0.5281749
-0.7037989 2.1923702 -0.24790359 -1.0686958 -0.4672729 2.869245 -2.1485841 3.1164782
0.63470054 3.3406863 -1.5937926 1.7383912 -2.5252912 -4.2572894 1.7584165 -0.6799852
-3.1575258 -1.755751 -1.8196882 -2.109635 -0.9103588 -1.5331885 2.1642697 -2.2182672
2.272908 -0.9832184 0.31934494 -2.2415085 -0.7738237 1.00297 -2.6247582 0.4003771

linear0.weight f4 [32, 384]
00000000: e0ac 55bd facb b53c 9800 a8bd 8f28 c1bc
00000010: d744 973d 3130 9d3d f257 c7bd b62b 5f3d
00000020: 7959 7b3d 32a6 b43d 219b 40bd a0fc 393d
00000030: 58c0 3e3d b3c8 273d 550e cfbd e432 dbbd
00000040: 665c 0f3d d164 70bd a660 1cbd 788c bb3c
00000050: d941 1dbc 79f9 f5bc c3aa e2bc 0482 c1bd
00000060: a13a cbbd 7249 97bd 854a b8bc 5533 463d
00000070: 7626 c73d b535 a1bc 5671 d2bd abb1 bb3d
00000080: b28c afbd 9406 d63c c719 d53c ed85 1d3d
00000090: c375 c5bd 9bb4 48bd 71be b0bc 3e19 cdbd
000000a0: e996 863d 2300 e93d 6b84 9d3d de87 3ebc
000000b0: 52a8 66bd a94a 833d e268 debc 7009 303c
000000c0: 151e c23d 5816 08bd 0f2a 383d 6188 41bd
000000d0: 2a0f 823c 8e87 d9bd 56ac a43c 39bd cabc
000000e0: f2bf 66bd 7f9a d73d 011c ec3c 399e 543d
000000f0: 0153 0dbd 8772 9e3d e3f4 69bd 266c 013d
00000100: aaec 0abd 2dfc 793d 83ac 92bd 076a 10bd
00000110: b962 7f3d f603 4f3d 9d1d cfbd ff0b a63d
00000120: 4b06 463d 6728 a43d 934b 35bd 3a88 9e3d
00000130: 227d ba3d c75c d83d 2f78 bfbd a834 b0bd
00000140: be60 023d 571d a5bd 6482 cbbd 731c 8c3c
00000150: ea3e b9bd c801 2dbc 39f2 7ebd 8cb3 93bd
00000160: a641 c8bd 1f21 a8bd c13c b0bd a235 c23d
00000170: 4775 e03d 5b1f 84bd 0bed a7bd 5655 c03d
00000180: c05d 90bd df9d 983d 8ed1 653d cf14 a43c
00000190: 04a9 1bbd fff8 dabd 8278 4abc 1af5 0ebd
000001a0: e9b5 c03d 41b7 8e3c 85ae 733c 817c 9abd
000001b0: 1d2f 93bd 820b df3d 73ac 4ebd dc36 e03d
000001c0: a813 8a3d 6ec8 f9bc 05eb b13d 5e66 b2bd
000001d0: d754 a33d a1f2 89bd 69f7 293d cd17 4fbc
000001e0: 6eee d9bd 8a12 bf3d 2d4c 763d 15ef 9a3d
000001f0: 6d66 c0bd d563 163d 38e2 94bd 9dc8 ac3d
00000200: 21d9 73bc 3981 16bd b1c3 24bd 25c6 d1bc
00000210: 36fe c5bc 5655 cbbd 5622 b2bd eb06 debd
00000220: 00fb 3c3d 9610 b7bc ffdc d5bc 5982 23bd
00000230: e520 debd a43a 71bd d0e0 e83b 2fbc d8bd
00000240: 171c 8cbc abbf 5dbc 3f7c 71bd c501 3abd
00000250: b812 09bd ffd0 4dbd 2b73 c6bd a6ff 33bd
00000260: 2189 70bc 3fa4 ddbd 01c5 203d 0751 a1bd
00000270: a13b 97bd 5cc6 a7bd f747 8ebd 3901 a8bd
00000280: f855 09bc 7f3f 9dbd 2902 80bc c907 93bc
00000290: 51d1 cebc e1d5 43bd ff3e 3bbc e7e4 21bd
000002a0: 4765 8ebd 8722 163d efd5 c6bd 590b a1bd
000002b0: fd6e 2cbd 4b0a ddbd 716b f7bc e1af e5bc
000002c0: 30a4 96bc b128 003d b5b6 82bd 3ad1 c8bc
000002d0: f0cb eb3b 2f02 03bd 60ea 8fbd 77fa 53bd
000002e0: e556 5dbc 0082 7abd c128 83bd a70a a9bc
000002f0: 3133 9abd ad7e bfbd 1923 a8bd 0bd2 d1bd
00000300: 2e25 38bd 17a2 0e3d 88c9 913c 4f3c c9bc
00000310: 71a4 d73c a88e 93bc df54 1bbd b1bc 4bbc
00000320: 00e5 4cbc 9f02 6abc 2087 7abb 8859 023d
00000330: 0023 2039 5acf 483d afc6 f3bc bf82 643c
00000340: 60e7 35bc c00b 68bc af39 e23c 9654 473d
00000350: baba afbc 81df 2e3c e7c4 9f3b 61f0 7fbc
00000360: fbbc d43c 8579 503c 403f 563b 4f24 e2bc
00000370: 5fe5 81bc 57b3 20bd 71db 3fbd 77b0 1f3d
00000380: f0da e1bb c0fa fb3c 1848 0a3d 9178 0c3d
00000390: ffc3 73bc afce 013d fb8b ccbc 8fce aa3c
000003a0: 31ed 4b3d 0f80 1b3d 9992 29bc d1e5 4ebd
000003b0: dfe8 1dbd 002f 3439 6fa7 443d f075 713c
000003c0: 1161 42bd 4a07 363d e53c d7bb 807a 3dbd
000003d0: df50 003d 1f42 373d f7d9 0cbd a8ac 033d
000003e0: 8625 3d3d cfab 423d 5fc1 483d bb5a 4fbc
000003f0: 9f32 aa3c 30bc 1f3d 07e2 8abc 0063 7fbb
-0.05216682 0.02219199 -0.08203238 -0.02357891 0.07386177 0.076752074 -0.09733571 0.054485045
0.061364625 0.08820762 -0.047022942 0.045406938 0.046570152 0.040962886 -0.101101555 -0.10703066
0.035000227 -0.058689896 -0.03817811 0.02289413 -0.009598219 -0.030026184 -0.027669316 -0.09448627
-0.09923292 -0.073870555 -0.022496471 0.048388798 0.09724133 -0.01967893 -0.10275523 0.09164747
-0.085717574 0.026126184 0.026013268 0.0384578 -0.09641602 -0.049000364 -0.021575185 -0.1001458
0.065717526 0.11376979 0.07691272 -0.011629073 -0.056312867 0.06410725 -0.027149621 0.010744438
0.09478394 -0.033224434 0.044961985 -0.0472492 0.015876371 -0.10621558 0.020101707 -0.024748432
-0.056335397 0.10527515 0.028821947 0.051908705 -0.034502987 0.07736688 -0.057118308 0.03159728
-0.033917107 0.06103151 -0.0716181 -0.035257366 0.06235001 0.050540887 -0.1011307 0.08107757
0.048345845 0.08015519 -0.044261526 0.07740827 0.091058984 0.10564571 -0.09349095 -0.086037934
0.03183054 -0.08062237 -0.099369794 0.01710341 -0.09045203 -0.010559507 -0.06224272 -0.0721198
-0.097781464 -0.08209442 -0.08605338 0.09482886 0.10959869 -0.06451293 -0.08199509 0.093912765
-0.070491314 0.074519865 0.05610805 0.020029454 -0.038002983 -0.106920235 -0.012357833 -0.034901716
0.094096966 0.017421367 0.014873152 -0.075432785 -0.071867205 0.10890867 -0.05045743 0.109479636
0.067420304 -0.03049108 0.086874045 -0.08710931 0.07975166 -0.06735731 0.041495714 -0.012639952
-0.1064118 0.09329708 0.06013124 0.075651325 -0.09394536 0.0367163 -0.0726971 0.084367014
-0.0148833105 -0.03674433 -0.04022569 -0.025607178 -0.024169069 -0.09928386 -0.08697955 -0.10841163
0.04613781 -0.022346776 -0.026106356 -0.03991923 -0.10846118 -0.058893815 0.007106878 -0.10582768
-0.017103238 -0.013534467 -0.05895638 -0.045411844 -0.033465117 -0.050248142 -0.09689935 -0.043944977
-0.014681132 -0.10822343 0.039250378 -0.07876783 -0.0738442 -0.08192131 -0.0694732 -0.08203358
-0.008382313 -0.076781265 -0.01562603 -0.017948048 -0.025246294 -0.047811393 -0.011428594 -0.03952494
-0.06952911 0.03665402 -0.09708773 -0.078634925 -0.042098034 -0.10792979 -0.0302026 -0.028037967
-0.018388838 0.031288806 -0.06382505 -0.02451383 0.007195942 -0.031984504 -0.07027125 -0.051752534
-0.013509487 -0.061159134 -0.064042576 -0.020634962 -0.07529295 -0.09350333 -0.08209819 -0.10245141
-0.044957332 0.03482255 0.017796293 -0.02456489 0.026323529 -0.01801236 -0.037922736 -0.012435124
-0.01250577 -0.0142828515 -0.0038227513 0.031823665 0.00015271828 0.04902587 -0.029757826 0.013947188
-0.011102527 -0.014162958 0.027615396 0.04866465 -0.021451343 0.010673405 0.0048757675 -0.015621276
0.02596902 0.012724285 0.0032691509 -0.027605204 -0.015856443 -0.03923353 -0.046840135 0.03898665
-0.0068925545 0.030759215 0.03376016 0.03429467 -0.014878272 0.03169125 -0.024969092 0.020850448
0.04978675 0.037963923 -0.010349893 -0.05051214 -0.03855216 0.00017183647 0.04801124 0.014737591
-0.04745585 0.044440545 -0.0065685385 -0.046259403 0.031327125 0.044740792 -0.034387555 0.03214708
0.046178363 0.04752713 0.049012538 -0.012655909 0.020776091 0.03899783 -0.016953481 -0.003896892

linear0.bias f4 [32]
00000000: 4717 dabd d754 62be 7179 b63c 81e5 8ebe
00000010: b39c 5bbd 89ca e3bd 8cfd d1bc d6eb d23e
00000020: 4f88 23be 76b6 bfbd 11df e6be b745 84be
00000030: 1fce 8cbe f018 d3be 570f cdbc 574a 67be
00000040: d12d 90be 4e43 94bc 866b 4bbe c02e b8bd
00000050: b158 a1bd 63bb 5f3c 3ccd a93a d631 193e
00000060: e5a3 64bd dcc7 1ebe 481c 89bb 8f5f 5fbd
00000070: 0e0f d4bc d0c1 b0bd d301 7ebe a032 7ebe
-0.10648971 -0.22102676 0.022274705 -0.27909473 -0.053616237 -0.11122615 -0.025633596 0.41195554
-0.15969966 -0.093609735 -0.4509206 -0.25834438 -0.27501008 -0.41229963 -0.025031729 -0.22586952
-0.28159955 -0.0180985 -0.19865236 -0.08993292 -0.07878245 0.013655516 0.0012954841 0.14960417
-0.055820365 -0.15505928 -0.0041842796 -0.05453449 -0.025886085 -0.08630717 -0.24805383 -0.24824
