model/1714141768/2_Pee1_global_model_0.pth (torch, 331092 bytes, 17 tensors)

conv1.lin_l.weight f4 [16, 1]
000000 71 2a 22 bf fc 9f 8a bb 93 ad 32 bf 91 ff 26 bf
       -0.6334601 -0.0042304974 -0.69796103 -0.65233713
000010 e1 4e 00 bf 5d 7a 86 3e 11 0e 56 bf e1 e5 24 be
       -0.5012036 0.2626523 -0.83615214 -0.16103317
000020 d7 b5 22 bf 74 c4 a4 3d 38 5f 88 be 1f fc 61 bf
       -0.63558716 0.08045283 -0.26635146 -0.8827533
000030 ea 4b 04 3d 3f a2 f8 be 77 42 cc 3e 61 8f e8 be
       0.03229896 -0.48561284 0.3989446 -0.4542189

conv1.lin_l.bias f4 [16]
000000 07 cb 1e be d8 0a 1a 3f 7c ea 8a bf 5a c6 be 3e
       -0.15507136 0.60172796 -1.0852809 0.37260705
000010 1b 0d e3 3e 1d 5d 9a be b5 bd 51 bf 1c 3a c6 3e
       0.44345936 -0.30149165 -0.81930095 0.3871621
000020 ff cb 2a 3f 2f 5f 33 bf 8f e3 21 3f cb 3f 72 bf
       0.66717523 -0.70067114 0.6323785 -0.9462859
000030 e5 25 f6 3e 50 7c 84 be da f8 c6 be d0 53 d9 bd
       0.48075786 -0.25876093 -0.38861734 -0.10611689

conv1.lin_r.weight f4 [16, 1]
000000 d1 bd 7f bf 52 78 fc be 4a 26 38 3e b1 4b 5b bf
       -0.9989901 -0.49310547 0.17983356 -0.8566237
000010 11 6b a5 be ce 88 1b 3f 1a 56 38 bf c0 5e d7 3d
       -0.32308248 0.6075562 -0.7200638 0.10516119
000020 8f ee f9 be 45 81 52 bf 2b 62 57 bf 46 78 d2 3d
       -0.48814818 -0.822285 -0.8413417 0.102768466
000030 d4 ba 48 bf e6 b7 4b bf 6d 88 84 be 80 34 65 bd
       -0.7841008 -0.7957748 -0.25885335 -0.05595827

conv2.lin_l.weight f4 [64, 16]
000000 b1 99 ac bd 5f 13 0f 3e 9f b9 b8 bc a8 91 0f 3e
       -0.08427752 0.13972233 -0.022549449 0.14020407
000010 88 3a 0a bd 81 04 62 bd f0 47 17 be d0 2f c8 3d
       -0.033747226 -0.055180077 -0.14773536 0.097747445
000020 5f 6a fc 3d 2f 9a 3e 3d 27 c1 06 be 17 45 0f 3e
       0.12324976 0.04653376 -0.1315962 0.139912
000030 a9 5e 9d 3d 89 2e 24 3e 9f 3d c3 be 51 2e 42 be
       0.076840706 0.16033377 -0.3813295 -0.18962981
000040 47 96 17 3e c7 e1 93 be 41 ad a4 3d f1 6e 2d 3e
       0.1480342 -0.28883192 0.08040858 0.16936852
000050 2f 3d 90 3d 31 a4 49 3d 61 3d a1 bd 38 c6 86 be
       0.0704292 0.04922885 -0.07873035 -0.26323104
000060 75 f1 56 3e ef e9 88 be e1 67 72 be 97 ce 9c bd
       0.20990546 -0.26740977 -0.23672439 -0.076565914
000070 81 17 61 be a0 61 1b be 17 2b 99 be af 1f e4 bd
       -0.21981622 -0.1517396 -0.29915687 -0.11138856
000080 21 e9 85 bd 56 0c b7 bd 5f 51 25 3e e0 79 60 bc
       -0.065386064 -0.089379 0.16144322 -0.013700932
000090 40 88 bc 3b df 83 de bb a5 58 e2 3d c1 6c 14 3e
       0.005753547 -0.0067906226 0.11052064 0.14494611
0000a0 26 f3 b6 3d ef 7e ca bd c0 a1 23 bc 45 66 c2 3d
       0.08933096 -0.09887492 -0.009987295 0.094921626
0000b0 c7 05 8a bd 81 d2 04 be 20 05 96 be 60 d2 48 be
       -0.06739383 -0.12970926 -0.29300785 -0.19611502
0000c0 af 3e f8 3d af a2 6a be cf 22 c9 bd 51 57 e8 3d
       0.12121331 -0.22913621 -0.09821092 0.11344779
0000d0 bf 00 e9 3d 09 92 90 be 80 2a 91 3c 77 5c 1e be
       0.113770954 -0.28236416 0.01772046 -0.1546496
0000e0 b0 fc be 3c 5a ef b6 be c1 80 22 3e 40 de 86 bc
       0.02331385 -0.35729486 0.15869428 -0.016463399
0000f0 df 2e aa be 5a ce 3f 3e c0 a3 d5 3d 71 b9 fe bd
       -0.33238885 0.1873106 0.104316235 -0.12437714
000100 8f 6e 43 3e 35 22 de 3d e6 1a 3a be e7 51 a8 3d
       0.19085144 0.10846368 -0.18174323 0.08218747
000110 a0 d9 53 bc f0 2b 5e be 50 09 2f 3e ff bf a6 be
       -0.012930304 -0.21696448 0.17093396 -0.32568356
000120 6f f4 1f 3e 51 d1 72 be 00 bc 7e 3e e1 6c 80 bd
       0.15620588 -0.2371266 0.24876404 -0.06270767
000130 91 d3 1d be c1 17 23 be ef 7a a3 be 81 48 39 be
       -0.15412737 -0.1592703 -0.31929728 -0.18094064
000140 ea 9d 48 be 41 f9 8e bd 3f c6 84 be 41 8a f4 bd
       -0.1959149 -0.06981135 -0.259325 -0.11940432
000150 41 a0 75 3e f8 3b 13 be b0 87 de bd 0a 5b 2b bd
       0.23986913 -0.14378345 -0.10865724 -0.04183487
000160 c1 47 74 3e df 99 72 be bf 38 1b 3e ef fa c2 be
       0.23855497 -0.2369151 0.15158366 -0.38082072
000170 d9 c7 a9 be f0 ea e8 3c 31 49 e6 be 90 36 00 be
       -0.33160284 0.02843234 -0.44977716 -0.12520814
000180 21 68 53 be 0e 2d a2 bd c5 7a da bd c0 86 9e 3b
       -0.20645191 -0.0791875 -0.10667948 0.004837841
000190 01 f7 51 be 1a 67 9e be e1 83 22 be c5 fd 8c be
       -0.20504381 -0.30938035 -0.1587062 -0.2753736
0001a0 a0 d8 1c 3c 71 5a 1c 3e 21 42 4a be 1a cf 2c 3e
       0.009573132 0.15268876 -0.19751789 0.16875878
0001b0 d8 76 34 3e 0f 5b 7e 3e c0 b4 0c be f0 73 e0 3c
       0.1762346 0.24839424 -0.13740826 0.027399033
0001c0 11 b3 e3 3d 0f a7 51 be 4f c7 e9 bd ef 91 c8 bd
       0.111181386 -0.20473884 -0.11414968 -0.097934596
0001d0 00 b4 0e 3e 81 53 0c be 21 70 2b be cf 28 91 be
       0.13935852 -0.13703729 -0.16741993 -0.28351447
0001e0 df c2 e7 bd 21 5c bc bc 6f f2 3c be 97 a4 84 be
       -0.113164656 -0.02299315 -0.18451856 -0.25906822
0001f0 a1 17 ae bd c1 83 cb bd 4f a0 4d be 81 0e 18 be
       -0.085006006 -0.099372394 -0.20080684 -0.14849283
000200 d0 67 f0 bc f0 c5 30 3d c1 82 01 be 5a 91 c2 bd
       -0.029346377 0.043157518 -0.12647535 -0.0950038
000210 70 02 07 3e df 2c 07 be bf 44 7b be 1f e8 f2 3d
       0.13184524 -0.1320071 -0.24537943 0.1186068
000220 f1 a2 d7 3d c5 92 54 3e 01 00 c4 3d 00 2c d8 bb
       0.105291255 0.20759113 0.09570313 -0.006597042
000230 41 00 7f 3d f1 dc 52 3e a0 4a 09 bc 21 24 1c be
       0.0622561 0.20592095 -0.008379608 -0.15248157
000240 10 a9 4a bd fa b3 37 be 17 f4 97 3d 71 36 91 3d
       -0.049477637 -0.1793975 0.07419603 0.07090462
000250 9a 3a 4b be a1 f0 67 be 6b 0f 5e be 7f 1a e3 bd
       -0.19846573 -0.22650386 -0.21685569 -0.11089038
000260 d0 e0 03 3d 6b 3c d3 3d bf e3 76 be f9 3e 9d be
       0.03219682 0.10314258 -0.24110316 -0.30712107
000270 26 4c bd 3d a1 6b 71 3e 5f 8d ec 3d 00 82 15 3d
       0.0924304 0.23576213 0.11550402 0.03650093
000280 70 d5 83 bd 70 94 cc bc 91 15 08 3e 01 6d 15 3e
       -0.06437194 -0.024973124 0.13289477 0.14592363
000290 e6 75 45 bd bf 1b 4d be 70 41 ed bd 06 24 31 3e
       -0.04820814 -0.20030116 -0.11584747 0.17298898
0002a0 41 17 00 be 0f 5f 82 3d 05 45 cf 3d 10 53 fc bd
       -0.1250887 0.06365787 0.10120586 -0.123205304
0002b0 1a 8b 2e be bf e5 57 3e 1a d7 2f 3e 50 e2 29 bd
       -0.1704525 0.21083735 0.17171898 -0.041475594
0002c0 a1 da 45 be d1 ce 31 be 00 24 eb 3c 50 64 fe 3d
       -0.19321682 -0.1736405 0.02870369 0.12421477
0002d0 21 38 5f 3e 3f e9 b2 3d 60 fa 62 3c 52 bf 25 be
       0.21798755 0.087358944 0.013853639 -0.16186264
0002e0 b1 a5 18 3e a7 d5 9f 3a 4f d7 72 be 3b ff c0 bd
       0.14906956 0.0012194411 -0.23714946 -0.09423681
0002f0 b1 bd 8b bd 30 b4 8c 3c 30 6d 9f be 86 b5 4b be
       -0.0682329 0.017175764 -0.3113799 -0.19893464
000300 cf b7 48 be 75 77 17 be 4f 9f 9b bc 0f 93 ff bd
       -0.19601367 -0.14791663 -0.018996863 -0.12479221
000310 a5 78 57 3e d5 d6 e9 bd e0 9e 14 3d 03 91 30 be
       0.21042116 -0.11417929 0.036284328 -0.17242818
000320 8f 84 02 be 0a 1a af bd cf b3 06 3e 19 b8 19 3d
       -0.1274588 -0.085498884 0.13154529 0.037529085
000330 44 53 be 3d e5 cb 56 3d d8 d9 0a 3e a0 58 c1 3c
       0.092932254 0.052440543 0.13559663 0.02360183
000340 61 61 7a bd e4 72 0b be 81 66 fb bc 11 af 24 3e
       -0.061128024 -0.13618046 -0.030688526 0.16082408
000350 51 ac c3 3d f4 1d 7d 3d a0 82 24 be 8e 83 87 3c
       0.09554351 0.061796144 -0.16065454 0.016542222
000360 cf 5f 35 3e eb 31 07 3e f6 1e 32 be 2f 29 af bd
       0.1771233 0.13202636 -0.17394623 -0.08552777
000370 35 47 76 3c 90 d7 11 bd 4a 7d 71 3c f0 3c 89 3d
       0.0150316255 -0.035605967 0.014739344 0.06701076
000380 1f cc 41 3e e7 6c a2 3d 86 52 3a 3e f0 80 fe 3d
       0.18925522 0.07930928 0.18195543 0.124269366
000390 10 ec 58 be 19 31 0c be d0 4a 60 3e 10 fa 99 bc
       -0.211838 -0.13690604 0.21903539 -0.018795997
0003a0 b7 63 0c be af 7a 6d 3e e0 a8 e9 3c 11 0f 0c be
       -0.13709913 0.23191331 0.028522909 -0.13677622
0003b0 1b 1e 5f be 40 41 e3 bb 2f 33 8a 3d 65 da 54 bd
       -0.21788828 -0.0069352686 0.06748044 -0.05196609
0003c0 71 b6 14 3e c7 cc 8b 3e 21 ac 0f 3e d0 47 3b 3e
       0.14522721 0.2730467 0.14030506 0.18289113
0003d0 e1 79 f3 3d 51 18 c3 3c 80 3a 82 bc ff 02 5e 3c
       0.11888481 0.023815306 -0.015897036 0.013550519
0003e0 cf 51 64 be 57 69 8b 3c 01 c4 ed 3d a7 2f 9c 3c
       -0.22296833 0.017018003 0.116096504 0.019065691
0003f0 ff 80 0c bc e1 0d cc 3d 35 3f 5a 3d 00 ff e5 3b
       -0.008575677 0.09963585 0.053282935 0.0070189238

conv2.lin_l.bias f4 [64]
000000 99 e6 96 bd 5f ee f7 bd d9 25 a6 be 76 74 bb be
       -0.07368202 -0.121060126 -0.3245075 -0.3661229
000010 0f ac dd bd 8f 1b b2 be 5f cf 2a 3e ff 1e 4d 3d
       -0.10823833 -0.3478665 0.16680668 0.05007839
000020 e0 d7 50 3d 60 49 4e be 90 96 4f 3d 72 f1 00 3d
       0.050987124 -0.20145178 0.050680697 0.03148026
000030 c1 ba ec 3d 56 e7 72 3c af 9d 56 be af fb 75 be
       0.11559058 0.014825663 -0.20958589 -0.24021791
000040 67 99 9e bd 3f 83 6c be a0 e6 95 be 63 2f 9d be
       -0.07744103 -0.23096941 -0.29277515 -0.30700216
000050 91 9f 71 be 5a f2 ac 3d c5 cf cd bd 1f a6 62 bd
       -0.23596026 0.084446624 -0.100493945 -0.055334207
000060 4a 8a 2f 3e 11 b2 1d be d0 57 02 3e 21 1d ca bd
       0.17142597 -0.15399958 0.1272881 -0.09868837
000070 77 31 88 be 0a 8e c7 3d 61 81 94 be f5 e3 e0 be
       -0.2660024 0.09743889 -0.29004958 -0.43923917
000080 bf 55 5a be 77 42 43 3e 55 ae df bd e7 68 28 be
       -0.21321772 0.19068323 -0.10921923 -0.16446267
000090 7f 69 9b be e9 3e 21 3e f0 81 30 3e 50 6e e4 3d
       -0.30353925 0.15746655 0.17237067 0.11153853
0000a0 a7 18 22 bd 7b 52 db bd 78 f1 07 bc 69 62 16 be
       -0.03957429 -0.10709091 -0.008297317 -0.14685978
0000b0 95 0e f0 bd c5 dc cf bc 64 f8 51 be 4d 31 c7 be
       -0.11721531 -0.025373826 -0.2050491 -0.389048
0000c0 a7 f0 a1 be 86 77 b5 be 77 33 74 3d a5 ff 56 be
       -0.31628916 -0.35442752 0.059619393 -0.20995958
0000d0 b1 24 ac bd 6a 70 af bd 3a a3 28 3e 03 74 bf 3d
       -0.08405436 -0.08566363 0.16468516 0.09348299
0000e0 c1 69 b0 be b1 f5 40 3e 7f fe f9 bd 9a a6 3a be
       -0.34455684 0.18843724 -0.122067444 -0.18227616
0000f0 cf a2 b9 3d 40 e0 92 3d 40 81 2a 3e 29 7f 95 3c
       0.090642564 0.071716785 0.16650867 0.018249111

conv2.lin_r.weight f4 [64, 16]
000000 d0 f6 22 be 11 fe c3 3d 0f 00 97 be a1 ea a6 3d
       -0.15914464 0.09569944 -0.29492232 0.08150221
000010 4f 63 13 be 5f af 83 3d 37 13 26 3e 6a 69 4c be
       -0.14393352 0.06429934 0.16218267 -0.19962087
000020 9f a4 06 be 57 33 00 3e c6 88 b7 bd 8f a8 25 be
       -0.13148735 0.12519585 -0.08961634 -0.16177581
000030 6f 56 22 be 5a 15 35 be 08 0b 0a be ff e1 04 3e
       -0.15853284 -0.17683926 -0.1348077 0.12976836
000040 40 e2 0f bd 01 77 85 be 09 be 90 be a0 dc 8a 3c
       -0.03512788 -0.26067355 -0.28269985 0.016950905
000050 60 c6 06 3e ff ed 1a be c1 fb 27 be ef c4 a3 3c
       0.13161612 -0.15129851 -0.1640463 0.019991366
000060 9f c6 29 3e e5 42 d6 bd 26 00 c7 bd a9 6a 18 3d
       0.16579674 -0.10461978 -0.09716825 0.037211094
000070 8f 6f 88 be cf 95 24 be a7 c1 8b 3d f1 46 0d 3e
       -0.26647612 -0.16072772 0.06824046 0.13796593
000080 41 14 e6 3d b1 c7 27 3e 21 e3 3f 3e 91 10 01 3e
       0.11234332 0.1638477 0.18738987 0.12603976
000090 71 13 20 3e f1 49 e3 ba 40 23 85 3d 21 f9 79 bd
       0.15632416 -0.0017340762 0.06500864 -0.061028603
0000a0 91 5a 3c 3e 90 1d c0 bd c0 f3 63 be 6f e5 76 3e
       0.18393923 -0.093806386 -0.22260952 0.2411096
0000b0 51 ab 60 3e 0a 24 49 be 90 55 b7 bd 9f 9e 60 be
       0.21940352 -0.19642654 -0.089518666 -0.21935509
0000c0 60 cf 40 3d 20 c0 73 3d fb f8 ca bd 7b 2b 50 bd
       0.04707277 0.059509397 -0.099107705 -0.050822716
0000d0 11 f3 be 3d 71 16 dc 3b 25 b2 5a 3e e1 30 9a be
       0.09323705 0.0067165424 0.21357019 -0.30115417
0000e0 50 7d 45 3e e1 22 73 be 1f 4a 96 bd 45 bf dd 3d
       0.19286084 -0.23743774 -0.07338356 0.108274974
0000f0 50 67 ce bc e5 ea 53 3d 8f 61 0b be 91 e2 a3 bd
       -0.025195748 0.051737685 -0.13611434 -0.080021985
000100 00 8f af 3c 00 cb 09 3d 41 6f 71 be a6 3a 32 bd
       0.021430492 0.03364086 -0.23577596 -0.043512963
000110 11 e0 ef 3d bf 1d d5 3d d9 94 0a be 6f bb fd 3c
       0.11712659 0.10406064 -0.13533343 0.030973164
000120 80 f7 65 3b 31 6f 29 3c 38 82 89 3d 56 0f ad 3d
       0.0035090148 0.0103414515 0.067142904 0.08450191
000130 f7 e5 a5 3d 9f c6 71 be 81 64 35 bd ef e1 8a 3d
       0.08100503 -0.23610924 -0.0442853 0.06781375
000140 af f8 09 be df 01 07 bf e1 a4 0e be a6 6f 45 3d
       -0.13473772 -0.5273723 -0.13930084 0.04820218
000150 b8 87 08 3d 71 06 93 be 10 0a 26 3e 01 59 02 bf
       0.033332556 -0.28715852 0.16214776 -0.5091706
000160 f8 fb 1b be 51 b5 02 bf 30 e1 79 be a6 bb b9 be
       -0.15232837 -0.51057917 -0.24402308 -0.36275977
000170 4f a4 e0 be 21 85 03 be 45 de 43 be 60 b4 de bd
       -0.43875358 -0.12843753 -0.19127758 -0.108742476
000180 a8 b7 9c bd ef 02 67 be 3b 8a d5 bd b7 57 1d 3e
       -0.07652217 -0.22559713 -0.10426756 0.15365492
000190 df 72 40 3e d8 3d ea 3d 48 42 96 bd 19 4d 07 3e
       0.1879382 0.11437577 -0.07336861 0.13213004
0001a0 07 cf 21 be bf ce 16 bd 3f 93 57 3e 10 ef 60 be
       -0.15801631 -0.036818262 0.21052264 -0.21966195
0001b0 c5 6d d4 3d 00 ca 2f 3a 8b dc db 3b ff 54 6b be
       0.103724994 0.00067058206 0.0067096404 -0.22981642
0001c0 81 58 6e 3e 11 04 90 be b1 ec 73 be c1 10 c2 bd
       0.23275949 -0.28128102 -0.2382076 -0.09475852
0001d0 80 88 7f bd 2b fe d4 3c 85 01 5d bd 17 07 0f 3e
       -0.062386036 0.026000103 -0.053956527 0.13967548
0001e0 bf f2 72 be 3f ae f8 3d fa 1d 4b be 85 1a 5b 3e
       -0.23725413 0.1214261 -0.19835654 0.21396835
0001f0 bf 14 7b be c0 f5 eb 3c 5f 8e 5d bd cf 71 e1 bd
       -0.24519633 0.028803706 -0.054090854 -0.110080354
000200 61 d2 bd 3d b1 38 61 3e 81 b5 78 bd 8f 6b 37 be
       0.09268642 0.21994282 -0.06071997 -0.17912124
000210 cf 18 0b be b0 b7 e7 bd f9 91 05 3e f0 58 4f be
       -0.13583682 -0.113143325 0.13043965 -0.2024877
000220 3a f4 3a 3e a7 75 a3 3d 68 41 9a 3d 6f 64 34 be
       0.18257228 0.07981425 0.075320065 -0.17616437
000230 af fe e5 bd c1 67 18 be 05 1b da 3d 30 08 d8 3d
       -0.11230218 -0.14883329 0.10649685 0.10548437
000240 50 79 3e 3e 6a f7 42 bb ef ed 6f 3d d0 08 7f 3d
       0.18600965 -0.002974952 0.05857652 0.062264264
000250 10 a7 60 bd b1 a2 25 3d 2f 15 34 be f1 23 68 be
       -0.054846823 0.040438358 -0.17586206 -0.2266996
000260 60 ef 37 3d 60 3a 84 bc 00 d1 ca 3c b0 de f9 bb
       0.04490602 -0.016141117 0.024757862 -0.0076254234
000270 1a 75 40 be 5b a0 cd bd 71 18 f8 bd a8 b5 0f bd
       -0.1879467 -0.10040351 -0.12114037 -0.03508535
000280 9f 6b b4 bd 8f 2f 4a 3e 6f 75 19 3e 01 3d 70 be
       -0.088095896 0.19744705 0.14986204 -0.23460771
000290 bf 8c c0 3d e1 ac 5c be 30 fd b2 3d cf a2 78 be
       0.09401845 -0.21550323 0.08739698 -0.24280857
0002a0 c8 a2 0f 3d cf c8 1a be c0 88 7c 3e 7f 15 61 be
       0.03506735 -0.15115665 0.24661541 -0.21980856
0002b0 c1 d9 fc bd c1 5a 71 3e 9a f7 46 bd e1 14 7a 3e
       -0.12346221 0.23569776 -0.048575975 0.24422027
0002c0 a5 2f 60 bd 09 0c 0b 3e 91 40 79 be e0 76 30 3d
       -0.054732937 0.1357881 -0.24341036 0.043082118
0002d0 f0 1e 86 3d 8f 37 84 bd b1 22 fe bd e8 df 6f be
       0.065488696 -0.064559095 -0.124089606 -0.23425257
0002e0 c5 b2 e1 3d 11 4c af bd 3a 83 30 3e 2a e4 37 3e
       0.11020426 -0.085594304 0.17237559 0.17958131
0002f0 1f 80 1a 3e 20 2e 97 3d df d9 45 be 40 34 33 3e
       0.15087937 0.073818445 -0.19321392 0.175004
000300 06 c2 3c be 21 6b 38 bc 2a 1d b7 bd a0 1e 1b 3e
       -0.18433389 -0.01125601 -0.089411095 0.15148401
000310 5f d1 1d 3e d9 22 47 be 67 b9 24 3e 3c 68 a8 3d
       0.154119 -0.19446887 0.1608635 0.08223006
000320 ef ac a5 3d f1 52 f6 bd 7f 32 1f be df 85 6b be
       0.08089625 -0.120275386 -0.15546606 -0.23000287
000330 af c3 36 be 4f f7 51 be 40 24 cc 3c 4f f3 36 3e
       -0.17848085 -0.20504497 0.02491963 0.17866252
000340 2b 27 62 3e 4d 8d 0c be bf b6 02 be 9f 54 61 3e
       0.22085254 -0.13725777 -0.12765025 0.22004937
000350 30 ea bc 3c 2e b0 92 bd c0 3c 00 3e c0 1d 4d be
       0.023060888 -0.0716251 0.12523174 -0.2003088
000360 f1 37 31 be 8f 4c 11 be 5a c8 c1 bd 99 36 8c 3d
       -0.17306496 -0.14189361 -0.09462042 0.06846351
000370 6f a9 02 be 6f 19 7c 3e 74 b2 50 be b0 88 11 be
       -0.12759946 0.24619077 -0.20380574 -0.14212298
000380 66 67 33 3e 41 9e 74 3e 71 96 6e be da 35 47 be
       0.17519912 0.23888494 -0.23299576 -0.19454136
000390 47 c5 00 be 81 53 c5 bd 80 67 5a be 25 0f d3 3d
       -0.12575255 -0.09635068 -0.21328545 0.10305623
0003a0 58 40 92 3d a0 fe 9a 3d d0 c8 5a 3d 11 ef 68 3e
       0.07141179 0.07568097 0.053414166 0.22747447
0003b0 18 c1 94 bd 36 98 33 be 86 3d 43 3d 80 c9 19 3e
       -0.07263392 -0.17538533 0.047666095 0.15018272
0003c0 50 77 61 be 0f ae 91 bd 0f 78 19 bb c1 21 65 3d
       -0.2201817 -0.07113277 -0.0023417508 0.055940393
0003d0 e0 11 96 bc 5f 32 9c bd 80 ce 65 3b 35 41 57 3d
       -0.01831907 -0.07626795 0.003506571 0.05255242
0003e0 20 68 0f bd 6f 86 c8 bd 25 c1 e2 3d 91 8a 47 3d
       -0.03501141 -0.09791266 0.11071996 0.04871613
0003f0 7f 76 4c 3e a0 d9 94 3d 41 86 0b be 30 7e b2 bd
       0.19967078 0.07268071 -0.13625433 -0.087154746

lstm_cell.weight_ih f4 [256, 192]
000000 7f 5b 00 3e 30 ff 3c 3e b1 47 91 bd 08 3e 99 3c
       0.12534903 0.18456721 -0.07093752 0.018706337
000010 89 37 29 3d 06 31 39 be c1 a8 3a 3d b7 63 8b 3d
       0.041312728 -0.18085107 0.045571093 0.068061285
000020 9b 15 d4 bd ef f2 ce bc a6 f1 b3 3d 7c 10 11 3e
       -0.103556834 -0.025262324 0.08786325 0.14166445
000030 e3 1d 0b 3e 21 84 4d 3e 80 dd b0 3b 21 73 4f be
       0.1358562 0.20069934 0.0053974986 -0.20258762
000040 b7 4f 1c 3d 11 07 2c 3e 2f 65 43 bc a0 74 ff 3d
       0.03816196 0.1679957 -0.0119259795 0.12473416
000050 c5 b2 e0 3d 81 27 27 3c 16 8a 2d 3d 7f c2 71 3d
       0.109715976 0.01020229 0.042368017 0.059023377
000060 20 ad 12 bd ff 62 fc 3d 41 be ee 3d 3a ae 34 3e
       -0.035809636 0.123235695 0.11657382 0.17644587
000070 b1 8c 3f bd d8 73 b8 be ef 97 44 3e b6 83 47 bd
       -0.046765033 -0.36025882 0.19198583 -0.048709594
000080 30 71 3c bc d8 01 3a 3e c6 3d 4a be 99 d9 21 3e
       -0.011501595 0.18164766 -0.19750127 0.15805663
000090 81 94 86 3c b1 2d fe bd bf c3 26 3d 58 30 0f bd
       0.016428234 -0.12411059 0.04071402 -0.034958214
0000a0 cf 93 0f be 00 34 ce 3d bf f1 c7 3d 48 2d 0b 3e
       -0.14021228 0.10068512 0.09762906 0.13591492
0000b0 0e ec 48 3e a1 9c 35 bc 82 ec a6 3d d8 a4 37 bd
       0.19621298 -0.0110847065 0.08150579 -0.04483494
0000c0 3a 54 3a ba 30 1e 51 bc 26 1b 0b bd 8b eb d8 3d
       -0.00071078876 -0.012763545 -0.033961438 0.10591801
0000d0 31 be a9 3d c7 90 1e 3e 79 50 43 3e ea c1 23 3b
       0.08288229 0.15484916 0.19073667 0.0024987408
0000e0 40 66 f0 3d 71 a8 28 3e 61 bc b0 ba c1 15 5b 3e
       0.11738253 0.16470505 -0.0013483876 0.21395017
0000f0 4f ac 1b 3e 8a d5 ee 3d 12 fb 62 bd a1 a7 97 3d
       0.1520245 0.11661823 -0.05541522 0.074050196
000100 70 63 83 bf f1 40 5a 40 59 2c 29 40 54 1d 36 40
       -1.0264721 3.4102137 2.6433318 2.84554
000110 40 8d 12 40 aa b6 b6 40 95 c6 e5 40 68 a8 b8 bd
       2.2898712 5.709798 7.180491 -0.09016496
000120 1a 16 b6 40 c7 38 f3 40 fd 89 f0 40 cf e5 d3 40
       5.690198 7.600681 7.5168443 6.621803
000130 31 a7 cb 40 16 d8 d7 40 ab 8c 0c 41 51 da f4 40
       6.364159 6.7451277 8.784343 7.65165
000140 e9 22 fd 40 a5 6c d9 40 8e 5c ef 40 eb 49 ed 40
       7.9105115 6.7945123 7.480048 7.415273
000150 cd 7f ed 40 4d c6 b3 3d b8 02 06 41 1e 02 ab 40
       7.4218507 0.08778057 8.375664 5.3440084
000160 31 1d e6 40 cd 42 e6 40 5d 7d e0 40 1a 6d 01 41
       7.1910634 7.1956544 7.015303 8.089136
000170 53 51 ea 40 f2 53 9d 3a ac 36 55 3d a1 aa 89 3d
       7.3224273 0.0012003167 0.052054092 0.06721998
000180 aa 32 37 bd 0e 77 bc bd 1e c0 20 3d 24 7b fc 3c
       -0.04472605 -0.092023954 0.039245717 0.030820437
000190 25 95 b8 3d 01 1f 2a 3d 69 30 f8 bd 20 49 96 3b
       0.09012822 0.041533474 -0.121186085 0.004586354
0001a0 01 d8 90 3d 60 f6 fd bb 9f b2 ef bd c1 c3 e5 bd
       0.070724495 -0.0077503175 -0.11703991 -0.11218978
0001b0 00 8f 6c 3b 70 66 02 bd f0 14 6d 3c c0 5b 55 bd
       0.0036095977 -0.031835973 0.014470324 -0.052089453
0001c0 a0 8e 97 bd bf 85 05 3d e0 6b fb bc 00 c3 93 3b
       -0.074002504 0.032598253 -0.030691087 0.00450933
0001d0 e0 66 53 bc 3f 0c a6 bd 06 26 b1 bd b1 83 f6 bd
       -0.012902945 -0.081078045 -0.086498305 -0.12036837
0001e0 ef fe c6 3d c0 5a 3c 3c 86 b9 b7 bd ff 54 e8 3d
       0.097165935 0.011496246 -0.08970933 0.11344337
0001f0 bf 37 ae bd 0f 7a e6 bd 41 1d 43 3d 08 af 90 bd
       -0.085067265 -0.112537496 0.04763532 -0.070646346
000200 41 c6 fe bc 92 5d ff 3f de 19 a4 3f 77 5c ef be
       -0.031100394 1.995043 1.2820394 -0.46750233
000210 dd f8 0a bf 79 36 15 40 ff 74 d4 3d e7 31 57 40
       -0.54285985 2.3314497 0.10373878 3.3624208
000220 d6 99 d4 40 e3 fb ba 40 b1 f1 ca bd 7c 66 ec 40
       6.643779 5.843248 -0.0990938 7.3875103
000230 8d 1b f7 40 aa fd f8 40 1b 09 d9 3d ca 22 06 41
       7.722113 7.780965 0.1059744 8.383493
000240 17 20 11 41 fc 93 00 41 1c 46 f2 40 7f 9b e5 40
       9.070334 8.036129 7.5710583 7.1752315
000250 c4 43 dc 40 b9 bf ce 40 8c 73 6b 3c 5d 73 04 41
       6.883272 6.4609036 0.01437081 8.278165
000260 11 ce ce 40 7a 0a 60 40 dd c9 6c 3d 8b f0 e0 40
       6.4626546 3.5006394 0.0578097 7.029363
000270 58 a5 84 40 00 c0 09 41 62 c2 e0 3d 71 89 6b 3d
       4.1451836 8.609375 0.109745756 0.05750412
000280 5e 2a 6a 3d 8c 79 a4 3d 82 e6 ec bd 7c a7 61 bd
       0.05716931 0.08030996 -0.115674034 -0.055091366
000290 ee 4c bd bd 0d 9d bd bd c6 11 90 bc e5 42 f6 bd
       -0.09243189 -0.09258471 -0.0175866 -0.12024478
0002a0 8f ca 49 3d df 34 ea 3d ff 2f 91 3d bf ee 24 bd
       0.04926544 0.114358656 0.07089233 -0.04026675
0002b0 11 3c 02 bd 65 75 59 3d bf e1 b6 3d d0 16 c4 bd
       -0.031795565 0.05309047 0.089297764 -0.09574664
0002c0 49 f8 a6 bd 8f a3 3d bd 98 f4 8e bd a6 ba 2c 3d
       -0.081528254 -0.04629856 -0.06980246 0.04217019
0002d0 e1 7b f8 bd 50 58 b9 3d 40 fe 3e bb 71 62 e3 3d
       -0.12133003 0.090500474 -0.0029143244 0.111027606
0002e0 f1 3b 24 3d 21 4e 83 bd 00 8a 10 bd 66 24 ac bd
       0.040096227 -0.06411386 -0.035287857 -0.0840538
0002f0 59 43 1e 3d b1 a7 a8 bd 81 4e f2 3d 4f 94 b6 3d
       0.038638446 -0.082351096 0.1183138 0.08915006
000300 ff ff 3e 3d 9f 85 20 3d 97 bf 0d 3f 81 7e cf 3d
       0.046630856 0.03918993 0.5537047 0.101315506
000310 66 92 b2 3d 79 88 12 be 71 e1 64 bc 6f 5b f9 3c
       0.087193295 -0.14309873 -0.013969765 0.030439107
000320 d0 7d 61 bc 60 dc e7 bc 41 67 fb 3d 0e dc db 3b
       -0.013762906 -0.028303325 0.122755535 0.006709582
000330 96 e3 12 bd bc ad c6 3e 77 0d a8 bd d1 b5 17 3f
       -0.035861574 0.38804424 -0.08205693 0.59261805
000340 b9 5e 8b 3c e1 fe 56 3d 61 c6 00 bd cc ab f7 3d
       0.01701294 0.052489165 -0.03143919 0.120933145
000350 0a bd 3d 3e 00 88 a3 3d 81 df 4c bd 16 0f 33 3e
       0.18529144 0.07984924 -0.050017837 0.17486224
000360 e0 be 7e 3d 6f 3d 60 3d 30 d5 0e 3c 81 c4 97 3e
       0.06219375 0.054746088 0.00871782 0.29642108
000370 19 f8 0b bc 3e 0c 34 3f 19 b0 14 3f 89 14 29 3d
       -0.008543038 0.7033118 0.58081204 0.04127935
000380 3f 52 88 3d 3e a3 43 bd e1 93 56 3f 5f 7d 32 bd
       0.06656312 -0.0477631 0.83819395 -0.043576594
000390 9b da 47 bd db a1 dd 3d e0 14 d9 bc b8 73 82 3c
       -0.048792463 0.10821887 -0.026499212 0.01592432
0003a0 10 d4 2d 3f e0 18 c7 3c ab 67 44 3f 91 a6 03 3e
       0.67901707 0.024303854 0.76720685 0.12856509
0003b0 79 65 b4 3e 89 12 06 3e 9b 9c 3c 3d be ee 9e 3d
       0.35233667 0.13093008 0.046047788 0.0776038
0003c0 3f 43 ad bd c8 ab 14 3d 98 d0 b3 3e bf 46 2b be
       -0.08460092 0.036296636 0.35120082 -0.16726206
0003d0 ef ef bf bd 70 26 93 bd e6 86 fc 3d 39 13 dc 3c
       -0.093719356 -0.07185066 0.12330417 0.026864635
0003e0 87 a7 9f bd 39 64 0b 3e c1 e4 21 3e db 78 61 3d
       -0.07795625 0.1361245 0.15809919 0.055046897
0003f0 bf d5 51 3d f9 59 6d bd 96 a3 dd bc 71 54 03 3d
       0.051229235 -0.057947133 -0.027055543 0.03206295

lstm_cell.weight_hh f4 [256, 64]
000000 4b f3 eb 3e 72 d5 c3 3e 8f ef 88 3f af 1a 86 c0
       0.46084055 0.38248783 1.0698107 -4.1907573
000010 1e 4b ab 3f bb ee 34 c0 03 00 19 c0 8a a5 1b 40
       1.3382299 -2.827071 -2.3906257 2.4319787
000020 48 de 5e 40 eb 77 44 3f a6 f2 e2 3e f6 fe a2 bf
       3.482317 0.7674548 0.4432575 -1.2734058
000030 ef 5d 36 bd 01 08 ba bf 14 73 ec bf ba 81 5f be
       -0.044523176 -1.4533693 -1.8472619 -0.2182683
000040 cd 27 4c bf 09 86 1b 3f cb 85 48 c0 64 4d c4 bf
       -0.7974823 0.60751396 -3.133166 -1.5336118
000050 8f c9 23 bd 6d 2d 25 40 8a 62 21 40 fd c7 43 bf
       -0.039987143 2.5808976 2.5216393 -0.7647703
000060 ad 7f 02 3f aa 85 21 40 ef cd 1d c0 c0 cc 67 3f
       0.5097607 2.5237832 -2.4656942 0.905468
000070 0e c0 29 be 83 b9 39 c0 2c 15 f6 bf 94 87 d9 3d
       -0.1657717 -2.9019477 -1.9225211 0.106215626
000080 01 58 97 3f e9 d2 f8 bf 33 fe cc be 00 bc 6b 3f
       1.1823732 -1.9439365 -0.4003769 0.9208374
000090 1d e6 1b 40 fb f6 b0 bf 0b be 5e 3e 04 f9 0f c0
       2.43592 -1.3825372 0.21752183 -2.2495737
0000a0 8e a1 9d 3f de 77 a8 bd 69 85 32 c0 75 9f 93 bf
       1.2314928 -0.08225988 -2.7893927 -1.1533037
0000b0 d8 90 9f bf a4 12 ec bf 3e b6 0f 3f 0b 37 c9 3f
       -1.2466078 -1.8443189 0.56137455 1.5719923
0000c0 e2 da ee 3e c5 1a 05 40 37 87 00 c0 20 4a 31 3f
       0.4665137 2.079759 -2.0082529 0.6925373
0000d0 a2 11 bd 3f 83 84 c6 3f 83 70 18 c0 7b 8e 43 40
       1.4771006 1.5509189 -2.3818672 3.0555713
0000e0 63 ae a6 3f 9d f5 16 c0 74 9c 6e 3f b3 b1 98 3e
       1.3021969 -2.358741 0.9320748 0.29823074
0000f0 b3 68 35 40 8f 9b a3 3f 22 ca fa 3e 14 ae 36 40
       2.8345153 1.2781848 0.4898234 2.854375
000100 1d 3b df 3e 4d db e8 be 4d 72 0e 3d 9b 48 a0 3e
       0.43599787 -0.45479813 0.034776974 0.31305394
000110 8c bc 0d c0 5a fb 2f c0 54 0f 10 3f 1e 1d b3 3e
       -2.214633 -2.7497163 0.5627339 0.34983152
000120 f1 7d 05 c0 4e ce 8c bf 72 65 23 bf 29 88 24 bf
       -2.0858119 -1.1000459 -0.6382667 -0.64270264
000130 9f f4 81 bf 93 6f 0a bf 24 ab 57 be 97 59 2f 40
       -1.0152777 -0.540765 -0.21061379 2.7398431
000140 04 0a 11 bf 6f 3b 7f bf a0 70 52 bf ae 46 18 c0
       -0.5665591 -0.99700063 -0.822031 -2.379314
000150 af db 31 bf d7 ed e9 3f 87 83 b9 3e 33 ec 6c 3f
       -0.69475836 1.8275708 0.3623316 0.9254791
000160 04 37 94 3f 66 99 8e be 30 f4 14 c0 9d 19 78 c0
       1.157929 -0.2785141 -2.327404 -3.8765633
000170 be e1 46 bf e3 e1 a6 be e5 56 0c c0 fc 8c 72 bf
       -0.77688205 -0.32594213 -2.1928036 -0.94746375
000180 1e ae 37 3e 22 25 c4 3f 53 fe 68 c0 ed 9c 06 40
       0.17937514 1.5323832 -3.6405227 2.103328
000190 9d 16 d1 3f 86 5f d7 be 08 09 84 bd bf 09 3c 40
       1.6335026 -0.42065066 -0.06447035 2.9380949
0001a0 84 e7 8a bf 05 73 52 bf 66 ca 92 40 1f 1b 2a 3f
       -1.0851903 -0.82206756 4.587207 0.66447634
0001b0 87 48 c6 bf 94 d3 a3 be ee 9a b8 bf 44 21 55 bf
       -1.5490884 -0.3199736 -1.4422281 -0.83253884
0001c0 1a 6e 80 40 e0 5b 01 c0 33 4e a1 3f 84 dc 0b c0
       4.01344 -2.0212326 1.260199 -2.1853342
0001d0 1d df 58 3e dc 11 3a be bb d1 4d c0 49 98 03 be
       0.21178861 -0.18170875 -3.215926 -0.12851061
0001e0 c2 46 e9 bd cc 74 ec bf 08 9c e1 3f fa 50 1a 3f
       -0.11390449 -1.8473144 1.7625742 0.6027981
0001f0 cf bb ce 3f 06 ce 93 bf b4 75 e4 3d 38 53 f8 bf
       1.6151065 -1.1547248 0.111552626 -1.9400396
000200 cc db 29 40 d2 10 7c 3f 71 e6 ba 3e 5c dc e1 3e
       2.6540403 0.98463166 0.36503938 0.44113433
000210 d7 1a 8d 40 9e 6d a3 3e 11 24 a4 3e ce f2 f6 bf
       4.4095263 0.3191957 0.32058766 -1.9292848
000220 bc e3 06 40 ef 38 1b c0 a2 db d7 3f c4 c4 01 3d
       2.1076498 -2.42535 1.6863902 0.03168179
000230 c4 79 de bd cf b5 a9 bf c4 ff f2 bf 38 6e 28 bf
       -0.10863069 -1.3258609 -1.8984303 -0.6579318
000240 d3 ac c7 3f bc 0c 2c 3f 96 d5 00 bf 0e 70 f9 bf
       1.5599617 0.6720693 -0.50325906 -1.9487321
000250 9c 60 73 40 0d 15 fb 3e 58 62 b9 3f b4 47 c6 3f
       3.8027716 0.49039498 1.4483137 1.5490632
000260 bc 3d 25 3f df c8 b9 3f 9d ce d2 3f f2 ca b3 be
       0.64547324 1.4514426 1.6469303 -0.35115772
000270 c2 e5 00 c0 a9 b8 22 40 13 98 61 3f 0f 62 8c 3f
       -2.0140233 2.5425208 0.8812267 1.0967425
000280 2a 53 c6 3f a5 86 c2 bf 5f 8e 8f bd 14 20 74 bf
       1.549413 -1.519734 -0.07009577 -0.9536145
000290 c4 17 e6 3f 32 01 f7 3f 28 76 a0 3f 73 91 20 40
       1.7976003 1.929724 1.2536058 2.5088775
0002a0 af 28 0e c0 f2 de fc be b8 95 1a c0 68 70 fd be
       -2.2212331 -0.49388844 -2.415388 -0.49499822
0002b0 96 64 ea 3f 24 16 4c c0 51 75 52 3f ed 5b 8b 3f
       1.8311946 -3.1888514 0.8221026 1.0887429
0002c0 9a 8d 4c 3e f5 1c 8b c0 55 d2 64 3f df b8 6c 3f
       0.19975892 -4.347285 0.8938344 0.9246959
0002d0 ba f8 79 c0 b4 4b 8e 3f 24 cc 51 3f b9 04 90 3f
       -3.905806 1.1116853 0.8195212 1.1251441
0002e0 68 d5 dd 3f 06 78 93 3e 80 be 53 bf 77 a2 7b 3f
       1.7330751 0.28802508 -0.82712555 0.98294777
0002f0 8b cc 3c 40 a0 c2 9d bf 50 27 e7 be 38 4d ca bf
       2.9499843 -1.232502 -0.4514718 -1.5804815
000300 f2 7d d0 bf bb 29 7b 3f 4c 09 96 be c2 a0 20 3e
       -1.6288435 0.9811055 -0.29303968 0.15686324
000310 19 68 33 bf 58 69 38 3e eb 2c 76 bf 5b 42 f0 bf
       -0.70080715 0.18008935 -0.9616229 -1.877025
000320 15 73 4b c0 82 f9 da 3f ca dd cb bf 69 ae 9a bf
       -3.178899 1.7107394 -1.592706 -1.2084476
000330 17 47 7e 3f b7 f1 42 bf 28 5c 4c 3e 98 12 87 be
       0.99327224 -0.7615008 0.1995703 -0.26381373
000340 78 c9 e8 3d c2 2d fd 3f de 94 f2 3f de 82 7e bd
       0.11366552 1.9779589 1.8951681 -0.062136523
000350 d8 3d 87 bf c5 ef 13 bf 78 76 d4 3d ed 9c af 3e
       -1.0565748 -0.57787734 0.103741586 0.34299412
000360 fa 1b 36 40 dc be 76 ba 38 09 1b 3f cc f7 27 40
       2.8454576 -0.00094125955 0.6056094 2.6244993
000370 97 7c 1d 40 86 8b ba 3f ac 15 d0 bd f3 08 97 c0
       2.4607294 1.4573829 -0.101603836 -4.7198424
000380 fc 8b e6 bf 94 d1 62 bf 9f c4 9f 3f dc d5 e4 3e
       -1.801147 -0.8860104 1.2481879 0.44694412
000390 3a 16 b0 3f fd 4c 9b be ea 63 26 40 0d a1 3b 3f
       1.3756783 -0.30332175 2.5998483 0.7329262
0003a0 8a c2 37 be 97 b0 35 40 47 6e 3c c0 e5 31 38 c0
       -0.17945305 2.8389032 -2.9442308 -2.8780453
0003b0 d9 e7 02 40 ee b6 ba be 02 a1 30 40 5e ff 4a 3f
       2.0454009 -0.3646769 2.7598271 0.7929591
0003c0 30 58 29 40 ca f7 05 3d 8a 23 14 bf 35 46 e3 3e
       2.6460075 0.032707013 -0.5786673 0.443895
0003d0 50 0c 07 3d 43 24 4a bf 51 c6 91 3e 6d 30 1a c0
       0.032970726 -0.7896158 0.28471616 -2.4092057
0003e0 63 64 a6 be 2e a1 02 40 d9 e6 4f c0 39 80 f0 be
       -0.32498464 2.0410876 -3.2484648 -0.46972826
0003f0 54 f6 9d bf c1 12 8d bf 3a cc 02 3f c4 3c 23 c0
       -1.2340798 -1.1021348 0.51092875 -2.5505838

lstm_cell.bias_ih f4 [256]
000000 24 7c a3 bf 6d 94 d6 3f 76 d3 15 3f a1 1c 4d 40
       -1.277226 1.6764046 0.5852579 3.2048724
000010 81 a2 3e 40 ae a2 50 40 b4 b3 83 3f 4f 8e 27 40
       2.9786685 3.2599292 1.0289216 2.6180608
000020 fd e0 32 3f cc 4f 2d 3f a4 d4 4d 40 e9 4f 09 40
       0.69874555 0.67699885 3.2161036 2.1455023
000030 26 37 74 c0 9a 83 17 3d 0c 10 41 c0 b3 08 8d 3d
       -3.815866 0.03699074 -3.0166044 0.06886425
000040 fd 51 3a 40 d6 d3 13 c0 56 7c 31 c0 f2 a5 59 3f
       2.9112542 -2.3098044 -2.7732139 0.8501884
000050 4e 09 b9 bf 97 d0 81 c0 da f6 ce bf 9e f9 b0 3e
       -1.4455965 -4.0567126 -1.6169083 0.34565443
000060 3f c2 e2 3f a1 5d 8f bf 5d b7 52 3f 7a ce 90 3f
       1.7715529 -1.1200448 0.8231104 1.1313012
000070 a6 20 36 bf be 97 1c 40 ab 57 1c 40 a3 c6 84 3e
       -0.7114357 2.4467616 2.4428508 0.25932798
000080 bf 63 d1 3f e7 4f eb 3f c3 0f 09 bf d7 e4 9f bf
       1.6358565 1.8383759 -0.53539675 -1.2491711
000090 7c 49 23 bf 01 ce b1 3f 6d 93 72 be 70 3c d2 3f
       -0.63784003 1.3890992 -0.23689051 1.6424694
0000a0 70 29 f7 3e fa 38 50 3f 71 b6 33 3f c4 cb b9 bf
       0.48273802 0.8133694 0.7020026 -1.4515309
0000b0 27 44 99 c0 f4 95 d8 bf b6 62 47 3f 9d 43 42 bd
       -4.7895694 -1.6920762 0.77884996 -0.047427762
0000c0 df ab 8c c0 c3 24 08 c0 23 35 39 c0 95 54 1b 3f
       -4.3959804 -2.1272438 -2.8938682 0.60675937
0000d0 67 d2 1c c0 2d d1 e9 bf 20 00 2a be d8 66 03 be
       -2.450342 -1.826696 -0.1660161 -0.128322
0000e0 7d dd 0c c0 a8 98 40 c0 d0 ed a1 3f fc fb 30 3f
       -2.2010186 -3.0093174 1.26507 0.691345
0000f0 da 35 5e 3f d5 15 4d 40 0b 65 11 40 9f 1e 36 c0
       0.8680092 3.2044575 2.2717922 -2.845619
000100 b5 14 96 bf 1f 1e 23 bf bf 66 a6 be 9f 84 61 3f
       -1.1725069 -0.63717836 -0.32500264 0.8809299
000110 81 bc c5 bf 05 ee 8b 3e cb 01 73 3f 98 45 15 c0
       -1.5448152 0.27330032 0.9492461 -2.3323727
000120 06 1d 5c 3f 59 2f 89 bf 84 3d 58 c0 1a c1 25 c0
       0.85981786 -1.0717574 -3.3787546 -2.589911
000130 8a 52 3f 3f ce f6 a3 3c 7d 0f f1 bf b5 3f 89 3e
       0.7473532 0.020015147 -1.8832852 0.26806417
000140 e5 fc 6f bf b3 39 f1 3e bc f7 1c bf 0e 01 06 40
       -0.9374526 0.47114334 -0.6131551 2.0938144
000150 4a 2f 31 c0 11 9d 43 3f 50 b6 2b c0 5b 4d a4 bf
       -2.7685113 0.7641154 -2.6830025 -1.2836107
000160 69 25 4b 3f 00 1f 24 bf d2 89 7a 3e 8c b3 d8 be
       0.7935396 -0.641098 0.24466637 -0.42324483
000170 c1 46 ad bf d1 05 80 bf 06 95 89 3e 47 f8 5c bf
       -1.3537217 -1.0001775 0.26871508 -0.8631634
000180 8d 7d 58 bd a3 91 3a c0 cc 48 62 be 25 99 56 c0
       -0.05285411 -2.915139 -0.22098082 -3.3530972
000190 23 82 26 40 27 32 69 bf 0f f2 e2 be d2 ad d5 bf
       2.601693 -0.9109215 -0.443253 -1.6693671
0001a0 cd 46 c2 bf 82 6c e2 3f f2 8c 2e 3f 7b 5a 10 3f
       -1.5177857 1.7689364 0.68183815 0.5638806
0001b0 9b ae b4 be b4 21 08 c0 aa 71 85 bf 34 0e 64 bf
       -0.35289463 -2.127057 -1.0425313 -0.8908417
0001c0 76 8b a1 bf 66 6e 81 3f 57 43 08 bf 65 c5 0f c0
       -1.2620685 1.0111816 -0.5322775 -2.246423
0001d0 c0 64 24 c0 1e 0d 85 3e b0 de e4 3e 12 7d d5 bf
       -2.5686493 0.2598657 0.44701147 -1.6678793
0001e0 50 20 18 40 15 1e a8 3f bb 6a 88 c0 dc 64 09 40
       2.3769722 1.313418 -4.2630286 2.146781
0001f0 7a b1 71 be 6a 2a 03 c0 85 7a 34 3f c1 f0 ea be
       -0.23602858 -2.0494637 0.7049945 -0.45886806
000200 88 f9 3e 40 b1 94 97 be 91 54 65 c0 ae ff 11 c0
       2.9839802 -0.2960563 -3.5832865 -2.2812304
000210 6c 21 c6 3f 96 bb 06 bf 3f 40 12 3f 7d ab be bf
       1.547895 -0.52629983 0.5712928 -1.4896084
000220 b6 e6 11 40 30 85 05 c0 57 c9 76 40 55 6e 29 3f
       2.2797065 -2.0862541 3.8560388 0.6618398
000230 d3 e9 31 3e 82 7f 39 40 ad 49 de 3f 5d fa 14 bf
       0.17374353 2.8984075 1.7366234 -0.58194524
000240 5d 96 18 40 87 5b 91 40 30 87 0a c0 90 2a 86 3e
       2.3841774 4.542423 -2.1645012 0.26204348
000250 01 00 6a bf e3 35 65 3e 9f 98 10 3f 0b f1 41 3f
       -0.91406256 0.22383837 0.5648288 0.7575843
000260 81 fe 19 3f 4f f4 0a bf 10 85 96 3d 4b 8a e4 bf
       0.6015397 -0.54279035 0.073495984 -1.7854704
000270 a7 d6 52 3f f3 cf 41 3f aa 40 16 40 f5 b7 1c 40
       0.82358783 0.7570793 2.3476968 2.4487278
000280 73 e7 f6 3f 49 56 c2 bf 43 69 c1 be 4d b5 f9 3f
       1.9289383 -1.5182582 -0.3777562 1.9508454
000290 35 b3 f1 3f e5 07 97 be b0 6b b4 3f 8d 5d b2 3e
       1.8882815 -0.2949821 1.4095364 0.34837
0002a0 cb 9d b5 be 96 00 dd 3f b5 0f 0c bf ed c1 f2 3f
       -0.3547195 1.7265804 -0.5471147 1.8965431
0002b0 b7 0f 42 3f 70 47 b9 3b b7 10 55 40 17 12 28 c0
       0.7580523 0.005654268 3.3291452 -2.626104
0002c0 c8 0c 02 c0 ff d4 a6 3e 5c 23 cd 3e b8 22 32 bf
       -2.03203 0.32584378 0.4006604 -0.69584227
0002d0 d0 59 90 bf 9c 3a 33 c0 ef a9 b3 bf 8c 5c ed bf
       -1.1277409 -2.8004522 -1.4036235 -1.8543868
0002e0 5a 17 ac be 70 4c a3 3f 48 c2 9d bf 1d b6 5c bd
       -0.33611566 1.2757702 -1.2324915 -0.053884614
0002f0 ac 4a e8 bf 79 b6 a6 bf 4e c7 01 40 3b 65 23 3f
       -1.8147788 -1.3024436 2.0277896 0.6382634
000300 21 01 88 be da 06 86 c0 02 81 1f 3f f7 44 a5 40
       -0.2656336 -4.1883364 0.62306225 5.1646686
000310 ea 92 47 bf 83 a5 0f c0 3f 1a ce 3f f7 6e fa 3f
       -0.7795855 -2.244477 1.610176 1.9565114
000320 48 66 9f bf 30 a8 60 3f 79 25 02 c0 88 42 56 40
       -1.2453089 0.87756634 -2.0335371 3.3478107
000330 3a 24 6a bf 56 15 d8 3f 75 1c 30 c0 71 13 f9 be
       -0.9146153 1.6881511 -2.7517369 -0.48647645
000340 96 9b 1b c0 97 bc 21 bf 6f 47 20 c0 11 75 bd 3d
       -2.4313712 -0.6317839 -2.50436 0.09250844
000350 50 fa 91 3f 46 84 7e bf b1 f6 a7 3f 25 ac 43 3f
       1.1404514 -0.99420583 1.3122159 0.76434547
000360 bc 23 37 bf fd 71 27 3e a1 0f ea 3f 72 9f 4f c0
       -0.715389 0.16352077 1.828602 -3.2441068
000370 9d cc db 3e 5f ca bd bf 79 10 b7 3f 39 eb e8 be
       0.42929545 -1.4827384 1.4301902 -0.4549196
000380 6a 90 4d bf 65 18 09 40 0d 4c a3 be a9 43 9c bf
       -0.80298483 2.142114 -0.3189396 -1.2208148
000390 13 46 e7 be 25 2a 37 40 2c 28 09 c0 42 15 44 40
       -0.4517065 2.8619473 -2.143077 3.0637975
0003a0 06 00 15 3f 06 7e 53 40 fe 58 dd bf 7b 40 dd 3f
       0.5820316 3.3045669 -1.7292783 1.7285303
0003b0 7a 43 18 c0 c2 e8 86 c0 62 16 e4 3f 43 8d 4f bf
       -2.3791184 -4.215913 1.7819331 -0.81074923
0003c0 ca 71 4d c0 8d f3 db bf ad fc f7 bf 4b c5 0a c0
       -3.2100701 -1.7183701 -1.9373986 -2.1682918
0003d0 cc 95 55 bf 1e 15 d5 bf ab e2 09 40 ac b0 19 c0
       -0.83431697 -1.664707 2.1544597 -2.4014082
0003e0 13 40 1b 40 21 6d 89 bf 9f 8d ae 3e ea b3 12 c0
       2.4257858 -1.0736428 0.34092423 -2.292231
0003f0 76 e7 3a bf ee 00 82 3f a4 67 1b c0 2b d6 bb 3e
       -0.7300943 1.0156534 -2.4282007 0.36686835

lstm_cell.bias_hh f4 [256]
000000 dc a0 a7 bf 6d 7b e4 3f 08 c6 ba 3e 15 ab 48 40
       -1.3095965 1.7850167 0.3647921 3.135442
000010 21 40 43 40 ae 54 51 40 40 6e 6d 3f 5f d3 29 40
       3.050789 3.2707934 0.92746353 2.653526
000020 7d 81 38 3f fe 8f 27 3f 34 13 4e 40 92 6a 11 40
       0.72072583 0.6545409 3.219922 2.2721295
000030 86 8d 7e c0 65 0e 09 3e 0c 5f 37 c0 a3 55 de 3d
       -3.977388 0.13384397 -2.8651762 0.10856178
000040 b5 15 3a 40 56 b9 1c c0 73 89 31 c0 78 d0 39 3f
       2.907575 -2.448812 -2.7740142 0.72583723
000050 ee 3b ba bf 4b 61 7a c0 16 a9 da bf 08 c1 bb 3e
       -1.4549539 -3.9121883 -1.7082851 0.3667071
000060 1f f9 dc 3f 7d 72 9c bf 6f d8 86 3f ea a6 83 3f
       1.7263526 -1.2222439 1.05348 1.0285313
000070 6e 46 1f bf ee 74 18 40 2b 3b 26 40 f7 c9 85 3e
       -0.6221684 2.3821368 2.5973613 0.2613065
000080 43 e0 d3 3f 07 66 e8 3f 13 90 1f bf 27 0c 96 bf
       1.6552814 1.8156136 -0.62329215 -1.1722459
000090 bc 00 3a bf 91 3b c9 3f d1 5c 50 be 76 27 e0 3f
       -0.7265737 1.5721303 -0.20347907 1.7512043
0000a0 0a b9 8a 3e ac 8d 64 3f f1 d1 5c 3f fa d7 aa bf
       0.270943 0.89278674 0.86257845 -1.3347161
0000b0 f7 07 9b c0 d4 d1 d3 bf 06 1a 4b 3f 08 4d 08 bc
       -4.8447223 -1.654841 0.79336584 -0.008319147
0000c0 e7 c1 8c c0 e3 b9 04 c0 9c ef 31 c0 c5 d4 24 3f
       -4.3986697 -2.0738456 -2.7802496 0.6438716
0000d0 07 2e 29 c0 cd 4a ee bf 9d a6 a4 bc 81 cd 59 be
       -2.6434343 -1.8616577 -0.020098979 -0.212698
0000e0 ed 6e 09 c0 41 6a 38 c0 48 cd 9b 3f ed 0a 12 3f
       -2.1473954 -2.8814852 1.2172022 0.5704792
0000f0 3a 9b 4f 3f 7e cb 4a 40 fc a3 08 40 e7 5e 31 c0
       0.8109623 3.1686702 2.1350088 -2.7714174
000100 45 de 87 bf 94 fc fb be 99 72 95 be b9 29 74 3f
       -1.0614706 -0.4921614 -0.29188994 0.95376164
000110 01 11 bd bf a7 26 8c 3e 94 26 84 3f aa 7f 18 c0
       -1.4770814 0.2737324 1.0324273 -2.382792
000120 e7 9b 48 3f 89 67 9b bf 14 a7 5c c0 6c 30 27 c0
       0.7836289 -1.2140971 -3.4476976 -2.6123304
000130 30 27 2b 3f 93 9d 7a 3e 6c 03 d9 bf f9 87 a2 3e
       0.6685667 0.24474172 -1.6954169 0.31744364
000140 8a 4b 92 bf 03 70 c9 3e 54 63 07 bf 96 59 03 40
       -1.1429303 0.3934327 -0.5288594 2.052343
000150 fa 96 30 c0 41 8b 23 3f fa 3e 2d c0 03 d8 a4 bf
       -2.7592149 0.6388436 -2.7069688 -1.2878422
000160 98 55 49 3f b0 90 0e bf cc 21 27 3e e6 97 e8 be
       0.7864623 -0.55689526 0.16321486 -0.4542839
000170 09 69 a8 bf 53 9f 76 bf 93 59 74 3e f7 1f 69 bf
       -1.3157054 -0.9633686 0.23862295 -0.910644
000180 65 1f b2 bd a3 5d 3b c0 9f ae 89 be 09 55 4e c0
       -0.08697394 -2.9275901 -0.26891038 -3.2239401
000190 43 fc 2b 40 fd 99 82 bf b3 e4 a3 be b3 5b e4 bf
       2.6872718 -1.0203243 -0.3201042 -1.7840484
0001a0 76 77 ab bf 92 15 ef 3f 82 6d 59 3f 2b ae 1d 3f
       -1.3395832 1.8678458 0.8493272 0.61593884
0001b0 9f 27 92 be 14 a0 03 c0 5a a2 8a bf 54 f8 64 bf
       -0.28545853 -2.0566454 -1.0830796 -0.8944142
0001c0 f4 e2 82 bf 82 3b 7e 3f 76 37 b1 be f5 05 13 c0
       -1.0225511 0.9930955 -0.34612626 -2.2972386
0001d0 80 d3 1d c0 8a 9a 6f 3e f0 8b c6 3e 22 80 dd bf
       -2.466034 0.23398796 0.3877864 -1.7304728
0001e0 10 5e 13 40 05 ac b1 3f d2 d3 81 c0 16 7c 0c 40
       2.3026161 1.3880621 -4.057107 2.1950736
0001f0 3a 66 6e be 42 29 09 c0 d5 76 11 3f 41 f3 cb be
       -0.23281184 -2.1431432 0.5682195 -0.39834026
000200 cc d9 3a 40 7b 4e 07 bf 01 e8 64 c0 0e 4a 15 c0
       2.9195433 -0.52854127 -3.5766604 -2.332645
000210 8c ef b6 3f 98 58 03 bf 1b dc eb 3e a5 f6 bd bf
       1.4291854 -0.5130706 0.46066365 -1.4840895
000220 9a 89 0b 40 b0 3b 03 c0 e9 01 80 40 ac d3 44 3f
       2.1802735 -2.050518 4.000233 0.76885486
000230 0d 34 65 3e 82 2e 3a 40 7e 62 c4 3f 15 d8 28 bf
       0.22383137 2.9090886 1.5342557 -0.65954715
000240 89 5f 24 40 17 1e 8e 40 49 c2 0e c0 20 f5 52 3e
       2.568331 4.441173 -2.2306082 0.2060132
000250 4d 43 5d bf 6d b0 43 3e 47 66 0d 3f 81 6b 25 3f
       -0.8643082 0.1911027 0.5523419 0.6461716
000260 f1 42 51 3f 5f 01 0a bf 18 bb 80 3d 1b 47 e9 bf
       0.8174277 -0.5390834 0.06285685 -1.8224825
000270 b7 da 4a 3f f3 a4 4e 3f 52 a0 1b 40 85 d8 10 40
       0.7923998 0.8072044 2.4316602 2.2632153
000280 c1 e0 ea 3f 11 db ab bf 53 33 ae be 65 17 00 40
       1.834984 -1.3426229 -0.34023532 2.001428
000290 55 8b e5 3f 7c ea 7b be f0 9d a4 3f 11 26 8b 3e
       1.7933146 -0.24601167 1.2860699 0.2717748
0002a0 9b b9 ac be c8 e4 d5 3f 34 61 13 bf 0d ca f4 3f
       -0.33735356 1.6710443 -0.57570195 1.9124161
0002b0 17 89 4c 3f 56 a2 74 3d 17 bb 53 40 77 e4 23 c0
       0.7989668 0.059725128 3.308294 -2.5608194
0002c0 88 dc 08 c0 79 84 69 3e fc a5 c9 3e b0 0b 26 bf
       -2.1384602 0.2280444 0.3938445 -0.64861584
0002d0 9d 0d aa bf cc be 31 c0 df 70 a0 bf 3c ab f2 bf
       -1.3285404 -2.7772703 -1.2534446 -1.8958507
0002e0 b2 b2 cf be 11 e6 b6 3f 1f b6 9e bf 18 9b b5 bd
       -0.4056602 1.4288961 -1.2399329 -0.088674724
0002f0 b5 e8 fa bf 19 3f be bf 6c ec e6 3f 7f d7 19 3f
       -1.9602267 -1.4863006 1.80409 0.60094446
000300 37 49 5b be 71 c2 84 c0 a2 55 1e 3f c2 60 aa 40
       -0.21414648 -4.1487355 0.61849415 5.3243113
000310 16 61 4e bf 53 e9 0f c0 4b 0b b8 3f 2d b7 ee 3f
       -0.8061689 -2.248616 1.4378446 1.8649651
000320 e8 f3 90 bf b6 c0 52 3f d9 33 01 c0 48 58 4e 40
       -1.1324434 0.82325304 -2.0187895 3.2241383
000330 62 2b 81 bf 16 2d d7 3f 1c b5 2f c0 7e 54 2d bf
       -1.0091364 1.6810634 -2.745429 -0.6770705
000340 56 52 0f c0 97 ed 36 bf 3f de 19 c0 73 d1 ce 3d
       -2.2394004 -0.71456283 -2.4041898 0.10098543
000350 48 e2 aa 3f ac cf 85 bf 0e b8 ae 3f 83 4b 47 3f
       1.3350306 -1.0454001 1.3649919 0.77849597
000360 aa 9d 47 bf 11 a3 71 3e 81 8f e9 3f 82 20 53 c0
       -0.7797495 0.23597361 1.8246919 -3.2988591
000370 a7 ba f9 3e c7 a5 c1 bf 97 2f be 3f 0d 16 07 bf
       0.48775217 -1.5128716 1.4858273 -0.5276802
000380 ba e5 34 bf 0d 1e 0c 40 7f d6 7b be 99 19 88 bf
       -0.70663035 2.1893342 -0.24593543 -1.0632812
000390 73 05 ef be a5 ce 37 40 53 ac 09 c0 62 6e 47 40
       -0.46683845 2.8719876 -2.1511428 3.1161122
0003a0 7e 56 23 3f b0 c4 55 40 5f 02 cc bf 1b 4b de 3f
       0.6380385 3.3401299 -1.5938224 1.736667
0003b0 aa c1 21 c0 22 24 88 c0 32 5d e1 3f ed 50 2e bf
       -2.5274453 -4.2544107 1.7606566 -0.6809223
0003c0 5a 50 4a c0 ad fc e0 bf cd cb e8 bf 5a 10 07 c0
       -3.1611543 -1.757711 -1.8187195 -2.110373
0003d0 2a ee 68 bf bf 68 c4 bf 89 42 0a 40 f4 07 0e c0
       -0.9098841 -1.5344466 2.160311 -2.2192354
0003e0 03 3f 11 40 62 7e 7b bf f7 a8 a5 3e 94 4f 0f c0
       2.269471 -0.9823972 0.32355472 -2.239232
0003f0 f6 4f 46 bf 7e 5b 80 3f fb 04 28 c0 e2 fe cc 3e
       -0.7746576 1.0027921 -2.625304 0.4003821
