model/1715146453/1_Claranet_global_model_0.pth (torch, 331244 bytes, 17 tensors)

conv1.lin_l.weight f4 [16, 1]
-0.6334601 -0.013591274 -0.6871383 -0.65233713 -0.5012036 0.27993944 -0.83615214 -0.15056895
-0.63558716 0.08212799 -0.26635146 -0.87913233 0.053616654 -0.48561284 0.38817474 -0.4542189
00000000: 712a 22bf efad 5ebc 4ce8 2fbf 91ff 26bf
00000010: e14e 00bf 3954 8f3e 110e 56bf bf2e 1abe
00000020: d7b5 22bf b832 a83d 385f 88be d10e 61bf
00000030: 239d 5b3d 3fa2 f8be d7be c63e 618f e8be

conv1.lin_l.bias f4 [16]
-0.15507136 0.5927635 -1.0768453 0.3726072 0.44345948 -0.2818256 -0.8193007 0.39408466
0.66717523 -0.69913995 0.6323785 -0.94266516 0.50039494 -0.25876093 -0.39400074 -0.10611689
00000000: 07cb 1ebe 59bf 173f 11d6 89bf 5fc6 be3e
00000010: 1f0d e33e 724b 90be b1bd 51bf 77c5 c93e
00000020: ffcb 2a3f d6fa 32bf 8fe3 213f 8152 71bf
00000030: e219 003f 507c 84be 77ba c9be d053 d9bd

conv1.lin_r.weight f4 [16, 1]
-0.9989901 -0.50206953 0.18958247 -0.8566237 -0.32308248 0.58576983 -0.7200638 0.11811188
-0.48814818 -0.82075346 -0.8413419 0.106121056 -0.7644685 -0.7957745 -0.27085754 -0.05595827
00000000: d1bd 7fbf a187 00bf e821 423e b14b 5bbf
00000010: 116b a5be 03f5 153f 1a56 38bf a4e4 f13d
00000020: 8fee f9be e61c 52bf 2f62 57bf ff55 d93d
00000030: 35b4 43bf e1b7 4bbf d7ad 8abe 8034 65bd

conv2.lin_l.weight f4 [64, 16]
-0.08427752 0.13972233 -0.022549449 0.14020409 -0.03374723 -0.055180077 -0.14773536 0.097747445
0.12324976 0.04653376 -0.1315962 0.139912 0.076840706 0.16033377 -0.3813295 -0.18962981
0.1480342 -0.28883192 0.08040858 0.16936852 0.0704292 0.04922885 -0.07873035 -0.26323104
0.2099054 -0.26740977 -0.23672439 -0.076565914 -0.21981622 -0.1517396 -0.29915687 -0.11138856
-0.065386064 -0.089379 0.15643524 -0.013700932 0.005753547 -0.011797995 0.11052061 0.13994206
0.08933096 -0.09887492 -0.009987295 0.089914754 -0.06739383 -0.12970926 -0.29300785 -0.19611502
0.12121331 -0.22913621 -0.09821092 0.11344779 0.113770954 -0.28236416 0.01772046 -0.1546496
0.02331385 -0.35729486 0.15869428 -0.016463399 -0.33238885 0.18731068 0.104316235 -0.12437714
0.19085144 0.10846365 -0.18174323 0.08218747 -0.012930304 -0.21696448 0.17093396 -0.32568356
0.15620588 -0.2371266 0.24876404 -0.06270767 -0.15412737 -0.1592703 -0.31929728 -0.18094064
-0.19591497 -0.06981135 -0.259325 -0.11940432 0.23986913 -0.14378344 -0.10865724 -0.04183487
0.23855497 -0.2369151 0.15158366 -0.38082072 -0.33160284 0.02843234 -0.44977716 -0.12520814
-0.20645191 -0.079739995 -0.10667945 0.004837841 -0.20504381 -0.3071873 -0.1587062 -0.27389386
0.009573132 0.15350212 -0.19751789 0.16875878 0.17882584 0.24839424 -0.134773 0.027399033
0.111181386 -0.20473884 -0.11414968 -0.097934596 0.13935852 -0.13703729 -0.16741993 -0.28351447
-0.113164656 -0.02299315 -0.18451856 -0.25906822 -0.085006006 -0.099372394 -0.20080684 -0.14849283
-0.029346377 0.043157518 -0.12647535 -0.095003836 0.13184524 -0.1320071 -0.24537943 0.1186068
0.105291255 0.20759107 0.09570313 -0.006597042 0.0622561 0.20592095 -0.008379608 -0.15248157
-0.049477637 -0.1793975 0.07419603 0.07090462 -0.19846581 -0.22749378 -0.21685575 -0.11089038
0.03219682 0.10214985 -0.24110316 -0.30712107 0.09143699 0.23576213 0.11451446 0.03650093
-0.06437194 -0.024973124 0.13289477 0.14592363 -0.04820812 -0.20030116 -0.11584747 0.17298898
-0.1250887 0.06365787 0.10120583 -0.123205304 -0.1704525 0.21083735 0.17171898 -0.041475594
-0.19321682 -0.1736405 0.02870369 0.12421477 0.21798755 0.08939957 0.013853639 -0.15982212
0.14906956 0.0012194411 -0.23714946 -0.09423684 -0.0682329 0.017175764 -0.30933926 -0.19893457
-0.19601367 -0.13575982 -0.018996863 -0.12479221 0.2104211 -0.103215925 0.036284328 -0.1615362
-0.1274588 -0.085498884 0.13154529 0.037529085 0.1030687 0.052440528 0.14662467 0.02360183
-0.061128024 -0.1270461 -0.02851972 0.16082408 0.09554351 0.06826833 -0.16065454 0.024190394
0.1771233 0.13162471 -0.17394623 -0.08552777 0.022097407 -0.035605967 0.02255581 0.06701076
0.18925522 0.07930928 0.18195535 0.124269366 -0.211838 -0.13690604 0.21903539 -0.018795997
-0.13709913 0.23191331 0.028522909 -0.13677622 -0.21788834 -0.0069352686 0.06748044 -0.051966075
0.14522721 0.2730467 0.14030506 0.18289113 0.11888481 0.023815306 -0.015897036 0.013550519
-0.22296833 0.017018003 0.116096504 0.019065691 -0.008575677 0.09963585 0.05328292 0.0070189238
00000000: b199 acbd 5f13 0f3e 9fb9 b8bc a991 0f3e
00000010: 893a 0abd 8104 62bd f047 17be d02f c83d
00000020: 5f6a fc3d 2f9a 3e3d 27c1 06be 1745 0f3e
00000030: a95e 9d3d 892e 243e 9f3d c3be 512e 42be
00000040: 4796 173e c7e1 93be 41ad a43d f16e 2d3e
00000050: 2f3d 903d 31a4 493d 613d a1bd 38c6 86be
00000060: 71f1 563e efe9 88be e167 72be 97ce 9cbd
00000070: 8117 61be a061 1bbe 172b 99be af1f e4bd
00000080: 21e9 85bd 560c b7bd 8f30 203e e079 60bc
00000090: 4088 bc3b 614c 41bc a158 e23d f94c 0f3e
000000a0: 26f3 b63d ef7e cabd c0a1 23bc 3a25 b83d
000000b0: c705 8abd 81d2 04be 2005 96be 60d2 48be
000000c0: af3e f83d afa2 6abe cf22 c9bd 5157 e83d
000000d0: bf00 e93d 0992 90be 802a 913c 775c 1ebe
000000e0: b0fc be3c 5aef b6be c180 223e 40de 86bc
000000f0: df2e aabe 5fce 3f3e c0a3 d53d 71b9 febd
00000100: 8f6e 433e 3122 de3d e61a 3abe e751 a83d
00000110: a0d9 53bc f02b 5ebe 5009 2f3e ffbf a6be
00000120: 6ff4 1f3e 51d1 72be 00bc 7e3e e16c 80bd
00000130: 91d3 1dbe c117 23be ef7a a3be 8148 39be
00000140: ef9d 48be 41f9 8ebd 3fc6 84be 418a f4bd
00000150: 41a0 753e f73b 13be b087 debd 0a5b 2bbd
00000160: c147 743e df99 72be bf38 1b3e effa c2be
00000170: d9c7 a9be f0ea e83c 3149 e6be 9036 00be
00000180: 2168 53be b94e a3bd c17a dabd c086 9e3b
00000190: 01f7 51be a747 9dbe e183 22be d13b 8cbe
000001a0: a0d8 1c3c a92f 1d3e 2142 4abe 1acf 2c3e
000001b0: 1f1e 373e 0f5b 7e3e ef01 0abe f073 e03c
000001c0: 11b3 e33d 0fa7 51be 4fc7 e9bd ef91 c8bd
000001d0: 00b4 0e3e 8153 0cbe 2170 2bbe cf28 91be
000001e0: dfc2 e7bd 215c bcbc 6ff2 3cbe 97a4 84be
000001f0: a117 aebd c183 cbbd 4fa0 4dbe 810e 18be
00000200: d067 f0bc f0c5 303d c182 01be 5f91 c2bd
00000210: 7002 073e df2c 07be bf44 7bbe 1fe8 f23d
00000220: f1a2 d73d c192 543e 0100 c43d 002c d8bb
00000230: 4100 7f3d f1dc 523e a04a 09bc 2124 1cbe
00000240: 10a9 4abd fab3 37be 17f4 973d 7136 913d
00000250: 9f3a 4bbe 21f4 68be 6f0f 5ebe 7f1a e3bd
00000260: d0e0 033d f133 d13d bfe3 76be f93e 9dbe
00000270: 5143 bb3d a16b 713e 8f86 ea3d 0082 153d
00000280: 70d5 83bd 7094 ccbc 9115 083e 016d 153e
00000290: e175 45bd bf1b 4dbe 7041 edbd 0624 313e
000002a0: 4117 00be 0f5f 823d 0145 cf3d 1053 fcbd
000002b0: 1a8b 2ebe bfe5 573e 1ad7 2f3e 50e2 29bd
000002c0: a1da 45be d1ce 31be 0024 eb3c 5064 fe3d
000002d0: 2138 5f3e 1f17 b73d 60fa 623c 69a8 23be
000002e0: b1a5 183e a7d5 9f3a 4fd7 72be 3fff c0bd
000002f0: b1bd 8bbd 30b4 8c3c b761 9ebe 81b5 4bbe
00000300: cfb7 48be 9f04 0bbe 4f9f 9bbc 0f93 ffbd
00000310: a178 573e df62 d3bd e09e 143d bf69 25be
00000320: 8f84 02be 0a1a afbd cfb3 063e 19b8 193d
00000330: af15 d33d e1cb 563d c724 163e a058 c13c
00000340: 6161 7abd 5f18 02be 30a2 e9bc 11af 243e
00000350: 51ac c33d 44d0 8b3d a082 24be ef2a c63c
00000360: cf5f 353e a1c8 063e f61e 32be 2f29 afbd
00000370: 9f05 b53c 90d7 11bd f6c6 b83c f03c 893d
00000380: 1fcc 413e e76c a23d 8152 3a3e f080 fe3d
00000390: 10ec 58be 1931 0cbe d04a 603e 10fa 99bc
000003a0: b763 0cbe af7a 6d3e e0a8 e93c 110f 0cbe
000003b0: 1f1e 5fbe 4041 e3bb 2f33 8a3d 61da 54bd
000003c0: 71b6 143e c7cc 8b3e 21ac 0f3e d047 3b3e
000003d0: e179 f33d 5118 c33c 803a 82bc ff02 5e3c
000003e0: cf51 64be 5769 8b3c 01c4 ed3d a72f 9c3c
000003f0: ff80 0cbc e10d cc3d 313f 5a3d 00ff e53b

conv2.lin_l.bias f4 [64]
-0.07368202 -0.121060126 -0.32951334 -0.36612275 -0.10823833 -0.3478665 0.16931699 0.05007839
0.050987124 -0.2024424 0.050680697 0.03352082 0.12658857 0.02023096 -0.20958589 -0.24021791
-0.07744103 -0.23096941 -0.29277515 -0.3042855 -0.23596026 0.084446624 -0.100493915 -0.055334207
0.17142597 -0.15399958 0.1272881 -0.09868837 -0.2660024 0.084032886 -0.29004958 -0.43923905
-0.21321772 0.1966903 -0.1092192 -0.16446267 -0.30353925 0.15746655 0.17237067 0.11153853
-0.03957429 -0.10709094 -0.008297317 -0.14685978 -0.11281205 -0.025373818 -0.20380558 -0.3879814
-0.31628916 -0.35442752 0.035104994 -0.20995952 -0.08405436 -0.08302813 0.15187548 0.089313075
-0.34455684 0.18843724 -0.122067444 -0.18227623 0.090642564 0.07788289 0.15250824 0.018249111
00000000: 99e6 96bd 5fee f7bd f9b5 a8be 7174 bbbe
00000010: 0fac ddbd 8f1b b2be 6f61 2d3e ff1e 4d3d
00000020: e0d7 503d 0f4d 4fbe 9096 4f3d 214d 093d
00000030: 6fa0 013e 66bb a53c af9d 56be affb 75be
00000040: 6799 9ebd 3f83 6cbe a0e6 95be 4fcb 9bbe
00000050: 919f 71be 5af2 ac3d c1cf cdbd 1fa6 62bd
00000060: 4a8a 2f3e 11b2 1dbe d057 023e 211d cabd
00000070: 7731 88be 6f19 ac3d 6181 94be f1e3 e0be
00000080: bf55 5abe 2f69 493e 51ae dfbd e768 28be
00000090: 7f69 9bbe e93e 213e f081 303e 506e e43d
000000a0: a718 22bd 7f52 dbbd 78f1 07bc 6962 16be
000000b0: 010a e7bd c1dc cfbc 69b2 50be 80a5 c6be
000000c0: a7f0 a1be 8677 b5be 41ca 0f3d a1ff 56be
000000d0: b124 acbd a70a aabd 3f85 1b3e c6e9 b63d
000000e0: c169 b0be b1f5 403e 7ffe f9bd 9fa6 3abe
000000f0: cfa2 b93d 1181 9f3d 1f2b 1c3e 297f 953c

conv2.lin_r.weight f4 [64, 16]
-0.15914464 0.09569944 -0.29492232 0.08150221 -0.14393352 0.06429934 0.16218267 -0.19962095
-0.13148735 0.12519585 -0.08961634 -0.16177581 -0.15853284 -0.17683926 -0.13480772 0.12976836
-0.03512788 -0.26067355 -0.28269985 0.016950905 0.13161612 -0.15129851 -0.1640463 0.019991366
0.16579674 -0.10461975 -0.097168215 0.037211094 -0.26647612 -0.16072772 0.06824046 0.13796593
0.11234332 0.1638477 0.18738987 0.12603976 0.15632416 -0.0067381565 0.06500864 -0.061028603
0.18393923 -0.0988135 -0.22260952 0.2411096 0.2143972 -0.19642662 -0.094525814 -0.21935509
0.04707277 0.059509397 -0.099107735 -0.05082273 0.09323705 0.0067165424 0.21357013 -0.30115417
0.19286084 -0.23743774 -0.07338356 0.108274944 -0.025195748 0.05173767 -0.13611434 -0.080021985
0.021430492 0.03364086 -0.23577596 -0.043512963 0.11712659 0.10406064 -0.13533343 0.030973164
0.0035090148 0.0103414515 0.0671429 0.08450191 0.08100503 -0.23610924 -0.0442853 0.06781375
-0.13473772 -0.5273723 -0.13930084 0.04820216 0.033332556 -0.28715852 0.16214776 -0.5091706
-0.15232836 -0.51057917 -0.24402308 -0.36275977 -0.43875358 -0.12843753 -0.19127752 -0.108742476
-0.07652218 -0.22559713 -0.1032405 0.15365492 0.1879382 0.11683632 -0.07336862 0.13471581
-0.15801631 -0.036818262 0.21052264 -0.22056602 0.103724964 0.00067058206 0.0067096422 -0.22981642
0.23275949 -0.28128102 -0.2382076 -0.09475852 -0.062386036 0.02600011 -0.053956512 0.13967548
-0.23725413 0.1214261 -0.19835661 0.21396829 -0.24519633 0.028803706 -0.054090854 -0.110080354
0.09268642 0.21994282 -0.06071997 -0.17912124 -0.13583682 -0.113143325 0.13043965 -0.2024877
0.18257235 0.07981425 0.07532007 -0.17616437 -0.11230218 -0.14883329 0.10649682 0.10548437
0.18600965 -0.0029749533 0.057586614 0.062264264 -0.054846823 0.039448623 -0.17586206 -0.22768901
0.04490602 -0.016141117 0.024757862 -0.008615897 -0.18794678 -0.10040354 -0.12114037 -0.035085354
-0.088095896 0.19744705 0.14986204 -0.23460771 0.09401845 -0.21550323 0.08739698 -0.24280857
0.035067353 -0.15115665 0.24661541 -0.21980856 -0.12346221 0.23569776 -0.048575994 0.24422027
-0.054732922 0.1378286 -0.24341036 0.043082118 0.065488696 -0.06251847 -0.124089606 -0.23221205
0.11020423 -0.085594304 0.17237559 0.17958131 0.15087937 0.073818445 -0.1911733 0.175004
-0.18433382 -0.01125601 -0.089411095 0.15148401 0.154119 -0.18347834 0.1608635 0.093133695
0.08089625 -0.120275386 -0.15546606 -0.23000287 -0.17848085 -0.20504497 0.02491963 0.17866252
0.2208526 -0.13806438 -0.12765025 0.22004937 0.023060888 -0.06675032 0.12523174 -0.19295943
-0.17306496 -0.14189361 -0.09462046 0.06846351 -0.12759946 0.24619077 -0.20057465 -0.14212298
0.17519912 0.23888494 -0.23299576 -0.19454144 -0.12575255 -0.09635068 -0.21328545 0.1030562
0.07141178 0.07568097 0.053414166 0.22747447 -0.072633915 -0.17538533 0.047666077 0.15018272
-0.2201817 -0.07113277 -0.0023417508 0.055940393 -0.01831907 -0.07626795 0.003506571 0.052552406
-0.03501141 -0.09791266 0.11071993 0.04871613 0.19967078 0.07268071 -0.13625433 -0.087154746
00000000: d0f6 22be 11fe c33d 0f00 97be a1ea a63d
00000010: 4f63 13be 5faf 833d 3713 263e 6f69 4cbe
00000020: 9fa4 06be 5733 003e c688 b7bd 8fa8 25be
00000030: 6f56 22be 5a15 35be 090b 0abe ffe1 043e
00000040: 40e2 0fbd 0177 85be 09be 90be a0dc 8a3c
00000050: 60c6 063e ffed 1abe c1fb 27be efc4 a33c
00000060: 9fc6 293e e142 d6bd 2100 c7bd a96a 183d
00000070: 8f6f 88be cf95 24be a7c1 8b3d f146 0d3e
00000080: 4114 e63d b1c7 273e 21e3 3f3e 9110 013e
00000090: 7113 203e c1cb dcbb 4023 853d 21f9 79bd
000000a0: 915a 3c3e bb5e cabd c0f3 63be 6fe5 763e
000000b0: f18a 5b3e 0f24 49be c096 c1bd 9f9e 60be
000000c0: 60cf 403d 20c0 733d fff8 cabd 7f2b 50bd
000000d0: 11f3 be3d 7116 dc3b 21b2 5a3e e130 9abe
000000e0: 507d 453e e122 73be 1f4a 96bd 41bf dd3d
000000f0: 5067 cebc e1ea 533d 8f61 0bbe 91e2 a3bd
00000100: 008f af3c 00cb 093d 416f 71be a63a 32bd
00000110: 11e0 ef3d bf1d d53d d994 0abe 6fbb fd3c
00000120: 80f7 653b 316f 293c 3782 893d 560f ad3d
00000130: f7e5 a53d 9fc6 71be 8164 35bd efe1 8a3d
00000140: aff8 09be df01 07bf e1a4 0ebe a16f 453d
00000150: b887 083d 7106 93be 100a 263e 0159 02bf
00000160: f7fb 1bbe 51b5 02bf 30e1 79be a6bb b9be
00000170: 4fa4 e0be 2185 03be 41de 43be 60b4 debd
00000180: a9b7 9cbd ef02 67be c16f d3bd b757 1d3e
00000190: df72 403e e147 ef3d 4942 96bd f1f2 093e
000001a0: 07cf 21be bfce 16bd 3f93 573e 0fdc 61be
000001b0: c16d d43d 00ca 2f3a 8fdc db3b ff54 6bbe
000001c0: 8158 6e3e 1104 90be b1ec 73be c110 c2bd
000001d0: 8088 7fbd 2ffe d43c 8101 5dbd 1707 0f3e
000001e0: bff2 72be 3fae f83d ff1d 4bbe 811a 5b3e
000001f0: bf14 7bbe c0f5 eb3c 5f8e 5dbd cf71 e1bd
00000200: 61d2 bd3d b138 613e 81b5 78bd 8f6b 37be
00000210: cf18 0bbe b0b7 e7bd f991 053e f058 4fbe
00000220: 3ff4 3a3e a775 a33d 6941 9a3d 6f64 34be
00000230: affe e5bd c167 18be 011b da3d 3008 d83d
00000240: 5079 3e3e 6ff7 42bb f1df 6b3d d008 7f3d
00000250: 10a7 60bd e194 213d 2f15 34be 4f27 69be
00000260: 60ef 373d 603a 84bc 00d1 ca3c b129 0dbc
00000270: 1f75 40be 5fa0 cdbd 7118 f8bd a9b5 0fbd
00000280: 9f6b b4bd 8f2f 4a3e 6f75 193e 013d 70be
00000290: bf8c c03d e1ac 5cbe 30fd b23d cfa2 78be
000002a0: c9a2 0f3d cfc8 1abe c088 7c3e 7f15 61be
000002b0: c1d9 fcbd c15a 713e 9ff7 46bd e114 7a3e
000002c0: a12f 60bd f122 0d3e 9140 79be e076 303d
000002d0: f01e 863d af09 80bd b122 febd ffc8 6dbe
000002e0: c1b2 e13d 114c afbd 3a83 303e 2ae4 373e
000002f0: 1f80 1a3e 202e 973d efc2 43be 4034 333e
00000300: 01c2 3cbe 216b 38bc 2a1d b7bd a01e 1b3e
00000310: 5fd1 1d3e bfe1 3bbe 67b9 243e e1bc be3d
00000320: efac a53d f152 f6bd 7f32 1fbe df85 6bbe
00000330: afc3 36be 4ff7 51be 4024 cc3c 4ff3 363e
00000340: 2f27 623e c060 0dbe bfb6 02be 9f54 613e
00000350: 30ea bc3c 64b4 88bd c03c 003e 2897 45be
00000360: f137 31be 8f4c 11be 5fc8 c1bd 9936 8c3d
00000370: 6fa9 02be 6f19 7c3e 7163 4dbe b088 11be
00000380: 6667 333e 419e 743e 7196 6ebe df35 47be
00000390: 47c5 00be 8153 c5bd 8067 5abe 210f d33d
000003a0: 5740 923d a0fe 9a3d d0c8 5a3d 11ef 683e
000003b0: 17c1 94bd 3698 33be 813d 433d 80c9 193e
000003c0: 5077 61be 0fae 91bd 0f78 19bb c121 653d
000003d0: e011 96bc 5f32 9cbd 80ce 653b 3141 573d
000003e0: 2068 0fbd 6f86 c8bd 21c1 e23d 918a 473d
000003f0: 7f76 4c3e a0d9 943d 4186 0bbe 307e b2bd

lstm_cell.weight_ih f4 [256, 192]
0.12534903 0.18456721 -0.0736909 0.018706338 0.041312728 -0.18085107 0.048678514 0.068061285
-0.103556864 -0.023078708 0.08786325 0.14156522 0.13649367 0.19161803 0.0053974986 -0.20258762
0.03816196 0.1679957 -0.0119259795 0.13008295 0.109715946 0.01020229 0.042368017 0.059023377
-0.035809636 0.123235695 0.11657382 0.17644587 -0.046765033 -0.35886762 0.19198583 -0.048709575
-0.011501595 0.1821027 -0.1975012 0.15805663 0.016428234 -0.12411059 0.04071402 -0.03495821
-0.14021228 0.10068512 0.09762906 0.13591494 0.20218422 -0.0110847065 0.08363603 -0.046352684
-0.00071078906 -0.012763545 -0.041017175 0.10591804 0.08288229 0.15472923 0.19670223 -0.00056573056
0.11738253 0.16470505 -0.0013483876 0.21395017 0.1520245 0.11589742 -0.05456811 0.074050196
-1.0357271 3.390521 2.6476007 2.835065 2.2848947 5.7083015 7.1863685 -0.08664241
5.6831703 7.5996327 7.514738 6.6196465 6.360307 6.743222 8.781668 7.654516
7.909252 6.795563 7.472621 7.4184127 7.4140463 0.08516857 8.374583 5.329323
7.1851215 7.1807046 7.003889 8.087364 7.3191266 -0.001705146 0.05119954 0.06754045
-0.045647778 -0.10971392 0.018797183 0.011667554 0.052122895 0.041533474 -0.15045811 0.004586354
0.070724495 -0.0077503175 -0.11703991 -0.11218978 0.0036095977 -0.031835973 0.014470324 -0.052089453
-0.074002504 0.032598253 -0.030691087 0.00450933 -0.012902945 -0.081078045 -0.086498305 -0.12036837
0.097165935 0.011496246 -0.08970933 0.11344337 -0.085067265 -0.112537496 0.04763532 -0.07064635
-0.031100394 1.9850005 1.2790977 -0.4711028 -0.5404608 2.3235025 0.10373878 3.3554015
6.6504397 5.8362236 -0.095596544 7.3836775 7.717582 7.776685 0.09918881 8.382489
9.069244 8.035747 7.569788 7.17341 6.881683 6.461947 0.011384348 8.277317
6.455131 3.4967306 0.052200306 7.017243 4.1416564 8.60624 0.11037939 0.05507091
0.053235713 0.077778414 -0.13353519 -0.06607802 -0.10893511 -0.10927307 -0.05493092 -0.115649216
0.04926544 0.114358656 0.07089233 -0.04026675 -0.031795565 0.053090457 0.089297764 -0.09574664
-0.081528254 -0.04629856 -0.069802456 0.04217019 -0.12133003 0.090500474 -0.0029143244 0.111027606
0.040096227 -0.06411386 -0.035287857 -0.0840538 0.038638446 -0.082351096 0.1183138 0.08915006
0.046630856 0.03918993 0.55455154 0.101315506 0.087193295 -0.14309873 -0.013503597 0.030439107
-0.013762906 -0.027525486 0.122755535 0.0066912402 -0.034619477 0.3869511 -0.08205693 0.59261805
0.01701294 0.052489165 -0.03143919 0.12267994 0.18529151 0.07984924 -0.050017837 0.17486224
0.06219375 0.054746088 0.00871782 0.29642108 -0.008543038 0.70130926 0.58081204 0.04127935
0.06656312 -0.052273747 0.83819395 -0.043576594 -0.048792478 0.1082189 -0.026499212 0.01592432
0.67901707 0.024303854 0.7672071 0.12856509 0.3545882 0.13093008 0.043598883 0.07808047
-0.08460092 0.03629664 0.35667273 -0.16726206 -0.093719356 -0.07354302 0.12102903 0.026207538
-0.07795625 0.1361245 0.15809919 0.055046912 0.051229235 -0.055189844 -0.028061448 0.03206295
00000000: 7f5b 003e 30ff 3c3e 41eb 96bd 093e 993c
00000010: 8937 293d 0631 39be 1f63 473d b763 8b3d
00000020: 9f15 d4bd 8f0f bdbc a6f1 b33d 79f6 103e
00000030: ffc4 0b3e 8437 443e 80dd b03b 2173 4fbe
00000040: b74f 1c3d 1107 2c3e 2f65 43bc 7734 053e
00000050: c1b2 e03d 8127 273c 168a 2d3d 7fc2 713d
00000060: 20ad 12bd ff62 fc3d 41be ee3d 3aae 343e
00000070: b18c 3fbd 7fbd b7be ef97 443e b183 47bd
00000080: 3071 3cbc 2179 3a3e c13d 4abe 99d9 213e
00000090: 8194 863c b12d febd bfc3 263d 5730 0fbd
000000a0: cf93 0fbe 0034 ce3d bff1 c73d 492d 0b3e
000000b0: 6109 4f3e a19c 35bc 5e49 ab3d 50dc 3dbd
000000c0: 3f54 3aba 301e 51bc a001 28bd 8feb d83d
000000d0: 31be a93d 5771 1e3e 4f6c 493e 894d 14ba
000000e0: 4066 f03d 71a8 283e 61bc b0ba c115 5b3e
000000f0: 4fac 1b3e a05b ed3d cf82 5fbd a1a7 973d
00000100: b592 84bf 4cfe 5840 4a72 2940 b471 3540
00000110: b73b 1240 68aa b640 bbf6 e540 9371 b1bd
00000120: 88dc b540 3130 f340 bc78 f040 25d4 d340
00000130: a387 cb40 7ac8 d740 b681 0c41 ccf1 f440
00000140: 9818 fd40 4175 d940 b61f ef40 a363 ed40
00000150: de3f ed40 dc6c ae3d 4bfe 0541 d089 aa40
00000160: 84ec e540 55c8 e540 dc1f e040 d865 0141
00000170: 4936 ea40 357f dfba 9cb6 513d a652 8a3d
00000180: 2af9 3abd b1b1 e0bd 8dfc 993c 4529 3f3c
00000190: d17e 553d 011f 2a3d b111 1abe 2049 963b
000001a0: 01d8 903d 60f6 fdbb 9fb2 efbd c1c3 e5bd
000001b0: 008f 6c3b 7066 02bd f014 6d3c c05b 55bd
000001c0: a08e 97bd bf85 053d e06b fbbc 00c3 933b
000001d0: e066 53bc 3f0c a6bd 0626 b1bd b183 f6bd
000001e0: effe c63d c05a 3c3c 86b9 b7bd ff54 e83d
000001f0: bf37 aebd 0f7a e6bd 411d 433d 09af 90bd
00000200: 41c6 febc 7f14 fe3f 79b9 a33f 6334 f1be
00000210: a45b 0abf 44b4 1440 ff74 d43d e6be 5640
00000220: 67d0 d440 58c2 ba40 1fc8 c3bd 1647 ec40
00000230: 6ff6 f640 9bda f840 8123 cb3d ad1e 0641
00000240: a01b 1141 6b92 0041 b43b f240 938c e540
00000250: bf36 dc40 45c8 ce40 6b85 3a3c e46f 0441
00000260: 6f90 ce40 6fca 5f40 fdcf 553d 418d e040
00000270: 7388 8440 29b3 0941 970e e23d 0992 613d
00000280: b10d 5a3d 4a4a 9f3d 73bd 08be ea53 87bd
00000290: 5f19 dfbd 8fca dfbd 3fff 60bd 7fd9 ecbd
000002a0: 8fca 493d df34 ea3d ff2f 913d bfee 24bd
000002b0: 113c 02bd 6175 593d bfe1 b63d d016 c4bd
000002c0: 49f8 a6bd 8fa3 3dbd 97f4 8ebd a6ba 2c3d
000002d0: e17b f8bd 5058 b93d 40fe 3ebb 7162 e33d
000002e0: f13b 243d 214e 83bd 008a 10bd 6624 acbd
000002f0: 5943 1e3d b1a7 a8bd 814e f23d 4f94 b63d
00000300: ffff 3e3d 9f85 203d 17f7 0d3f 817e cf3d
00000310: 6692 b23d 7988 12be 313e 5dbc 6f5b f93c
00000320: d07d 61bc 217d e1bc 4167 fb3d 3142 db3b
00000330: 27cd 0dbd 741e c63e 770d a8bd d1b5 173f
00000340: b95e 8b3c e1fe 563d 61c6 00bd 9f3f fb3d
00000350: 0fbd 3d3e 0088 a33d 81df 4cbd 160f 333e
00000360: e0be 7e3d 6f3d 603d 30d5 0e3c 81c4 973e
00000370: 19f8 0bbc 0189 333f 19b0 143f 8914 293d
00000380: 3f52 883d ff1c 56bd e193 563f 5f7d 32bd
00000390: 9fda 47bd dfa1 dd3d e014 d9bc b873 823c
000003a0: 10d4 2d3f e018 c73c af67 443f 91a6 033e
000003b0: 968c b53e 8912 063e be94 323d a7e8 9f3d
000003c0: 3f43 adbd c9ab 143d cf9d b63e bf46 2bbe
000003d0: efef bfbd b99d 96bd 11de f73d 31b1 d63c
000003e0: 87a7 9fbd 3964 0b3e c1e4 213e df78 613d
000003f0: bfd5 513d bf0e 62bd 1fe1 e5bc 7154 033d

lstm_cell.weight_hh f4 [256, 64]
0.45295626 0.37854415 1.0707961 -4.181863 1.3341857 -2.8229132 -2.3971179 2.4324188
3.4811757 0.78012186 0.44293463 -1.2776529 -0.039100744 -1.4495437 -1.8498108 -0.22019188
-0.8059519 0.6080912 -3.132439 -1.5399277 -0.051858637 2.5859694 2.5221107 -0.7757196
0.51634026 2.5204422 -2.4605255 0.9032357 -0.1743634 -2.9098206 -1.9216361 0.10159145
1.17949 -1.9532447 -0.40093535 0.9268817 2.4381208 -1.3899035 0.21151105 -2.2576811
1.2414645 -0.093837604 -2.783826 -1.1594644 -1.241011 -1.850413 0.5633996 1.5719132
0.4624452 2.08395 -1.997662 0.7026197 1.4725108 1.5519024 -2.377231 3.047174
1.3016671 -2.3572083 0.9284397 0.30194283 2.839375 1.2751722 0.48183116 2.8555334
0.4334058 -0.46566564 0.03153544 0.3210097 -2.2269752 -2.7476676 0.5604256 0.3492229
-2.0854042 -1.0978247 -0.6337078 -0.634285 -1.0157235 -0.5452249 -0.20884985 2.7419045
-0.57534933 -0.9974442 -0.8155941 -2.3703303 -0.7105483 1.828245 0.35011828 0.9139822
1.1661278 -0.273238 -2.325382 -3.8715882 -0.77188706 -0.33016694 -2.188296 -0.9496824
0.17658043 1.530518 -3.6362822 2.0995476 1.6302154 -0.42530268 -0.0660919 2.9400463
-1.087394 -0.8281694 4.5928044 0.65590495 -1.5576217 -0.32097805 -1.4464283 -0.8308826
4.0151014 -2.0184348 1.2489961 -2.1599302 0.21109404 -0.1757707 -3.2157638 -0.12640384
-0.10660046 -1.8430641 1.7610692 0.60165477 1.631909 -1.1627182 0.112823136 -1.9402844
2.6594222 0.9902996 0.37031224 0.43731022 4.4155073 0.33162153 0.30591357 -1.9296854
2.101122 -2.4197545 1.6897005 0.028987562 -0.11268808 -1.3257995 -1.9085321 -0.6438909
1.5662239 0.675251 -0.5026243 -1.9467754 3.8079631 0.48883805 1.4448144 1.544083
0.6321798 1.4471527 1.6512525 -0.35316736 -2.0029993 2.5402117 0.87998486 1.0984738
1.5392513 -1.511472 -0.072982594 -0.9515388 1.8001182 1.922166 1.2510911 2.5123887
-2.220462 -0.49337807 -2.4119284 -0.47979024 1.8240297 -3.184737 0.8195181 1.0991786
0.19645505 -4.3455153 0.88941973 0.9205919 -3.896232 1.122708 0.8265474 1.1290756
1.7306845 0.28068322 -0.8271776 0.976445 2.9488447 -1.2268505 -0.45623806 -1.5795503
-1.6346378 0.98890555 -0.28630808 0.16641709 -0.6994154 0.17949863 -0.9672901 -1.8771777
-3.1808646 1.7089822 -1.5896504 -1.1939489 0.99081326 -0.7639386 0.19345687 -0.2650986
0.10921704 1.973957 1.8951114 -0.06665756 -1.0542204 -0.5804171 0.113662064 0.35162297
2.845633 -0.004014868 0.60423094 2.6199532 2.4591742 1.4567193 -0.09640168 -4.7106414
-1.7954112 -0.88371474 1.2480718 0.45162722 1.3727747 -0.30613142 2.5925004 0.738858
-0.18433654 2.8361418 -2.9529479 -2.8745468 2.0530138 -0.3692893 2.757724 0.7890084
2.6429498 0.03236429 -0.5810236 0.4444595 0.030821016 -0.78512865 0.29180464 -2.39614
-0.32782915 2.039505 -3.2481542 -0.46931264 -1.2349403 -1.1061422 0.5183763 -2.5633707
00000000: e2e9 e73e 8ad0 c13e d90f 893f d2d1 85c0
00000010: 99c6 aa3f 9caa 34c0 616a 19c0 c0ac 1b40
00000020: 95cb 5e40 11b6 473f 54c8 e23e 218a a3bf
00000030: 1a28 20bd a68a b9bf 9ac6 ecbf fb79 61be
00000040: dd52 4ebf ddab 1b3f e179 48c0 5a1c c5bf
00000050: b969 54bd 8680 2540 436a 2140 8f95 46bf
00000060: e02e 043f ed4e 2140 4079 1dc0 743a 673f
00000070: 528c 32be 803a 3ac0 2cf8 f5bf 2e0f d03d
00000080: 87f9 963f ec03 fabf 6647 cdbe 1e48 6d3f
00000090: 2c0a 1c40 5ce8 b1bf 5a96 583e d97d 10c0
000000a0: 4fe8 9e3f ee2d c0bd 352a 32c0 5469 94bf
000000b0: 73d9 9ebf 55da ecbf f53a 103f 7434 c93f
000000c0: 9ec5 ec3e 705f 0540 63b3 ffbf e2de 333f
000000d0: 3c7b bc3f bda4 c63f 8d24 18c0 e604 4340
000000e0: 079d a63f 80dc 16c0 39ae 6d3f 4098 9a3e
000000f0: 52b8 3540 d838 a33f 93b2 f63e 0fc1 3640
00000100: 5de7 dd3e ba6b eebe 4e2b 013d 625b a43e
00000110: c386 0ec0 c9d9 2fc0 0d78 0f3f 58cd b23e
00000120: 4377 05c0 8585 8cbf ad3a 22bf 8060 22bf
00000130: 3a03 82bf dc93 0bbf bcdc 55be 5d7b 2f40
00000140: 184a 13bf 8158 7fbf c6ca 50bf 7eb3 17c0
00000150: 7ee6 35bf ef03 ea3f b442 b33e bdfa 693f
00000160: ad43 953f dae5 8bbe 0fd3 14c0 1ac8 77c0
00000170: 649a 45bf a40b a9be 0b0d 0cc0 631e 73bf
00000180: 80d1 343e 04e8 c33f d9b8 68c0 fd5e 0640
00000190: e6aa d03f 46c1 d9be 315b 87bd b829 3c40
000001a0: ba2f 8bbf e902 54bf 41f8 9240 63e9 273f
000001b0: 2660 c7bf 3c57 a4be 9024 b9bf b9b4 54bf
000001c0: b67b 8040 092e 01c0 1bdf 9f3f 4c3c 0ac0
000001d0: 0929 583e 3cfd 33be 13cf 4dc0 0270 01be
000001e0: 5851 dabd 86e9 ebbf b76a e13f 0c06 1a3f
000001f0: 65e2 d03f f3d3 94bf d10f e73d 3d5b f8bf
00000200: f933 2a40 4684 7d3f 9199 bd3e 20e7 df3e
00000210: d64b 8d40 4cca a93e b4a0 9c3e eeff f6bf
00000220: c878 0640 42dd 1ac0 1b48 d83f 5377 ed3c
00000230: 02c9 e6bd ccb3 a9bf c84a f4bf 09d6 24bf
00000240: 067a c83f 40dd 2c3f fcab 00bf f02f f9bf
00000250: abb5 7340 fb48 fa3e aeef b83f 83a4 c53f
00000260: 89d6 213f 4d3c b93f 3e5c d33f 5ad2 b4be
00000270: 2431 00c0 d492 2240 b046 613f ca9a 8c3f
00000280: 3006 c53f ea77 c1bf e677 95bd 0c98 73bf
00000290: 466a e63f 8909 f63f c123 a03f faca 2040
000002a0: 0d1c 0ec0 0d9c fcbe 095d 1ac0 11a7 f5be
000002b0: ce79 e93f bbd2 4bc0 f0cb 513f e2b1 8c3f
000002c0: 832b 493e 760e 8bc0 03b1 633f e9ab 6b3f
000002d0: dd5b 79c0 e5b4 8f3f 9c98 533f 8d85 903f
000002e0: 1287 dd3f b6b5 8f3e e9c1 53bf 4df8 793f
000002f0: dfb9 3c40 7009 9dbf 0998 e9be b42e cabf
00000300: d03b d1bf ea28 7d3f f996 92be 3e69 2a3e
00000310: e30c 33bf 7dce 373e 53a0 77bf 5c47 f0bf
00000320: 4993 4bc0 eebf da3f aa79 cbbf 51d3 98bf
00000330: f0a5 7d3f 7b91 43bf 8f19 463e 01bb 87be
00000340: 2fad df3d 9faa fc3f 0393 f23f c283 88bd
00000350: b2f0 86bf 3796 14bf a8c7 e83d ed07 b43e
00000360: da1e 3640 278f 83bb e1ae 1a3f 50ad 2740
00000370: 1c63 1d40 c775 ba3f 3e6e c5bd 93bd 96c0
00000380: 09d0 e5bf 213b 62bf d1c0 9f3f af3b e73e
00000390: 15b7 af3f 42bd 9cbe 87eb 2540 cc25 3d3f
000003a0: b8c2 3cbe 5983 3540 19fd 3cc0 93f8 37c0
000003b0: 9464 0340 7d13 bdbe 8d7e 3040 74fc 493f
000003c0: 1726 2940 6b90 043d f6bd 14bf 3290 e33e
000003d0: 5b7c fc3c 31fe 48bf 6b67 953e 5c5a 19c0
000003e0: 39d9 a7be 4087 0240 c2e1 4fc0 bf49 f0be
000003f0: 8612 9ebf 1196 8dbf 4fb4 043f 440e 24c0

lstm_cell.bias_ih f4 [256]
-1.2886177 1.6819494 0.59105694 3.203886 2.9727807 3.2654696 1.0333124 2.6272407
0.7008193 0.6737085 3.1911364 2.1278002 -3.8245966 0.036114406 -3.0129647 0.06214656
2.905128 -2.3201098 -2.7700756 0.840867 -1.4566318 -4.048825 -1.6208584 0.34300476
1.7684135 -1.125683 0.82036537 1.1235892 -0.7100835 2.4455707 2.430134 0.26505372
1.6323725 1.8361399 -0.54666036 -1.2526838 -0.6385649 1.3860836 -0.23854622 1.6425204
0.48152658 0.8193981 0.70158756 -1.457008 -4.8010716 -1.7040869 0.7677613 -0.038121346
-4.3892965 -2.1363692 -2.9034252 0.61581653 -2.4546776 -1.8256887 -0.16587824 -0.15254863
-2.2083464 -2.9955487 1.260666 0.68802637 0.8767652 3.2112968 2.2712333 -2.8527184
-1.1765456 -0.6353225 -0.3295799 0.87358075 -1.5471612 0.27700698 0.9480659 -2.337284
0.84598786 -1.0721345 -3.4055183 -2.5821776 0.74389106 0.017073084 -1.8824012 0.262656
-0.9336106 0.4663075 -0.6142083 2.0839539 -2.774244 0.7708686 -2.6839697 -1.283105
0.8078517 -0.62740487 0.23836762 -0.43702525 -1.3555462 -0.997284 0.27436778 -0.845716
-0.059943058 -2.9118607 -0.22543298 -3.3471394 2.584375 -0.91144264 -0.4342597 -1.6731557
-1.516117 1.7654303 0.69305277 0.56091464 -0.35544774 -2.1214695 -1.0369077 -0.8843359
-1.2637547 1.0026823 -0.52081734 -2.2439244 -2.5612762 0.2612684 0.44052306 -1.6765325
2.3741114 1.2970442 -4.2619333 2.1529012 -0.2258283 -2.047354 0.7065162 -0.4612756
2.9892235 -0.28967375 -3.5857465 -2.2893748 1.5537517 -0.52241546 0.569646 -1.4904963
2.2426515 -2.0945203 3.8382177 0.6625415 0.17191736 2.8996875 1.732495 -0.5872621
2.3786628 4.5378566 -2.1804516 0.25400668 -0.9219661 0.22017007 0.57278776 0.7561573
0.59673005 -0.5341186 0.074659035 -1.7841245 0.8168911 0.74557596 2.3458688 2.427769
1.9244034 -1.5173085 -0.3785228 1.939148 1.8765225 -0.29197735 1.4087743 0.33813825
-0.365671 1.7307985 -0.53879875 1.8899379 0.75873566 0.009733387 3.3269022 -2.625887
-2.027607 0.32441965 0.3952178 -0.687239 -1.1194489 -2.80891 -1.410705 -1.8583579
-0.34428522 1.2874594 -1.2344489 -0.042627025 -1.8155351 -1.3064061 2.0207574 0.6468293
-0.26570082 -4.182691 0.626785 5.160813 -0.77642393 -2.2493327 1.6148924 1.9565247
-1.2443459 0.8732517 -2.0328922 3.3419552 -0.935882 1.6933641 -2.7550607 -0.4825319
-2.4280264 -0.6370866 -2.5093489 0.09823296 1.1499807 -0.9828107 1.3242061 0.76126677
-0.7095845 0.16307692 1.835791 -3.2506506 0.41947183 -1.4823396 1.4143827 -0.45020968
-0.8135499 2.1415167 -0.3138518 -1.219271 -0.46058485 2.8514857 -2.1449795 3.0586932
0.5873082 3.2958713 -1.7328621 1.728983 -2.3770175 -4.206396 1.7765523 -0.8110547
-3.2041576 -1.7268454 -1.9394121 -2.1702929 -0.83620316 -1.6566693 2.1460643 -2.4079719
2.419061 -1.076988 0.34243914 -2.2963984 -0.7252894 1.0104057 -2.4238312 0.3577615
00000000: 6df1 a4bf 1e4a d73f 824f 173f 780c 4d40
00000010: 0a42 3e40 74fd 5040 9543 843f b624 2840
00000020: e568 333f 2978 2c3f 943b 4c40 e12d 0840
00000030: 31c6 74c0 b3ec 133d 6ad4 40c0 648d 7e3d
00000040: 9eed 3940 ae7c 14c0 eb48 31c0 0f43 573f
00000050: e972 babf f98f 81c0 4a78 cfbf 529e af3e
00000060: 605b e23f 6116 90bf 7703 523f c5d1 8f3f
00000070: 08c8 35bf 3b84 1c40 5187 1b40 1fb5 873e
00000080: 95f1 d03f a206 eb3f eff1 0bbf f157 a0bf
00000090: fd78 23bf 306b b13f 7645 74be 1c3e d23f
000000a0: a78a f63e 13c4 513f 3e9b 333f 3d7f babf
000000b0: 61a2 99c0 851f dabf 018c 443f 2125 1cbd
000000c0: 1e75 8cc0 46ba 08c0 b8d1 39c0 27a6 1d3f
000000d0: 7019 1dc0 2bb0 e9bf fcdb 29be b535 1cbe
000000e0: 8c55 0dc0 12b7 3fc0 815d a13f 7f22 303f
000000f0: af73 603f e385 4d40 e35b 1140 f092 36c0
00000100: 0c99 96bf 7fa4 22bf b2be a8be fda2 5f3f
00000110: 6109 c6bf dcd3 8d3e 72b4 723f 1096 15c0
00000120: a992 583f b43b 89bf 03f4 59c0 6642 25c0
00000130: a56f 3e3f dadc 8b3c 86f2 f0bf d97a 863e
00000140: 1b01 6fbf dbbf ee3e c13c 1dbf 805f 0540
00000150: 378d 31c0 a557 453f 29c6 2bc0 c93c a4bf
00000160: 5ecf 4e3f 9b9d 20bf a416 743e c6c1 dfbe
00000170: 8a82 adbf 014e 7fbf ef79 8c3e d880 58bf
00000180: da86 75bd ed5b 3ac0 e7d7 66be 8837 56c0
00000190: 6666 2540 4e54 69bf 4a57 debe f729 d6bf
000001a0: 1f10 c2bf 9ff9 e13f e86b 313f 1a98 0f3f
000001b0: 3ffd b5be 28c6 07c0 64b9 84bf d663 62bf
000001c0: b7c2 a1bf e557 803f 4954 05bf 759c 0fc0
000001d0: f3eb 23c0 f9c4 853e 3d8c e13e 9e98 d6bf
000001e0: 71f1 1740 8b05 a63f c261 88c0 22c9 0940
000001f0: 893f 67be d907 03c0 3fde 343f 512c ecbe
00000200: 704f 3f40 1e50 94be df7c 65c0 1e85 12c0
00000210: 56e1 c63f 05bd 05bf 52d4 113f 95c8 bebf
00000220: 9a87 0f40 9f0c 06c0 5ca5 7540 529c 293f
00000230: 1b0b 303e 7b94 3940 65c2 dd3f cf56 16bf
00000240: 033c 1840 1f36 9140 858c 0bc0 2a0d 823e
00000250: f805 6cbf 4374 613e 38a2 123f 8693 413f
00000260: 4dc3 183f ffbb 08bf d6e6 983d 315e e4bf
00000270: c61f 513f 11de 3e3f b722 1640 9160 1b40
00000280: da52 f63f 2a37 c2bf becd c1be 0036 f83f
00000290: e431 f03f 0e7e 95be b752 b43f 7520 ad3e
000002a0: 3b39 bbbe ce8a dd3f b7ee 09bf 7ce9 f13f
000002b0: 803c 423f c978 1f3c f7eb 5440 880e 28c0
000002c0: 50c4 01c0 551a a63e fd59 ca3e e5ee 2fbf
000002d0: 1a4a 8fbf 2ec5 33c0 fb91 b4bf acde edbf
000002e0: 2746 b0be 78cb a43f 6c02 9ebf ad99 2ebd
000002f0: 7463 e8bf 5138 a7bf 1754 0140 9b96 253f
00000300: f009 88be 9bd8 85c0 fb74 203f 6125 a540
00000310: b8c3 46bf 11f5 0fc0 cbb4 ce3f 676f fa3f
00000320: ba46 9fbf 6c8d 5f3f e81a 02c0 98e2 5540
00000330: f695 6fbf 28c0 d83f ea52 30c0 6c0e f7be
00000340: c964 1bc0 1b18 23bf 2c99 20c0 5d2e c93d
00000350: 9132 933f 7b99 7bbf 967f a93f 61e2 423f
00000360: 54a7 35bf a3fd 263e 33fb ea3f a90a 50c0
00000370: 03c5 d63e 4ebd bdbf 7e0a b53f e281 e6be
00000380: ce44 50bf 9c0e 0940 2fb1 a0be 1211 9cbf
00000390: c7d1 ebbe be7e 3640 5847 09c0 a1c1 4340
000003a0: d559 163f 8eef 5240 6dce ddbf 514f dd3f
000003b0: 0e21 18c0 cc9a 86c0 1166 e33f 48a1 4fbf
000003c0: eb10 4dc0 4509 ddbf a83e f8bf 14e6 0ac0
000003d0: 6911 56bf bd0d d4bf 1e59 0940 361c 1ac0
000003e0: e5d1 1a40 beda 89bf 2f54 af3e 31f8 12c0
000003f0: 91ac 39bf f954 813f 0d20 1bc0 842c b73e

lstm_cell.bias_hh f4 [256]
-1.3209875 1.790561 0.37060723 3.13446 3.0449014 3.2763338 0.9318569 2.6627057
0.7227996 0.65125036 3.1949549 2.2544277 -3.9861186 0.13296689 -2.8615365 0.1018432
2.9014468 -2.4591174 -2.7708766 0.71651644 -1.4659892 -3.9043727 -1.7122338 0.3640574
1.7232132 -1.2278825 1.0507182 1.0208193 -0.62081575 2.380946 2.5846457 0.26703236
1.6517969 1.8133776 -0.63455534 -1.1757585 -0.7272983 1.5691136 -0.20513472 1.7512546
0.26973107 0.8988154 0.862164 -1.3401924 -4.8562245 -1.6668516 0.78227717 0.0009875472
-4.391985 -2.082971 -2.7898045 0.65292877 -2.64777 -1.8606504 -0.019956531 -0.236921
-2.1547232 -2.8677144 1.2127985 0.56716007 0.8197183 3.1755095 2.1344497 -2.7785149
-1.0655093 -0.49029183 -0.29646736 0.94641286 -1.4794275 0.277439 1.0312172 -2.387703
0.7697988 -1.2144738 -3.4744613 -2.6045966 0.6651048 0.24179769 -1.6945336 0.31203568
-1.1390849 0.38859665 -0.529913 2.0424824 -2.7649477 0.6455966 -2.7079358 -1.287336
0.8007741 -0.5432021 0.15691613 -0.46806452 -1.3175302 -0.96045786 0.24428205 -0.8931966
-0.09406288 -2.9243119 -0.2733606 -3.2179852 2.6699538 -1.0208793 -0.31111103 -1.7878369
-1.3379154 1.8643397 0.8605418 0.6129732 -0.28801182 -2.0510578 -1.077456 -0.88790834
-1.0242374 0.98458815 -0.3346743 -2.29474 -2.4586606 0.23539384 0.38129798 -1.7391262
2.2997553 1.3716882 -4.0560083 2.2011936 -0.22261156 -2.1410353 0.5697408 -0.4007478
2.9247856 -0.5221601 -3.5791242 -2.3407893 1.4350421 -0.5091861 0.45902744 -1.4849778
2.1432195 -2.0587842 3.98236 0.7695565 0.22200532 2.9103687 1.530126 -0.66486424
2.562817 4.436607 -2.2465591 0.19797775 -0.87221193 0.1874344 0.5603004 0.6447452
0.8126181 -0.53041166 0.0640199 -1.8211347 0.78570306 0.7957011 2.4298303 2.2422564
1.8304493 -1.3416734 -0.34100196 1.9897308 1.7815557 -0.24301618 1.2853078 0.2615428
-0.3483051 1.6752622 -0.5673852 1.9058108 0.7996495 0.06380556 3.306051 -2.5606022
-2.134037 0.22662456 0.3884019 -0.64001304 -1.320249 -2.785727 -1.2605246 -1.8998218
-0.4138297 1.4405854 -1.2418914 -0.077417046 -1.9609838 -1.4902629 1.7970945 0.6095099
-0.21421546 -4.1430907 0.6222169 5.320457 -0.80300754 -2.2534716 1.4425616 1.8649777
-1.1314805 0.818938 -2.0181446 3.2182827 -1.0304204 1.6862764 -2.748755 -0.6731259
-2.2360556 -0.71986556 -2.4091787 0.10670993 1.3445604 -1.0339938 1.3769823 0.7754174
-0.7739443 0.2355297 1.8318809 -3.305403 0.47792813 -1.5124719 1.47002 -0.5229788
-0.7171954 2.1887386 -0.24084747 -1.0617373 -0.4757168 2.861526 -2.1530473 3.111008
0.6433157 3.3314357 -1.5974066 1.7371198 -2.5253434 -4.244894 1.7552758 -0.6812279
-3.1552427 -1.7661864 -1.8207331 -2.1123743 -0.91176945 -1.5264078 2.1519153 -2.225801
2.262746 -0.98574877 0.32506946 -2.2434 -0.7698527 0.99753755 -2.6209366 0.39127508
00000000: 1e16 a9bf 1a31 e53f 3bc0 bd3e fe9a 4840
00000010: aadf 4240 74af 5140 2c8e 6e3f c569 2a40
00000020: 6509 393f 58b8 263f 247a 4c40 8b48 1040
00000030: 911c 7fc0 7928 083e 6a23 37c0 2b93 d03d
00000040: 4eb1 3940 2e62 1dc0 0b56 31c0 9f6d 373f
00000050: 89a5 bbbf 3ee1 79c0 7a2a dbbf bb65 ba3e
00000060: 4092 dc3f 412b 9dbf ef7d 863f 35aa 823f
00000070: c8ed 1ebf 6b61 1840 d66a 2540 77b8 883e
00000080: 156e d33f c21c e83f 3872 22bf 417f 96bf
00000090: 3930 3abf b7d8 c83f d60e 52be 1c29 e03f
000000a0: 311a 8a3e c418 663f c8b6 5c3f 6d8b abbf
000000b0: 3166 9bc0 655b d5bf 5143 483f 9670 813a
000000c0: 248b 8cc0 664f 05c0 288c 32c0 5726 273f
000000d0: 1075 29c0 cb29 eebf e17b a3bc 6b9b 72be
000000e0: fce6 09c0 a288 37c0 fb3c 9b3f 6731 113f
000000f0: 0fd9 513f 8c3b 4b40 d39a 0840 30d3 31c0
00000100: 9c62 88bf 8807 fbbe 92ca 97be 1d48 723f
00000110: e15d bdbf 7c0c 8e3e edfe 833f 20d0 18c0
00000120: 8911 453f e173 9bbf 935d 5ec0 b6b1 26c0
00000130: 4f44 2a3f d099 773e 7ae6 d8bf 24c3 9f3e
00000140: 89cd 91bf 24f6 c63e 61a8 07bf 08b8 0240
00000150: e7f4 30c0 d245 253f d24e 2dc0 6dc7 a4bf
00000160: 88ff 4c3f 4b0f 0bbf 9fae 203e 27a6 efbe
00000170: d4a4 a8bf 91e0 75bf 1325 7a3e 88a8 64bf
00000180: 0aa4 c0bd ed27 3bc0 ecf5 8bbe 78f3 4dc0
00000190: 86e0 2a40 2cac 82bf f249 9fbe d7d7 e4bf
000001a0: d040 abbf afa2 ee3f 784c 5c3f d0eb 1c3f
000001b0: 4976 93be 8844 03c0 14ea 89bf f64d 63bf
000001c0: 361a 83bf f80d 7c3f 6e5a abbe 05dd 12c0
000001d0: b25a 1dc0 150b 713e 7d39 c33e b09b debf
000001e0: 312f 1340 7b93 af3f d2ca 81c0 5be0 0c40
000001f0: 49f4 63be b906 09c0 88da 113f d12e cdbe
00000200: b02f 3b40 49ac 05bf 5f10 65c0 7ecf 15c0
00000210: 76af b73f 055a 02bf a505 eb3e c113 bebf
00000220: 822a 0940 1fc3 03c0 fcde 7e40 a801 453f
00000230: 5d55 633e 7b43 3a40 2bdb c33f 8b34 2abf
00000240: 3205 2440 aff8 8d40 a0c7 0fc0 aeba 4a3e
00000250: 4849 5fbf ceee 3f3e d96f 0f3f 050e 253f
00000260: bd07 503f 0fc9 07bf de1c 833d f11a e9bf
00000270: d623 493f 11b3 4b3f 5782 1b40 2181 0f40
00000280: 2a4c ea3f f4bb abbf cf97 aebe 80af fe3f
00000290: 040a e43f 3cd9 78be f784 a43f f0e8 853e
000002a0: 0c55 b2be fe6e d63f 2840 11bf 9cf1 f33f
000002b0: d4b5 4c3f 7dac 823d 5796 5340 e8e0 23c0
000002c0: 1094 08c0 4510 683e 9ddc c63e e5d7 23bf
000002d0: ebfd a8bf 5a49 32c0 df58 a1bf 5c2d f3bf
000002e0: 7de1 d3be 1a65 b83f 4cf6 9ebf d48c 9ebd
000002f0: 8401 fbbf efc0 bebf 3107 e63f d708 1c3f
00000300: 4c5b 5bbe 3394 84c0 9b49 1f3f 2f41 aa40
00000310: e791 4dbf e138 10c0 dca5 b83f 97b7 ee3f
00000320: 5ad4 90bf eca5 513f 4829 01c0 58f8 4d40
00000330: d1e4 83bf e8d7 d73f 9aeb 2fc0 fb51 2cbf
00000340: 891b 0fc0 1c49 38bf fc2f 1ac0 bc8a da3d
00000350: 8e1a ac3f e959 84bf f540 b03f c181 463f
00000360: 3721 46bf b32e 713e 137b ea3f b98b 53c0
00000370: ffb2 f43e ae98 c1bf 9e29 bc3f f0e1 05bf
00000380: 1e9a 37bf 4b14 0c40 b8a0 76be 02e7 87bf
00000390: 2791 f3be 3e23 3740 87cb 09c0 c11a 4740
000003a0: 56b0 243f 3e36 5540 d277 ccbf f159 de3f
000003b0: 3a9f 21c0 2cd6 87c0 e1ac e03f f464 2ebf
000003c0: 7fef 49c0 6512 e2bf c80d e9bf 2431 07c0
000003d0: b969 69bf 5561 c3bf fbb8 0940 8673 0ec0
000003e0: d5d0 1040 085a 7cbf 816f a63e de93 0fc0
000003f0: 1115 45bf 9f5e 7f3f 6dbd 27c0 3555 c83e

linear0.weight f4 [32, 384]
-0.052329093 0.0035666334 -0.0983781 -0.040096655 0.08940466 0.04729622 -0.08652475 0.044805884
0.09839418 0.066249184 -0.04172849 0.033076543 0.041951478 0.070822895 -0.09937658 -0.097146146
0.040801097 -0.050538242 -0.07207671 -0.008206606 -0.005644118 -0.04266079 -0.017844519 -0.10990912
-0.07174932 -0.10077842 0.0101879295 0.032883 0.101545334 0.016776871 -0.076782584 0.09703952
-0.0765134 0.00046895986 0.013220183 0.011047976 -0.06065818 -0.06027557 -0.00690012 -0.12321714
0.09383755 0.09935358 0.04988432 -0.02005154 -0.046012025 0.06799047 -0.020448914 -0.02479945
0.079426184 -0.02288626 0.08219879 -0.06930961 0.0072519802 -0.10015225 -0.0076617072 -0.06502655
-0.03252883 0.10163978 0.015181398 0.04742496 -0.057537355 0.05252839 -0.03906623 0.017975172
-0.017061666 0.04713549 -0.06188561 -0.060329225 0.07293006 0.026943477 -0.09286172 0.077448145
0.07305146 0.06082125 -0.04639963 0.06016995 0.0838002 0.12882933 -0.07982177 -0.065203175
0.028761964 -0.061635632 -0.12826447 -0.0069691073 -0.08056417 -0.021961784 -0.051627696 -0.091789454
-0.08374658 -0.06744094 -0.061063837 0.0953845 0.100773476 -0.061157234 -0.061193623 0.082605295
-0.08102869 0.04856234 0.0658566 0.0019868382 -0.02093141 -0.10880418 -0.010032905 -0.055156868
0.122700475 0.0035318737 0.0058719926 -0.083420426 -0.07829328 0.11230924 -0.043146662 0.093676746
0.05126596 -0.0208137 0.10408541 -0.093007885 0.06931768 -0.0573426 0.033922117 -0.032637842
-0.079286516 0.09065235 0.04625629 0.07698155 -0.09440779 0.01217348 -0.06446285 0.06435314
-0.0148833105 -0.03674433 -0.053269144 -0.02560717 -0.02416906 -0.09928382 -0.0984304 -0.10841166
0.04613781 -0.025220571 -0.026106356 -0.03991923 -0.10846115 -0.060812905 0.007106878 -0.10582768
-0.017103238 -0.01353447 -0.05895638 -0.0582388 -0.033465113 -0.050248142 -0.09689938 -0.043944977
-0.014681132 -0.10822343 0.039250378 -0.07876783 -0.0738442 -0.08261865 -0.0694732 -0.08203358
-0.008382312 -0.076781265 -0.01562603 -0.017948048 -0.025246294 -0.047811393 -0.011428594 -0.03952494
-0.06952911 0.03665402 -0.09708773 -0.078634925 -0.054668482 -0.10792982 -0.0067664227 -0.028037967
-0.018388838 0.031288806 -0.06295996 -0.024513839 0.007195942 -0.031984504 -0.08273465 -0.049303476
-0.013509483 -0.061159134 -0.064042576 -0.020634962 -0.07529295 -0.095223434 -0.08209819 -0.102451436
-0.047965214 0.032923505 0.013243011 -0.019295646 0.006175549 -0.032310598 -0.035537347 -0.014534678
0.0001293413 -0.014163159 0.0076182424 0.021965783 0.026063448 0.06820085 -0.013552624 0.028122796
-0.028569058 -0.025125047 0.036833867 0.060410805 -0.0018035771 0.029330743 0.016817022 -0.002859663
0.025913652 0.0077354903 0.0057292474 -0.032307733 -0.02103662 -0.03814933 -0.042863023 0.047263443
-0.030943587 0.01852516 0.062730215 0.05871483 -0.00739871 0.032097038 -0.013656707 0.023717085
0.04978675 0.037963923 -0.010349893 -0.05051214 -0.03855216 0.00017183647 0.04801124 0.014737591
-0.04745585 0.044440545 -0.0065685366 -0.046259403 0.031327125 0.044740792 -0.034387555 0.03214708
0.046178345 0.04752713 0.049012538 -0.012655913 0.020776091 0.03899783 -0.016953481 -0.003896892
00000000: 0857 56bd 2ebe 693b 757a c9bd 643c 24bd
00000010: ca19 b73d aeb9 413d e333 b1bd 6086 373d
00000020: e382 c93d a7ad 873d 7eeb 2abd 457b 073d
00000030: 50d5 2b3d 980b 913d f385 cbbd 8ff4 c6bd
00000040: 0d1f 273d 3001 4fbd f49c 93bd 0075 06bc
00000050: 4bf2 b8bb 15bd 2ebd ab2e 92bc 0818 e1bd
00000060: 4ff1 92bd eb64 cebd 46eb 263c 53b0 063d
00000070: 00f7 cf3d a66f 893c 3040 9dbd a8bc c63d
00000080: 0fb3 9cbd bade f539 7799 583c 9202 353c
00000090: b674 78bd 84e3 76bd 671a e2bb 4559 fcbd
000000a0: e72d c03d e479 cb3d 8053 4c3d 2143 a4bc
000000b0: 1b77 3cbd 963e 8b3d 7b84 a7bc 3728 cbbc
000000c0: 32aa a23d f77b bbbc d757 a83d 32f2 8dbd
000000d0: 05a2 ed3b 9f1c cdbd 0f0f fbbb a42c 85bd
000000e0: f33c 05bd 8428 d03d 66bb 783c ad40 423d
000000f0: 4aac 6bbd 0228 573d e903 20bd ab40 933c
00000100: e8c4 8bbc 2511 413d c47b 7dbd c71b 77bd
00000110: 5b5c 953d 91b8 dc3c 492e bebd 229d 9e3d
00000120: 019c 953d b41f 793d 8a0d 3ebd c474 763d
00000130: 709f ab3d d6eb 033e 9979 a3bd 3e89 85bd
00000140: 369e eb3c a575 7cbd c357 03be 1c5d e4bb
00000150: d4fe a4bd 33e9 b3bc 9077 53bd 1cfc bbbd
00000160: 5483 abbd 7a1e 8abd 131e 7abd f358 c33d
00000170: 5362 ce3d 0280 7abd 2aa6 7abd f72c a93d
00000180: 5ff2 a5bd 4ee9 463d d3df 863d 9d35 023b
00000190: 5978 abbc bad4 debd 0e61 24bc 2bec 61bd
000001a0: 634a fb3d 0277 673b d869 c03b 54d8 aabd
000001b0: 3a58 a0bd 6302 e63d 8eba 30bd 98d9 bf3d
000001c0: 41fc 513d 7e81 aabc bb2a d53d eb7a bebd
000001d0: 6ef6 8d3d 13e0 6abd ebf1 0a3d 42af 05bd
000001e0: f860 a2bd f0a7 b93d 3c77 3d3d 81a8 9d3d
000001f0: df58 c1bd 4773 473c 1905 84bd 94cb 833d
00000200: 21d9 73bc 3981 16bd bf30 5abd 21c6 d1bc
00000210: 31fe c5bc 5155 cbbd e195 c9bd ef06 debd
00000220: 00fb 3c3d 5f9b cebc ffdc d5bc 5982 23bd
00000230: e120 debd f416 79bd d0e0 e83b 2fbc d8bd
00000240: 171c 8cbc afbf 5dbc 3f7c 71bd cf8b 6ebd
00000250: b712 09bd ffd0 4dbd 2f73 c6bd a6ff 33bd
00000260: 2189 70bc 3fa4 ddbd 01c5 203d 0751 a1bd
00000270: a13b 97bd f733 a9bd f747 8ebd 3901 a8bd
00000280: f755 09bc 7f3f 9dbd 2902 80bc c907 93bc
00000290: 51d1 cebc e1d5 43bd ff3e 3bbc e7e4 21bd
000002a0: 4765 8ebd 8722 163d efd5 c6bd 590b a1bd
000002b0: 0fec 5fbd 4f0a ddbd deb8 ddbb e1af e5bc
000002c0: 30a4 96bc b128 003d 27f1 80bd 3fd1 c8bc
000002d0: f0cb eb3b 2f02 03bd c970 a9bd 71f2 49bd
000002e0: e156 5dbc 0082 7abd c128 83bd a70a a9bc
000002f0: 3133 9abd 8104 c3bd 1923 a8bd 0fd2 d1bd
00000300: 2c77 44bd ccda 063d 37f9 583c e711 9ebc
00000310: 425c ca3b 1e58 04bd 9c8f 11bd dc22 6ebc
00000320: ca9f 0739 980c 68bc 73a2 f93b 96f1 b33c
00000330: 0383 d53c e3ac 8b3d d30b 5ebc c761 e63c
00000340: a809 eabc 0bd3 cdbc 1cdf 163d 5271 773d
00000350: 0166 ecba 0747 f03c dac3 893c 2f69 3bbb
00000360: de48 d43c ff79 fd3b 69bc bb3b 1d55 04bd
00000370: fd54 acbc 7942 1cbd 2391 2fbd 5097 413d
00000380: 687d fdbc 14c2 973c b378 803d f67e 703d
00000390: e170 f2bb 2f78 033d 61c0 5fbc 554a c23c
000003a0: 31ed 4b3d 0f80 1b3d 9992 29bc d1e5 4ebd
000003b0: dfe8 1dbd 002f 3439 6fa7 443d f075 713c
000003c0: 1161 42bd 4a07 363d e13c d7bb 807a 3dbd
000003d0: df50 003d 1f42 373d f7d9 0cbd a8ac 033d
000003e0: 8125 3d3d cfab 423d 5fc1 483d bf5a 4fbc
000003f0: 9f32 aa3c 30bc 1f3d 07e2 8abc 0063 7fbb

linear0.bias f4 [32]
-0.081344716 -0.18990141 0.06438865 -0.27909473 -0.020958897 -0.08281304 -0.027155587 0.41883683
-0.15969966 -0.063671775 -0.4509206 -0.25834438 -0.27526665 -0.3916555 0.029611418 -0.22606277
-0.28518108 0.048472743 -0.19838332 -0.08973301 -0.04718174 -0.015231794 0.044299062 0.16637418
-0.010855503 -0.1609495 -0.0042368057 -0.049474638 0.019273384 -0.0571852 -0.24016806 -0.23878382
00000000: 0f98 a6bd 8475 42be 32de 833d 81e5 8ebe
00000010: feb1 abbc e299 a9bd 6575 debc c871 d63e
00000020: 4f88 23be 5966 82bd 11df e6be b745 84be
00000030: c0ef 8cbe 1287 c8be a593 f23c 007d 67be
00000040: 4103 92be 5b8b 463d ff24 4bbe f1c5 b7bd
00000050: a441 41bd c68e 79bc ef72 353d fe5d 2a3e
00000060: 48db 31bc f2cf 24be e7d4 8abb eba5 4abd
00000070: 37e3 9d3c 073b 6abd 9eee 75be bf83 74be
