model/1715146453/1_Claranet_global_model_1.pth (torch, 331244 bytes, 17 tensors)

conv1.lin_l.weight f4 [16, 1]
000000 71 2a 22 bf ef ad 5e bc 87 61 2f bf 91 ff 26 bf
       -0.6334601 -0.013591274 -0.6850819 -0.65233713
000010 e1 4e 00 bf 50 e3 8f 3e 11 0e 56 bf 46 1e 19 be
       -0.5012036 0.28103113 -0.83615214 -0.14952955
000020 d6 b5 22 bf 02 e9 a5 3d 38 5f 88 be d1 0e 61 bf
       -0.6355871 0.08101083 -0.26635146 -0.87913233
000030 f3 10 60 3d 3f a2 f8 be 5f 2e c6 3e 61 8f e8 be
       0.054703664 -0.48561284 0.38707253 -0.4542189

conv1.lin_l.bias f4 [16]
000000 06 cb 1e be 5a bf 17 3f b4 92 89 bf 5f c6 be 3e
       -0.15507135 0.59276354 -1.0747895 0.3726072
000010 1f 0d e3 3e 78 ce 8f be b1 bd 51 bf 33 4c ca 3e
       0.44345948 -0.2808721 -0.8193007 0.3951126
000020 ff cb 2a 3f 93 3d 33 bf 8f e3 21 3f 81 52 71 bf
       0.66717523 -0.7001583 0.6323785 -0.94266516
000030 ea 59 00 3f 50 7c 84 be 57 3c ca be d0 53 d9 bd
       0.501372 -0.25876093 -0.3949916 -0.10611689

conv1.lin_r.weight f4 [16, 1]
000000 d1 bd 7f bf a1 87 00 bf b6 3c 44 3e b1 4b 5b bf
       -0.9989901 -0.50206953 0.19163784 -0.8566237
000010 11 6b a5 be 1c af 15 3f 1b 56 38 bf db 20 f4 3d
       -0.32308248 0.5847032 -0.72006387 0.11920329
000020 8f ee f9 be a2 5f 52 bf 2f 62 57 bf ff 55 d9 3d
       -0.48814818 -0.82177174 -0.8413419 0.106121056
000030 2b 74 43 bf e1 b7 4b bf d0 4a 8a be 80 34 65 bd
       -0.76349133 -0.7957745 -0.27010202 -0.05595827

conv2.lin_l.weight f4 [64, 16]
000000 b1 99 ac bd 5f 13 0f 3e 9f b9 b8 bc a9 91 0f 3e
       -0.08427752 0.13972233 -0.022549449 0.14020409
000010 89 3a 0a bd 81 04 62 bd f0 47 17 be d0 2f c8 3d
       -0.03374723 -0.055180077 -0.14773536 0.097747445
000020 5f 6a fc 3d 2f 9a 3e 3d 27 c1 06 be 17 45 0f 3e
       0.12324976 0.04653376 -0.1315962 0.139912
000030 aa 5e 9d 3d 8a 2e 24 3e 9f 3d c3 be 51 2e 42 be
       0.07684071 0.16033378 -0.3813295 -0.18962981
000040 46 96 17 3e c6 e1 93 be 41 ad a4 3d f1 6e 2d 3e
       0.14803419 -0.2888319 0.08040858 0.16936852
000050 2f 3d 90 3d 31 a4 49 3d 61 3d a1 bd 38 c6 86 be
       0.0704292 0.04922885 -0.07873035 -0.26323104
000060 71 f1 56 3e ef e9 88 be e1 67 72 be 96 ce 9c bd
       0.2099054 -0.26740977 -0.23672439 -0.07656591
000070 81 17 61 be a0 61 1b be 16 2b 99 be af 1f e4 bd
       -0.21981622 -0.1517396 -0.29915684 -0.11138856
000080 21 e9 85 bd 55 0c b7 bd 8f 30 20 3e e0 79 60 bc
       -0.065386064 -0.08937899 0.15643524 -0.013700932
000090 40 88 bc 3b 61 4c 41 bc a1 58 e2 3d f9 4c 0f 3e
       0.005753547 -0.011797995 0.11052061 0.13994206
0000a0 25 f3 b6 3d ef 7e ca bd c0 a1 23 bc 3b 25 b8 3d
       0.08933095 -0.09887492 -0.009987295 0.08991476
0000b0 c7 05 8a bd 81 d2 04 be 20 05 96 be 60 d2 48 be
       -0.06739383 -0.12970926 -0.29300785 -0.19611502
0000c0 af 3e f8 3d af a2 6a be cf 22 c9 bd 51 57 e8 3d
       0.12121331 -0.22913621 -0.09821092 0.11344779
0000d0 bf 00 e9 3d 09 92 90 be 80 2a 91 3c 76 5c 1e be
       0.113770954 -0.28236416 0.01772046 -0.15464959
0000e0 b0 fc be 3c 5b ef b6 be c1 80 22 3e 40 de 86 bc
       0.02331385 -0.3572949 0.15869428 -0.016463399
0000f0 df 2e aa be 5f ce 3f 3e c0 a3 d5 3d 71 b9 fe bd
       -0.33238885 0.18731068 0.104316235 -0.12437714
000100 8f 6e 43 3e 31 22 de 3d e5 1a 3a be e6 51 a8 3d
       0.19085144 0.10846365 -0.18174322 0.08218746
000110 a0 d9 53 bc f0 2b 5e be 50 09 2f 3e ff bf a6 be
       -0.012930304 -0.21696448 0.17093396 -0.32568356
000120 6f f4 1f 3e 51 d1 72 be 00 bc 7e 3e e1 6c 80 bd
       0.15620588 -0.2371266 0.24876404 -0.06270767
000130 91 d3 1d be c1 17 23 be ef 7a a3 be 81 48 39 be
       -0.15412737 -0.1592703 -0.31929728 -0.18094064
000140 ef 9d 48 be 41 f9 8e bd 3f c6 84 be 41 8a f4 bd
       -0.19591497 -0.06981135 -0.259325 -0.11940432
000150 41 a0 75 3e f6 3b 13 be b0 87 de bd 0b 5b 2b bd
       0.23986913 -0.14378342 -0.10865724 -0.041834872
000160 c1 47 74 3e df 99 72 be bf 38 1b 3e ef fa c2 be
       0.23855497 -0.2369151 0.15158366 -0.38082072
000170 da c7 a9 be f0 ea e8 3c 31 49 e6 be 90 36 00 be
       -0.33160287 0.02843234 -0.44977716 -0.12520814
000180 21 68 53 be ba 4e a3 bd c1 7a da bd c0 86 9e 3b
       -0.20645191 -0.07974 -0.10667945 0.004837841
000190 01 f7 51 be a6 47 9d be e1 83 22 be d1 3b 8c be
       -0.20504381 -0.30718726 -0.1587062 -0.27389386
0001a0 a0 d8 1c 3c aa 2f 1d 3e 21 42 4a be 1b cf 2c 3e
       0.009573132 0.15350214 -0.19751789 0.1687588
0001b0 1f 1e 37 3e 0f 5b 7e 3e ef 01 0a be f0 73 e0 3c
       0.17882584 0.24839424 -0.134773 0.027399033
0001c0 11 b3 e3 3d 0f a7 51 be 4f c7 e9 bd ef 91 c8 bd
       0.111181386 -0.20473884 -0.11414968 -0.097934596
0001d0 00 b4 0e 3e 81 53 0c be 21 70 2b be cf 28 91 be
       0.13935852 -0.13703729 -0.16741993 -0.28351447
0001e0 df c2 e7 bd 21 5c bc bc 6f f2 3c be 97 a4 84 be
       -0.113164656 -0.02299315 -0.18451856 -0.25906822
0001f0 a1 17 ae bd c1 83 cb bd 4f a0 4d be 81 0e 18 be
       -0.085006006 -0.099372394 -0.20080684 -0.14849283
000200 d0 67 f0 bc f0 c5 30 3d c1 82 01 be 5f 91 c2 bd
       -0.029346377 0.043157518 -0.12647535 -0.095003836
000210 70 02 07 3e df 2c 07 be bf 44 7b be 1f e8 f2 3d
       0.13184524 -0.1320071 -0.24537943 0.1186068
000220 f1 a2 d7 3d c1 92 54 3e 01 00 c4 3d 00 2c d8 bb
       0.105291255 0.20759107 0.09570313 -0.006597042
000230 41 00 7f 3d f1 dc 52 3e a0 4a 09 bc 21 24 1c be
       0.0622561 0.20592095 -0.008379608 -0.15248157
000240 10 a9 4a bd fb b3 37 be 16 f4 97 3d 71 36 91 3d
       -0.049477637 -0.17939751 0.074196026 0.07090462
000250 9f 3a 4b be 21 f4 68 be 6f 0f 5e be 7f 1a e3 bd
       -0.19846581 -0.22749378 -0.21685575 -0.11089038
000260 d0 e0 03 3d f1 33 d1 3d bf e3 76 be fa 3e 9d be
       0.03219682 0.10214985 -0.24110316 -0.3071211
000270 51 43 bb 3d a1 6b 71 3e 8f 86 ea 3d 00 82 15 3d
       0.09143699 0.23576213 0.11451446 0.03650093
000280 70 d5 83 bd 70 94 cc bc 91 15 08 3e 01 6d 15 3e
       -0.06437194 -0.024973124 0.13289477 0.14592363
000290 e1 75 45 bd bf 1b 4d be 70 41 ed bd 05 24 31 3e
       -0.04820812 -0.20030116 -0.11584747 0.17298897
0002a0 41 17 00 be 0f 5f 82 3d 01 45 cf 3d 10 53 fc bd
       -0.1250887 0.06365787 0.10120583 -0.123205304
0002b0 1b 8b 2e be bf e5 57 3e 1b d7 2f 3e 50 e2 29 bd
       -0.17045252 0.21083735 0.171719 -0.041475594
0002c0 a1 da 45 be d1 ce 31 be 00 24 eb 3c 50 64 fe 3d
       -0.19321682 -0.1736405 0.02870369 0.12421477
0002d0 21 38 5f 3e 1f 17 b7 3d 60 fa 62 3c 6a a8 23 be
       0.21798755 0.08939957 0.013853639 -0.15982214
0002e0 b1 a5 18 3e a6 d5 9f 3a 4f d7 72 be 3f ff c0 bd
       0.14906956 0.001219441 -0.23714946 -0.09423684
0002f0 b1 bd 8b bd 30 b4 8c 3c b6 61 9e be 81 b5 4b be
       -0.0682329 0.017175764 -0.30933923 -0.19893457
000300 cf b7 48 be 9f 04 0b be 4f 9f 9b bc 0f 93 ff bd
       -0.19601367 -0.13575982 -0.018996863 -0.12479221
000310 a1 78 57 3e df 62 d3 bd e0 9e 14 3d bf 69 25 be
       0.2104211 -0.103215925 0.036284328 -0.1615362
000320 8f 84 02 be 0b 1a af bd cf b3 06 3e 1a b8 19 3d
       -0.1274588 -0.08549889 0.13154529 0.03752909
000330 af 15 d3 3d e1 cb 56 3d c6 24 16 3e a0 58 c1 3c
       0.1030687 0.052440528 0.14662465 0.02360183
000340 61 61 7a bd 5f 18 02 be 30 a2 e9 bc 11 af 24 3e
       -0.061128024 -0.1270461 -0.02851972 0.16082408
000350 51 ac c3 3d 42 d0 8b 3d a0 82 24 be ef 2a c6 3c
       0.09554351 0.068268314 -0.16065454 0.024190394
000360 cf 5f 35 3e a1 c8 06 3e f5 1e 32 be 2f 29 af bd
       0.1771233 0.13162471 -0.17394622 -0.08552777
000370 9f 05 b5 3c 90 d7 11 bd f5 c6 b8 3c f0 3c 89 3d
       0.022097407 -0.035605967 0.022555808 0.06701076
000380 1f cc 41 3e e6 6c a2 3d 81 52 3a 3e f0 80 fe 3d
       0.18925522 0.07930927 0.18195535 0.124269366
000390 10 ec 58 be 19 31 0c be d0 4a 60 3e 10 fa 99 bc
       -0.211838 -0.13690604 0.21903539 -0.018795997
0003a0 b7 63 0c be af 7a 6d 3e e0 a8 e9 3c 11 0f 0c be
       -0.13709913 0.23191331 0.028522909 -0.13677622
0003b0 1f 1e 5f be 40 41 e3 bb 2f 33 8a 3d 61 da 54 bd
       -0.21788834 -0.0069352686 0.06748044 -0.051966075
0003c0 71 b6 14 3e c7 cc 8b 3e 21 ac 0f 3e d0 47 3b 3e
       0.14522721 0.2730467 0.14030506 0.18289113
0003d0 e1 79 f3 3d 51 18 c3 3c 80 3a 82 bc ff 02 5e 3c
       0.11888481 0.023815306 -0.015897036 0.013550519
0003e0 cf 51 64 be 57 69 8b 3c 01 c4 ed 3d a6 2f 9c 3c
       -0.22296833 0.017018003 0.116096504 0.01906569
0003f0 ff 80 0c bc e1 0d cc 3d 31 3f 5a 3d 00 ff e5 3b
       -0.008575677 0.09963585 0.05328292 0.0070189238

conv2.lin_l.bias f4 [64]
000000 9a e6 96 bd 5f ee f7 bd fa b5 a8 be 71 74 bb be
       -0.073682025 -0.121060126 -0.32951337 -0.36612275
000010 0f ac dd bd 8f 1b b2 be 6f 61 2d 3e ff 1e 4d 3d
       -0.10823833 -0.3478665 0.16931699 0.05007839
000020 e0 d7 50 3d 0f 4d 4f be 90 96 4f 3d 21 4d 09 3d
       0.050987124 -0.2024424 0.050680697 0.03352082
000030 6f a0 01 3e 66 bb a5 3c af 9d 56 be af fb 75 be
       0.12658857 0.02023096 -0.20958589 -0.24021791
000040 66 99 9e bd 3f 83 6c be a0 e6 95 be 4f cb 9b be
       -0.07744102 -0.23096941 -0.29277515 -0.3042855
000050 91 9f 71 be 5b f2 ac 3d c1 cf cd bd 1f a6 62 bd
       -0.23596026 0.08444663 -0.100493915 -0.055334207
000060 4b 8a 2f 3e 11 b2 1d be d0 57 02 3e 21 1d ca bd
       0.17142598 -0.15399958 0.1272881 -0.09868837
000070 77 31 88 be 6f 19 ac 3d 61 81 94 be f1 e3 e0 be
       -0.2660024 0.084032886 -0.29004958 -0.43923905
000080 bf 55 5a be 2f 69 49 3e 51 ae df bd e6 68 28 be
       -0.21321772 0.1966903 -0.1092192 -0.16446266
000090 7f 69 9b be ea 3e 21 3e f0 81 30 3e 50 6e e4 3d
       -0.30353925 0.15746656 0.17237067 0.11153853
0000a0 a6 18 22 bd 7f 52 db bd 78 f1 07 bc 6a 62 16 be
       -0.039574288 -0.10709094 -0.008297317 -0.1468598
0000b0 01 0a e7 bd c1 dc cf bc 7d ab 51 be 80 a5 c6 be
       -0.11281205 -0.025373818 -0.20475574 -0.3879814
0000c0 a6 f0 a1 be 85 77 b5 be 41 ca 0f 3d a1 ff 56 be
       -0.31628913 -0.3544275 0.035104994 -0.20995952
0000d0 b1 24 ac bd a6 0a aa bd 3f 85 1b 3e c5 e9 b6 3d
       -0.08405436 -0.08302812 0.15187548 0.08931307
0000e0 c1 69 b0 be b1 f5 40 3e 7f fe f9 bd 9f a6 3a be
       -0.34455684 0.18843724 -0.122067444 -0.18227623
0000f0 cf a2 b9 3d 11 81 9f 3d 1f 2b 1c 3e 2a 7f 95 3c
       0.090642564 0.07788289 0.15250824 0.018249113

conv2.lin_r.weight f4 [64, 16]
000000 d0 f6 22 be 11 fe c3 3d 0f 00 97 be a1 ea a6 3d
       -0.15914464 0.09569944 -0.29492232 0.08150221
000010 4f 63 13 be 5f af 83 3d 36 13 26 3e 6f 69 4c be
       -0.14393352 0.06429934 0.16218266 -0.19962095
000020 9f a4 06 be 57 33 00 3e c5 88 b7 bd 8f a8 25 be
       -0.13148735 0.12519585 -0.089616336 -0.16177581
000030 6f 56 22 be 5b 15 35 be 09 0b 0a be ff e1 04 3e
       -0.15853284 -0.17683928 -0.13480772 0.12976836
000040 40 e2 0f bd 01 77 85 be 09 be 90 be a0 dc 8a 3c
       -0.03512788 -0.26067355 -0.28269985 0.016950905
000050 60 c6 06 3e ff ed 1a be c1 fb 27 be ef c4 a3 3c
       0.13161612 -0.15129851 -0.1640463 0.019991366
000060 9f c6 29 3e e1 42 d6 bd 21 00 c7 bd aa 6a 18 3d
       0.16579674 -0.10461975 -0.097168215 0.037211098
000070 8f 6f 88 be cf 95 24 be a7 c1 8b 3d f1 46 0d 3e
       -0.26647612 -0.16072772 0.06824046 0.13796593
000080 41 14 e6 3d b1 c7 27 3e 21 e3 3f 3e 91 10 01 3e
       0.11234332 0.1638477 0.18738987 0.12603976
000090 71 13 20 3e c1 cb dc bb 40 23 85 3d 21 f9 79 bd
       0.15632416 -0.0067381565 0.06500864 -0.061028603
0000a0 91 5a 3c 3e bc 5e ca bd c0 f3 63 be 6f e5 76 3e
       0.18393923 -0.098813504 -0.22260952 0.2411096
0000b0 f1 8a 5b 3e 0f 24 49 be c0 96 c1 bd 9f 9e 60 be
       0.2143972 -0.19642662 -0.094525814 -0.21935509
0000c0 60 cf 40 3d 20 c0 73 3d ff f8 ca bd 7f 2b 50 bd
       0.04707277 0.059509397 -0.099107735 -0.05082273
0000d0 11 f3 be 3d 71 16 dc 3b 21 b2 5a 3e e1 30 9a be
       0.09323705 0.0067165424 0.21357013 -0.30115417
0000e0 50 7d 45 3e e1 22 73 be 1f 4a 96 bd 41 bf dd 3d
       0.19286084 -0.23743774 -0.07338356 0.108274944
0000f0 50 67 ce bc e1 ea 53 3d 8f 61 0b be 91 e2 a3 bd
       -0.025195748 0.05173767 -0.13611434 -0.080021985
000100 00 8f af 3c 00 cb 09 3d 41 6f 71 be a5 3a 32 bd
       0.021430492 0.03364086 -0.23577596 -0.04351296
000110 11 e0 ef 3d bf 1d d5 3d d9 94 0a be 6f bb fd 3c
       0.11712659 0.10406064 -0.13533343 0.030973164
000120 80 f7 65 3b 31 6f 29 3c 37 82 89 3d 55 0f ad 3d
       0.0035090148 0.0103414515 0.0671429 0.0845019
000130 f6 e5 a5 3d 9f c6 71 be 81 64 35 bd ef e1 8a 3d
       0.08100502 -0.23610924 -0.0442853 0.06781375
000140 af f8 09 be df 01 07 bf e1 a4 0e be a1 6f 45 3d
       -0.13473772 -0.5273723 -0.13930084 0.04820216
000150 b8 87 08 3d 71 06 93 be 10 0a 26 3e 01 59 02 bf
       0.033332556 -0.28715852 0.16214776 -0.5091706
000160 f6 fb 1b be 51 b5 02 bf 30 e1 79 be a5 bb b9 be
       -0.15232834 -0.51057917 -0.24402308 -0.36275974
000170 4f a4 e0 be 21 85 03 be 41 de 43 be 60 b4 de bd
       -0.43875358 -0.12843753 -0.19127752 -0.108742476
000180 aa b7 9c bd ef 02 67 be c1 6f d3 bd b6 57 1d 3e
       -0.07652219 -0.22559713 -0.1032405 0.1536549
000190 df 72 40 3e e1 47 ef 3d 4a 42 96 bd f1 f2 09 3e
       0.1879382 0.11683632 -0.073368624 0.13471581
0001a0 06 cf 21 be bf ce 16 bd 3f 93 57 3e 0f dc 61 be
       -0.1580163 -0.036818262 0.21052264 -0.22056602
0001b0 c1 6d d4 3d 00 ca 2f 3a 8f dc db 3b ff 54 6b be
       0.103724964 0.00067058206 0.0067096422 -0.22981642
0001c0 81 58 6e 3e 11 04 90 be b1 ec 73 be c1 10 c2 bd
       0.23275949 -0.28128102 -0.2382076 -0.09475852
0001d0 80 88 7f bd 2f fe d4 3c 81 01 5d bd 17 07 0f 3e
       -0.062386036 0.02600011 -0.053956512 0.13967548
0001e0 bf f2 72 be 3f ae f8 3d ff 1d 4b be 81 1a 5b 3e
       -0.23725413 0.1214261 -0.19835661 0.21396829
0001f0 bf 14 7b be c0 f5 eb 3c 5f 8e 5d bd cf 71 e1 bd
       -0.24519633 0.028803706 -0.054090854 -0.110080354
000200 61 d2 bd 3d b1 38 61 3e 81 b5 78 bd 8f 6b 37 be
       0.09268642 0.21994282 -0.06071997 -0.17912124
000210 cf 18 0b be b0 b7 e7 bd f9 91 05 3e f0 58 4f be
       -0.13583682 -0.113143325 0.13043965 -0.2024877
000220 3f f4 3a 3e a6 75 a3 3d 6a 41 9a 3d 6f 64 34 be
       0.18257235 0.07981424 0.07532008 -0.17616437
000230 af fe e5 bd c1 67 18 be 01 1b da 3d 30 08 d8 3d
       -0.11230218 -0.14883329 0.10649682 0.10548437
000240 50 79 3e 3e 6f f7 42 bb f1 df 6b 3d d0 08 7f 3d
       0.18600965 -0.0029749533 0.057586614 0.062264264
000250 10 a7 60 bd e1 94 21 3d 2f 15 34 be 4f 27 69 be
       -0.054846823 0.039448623 -0.17586206 -0.22768901
000260 60 ef 37 3d 60 3a 84 bc 00 d1 ca 3c b1 29 0d bc
       0.04490602 -0.016141117 0.024757862 -0.008615897
000270 1f 75 40 be 5f a0 cd bd 71 18 f8 bd a9 b5 0f bd
       -0.18794678 -0.10040354 -0.12114037 -0.035085354
000280 9f 6b b4 bd 8f 2f 4a 3e 6f 75 19 3e 01 3d 70 be
       -0.088095896 0.19744705 0.14986204 -0.23460771
000290 bf 8c c0 3d e1 ac 5c be 30 fd b2 3d cf a2 78 be
       0.09401845 -0.21550323 0.08739698 -0.24280857
0002a0 c9 a2 0f 3d cf c8 1a be c0 88 7c 3e 7f 15 61 be
       0.035067353 -0.15115665 0.24661541 -0.21980856
0002b0 c1 d9 fc bd c1 5a 71 3e 9f f7 46 bd e1 14 7a 3e
       -0.12346221 0.23569776 -0.048575994 0.24422027
0002c0 a1 2f 60 bd f1 22 0d 3e 91 40 79 be e0 76 30 3d
       -0.054732922 0.1378286 -0.24341036 0.043082118
0002d0 f0 1e 86 3d af 09 80 bd b1 22 fe bd ff c8 6d be
       0.065488696 -0.06251847 -0.124089606 -0.23221205
0002e0 c1 b2 e1 3d 11 4c af bd 3b 83 30 3e 2b e4 37 3e
       0.11020423 -0.085594304 0.1723756 0.17958133
0002f0 1f 80 1a 3e 20 2e 97 3d ef c2 43 be 40 34 33 3e
       0.15087937 0.073818445 -0.1911733 0.175004
000300 01 c2 3c be 21 6b 38 bc 2b 1d b7 bd a0 1e 1b 3e
       -0.18433382 -0.01125601 -0.0894111 0.15148401
000310 5f d1 1d 3e bf e1 3b be 66 b9 24 3e e1 bc be 3d
       0.154119 -0.18347834 0.16086349 0.093133695
000320 ef ac a5 3d f1 52 f6 bd 7f 32 1f be df 85 6b be
       0.08089625 -0.120275386 -0.15546606 -0.23000287
000330 af c3 36 be 4f f7 51 be 40 24 cc 3c 4f f3 36 3e
       -0.17848085 -0.20504497 0.02491963 0.17866252
000340 2f 27 62 3e c0 60 0d be bf b6 02 be 9f 54 61 3e
       0.2208526 -0.13806438 -0.12765025 0.22004937
000350 30 ea bc 3c 62 b4 88 bd c0 3c 00 3e 26 97 45 be
       0.023060888 -0.0667503 0.12523174 -0.1929594
000360 f1 37 31 be 8f 4c 11 be 5f c8 c1 bd 99 36 8c 3d
       -0.17306496 -0.14189361 -0.09462046 0.06846351
000370 6f a9 02 be 6f 19 7c 3e 71 63 4d be b0 88 11 be
       -0.12759946 0.24619077 -0.20057465 -0.14212298
000380 65 67 33 3e 41 9e 74 3e 71 96 6e be df 35 47 be
       0.1751991 0.23888494 -0.23299576 -0.19454144
000390 47 c5 00 be 81 53 c5 bd 80 67 5a be 21 0f d3 3d
       -0.12575255 -0.09635068 -0.21328545 0.1030562
0003a0 57 40 92 3d a0 fe 9a 3d d0 c8 5a 3d 11 ef 68 3e
       0.07141178 0.07568097 0.053414166 0.22747447
0003b0 16 c1 94 bd 35 98 33 be 81 3d 43 3d 80 c9 19 3e
       -0.07263391 -0.17538531 0.047666077 0.15018272
0003c0 50 77 61 be 0f ae 91 bd 0f 78 19 bb c1 21 65 3d
       -0.2201817 -0.07113277 -0.0023417508 0.055940393
0003d0 e0 11 96 bc 5f 32 9c bd 80 ce 65 3b 31 41 57 3d
       -0.01831907 -0.07626795 0.003506571 0.052552406
0003e0 20 68 0f bd 6f 86 c8 bd 21 c1 e2 3d 91 8a 47 3d
       -0.03501141 -0.09791266 0.11071993 0.04871613
0003f0 7f 76 4c 3e a0 d9 94 3d 41 86 0b be 30 7e b2 bd
       0.19967078 0.07268071 -0.13625433 -0.087154746

lstm_cell.weight_ih f4 [256, 192]
000000 7f 5b 00 3e 30 ff 3c 3e 41 eb 96 bd 0a 3e 99 3c
       0.12534903 0.18456721 -0.0736909 0.01870634
000010 8a 37 29 3d 05 31 39 be 1f 63 47 3d b7 63 8b 3d
       0.04131273 -0.18085106 0.048678514 0.068061285
000020 9f 15 d4 bd 8f 0f bd bc a5 f1 b3 3d 79 f6 10 3e
       -0.103556864 -0.023078708 0.087863244 0.14156522
000030 ff c4 0b 3e 82 37 44 3e 80 dd b0 3b 21 73 4f be
       0.13649367 0.191618 0.0053974986 -0.20258762
000040 b6 4f 1c 3d 11 07 2c 3e 2f 65 43 bc 77 34 05 3e
       0.038161956 0.1679957 -0.0119259795 0.13008295
000050 c1 b2 e0 3d 81 27 27 3c 15 8a 2d 3d 7f c2 71 3d
       0.109715946 0.01020229 0.042368013 0.059023377
000060 20 ad 12 bd ff 62 fc 3d 41 be ee 3d 3b ae 34 3e
       -0.035809636 0.123235695 0.11657382 0.17644589
000070 b1 8c 3f bd 7f bd b7 be ef 97 44 3e b1 83 47 bd
       -0.046765033 -0.35886762 0.19198583 -0.048709575
000080 30 71 3c bc 21 79 3a 3e c1 3d 4a be 9a d9 21 3e
       -0.011501595 0.1821027 -0.1975012 0.15805665
000090 81 94 86 3c b1 2d fe bd bf c3 26 3d 57 30 0f bd
       0.016428234 -0.12411059 0.04071402 -0.03495821
0000a0 cf 93 0f be 00 34 ce 3d bf f1 c7 3d 49 2d 0b 3e
       -0.14021228 0.10068512 0.09762906 0.13591494
0000b0 61 09 4f 3e a1 9c 35 bc f6 e2 a9 3d 50 dc 3d bd
       0.20218422 -0.0110847065 0.082952425 -0.046352684
0000c0 3f 54 3a ba 30 1e 51 bc a0 01 28 bd 8f eb d8 3d
       -0.00071078906 -0.012763545 -0.041017175 0.10591804
0000d0 31 be a9 3d 56 71 1e 3e 4f 6c 49 3e 8a 4d 14 ba
       0.08288229 0.15472922 0.19670223 -0.0005657306
0000e0 40 66 f0 3d 71 a8 28 3e 61 bc b0 ba c1 15 5b 3e
       0.11738253 0.16470505 -0.0013483876 0.21395017
0000f0 4f ac 1b 3e a0 5b ed 3d cf 82 5f bd a1 a7 97 3d
       0.1520245 0.11589742 -0.05456811 0.074050196
000100 91 9c 84 bf c8 f6 58 40 96 75 29 40 87 84 35 40
       -1.036028 3.3900623 2.6478019 2.8362138
000110 92 3b 12 40 4d ae b6 40 63 f3 e5 40 cb 1a b2 bd
       2.284886 5.708777 7.1859603 -0.086965166
000120 f0 eb b5 40 87 33 f3 40 d8 71 f0 40 dd d1 d3 40
       5.685051 7.60004 7.513897 6.619368
000130 e9 89 cb 40 f5 d2 d7 40 fa 7e 0c 41 26 eb f4 40
       6.3605847 6.7445016 8.781 7.6537046
000140 a5 17 fd 40 41 75 d9 40 55 27 ef 40 84 6b ed 40
       7.9091363 6.795563 7.4735513 7.4193745
000150 87 47 ed 40 7e 2d ac 3d 85 00 06 41 7d 77 aa 40
       7.4149814 0.084071144 8.375127 5.327086
000160 7c f1 e5 40 5f c7 e5 40 4f 0c e0 40 d8 65 01 41
       7.185728 7.1805873 7.0015025 8.087364
000170 39 36 ea 40 bd b1 9e bb ea c4 59 3d 7d 82 89 3d
       7.319119 -0.0048429654 0.053166308 0.06714342
000180 6c e9 41 bd b1 b1 e0 bd 3c 8c a5 3c 44 29 3f 3c
       -0.04734175 -0.10971392 0.02020847 0.011667553
000190 d1 7e 55 3d 01 1f 2a 3d b1 11 1a be 20 49 96 3b
       0.052122895 0.041533474 -0.15045811 0.004586354
0001a0 01 d8 90 3d 60 f6 fd bb 9f b2 ef bd c1 c3 e5 bd
       0.070724495 -0.0077503175 -0.11703991 -0.11218978
0001b0 00 8f 6c 3b 70 66 02 bd f0 14 6d 3c c0 5b 55 bd
       0.0036095977 -0.031835973 0.014470324 -0.052089453
0001c0 a0 8e 97 bd bf 85 05 3d e0 6b fb bc 00 c3 93 3b
       -0.074002504 0.032598253 -0.030691087 0.00450933
0001d0 e0 66 53 bc 3f 0c a6 bd 05 26 b1 bd b1 83 f6 bd
       -0.012902945 -0.081078045 -0.0864983 -0.12036837
0001e0 ef fe c6 3d c0 5a 3c 3c 85 b9 b7 bd ff 54 e8 3d
       0.097165935 0.011496246 -0.08970932 0.11344337
0001f0 bf 37 ae bd 0f 7a e6 bd 41 1d 43 3d 09 af 90 bd
       -0.085067265 -0.112537496 0.04763532 -0.07064635
000200 41 c6 fe bc a4 0a fe 3f 7a b9 a3 3f c7 87 f1 be
       -0.031100394 1.9846997 1.2790978 -0.47173902
000210 11 61 0a bf 1d b4 14 40 ff 74 d4 3d 9f c1 56 40
       -0.5405436 2.3234932 0.10373878 3.3555677
000220 e1 b1 d4 40 c4 d1 ba 40 cb c5 c2 bd 2d 40 ec 40
       6.6467137 5.838106 -0.09510382 7.382834
000230 6f f6 f6 40 ab d6 f8 40 81 23 cb 3d e0 1b 06 41
       7.717582 7.7762046 0.09918881 8.381805
000240 a0 1b 11 41 68 93 00 41 31 3d f2 40 a3 95 e5 40
       9.069244 8.035988 7.5699697 7.174516
000250 65 38 dc 40 27 d0 ce 40 6c 85 3a 3c 79 71 04 41
       6.881884 6.462909 0.011384349 8.277703
000260 84 91 ce 40 a4 d5 5f 40 15 2b 54 3d 1f 83 e0 40
       6.455263 3.4974146 0.0517989 7.016006
000270 5c 74 84 40 3f b0 09 41 19 42 e2 3d 94 7e 66 3d
       4.139204 8.605529 0.110477634 0.056273058
000280 e8 ad 5a 3d 4a 78 9e 3d 37 25 0a be 19 ce 84 bd
       0.053388506 0.07737787 -0.13490759 -0.064846225
000290 5f 19 df bd 8f ca df bd 3f ff 60 bd 7f d9 ec bd
       -0.10893511 -0.10927307 -0.05493092 -0.115649216
0002a0 8f ca 49 3d df 34 ea 3d ff 2f 91 3d bf ee 24 bd
       0.04926544 0.114358656 0.07089233 -0.04026675
0002b0 11 3c 02 bd 61 75 59 3d bf e1 b6 3d d0 16 c4 bd
       -0.031795565 0.053090457 0.089297764 -0.09574664
0002c0 4a f8 a6 bd 8f a3 3d bd 97 f4 8e bd a5 ba 2c 3d
       -0.08152826 -0.04629856 -0.069802456 0.042170186
0002d0 e1 7b f8 bd 50 58 b9 3d 40 fe 3e bb 71 62 e3 3d
       -0.12133003 0.090500474 -0.0029143244 0.111027606
0002e0 f1 3b 24 3d 21 4e 83 bd 00 8a 10 bd 65 24 ac bd
       0.040096227 -0.06411386 -0.035287857 -0.08405379
0002f0 5a 43 1e 3d b1 a7 a8 bd 81 4e f2 3d 4f 94 b6 3d
       0.03863845 -0.082351096 0.1183138 0.08915006
000300 ff ff 3e 3d 9f 85 20 3d 17 f7 0d 3f 81 7e cf 3d
       0.046630856 0.03918993 0.55455154 0.101315506
000310 65 92 b2 3d 7a 88 12 be 31 3e 5d bc 6f 5b f9 3c
       0.08719329 -0.14309874 -0.013503597 0.030439107
000320 d0 7d 61 bc 21 7d e1 bc 41 67 fb 3d 31 42 db 3b
       -0.013762906 -0.027525486 0.122755535 0.0066912402
000330 27 cd 0d bd 72 1e c6 3e 76 0d a8 bd d1 b5 17 3f
       -0.034619477 0.38695103 -0.082056925 0.59261805
000340 b9 5e 8b 3c e1 fe 56 3d 61 c6 00 bd 9f 3f fb 3d
       0.01701294 0.052489165 -0.03143919 0.12267994
000350 0f bd 3d 3e 00 88 a3 3d 81 df 4c bd 15 0f 33 3e
       0.18529151 0.07984924 -0.050017837 0.17486222
000360 e0 be 7e 3d 6f 3d 60 3d 30 d5 0e 3c 81 c4 97 3e
       0.06219375 0.054746088 0.00871782 0.29642108
000370 19 f8 0b bc 01 89 33 3f 1a b0 14 3f 8a 14 29 3d
       -0.008543038 0.70130926 0.5808121 0.041279353
000380 3f 52 88 3d ff 1c 56 bd e1 93 56 3f 5f 7d 32 bd
       0.06656312 -0.052273747 0.83819395 -0.043576594
000390 9f da 47 bd df a1 dd 3d e0 14 d9 bc b8 73 82 3c
       -0.048792478 0.1082189 -0.026499212 0.01592432
0003a0 10 d4 2d 3f e0 18 c7 3c af 67 44 3f 91 a6 03 3e
       0.67901707 0.024303854 0.7672071 0.12856509
0003b0 95 8c b5 3e 89 12 06 3e 89 17 3c 3d a6 e8 9f 3d
       0.35458818 0.13093008 0.045920882 0.07808046
0003c0 3f 43 ad bd ca ab 14 3d cf 9d b6 3e bf 46 2b be
       -0.08460092 0.036296643 0.35667273 -0.16726206
0003d0 ef ef bf bd ba 9d 96 bd 11 de f7 3d 31 b1 d6 3c
       -0.093719356 -0.07354303 0.12102903 0.026207538
0003e0 86 a7 9f bd 39 64 0b 3e c1 e4 21 3e df 78 61 3d
       -0.077956244 0.1361245 0.15809919 0.055046912
0003f0 bf d5 51 3d bf 0e 62 bd 1f e1 e5 bc 71 54 03 3d
       0.051229235 -0.055189844 -0.028061448 0.03206295

lstm_cell.weight_hh f4 [256, 64]
000000 7a ef e7 3e fa 3d c2 3e 2f f3 88 3f 5e d1 85 c0
       0.45299894 0.3793791 1.0699214 -4.1818075
000010 ee d4 aa 3f a6 8e 34 c0 4b 5b 19 c0 cb c3 1b 40
       1.3346231 -2.8212066 -2.396197 2.4338253
000020 b0 c8 5e 40 0c eb 47 3f 05 7f e3 3e 33 a2 a3 bf
       3.480999 0.7809303 0.44432846 -1.2783874
000030 0e 4d 29 bd c0 70 b9 bf 06 d4 ec bf 1f 3c 63 be
       -0.04133325 -1.4487534 -1.8502204 -0.22190903
000040 71 95 4e bf a8 34 1b 3f ca 7d 48 c0 1e 36 c5 bf
       -0.8069678 0.6062722 -3.1326776 -1.540714
000050 5f 37 50 bd 43 77 25 40 ab 63 21 40 09 47 46 bf
       -0.050834056 2.5854042 2.5217083 -0.7745214
000060 31 00 04 3f 39 6f 21 40 f0 74 1d c0 31 d8 67 3f
       0.5156279 2.5224135 -2.4602623 0.90564257
000070 10 26 32 be e3 3e 3a c0 b0 f0 f5 bf c8 29 cd 3d
       -0.17397332 -2.9100883 -1.9214077 0.10017735
000080 74 eb 96 3f 6f 23 fa bf d9 e6 cd be 9e f3 6c 3f
       1.1790605 -1.9542063 -0.40215185 0.9255923
000090 ad 14 1c 40 78 02 b2 bf c0 a8 59 3e b7 69 10 c0
       2.438762 -1.3907003 0.2125578 -2.2564523
0000a0 1d b4 9e 3f c7 c1 bf bd 1d 39 32 c0 04 5e 94 bf
       1.2398716 -0.09363132 -2.784736 -1.1591191
0000b0 75 cd 9e bf 18 cb ec bf b6 76 10 3f 75 1f c9 3f
       -1.240645 -1.8499479 0.5643114 1.5712725
0000c0 f3 59 ec 3e 7b 5f 05 40 5b b2 ff bf 93 d2 33 3f
       0.46162376 2.0839527 -1.9976305 0.70243186
0000d0 e1 4e bc 3f d4 b4 c6 3f 06 35 18 c0 e8 de 42 40
       1.4711572 1.5523934 -2.3782363 3.044855
0000e0 90 84 a6 3f b9 d5 16 c0 06 a2 6d 3f 85 88 9a 3e
       1.3009205 -2.3567946 0.92825353 0.3018228
0000f0 31 d2 35 40 2f 61 a3 3f 47 30 f7 3e aa c6 36 40
       2.840954 1.2764033 0.4827902 2.8558755
000100 22 2b de 3e 81 a9 ef be db 97 06 3d 7e 46 a3 3e
       0.43392283 -0.4680901 0.032859664 0.3188972
000110 82 7c 0e c0 92 cd 2f c0 67 b4 0f 3f b2 2e b2 3e
       -2.2263494 -2.746922 0.5613465 0.3480125
000120 9c 8c 05 c0 fe c4 8c bf e2 23 22 bf 01 09 23 bf
       -2.086707 -1.0997617 -0.63336 -0.63685614
000130 7c 4d 82 bf 56 80 0b bf 6d 7c 56 be a2 4f 2f 40
       -1.0179896 -0.544927 -0.20945902 2.7392354
000140 46 b5 13 bf 03 46 7f bf 25 77 50 bf dc c2 17 c0
       -0.57698476 -0.99716204 -0.814318 -2.3712683
000150 ff 74 35 bf df 07 ea 3f 82 4b b3 3e a5 e5 6a 3f
       -0.70881647 1.8283652 0.35018545 0.9175666
000160 dd 54 95 3f a2 64 8b be 79 b8 14 c0 c2 bc 77 c0
       1.1666523 -0.27225214 -2.3237593 -3.8708959
000170 48 bd 45 bf 06 82 a8 be 28 fa 0b c0 83 69 72 bf
       -0.77241945 -0.329117 -2.1871433 -0.9469225
000180 9d 67 34 3e 25 fb c3 3f d1 aa 68 c0 e2 3e 06 40
       0.1761765 1.5311018 -3.6354258 2.097588
000190 62 9d d0 3f bc 3f da be 9b c8 82 bd 51 22 3c 40
       1.629803 -0.4262675 -0.06385919 2.9395945
0001a0 b7 14 8b bf 24 26 54 bf 0a e9 92 40 33 1f 28 3f
       -1.0865697 -0.828707 4.590947 0.65672606
0001b0 fb 4e c7 bf 0f 73 a3 be b5 dd b8 bf 78 34 55 bf
       -1.5570978 -0.3192372 -1.444266 -0.83283186
0001c0 25 73 80 40 42 51 01 c0 5e e4 9f 3f cf 3d 0a c0
       4.0140557 -2.0205846 1.2491567 -2.1600225
0001d0 9d 19 56 3e 58 36 33 be 3f e4 4d c0 dd e5 01 be
       0.20908208 -0.17501199 -3.217056 -0.12685342
0001e0 24 20 d9 bd 16 d5 eb bf 5b 2a e1 3f 1c 10 1a 3f
       -0.106018335 -1.8424404 1.7591051 0.6018083
0001f0 e1 0a d1 3f c0 d3 94 bf 38 f5 e7 3d 0b 70 f8 bf
       1.6331445 -1.1627121 0.11326069 -1.9409193
000200 b2 2c 2a 40 e2 79 7d 3f e6 57 bd 3e 81 50 e0 3e
       2.658978 0.99014103 0.36981124 0.4381142
000210 1d 5b 8d 40 3e a3 a9 3e 21 d8 9b 3e 1b 3e f7 bf
       4.417372 0.33132356 0.3043833 -1.9315828
000220 0e 8f 06 40 3b ca 1a c0 e9 52 d8 3f a4 7d f1 3c
       2.1024814 -2.4185932 1.6900302 0.029478855
000230 ae d6 e2 bd 85 9c a9 bf 3b 80 f4 bf 38 a1 25 bf
       -0.11076103 -1.3250891 -1.9101633 -0.64699125
000240 66 73 c8 3f 35 bc 2c 3f 03 ca ff be 0d e9 f8 bf
       1.5660217 0.6747468 -0.4995881 -1.9446121
000250 d3 c3 73 40 11 b1 fa 3e 3e f4 b8 3f 1b 87 c5 3f
       3.8088272 0.48963216 1.4449537 1.5431856
000260 9b ad 21 3f 79 01 b9 3f 46 2c d3 3f 87 89 b4 be
       0.63155526 1.4453574 1.6497886 -0.35261175
000270 45 35 00 c0 91 90 22 40 c4 a4 61 3f cd 91 8c 3f
       -2.0032513 2.5400736 0.8814204 1.0981995
000280 6b 0d c5 3f b7 5f c1 bf aa 95 94 bd 4a de 73 bf
       1.539472 -1.5107335 -0.07255109 -0.9526106
000290 47 5d e6 3f 8d 0d f6 3f a2 37 a0 3f ee e7 20 40
       1.7997216 1.9222885 1.2516978 2.5141559
0002a0 5e 23 0e c0 58 09 fc be 4a 76 1a c0 b8 fe f5 be
       -2.2209086 -0.4922588 -2.4134698 -0.48045897
0002b0 be 83 e9 3f ab ac 4b c0 c3 bc 51 3f 9e bf 8c 3f
       1.824333 -3.1824138 0.8192865 1.0995977
0002c0 88 87 48 3e 2a 09 8b c0 78 2d 63 3f 31 b4 6b 3f
       0.19582951 -4.3448687 0.88741255 0.92071825
0002d0 f9 5b 79 c0 3c e2 8f 3f 5c d0 53 3f 7d 82 90 3f
       -3.8962386 1.1240916 0.82739806 1.1289822
0002e0 5e c3 dd 3f 79 36 90 3e 43 f2 53 bf e9 4e 7a 3f
       1.7325246 0.2816656 -0.8279154 0.9777666
0002f0 40 cb 3c 40 e6 da 9c bf fa 26 e8 be 9b 21 ca bf
       2.9499054 -1.2254303 -0.45342237 -1.5791506
000300 7b 5a d1 bf 23 71 7d 3f 48 23 92 be 82 c3 28 3e
       -1.6355737 0.9900076 -0.28542542 0.1648083
000310 c8 f2 32 bf 57 6b 38 3e 90 d2 77 bf 28 62 f0 bf
       -0.69901705 0.18009697 -0.9680567 -1.8779955
000320 4e 84 4b c0 58 60 da 3f 0e 5c cb bf 30 16 99 bf
       -3.1799502 1.7060652 -1.5887468 -1.1959896
000330 7c 9e 7d 3f d9 34 43 bf dc 1a 48 3e 3e 9c 86 be
       0.9906995 -0.76252514 0.19541496 -0.26291078
000340 5b 44 e2 3d 4c 06 fd 3f a7 78 f2 3f ad 76 87 bd
       0.11048194 1.9767547 1.894307 -0.066144325
000350 e7 d2 86 bf b0 53 14 bf d4 36 e9 3d 7f a5 b4 3e
       -1.0533112 -0.57940197 0.11387411 0.35282513
000360 c5 12 36 40 b3 b0 95 bb f1 7a 1a 3f 95 af 27 40
       2.8448956 -0.0045681833 0.60343844 2.6200917
000370 3a 57 1d 40 13 c5 ba 3f a7 89 c0 bd a9 c4 96 c0
       2.458449 1.4591392 -0.09401255 -4.7115064
000380 66 d8 e5 bf 44 af 62 bf bb b1 9f 3f b4 7c e6 3e
       -1.7956665 -0.88548684 1.2476114 0.45017016
000390 23 ae af 3f e7 9c 9c be cd ee 25 40 11 d5 3c 3f
       1.3725017 -0.30588457 2.5927002 0.73762614
0003a0 36 f5 3a be 67 93 35 40 d5 02 3d c0 1c eb 37 c0
       -0.18257603 2.8371217 -2.9532979 -2.873725
0003b0 be 3e 03 40 dd 50 bd be 28 6f 30 40 cc e5 49 3f
       2.0507045 -0.36975756 2.7567844 0.7886627
0003c0 90 2d 29 40 23 6b 02 3d 9d 94 14 bf 9d 07 e3 3e
       2.643406 0.031840455 -0.58039266 0.44341746
0003d0 99 59 f7 3c 28 1f 49 bf 36 93 96 3e f4 48 19 c0
       0.03019409 -0.78563166 0.29409188 -2.3950777
0003e0 e4 d0 a7 be b0 84 02 40 7e f2 4f c0 cc 8d f0 be
       -0.32776558 2.0393486 -3.2491755 -0.46983182
0003f0 47 42 9e bf f5 6c 8d bf 5c 71 04 3f 24 10 24 c0
       -1.2363976 -1.1048876 0.5173547 -2.5634851

lstm_cell.bias_ih f4 [256]
000000 13 df a4 bf d9 6b d7 3f c3 dc 16 3f 13 1e 4d 40
       -1.2880577 1.6829787 0.58930606 3.2049606
000010 40 3a 3e 40 62 07 51 40 cf 57 84 3f bf 0e 28 40
       2.9723053 3.2660756 1.0339297 2.6259
000020 b1 a1 33 3f 75 3a 2c 3f d5 3a 4c 40 a4 28 08 40
       0.70168597 0.672767 3.1910908 2.1274805
000030 54 c9 74 c0 8e 54 18 3d e1 b0 40 c0 e0 26 7a 3d
       -3.824788 0.037190013 -3.0107958 0.06107223
000040 5a f2 39 40 e3 93 14 c0 60 39 31 c0 cc 10 57 3f
       2.905417 -2.3215263 -2.769127 0.84010005
000050 10 7a ba bf 3c 91 81 c0 df 2a cf bf d1 f5 ae 3e
       -1.45685 -4.048979 -1.6184958 0.34171918
000060 81 79 e2 3f 86 2c 90 bf e1 18 52 3f d1 7b 8f 3f
       1.769333 -1.1263587 0.8206921 1.1209661
000070 01 af 35 bf 9c 72 1c 40 2e 86 1b 40 f6 ad 86 3e
       -0.7097016 2.4444952 2.4300647 0.26304597
000080 52 0d d1 3f 61 02 eb 3f 06 91 0b bf 6e 3e a0 bf
       1.633219 1.8360101 -0.54518163 -1.2519052
000090 ef 7f 23 bf 44 0d b1 3f e9 26 72 be 54 58 d2 3f
       -0.63867086 1.3832173 -0.23647656 1.6433206
0000a0 bd c8 f7 3e 0c f0 51 3f 36 c9 33 3f 43 63 ba bf
       0.4839534 0.8200691 0.702289 -1.4561542
0000b0 ee 99 99 c0 79 33 da bf 3c f3 44 3f ae 97 15 bd
       -4.8000402 -1.7046958 0.76933646 -0.036521606
0000c0 f5 77 8c c0 8c b6 08 c0 09 c5 39 c0 06 5e 1d 3f
       -4.389643 -2.1361418 -2.902651 0.61471593
0000d0 bb f8 1c c0 29 a1 e9 bf 26 f8 28 be 91 b4 1b be
       -2.4526813 -1.8252307 -0.16500911 -0.152056
0000e0 8e 39 0d c0 6d bb 3f c0 b2 64 a1 3f 30 b6 2f 3f
       -2.2066379 -2.9958146 1.2608855 0.6863737
0000f0 bc de 5f 3f 3e 85 4d 40 4c 47 11 40 24 92 36 c0
       0.8744924 3.2112575 2.2699766 -2.8526697
000100 3c 84 96 bf 86 9f 22 bf 5a 4d a8 be 90 6f 5f 3f
       -1.1759105 -0.63524663 -0.32871515 0.87279606
000110 d3 21 c6 bf 59 10 8d 3e 54 63 72 3f d2 96 15 c0
       -1.5479072 0.27551535 0.9468281 -2.3373303
000120 ea e8 58 3f 11 51 89 bf 00 ea 59 c0 e3 20 25 c0
       0.847304 -1.0727865 -3.4049072 -2.5801322
000130 a7 44 3e 3f 91 28 96 3c 9b bb f0 bf 14 86 85 3e
       0.74323505 0.01832989 -1.8807253 0.26078856
000140 8c ac 6e bf 1f e6 ed 3e b4 b3 1d bf 6f 68 05 40
       -0.93232036 0.4646463 -0.6160233 2.0844991
000150 86 89 31 c0 24 26 45 3f bb ba 2b c0 1d 2c a4 bf
       -2.7740188 0.7701132 -2.6832721 -1.2825962
000160 c9 eb 4e 3f 2a c1 20 bf 4a 8c 74 3e e3 00 df be
       0.8082853 -0.62794745 0.23881641 -0.43555364
000170 69 a3 ad bf 75 33 7f bf 5b 38 8c 3e e3 1f 58 bf
       -1.3565494 -0.9968789 0.27386746 -0.84423655
000180 65 8a 73 bd 82 7c 3a c0 a4 3c 69 be 6c 78 56 c0
       -0.059458155 -2.9138494 -0.22777039 -3.3511
000190 42 2b 25 40 92 f5 68 bf 41 cf de be ec e8 d5 bf
       2.5807652 -0.9099971 -0.43517497 -1.6711707
0001a0 70 17 c2 bf ec 05 e2 3f 30 fc 31 3f b0 04 10 3f
       -1.5163403 1.7658057 0.6952543 0.5625715
0001b0 d7 d7 b4 be a9 b0 07 c0 bb d3 84 bf a0 2f 62 bf
       -0.35320923 -2.1201575 -1.0377115 -0.8835392
0001c0 8c 9d a1 bf 94 33 80 3f a9 11 05 bf ec 99 0f c0
       -1.2626204 1.001574 -0.5198007 -2.2437696
0001d0 35 c0 23 c0 cb 10 86 3e 71 83 e2 3e 87 05 d6 bf
       -2.5586064 0.26184687 0.44240907 -1.6720437
0001e0 ae cf 17 40 17 09 a6 3f 98 59 88 c0 37 c5 09 40
       2.3720508 1.2971524 -4.2609367 2.152662
0001f0 a4 8f 67 be 4d 0a 03 c0 22 e2 34 3f a4 a6 eb be
       -0.22613388 -2.0475037 0.7065755 -0.46025574
000200 23 40 3f 40 ca e8 94 be cd 75 65 c0 1e 95 12 c0
       2.9882896 -0.29083854 -3.585315 -2.2903514
000210 0c d8 c6 3f 73 47 05 bf ef 11 12 3f 6b 65 be bf
       1.5534682 -0.5206215 0.57058614 -1.48747
000220 d1 7d 0f 40 a1 1d 06 c0 31 8c 75 40 f1 9f 29 3f
       2.2420542 -2.0955584 3.8366816 0.66259676
000230 31 78 2e 3e 99 7c 39 40 20 b3 dd 3f 1d 4c 16 bf
       0.17038037 2.8982298 1.732029 -0.5870989
000240 e8 34 18 40 aa 3c 91 40 5f 96 0b c0 d2 c3 81 3e
       2.3782291 4.5386553 -2.181053 0.25344712
000250 59 2a 6c bf 46 b5 63 3e 35 e5 12 3f 3f 2d 41 3f
       -0.9225212 0.22237119 0.5738099 0.75459665
000260 5b 0e 19 3f 0a d1 08 bf 6a 26 9b 3d c0 34 e4 bf
       0.5978753 -0.5344397 0.07575686 -1.7828598
000270 38 21 51 3f e9 66 3f 3f 9d 23 16 40 a3 69 1b 40
       0.8169131 0.74766403 2.3459237 2.4283226
000280 95 1e f6 3f 0d 14 c2 bf 52 65 c1 be 6e 21 f8 3f
       1.9228083 -1.5162369 -0.37772614 1.9385202
000290 47 0b f0 3f f4 f4 94 be 21 27 b4 3f bf 69 ac 3e
       1.8753442 -0.29093134 1.4074441 0.33674428
0002a0 fd cb ba be 8c c0 dd 3f 29 5a 0a bf 55 ee f1 3f
       -0.36483756 1.7324386 -0.54043823 1.8900858
0002b0 83 76 42 3f 36 c2 34 3c b8 f8 54 40 17 13 28 c0
       0.75962085 0.011032632 3.3276806 -2.6261652
0002c0 df d6 01 c0 50 d0 a6 3e b7 f8 ca 3e b1 cb 2f bf
       -2.0287397 0.32580805 0.3964288 -0.68670183
0002d0 13 32 8f bf 42 af 33 c0 18 82 b4 bf 95 b8 ed bf
       -1.1187156 -2.807572 -1.4102201 -1.8571955
0002e0 fb 22 b0 be 51 09 a5 3f 28 f6 9d bf 44 eb 2b bd
       -0.34401688 1.2893468 -1.2340746 -0.041972414
0002f0 c0 99 e8 bf db 3b a7 bf 27 6c 01 40 cd cb 25 3f
       -1.8171921 -1.3065141 2.022226 0.647641
000300 99 7a 87 be df ce 85 c0 35 b0 20 3f 33 21 a5 40
       -0.26460722 -4.181503 0.6276887 5.1603026
000310 a3 fe 46 bf 25 00 10 c0 2c 74 ce 3f 4c 6c fa 3f
       -0.77732295 -2.2500088 1.6129203 1.95643
000320 d3 83 9f bf 34 cd 5f 3f 54 26 02 c0 4f bd 55 40
       -1.2462105 0.8742249 -2.0335894 3.3396795
000330 0e f6 6f bf 73 c1 d8 3f 5e 61 30 c0 c0 b3 f6 be
       -0.93734825 1.6934036 -2.7559428 -0.48184013
000340 78 88 1b c0 6f 36 23 bf 60 a7 20 c0 dc 17 c8 3d
       -2.4302044 -0.63754934 -2.5102158 0.09770176
000350 75 25 93 3f e7 e5 7b bf 10 7e a9 3f b3 89 42 3f
       1.1495806 -0.9839768 1.3241596 0.7599136
000360 3a 70 35 bf 98 ed 24 3e 0e 0b eb 3f b5 0c 50 c0
       -0.7087437 0.1610626 1.8362749 -3.2507756
000370 32 9e d7 3e 9e ae bd bf 89 d5 b4 3f ec b7 e5 be
       0.4211288 -1.4818914 1.4127666 -0.44866884
000380 b2 82 4f bf fe 1c 09 40 6c a8 a0 be 4f 34 9c bf
       -0.810588 2.1423945 -0.31378496 -1.2203463
000390 cd bc ec be 75 90 36 40 5b 43 09 c0 98 ac 43 40
       -0.46237794 2.852567 -2.144736 3.0574093
0003a0 14 56 16 3f 08 ed 52 40 f4 83 dd bf cc 5a dd 3f
       0.58725095 3.2957172 -1.7305894 1.7293334
0003b0 8e 2f 18 c0 0a 9d 86 c0 25 64 e3 3f ac 36 4f bf
       -2.3779025 -4.20667 1.7764937 -0.809428
0003c0 b3 02 4d c0 e0 d5 dc bf 43 06 f8 bf b2 e2 0a c0
       -3.2032897 -1.725277 -1.9376911 -2.1700864
0003d0 21 e6 55 bf 06 16 d4 bf 95 79 09 40 6f 04 1a c0
       -0.83554274 -1.6569221 2.1480458 -2.4065206
0003e0 d6 d9 1a 40 f0 11 8a bf c1 bb ae 3e 40 fc 12 c0
       2.4195457 -1.0786724 0.3412762 -2.296646
0003f0 34 7c 39 bf 92 60 81 3f 5a 2a 1b c0 4a 97 b7 3e
       -0.72455144 1.0107596 -2.42446 0.35857612

lstm_cell.bias_hh f4 [256]
000000 c4 03 a9 bf d6 52 e5 3f 31 da bc 3e 98 ac 48 40
       -1.3204274 1.7915905 0.36885217 3.1355343
000010 e0 d7 42 40 62 b9 51 40 72 b6 6e 3f ce 53 2a 40
       3.044426 3.2769399 0.9324714 2.661365
000020 31 42 39 3f a4 7a 26 3f 65 79 4c 40 4d 43 10 40
       0.72366625 0.65030885 3.1949093 2.2541077
000030 b4 1f 7f c0 7a 42 09 3e e1 ff 36 c0 e4 5f ce 3d
       -3.98631 0.13404265 -2.8593676 0.100768834
000040 0a b6 39 40 63 79 1d c0 80 46 31 c0 5c 3b 37 3f
       2.9017358 -2.4605339 -2.769928 0.7157495
000050 b0 ac bb bf 9e e3 79 c0 0f dd da bf 3c bd b9 3e
       -1.4662075 -3.9045177 -1.7098712 0.36277187
000060 61 b0 dc 3f 66 41 9d bf 74 88 86 3f 41 54 82 3f
       1.7241327 -1.2285583 1.0510392 1.0181962
000070 c1 d4 1e bf cc 4f 18 40 b3 69 25 40 4e b1 87 3e
       -0.62043387 2.3798704 2.5845764 0.2650246
000080 d2 89 d3 3f 81 18 e8 3f 51 11 22 bf be 65 96 bf
       1.6526434 1.8132478 -0.6330767 -1.1749799
000090 2c 37 3a bf c9 7a c8 3f 49 f0 4f be 54 43 e0 3f
       -0.72740436 1.5662471 -0.20306505 1.7520547
0000a0 4a 58 8b 3e bc 44 66 3f bd e4 5c 3f 73 6f ab bf
       0.27215797 0.8994863 0.86286527 -1.3393387
0000b0 be 5d 9b c0 59 6f d5 bf 8c aa 48 3f 4c 8d 29 3b
       -4.855193 -1.6674606 0.78385234 0.0025871573
0000c0 f8 8d 8c c0 ac 4b 05 c0 75 7f 32 c0 36 de 26 3f
       -4.39233 -2.0827436 -2.7890294 0.65182817
0000d0 5b 54 29 c0 c9 1a ee bf ea 5c 9c bc 49 1a 72 be
       -2.6457736 -1.8601924 -0.019087274 -0.2364284
0000e0 fe ca 09 c0 fd 8c 37 c0 2c 44 9b 3f 18 c5 10 3f
       -2.1530147 -2.8679802 1.213018 0.5655074
0000f0 1c 44 51 3f eb 3a 4b 40 3c 86 08 40 64 d2 31 c0
       0.8174455 3.175471 2.133193 -2.7784662
000100 cc 4d 88 bf cf fd fa be 3a 59 97 be b0 14 72 3f
       -1.0648742 -0.49021766 -0.29560262 0.94562817
000110 53 76 bd bf f9 48 8d 3e 37 d6 83 3f e2 d0 18 c0
       -1.4801735 0.27594736 1.0299748 -2.3877492
000120 c9 67 45 3f 40 89 9b bf 90 53 5e c0 33 90 26 c0
       0.7711149 -1.215126 -3.4738503 -2.6025512
000130 52 19 2a 3f 52 e3 78 3e 93 af d8 bf 5d ce 9e 3e
       0.66444886 0.24305466 -1.6928581 0.31016818
000140 fd a2 91 bf 64 1c c6 3e 54 1f 08 bf f7 c0 02 40
       -1.1377865 0.38693535 -0.531728 2.0430276
000150 36 f1 30 c0 51 14 25 3f 61 43 2d c0 c1 b6 a4 bf
       -2.7647223 0.64484125 -2.7072375 -1.2868272
000160 f0 1b 4d 3f d9 32 0b bf 48 24 21 3e 43 e5 ee be
       0.80120754 -0.5437446 0.15736496 -0.46659288
000170 b0 c5 a8 bf 05 c6 75 bf 66 a2 79 3e 8d 47 64 bf
       -1.318533 -0.9600528 0.24378356 -0.8917168
000180 e7 a5 bf bd 82 48 3b c0 60 28 8d be 60 34 4e c0
       -0.09357815 -2.9263005 -0.27569866 -3.2219467
000190 61 a5 2a 40 cc 7c 82 bf e6 c1 9f be cc 96 e4 bf
       2.666344 -1.0194335 -0.3120262 -1.785852
0001a0 21 48 ab bf fc ae ee 3f c4 dc 5c 3f 67 58 1d 3f
       -1.3381387 1.8647151 0.8627436 0.61463016
0001b0 e2 50 92 be 09 2f 03 c0 6b 04 8a bf c0 19 63 bf
       -0.28577334 -2.0497458 -1.0782598 -0.88711166
0001c0 0d f5 82 bf da c4 7b 3f 78 d5 aa be 7b da 12 c0
       -1.0231034 0.98347247 -0.3336599 -2.294585
0001d0 f4 2e 1d c0 20 a2 71 3e b1 30 c4 3e 98 08 de bf
       -2.4559908 0.23597002 0.383184 -1.7346373
0001e0 6e 0d 13 40 07 97 af 3f a8 c2 81 c0 70 dc 0c 40
       2.2976947 1.3717965 -4.0550117 2.2009544
0001f0 64 44 64 be 2d 09 09 c0 6c de 11 3f 24 a9 cc be
       -0.22291714 -2.141185 0.56980014 -0.39972794
000200 63 20 3b 40 41 f8 05 bf 4d 09 65 c0 7e df 15 c0
       2.9238517 -0.5233193 -3.5786927 -2.3417659
000210 2c a6 b7 3f 73 e4 01 bf 79 80 eb 3e 98 b0 bd bf
       1.4347587 -0.5073921 0.45996454 -1.4819517
000220 b9 20 09 40 21 d4 03 c0 d1 c5 7e 40 46 05 45 3f
       2.1426222 -2.0598223 3.9808238 0.7696117
000230 75 c2 61 3e 9a 2b 3a 40 e8 cb c3 3f d9 29 2a bf
       0.22046836 2.9089112 1.5296602 -0.66470104
000240 17 fe 23 40 3a ff 8d 40 79 d1 0f c0 d2 27 4a 3e
       2.5623834 4.4374056 -2.2471602 0.19741753
000250 a3 6d 5f bf d4 2f 42 3e d7 b2 0f 3f bf a7 24 3f
       -0.8727667 0.18963557 0.5613226 0.6431846
000260 cc 52 50 3f 1a de 07 bf 73 5c 85 3d 80 f1 e8 bf
       0.8137634 -0.53073275 0.06511774 -1.81987
000270 49 25 49 3f e9 3b 4c 3f 3d 83 1b 40 33 8a 0f 40
       0.7857252 0.79778916 2.4298851 2.24281
000280 e5 17 ea 3f d4 98 ab bf 62 2f ae be ee 9a fe 3f
       1.8288542 -1.3406014 -0.34020525 1.9891031
000290 67 e3 e3 3f f5 c7 77 be 62 59 a4 3f 3a 32 85 3e
       1.7803773 -0.24197371 1.2839777 0.26014882
0002a0 cf e7 b1 be bc a4 d6 3f 9b ab 11 bf 75 f6 f3 3f
       -0.34747168 1.6769023 -0.56902474 1.9059588
0002b0 d5 ef 4c 3f a1 55 85 3d 18 a3 53 40 77 e5 23 c0
       0.80053455 0.06510473 3.3068295 -2.5608804
0002c0 9f a6 08 c0 cf 7b 69 3e 57 7b c7 3e b1 b4 23 bf
       -2.1351697 0.22801135 0.38961288 -0.6394759
0002d0 e5 e5 a8 bf 6e 33 32 c0 fc 48 a1 bf 45 07 f3 bf
       -1.3195158 -2.784389 -1.2600398 -1.8986593
0002e0 55 be d3 be f2 a2 b8 3f 08 ea 9e bf 4c 35 9d bd
       -0.4135615 1.4424727 -1.2415171 -0.07676181
0002f0 d0 37 fb bf 79 c4 be bf ea 36 e6 3f 08 3e 1c 3f
       -1.9626408 -1.4903709 1.7985508 0.6103215
000300 71 3c 5a be 77 8a 84 c0 d5 84 1f 3f 01 3d aa 40
       -0.21312119 -4.1419024 0.6231206 5.319947
000310 cd cc 4d bf f5 43 10 c0 3e 65 b8 3f 7c b4 ee 3f
       -0.80390626 -2.2541478 1.4405897 1.864883
000320 72 11 91 bf b4 e5 51 3f b4 34 01 c0 0f d3 4d 40
       -1.1333449 0.81991124 -2.0188417 3.216007
000330 ec 14 84 bf 33 d9 d7 3f 0e fa 2f c0 92 24 2c bf
       -1.0318885 1.6863159 -2.7496371 -0.672433
000340 37 3f 0f c0 72 67 38 bf 30 3e 1a c0 3c 74 d9 3d
       -2.2382333 -0.72032845 -2.4100456 0.10617873
000350 73 0d ac 3f 21 80 84 bf 6f 3f b0 3f 13 29 46 3f
       1.3441604 -1.0351602 1.3769358 0.77406424
000360 1d ea 45 bf a7 1e 6f 3e ee 8a ea 3f c5 8d 53 c0
       -0.77310354 0.23351537 1.8323648 -3.305528
000370 30 8c f5 3e fe 89 c1 bf a9 f4 bb 3f ac 7c 05 bf
       0.47958517 -1.5120237 1.4684039 -0.5214336
000380 02 d8 36 bf aa 22 0c 40 de 8f 76 be 3f 0a 88 bf
       -0.7142335 2.1896157 -0.24078318 -1.0628127
000390 2d 7c f4 be f5 34 37 40 8b c7 09 c0 b8 05 47 40
       -0.4775099 2.8626072 -2.1528041 3.109724
0003a0 95 ac 24 3f b8 33 55 40 56 2d cc bf 6c 65 de 3f
       0.6432584 3.3312817 -1.5951335 1.7374701
0003b0 b9 ad 21 c0 6a d8 87 c0 f5 aa e0 3f 58 fa 2d bf
       -2.5262282 -4.2451677 1.7552172 -0.6796012
0003c0 46 e1 49 c0 00 df e1 bf 63 d5 e8 bf c2 2d 07 c0
       -3.1543746 -1.7646179 -1.819012 -2.1121678
0003d0 71 3e 69 bf 9b 69 c3 bf 70 d9 09 40 c0 5b 0e c0
       -0.91110903 -1.5266603 2.1538963 -2.22435
0003e0 c7 d8 10 40 55 c7 7c bf 13 d7 a5 3e ee 97 0f c0
       2.263231 -0.98741657 0.3239065 -2.243648
0003f0 b4 e4 44 bf 69 76 7f 3f ba c7 27 c0 fc bf c8 3e
       -0.76911473 0.99790055 -2.6215653 0.39208972
