model/1715146453/1_NSFnet_global_model_1.pth (torch, 331200 bytes, 17 tensors)

conv1.lin_l.weight f4 [16, 1]
0	0xbf222a71	-0.6334601
1	0xbc5eadef	-0.013591274
2	0xbf2ff836	-0.68738115
3	0xbf26ff91	-0.65233713
4	0xbf004ee1	-0.5012036
5	0x3e8f1931	0.27948907
6	0xbf560e11	-0.83615214
7	0xbe1a9632	-0.15096357
8	0xbf22b5d7	-0.63558716
9	0x3da93321	0.08261705
10	0xbe885f38	-0.26635146
11	0xbf610ed1	-0.87913233
12	0x3d597395	0.053088743
13	0xbef8a23f	-0.48561284
14	0x3ec6f74a	0.38860542
15	0xbee88f61	-0.4542189

conv1.lin_l.bias f4 [16]
0	0xbe1ecb07	-0.15507136
1	0x3f17bf59	0.5927635
2	0xbf89dd72	-1.0770705
3	0x3ebec65f	0.3726072
4	0x3ee30d1f	0.44345948
5	0xbe90c919	-0.28278425
6	0xbf51bdb1	-0.8193007
7	0x3ec96bdf	0.39340112
8	0x3f2acbff	0.66717523
9	0xbf32b4c1	-0.6980706
10	0x3f21e38f	0.6323785
11	0xbf715281	-0.94266516
12	0x3effb15c	0.49940002
13	0xbe847c50	-0.25876093
14	0xbec94906	-0.39313525
15	0xbdd953d0	-0.10611689

conv1.lin_r.weight f4 [16, 1]
0	0xbf7fbdd1	-0.9989901
1	0xbf0087a1	-0.50206953
2	0x3e41f0b6	0.1893948
3	0xbf5b4bb1	-0.8566237
4	0xbea56b11	-0.32308248
5	0x3f161630	0.58627605
6	0xbf38561a	-0.7200638
7	0x3df100bf	0.117677204
8	0xbef9ee8f	-0.48814818
9	0xbf51d6d1	-0.8196841
10	0xbf57622f	-0.8413419
11	0x3dd955ff	0.106121056
12	0xbf43f57a	-0.7654644
13	0xbf4bb7e1	-0.7957745
14	0xbe8b8296	-0.27248067
15	0xbd653480	-0.05595827

conv2.lin_l.weight f4 [64, 16]
0	0xbdac99b1	-0.08427752
1	0x3e0f135f	0.13972233
2	0xbcb8b99f	-0.022549449
3	0x3e0f91a9	0.14020409
4	0xbd0a3a89	-0.03374723
5	0xbd620481	-0.055180077
6	0xbe1747f0	-0.14773536
7	0x3dc82fd0	0.097747445
8	0x3dfc6a5f	0.12324976
9	0x3d3e9a2f	0.04653376
10	0xbe06c127	-0.1315962
11	0x3e0f4517	0.139912
12	0x3d9d5ea9	0.076840706
13	0x3e242e89	0.16033377
14	0xbec33d9f	-0.3813295
15	0xbe422e51	-0.18962981
16	0x3e179647	0.1480342
17	0xbe93e1c7	-0.28883192
18	0x3da4ad41	0.08040858
19	0x3e2d6ef1	0.16936852
20	0x3d903d2f	0.0704292
21	0x3d49a431	0.04922885
22	0xbda13d61	-0.07873035
23	0xbe86c638	-0.26323104
24	0x3e56f171	0.2099054
25	0xbe88e9ef	-0.26740977
26	0xbe7267e1	-0.23672439
27	0xbd9cce97	-0.076565914
28	0xbe611781	-0.21981622
29	0xbe1b61a0	-0.1517396
30	0xbe992b17	-0.29915687
31	0xbde41faf	-0.11138856
32	0xbd85e921	-0.065386064
33	0xbdb70c56	-0.089379
34	0x3e20308f	0.15643524
35	0xbc6079e0	-0.013700932
36	0x3bbc8840	0.005753547
37	0xbc414c61	-0.011797995
38	0x3de258a1	0.11052061
39	0x3e0f4cf9	0.13994206
40	0x3db6f326	0.08933096
41	0xbdca7eef	-0.09887492
42	0xbc23a1c0	-0.009987295
43	0x3db8253a	0.089914754
44	0xbd8a05c7	-0.06739383
45	0xbe04d281	-0.12970926
46	0xbe960520	-0.29300785
47	0xbe48d260	-0.19611502
48	0x3df83eaf	0.12121331
49	0xbe6aa2af	-0.22913621
50	0xbdc922cf	-0.09821092
51	0x3de85751	0.11344779
52	0x3de900bf	0.113770954
53	0xbe909209	-0.28236416
54	0x3c912a80	0.01772046
55	0xbe1e5c77	-0.1546496
56	0x3cbefcb0	0.02331385
57	0xbeb6ef5a	-0.35729486
58	0x3e2280c1	0.15869428
59	0xbc86de40	-0.016463399
60	0xbeaa2edf	-0.33238885
61	0x3e3fce5f	0.18731068
62	0x3dd5a3c0	0.104316235
63	0xbdfeb971	-0.12437714
64	0x3e436e8f	0.19085144
65	0x3dde2231	0.10846365
66	0xbe3a1ae6	-0.18174323
67	0x3da851e7	0.08218747
68	0xbc53d9a0	-0.012930304
69	0xbe5e2bf0	-0.21696448
70	0x3e2f0950	0.17093396
71	0xbea6bfff	-0.32568356
72	0x3e1ff46f	0.15620588
73	0xbe72d151	-0.2371266
74	0x3e7ebc00	0.24876404
75	0xbd806ce1	-0.06270767
76	0xbe1dd391	-0.15412737
77	0xbe2317c1	-0.1592703
78	0xbea37aef	-0.31929728
79	0xbe394881	-0.18094064
80	0xbe489def	-0.19591497
81	0xbd8ef941	-0.06981135
82	0xbe84c63f	-0.259325
83	0xbdf48a41	-0.11940432
84	0x3e75a041	0.23986913
85	0xbe133bf7	-0.14378344
86	0xbdde87b0	-0.10865724
87	0xbd2b5b0a	-0.04183487
88	0x3e7447c1	0.23855497
89	0xbe7299df	-0.2369151
90	0x3e1b38bf	0.15158366
91	0xbec2faef	-0.38082072
92	0xbea9c7d9	-0.33160284
93	0x3ce8eaf0	0.02843234
94	0xbee64931	-0.44977716
95	0xbe003690	-0.12520814
96	0xbe536821	-0.20645191
97	0xbda34eb9	-0.079739995
98	0xbdda7ac1	-0.10667945
99	0x3b9e86c0	0.004837841
100	0xbe51f701	-0.20504381
101	0xbe9d47a7	-0.3071873
102	0xbe2283e1	-0.1587062
103	0xbe8c3bd1	-0.27389386
104	0x3c1cd8a0	0.009573132
105	0x3e1d2faa	0.15350214
106	0xbe4a4221	-0.19751789
107	0x3e2ccf1a	0.16875878
108	0x3e371e1f	0.17882584
109	0x3e7e5b0f	0.24839424
110	0xbe0a01ef	-0.134773
111	0x3ce073f0	0.027399033
112	0x3de3b311	0.111181386
113	0xbe51a70f	-0.20473884
114	0xbde9c74f	-0.11414968
115	0xbdc891ef	-0.097934596
116	0x3e0eb400	0.13935852
117	0xbe0c5381	-0.13703729
118	0xbe2b7021	-0.16741993
119	0xbe9128cf	-0.28351447
120	0xbde7c2df	-0.113164656
121	0xbcbc5c21	-0.02299315
122	0xbe3cf26f	-0.18451856
123	0xbe84a497	-0.25906822
124	0xbdae17a1	-0.085006006
125	0xbdcb83c1	-0.099372394
126	0xbe4da04f	-0.20080684
127	0xbe180e81	-0.14849283
128	0xbcf067d0	-0.029346377
129	0x3d30c5f0	0.043157518
130	0xbe0182c1	-0.12647535
131	0xbdc2915f	-0.095003836
132	0x3e070270	0.13184524
133	0xbe072cdf	-0.1320071
134	0xbe7b44bf	-0.24537943
135	0x3df2e81f	0.1186068
136	0x3dd7a2f1	0.105291255
137	0x3e5492c1	0.20759107
138	0x3dc40001	0.09570313
139	0xbbd82c00	-0.006597042
140	0x3d7f0041	0.0622561
141	0x3e52dcf1	0.20592095
142	0xbc094aa0	-0.008379608
143	0xbe1c2421	-0.15248157
144	0xbd4aa910	-0.049477637
145	0xbe37b3fa	-0.1793975
146	0x3d97f417	0.07419603
147	0x3d913671	0.07090462
148	0xbe4b3a9f	-0.19846581
149	0xbe68f421	-0.22749378
150	0xbe5e0f6f	-0.21685575
151	0xbde31a7f	-0.11089038
152	0x3d03e0d0	0.03219682
153	0x3dd133f1	0.10214985
154	0xbe76e3bf	-0.24110316
155	0xbe9d3ef9	-0.30712107
156	0x3dbb4351	0.09143699
157	0x3e716ba1	0.23576213
158	0x3dea868f	0.11451446
159	0x3d158200	0.03650093
160	0xbd83d570	-0.06437194
161	0xbccc9470	-0.024973124
162	0x3e081591	0.13289477
163	0x3e156d01	0.14592363
164	0xbd4575e1	-0.04820812
165	0xbe4d1bbf	-0.20030116
166	0xbded4170	-0.11584747
167	0x3e312406	0.17298898
168	0xbe001741	-0.1250887
169	0x3d825f0f	0.06365787
170	0x3dcf4501	0.10120583
171	0xbdfc5310	-0.123205304
172	0xbe2e8b1a	-0.1704525
173	0x3e57e5bf	0.21083735
174	0x3e2fd71a	0.17171898
175	0xbd29e250	-0.041475594
176	0xbe45daa1	-0.19321682
177	0xbe31ced1	-0.1736405
178	0x3ceb2400	0.02870369
179	0x3dfe6450	0.12421477
180	0x3e5f3821	0.21798755
181	0x3db7171f	0.08939957
182	0x3c62fa60	0.013853639
183	0xbe23a869	-0.15982212
184	0x3e18a5b1	0.14906956
185	0x3a9fd5a7	0.0012194411
186	0xbe72d74f	-0.23714946
187	0xbdc0ff3f	-0.09423684
188	0xbd8bbdb1	-0.0682329
189	0x3c8cb430	0.017175764
190	0xbe9e61b7	-0.30933926
191	0xbe4bb581	-0.19893457
192	0xbe48b7cf	-0.19601367
193	0xbe0b049f	-0.13575982
194	0xbc9b9f4f	-0.018996863
195	0xbdff930f	-0.12479221
196	0x3e5778a1	0.2104211
197	0xbdd362df	-0.103215925
198	0x3d149ee0	0.036284328
199	0xbe2569bf	-0.1615362
200	0xbe02848f	-0.1274588
201	0xbdaf1a0a	-0.085498884
202	0x3e06b3cf	0.13154529
203	0x3d19b819	0.037529085
204	0x3dd315af	0.1030687
205	0x3d56cbe1	0.052440528
206	0x3e1624c7	0.14662467
207	0x3cc158a0	0.02360183
208	0xbd7a6161	-0.061128024
209	0xbe02185f	-0.1270461
210	0xbce9a230	-0.02851972
211	0x3e24af11	0.16082408
212	0x3dc3ac51	0.09554351
213	0x3d8caa97	0.06868475
214	0xbe2482a0	-0.16065454
215	0x3cc62aef	0.024190394
216	0x3e355fcf	0.1771233
217	0x3e0735bf	0.13204096
218	0xbe321ef6	-0.17394623
219	0xbdaf292f	-0.08552777
220	0x3cb86edf	0.022513805
221	0xbd11d790	-0.035605967
222	0x3cbc303f	0.022972224
223	0x3d893cf0	0.06701076
224	0x3e41cc1f	0.18925522
225	0x3da26ce7	0.07930928
226	0x3e3a5281	0.18195535
227	0x3dfe80f0	0.124269366
228	0xbe58ec10	-0.211838
229	0xbe0c3119	-0.13690604
230	0x3e604ad0	0.21903539
231	0xbc99fa10	-0.018795997
232	0xbe0c63b7	-0.13709913
233	0x3e6d7aaf	0.23191331
234	0x3ce9a8e0	0.028522909
235	0xbe0c0f11	-0.13677622
236	0xbe5f1e1f	-0.21788834
237	0xbbe34140	-0.0069352686
238	0x3d8a332f	0.06748044
239	0xbd54da61	-0.051966075
240	0x3e14b671	0.14522721
241	0x3e8bccc7	0.2730467
242	0x3e0fac21	0.14030506
243	0x3e3b47d0	0.18289113
244	0x3df379e1	0.11888481
245	0x3cc31851	0.023815306
246	0xbc823a80	-0.015897036
247	0x3c5e02ff	0.013550519
248	0xbe6451cf	-0.22296833
249	0x3c8b6957	0.017018003
250	0x3dedc401	0.116096504
251	0x3c9c2fa7	0.019065691
252	0xbc0c80ff	-0.008575677
253	0x3dcc0de1	0.09963585
254	0x3d5a3f31	0.05328292
255	0x3be5ff00	0.0070189238

conv2.lin_l.bias f4 [64]
0	0xbd96e699	-0.07368202
1	0xbdf7ee5f	-0.121060126
2	0xbea8b5f9	-0.32951334
3	0xbebb7471	-0.36612275
4	0xbdddac0f	-0.10823833
5	0xbeb21b8f	-0.3478665
6	0x3e2d616f	0.16931699
7	0x3d4d1eff	0.05007839
8	0x3d50d7e0	0.050987124
9	0xbe4f4d0f	-0.2024424
10	0x3d4f9690	0.050680697
11	0x3d094d21	0.03352082
12	0x3e01a06f	0.12658857
13	0x3ca924b1	0.020647379
14	0xbe569daf	-0.20958589
15	0xbe75fbaf	-0.24021791
16	0xbd9e9967	-0.07744103
17	0xbe6c833f	-0.23096941
18	0xbe95e6a0	-0.29277515
19	0xbe9bcb4f	-0.3042855
20	0xbe719f91	-0.23596026
21	0x3dacf25a	0.084446624
22	0xbdcdcfc1	-0.100493915
23	0xbd62a61f	-0.055334207
24	0x3e2f8a4a	0.17142597
25	0xbe1db211	-0.15399958
26	0x3e0257d0	0.1272881
27	0xbdca1d21	-0.09868837
28	0xbe883177	-0.2660024
29	0x3dac196f	0.084032886
30	0xbe948161	-0.29004958
31	0xbee0e3f1	-0.43923905
32	0xbe5a55bf	-0.21321772
33	0x3e49692f	0.1966903
34	0xbddfae51	-0.1092192
35	0xbe2868e7	-0.16446267
36	0xbe9b697f	-0.30353925
37	0x3e213ee9	0.15746655
38	0x3e3081f0	0.17237067
39	0x3de46e50	0.11153853
40	0xbd2218a7	-0.03957429
41	0xbddb527f	-0.10709094
42	0xbc07f178	-0.008297317
43	0xbe166269	-0.14685978
44	0xbde70a01	-0.11281205
45	0xbccfdcc1	-0.025373818
46	0xbe4fb66b	-0.2028443
47	0xbec6a580	-0.3879814
48	0xbea1f0a7	-0.31628916
49	0xbeb57786	-0.35442752
50	0x3d0fca41	0.035104994
51	0xbe56ffa1	-0.20995952
52	0xbdac24b1	-0.08405436
53	0xbdaa0aa7	-0.08302813
54	0x3e1b853f	0.15187548
55	0x3db6e9c6	0.089313075
56	0xbeb069c1	-0.34455684
57	0x3e40f5b1	0.18843724
58	0xbdf9fe7f	-0.122067444
59	0xbe3aa69f	-0.18227623
60	0x3db9a2cf	0.090642564
61	0x3d9f8111	0.07788289
62	0x3e1c2b1f	0.15250824
63	0x3c957f29	0.018249111

conv2.lin_r.weight f4 [64, 16]
0	0xbe22f6d0	-0.15914464
1	0x3dc3fe11	0.09569944
2	0xbe97000f	-0.29492232
3	0x3da6eaa1	0.08150221
4	0xbe13634f	-0.14393352
5	0x3d83af5f	0.06429934
6	0x3e261337	0.16218267
7	0xbe4c696f	-0.19962095
8	0xbe06a49f	-0.13148735
9	0x3e003357	0.12519585
10	0xbdb788c6	-0.08961634
11	0xbe25a88f	-0.16177581
12	0xbe22566f	-0.15853284
13	0xbe35155a	-0.17683926
14	0xbe0a0b09	-0.13480772
15	0x3e04e1ff	0.12976836
16	0xbd0fe240	-0.03512788
17	0xbe857701	-0.26067355
18	0xbe90be09	-0.28269985
19	0x3c8adca0	0.016950905
20	0x3e06c660	0.13161612
21	0xbe1aedff	-0.15129851
22	0xbe27fbc1	-0.1640463
23	0x3ca3c4ef	0.019991366
24	0x3e29c69f	0.16579674
25	0xbdd642e1	-0.10461975
26	0xbdc70021	-0.097168215
27	0x3d186aa9	0.037211094
28	0xbe886f8f	-0.26647612
29	0xbe2495cf	-0.16072772
30	0x3d8bc1a7	0.06824046
31	0x3e0d46f1	0.13796593
32	0x3de61441	0.11234332
33	0x3e27c7b1	0.1638477
34	0x3e3fe321	0.18738987
35	0x3e011091	0.12603976
36	0x3e201371	0.15632416
37	0xbbdccbc1	-0.0067381565
38	0x3d852340	0.06500864
39	0xbd79f921	-0.061028603
40	0x3e3c5a91	0.18393923
41	0xbdca5ebb	-0.0988135
42	0xbe63f3c0	-0.22260952
43	0x3e76e56f	0.2411096
44	0x3e5b8af1	0.2143972
45	0xbe49240f	-0.19642662
46	0xbdc196c0	-0.094525814
47	0xbe609e9f	-0.21935509
48	0x3d40cf60	0.04707277
49	0x3d73c020	0.059509397
50	0xbdcaf8ff	-0.099107735
51	0xbd502b7f	-0.05082273
52	0x3dbef311	0.09323705
53	0x3bdc1671	0.0067165424
54	0x3e5ab221	0.21357013
55	0xbe9a30e1	-0.30115417
56	0x3e457d50	0.19286084
57	0xbe7322e1	-0.23743774
58	0xbd964a1f	-0.07338356
59	0x3dddbf41	0.108274944
60	0xbcce6750	-0.025195748
61	0x3d53eae1	0.05173767
62	0xbe0b618f	-0.13611434
63	0xbda3e291	-0.080021985
64	0x3caf8f00	0.021430492
65	0x3d09cb00	0.03364086
66	0xbe716f41	-0.23577596
67	0xbd323aa6	-0.043512963
68	0x3defe011	0.11712659
69	0x3dd51dbf	0.10406064
70	0xbe0a94d9	-0.13533343
71	0x3cfdbb6f	0.030973164
72	0x3b65f780	0.0035090148
73	0x3c296f31	0.0103414515
74	0x3d898237	0.0671429
75	0x3dad0f56	0.08450191
76	0x3da5e5f7	0.08100503
77	0xbe71c69f	-0.23610924
78	0xbd356481	-0.0442853
79	0x3d8ae1ef	0.06781375
80	0xbe09f8af	-0.13473772
81	0xbf0701df	-0.5273723
82	0xbe0ea4e1	-0.13930084
83	0x3d456fa1	0.04820216
84	0x3d0887b8	0.033332556
85	0xbe930671	-0.28715852
86	0x3e260a10	0.16214776
87	0xbf025901	-0.5091706
88	0xbe1bfbf7	-0.15232836
89	0xbf02b551	-0.51057917
90	0xbe79e130	-0.24402308
91	0xbeb9bba6	-0.36275977
92	0xbee0a44f	-0.43875358
93	0xbe038521	-0.12843753
94	0xbe43de41	-0.19127752
95	0xbddeb460	-0.108742476
96	0xbd9cb7a9	-0.07652218
97	0xbe6702ef	-0.22559713
98	0xbdd36fc1	-0.1032405
99	0x3e1d57b7	0.15365492
100	0x3e4072df	0.1879382
101	0x3def47e1	0.11683632
102	0xbd964249	-0.07336862
103	0x3e09f2f1	0.13471581
104	0xbe21cf07	-0.15801631
105	0xbd16cebf	-0.036818262
106	0x3e57933f	0.21052264
107	0xbe61dc0f	-0.22056602
108	0x3dd46dc1	0.103724964
109	0x3a2fca00	0.00067058206
110	0x3bdbdc8f	0.0067096422
111	0xbe6b54ff	-0.22981642
112	0x3e6e5881	0.23275949
113	0xbe900411	-0.28128102
114	0xbe73ecb1	-0.2382076
115	0xbdc210c1	-0.09475852
116	0xbd7f8880	-0.062386036
117	0x3cd4fe2f	0.02600011
118	0xbd5d0181	-0.053956512
119	0x3e0f0717	0.13967548
120	0xbe72f2bf	-0.23725413
121	0x3df8ae3f	0.1214261
122	0xbe4b1dff	-0.19835661
123	0x3e5b1a81	0.21396829
124	0xbe7b14bf	-0.24519633
125	0x3cebf5c0	0.028803706
126	0xbd5d8e5f	-0.054090854
127	0xbde171cf	-0.110080354
128	0x3dbdd261	0.09268642
129	0x3e6138b1	0.21994282
130	0xbd78b581	-0.06071997
131	0xbe376b8f	-0.17912124
132	0xbe0b18cf	-0.13583682
133	0xbde7b7b0	-0.113143325
134	0x3e0591f9	0.13043965
135	0xbe4f58f0	-0.2024877
136	0x3e3af43f	0.18257235
137	0x3da375a7	0.07981425
138	0x3d9a4169	0.07532007
139	0xbe34646f	-0.17616437
140	0xbde5feaf	-0.11230218
141	0xbe1867c1	-0.14883329
142	0x3dda1b01	0.10649682
143	0x3dd80830	0.10548437
144	0x3e3e7950	0.18600965
145	0xbb42f76f	-0.0029749533
146	0x3d6bdff1	0.057586614
147	0x3d7f08d0	0.062264264
148	0xbd60a710	-0.054846823
149	0x3d2194e1	0.039448623
150	0xbe34152f	-0.17586206
151	0xbe69274f	-0.22768901
152	0x3d37ef60	0.04490602
153	0xbc843a60	-0.016141117
154	0x3ccad100	0.024757862
155	0xbc0d29b1	-0.008615897
156	0xbe40751f	-0.18794678
157	0xbdcda05f	-0.10040354
158	0xbdf81871	-0.12114037
159	0xbd0fb5a9	-0.035085354
160	0xbdb46b9f	-0.088095896
161	0x3e4a2f8f	0.19744705
162	0x3e19756f	0.14986204
163	0xbe703d01	-0.23460771
164	0x3dc08cbf	0.09401845
165	0xbe5cace1	-0.21550323
166	0x3db2fd30	0.08739698
167	0xbe78a2cf	-0.24280857
168	0x3d0fa2c9	0.035067353
169	0xbe1ac8cf	-0.15115665
170	0x3e7c88c0	0.24661541
171	0xbe61157f	-0.21980856
172	0xbdfcd9c1	-0.12346221
173	0x3e715ac1	0.23569776
174	0xbd46f79f	-0.048575994
175	0x3e7a14e1	0.24422027
176	0xbd602fa1	-0.054732922
177	0x3e0d22f1	0.1378286
178	0xbe794091	-0.24341036
179	0x3d3076e0	0.043082118
180	0x3d861ef0	0.065488696
181	0xbd8009af	-0.06251847
182	0xbdfe22b1	-0.124089606
183	0xbe6dc8ff	-0.23221205
184	0x3de1b2c1	0.11020423
185	0xbdaf4c11	-0.085594304
186	0x3e30833a	0.17237559
187	0x3e37e42a	0.17958131
188	0x3e1a801f	0.15087937
189	0x3d972e20	0.073818445
190	0xbe43c2ef	-0.1911733
191	0x3e333440	0.175004
192	0xbe3cc201	-0.18433382
193	0xbc386b21	-0.01125601
194	0xbdb71d2a	-0.089411095
195	0x3e1b1ea0	0.15148401
196	0x3e1dd15f	0.154119
197	0xbe3be1bf	-0.18347834
198	0x3e24b967	0.1608635
199	0x3dbebce1	0.093133695
200	0x3da5acef	0.08089625
201	0xbdf652f1	-0.120275386
202	0xbe1f327f	-0.15546606
203	0xbe6b85df	-0.23000287
204	0xbe36c3af	-0.17848085
205	0xbe51f74f	-0.20504497
206	0x3ccc2440	0.02491963
207	0x3e36f34f	0.17866252
208	0x3e62272f	0.2208526
209	0xbe0d60c0	-0.13806438
210	0xbe02b6bf	-0.12765025
211	0x3e61549f	0.22004937
212	0x3cbcea30	0.023060888
213	0xbd87da11	-0.0663339
214	0x3e003cc0	0.12523174
215	0xbe452a12	-0.1925433
216	0xbe3137f1	-0.17306496
217	0xbe114c8f	-0.14189361
218	0xbdc1c85f	-0.09462046
219	0x3d8c3699	0.06846351
220	0xbe02a96f	-0.12759946
221	0x3e7c196f	0.24619077
222	0xbe4d6371	-0.20057465
223	0xbe1188b0	-0.14212298
224	0x3e336766	0.17519912
225	0x3e749e41	0.23888494
226	0xbe6e9671	-0.23299576
227	0xbe4735df	-0.19454144
228	0xbe00c547	-0.12575255
229	0xbdc55381	-0.09635068
230	0xbe5a6780	-0.21328545
231	0x3dd30f21	0.1030562
232	0x3d924057	0.07141178
233	0x3d9afea0	0.07568097
234	0x3d5ac8d0	0.053414166
235	0x3e68ef11	0.22747447
236	0xbd94c117	-0.072633915
237	0xbe339836	-0.17538533
238	0x3d433d81	0.047666077
239	0x3e19c980	0.15018272
240	0xbe617750	-0.2201817
241	0xbd91ae0f	-0.07113277
242	0xbb19780f	-0.0023417508
243	0x3d6521c1	0.055940393
244	0xbc9611e0	-0.01831907
245	0xbd9c325f	-0.07626795
246	0x3b65ce80	0.003506571
247	0x3d574131	0.052552406
248	0xbd0f6820	-0.03501141
249	0xbdc8866f	-0.09791266
250	0x3de2c121	0.11071993
251	0x3d478a91	0.04871613
252	0x3e4c767f	0.19967078
253	0x3d94d9a0	0.07268071
254	0xbe0b8641	-0.13625433
255	0xbdb27e30	-0.087154746

lstm_cell.weight_ih f4 [256, 192]
0	0x3e005b7f	0.12534903
1	0x3e3cff30	0.18456721
2	0xbd96eb41	-0.0736909
3	0x3c993e09	0.018706338
4	0x3d293789	0.041312728
5	0xbe393106	-0.18085107
6	0x3d47631f	0.048678514
7	0x3d8b63b7	0.068061285
8	0xbdd4159f	-0.103556864
9	0xbcbd0f8f	-0.023078708
10	0x3db3f1a6	0.08786325
11	0x3e10f679	0.14156522
12	0x3e0bc4ff	0.13649367
13	0x3e441cd2	0.19151619
14	0x3bb0dd80	0.0053974986
15	0xbe4f7321	-0.20258762
16	0x3d1c4fb7	0.03816196
17	0x3e2c0711	0.1679957
18	0xbc43652f	-0.0119259795
19	0x3e053477	0.13008295
20	0x3de0b2c1	0.109715946
21	0x3c272781	0.01020229
22	0x3d2d8a16	0.042368017
23	0x3d71c27f	0.059023377
24	0xbd12ad20	-0.035809636
25	0x3dfc62ff	0.123235695
26	0x3deebe41	0.11657382
27	0x3e34ae3a	0.17644587
28	0xbd3f8cb1	-0.046765033
29	0xbeb7bd7f	-0.35886762
30	0x3e4497ef	0.19198583
31	0xbd4783b1	-0.048709575
32	0xbc3c7130	-0.011501595
33	0x3e3a7921	0.1821027
34	0xbe4a3dc1	-0.1975012
35	0x3e21d999	0.15805663
36	0x3c869481	0.016428234
37	0xbdfe2db1	-0.12411059
38	0x3d26c3bf	0.04071402
39	0xbd0f3057	-0.03495821
40	0xbe0f93cf	-0.14021228
41	0x3dce3400	0.10068512
42	0x3dc7f1bf	0.09762906
43	0x3e0b2d49	0.13591494
44	0x3e4f0961	0.20218422
45	0xbc359ca1	-0.0110847065
46	0x3dae0310	0.08496678
47	0xbd3ddc50	-0.046352684
48	0xba3a543f	-0.00071078906
49	0xbc511e30	-0.012763545
50	0xbd2801a0	-0.041017175
51	0x3dd8eb8f	0.10591804
52	0x3da9be31	0.08288229
53	0x3e1e7157	0.15472923
54	0x3e496c4f	0.19670223
55	0xba144d89	-0.00056573056
56	0x3df06640	0.11738253
57	0x3e28a871	0.16470505
58	0xbab0bc61	-0.0013483876
59	0x3e5b15c1	0.21395017
60	0x3e1bac4f	0.1520245
61	0x3ded5ba0	0.11589742
62	0xbd5f82cf	-0.05456811
63	0x3d97a7a1	0.074050196
64	0xbf84684e	-1.0344331
65	0x40591ed7	3.3925073
66	0x40296e3f	2.647354
67	0x4035aab4	2.838544
68	0x40126b5d	2.287803
69	0x40b6997c	5.706236
70	0x40e5ef80	7.185486
71	0xbdae33ff	-0.08506011
72	0x40b5ed82	5.6852427
73	0x40f32cab	7.5992026
74	0x40f07076	7.513728
75	0x40d3c3f7	6.6176715
76	0x40cb7d00	6.359009
77	0x40d7c526	6.742816
78	0x410c7faa	8.781168
79	0x40f4ec1e	7.653823
80	0x40fd1b8f	7.909614
81	0x40d97111	6.795052
82	0x40ef1e52	7.472451
83	0x40ed65c8	7.4186745
84	0x40ed3dfa	7.4138155
85	0x3daf4e41	0.085598476
86	0x4105f673	8.372668
87	0x40aa8aba	5.3294344
88	0x40e5e1c3	7.183809
89	0x40e5bef1	7.1795583
90	0x40e01e5c	7.003706
91	0x41016205	8.086431
92	0x40ea3c3f	7.3198543
93	0xba8762b9	-0.0010329104
94	0x3d5a6c9f	0.053326245
95	0x3d8a8777	0.06764119
96	0xbd409cae	-0.04702442
97	0xbde0b1b1	-0.10971392
98	0x3cd98d9b	0.02655678
99	0x3c3f2945	0.011667554
100	0x3d557ed1	0.052122895
101	0x3d2a1f01	0.041533474
102	0xbe1a11b1	-0.15045811
103	0x3b964920	0.004586354
104	0x3d90d801	0.070724495
105	0xbbfdf660	-0.0077503175
106	0xbdefb29f	-0.11703991
107	0xbde5c3c1	-0.11218978
108	0x3b6c8f00	0.0036095977
109	0xbd026670	-0.031835973
110	0x3c6d14f0	0.014470324
111	0xbd555bc0	-0.052089453
112	0xbd978ea0	-0.074002504
113	0x3d0585bf	0.032598253
114	0xbcfb6be0	-0.030691087
115	0x3b93c300	0.00450933
116	0xbc5366e0	-0.012902945
117	0xbda60c3f	-0.081078045
118	0xbdb12606	-0.086498305
119	0xbdf683b1	-0.12036837
120	0x3dc6feef	0.097165935
121	0x3c3c5ac0	0.011496246
122	0xbdb7b986	-0.08970933
123	0x3de854ff	0.11344337
124	0xbdae37bf	-0.085067265
125	0xbde67a0f	-0.112537496
126	0x3d431d41	0.04763532
127	0xbd90af09	-0.07064635
128	0xbcfec641	-0.031100394
129	0x3ffe339d	1.9859501
130	0x3fa3d03c	1.2797923
131	0xbef18780	-0.4717369
132	0xbf0a93ea	-0.5413195
133	0x4014e3eb	2.326411
134	0x3dd474ff	0.10373878
135	0x4056f309	3.3585837
136	0x40d4cc36	6.649928
137	0x40bad351	5.8382955
138	0xbdc48962	-0.09596516
139	0x40ec3ed5	7.38267
140	0x40f6f3ac	7.717245
141	0x40f8dd30	7.7770004
142	0x3dcb2381	0.09918881
143	0x41061e16	8.382345
144	0x41111b17	9.069114
145	0x41009316	8.03591
146	0x40f23d4f	7.569984
147	0x40e58e0c	7.1735897
148	0x40dc35d4	6.881571
149	0x40cebc74	6.4605045
150	0x3c3a856b	0.011384348
151	0x410465df	8.274871
152	0x40ce8338	6.453518
153	0x405fd103	3.497132
154	0x3d5858af	0.05281895
155	0x40e09d15	7.019175
156	0x408483f8	4.1411095
157	0x4109aee0	8.605194
158	0x3de30b5f	0.11086153
159	0x3d67fa8f	0.056635436
160	0x3d53ff6f	0.051757272
161	0x3da3a9c1	0.07991362
162	0xbe0a3897	-0.1349815
163	0xbd79d7cf	-0.060996827
164	0xbddf195f	-0.10893511
165	0xbddfca8f	-0.10927307
166	0xbd60ff3f	-0.05493092
167	0xbdecd97f	-0.115649216
168	0x3d49ca8f	0.04926544
169	0x3dea34df	0.114358656
170	0x3d912fff	0.07089233
171	0xbd24eebf	-0.04026675
172	0xbd023c11	-0.031795565
173	0x3d597561	0.053090457
174	0x3db6e1bf	0.089297764
175	0xbdc416d0	-0.09574664
176	0xbda6f849	-0.081528254
177	0xbd3da38f	-0.04629856
178	0xbd8ef497	-0.069802456
179	0x3d2cbaa6	0.04217019
180	0xbdf87be1	-0.12133003
181	0x3db95850	0.090500474
182	0xbb3efe40	-0.0029143244
183	0x3de36271	0.111027606
184	0x3d243bf1	0.040096227
185	0xbd834e21	-0.06411386
186	0xbd108a00	-0.035287857
187	0xbdac2466	-0.0840538
188	0x3d1e4359	0.038638446
189	0xbda8a7b1	-0.082351096
190	0x3df24e81	0.1183138
191	0x3db6944f	0.08915006
192	0x3d3effff	0.046630856
193	0x3d20859f	0.03918993
194	0x3f0df717	0.55455154
195	0x3dcf7e81	0.101315506
196	0x3db29266	0.087193295
197	0xbe128879	-0.14309873
198	0xbc5d3e31	-0.013503597
199	0x3cf95b6f	0.030439107
200	0xbc617dd0	-0.013762906
201	0xbce17d21	-0.027525486
202	0x3dfb6741	0.122755535
203	0x3bdb4231	0.0066912402
204	0xbd0dcd27	-0.034619477
205	0x3ec61971	0.38691285
206	0xbda80d77	-0.08205693
207	0x3f17b5d1	0.59261805
208	0x3c8b5eb9	0.01701294
209	0x3d56fee1	0.052489165
210	0xbd00c661	-0.03143919
211	0x3dfb3f9f	0.12267994
212	0x3e3dbd0f	0.18529151
213	0x3da38800	0.07984924
214	0xbd4cdf81	-0.050017837
215	0x3e330f16	0.17486224
216	0x3d7ebee0	0.06219375
217	0x3d603d6f	0.054746088
218	0x3c0ed530	0.00871782
219	0x3e97c481	0.29642108
220	0xbc0bf819	-0.008543038
221	0x3f338901	0.70130926
222	0x3f14b019	0.58081204
223	0x3d291489	0.04127935
224	0x3d88523f	0.06656312
225	0xbd561cff	-0.052273747
226	0x3f5693e1	0.83819395
227	0xbd327d5f	-0.043576594
228	0xbd47da9f	-0.048792478
229	0x3ddda1df	0.1082189
230	0xbcd914e0	-0.026499212
231	0x3c8273b8	0.01592432
232	0x3f2dd410	0.67901707
233	0x3cc718e0	0.024303854
234	0x3f4467af	0.7672071
235	0x3e03a691	0.12856509
236	0x3eb58c96	0.3545882
237	0x3e061289	0.13093008
238	0x3d38fb71	0.04516167
239	0x3d9fe8a7	0.07808047
240	0xbdad433f	-0.08460092
241	0x3d14abc9	0.03629664
242	0x3eb69dcf	0.35667273
243	0xbe2b46bf	-0.16726206
244	0xbdbfefef	-0.093719356
245	0xbd969db9	-0.07354302
246	0x3df7de11	0.12102903
247	0x3cd6b131	0.026207538
248	0xbd9fa787	-0.07795625
249	0x3e0b6439	0.1361245
250	0x3e21e4c1	0.15809919
251	0x3d6178df	0.055046912
252	0x3d51d5bf	0.051229235
253	0xbd620ebf	-0.055189844
254	0xbce5e11f	-0.028061448
255	0x3d035471	0.03206295

lstm_cell.weight_hh f4 [256, 64]
0	0x3ee5e553	0.44901523
1	0x3ec1465f	0.37749
2	0x3f890b34	1.0706544
3	0xc085d314	-4.1820164
4	0x3faacffb	1.3344721
5	0xc034c05d	-2.824241
6	0xc0194e8b	-2.395419
7	0x401b9283	2.4308174
8	0x405eda73	3.482083
9	0x3f46c5f8	0.77645826
10	0x3ee211a9	0.441541
11	0xbfa32b4c	-1.2747588
12	0xbd202438	-0.03909704
13	0xbfb9d3b1	-1.4517728
14	0xbfecc3bb	-1.8497232
15	0xbe62db6d	-0.22154017
16	0xbf4eeced	-0.8083027
17	0x3f1babed	0.6080921
18	0xc0489be7	-3.1345155
19	0xbfc508de	-1.5393331
20	0xbd535c21	-0.051601533
21	0x40257e5d	2.5858376
22	0x40218e67	2.5243165
23	0xbf463ffd	-0.7744139
24	0x3f03880b	0.5137946
25	0x402138a9	2.5190833
26	0xc01d9ddf	-2.4627607
27	0x3f66bd98	0.9013305
28	0xbe311b15	-0.17295487
29	0xc03a409b	-2.9101932
30	0xbff5ba64	-1.9197507
31	0x3dcdbd08	0.100458205
32	0x3f971329	1.1802722
33	0xbff9c56b	-1.9513372
34	0xbecc6aec	-0.39925325
35	0x3f6c9af4	0.9242394
36	0x401c0d27	2.4383028
37	0xbfb1bcb0	-1.3885708
38	0x3e580434	0.21095353
39	0xc010611b	-2.2559268
40	0x3f9eb54b	1.2399076
41	0xbdbcc351	-0.09216941
42	0xc0325bed	-2.7868607
43	0xbf9474e6	-1.1598175
44	0xbf9ebf03	-1.2402042
45	0xbfed178f	-1.8522815
46	0x3f1086eb	0.5645587
47	0x3fc94ca4	1.5726514
48	0x3eed4ca0	0.46347523
49	0x4005719e	2.0850596
50	0xbfffa854	-1.9973245
51	0x3f32e929	0.69887024
52	0x3fbc6aed	1.4720131
53	0x3fc6a6da	1.5519669
54	0xc01853e1	-2.3801196
55	0x404305f6	3.0472388
56	0x3fa622bb	1.2979349
57	0xc016e284	-2.3575754
58	0x3f6db1df	0.92849535
59	0x3e9a464c	0.30131757
60	0x4035b08f	2.8389013
61	0x3fa3102b	1.2739309
62	0x3ef781ee	0.48341316
63	0x40369a3c	2.8531637
64	0x3edc3d49	0.43015507
65	0xbeedf072	-0.46472508
66	0x3d020ebd	0.031752337
67	0x3ea4c83d	0.3218402
68	0xc00e8cc8	-2.2273426
69	0xc02fe14e	-2.7481265
70	0x3f0faa39	0.56119114
71	0x3eb2c922	0.34919077
72	0xc0058cd2	-2.08672
73	0xbf8c9655	-1.0983378
74	0xbf21d660	-0.63217735
75	0xbf226f8f	-0.63451475
76	0xbf81ff9f	-1.0156134
77	0xbf0bf0a0	-0.5466404
78	0xbe58544e	-0.2112591
79	0x402f9978	2.743742
80	0xbf137bb2	-0.5761062
81	0xbf7f40d6	-0.99708307
82	0xbf518554	-0.8184407
83	0xc017c409	-2.37134
84	0xbf356898	-0.7086272
85	0x3fea3800	1.829834
86	0x3eb4547d	0.3522071
87	0x3f6b0b60	0.9181423
88	0x3f956e98	1.1674376
89	0xbe8ce86b	-0.2752107
90	0xc014fccf	-2.3279302
91	0xc077c8fd	-3.8716424
92	0xbf461c1c	-0.7738664
93	0xbea75ca2	-0.3268786
94	0xc00c3212	-2.190556
95	0xbf72db15	-0.9486554
96	0x3e3532a9	0.17695107
97	0x3fc439f6	1.5330188
98	0xc068d803	-3.6381843
99	0x400653b0	2.0988579
100	0x3fd093db	1.6295122
101	0xbed9a4a0	-0.4250841
102	0xbd8e085e	-0.0693519
103	0x403c378b	2.94089
104	0xbf8b0428	-1.0860643
105	0xbf544e99	-0.8293243
106	0x4092f180	4.59198
107	0x3f28907c	0.65845466
108	0xbfc73c3a	-1.5565255
109	0xbea307fc	-0.3184203
110	0xbfb8c644	-1.4435506
111	0xbf54f40d	-0.8318489
112	0x408078fa	4.0147676
113	0xc00121d2	-2.0176892
114	0x3f9fe976	1.2493122
115	0xc00a4bab	-2.1608684
116	0x3e58ac2a	0.21159425
117	0xbe3654fd	-0.17805858
118	0xc04da499	-3.2131712
119	0xbe01dfd6	-0.12683043
120	0xbddc427e	-0.1075487
121	0xbfec06e5	-1.8439604
122	0x3fe17b20	1.76157
123	0x3f19685c	0.59924865
124	0x3fd08cf5	1.6293017
125	0xbf94c08f	-1.1621264
126	0x3de97f37	0.114012174
127	0xbff82a34	-1.9387879
128	0x402a21d8	2.6583157
129	0x3f7cd6b1	0.98765093
130	0x3ebda010	0.3703618
131	0x3ee119bc	0.43964946
132	0x408d3a13	4.413339
133	0x3ea9d248	0.33168244
134	0x3e9e2696	0.30888814
135	0xbff6e197	-1.9287595
136	0x40064ded	2.0985062
137	0xc01b0dff	-2.4227293
138	0x3fd7e4a4	1.686665
139	0x3cedf158	0.029045746
140	0xbde81db8	-0.113337934
141	0xbfa9a07e	-1.3252103
142	0xbff44885	-1.9084631
143	0xbf259fbf	-0.6469688
144	0x3fc89cd2	1.5672858
145	0x3f2cbaaa	0.67472327
146	0xbf010320	-0.50395393
147	0xbff9683e	-1.9484937
148	0x40739c18	3.8064022
149	0x3ef87ea4	0.4853412
150	0x3fb8f96d	1.4451119
151	0x3fc5d997	1.5457028
152	0x3f22b378	0.635551
153	0x3fb925f0	1.4464703
154	0x3fd39b58	1.6531782
155	0xbeb4b0ee	-0.35291237
156	0xc0001e89	-2.0018637
157	0x402298b9	2.5405715
158	0x3f60d8b5	0.8783067
159	0x3f8c755a	1.0973313
160	0x3fc5559b	1.541675
161	0xbfc19095	-1.5122248
162	0xbd96cb82	-0.07363035
163	0xbf73da9e	-0.9525546
164	0x3fe6c9f9	1.8030387
165	0x3ff62302	1.9229434
166	0x3fa04015	1.2519556
167	0x4020c3da	2.5119538
168	0xc00e31e4	-2.221795
169	0xbefc61f1	-0.49293473
170	0xc01a57cd	-2.411609
171	0xbef6f140	-0.48230934
172	0x3fe95e65	1.8231932
173	0xc04bd65a	-3.184958
174	0x3f51adc7	0.8190579
175	0x3f8c4fdc	1.0961871
176	0x3e490cbb	0.19633763
177	0xc08b087e	-4.3447866
178	0x3f63c1c8	0.8896756
179	0x3f6b9aa1	0.9203282
180	0xc079569e	-3.8959117
181	0x3f9012ee	1.1255777
182	0x3f53a0c2	0.8266717
183	0x3f90dcf3	1.1317428
184	0x3fdd9921	1.7312356
185	0x3e906ce3	0.28208074
186	0xbf5366fd	-0.8257902
187	0x3f79ddaa	0.9760386
188	0x403ca5d5	2.9476216
189	0xbf9db081	-1.231949
190	0xbee9a8bf	-0.45636556
191	0xbfca6cf1	-1.5814496
192	0xbfd139f6	-1.6345813
193	0x3f7d862b	0.9903285
194	0xbe92d6fc	-0.28679645
195	0x3e2c48fc	0.16824716
196	0xbf32d57c	-0.69857
197	0x3e39a13f	0.18127917
198	0xbf775368	-0.9661164
199	0xbfeff906	-1.8747871
200	0xc04b8c10	-3.1804237
201	0x3fdac5c5	1.7091604
202	0xbfcb6272	-1.5889418
203	0xbf98a6ad	-1.1925865
204	0x3f7e75d4	0.9939854
205	0xbf435474	-0.7630074
206	0x3e471874	0.19442922
207	0xbe879aa6	-0.26485175
208	0x3ddb40c3	0.10705712
209	0x3ffd0880	1.9768219
210	0x3ff28484	1.894669
211	0xbd8be44d	-0.06830654
212	0xbf86f798	-1.054431
213	0xbf1420f7	-0.578628
214	0x3dec02d6	0.115239784
215	0x3eb2e00f	0.34936568
216	0x40362656	2.8460898
217	0xbba60d3d	-0.005067496
218	0x3f1ab836	0.60437334
219	0x40278acb	2.6178463
220	0x401d792d	2.460521
221	0x3fba7f3c	1.4570079
222	0xbdcd1753	-0.10014214
223	0xc096acfc	-4.7086163
224	0xbfe583b7	-1.7930821
225	0xbf61bc0f	-0.8817758
226	0x3f9f9d39	1.2469856
227	0x3ee5a4a2	0.44852167
228	0x3faff7ed	1.3747536
229	0xbe9dcd75	-0.30820814
230	0x4025d04b	2.5908382
231	0x3f3d5e7a	0.73972285
232	0xbe3e6d2e	-0.18596336
233	0x40356b92	2.8346906
234	0xc03cf5fe	-2.9525142
235	0xc0380afa	-2.87567
236	0x400367ca	2.0532098
237	0xbebe3784	-0.3715173
238	0x40309a61	2.7594225
239	0x3f4ac016	0.7919935
240	0x40292c74	2.6433382
241	0x3d07df49	0.033171926
242	0xbf14a38b	-0.58062047
243	0x3ee4a7fa	0.44659406
244	0x3d06c855	0.032905895
245	0xbf496990	-0.786767
246	0x3e9443e3	0.28958043
247	0xc0197ceb	-2.3982494
248	0xbea6e5ae	-0.32597107
249	0x4002840c	2.0393095
250	0xc04fe918	-3.248602
251	0xbeef83a6	-0.46780127
252	0xbf9dd76b	-1.2331365
253	0xbf8d4b17	-1.1038541
254	0x3f044ec9	0.51682717
255	0xc023e6aa	-2.5609536

lstm_cell.bias_ih f4 [256]
0	0xbfa4b4ce	-1.2867677
1	0x3fd736f6	1.6813648
2	0x3f16c4ff	0.5889434
3	0x404d1857	3.2046106
4	0x403e4362	2.9728627
5	0x4050ca8a	3.262362
6	0x3f8488fd	1.0354306
7	0x40281989	2.6265585
8	0x3f335480	0.7005081
9	0x3f2d4769	0.6768709
10	0x404c6e0f	3.1942174
11	0x40086a35	2.1314824
12	0xc074d572	-3.8255277
13	0x3d102fb8	0.03520176
14	0xc040d6a3	-3.0131004
15	0x3d7563ac	0.059909508
16	0x403a07f6	2.906736
17	0xc0148c00	-2.321045
18	0xc0310f76	-2.7665687
19	0x3f57ac1d	0.84247
20	0xbfba6e6c	-1.4564948
21	0xc081a8fa	-4.051877
22	0xbfcf1848	-1.6179285
23	0x3eaf49c4	0.34235966
24	0x3fe26c84	1.7689366
25	0xbf8f944f	-1.1217135
26	0x3f519e60	0.81882286
27	0x3f8f9b7f	1.1219329
28	0xbf365446	-0.7122234
29	0x401c7540	2.4446564
30	0x401b6697	2.4281366
31	0x3e8798fb	0.26483902
32	0x3fd17173	1.6362747
33	0x3feb1b94	1.8367791
34	0xbf0b65b7	-0.5445208
35	0xbfa06764	-1.2531552
36	0xbf23168b	-0.6370627
37	0x3fb18e0c	1.3871474
38	0xbe74eec0	-0.23919201
39	0x3fd229ab	1.6418966
40	0x3ef6d778	0.48211265
41	0x3f51764b	0.81821126
42	0x3f33b146	0.7019237
43	0xbfba0cb0	-1.4535122
44	0xc0999450	-4.7993546
45	0xbfda1ada	-1.7039444
46	0x3f449750	0.76793385
47	0xbd1cafc4	-0.03825356
48	0xc08c758b	-4.3893485
49	0xc008d3af	-2.1379201
50	0xc0399d56	-2.900228
51	0x3f1d07e1	0.6134015
52	0xc01cf3d6	-2.4523826
53	0xbfe9d7be	-1.8268964
54	0xbe2da94f	-0.16959117
55	0xbe1f54cf	-0.15559696
56	0xc00d68f7	-2.2095315
57	0xc03f8b55	-2.9928792
58	0x3fa172c6	1.2613151
59	0x3f2f4399	0.6846252
60	0x3f6029b8	0.8756366
61	0x404d6de0	3.2098312
62	0x4011816d	2.2735245
63	0xc0364721	-2.8480914
64	0xbf9671c2	-1.1753466
65	0xbf228581	-0.6348496
66	0xbea8d6b2	-0.329763
67	0x3f5ef5ae	0.8709363
68	0xbfc67812	-1.5505393
69	0x3e8d1c4c	0.2756065
70	0x3f72be19	0.94821316
71	0xc01575c3	-2.3353126
72	0x3f586c0f	0.84539884
73	0xbf89235e	-1.0713918
74	0xc059f0c1	-3.4053195
75	0xc02556c1	-2.58342
76	0x3f3ec3c5	0.7451747
77	0x3c763557	0.015027366
78	0xbff0fc72	-1.882704
79	0x3e87aded	0.26499882
80	0xbf6e9d47	-0.93208736
81	0x3eef50eb	0.46741423
82	0xbf1d6109	-0.6147619
83	0x40056037	2.0839975
84	0xc031b4e4	-2.7766657
85	0x3f44e0e9	0.76905686
86	0xc02bcd3e	-2.684402
87	0xbfa4813d	-1.285194
88	0x3f4e2ffa	0.80541956
89	0xbf20a65a	-0.6275383
90	0x3e73a404	0.23793036
91	0xbee0b46b	-0.43887648
92	0xbfad8ec7	-1.3559197
93	0xbf7fc9e2	-0.99917424
94	0x3e8c3298	0.2738235
95	0xbf58bfd3	-0.846677
96	0xbd79524d	-0.060869504
97	0xc03a535b	-2.9113376
98	0xbe65c00c	-0.22436541
99	0xc0562e2e	-3.3465686
100	0x40258e8e	2.5868258
101	0xbf698b1a	-0.9122788
102	0xbede57f1	-0.4342647
103	0xbfd6719e	-1.6753423
104	0xbfc1fc22	-1.515507
105	0x3fe1e02a	1.7646534
106	0x3f319741	0.6937142
107	0x3f0fe47b	0.5620801
108	0xbeb6e646	-0.3572256
109	0xc007e71b	-2.1234806
110	0xbf84a548	-1.036294
111	0xbf6294cd	-0.885083
112	0xbfa20869	-1.2658817
113	0x3f80cb17	1.0061978
114	0xbf05d49d	-0.5227755
115	0xc00fa4ff	-2.2444456
116	0xc023f418	-2.5617733
117	0x3e856f85	0.26061645
118	0x3ee3b3e1	0.44473174
119	0xbfd6c548	-1.6778955
120	0x4017e88d	2.3735688
121	0x3fa630d4	1.2983651
122	0xc08869a5	-4.262896
123	0x4009b7ad	2.1518357
124	0xbe678961	-0.22611
125	0xc0033f31	-2.050732
126	0x3f348d56	0.7052816
127	0xbeec2a5e	-0.46126074
128	0x403f4750	2.9887276
129	0xbe955590	-0.29166842
130	0xc065c12c	-3.5899153
131	0xc012a944	-2.2915812
132	0x3fc6fa20	1.5545082
133	0xbf0595e4	-0.5218184
134	0x3f116feb	0.568114
135	0xbfbf0b62	-1.4925349
136	0x400f54d7	2.2395532
137	0xc0061e50	-2.0956001
138	0x4075ba76	3.8395057
139	0x3f29dcb2	0.6635238
140	0x3e2ec34b	0.17066686
141	0x4039a702	2.9008183
142	0x3fde04b8	1.734519
143	0xbf1650b3	-0.5871689
144	0x4018199a	2.3765626
145	0x409136b5	4.537928
146	0xc00b7874	-2.1792269
147	0x3e81f3ef	0.2538142
148	0xbf6af9b9	-0.91787297
149	0x3e5efc17	0.21775852
150	0x3f12c7fa	0.5733639
151	0x3f4173fd	0.7556761
152	0x3f18dc98	0.597116
153	0xbf091112	-0.5354167
154	0x3d9b5170	0.07583892
155	0xbfe40f08	-1.7817087
156	0x3f50ba6d	0.81534463
157	0x3f3e1e4e	0.7426499
158	0x40162361	2.3459094
159	0x401b5fd3	2.4277236
160	0x3ff63a9a	1.9236634
161	0xbfc21607	-1.5162972
162	0xbec225fe	-0.3791961
163	0x3ff843d0	1.9395695
164	0x3ff029f6	1.8762805
165	0xbe95f577	-0.29288837
166	0x3fb43218	1.4077787
167	0x3eae6d2b	0.34067664
168	0xbebc59a2	-0.36787134
169	0x3fddd923	1.733189
170	0xbf0aa79f	-0.5416202
171	0x3ff20865	1.8908812
172	0x3f41dfc7	0.7573208
173	0x3c2b6b9d	0.010462669
174	0x4054b36d	3.3234513
175	0xc02813d4	-2.6262102
176	0xc001aa18	-2.0260067
177	0x3ea4ffa7	0.32226297
178	0x3ec9139a	0.39272767
179	0xbf30a575	-0.6900247
180	0xbf8f66e1	-1.1203271
181	0xc0339206	-2.8057876
182	0xbfb48d4e	-1.4105623
183	0xbfee202e	-1.860357
184	0xbeb008d8	-0.34381747
185	0x3fa4db24	1.2879376
186	0xbf9e0d65	-1.2347838
187	0xbd2b1ee6	-0.041777514
188	0xbfe8947d	-1.8170315
189	0xbfa6cbb6	-1.3030918
190	0x40013d0b	2.0193508
191	0x3f24f0d8	0.6443
192	0xbe875a12	-0.26435906
193	0xc085dbbb	-4.1830726
194	0x3f20f621	0.6287556
195	0x40a520e1	5.1602635
196	0xbf46ade2	-0.77609074
197	0xc00ff28b	-2.2491786
198	0x3fce7538	1.6129522
199	0x3ffa9cb7	1.9579076
200	0xbf9ebfee	-1.2402322
201	0x3f608f27	0.87718433
202	0xc002117d	-2.0323174
203	0x405613ac	3.3449507
204	0xbf6eeb27	-0.93327564
205	0x3fd8cf38	1.6938238
206	0xc0304533	-2.7542236
207	0xbef8733d	-0.4852542
208	0xc01b4c68	-2.4265385
209	0xbf22b9e8	-0.6356492
210	0xc020b1f0	-2.5108604
211	0x3dc5cb47	0.09657913
212	0x3f93222c	1.1494803
213	0xbf7ba5be	-0.9829978
214	0x3fa9cad8	1.3265028
215	0x3f41fa9a	0.7577301
216	0xbf352078	-0.7075267
217	0x3e27f33e	0.16401383
218	0x3feac3a2	1.8340952
219	0xc0501080	-3.251007
220	0x3ed62f8b	0.41833147
221	0xbfbd4d3a	-1.4789193
222	0x3fb53d71	1.4159375
223	0xbee852dd	-0.4537572
224	0xbf4fa43f	-0.81109995
225	0x4008e8ca	2.1392083
226	0xbea16113	-0.31519374
227	0xbf9c0d6e	-1.2191598
228	0xbeecbf02	-0.46239477
229	0x40369e7d	2.8534234
230	0xc0096fd4	-2.1474504
231	0x40439904	3.0562143
232	0x3f159354	0.5842793
233	0x40530ceb	3.2976635
234	0xbfddfbc4	-1.7342458
235	0x3fdd7d46	1.7303855
236	0xc017fe71	-2.3749049
237	0xc086902e	-4.2051
238	0x3fe31800	1.7741699
239	0xbf4ee1bc	-0.80813193
240	0xc04d47f3	-3.2075164
241	0xbfdcdfbf	-1.7255782
242	0xbff813ce	-1.9381044
243	0xc00ab3ea	-2.167231
244	0xbf55d62d	-0.8352993
245	0xbfd49437	-1.6607732
246	0x40093d08	2.14435
247	0xc01a008f	-2.406284
248	0x401af032	2.4209104
249	0xbf8a01d3	-1.0781807
250	0x3ead65dc	0.33866775
251	0xc012fde4	-2.2967463
252	0xbf396ff2	-0.7243644
253	0x3f8164fd	1.0108944
254	0xc01afda5	-2.4217312
255	0x3eb8550a	0.3600238

lstm_cell.bias_hh f4 [256]
0	0xbfa8d984	-1.319138
1	0x3fe51df1	1.7899762
2	0x3ebcab34	0.36849368
3	0x4048a6db	3.135184
4	0x4042e102	3.0449834
5	0x40517c8a	3.2732263
6	0x3f6f18ea	0.9339739
7	0x402a5e96	2.662023
8	0x3f38f500	0.7224884
9	0x3f27879a	0.65441287
10	0x404cac9f	3.198036
11	0x401084e1	2.2581103
12	0xc07f2bd2	-3.9870496
13	0x3e073925	0.13205393
14	0xc03725a3	-2.8616722
15	0x3dcbfe09	0.09960563
16	0x4039cba6	2.9030547
17	0xc01d7180	-2.4600525
18	0xc0311c96	-2.7673697
19	0x3f37d6ae	0.7181195
20	0xbfbba10c	-1.4658523
21	0xc07a13d6	-3.9074607
22	0xbfdaca78	-1.7093039
23	0x3eba1129	0.36341217
24	0x3fdca364	1.7237363
25	0xbf9ca92f	-1.2239131
26	0x3f864b76	1.0491779
27	0x3f8273ef	1.019163
28	0xbf1f7a07	-0.62295574
29	0x40185270	2.3800316
30	0x40254a19	2.5826476
31	0x3e889c53	0.26681766
32	0x3fd3edf3	1.6556991
33	0x3fe831b4	1.8140168
34	0xbf21e602	-0.6324159
35	0xbf968eb4	-1.17623
36	0xbf39cdc5	-0.72579604
37	0x3fc8fb97	1.5701779
38	0xbe52b820	-0.2057805
39	0x3fe014ab	1.7506307
40	0x3e8a6705	0.27031723
41	0x3f65cafb	0.8976285
42	0x3f5cccd1	0.86250025
43	0xbfab18e0	-1.3366966
44	0xc09b5820	-4.8545074
45	0xbfd556ba	-1.6667092
46	0x3f484ea0	0.7824497
47	0x3a602d63	0.0008551685
48	0xc08c8b8c	-4.3920345
49	0xc00568cf	-2.084522
50	0xc03257c6	-2.7866073
51	0x3f268811	0.6505137
52	0xc0294f76	-2.645475
53	0xbfee515e	-1.8618581
54	0xbcc1e87e	-0.023670431
55	0xbe75ba83	-0.2399693
56	0xc009fa67	-2.1559083
57	0xc0375ce5	-2.8650448
58	0x3f9b5241	1.2134477
59	0x3f105281	0.5637589
60	0x3f518f18	0.8185897
61	0x404b2387	3.1740434
62	0x4008c05d	2.136741
63	0xc0318761	-2.7738879
64	0xbf883b52	-1.0643103
65	0xbefacaac	-0.4898275
66	0xbe97e292	-0.29665047
67	0x3f719acf	0.94376844
68	0xbfbdcc92	-1.4828055
69	0x3e8d54ec	0.27603853
70	0x3f8403d0	1.0313663
71	0xc018afd3	-2.3857315
72	0x3f44eaef	0.7692098
73	0xbf9b5b8b	-1.2137312
74	0xc05e5a51	-3.4742625
75	0xc026c611	-2.605839
76	0x3f2a986d	0.66638833
77	0x3e7581a0	0.2397523
78	0xbfd8f065	-1.6948363
79	0x3ea0f63b	0.3143786
80	0xbf919b8a	-1.1375592
81	0x3ec78735	0.38970342
82	0xbf07cca9	-0.5304666
83	0x4002b8c0	2.0425262
84	0xc0311c94	-2.7673693
85	0x3f24cf15	0.6437848
86	0xc02d55e7	-2.708368
87	0xbfa50be5	-1.2894255
88	0x3f4c6026	0.7983421
89	0xbf0b1809	-0.5433355
90	0x3e203bfb	0.1564788
91	0xbef098cb	-0.46991572
92	0xbfa8b111	-1.3179036
93	0xbf765c6e	-0.96234787
94	0x3e799607	0.24373637
95	0xbf64e783	-0.8941576
96	0xbdc289d3	-0.09498944
97	0xc03b1f5b	-2.9237888
98	0xbe8b69eb	-0.27229246
99	0xc04dea1e	-3.2174144
100	0x402b08af	2.672405
101	0xbf82c785	-1.0217139
102	0xbe9f4a96	-0.31111592
103	0xbfe51f7e	-1.7900236
104	0xbfab2cd1	-1.3373052
105	0x3fee893a	1.8635628
106	0x3f5c77d2	0.8612033
107	0x3f1d382d	0.6141384
108	0xbe945f54	-0.2897898
109	0xc003657b	-2.0530689
110	0xbf89d5f8	-1.0768423
111	0xbf637eed	-0.8886555
112	0xbf835fe8	-1.0263643
113	0x3f7cf46c	0.9881046
114	0xbeac5a60	-0.336627
115	0xc012e58f	-2.2952611
116	0xc01d62d8	-2.459158
117	0x3e706007	0.23474132
118	0x3ec56122	0.3855067
119	0xbfdec858	-1.740489
120	0x4013264d	2.2992127
121	0x3fafbec4	1.3730092
122	0xc081d2b7	-4.056972
123	0x400ccee8	2.2001286
124	0xbe643e21	-0.22289325
125	0xc0093e11	-2.1444132
126	0x3f1189a2	0.56850636
127	0xbecd2cde	-0.40073293
128	0x403b2792	2.9242902
129	0xbf062ecb	-0.5241515
130	0xc06554ac	-3.583293
131	0xc015f3a4	-2.3429956
132	0x3fb7c840	1.4357986
133	0xbf0232e4	-0.508589
134	0x3eea3cb6	0.45749444
135	0xbfbe568f	-1.4870166
136	0x4008f7bd	2.1401207
137	0xc003d4d0	-2.059864
138	0x407ef416	3.9836478
139	0x3f454206	0.7705387
140	0x3e620d8e	0.22075483
141	0x403a5602	2.9114995
142	0x3fc41d83	1.5321506
143	0xbf2a2e71	-0.66477114
144	0x4023e2c6	2.5607162
145	0x408df945	4.4366784
146	0xc00fb38c	-2.2453337
147	0x3e4a8890	0.19778657
148	0xbf5e3d09	-0.8681188
149	0x3e3d76a3	0.18502288
150	0x3f0f959b	0.56087655
151	0x3f24ee7d	0.64426404
152	0x3f502108	0.813004
153	0xbf081e22	-0.5317098
154	0x3d858778	0.06519979
155	0xbfe8cbc8	-1.8187189
156	0x3f48be7f	0.78415674
157	0x3f4af34e	0.79277503
158	0x401b8302	2.429871
159	0x400f8063	2.242211
160	0x3fea33ea	1.8297093
161	0xbfab9ad0	-1.340662
162	0xbeaef012	-0.34167534
163	0x3ffebd50	1.9901524
164	0x3fe40216	1.7813137
165	0xbe79c77b	-0.24392502
166	0x3fa46458	1.2843122
167	0x3e8735a7	0.2640812
168	0xbeb37572	-0.3505054
169	0x3fd6bd53	1.6776527
170	0xbf11f910	-0.57020664
171	0x3ff41085	1.9067541
172	0x3f4c5918	0.79823446
173	0x3d842a7d	0.064534165
174	0x40535dcd	3.3026001
175	0xc023e634	-2.5609255
176	0xc00879d8	-2.1324368
177	0x3e65da5e	0.22446582
178	0x3ec5963b	0.3859118
179	0xbf248e75	-0.6427987
180	0xbfa91ab3	-1.3211273
181	0xc0321633	-2.782605
182	0xbfa15433	-1.260382
183	0xbff36ede	-1.9018209
184	0xbed3a42e	-0.41336197
185	0x3fb874c7	1.4410638
186	0xbf9f0145	-1.2422262
187	0xbd9ccf5f	-0.076567404
188	0xbffb328d	-1.9624802
189	0xbfbe5455	-1.4869486
190	0x3fe5d903	1.7956852
191	0x3f1b6318	0.6069808
192	0xbe59fb8e	-0.21287367
193	0xc0849753	-4.143472
194	0x3f1fcac1	0.6241875
195	0x40aa3cac	5.319906
196	0xbf4d7c12	-0.8026744
197	0xc010365b	-2.2533176
198	0x3fb86649	1.4406215
199	0x3feee4e7	1.8663605
200	0xbf904d8e	-1.1273668
201	0x3f52a7a7	0.8228707
202	0xc0011fdd	-2.0175698
203	0x404e296c	3.2212782
204	0xbf838f15	-1.027804
205	0x3fd7e6f8	1.6867361
206	0xc02fdde3	-2.747918
207	0xbf2d0427	-0.6758446
208	0xc00f0328	-2.2345676
209	0xbf37eae8	-0.71842813
210	0xc01a48c0	-2.4106903
211	0x3dd727a7	0.1050561
212	0x3fac0a2b	1.3440603
213	0xbf8460a2	-1.034199
214	0x3fb08c35	1.3792788
215	0x3f4599fa	0.77188075
216	0xbf459a5e	-0.7718867
217	0x3e722452	0.23646668
218	0x3fea4382	1.8301852
219	0xc0539190	-3.3057594
220	0x3ef41d87	0.47678778
221	0xbfc1289a	-1.5090516
222	0x3fbc5c91	1.4715749
223	0xbf06ca1e	-0.52652156
224	0xbf36f98f	-0.71474546
225	0x400bee76	2.1864295
226	0xbe78009d	-0.24218984
227	0xbf87e35e	-1.0616262
228	0xbef47e62	-0.47752672
229	0x403742fd	2.8634636
230	0xc009f401	-2.1555178
231	0x4046f224	3.108529
232	0x3f23e9d4	0.6402867
233	0x4055539b	3.3332279
234	0xbfcca525	-1.5987898
235	0x3fde87e6	1.7385223
236	0xc0217c9e	-2.523231
237	0xc087cb8e	-4.243598
238	0x3fe05ed0	1.7528934
239	0xbf2da56c	-0.6783054
240	0xc04a2685	-3.158601
241	0xbfe1e8df	-1.7649192
242	0xbfe8e2ee	-1.8194253
243	0xc006fefa	-2.1093125
244	0xbf692e7d	-0.9108656
245	0xbfc3e7ce	-1.5305116
246	0x40099ce4	2.1502008
247	0xc00e57df	-2.2241132
248	0x4010ef22	2.2645955
249	0xbf7ca845	-0.9869426
250	0x3ea48132	0.32129818
251	0xc00f998d	-2.243747
252	0xbf44d872	-0.7689277
253	0x3f7f7e78	0.9980235
254	0xc0279b05	-2.6188366
255	0x3ec97dbb	0.39353737

linear0.weight f4 [32, 384]
0	0xbd553b61	-0.05205858
1	0x3bdb9271	0.006700807
2	0xbdc5961e	-0.09647773
3	0xbcfb4ab0	-0.030675262
4	0x3daaf19a	0.08346863
5	0x3d49ac1f	0.049236413
6	0xbdac4e51	-0.08413375
7	0x3d560f0f	0.052260455
8	0x3db5cb1f	0.08876633
9	0x3d9622ef	0.07330882
10	0xbd266a91	-0.040628973
11	0x3d1b1a26	0.037866734
12	0x3d34cf3a	0.04414294
13	0x3d7ce2a1	0.061739568
14	0xbdd5f3a1	-0.10446859
15	0xbdc388e5	-0.09547595
16	0x3d237990	0.039910853
17	0xbd48f4ef	-0.049061712
18	0xbd7b3b2f	-0.06133574
19	0x3aae1546	0.0013281486
20	0xba113b69	-0.0005540164
21	0xbd13b917	-0.036065187
22	0xbc8cdc81	-0.017194988
23	0xbdcdc4ff	-0.1004734
24	0xbd91b3b1	-0.071143515
25	0xbdc038ef	-0.09385859
26	0x39cd568f	0.00039165138
27	0x3d184e51	0.037184063
28	0x3dd1c011	0.10241712
29	0x3bbdfcfe	0.0057979813
30	0xbdb1c6b1	-0.086804755
31	0x3db7bcaa	0.08971532
32	0xbda45336	-0.08023684
33	0x3c2b8406	0.010468489
34	0x3ca2cfa7	0.019874407
35	0x3c9908a1	0.018680872
36	0xbd91da81	-0.071217544
37	0xbd6f834f	-0.058474835
38	0xbb3b5b02	-0.002858818
39	0xbdeaee8f	-0.11471283
40	0x3dad8ec6	0.084744975
41	0x3dce5151	0.100741036
42	0x3d5e8d7b	0.054334145
43	0xbcc30ecf	-0.023810772
44	0xbd3313ff	-0.04372024
45	0x3d88b331	0.06674803
46	0xbcd125df	-0.025530754
47	0xbc6c118f	-0.014408483
48	0x3da6fc79	0.08153624
49	0xbca00f89	-0.019538658
50	0x3d9c5ed9	0.07635278
51	0xbd786431	-0.060642425
52	0x3c4dbccf	0.0125572225
53	0xbdcb62df	-0.099309675
54	0x3a0456d9	0.00050483417
55	0xbd652f0f	-0.05595308
56	0xbd28586f	-0.04109996
57	0x3dd1fe11	0.102535374
58	0x3cd71b4f	0.026258139
59	0x3d29b657	0.04143366
60	0xbd3f92fa	-0.046771027
61	0x3d7e87f0	0.06214136
62	0xbd3f43a5	-0.04669537
63	0x3ca1c219	0.019745873
64	0xbcc47fd1	-0.023986729
65	0x3d385826	0.04500594
66	0xbd833869	-0.06407244
67	0xbd4e100f	-0.050308283
68	0x3d94b0cf	0.07260286
69	0x3cf58411	0.0299702
70	0xbdb90af0	-0.09035289
71	0x3d9e1e97	0.07720678
72	0x3d843940	0.06456232
73	0x3d848a8f	0.064717405
74	0xbd3e6d65	-0.046491046
75	0x3d8826c7	0.06648021
76	0x3db3eaef	0.087850444
77	0x3df795a0	0.120890856
78	0xbda55629	-0.08073074
79	0xbd8e7b7f	-0.06957149
80	0x3cd17f7f	0.02557349
81	0xbd86a5d7	-0.065746
82	0xbdf6991f	-0.12040924
83	0x3a43718f	0.0007455581
84	0xbd9b3a5f	-0.07579493
85	0xbc852801	-0.016254427
86	0xbd54b121	-0.051926736
87	0xbda45a91	-0.08025087
88	0xbdb14e1f	-0.086574785
89	0xbd8658b7	-0.0655989
90	0xbd9067e9	-0.07051069
91	0x3dc8daae	0.09807335
92	0x3dd4cdd1	0.10390819
93	0xbd791241	-0.060808424
94	0xbd9457af	-0.07243287
95	0x3da043df	0.078254454
96	0xbda09251	-0.07840408
97	0x3d6e4521	0.058171395
98	0x3d882c29	0.06649048
99	0x3c1984ef	0.009370073
100	0xbcda585f	-0.026653467
101	0xbdd5efb0	-0.104461074
102	0xbc16f031	-0.0092125395
103	0xbd3d96f1	-0.046286527
104	0x3de44911	0.11146749
105	0x3b9e401f	0.004829421
106	0x3bb8889f	0.005631521
107	0xbdb3004f	-0.08740293
108	0xbd9e5741	-0.07731486
109	0x3de3a2af	0.11115014
110	0xbd472e81	-0.048628334
111	0x3dd2c611	0.102916844
112	0x3d5c5ae5	0.05379762
113	0xbc964b58	-0.018346474
114	0x3dccf49f	0.10007595
115	0xbdb553ca	-0.08853872
116	0x3d98e3e1	0.074653395
117	0xbd68d94f	-0.056847867
118	0x3d2359c1	0.039880518
119	0xbcd5a34f	-0.026078848
120	0xbdb77eff	-0.089597695
121	0x3dbf4d51	0.09340919
122	0x3d6d8af1	0.057993833
123	0x3d96cfd1	0.073638566
124	0xbdc56dc5	-0.096400775
125	0x3ca3228f	0.01991394
126	0xbd933ad0	-0.07188952
127	0x3d88a268	0.066716015
128	0xbc73d921	-0.0148833105
129	0xbd168139	-0.03674433
130	0xbd5a30bf	-0.053269144
131	0xbcd1c621	-0.02560717
132	0xbcc5fe31	-0.02416906
133	0xbdcb5551	-0.09928382
134	0xbdc995e1	-0.0984304
135	0xbdde06ef	-0.10841166
136	0x3d3cfb00	0.04613781
137	0xbcce9b5f	-0.025220571
138	0xbcd5dcff	-0.026106356
139	0xbd238259	-0.03991923
140	0xbdde20e1	-0.10846115
141	0xbd76c7a1	-0.060248975
142	0x3be8e0d0	0.007106878
143	0xbdd8bc2f	-0.10582768
144	0xbc8c1c17	-0.017103238
145	0xbc5dbfaf	-0.01353447
146	0xbd717c3f	-0.05895638
147	0xbd6e8bcf	-0.0582388
148	0xbd0912b7	-0.033465113
149	0xbd4dd0ff	-0.050248142
150	0xbdc6732f	-0.09689938
151	0xbd33ffa6	-0.043944977
152	0xbc708921	-0.014681132
153	0xbddda43f	-0.10822343
154	0x3d20c501	0.039250378
155	0xbda15107	-0.07876783
156	0xbd973ba1	-0.0738442
157	0xbda933f7	-0.08261865
158	0xbd8e47f7	-0.0694732
159	0xbda80139	-0.08203358
160	0xbc0955f7	-0.008382312
161	0xbd9d3f7f	-0.076781265
162	0xbc800229	-0.01562603
163	0xbc9307c9	-0.017948048
164	0xbcced151	-0.025246294
165	0xbd43d5e1	-0.047811393
166	0xbc3b3eff	-0.011428594
167	0xbd21e4e7	-0.03952494
168	0xbd8e6547	-0.06952911
169	0x3d162287	0.03665402
170	0xbdc6d5ef	-0.09708773
171	0xbda10b59	-0.078634925
172	0xbd5fec0f	-0.054668482
173	0xbddd0a4f	-0.10792982
174	0xbc811dd0	-0.015761286
175	0xbce5afe1	-0.028037967
176	0xbc96a430	-0.018388838
177	0x3d0028b1	0.031288806
178	0xbd80f127	-0.06295996
179	0xbcc8d13f	-0.024513839
180	0x3bebcbf0	0.007195942
181	0xbd03022f	-0.031984504
182	0xbda970c9	-0.08273465
183	0xbd49f271	-0.049303476
184	0xbc5d56e1	-0.013509483
185	0xbd7a8200	-0.061159134
186	0xbd8328c1	-0.064042576
187	0xbca90aa7	-0.020634962
188	0xbd9a3331	-0.07529295
189	0xbdc30481	-0.095223434
190	0xbda82319	-0.08209819
191	0xbdd1d20f	-0.102451436
192	0xbd388da1	-0.045056943
193	0x3d12672f	0.035742935
194	0x3c35004a	0.011047432
195	0xbcbd5dd1	-0.023116024
196	0x3c3d9e21	0.011573345
197	0xbce0ef21	-0.027457776
198	0xbd0bfa67	-0.03417435
199	0xbc471950	-0.012152031
200	0xbc11bd20	-0.008895189
201	0xbc955a9f	-0.018231688
202	0x3bb30c50	0.0054641142
203	0x3cd1b131	0.025597187
204	0x3cba5d3f	0.022749541
205	0x3d899f6f	0.06719863
206	0xbc867067	-0.01641102
207	0x3cd954a5	0.02652962
208	0xbcdb4f91	-0.026771339
209	0xbcc3b15b	-0.02388828
210	0x3d0dffb9	0.034667704
211	0x3d75366f	0.059866365
212	0xbb705df1	-0.0036677087
213	0x3cf8b71f	0.030360756
214	0x3c799d51	0.015235261
215	0xbb804207	-0.003914121
216	0x3cd293db	0.025705269
217	0x3c211cc9	0.009833523
218	0x3b0e79a1	0.0021739977
219	0xbd0803ff	-0.033206936
220	0xbcc7808f	-0.024353294
221	0xbd27109f	-0.040787335
222	0xbd42d97e	-0.047570698
223	0x3d2eebc1	0.0427053
224	0xbcd3e6a1	-0.025866808
225	0x3caade71	0.020858021
226	0x3d6a399f	0.057183858
227	0x3d5e7d80	0.054318905
228	0xbbf270e1	-0.00739871
229	0x3d03782f	0.032097038
230	0xbc5fc061	-0.013656707
231	0x3cc24a55	0.023717085
232	0x3d4bed31	0.04978675
233	0x3d1b800f	0.037963923
234	0xbc299299	-0.010349893
235	0xbd4ee5d1	-0.05051214
236	0xbd1de8df	-0.03855216
237	0x39342f00	0.00017183647
238	0x3d44a76f	0.04801124
239	0x3c7175f0	0.014737591
240	0xbd426111	-0.04745585
241	0x3d36074a	0.044440545
242	0xbbd73ce1	-0.0065685366
243	0xbd3d7a80	-0.046259403
244	0x3d0050df	0.031327125
245	0x3d37421f	0.044740792
246	0xbd0cd9f7	-0.034387555
247	0x3d03aca8	0.03214708
248	0x3d3d2581	0.046178345
249	0x3d42abcf	0.04752713
250	0x3d48c15f	0.049012538
251	0xbc4f5abf	-0.012655913
252	0x3caa329f	0.020776091
253	0x3d1fbc30	0.03899783
254	0xbc8ae207	-0.016953481
255	0xbb7f6300	-0.003896892

linear0.bias f4 [32]
0	0xbdba912f	-0.09109723
1	0xbe3765aa	-0.17909876
2	0x3d94501b	0.072418414
3	0xbe8ee581	-0.27909473
4	0xbd06e577	-0.03293368
5	0xbdbd5a05	-0.092456855
6	0xbce12631	-0.027484031
7	0x3eda5190	0.42640352
8	0xbe23884f	-0.15969966
9	0xbd97656f	-0.07392394
10	0xbee6df11	-0.4509206
11	0xbe8445b7	-0.25834438
12	0xbe8cefc0	-0.27526665
13	0xbec732a6	-0.3890583
14	0x3d18a587	0.037267234
15	0xbe6703bf	-0.22560023
16	0xbe9214d8	-0.28531528
17	0x3d724019	0.05914316
18	0xbe4b24ff	-0.19838332
19	0xbdb7c5f1	-0.08973301
20	0xbd71679f	-0.05893671
21	0xbc5381bf	-0.012909352
22	0x3d548306	0.051882766
23	0x3e33cf94	0.17559654
24	0xbaa3f0d6	-0.0012507688
25	0xbe25373f	-0.16134356
26	0xbb8ad4e7	-0.0042368057
27	0xbd4da271	-0.050203744
28	0x3ce4a494	0.027910508
29	0xbd8a6e91	-0.0675937
30	0xbe78f301	-0.24311449
31	0xbe73839f	-0.23780678
