model/1715146453/1_Pee1_global_model_2.pth (torch, 331092 bytes, 17 tensors)

conv1.lin_l.weight f4 [16, 1]
00000000: 712a 22bf efad 5ebc dfd5 30bf 91ff 26bf
00000010: e14e 00bf 4b9a 8d3e 110e 56bf 3e82 1dbe
00000020: d6b5 22bf b506 af3d 385f 88be 45e1 60bf
00000030: c978 4d3d 3fa2 f8be 0e6d c83e 618f e8be
-0.6334601 -0.013591274 -0.6907634 -0.65233713 -0.5012036 0.2765678 -0.83615214 -0.15381715
-0.6355871 0.08546201 -0.26635146 -0.87843734 0.050164018 -0.48561284 0.39145702 -0.4542189

conv1.lin_l.bias f4 [16]
00000000: 06cb 1ebe 5abf 173f fd3b 8abf 5fc6 be3e
00000010: 1f0d e33e 2248 92be b1bd 51bf 620f c83e
00000020: ffcb 2a3f d0ff 31bf 8fe3 213f f524 71bf
00000030: c139 fe3e 507c 84be 40da c7be d053 d9bd
-0.15507135 0.59276354 -1.0799557 0.3726072 0.44345948 -0.28570658 -0.8193007 0.39074236
0.66717523 -0.69530964 0.6323785 -0.94197017 0.49653438 -0.25876093 -0.390337 -0.10611689

conv1.lin_r.weight f4 [16, 1]
00000000: d1bd 7fbf a187 00bf 3891 3e3e b14b 5bbf
00000010: 116b a5be 10d5 163f 1b56 38bf c7fe ea3d
00000020: 8fee f9be de21 51bf 2f62 57bf 75c2 da3d
00000030: 3cb1 44bf e1b7 4bbf f12a 8cbe 8034 65bd
-0.9989901 -0.50206953 0.18610084 -0.8566237 -0.32308248 0.5891886 -0.72006387 0.11474376
-0.48814818 -0.816923 -0.8413419 0.10681621 -0.7683294 -0.7957745 -0.27376512 -0.05595827

conv2.lin_l.weight f4 [64, 16]
00000000: b199 acbd 5f13 0f3e 9fb9 b8bc a991 0f3e
00000010: 893a 0abd 8104 62bd f047 17be d02f c83d
00000020: 5f6a fc3d 2f9a 3e3d 27c1 06be 1745 0f3e
00000030: aa5e 9d3d 8a2e 243e 9f3d c3be 512e 42be
00000040: 4696 173e c6e1 93be 41ad a43d f16e 2d3e
00000050: 2f3d 903d 31a4 493d 613d a1bd 38c6 86be
00000060: 71f1 563e efe9 88be e167 72be 96ce 9cbd
00000070: 8117 61be a061 1bbe 162b 99be af1f e4bd
00000080: 21e9 85bd 550c b7bd 8f30 203e e079 60bc
00000090: 4088 bc3b 614c 41bc a158 e23d fa4c 0f3e
000000a0: 25f3 b63d ef7e cabd c0a1 23bc 3b25 b83d
000000b0: c705 8abd 81d2 04be 2005 96be 60d2 48be
000000c0: af3e f83d afa2 6abe cf22 c9bd 5157 e83d
000000d0: bf00 e93d 0992 90be 802a 913c 765c 1ebe
000000e0: b0fc be3c 5bef b6be c180 223e 40de 86bc
000000f0: df2e aabe 5fce 3f3e c0a3 d53d 71b9 febd
00000100: 8f6e 433e 3122 de3d e51a 3abe e651 a83d
00000110: a0d9 53bc f02b 5ebe 5009 2f3e ffbf a6be
00000120: 6ff4 1f3e 51d1 72be 00bc 7e3e e16c 80bd
00000130: 91d3 1dbe c117 23be ef7a a3be 8148 39be
00000140: ef9d 48be 41f9 8ebd 3fc6 84be 418a f4bd
00000150: 41a0 753e f63b 13be b087 debd 0b5b 2bbd
00000160: c147 743e df99 72be bf38 1b3e effa c2be
00000170: dac7 a9be f0ea e83c 3149 e6be 9036 00be
00000180: 2168 53be ba4e a3bd c17a dabd c086 9e3b
00000190: 01f7 51be a747 9dbe e183 22be d13b 8cbe
000001a0: a0d8 1c3c ab2f 1d3e 2142 4abe 1bcf 2c3e
000001b0: 1e1e 373e 0f5b 7e3e ef01 0abe f073 e03c
000001c0: 11b3 e33d 0fa7 51be 4fc7 e9bd ef91 c8bd
000001d0: 00b4 0e3e 8153 0cbe 2170 2bbe cf28 91be
000001e0: dfc2 e7bd 215c bcbc 6ff2 3cbe 97a4 84be
000001f0: a117 aebd c183 cbbd 4fa0 4dbe 810e 18be
00000200: d067 f0bc f0c5 303d c182 01be 5f91 c2bd
00000210: 7002 073e df2c 07be bf44 7bbe 1fe8 f23d
00000220: f1a2 d73d c192 543e 0100 c43d 002c d8bb
00000230: 4100 7f3d f1dc 523e a04a 09bc 2124 1cbe
00000240: 10a9 4abd fbb3 37be 16f4 973d 7136 913d
00000250: 9f3a 4bbe 21f4 68be 6f0f 5ebe 7f1a e3bd
00000260: d0e0 033d f133 d13d bfe3 76be fa3e 9dbe
00000270: 5143 bb3d a16b 713e 8f86 ea3d 0082 153d
00000280: 70d5 83bd 7094 ccbc 9115 083e 016d 153e
00000290: e175 45bd bf1b 4dbe 7041 edbd 0524 313e
000002a0: 4117 00be 0f5f 823d 0145 cf3d 1053 fcbd
000002b0: 1b8b 2ebe bfe5 573e 1bd7 2f3e 50e2 29bd
000002c0: a1da 45be d1ce 31be 0024 eb3c 5064 fe3d
000002d0: 2138 5f3e 1f17 b73d 60fa 623c 6aa8 23be
000002e0: b1a5 183e a6d5 9f3a 4fd7 72be 3fff c0bd
000002f0: b1bd 8bbd 30b4 8c3c b661 9ebe 81b5 4bbe
00000300: cfb7 48be 9f04 0bbe 4f9f 9bbc 0f93 ffbd
00000310: a178 573e df62 d3bd e09e 143d bf69 25be
00000320: 8f84 02be 0b1a afbd cfb3 063e 1ab8 193d
00000330: af15 d33d e1cb 563d c624 163e a058 c13c
00000340: 6161 7abd 5f18 02be 30a2 e9bc 11af 243e
00000350: 51ac c33d 97aa 8c3d a082 24be ed2a c63c
00000360: cf5f 353e be35 073e f51e 32be 2f29 afbd
00000370: dd6e b83c 90d7 11bd 3e30 bc3c f03c 893d
00000380: 1fcc 413e e66c a23d 8152 3a3e f080 fe3d
00000390: 10ec 58be 1931 0cbe d04a 603e 10fa 99bc
000003a0: b763 0cbe af7a 6d3e e0a8 e93c 110f 0cbe
000003b0: 1f1e 5fbe 4041 e3bb 2f33 8a3d 61da 54bd
000003c0: 71b6 143e c7cc 8b3e 21ac 0f3e d047 3b3e
000003d0: e179 f33d 5118 c33c 803a 82bc ff02 5e3c
000003e0: cf51 64be 5769 8b3c 01c4 ed3d a62f 9c3c
000003f0: ff80 0cbc e10d cc3d 313f 5a3d 00ff e53b
-0.08427752 0.13972233 -0.022549449 0.14020409 -0.03374723 -0.055180077 -0.14773536 0.097747445
0.12324976 0.04653376 -0.1315962 0.139912 0.07684071 0.16033378 -0.3813295 -0.18962981
0.14803419 -0.2888319 0.08040858 0.16936852 0.0704292 0.04922885 -0.07873035 -0.26323104
0.2099054 -0.26740977 -0.23672439 -0.07656591 -0.21981622 -0.1517396 -0.29915684 -0.11138856
-0.065386064 -0.08937899 0.15643524 -0.013700932 0.005753547 -0.011797995 0.11052061 0.13994208
0.08933095 -0.09887492 -0.009987295 0.08991476 -0.06739383 -0.12970926 -0.29300785 -0.19611502
0.12121331 -0.22913621 -0.09821092 0.11344779 0.113770954 -0.28236416 0.01772046 -0.15464959
0.02331385 -0.3572949 0.15869428 -0.016463399 -0.33238885 0.18731068 0.104316235 -0.12437714
0.19085144 0.10846365 -0.18174322 0.08218746 -0.012930304 -0.21696448 0.17093396 -0.32568356
0.15620588 -0.2371266 0.24876404 -0.06270767 -0.15412737 -0.1592703 -0.31929728 -0.18094064
-0.19591497 -0.06981135 -0.259325 -0.11940432 0.23986913 -0.14378342 -0.10865724 -0.041834872
0.23855497 -0.2369151 0.15158366 -0.38082072 -0.33160287 0.02843234 -0.44977716 -0.12520814
-0.20645191 -0.07974 -0.10667945 0.004837841 -0.20504381 -0.3071873 -0.1587062 -0.27389386
0.009573132 0.15350215 -0.19751789 0.1687588 0.17882583 0.24839424 -0.134773 0.027399033
0.111181386 -0.20473884 -0.11414968 -0.097934596 0.13935852 -0.13703729 -0.16741993 -0.28351447
-0.113164656 -0.02299315 -0.18451856 -0.25906822 -0.085006006 -0.099372394 -0.20080684 -0.14849283
-0.029346377 0.043157518 -0.12647535 -0.095003836 0.13184524 -0.1320071 -0.24537943 0.1186068
0.105291255 0.20759107 0.09570313 -0.006597042 0.0622561 0.20592095 -0.008379608 -0.15248157
-0.049477637 -0.17939751 0.074196026 0.07090462 -0.19846581 -0.22749378 -0.21685575 -0.11089038
0.03219682 0.10214985 -0.24110316 -0.3071211 0.09143699 0.23576213 0.11451446 0.03650093
-0.06437194 -0.024973124 0.13289477 0.14592363 -0.04820812 -0.20030116 -0.11584747 0.17298897
-0.1250887 0.06365787 0.10120583 -0.123205304 -0.17045252 0.21083735 0.171719 -0.041475594
-0.19321682 -0.1736405 0.02870369 0.12421477 0.21798755 0.08939957 0.013853639 -0.15982214
0.14906956 0.001219441 -0.23714946 -0.09423684 -0.0682329 0.017175764 -0.30933923 -0.19893457
-0.19601367 -0.13575982 -0.018996863 -0.12479221 0.2104211 -0.103215925 0.036284328 -0.1615362
-0.1274588 -0.08549889 0.13154529 0.03752909 0.1030687 0.052440528 0.14662465 0.02360183
-0.061128024 -0.1270461 -0.02851972 0.16082408 0.09554351 0.06868475 -0.16065454 0.02419039
0.1771233 0.13204095 -0.17394622 -0.08552777 0.022513801 -0.035605967 0.022972222 0.06701076
0.18925522 0.07930927 0.18195535 0.124269366 -0.211838 -0.13690604 0.21903539 -0.018795997
-0.13709913 0.23191331 0.028522909 -0.13677622 -0.21788834 -0.0069352686 0.06748044 -0.051966075
0.14522721 0.2730467 0.14030506 0.18289113 0.11888481 0.023815306 -0.015897036 0.013550519
-0.22296833 0.017018003 0.116096504 0.01906569 -0.008575677 0.09963585 0.05328292 0.0070189238

conv2.lin_l.bias f4 [64]
00000000: 9ae6 96bd 5fee f7bd f8b5 a8be 7174 bbbe
00000010: 0fac ddbd 8f1b b2be 6c61 2d3e ff1e 4d3d
00000020: e0d7 503d 0f4d 4fbe 9096 4f3d 214d 093d
00000030: 6fa0 013e b124 a93c af9d 56be affb 75be
00000040: 6699 9ebd 3f83 6cbe a0e6 95be 4dcb 9bbe
00000050: 919f 71be 5bf2 ac3d c1cf cdbd 1fa6 62bd
00000060: 4b8a 2f3e 11b2 1dbe d057 023e 211d cabd
00000070: 7731 88be 6f19 ac3d 6181 94be f1e3 e0be
00000080: bf55 5abe 2f69 493e 51ae dfbd e668 28be
00000090: 7f69 9bbe ea3e 213e f081 303e 506e e43d
000000a0: a618 22bd 7f52 dbbd 78f1 07bc 6a62 16be
000000b0: 070a e7bd c1dc cfbc 9ac0 4cbe 80a5 c6be
000000c0: a6f0 a1be 8577 b5be 41ca 0f3d a1ff 56be
000000d0: b124 acbd a60a aabd 3c85 1b3e c5e9 b63d
000000e0: c169 b0be b1f5 403e 7ffe f9bd 9fa6 3abe
000000f0: cfa2 b93d 1181 9f3d 1f2b 1c3e 2a7f 953c
-0.073682025 -0.121060126 -0.3295133 -0.36612275 -0.10823833 -0.3478665 0.16931695 0.05007839
0.050987124 -0.2024424 0.050680697 0.03352082 0.12658857 0.020647379 -0.20958589 -0.24021791
-0.07744102 -0.23096941 -0.29277515 -0.30428544 -0.23596026 0.08444663 -0.100493915 -0.055334207
0.17142598 -0.15399958 0.1272881 -0.09868837 -0.2660024 0.084032886 -0.29004958 -0.43923905
-0.21321772 0.1966903 -0.1092192 -0.16446266 -0.30353925 0.15746656 0.17237067 0.11153853
-0.039574288 -0.10709094 -0.008297317 -0.1468598 -0.112812094 -0.025373818 -0.19995347 -0.3879814
-0.31628913 -0.3544275 0.035104994 -0.20995952 -0.08405436 -0.08302812 0.15187544 0.08931307
-0.34455684 0.18843724 -0.122067444 -0.18227623 0.090642564 0.07788289 0.15250824 0.018249113

conv2.lin_r.weight f4 [64, 16]
00000000: d0f6 22be 11fe c33d 0f00 97be a1ea a63d
00000010: 4f63 13be 5faf 833d 3613 263e 6f69 4cbe
00000020: 9fa4 06be 5733 003e c588 b7bd 8fa8 25be
00000030: 6f56 22be 5b15 35be 090b 0abe ffe1 043e
00000040: 40e2 0fbd 0177 85be 09be 90be a0dc 8a3c
00000050: 60c6 063e ffed 1abe c1fb 27be efc4 a33c
00000060: 9fc6 293e e142 d6bd 2100 c7bd aa6a 183d
00000070: 8f6f 88be cf95 24be a7c1 8b3d f146 0d3e
00000080: 4114 e63d b1c7 273e 21e3 3f3e 9110 013e
00000090: 7113 203e c6cb dcbb 4023 853d 21f9 79bd
000000a0: 915a 3c3e b95e cabd c0f3 63be 6fe5 763e
000000b0: f18a 5b3e 0f24 49be c096 c1bd 9f9e 60be
000000c0: 60cf 403d 20c0 733d fff8 cabd 7f2b 50bd
000000d0: 11f3 be3d 7116 dc3b 21b2 5a3e e130 9abe
000000e0: 507d 453e e122 73be 1f4a 96bd 41bf dd3d
000000f0: 5067 cebc e1ea 533d 8f61 0bbe 91e2 a3bd
00000100: 008f af3c 00cb 093d 416f 71be a53a 32bd
00000110: 11e0 ef3d bf1d d53d d994 0abe 6fbb fd3c
00000120: 80f7 653b 316f 293c 3782 893d 550f ad3d
00000130: f6e5 a53d 9fc6 71be 8164 35bd efe1 8a3d
00000140: aff8 09be df01 07bf e1a4 0ebe a16f 453d
00000150: b887 083d 7106 93be 100a 263e 0159 02bf
00000160: f6fb 1bbe 51b5 02bf 30e1 79be a5bb b9be
00000170: 4fa4 e0be 2185 03be 41de 43be 60b4 debd
00000180: aab7 9cbd ef02 67be c16f d3bd b657 1d3e
00000190: df72 403e e647 ef3d 4a42 96bd f4f2 093e
000001a0: 06cf 21be bfce 16bd 3f93 573e 0fdc 61be
000001b0: c16d d43d 00ca 2f3a 8fdc db3b ff54 6bbe
000001c0: 8158 6e3e 1104 90be b1ec 73be c110 c2bd
000001d0: 8088 7fbd 2ffe d43c 8101 5dbd 1707 0f3e
000001e0: bff2 72be 3fae f83d ff1d 4bbe 811a 5b3e
000001f0: bf14 7bbe c0f5 eb3c 5f8e 5dbd cf71 e1bd
00000200: 61d2 bd3d b138 613e 81b5 78bd 8f6b 37be
00000210: cf18 0bbe b0b7 e7bd f991 053e f058 4fbe
00000220: 3ff4 3a3e a675 a33d 6a41 9a3d 6f64 34be
00000230: affe e5bd c167 18be 011b da3d 3008 d83d
00000240: 5079 3e3e 6ff7 42bb f1df 6b3d d008 7f3d
00000250: 10a7 60bd e194 213d 2f15 34be 4f27 69be
00000260: 60ef 373d 603a 84bc 00d1 ca3c b129 0dbc
00000270: 1f75 40be 5fa0 cdbd 7118 f8bd a9b5 0fbd
00000280: 9f6b b4bd 8f2f 4a3e 6f75 193e 013d 70be
00000290: bf8c c03d e1ac 5cbe 30fd b23d cfa2 78be
000002a0: c9a2 0f3d cfc8 1abe c088 7c3e 7f15 61be
000002b0: c1d9 fcbd c15a 713e 9ff7 46bd e114 7a3e
000002c0: a12f 60bd f122 0d3e 9140 79be e076 303d
000002d0: f01e 863d af09 80bd b122 febd ffc8 6dbe
000002e0: c1b2 e13d 114c afbd 3b83 303e 2be4 373e
000002f0: 1f80 1a3e 202e 973d efc2 43be 4034 333e
00000300: 01c2 3cbe 216b 38bc 2b1d b7bd a01e 1b3e
00000310: 5fd1 1d3e bfe1 3bbe 66b9 243e e1bc be3d
00000320: efac a53d f152 f6bd 7f32 1fbe df85 6bbe
00000330: afc3 36be 4ff7 51be 4024 cc3c 4ff3 363e
00000340: 2f27 623e c060 0dbe bfb6 02be 9f54 613e
00000350: 30ea bc3c 12da 87bd c03c 003e 152a 45be
00000360: f137 31be 8f4c 11be 5fc8 c1bd 9936 8c3d
00000370: 6fa9 02be 6f19 7c3e 7463 4dbe b088 11be
00000380: 6567 333e 419e 743e 7196 6ebe df35 47be
00000390: 47c5 00be 8153 c5bd 8067 5abe 210f d33d
000003a0: 5740 923d a0fe 9a3d d0c8 5a3d 11ef 683e
000003b0: 16c1 94bd 3598 33be 813d 433d 80c9 193e
000003c0: 5077 61be 0fae 91bd 0f78 19bb c121 653d
000003d0: e011 96bc 5f32 9cbd 80ce 653b 3141 573d
000003e0: 2068 0fbd 6f86 c8bd 21c1 e23d 918a 473d
000003f0: 7f76 4c3e a0d9 943d 4186 0bbe 307e b2bd
-0.15914464 0.09569944 -0.29492232 0.08150221 -0.14393352 0.06429934 0.16218266 -0.19962095
-0.13148735 0.12519585 -0.089616336 -0.16177581 -0.15853284 -0.17683928 -0.13480772 0.12976836
-0.03512788 -0.26067355 -0.28269985 0.016950905 0.13161612 -0.15129851 -0.1640463 0.019991366
0.16579674 -0.10461975 -0.097168215 0.037211098 -0.26647612 -0.16072772 0.06824046 0.13796593
0.11234332 0.1638477 0.18738987 0.12603976 0.15632416 -0.006738159 0.06500864 -0.061028603
0.18393923 -0.09881348 -0.22260952 0.2411096 0.2143972 -0.19642662 -0.094525814 -0.21935509
0.04707277 0.059509397 -0.099107735 -0.05082273 0.09323705 0.0067165424 0.21357013 -0.30115417
0.19286084 -0.23743774 -0.07338356 0.108274944 -0.025195748 0.05173767 -0.13611434 -0.080021985
0.021430492 0.03364086 -0.23577596 -0.04351296 0.11712659 0.10406064 -0.13533343 0.030973164
0.0035090148 0.0103414515 0.0671429 0.0845019 0.08100502 -0.23610924 -0.0442853 0.06781375
-0.13473772 -0.5273723 -0.13930084 0.04820216 0.033332556 -0.28715852 0.16214776 -0.5091706
-0.15232834 -0.51057917 -0.24402308 -0.36275974 -0.43875358 -0.12843753 -0.19127752 -0.108742476
-0.07652219 -0.22559713 -0.1032405 0.1536549 0.1879382 0.116836354 -0.073368624 0.13471586
-0.1580163 -0.036818262 0.21052264 -0.22056602 0.103724964 0.00067058206 0.0067096422 -0.22981642
0.23275949 -0.28128102 -0.2382076 -0.09475852 -0.062386036 0.02600011 -0.053956512 0.13967548
-0.23725413 0.1214261 -0.19835661 0.21396829 -0.24519633 0.028803706 -0.054090854 -0.110080354
0.09268642 0.21994282 -0.06071997 -0.17912124 -0.13583682 -0.113143325 0.13043965 -0.2024877
0.18257235 0.07981424 0.07532008 -0.17616437 -0.11230218 -0.14883329 0.10649682 0.10548437
0.18600965 -0.0029749533 0.057586614 0.062264264 -0.054846823 0.039448623 -0.17586206 -0.22768901
0.04490602 -0.016141117 0.024757862 -0.008615897 -0.18794678 -0.10040354 -0.12114037 -0.035085354
-0.088095896 0.19744705 0.14986204 -0.23460771 0.09401845 -0.21550323 0.08739698 -0.24280857
0.035067353 -0.15115665 0.24661541 -0.21980856 -0.12346221 0.23569776 -0.048575994 0.24422027
-0.054732922 0.1378286 -0.24341036 0.043082118 0.065488696 -0.06251847 -0.124089606 -0.23221205
0.11020423 -0.085594304 0.1723756 0.17958133 0.15087937 0.073818445 -0.1911733 0.175004
-0.18433382 -0.01125601 -0.0894111 0.15148401 0.154119 -0.18347834 0.16086349 0.093133695
0.08089625 -0.120275386 -0.15546606 -0.23000287 -0.17848085 -0.20504497 0.02491963 0.17866252
0.2208526 -0.13806438 -0.12765025 0.22004937 0.023060888 -0.066333905 0.12523174 -0.19254334
-0.17306496 -0.14189361 -0.09462046 0.06846351 -0.12759946 0.24619077 -0.2005747 -0.14212298
0.1751991 0.23888494 -0.23299576 -0.19454144 -0.12575255 -0.09635068 -0.21328545 0.1030562
0.07141178 0.07568097 0.053414166 0.22747447 -0.07263391 -0.17538531 0.047666077 0.15018272
-0.2201817 -0.07113277 -0.0023417508 0.055940393 -0.01831907 -0.07626795 0.003506571 0.052552406
-0.03501141 -0.09791266 0.11071993 0.04871613 0.19967078 0.07268071 -0.13625433 -0.087154746

lstm_cell.weight_ih f4 [256, 192]
00000000: 7f5b 003e 30ff 3c3e 42eb 96bd 0a3e 993c
00000010: 8a37 293d 0531 39be 1c63 473d b763 8b3d
00000020: 9f15 d4bd 8f0f bdbc a5f1 b33d 79f6 103e
00000030: ffc4 0b3e d51c 443e 80dd b03b 2173 4fbe
00000040: b64f 1c3d 1107 2c3e 2f65 43bc 7734 053e
00000050: c1b2 e03d 8127 273c 158a 2d3d 7fc2 713d
00000060: 20ad 12bd ff62 fc3d 41be ee3d 3bae 343e
00000070: b18c 3fbd 7fbd b7be ef97 443e b183 47bd
00000080: 3071 3cbc 2179 3a3e c13d 4abe 9ad9 213e
00000090: 8194 863c b12d febd bfc3 263d 5730 0fbd
000000a0: cf93 0fbe 0034 ce3d bff1 c73d 492d 0b3e
000000b0: 6709 4f3e a19c 35bc 71e5 ad3d 50dc 3dbd
000000c0: 3f54 3aba 301e 51bc a001 28bd 8feb d83d
000000d0: 31be a93d 5671 1e3e 4d6c 493e 8a4d 14ba
000000e0: 4066 f03d 71a8 283e 61bc b0ba c115 5b3e
000000f0: 4fac 1b3e a05b ed3d cf82 5fbd a1a7 973d
00000100: 5388 84bf 6c53 5940 0073 2940 cec9 3540
00000110: 339e 1240 8f98 b640 4be1 e540 fd33 aebd
00000120: 20df b540 b81a f340 4f5d f040 e2b1 d340
00000130: a376 cb40 7dba d740 947c 0c41 f1e4 f440
00000140: 5114 fd40 8169 d940 3a16 ef40 9b61 ed40
00000150: 5135 ed40 444e af3d 44ef 0541 93a6 aa40
00000160: d4d6 e540 a7e6 e540 bd15 e040 e063 0141
00000170: d83b ea40 bb62 87ba 9d6c 5a3d 7787 8a3d
00000180: ab9c 40bd b4b1 e0bd 988d d93c 4729 3f3c
00000190: d27e 553d 011f 2a3d b311 1abe 2049 963b
000001a0: 01d8 903d 60f6 fdbb 9fb2 efbd c1c3 e5bd
000001b0: 008f 6c3b 7066 02bd f014 6d3c c05b 55bd
000001c0: a08e 97bd bf85 053d e06b fbbc 00c3 933b
000001d0: e066 53bc 3f0c a6bd 0526 b1bd b183 f6bd
000001e0: effe c63d c05a 3c3c 85b9 b7bd ff54 e83d
000001f0: bf37 aebd 0f7a e6bd 411d 433d 09af 90bd
00000200: 41c6 febc fd12 fe3f 96e5 a33f 53f6 f0be
00000210: ef67 0bbf bf16 1540 ff74 d43d 3e1a 5740
00000220: 6dbe d440 ecc4 ba40 6589 c4bd a92b ec40
00000230: bee1 f640 a0d6 f840 8223 cb3d 871a 0641
00000240: d218 1141 838f 0041 a036 f240 757a e540
00000250: da2d dc40 3cb9 ce40 6a85 3a3c 9d5e 0441
00000260: a99e ce40 ebe5 5f40 aa58 583d 44b2 e040
00000270: 8896 8440 a9a6 0941 5d0b e33d 8dfa 673d
00000280: 6aff 533d c4a9 a33d 9638 0abe cdd7 79bd
00000290: 5e19 dfbd 8dca dfbd 39ff 60bd 7bd9 ecbd
000002a0: 8fca 493d df34 ea3d ff2f 913d bfee 24bd
000002b0: 113c 02bd 6175 593d bfe1 b63d d016 c4bd
000002c0: 4af8 a6bd 8fa3 3dbd 97f4 8ebd a5ba 2c3d
000002d0: e17b f8bd 5058 b93d 40fe 3ebb 7162 e33d
000002e0: f13b 243d 214e 83bd 008a 10bd 6524 acbd
000002f0: 5a43 1e3d b1a7 a8bd 814e f23d 4f94 b63d
00000300: ffff 3e3d 9f85 203d 17f7 0d3f 817e cf3d
00000310: 6592 b23d 7a88 12be 373e 5dbc 6f5b f93c
00000320: d07d 61bc 217d e1bc 4167 fb3d 3142 db3b
00000330: 27cd 0dbd 7119 c63e 760d a8bd d1b5 173f
00000340: b95e 8b3c e1fe 563d 61c6 00bd 983f fb3d
00000350: 0fbd 3d3e 0088 a33d 81df 4cbd 150f 333e
00000360: e0be 7e3d 6f3d 603d 30d5 0e3c 81c4 973e
00000370: 19f8 0bbc 0189 333f 1ab0 143f 8a14 293d
00000380: 3f52 883d ff1c 56bd e193 563f 5f7d 32bd
00000390: 9fda 47bd dfa1 dd3d e014 d9bc b873 823c
000003a0: 10d4 2d3f e018 c73c af67 443f 91a6 033e
000003b0: 978c b53e 8912 063e 2797 383d a6e8 9f3d
000003c0: 3f43 adbd caab 143d cf9d b63e bf46 2bbe
000003d0: efef bfbd ba9d 96bd 11de f73d 31b1 d63c
000003e0: 86a7 9fbd 3964 0b3e c1e4 213e df78 613d
000003f0: bfd5 513d bf0e 62bd 1fe1 e5bc 7154 033d
0.12534903 0.18456721 -0.073690906 0.01870634 0.04131273 -0.18085106 0.048678502 0.068061285
-0.103556864 -0.023078708 0.087863244 0.14156522 0.13649367 0.19151624 0.0053974986 -0.20258762
0.038161956 0.1679957 -0.0119259795 0.13008295 0.109715946 0.01020229 0.042368013 0.059023377
-0.035809636 0.123235695 0.11657382 0.17644589 -0.046765033 -0.35886762 0.19198583 -0.048709575
-0.011501595 0.1821027 -0.1975012 0.15805665 0.016428234 -0.12411059 0.04071402 -0.03495821
-0.14021228 0.10068512 0.09762906 0.13591494 0.2021843 -0.0110847065 0.08491028 -0.046352684
-0.00071078906 -0.012763545 -0.041017175 0.10591804 0.08288229 0.15472922 0.1967022 -0.0005657306
0.11738253 0.16470505 -0.0013483876 0.21395017 0.1520245 0.11589742 -0.05456811 0.074050196
-1.0354103 3.3957167 2.647644 2.8404422 2.2909057 5.706123 7.1837516 -0.0850601
5.683487 7.5970116 7.51139 6.615464 6.358232 6.7415147 8.780415 7.652947
7.90873 6.794129 7.471463 7.4181647 7.4127584 0.0855985 8.370914 5.332834
7.182474 7.184406 7.0026536 8.086884 7.319805 -0.0010329107 0.053326238 0.06764119
-0.04702441 -0.10971394 0.026556775 0.011667556 0.0521229 0.041533474 -0.15045814 0.004586354
0.070724495 -0.0077503175 -0.11703991 -0.11218978 0.0036095977 -0.031835973 0.014470324 -0.052089453
-0.074002504 0.032598253 -0.030691087 0.00450933 -0.012902945 -0.081078045 -0.0864983 -0.12036837
0.097165935 0.011496246 -0.08970932 0.11344337 -0.085067265 -0.112537496 0.04763532 -0.07064635
-0.031100394 1.9849545 1.2804439 -0.4706293 -0.54455465 2.3295133 0.10373878 3.3609767
6.6482453 5.8365383 -0.095965184 7.3803296 7.7150564 7.7761993 0.09918882 8.381476
9.06856 8.035037 7.569168 7.1711984 6.880597 6.4601116 0.011384347 8.273099
6.4568677 3.498408 0.05281893 7.021761 4.1433754 8.6031885 0.11086152 0.05663543
0.051757254 0.079913646 -0.13498148 -0.06099682 -0.1089351 -0.10927305 -0.0549309 -0.115649186
0.04926544 0.114358656 0.07089233 -0.04026675 -0.031795565 0.053090457 0.089297764 -0.09574664
-0.08152826 -0.04629856 -0.069802456 0.042170186 -0.12133003 0.090500474 -0.0029143244 0.111027606
0.040096227 -0.06411386 -0.035287857 -0.08405379 0.03863845 -0.082351096 0.1183138 0.08915006
0.046630856 0.03918993 0.55455154 0.101315506 0.08719329 -0.14309874 -0.013503603 0.030439107
-0.013762906 -0.027525486 0.122755535 0.0066912402 -0.034619477 0.38691285 -0.082056925 0.59261805
0.01701294 0.052489165 -0.03143919 0.12267989 0.18529151 0.07984924 -0.050017837 0.17486222
0.06219375 0.054746088 0.00871782 0.29642108 -0.008543038 0.70130926 0.5808121 0.041279353
0.06656312 -0.052273747 0.83819395 -0.043576594 -0.048792478 0.1082189 -0.026499212 0.01592432
0.67901707 0.024303854 0.7672071 0.12856509 0.35458824 0.13093008 0.045066025 0.07808046
-0.08460092 0.036296643 0.35667273 -0.16726206 -0.093719356 -0.07354303 0.12102903 0.026207538
-0.077956244 0.1361245 0.15809919 0.055046912 0.051229235 -0.055189844 -0.028061448 0.03206295

lstm_cell.weight_hh f4 [256, 64]
00000000: 8691 e63e a58f c03e e6fa 883f b8dd 85c0
00000010: 53ae aa3f d2c5 34c0 024a 19c0 3070 1b40
00000020: 5eb9 5e40 cd1e 473f 7d33 e13e b420 a3bf
00000030: 7b0c 1abd 1ada b9bf 2bfd ecbf 607f 5fbe
00000040: 8478 4ebf a77b 1b3f 84a8 48c0 32fd c4bf
00000050: c31c 58bd f183 2540 9971 2140 33bf 46bf
00000060: 6b93 033f d22d 2140 3ec1 1dc0 fc53 663f
00000070: 5a94 32be 2618 3ac0 c397 f5bf 21db cf3d
00000080: 6542 973f 35b5 f9bf 84d3 ccbe b0ab 6c3f
00000090: 4105 1c40 fdff b1bf 8b4a 583e 8839 10c0
000000a0: acb1 9e3f 9baa bdbd cd6f 32c0 6f60 94bf
000000b0: b1e9 9ebf f6e8 ecbf b6ac 103f 753a c93f
000000c0: 409b ec3e 2296 0540 629a ffbf e63b 323f
000000d0: ec11 bc3f c786 c63f f554 18c0 9105 4340
000000e0: d127 a63f 5302 17c0 b15f 6e3f 5c00 9a3e
000000f0: 0fb5 3540 546c a33f f005 f73e 5fb5 3640
00000100: f1fb dc3e 07f6 ecbe 9e39 fd3c 4ed6 a43e
00000110: f485 0ec0 98bd 2fc0 3d01 103f a0f0 b13e
00000120: 4e94 05c0 38dc 8cbf f7ce 21bf 0e71 22bf
00000130: 021d 82bf 1ad9 0bbf 6dd7 58be 6d5b 2f40
00000140: 9f79 12bf 3246 7fbf 7380 51bf 2fb4 17c0
00000150: 4510 35bf 3217 ea3f f53e b53e e814 6b3f
00000160: 427e 953f 0a97 8cbe b917 15c0 0cf5 77c0
00000170: 9193 46bf 5d32 a7be dd0a 0cc0 f356 72bf
00000180: f467 343e 4335 c43f 6ce9 68c0 564c 0640
00000190: 55b2 d03f 374d d9be 8a33 8cbd cc43 3c40
000001a0: 2b30 8bbf 4001 54bf 81f7 9240 b575 283f
000001b0: 4d5b c7bf b97f a2be 35dc b8bf 37a3 54bf
000001c0: cd80 8040 6123 01c0 0119 a03f 2d6b 0ac0
000001d0: be83 593e 3b34 37be c2bb 4dc0 0e35 04be
000001e0: 167c dcbd 3a37 ecbf 14a2 e13f 6743 193f
000001f0: 7e79 d03f 61ad 94bf abf1 e83d 4d2b f8bf
00000200: 5c29 2a40 d0ef 7b3f c6d0 bd3e 1049 e23e
00000210: 1e31 8d40 ec9a aa3e f7fc 9e3e b6b9 f6bf
00000220: c31b 0640 5711 1bc0 fade d73f 049a f63c
00000230: b2aa e4bd b850 a9bf 4141 f4bf f4fb 24bf
00000240: 91d8 c83f 31fa 2b3f 76ef 00bf f84d f9bf
00000250: 46a8 7340 cd2e f93e 61fa b83f 92ad c53f
00000260: cf46 233f 7c45 b93f 1e92 d33f 10dd b3be
00000270: 761c 00c0 18b3 2240 33a0 603f 6154 8c3f
00000280: b061 c53f 99b2 c1bf 2559 94bd 43a4 73bf
00000290: f2cc e63f bc59 f63f 038f a03f 49d5 2040
000002a0: a23a 0ec0 5f81 fcbe 6b50 1ac0 af57 f8be
000002b0: 2e5d e93f dabf 4bc0 d8b3 513f 3156 8c3f
000002c0: 94fa 463e 0c08 8bc0 9fa5 633f 24be 6b3f
000002d0: 4661 79c0 8ec4 8f3f 2f84 533f 07be 903f
000002e0: b49f dd3f 7dd3 903e 12ea 53bf 02fa 793f
000002f0: 32bc 3c40 efc2 9dbf 5d9c e9be 9e74 cabf
00000300: 0a56 d1bf 7684 7d3f 4e27 95be 013e 2a3e
00000310: e4f2 32bf afad 383e a8e2 77bf 5a3d f0bf
00000320: fa8f 4bc0 4cd1 da3f 9e77 cbbf ce84 98bf
00000330: 1c0f 7f3f 74f8 43bf 4e7a 453e b0f6 87be
00000340: bc0a d93d ec15 fd3f 8415 f23f d6cb 91bd
00000350: a813 87bf 3b8b 14bf 0a19 ee3d 2ad7 b23e
00000360: 6525 3640 fcd7 55bb bee8 1a3f 6e95 2740
00000370: 3393 1d40 2c62 ba3f 7ae6 cabd cdab 96c0
00000380: 90b2 e5bf 1a5f 61bf 764c 9f3f 3a07 e63e
00000390: 79c7 af3f 579b 9dbe 4ecb 2540 4f5e 3d3f
000003a0: 14a9 3dbe 9f76 3540 05fd 3cc0 8a33 38c0
000003b0: aa68 0340 444e bebe 9b98 3040 cdd4 4a3f
000003c0: 6639 2940 d799 053d 3b1d 15bf feb6 e43e
000003d0: dec5 043d 06e5 48bf 0ee3 943e e8a1 19c0
000003e0: 94a8 a6be 9e5b 0240 9dc3 4fc0 dd47 f0be
000003f0: b3cf 9dbf 2b69 8dbf 9f55 053f 06cb 23c0
0.450329 0.37609592 1.0701568 -4.1833153 1.333445 -2.824574 -2.395142 2.4287224
3.480064 0.77781373 0.43984595 -1.2744355 -0.03760956 -1.4519684 -1.8514761 -0.21825933
-0.8065264 0.60735554 -3.1352854 -1.5389769 -0.052761804 2.586178 2.5225585 -0.77635497
0.51396817 2.5184216 -2.4649196 0.899719 -0.17439404 -2.907724 -1.9186939 0.101492174
1.1817137 -1.9508425 -0.40005124 0.92449474 2.4378207 -1.3906246 0.21122186 -2.2535114
1.2397971 -0.09261056 -2.7880738 -1.1591929 -1.2415067 -1.8508594 0.56513536 1.5720965
0.46212196 2.0872884 -1.9968989 0.6962265 1.4692969 1.5509881 -2.3801854 3.0472147
1.2980901 -2.3595169 0.93114763 0.300784 2.839176 1.2767434 0.48246717 2.85482
0.43160966 -0.46281454 0.030911263 0.32194752 -2.2269258 -2.745947 0.5625189 0.34753895
-2.0871768 -1.1004705 -0.6320643 -0.6345376 -1.0165102 -0.54628146 -0.21175928 2.7399552
-0.5721683 -0.99716485 -0.8183662 -2.3703725 -0.7072795 1.8288329 0.35399595 0.91828775
1.1679156 -0.27458984 -2.329573 -3.8743315 -0.7756892 -0.32655612 -2.188163 -0.94663924
0.1761778 1.5328754 -3.639247 2.0984092 1.6304423 -0.42441723 -0.06845768 2.941638
-1.0874075 -0.8281441 4.592713 0.65804607 -1.5574738 -0.3173807 -1.4442202 -0.83061546
4.0157228 -2.0177844 1.250763 -2.1627915 0.21241662 -0.17891018 -3.2145848 -0.12910864
-0.10765855 -1.8454354 1.7627587 0.5986847 1.6287076 -1.1615411 0.113742195 -1.9388214
2.6587744 0.984128 0.37073344 0.44196367 4.4122458 0.3332132 0.31052372 -1.9275424
2.0954444 -2.4229333 1.6864922 0.030102737 -0.1116537 -1.3227758 -1.9082414 -0.6444695
1.5691091 0.67178637 -0.5036539 -1.9476919 3.8071456 0.4866852 1.445141 1.5443594
0.6377992 1.447433 1.6528966 -0.35129595 -2.001737 2.542181 0.87744445 1.096325
1.5420437 -1.5132629 -0.072435655 -0.9517252 1.8031294 1.9246135 1.2543644 2.513018
-2.2223287 -0.49317452 -2.4111583 -0.48504397 1.8231561 -3.1835847 0.81915045 1.0963804
0.19431525 -4.3447323 0.8892459 0.92087007 -3.896562 1.1231859 0.8262357 1.1307992
1.7314363 0.28286353 -0.8277904 0.97647107 2.9489865 -1.2325114 -0.45627108 -1.5816839
-1.6354382 0.99030244 -0.2913155 0.16625215 -0.6990187 0.18035005 -0.96830225 -1.8768723
-3.1806626 1.7095122 -1.5895879 -1.1915529 0.9963243 -0.76550984 0.19284937 -0.26555395
0.105977505 1.9772315 1.8912816 -0.07118957 -1.0552874 -0.5802495 0.116258696 0.34929782
2.8460324 -0.0032629957 0.60511386 2.6184955 2.4621093 1.456121 -0.09907241 -4.708472
-1.7945118 -0.8803574 1.2445209 0.44927388 1.3732749 -0.30782577 2.5905337 0.7397203
-0.1852153 2.835365 -2.952943 -2.8781457 2.0532632 -0.37169087 2.7593143 0.7923096
2.6441283 0.032617416 -0.5824773 0.44670862 0.032415263 -0.7847446 0.2907948 -2.400507
-0.3255049 2.0368419 -3.2463143 -0.46929827 -1.232901 -1.104772 0.5208377 -2.5592666

lstm_cell.bias_ih f4 [256]
00000000: ffcb a4bf a8fc d63f 95fa 163f 370d 4d40
00000010: 492f 3e40 a4c4 5040 123b 843f f81d 2840
00000020: 548e 333f 9dea 2c3f f60a 4d40 89c6 0840
00000030: eeda 74c0 182c 113d 7bc8 40c0 a0fe 7a3d
00000040: ee18 3a40 1e94 14c0 a60a 31c0 8a41 573f
00000050: 9657 babf b8c9 81c0 7557 cfbf 1a2e ae3e
00000060: 8533 e23f 17a5 8fbf d9e6 513f 0de2 8f3f
00000070: 0f85 36bf 7696 1c40 d36f 1b40 33d0 883e
00000080: 796a d13f fe1f eb3f 9abf 0bbf aa78 a0bf
00000090: 0ef9 22bf 7fc8 b13f 0d68 74be d05c d23f
000000a0: c9e8 f63e 22dc 513f 0649 343f 13ce b9bf
000000b0: 1cac 99c0 4a9c d9bf 51d1 443f abdd 1ebd
000000c0: 5e74 8cc0 c9f0 08c0 e05a 39c0 8417 1d3f
000000d0: d406 1dc0 3820 eabf 196a 2bbe 4df1 12be
000000e0: d72f 0dc0 1e8e 3fc0 1337 a13f d0a2 2f3f
000000f0: e49c 603f c689 4d40 197c 1140 7165 36c0
00000100: a0b2 96bf bc82 22bf fd01 aabe 9862 5f3f
00000110: e385 c6bf 6b57 8e3e 5000 733f 9459 15c0
00000120: 6bc7 583f f67d 89bf 7064 59c0 2f7e 25c0
00000130: dbce 3e3f f8c0 863c a336 f1bf 0e0d 883e
00000140: dd83 6ebf 39d2 ef3e e4a3 1dbf 5690 0540
00000150: 31c9 31c0 7ae4 453f bcdf 2bc0 343d a4bf
00000160: be70 4e3f fb11 21bf 616b 743e 796f dfbe
00000170: 4781 adbf 34b7 7fbf 1e10 8c3e 26b9 5abf
00000180: 5d63 72bd 8769 3ac0 656e 63be 7b3e 56c0
00000190: 69a3 2540 7a3c 69bf 361f debe 072e d6bf
000001a0: a4eb c1bf dcf1 e13f 984f 313f c76e 103f
000001b0: 96a1 b6be 5cf3 07c0 fbab 84bf 0765 62bf
000001c0: 420a a2bf 4e91 803f 4d41 06bf 04bb 0fc0
000001d0: 5efa 23c0 e27f 853e 9ebc e23e 2a5e d6bf
000001e0: 0cf2 1740 d217 a63f d760 88c0 9276 0940
000001f0: d494 67be c023 03c0 9bc8 343f 0ed1 ecbe
00000200: 8446 3f40 f385 94be 8a9a 65c0 507a 12c0
00000210: cebe c63f 288c 05bf 899f 113f d4d0 bebf
00000220: dcbd 0f40 1811 06c0 41fe 7540 90d3 293f
00000230: 1922 2c3e 22c2 3940 55ca dd3f 7ccf 15bf
00000240: 102b 1840 c22b 9140 7699 0bc0 737b 833e
00000250: ba4e 6bbf a66e 603e 52d0 113f 2f97 413f
00000260: 5d8b 183f 776b 09bf 2c87 9a3d 5333 e4bf
00000270: cf19 503f 5646 3f3f c811 1640 aabe 1b40
00000280: 6c0c f63f 2883 c1bf 5b04 c2be d722 f83f
00000290: e973 f03f d2b4 96be f35d b43f 25b4 af3e
000002a0: 77ef b9be e19f dd3f d68f 0abf 22ef f13f
000002b0: 50df 423f 13d4 6d3c 84a6 5440 1e4b 28c0
000002c0: cdb6 01c0 6cb9 a43e 9b74 ca3e 4a6e 30bf
000002d0: 9471 8fbf d1b2 33c0 aa7c b4bf e216 eebf
000002e0: cd71 afbe 3bb5 a43f 3917 9ebf d82d 34bd
000002f0: 7b71 e8bf a7b3 a6bf e05b 0140 51e7 243f
00000300: 2d01 87be e8dc 85c0 cf4c 203f 3a22 a540
00000310: 39b3 46bf 25d1 0fc0 30f7 ce3f d4ab fa3f
00000320: 61e7 9ebf 0acb 603f 0a05 02c0 4d0e 5640
00000330: c3cc 6ebf b88c d83f 5239 30c0 419f f8be
00000340: 782a 1bc0 5f46 23bf 1fbd 20c0 9964 c13d
00000350: f3a6 923f aebf 7bbf b536 a93f fa99 423f
00000360: 8a79 35bf 980e 283e c4c5 ea3f 7b06 50c0
00000370: 5539 d73e e871 bdbf 7a41 b53f fb92 e7be
00000380: da2e 4fbf d9bf 0840 f673 a1be c414 9cbf
00000390: a594 ecbe 29d8 3640 a450 09c0 52c4 4340
000003a0: 1e8c 153f c31c 5340 34ca ddbf e07a dd3f
000003b0: 7ce8 17c0 d1b2 86c0 3e09 e33f 13f6 4ebf
000003c0: 0a51 4dc0 13da dcbf d4ec f7bf a0b8 0ac0
000003d0: 2fea 55bf b56d d4bf 2796 0940 d3f1 19c0
000003e0: 17ef 1a40 830d 8abf eb86 ad3e 8520 13c0
000003f0: f638 3abf 6fac 813f f4f2 1ac0 a482 b83e
-1.2874755 1.6795855 0.5897611 3.2039316 2.971636 3.262002 1.0330527 2.6268291
0.7013905 0.6754549 3.203794 2.1371176 -3.8258624 0.03544244 -3.0122364 0.061277986
2.9077716 -2.3215404 -2.766275 0.8408438 -1.4557979 -4.055874 -1.6198565 0.34019548
1.7671973 -1.1222256 0.8199287 1.124086 -0.7129678 2.4466834 2.4287002 0.26721343
1.6360618 1.8369138 -0.54589236 -1.2536824 -0.6366128 1.3889312 -0.23867817 1.6434574
0.48224476 0.8197652 0.70423925 -1.4516014 -4.8022594 -1.7000821 0.7688189 -0.038785618
-4.389205 -2.1396964 -2.8961716 0.61364007 -2.4535418 -1.8291082 -0.16739692 -0.14349861
-2.206045 -2.9930491 1.2594932 0.6860781 0.87739396 3.211534 2.2731993 -2.8499415
-1.1773262 -0.63480735 -0.33204642 0.8725982 -1.5509609 0.2780107 0.9492235 -2.3335924
0.8467929 -1.0741565 -3.3967552 -2.5858266 0.74534386 0.016449437 -1.8844799 0.2657246
-0.9316996 0.46840075 -0.615782 2.0869346 -2.7779047 0.7730175 -2.6855307 -1.2831178
0.8064078 -0.6291806 0.23869087 -0.43639734 -1.3555077 -0.9988892 0.27356046 -0.85438764
-0.05917679 -2.9126909 -0.22210081 -3.3475635 2.5880988 -0.91107905 -0.43383187 -1.6732796
-1.5150037 1.7651935 0.69262075 0.5641903 -0.35670155 -2.1242285 -1.0364984 -0.88435405
-1.265938 1.0044343 -0.5244339 -2.2457895 -2.5621562 0.2607413 0.44284528 -1.6747487
2.3741484 1.2976019 -4.2618213 2.147862 -0.22615367 -2.049057 0.706186 -0.46253246
2.988679 -0.29008445 -3.5875573 -2.2887154 1.5526979 -0.52166986 0.56884056 -1.4907479
2.245963 -2.0947933 3.8436434 0.66338444 0.16809882 2.902474 1.7327372 -0.5851972
2.3776283 4.5365915 -2.1812415 0.25680122 -0.91917 0.21917209 0.56958497 0.7562131
0.5958765 -0.53679603 0.07545313 -1.7828163 0.8128938 0.747167 2.3448353 2.4335122
1.9222541 -1.5118151 -0.37893948 1.9385632 1.8785373 -0.2943483 1.4091171 0.34317127
-0.3631551 1.7314416 -0.54125726 1.8901103 0.76122 0.014515894 3.3226633 -2.6295848
-2.0267823 0.32172716 0.39542088 -0.6891829 -1.1206536 -2.807789 -1.4100544 -1.8600733
-0.3426651 1.2867807 -1.2350837 -0.043989033 -1.8159631 -1.3023576 2.0212326 0.6441546
-0.26368085 -4.183216 0.626172 5.160428 -0.7761722 -2.2471402 1.6169186 1.9583688
-1.2414361 0.87809813 -2.0315576 3.3446229 -0.9328119 1.6917944 -2.7534986 -0.48559
-2.424467 -0.6377925 -2.511543 0.094430156 1.1457199 -0.98339355 1.321982 0.760162
-0.7088858 0.16411817 1.8341603 -3.2503955 0.42035928 -1.4800386 1.4160607 -0.45229325
-0.80930865 2.1367095 -0.31533784 -1.2193837 -0.46207157 2.8569434 -2.145547 3.0588574
0.58416927 3.2986305 -1.7327332 1.7303123 -2.3735647 -4.209328 1.7737195 -0.8084423
-3.2080712 -1.7254051 -1.9369149 -2.1675186 -0.8356046 -1.659598 2.1497896 -2.4053848
2.420843 -1.0785373 0.33891997 -2.2988598 -0.72743165 1.0130748 -2.4210787 0.3603717

lstm_cell.bias_hh f4 [256]
00000000: b5f0 a8bf a4e3 e43f 7a16 bd3e b69b 4840
00000010: e9cc 4240 a476 5140 b27c 6e3f 0863 2a40
00000020: d42e 393f d02a 273f 8649 4d40 36e1 1040
00000030: 4e31 7fc0 0578 073e 7a17 37c0 c5cb ce3d
00000040: 9edc 3940 9e79 1dc0 c617 31c0 196c 373f
00000050: 368a bbbf 1255 7ac0 a709 dbbf 7df5 b83e
00000060: 656a dc3f f8b9 9cbf 8d6f 863f 7dba 823f
00000070: d2aa 1fbf a673 1840 5553 2540 8ad3 893e
00000080: f9e6 d33f 1e36 e83f e63f 22bf fa9f 96bf
00000090: 49b0 39bf 0a36 c93f 6d31 52be d047 e03f
000000a0: 5678 8a3e d230 663f 9064 5d3f 43da aabf
000000b0: ec6f 9bc0 2ad8 d4bf a188 483f 454d a939
000000c0: 638a 8cc0 e985 05c0 5015 32c0 b497 263f
000000d0: 7462 29c0 d899 eebf 52f1 afbc 0057 69be
000000e0: 47c1 09c0 ae5f 37c0 8d16 9b3f bbb1 103f
000000f0: 4402 523f 6c3f 4b40 09bb 0840 b1a5 31c0
00000100: 2f7c 88bf bec4 fabe dc0d 99be b807 723f
00000110: 63da bdbf 0b90 8e3e 3c25 843f a493 18c0
00000120: 4b46 453f 24b6 9bbf 00ce 5dc0 7fed 26c0
00000130: 86a3 2a3f 38f6 763e 952a d9bf 5a55 a13e
00000140: f88e 91bf 8608 c83e 840f 08bf e2e8 0240
00000150: e130 31c0 aad2 253f 6868 2dc0 d8c7 a4bf
00000160: eca0 4c3f aa83 0bbf 5b03 213e d953 efbe
00000170: 8ea3 a8bf d649 76bf 1d51 793e d6e0 66bf
00000180: 7f12 bfbd 8735 3bc0 d940 8abe 6bfa 4dc0
00000190: 891d 2b40 5da0 82bf da11 9fbe e7db e4bf
000001a0: 541c abbf ec9a ee3f 2930 5c3f 78c2 1d3f
000001b0: a31a 94be bc71 03c0 abdc 89bf 274f 63bf
000001c0: bf61 83bf cd80 7c3f 2033 adbe 94fb 12c0
000001d0: 1e69 1dc0 ab80 703e e069 c43e 3a61 debf
000001e0: cc2f 1340 c3a5 af3f ebc9 81c0 cd8d 0c40
000001f0: 9449 64be a022 09c0 e8c4 113f 8fd3 cdbe
00000200: c526 3b40 c8c6 05bf 0a2e 65c0 b0c4 15c0
00000210: ee8c b73f 2829 02bf 1a9c ea3e 031c bebf
00000220: c460 0940 98c7 03c0 e137 7f40 e138 453f
00000230: 596c 5f3e 2271 3a40 24e3 c33f 3aad 29bf
00000240: 3cf4 2340 52ee 8d40 8ed4 0fc0 f896 4d3e
00000250: 0a92 5ebf 34e9 3e3e f39d 0e3f af11 253f
00000260: cdcf 4f3f 8778 08bf 3abd 843d 13f0 e8bf
00000270: df1d 483f 561b 4c3f 6a71 1b40 3bdf 0f40
00000280: bc05 ea3f ef07 abbf 6ece aebe 579c fe3f
00000290: 094c e43f fe45 7bbe 3390 a43f a27c 883e
000002a0: 470b b1be 1184 d63f 4ae1 11bf 42f7 f33f
000002b0: a058 4d3f 5677 8c3d e450 5340 7e1d 24c0
000002c0: 8d86 08c0 874d 653e 3df7 c63e 4957 24bf
000002d0: 6525 a9bf 0037 32c0 8f43 a1bf 9265 f3bf
000002e0: 280d d3be df4e b83f 190b 9fbf ab56 a1bd
000002f0: 8b0f fbbf 483c bebf cb16 e63f 9159 1b3f
00000300: c449 59be 8098 84c0 6f21 1f3f 073e aa40
00000310: 6b81 4dbf f514 10c0 40e8 b83f 04f4 ee3f
00000320: 0175 90bf 8ae3 523f 6a13 01c0 0d24 4e40
00000330: 0980 83bf 78a4 d73f 02d2 2fc0 8b1a 2dbf
00000340: 38e1 0ec0 6277 38bf ef53 1ac0 fac0 d23d
00000350: f08e ab3f bd6d 84bf 0ff8 af3f 5a39 463f
00000360: 74f3 45bf ab3f 723e a445 ea3f 8b87 53c0
00000370: 5427 f53e 484d c1bf 9b60 bc3f 246a 06bf
00000380: 2a84 36bf 87c5 0b40 5426 78be b3ea 87bf
00000390: 0554 f4be a97c 3740 ccd4 09c0 721d 4740
000003a0: 9ee2 233f 7263 5540 9473 ccbf 8085 de3f
000003b0: a966 21c0 31ee 87c0 0e50 e03f c3b9 2dbf
000003c0: 9f2f 4ac0 33e3 e1bf f4bb e8bf b003 07c0
000003d0: 7f42 69bf 4cc1 c3bf 00f6 0940 2349 0ec0
000003e0: 05ee 1040 ebbf 7cbf 3fa2 a43e 2ebc 0fc0
000003f0: 76a1 45bf b306 803f 5290 27c0 55ab c93e
-1.3198458 1.788197 0.3693121 3.1345038 3.0437567 3.2728662 0.9315902 2.6622944
0.7233708 0.652997 3.2076125 2.2637458 -3.9873843 0.13229378 -2.860808 0.1009746
2.9040904 -2.460548 -2.767076 0.7164932 -1.4651554 -3.9114423 -1.7112321 0.36124793
1.7219969 -1.2244253 1.0502793 1.0213162 -0.62370026 2.3820586 2.5832112 0.26919204
1.6554862 1.8141515 -0.6337875 -1.1767571 -0.72534615 1.5719616 -0.20526667 1.7521915
0.27044934 0.89918244 0.8648157 -1.3347858 -4.8574123 -1.6628468 0.7833348 0.00032291762
-4.391893 -2.0862982 -2.7825508 0.6507523 -2.646634 -1.8640699 -0.021477375 -0.22787094
-2.1524217 -2.8652148 1.2116257 0.56521195 0.8203471 3.175746 2.1364157 -2.775738
-1.0662898 -0.48978227 -0.29893386 0.9454303 -1.4832271 0.2784427 1.0323863 -2.3840113
0.77060384 -1.216496 -3.4656982 -2.6082456 0.66655767 0.24117362 -1.696612 0.3151043
-1.1371756 0.39069003 -0.53148675 2.045464 -2.7686083 0.6477457 -2.7094975 -1.2873487
0.7993305 -0.5449778 0.15723936 -0.46743658 -1.3174913 -0.96206415 0.24347349 -0.9018682
-0.093297 -2.925142 -0.270026 -3.2184093 2.6736777 -1.0205189 -0.31068307 -1.7879609
-1.336802 1.8641028 0.86010987 0.6162486 -0.28926572 -2.0538168 -1.0770468 -0.8879265
-1.0264205 0.98634034 -0.33828068 -2.296605 -2.4595408 0.23486583 0.38362026 -1.7373421
2.2997923 1.3722461 -4.055898 2.1961548 -0.22293693 -2.1427383 0.5694108 -0.4020047
2.9242413 -0.5225644 -3.580935 -2.3401299 1.4339883 -0.5084405 0.4582222 -1.4852298
2.146531 -2.0590572 3.9877856 0.77039915 0.21818675 2.913155 1.5303693 -0.6627995
2.561782 4.435342 -2.2473483 0.20077121 -0.8694159 0.18643647 0.5570976 0.6448011
0.81176454 -0.5330891 0.064814046 -1.8198265 0.7817058 0.7972921 2.4287972 2.248
1.8283 -1.3361796 -0.34141868 1.9891461 1.7835704 -0.24538419 1.2856506 0.26657587
-0.34578916 1.6759053 -0.5698439 1.9059832 0.80213356 0.06858699 3.3018122 -2.5643
-2.1332123 0.22392856 0.38860503 -0.64195687 -1.3214537 -2.784607 -1.2598742 -1.9015372
-0.41220975 1.439907 -1.2425262 -0.07877859 -1.9614118 -1.4862146 1.7975706 0.6068354
-0.21219546 -4.1436157 0.6216039 5.3200717 -0.802756 -2.251279 1.4445877 1.8668218
-1.1285707 0.8237845 -2.01681 3.2209504 -1.0273448 1.6847067 -2.7471929 -0.67618626
-2.2324963 -0.72057164 -2.411373 0.102907136 1.3402996 -1.034599 1.3747576 0.7743126
-0.77324605 0.236571 1.8302503 -3.305148 0.47881567 -1.5101709 1.4716982 -0.5250571
-0.71295416 2.183931 -0.24233371 -1.06185 -0.47720352 2.8669837 -2.153613 3.1111722
0.64017665 3.3341947 -1.5972772 1.7384491 -2.5218909 -4.247826 1.7524431 -0.67861575
-3.1591566 -1.7647461 -1.8182359 -2.1096 -0.9111709 -1.5293365 2.1556396 -2.223214
2.2645276 -0.98730344 0.32155034 -2.2458606 -0.77199495 1.0002044 -2.6181836 0.39388528

linear0.weight f4 [32, 384]
00000000: 643b 55bd 7392 db3b 1b96 c5bd b04a fbbc
00000010: 9af1 aa3d 1cac 493d 524e acbd 0f0f 563d
00000020: 1ccb b53d ed22 963d 926a 26bd 251a 1b3d
00000030: 38cf 343d a2e2 7c3d a3f3 d5bd e688 c3bd
00000040: 9079 233d eef4 48bd 2c3b 7bbd 4715 ae3a
00000050: 6a3b 11ba 17b9 13bd 84dc 8cbc fcc4 cdbd
00000060: b4b3 91bd ec38 c0bd 8e56 cd39 544e 183d
00000070: 14c0 d13d fbfc bd3b b2c6 b1bd a9bc b73d
00000080: 3553 a4bd 0584 2b3c a7cf a23c a408 993c
00000090: 81da 91bd 4e83 6fbd 055b 3bbb 89ee eabd
000000a0: c78e ad3d 5151 ce3d 788d 5e3d cf0e c3bc
000000b0: fd13 33bd 31b3 883d da25 d1bc 8a11 6cbc
000000c0: 79fc a63d 890f a0bc d95e 9c3d 3364 78bd
000000d0: ccbc 4d3c dc62 cbbd d956 043a 0e2f 65bd
000000e0: 6c58 28bd 17fe d13d 4a1b d73c 56b6 293d
000000f0: f892 3fbd f087 7e3d a743 3fbd 1ac2 a13c
00000100: d37f c4bc 2858 383d 6a38 83bd 0a10 4ebd
00000110: ccb0 943d 1284 f53c f00a b9bd 961e 9e3d
00000120: 4039 843d 8e8a 843d 676d 3ebd c726 883d
00000130: edea b33d a095 f73d 2a56 a5bd 7e7b 8ebd
00000140: 797f d13c d6a5 86bd 1999 f6bd 8f71 433a
00000150: 5e3a 9bbd 0428 85bc 24b1 54bd 935a a4bd
00000160: 1e4e b1bd b758 86bd eb67 90bd abda c83d
00000170: d7cd d43d 4612 79bd ac57 94bd de43 a03d
00000180: 5392 a0bd 2745 6e3d 2a2c 883d ec84 193c
00000190: 5958 dabc b0ef d5bd 34f0 16bc f496 3dbd
000001a0: 1749 e43d 1d40 9e3b 9e88 b83b 4f00 b3bd
000001b0: 4257 9ebd aea2 e33d 832e 47bd 13c6 d23d
000001c0: e85a 5c3d 584b 96bc 9ff4 cc3d ca53 b5bd
000001d0: e1e3 983d 4ed9 68bd c359 233d 4fa3 d5bc
000001e0: fe7e b7bd 514d bf3d f58a 6d3d d2cf 963d
000001f0: c66d c5bd 8d22 a33c d03a 93bd 68a2 883d
00000200: 21d9 73bc 3a81 16bd b930 5abd 21c6 d1bc
00000210: 31fe c5bc 5155 cbbd e495 c9bd ef06 debd
00000220: 00fb 3c3d 5f9b cebc ffdc d5bc 5a82 23bd
00000230: e120 debd a4c7 76bd d0e0 e83b 2fbc d8bd
00000240: 171c 8cbc afbf 5dbc 3f7c 71bd cb8b 6ebd
00000250: b712 09bd ffd0 4dbd 2f73 c6bd a5ff 33bd
00000260: 2189 70bc 3fa4 ddbd 01c5 203d 0651 a1bd
00000270: a13b 97bd f633 a9bd f747 8ebd 3a01 a8bd
00000280: f755 09bc 7f3f 9dbd 2902 80bc ca07 93bc
00000290: 51d1 cebc e1d5 43bd ff3e 3bbc e6e4 21bd
000002a0: 4765 8ebd 8622 163d efd5 c6bd 5a0b a1bd
000002b0: 0bec 5fbd 4f0a ddbd d01d 81bc e1af e5bc
000002c0: 30a4 96bc b128 003d 27f1 80bd 3fd1 c8bc
000002d0: f0cb eb3b 2f02 03bd c970 a9bd 71f2 49bd
000002e0: e156 5dbc 0082 7abd c128 83bd a60a a9bc
000002f0: 3133 9abd 8104 c3bd 1a23 a8bd 0fd2 d1bd
00000300: a18d 38bd 2d67 123d 4900 353c d25d bdbc
00000310: 229e 3d3c 25ef e0bc 67fa 0bbd 5019 47bc
00000320: 20bd 11bc 9e5a 95bc 500c b33b 31b1 d13c
00000330: 3e5d ba3c 6e9f 893d 6670 86bc a854 d93c
00000340: 954f dbbc 5ab1 c3bc baff 0d3d 6e36 753d
00000350: f45d 70bb 1fb7 f83c 539d 793c 0642 80bb
00000360: d893 d23c ca1c 213c a179 0e3b fc03 08bd
00000370: 8f80 c7bc 9d10 27bd 7bd9 42bd c1eb 2e3d
00000380: a2e6 d3bc 73de aa3c 9e39 6a3d 807d 5e3d
00000390: e170 f2bb 2f78 033d 61c0 5fbc 564a c23c
000003a0: 31ed 4b3d 0f80 1b3d 9a92 29bc d1e5 4ebd
000003b0: dfe8 1dbd 002f 3439 6fa7 443d f075 713c
000003c0: 1161 42bd 4b07 363d e13c d7bb 807a 3dbd
000003d0: df50 003d 1f42 373d f7d9 0cbd a8ac 033d
000003e0: 8125 3d3d cfab 423d 5fc1 483d bf5a 4fbc
000003f0: 9f32 aa3c 30bc 1f3d 07e2 8abc 0063 7fbb
-0.052058592 0.0067008077 -0.09647771 -0.030675262 0.08346863 0.049236402 -0.08413376 0.052260455
0.08876631 0.0733088 -0.040628977 0.03786673 0.04414293 0.06173957 -0.10446861 -0.09547596
0.039910853 -0.04906171 -0.061335728 0.0013281488 -0.00055401644 -0.036065187 -0.017194994 -0.100473374
-0.07114354 -0.09385857 0.00039165135 0.037184075 0.10241714 0.00579798 -0.08680476 0.08971531
-0.08023683 0.010468488 0.019874407 0.018680878 -0.071217544 -0.05847483 -0.0028588187 -0.11471278
0.08474498 0.100741036 0.054334134 -0.023810772 -0.043720234 0.06674803 -0.025530744 -0.0144084785
0.08153624 -0.019538658 0.07635278 -0.060642432 0.01255722 -0.09930965 0.00050483417 -0.055953078
-0.04109995 0.10253542 0.02625813 0.041433655 -0.04677102 0.06214136 -0.046695378 0.019745875
-0.023986733 0.045005947 -0.064072445 -0.050308265 0.07260284 0.029970203 -0.09035289 0.077206776
0.06456232 0.0647174 -0.046491053 0.06648021 0.08785043 0.120890856 -0.08073075 -0.06957148
0.025573479 -0.065745994 -0.1204092 0.0007455581 -0.07579492 -0.016254432 -0.051926747 -0.08025088
-0.08657478 -0.0655989 -0.07051071 0.098073326 0.10390823 -0.060808443 -0.072432846 0.07825445
-0.07840409 0.058171418 0.066490486 0.00937007 -0.026653456 -0.104461074 -0.009212542 -0.04628654
0.11146753 0.0048294202 0.0056315204 -0.08740293 -0.07731487 0.11115013 -0.04862834 0.10291686
0.053797632 -0.018346474 0.10007595 -0.08853872 0.074653395 -0.056847863 0.039880525 -0.026078848
-0.08959769 0.09340919 0.057993848 0.07363857 -0.09640078 0.019913936 -0.07188952 0.066716015
-0.0148833105 -0.036744334 -0.05326912 -0.02560717 -0.02416906 -0.09928382 -0.098430425 -0.10841166
0.04613781 -0.025220571 -0.026106356 -0.039919235 -0.10846115 -0.060248986 0.007106878 -0.10582768
-0.017103238 -0.01353447 -0.05895638 -0.058238786 -0.033465113 -0.050248142 -0.09689938 -0.043944973
-0.014681132 -0.10822343 0.039250378 -0.07876782 -0.0738442 -0.08261864 -0.0694732 -0.08203359
-0.008382312 -0.076781265 -0.01562603 -0.01794805 -0.025246294 -0.047811393 -0.011428594 -0.039524935
-0.06952911 0.036654018 -0.09708773 -0.07863493 -0.054668467 -0.10792982 -0.015761286 -0.028037967
-0.018388838 0.031288806 -0.06295996 -0.024513839 0.007195942 -0.031984504 -0.08273465 -0.049303476
-0.013509483 -0.061159134 -0.064042576 -0.02063496 -0.07529295 -0.095223434 -0.0820982 -0.102451436
-0.045056943 0.035742927 0.011047431 -0.023116026 0.011573346 -0.027457783 -0.03417435 -0.012152031
-0.008895189 -0.018231686 0.0054641142 0.025597187 0.02274954 0.06719862 -0.016411018 0.026529625
-0.026771346 -0.023888279 0.034667708 0.05986636 -0.0036677094 0.030360756 0.015235263 -0.0039141206
0.025705263 0.009833524 0.0021739977 -0.033206925 -0.024353294 -0.040787328 -0.047570687 0.0427053
-0.02586681 0.020858025 0.057183854 0.054318905 -0.00739871 0.032097038 -0.013656707 0.023717087
0.04978675 0.037963923 -0.010349894 -0.05051214 -0.03855216 0.00017183647 0.04801124 0.014737591
-0.04745585 0.04444055 -0.0065685366 -0.046259403 0.031327125 0.044740792 -0.034387555 0.03214708
0.046178345 0.04752713 0.049012538 -0.012655913 0.020776091 0.03899783 -0.016953481 -0.003896892

linear0.bias f4 [32]
00000000: 2e91 babd aa65 37be dc10 a53d 81e5 8ebe
00000010: 76e5 06bd 065a bdbd 3126 e1bc f52f e43e
00000020: 4f88 23be 6f65 97bd 11df e6be b745 84be
00000030: c0ef 8cbe a832 c7be 87a5 183d bf03 67be
00000040: d814 92be 9311 763d fc24 4bbe f1c5 b7bd
00000050: 9a67 71bd bb81 53bc 903d 833d cb05 403e
00000060: d5f0 a3ba 3f37 25be e7d4 8abb 76a2 4dbd
00000070: be66 fb3c 946e 8abd 05f3 78be 9b83 73be
-0.09109722 -0.17909876 0.08059856 -0.27909473 -0.032933675 -0.09245686 -0.027484031 0.44567838
-0.15969966 -0.07392394 -0.4509206 -0.25834438 -0.27526665 -0.38905835 0.037267234 -0.22560023
-0.28531528 0.060075354 -0.19838327 -0.08973301 -0.058936693 -0.012909348 0.064082265 0.1875221
-0.0012507687 -0.16134356 -0.0042368057 -0.050203763 0.03068864 -0.06759372 -0.24311455 -0.23780672
