model/1715146453/1_Pee1_global_model_0.pth (torch, 331092 bytes, 17 tensors)

conv1.lin_l.weight f4 [16, 1]
-0.6334601 -0.013591274 -0.6927264 -0.65233713 -0.5012036 0.27880007 -0.83615214 -0.15055597
-0.6355871 0.083415575 -0.26635146 -0.8800255 0.049707565 -0.48561284 0.38897234 -0.4542189
00000000: 712a 22bf efad 5ebc 8456 31bf 91ff 26bf
00000010: e14e 00bf e2be 8e3e 110e 56bf 582b 1abe
00000020: d6b5 22bf c9d5 aa3d 385f 88be 5a49 61bf
00000030: 299a 4b3d 3fa2 f8be 6227 c73e 618f e8be

conv1.lin_l.bias f4 [16]
-0.15507135 0.59276354 -1.0809982 0.3726072 0.44345948 -0.28381673 -0.8193007 0.39341325
0.66717523 -0.6968903 0.6323785 -0.94355834 0.49588323 -0.25876093 -0.39231423 -0.10611689
00000000: 06cb 1ebe 5abf 173f 265e 8abf 5fc6 be3e
00000010: 1f0d e33e 6d50 91be b1bd 51bf 766d c93e
00000020: ffcb 2a3f 6767 32bf 8fe3 213f 0a8d 71bf
00000030: 68e4 fd3e 507c 84be 69dd c8be d053 d9bd

conv1.lin_r.weight f4 [16, 1]
-0.9989901 -0.50206953 0.18505919 -0.8566237 -0.32308248 0.58677787 -0.72006387 0.11763573
-0.48814818 -0.8185038 -0.8413419 0.10508944 -0.7689813 -0.7957745 -0.2732588 -0.05595827
00000000: d1bd 7fbf a187 00bf 2880 3d3e b14b 5bbf
00000010: 116b a5be 1337 163f 1b56 38bf 00eb f03d
00000020: 8fee f9be 7789 51bf 2f62 57bf 2239 d73d
00000030: f5db 44bf e1b7 4bbf 94e8 8bbe 8034 65bd

conv2.lin_l.weight f4 [64, 16]
-0.08427752 0.13972233 -0.022549449 0.14020409 -0.03374723 -0.055180077 -0.14773536 0.097747445
0.12324976 0.04653376 -0.1315962 0.139912 0.07684071 0.16033378 -0.3813295 -0.18962981
0.14803419 -0.2888319 0.08040858 0.16936852 0.0704292 0.04922885 -0.07873035 -0.26323104
0.2099054 -0.26740977 -0.23672439 -0.07656591 -0.21981622 -0.1517396 -0.29915684 -0.11138856
-0.065386064 -0.08937899 0.15848352 -0.013700932 0.005753547 -0.0097515015 0.11052061 0.14198695
0.08933095 -0.09887492 -0.009987295 0.09196104 -0.06739383 -0.12970926 -0.29300785 -0.19611502
0.12121331 -0.22913621 -0.09821092 0.11344779 0.113770954 -0.28236416 0.01772046 -0.15464959
0.02331385 -0.3572949 0.15869428 -0.016463399 -0.33238885 0.18731068 0.104316235 -0.12437714
0.19085144 0.10846365 -0.18174322 0.08218746 -0.012930304 -0.21696448 0.17093396 -0.32568356
0.15620588 -0.2371266 0.24876404 -0.06270767 -0.15412737 -0.1592703 -0.31929728 -0.18094064
-0.19591497 -0.06981135 -0.259325 -0.11940432 0.23986913 -0.14378342 -0.10865724 -0.041834872
0.23855497 -0.2369151 0.15158366 -0.38082072 -0.33160287 0.02843234 -0.44977716 -0.12520814
-0.20645191 -0.07974 -0.10667945 0.004837841 -0.20504381 -0.30479756 -0.1587062 -0.27389386
0.009573132 0.1558862 -0.19751789 0.1687588 0.18120855 0.24839424 -0.13238893 0.027399033
0.111181386 -0.20473884 -0.11414968 -0.097934596 0.13935852 -0.13703729 -0.16741993 -0.28351447
-0.113164656 -0.02299315 -0.18451856 -0.25906822 -0.085006006 -0.099372394 -0.20080684 -0.14849283
-0.029346377 0.043157518 -0.12647535 -0.095003836 0.13184524 -0.1320071 -0.24537943 0.1186068
0.105291255 0.20759107 0.09570313 -0.006597042 0.0622561 0.20592095 -0.008379608 -0.15248157
-0.049477637 -0.17939751 0.074196026 0.07090462 -0.19846581 -0.22749378 -0.21685575 -0.11089038
0.03219682 0.10214985 -0.24110316 -0.3071211 0.09143699 0.23576213 0.11451446 0.03650093
-0.06437194 -0.024973124 0.13289477 0.14592363 -0.04820812 -0.20030116 -0.11584747 0.17298897
-0.1250887 0.06365787 0.10120583 -0.123205304 -0.17045252 0.21083735 0.171719 -0.041475594
-0.19321682 -0.1736405 0.02870369 0.12421477 0.21798755 0.08939957 0.013853639 -0.15982214
0.14906956 0.001219441 -0.23714946 -0.09423684 -0.0682329 0.017175764 -0.30933923 -0.19893457
-0.19601367 -0.13575982 -0.018996863 -0.12479221 0.2104211 -0.103215925 0.036284328 -0.1615362
-0.1274588 -0.08549889 0.13154529 0.03752909 0.1030687 0.052440528 0.14662465 0.02360183
-0.061128024 -0.1270461 -0.029445853 0.16082408 0.09554351 0.06773624 -0.16065454 0.02327933
0.1771233 0.13110241 -0.17394622 -0.08552777 0.021573948 -0.035605967 0.022030292 0.06701076
0.18925522 0.07930927 0.18195535 0.124269366 -0.211838 -0.13690604 0.21903539 -0.018795997
-0.13709913 0.23191331 0.028522909 -0.13677622 -0.21788834 -0.0069352686 0.06748044 -0.051966075
0.14522721 0.2730467 0.14030506 0.18289113 0.11888481 0.023815306 -0.015897036 0.013550519
-0.22296833 0.017018003 0.116096504 0.01906569 -0.008575677 0.09963585 0.05328292 0.0070189238
00000000: b199 acbd 5f13 0f3e 9fb9 b8bc a991 0f3e
00000010: 893a 0abd 8104 62bd f047 17be d02f c83d
00000020: 5f6a fc3d 2f9a 3e3d 27c1 06be 1745 0f3e
00000030: aa5e 9d3d 8a2e 243e 9f3d c3be 512e 42be
00000040: 4696 173e c6e1 93be 41ad a43d f16e 2d3e
00000050: 2f3d 903d 31a4 493d 613d a1bd 38c6 86be
00000060: 71f1 563e efe9 88be e167 72be 96ce 9cbd
00000070: 8117 61be a061 1bbe 162b 99be af1f e4bd
00000080: 21e9 85bd 550c b7bd 8149 223e e079 60bc
00000090: 4088 bc3b c3c4 1fbc a158 e23d 0765 113e
000000a0: 25f3 b63d ef7e cabd c0a1 23bc 1256 bc3d
000000b0: c705 8abd 81d2 04be 2005 96be 60d2 48be
000000c0: af3e f83d afa2 6abe cf22 c9bd 5157 e83d
000000d0: bf00 e93d 0992 90be 802a 913c 765c 1ebe
000000e0: b0fc be3c 5bef b6be c180 223e 40de 86bc
000000f0: df2e aabe 5fce 3f3e c0a3 d53d 71b9 febd
00000100: 8f6e 433e 3122 de3d e51a 3abe e651 a83d
00000110: a0d9 53bc f02b 5ebe 5009 2f3e ffbf a6be
00000120: 6ff4 1f3e 51d1 72be 00bc 7e3e e16c 80bd
00000130: 91d3 1dbe c117 23be ef7a a3be 8148 39be
00000140: ef9d 48be 41f9 8ebd 3fc6 84be 418a f4bd
00000150: 41a0 753e f63b 13be b087 debd 0b5b 2bbd
00000160: c147 743e df99 72be bf38 1b3e effa c2be
00000170: dac7 a9be f0ea e83c 3149 e6be 9036 00be
00000180: 2168 53be ba4e a3bd c17a dabd c086 9e3b
00000190: 01f7 51be 6d0e 9cbe e183 22be d13b 8cbe
000001a0: a0d8 1c3c a2a0 1f3e 2142 4abe 1bcf 2c3e
000001b0: bc8e 393e 0f5b 7e3e f790 07be f073 e03c
000001c0: 11b3 e33d 0fa7 51be 4fc7 e9bd ef91 c8bd
000001d0: 00b4 0e3e 8153 0cbe 2170 2bbe cf28 91be
000001e0: dfc2 e7bd 215c bcbc 6ff2 3cbe 97a4 84be
000001f0: a117 aebd c183 cbbd 4fa0 4dbe 810e 18be
00000200: d067 f0bc f0c5 303d c182 01be 5f91 c2bd
00000210: 7002 073e df2c 07be bf44 7bbe 1fe8 f23d
00000220: f1a2 d73d c192 543e 0100 c43d 002c d8bb
00000230: 4100 7f3d f1dc 523e a04a 09bc 2124 1cbe
00000240: 10a9 4abd fbb3 37be 16f4 973d 7136 913d
00000250: 9f3a 4bbe 21f4 68be 6f0f 5ebe 7f1a e3bd
00000260: d0e0 033d f133 d13d bfe3 76be fa3e 9dbe
00000270: 5143 bb3d a16b 713e 8f86 ea3d 0082 153d
00000280: 70d5 83bd 7094 ccbc 9115 083e 016d 153e
00000290: e175 45bd bf1b 4dbe 7041 edbd 0524 313e
000002a0: 4117 00be 0f5f 823d 0145 cf3d 1053 fcbd
000002b0: 1b8b 2ebe bfe5 573e 1bd7 2f3e 50e2 29bd
000002c0: a1da 45be d1ce 31be 0024 eb3c 5064 fe3d
000002d0: 2138 5f3e 1f17 b73d 60fa 623c 6aa8 23be
000002e0: b1a5 183e a6d5 9f3a 4fd7 72be 3fff c0bd
000002f0: b1bd 8bbd 30b4 8c3c b661 9ebe 81b5 4bbe
00000300: cfb7 48be 9f04 0bbe 4f9f 9bbc 0f93 ffbd
00000310: a178 573e df62 d3bd e09e 143d bf69 25be
00000320: 8f84 02be 0b1a afbd cfb3 063e 1ab8 193d
00000330: af15 d33d e1cb 563d c624 163e a058 c13c
00000340: 6161 7abd 5f18 02be 6e38 f1bc 11af 243e
00000350: 51ac c33d 4cb9 8a3d a082 24be 4bb4 be3c
00000360: cf5f 353e b63f 063e f51e 32be 2f29 afbd
00000370: d9bb b03c 90d7 11bd df78 b43c f03c 893d
00000380: 1fcc 413e e66c a23d 8152 3a3e f080 fe3d
00000390: 10ec 58be 1931 0cbe d04a 603e 10fa 99bc
000003a0: b763 0cbe af7a 6d3e e0a8 e93c 110f 0cbe
000003b0: 1f1e 5fbe 4041 e3bb 2f33 8a3d 61da 54bd
000003c0: 71b6 143e c7cc 8b3e 21ac 0f3e d047 3b3e
000003d0: e179 f33d 5118 c33c 803a 82bc ff02 5e3c
000003e0: cf51 64be 5769 8b3c 01c4 ed3d a62f 9c3c
000003f0: ff80 0cbc e10d cc3d 313f 5a3d 00ff e53b

conv2.lin_l.bias f4 [64]
-0.073682025 -0.121060126 -0.32746443 -0.36612275 -0.10823833 -0.3478665 0.1717041 0.05007839
0.050987124 -0.2024424 0.050680697 0.03352082 0.12658857 0.019708667 -0.20958589 -0.24021791
-0.07744102 -0.23096941 -0.29277515 -0.30545124 -0.23596026 0.08444663 -0.100493915 -0.055334207
0.17142598 -0.15399958 0.1272881 -0.09868837 -0.2660024 0.084032886 -0.29004958 -0.43923905
-0.21321772 0.1966903 -0.1092192 -0.16446266 -0.30353925 0.15746656 0.17237067 0.11153853
-0.039574288 -0.10709094 -0.008297317 -0.1468598 -0.11498846 -0.025373818 -0.2003319 -0.3879814
-0.31628913 -0.3544275 0.035104994 -0.20995952 -0.08405436 -0.08302812 0.15046506 0.08931307
-0.34455684 0.18843724 -0.122067444 -0.18227623 0.090642564 0.07788289 0.15250824 0.018249113
00000000: 9ae6 96bd 5fee f7bd 6ba9 a7be 7174 bbbe
00000010: 0fac ddbd 8f1b b2be 33d3 2f3e ff1e 4d3d
00000020: e0d7 503d 0f4d 4fbe 9096 4f3d 214d 093d
00000030: 6fa0 013e 1274 a13c af9d 56be affb 75be
00000040: 6699 9ebd 3f83 6cbe a0e6 95be 1b64 9cbe
00000050: 919f 71be 5bf2 ac3d c1cf cdbd 1fa6 62bd
00000060: 4b8a 2f3e 11b2 1dbe d057 023e 211d cabd
00000070: 7731 88be 6f19 ac3d 6181 94be f1e3 e0be
00000080: bf55 5abe 2f69 493e 51ae dfbd e668 28be
00000090: 7f69 9bbe ea3e 213e f081 303e 506e e43d
000000a0: a618 22bd 7f52 dbbd 78f1 07bc 6a62 16be
000000b0: 127f ebbd c1dc cfbc ce23 4dbe 80a5 c6be
000000c0: a6f0 a1be 8577 b5be 41ca 0f3d a1ff 56be
000000d0: b124 acbd a60a aabd 8313 1a3e c5e9 b63d
000000e0: c169 b0be b1f5 403e 7ffe f9bd 9fa6 3abe
000000f0: cfa2 b93d 1181 9f3d 1f2b 1c3e 2a7f 953c

conv2.lin_r.weight f4 [64, 16]
-0.15914464 0.09569944 -0.29492232 0.08150221 -0.14393352 0.06429934 0.16218266 -0.19962095
-0.13148735 0.12519585 -0.089616336 -0.16177581 -0.15853284 -0.17683928 -0.13480772 0.12976836
-0.03512788 -0.26067355 -0.28269985 0.016950905 0.13161612 -0.15129851 -0.1640463 0.019991366
0.16579674 -0.10461975 -0.097168215 0.037211098 -0.26647612 -0.16072772 0.06824046 0.13796593
0.11234332 0.1638477 0.18738987 0.12603976 0.15632416 -0.0046935547 0.06500864 -0.061028603
0.18393923 -0.0967671 -0.22260952 0.2411096 0.2164449 -0.19642662 -0.09248037 -0.21935509
0.04707277 0.059509397 -0.099107735 -0.05082273 0.09323705 0.0067165424 0.21357013 -0.30115417
0.19286084 -0.23743774 -0.07338356 0.108274944 -0.025195748 0.05173767 -0.13611434 -0.080021985
0.021430492 0.03364086 -0.23577596 -0.04351296 0.11712659 0.10406064 -0.13533343 0.030973164
0.0035090148 0.0103414515 0.0671429 0.0845019 0.08100502 -0.23610924 -0.0442853 0.06781375
-0.13473772 -0.5273723 -0.13930084 0.04820216 0.033332556 -0.28715852 0.16214776 -0.5091706
-0.15232834 -0.51057917 -0.24402308 -0.36275974 -0.43875358 -0.12843753 -0.19127752 -0.108742476
-0.07652219 -0.22559713 -0.1008701 0.1536549 0.1879382 0.119223244 -0.073368624 0.13710594
-0.1580163 -0.036818262 0.21052264 -0.22056597 0.103724964 0.00067058206 0.0067096422 -0.22981642
0.23275949 -0.28128102 -0.2382076 -0.09475852 -0.062386036 0.02600011 -0.053956512 0.13967548
-0.23725413 0.1214261 -0.19835661 0.21396829 -0.24519633 0.028803706 -0.054090854 -0.110080354
0.09268642 0.21994282 -0.06071997 -0.17912124 -0.13583682 -0.113143325 0.13043965 -0.2024877
0.18257235 0.07981424 0.07532008 -0.17616437 -0.11230218 -0.14883329 0.10649682 0.10548437
0.18600965 -0.0029749533 0.057586614 0.062264264 -0.054846823 0.039448623 -0.17586206 -0.22768901
0.04490602 -0.016141117 0.024757862 -0.008615897 -0.18794678 -0.10040354 -0.12114037 -0.035085354
-0.088095896 0.19744705 0.14986204 -0.23460771 0.09401845 -0.21550323 0.08739698 -0.24280857
0.035067353 -0.15115665 0.24661541 -0.21980856 -0.12346221 0.23569776 -0.048575994 0.24422027
-0.054732922 0.1378286 -0.24341036 0.043082118 0.065488696 -0.06251847 -0.124089606 -0.23221205
0.11020423 -0.085594304 0.1723756 0.17958133 0.15087937 0.073818445 -0.1911733 0.175004
-0.18433382 -0.01125601 -0.0894111 0.15148401 0.154119 -0.18347834 0.16086349 0.093133695
0.08089625 -0.120275386 -0.15546606 -0.23000287 -0.17848085 -0.20504497 0.02491963 0.17866252
0.2208526 -0.13806438 -0.12765025 0.22004937 0.023060888 -0.06729752 0.12523174 -0.19169019
-0.17306496 -0.14189361 -0.09462046 0.06846351 -0.12759946 0.24619077 -0.2015524 -0.14212298
0.1751991 0.23888494 -0.23299576 -0.19454144 -0.12575255 -0.09635068 -0.21328545 0.1030562
0.07141178 0.07568097 0.053414166 0.22747447 -0.07263391 -0.17538531 0.047666077 0.15018272
-0.2201817 -0.07113277 -0.0023417508 0.055940393 -0.01831907 -0.07626795 0.003506571 0.052552406
-0.03501141 -0.09791266 0.11071993 0.04871613 0.19967078 0.07268071 -0.13625433 -0.087154746
00000000: d0f6 22be 11fe c33d 0f00 97be a1ea a63d
00000010: 4f63 13be 5faf 833d 3613 263e 6f69 4cbe
00000020: 9fa4 06be 5733 003e c588 b7bd 8fa8 25be
00000030: 6f56 22be 5b15 35be 090b 0abe ffe1 043e
00000040: 40e2 0fbd 0177 85be 09be 90be a0dc 8a3c
00000050: 60c6 063e ffed 1abe c1fb 27be efc4 a33c
00000060: 9fc6 293e e142 d6bd 2100 c7bd aa6a 183d
00000070: 8f6f 88be cf95 24be a7c1 8b3d f146 0d3e
00000080: 4114 e63d b1c7 273e 21e3 3f3e 9110 013e
00000090: 7113 203e 64cc 99bb 4023 853d 21f9 79bd
000000a0: 915a 3c3e d42d c6bd c0f3 63be 6fe5 763e
000000b0: bba3 5d3e 0f24 49be 5966 bdbd 9f9e 60be
000000c0: 60cf 403d 20c0 733d fff8 cabd 7f2b 50bd
000000d0: 11f3 be3d 7116 dc3b 21b2 5a3e e130 9abe
000000e0: 507d 453e e122 73be 1f4a 96bd 41bf dd3d
000000f0: 5067 cebc e1ea 533d 8f61 0bbe 91e2 a3bd
00000100: 008f af3c 00cb 093d 416f 71be a53a 32bd
00000110: 11e0 ef3d bf1d d53d d994 0abe 6fbb fd3c
00000120: 80f7 653b 316f 293c 3782 893d 550f ad3d
00000130: f6e5 a53d 9fc6 71be 8164 35bd efe1 8a3d
00000140: aff8 09be df01 07bf e1a4 0ebe a16f 453d
00000150: b887 083d 7106 93be 100a 263e 0159 02bf
00000160: f6fb 1bbe 51b5 02bf 30e1 79be a5bb b9be
00000170: 4fa4 e0be 2185 03be 41de 43be 60b4 debd
00000180: aab7 9cbd ef02 67be fc94 cebd b657 1d3e
00000190: df72 403e 512b f43d 4a42 96bd 8065 0c3e
000001a0: 06cf 21be bfce 16bd 3f93 573e 0cdc 61be
000001b0: c16d d43d 00ca 2f3a 8fdc db3b ff54 6bbe
000001c0: 8158 6e3e 1104 90be b1ec 73be c110 c2bd
000001d0: 8088 7fbd 2ffe d43c 8101 5dbd 1707 0f3e
000001e0: bff2 72be 3fae f83d ff1d 4bbe 811a 5b3e
000001f0: bf14 7bbe c0f5 eb3c 5f8e 5dbd cf71 e1bd
00000200: 61d2 bd3d b138 613e 81b5 78bd 8f6b 37be
00000210: cf18 0bbe b0b7 e7bd f991 053e f058 4fbe
00000220: 3ff4 3a3e a675 a33d 6a41 9a3d 6f64 34be
00000230: affe e5bd c167 18be 011b da3d 3008 d83d
00000240: 5079 3e3e 6ff7 42bb f1df 6b3d d008 7f3d
00000250: 10a7 60bd e194 213d 2f15 34be 4f27 69be
00000260: 60ef 373d 603a 84bc 00d1 ca3c b129 0dbc
00000270: 1f75 40be 5fa0 cdbd 7118 f8bd a9b5 0fbd
00000280: 9f6b b4bd 8f2f 4a3e 6f75 193e 013d 70be
00000290: bf8c c03d e1ac 5cbe 30fd b23d cfa2 78be
000002a0: c9a2 0f3d cfc8 1abe c088 7c3e 7f15 61be
000002b0: c1d9 fcbd c15a 713e 9ff7 46bd e114 7a3e
000002c0: a12f 60bd f122 0d3e 9140 79be e076 303d
000002d0: f01e 863d af09 80bd b122 febd ffc8 6dbe
000002e0: c1b2 e13d 114c afbd 3b83 303e 2be4 373e
000002f0: 1f80 1a3e 202e 973d efc2 43be 4034 333e
00000300: 01c2 3cbe 216b 38bc 2b1d b7bd a01e 1b3e
00000310: 5fd1 1d3e bfe1 3bbe 66b9 243e e1bc be3d
00000320: efac a53d f152 f6bd 7f32 1fbe df85 6bbe
00000330: afc3 36be 4ff7 51be 4024 cc3c 4ff3 363e
00000340: 2f27 623e c060 0dbe bfb6 02be 9f54 613e
00000350: 30ea bc3c 48d3 89bd c03c 003e 6f4a 44be
00000360: f137 31be 8f4c 11be 5fc8 c1bd 9936 8c3d
00000370: 6fa9 02be 6f19 7c3e c163 4ebe b088 11be
00000380: 6567 333e 419e 743e 7196 6ebe df35 47be
00000390: 47c5 00be 8153 c5bd 8067 5abe 210f d33d
000003a0: 5740 923d a0fe 9a3d d0c8 5a3d 11ef 683e
000003b0: 16c1 94bd 3598 33be 813d 433d 80c9 193e
000003c0: 5077 61be 0fae 91bd 0f78 19bb c121 653d
000003d0: e011 96bc 5f32 9cbd 80ce 653b 3141 573d
000003e0: 2068 0fbd 6f86 c8bd 21c1 e23d 918a 473d
000003f0: 7f76 4c3e a0d9 943d 4186 0bbe 307e b2bd

lstm_cell.weight_ih f4 [256, 192]
0.12534903 0.18456721 -0.072661884 0.01870634 0.04131273 -0.18085106 0.04738774 0.068061285
-0.103556864 -0.023078708 0.087863244 0.14156522 0.13649367 0.19229239 0.0053974986 -0.20258762
0.038161956 0.1679957 -0.0119259795 0.1310682 0.109715946 0.01020229 0.042368013 0.059023377
-0.035809636 0.123235695 0.11657382 0.17644589 -0.046765033 -0.35886762 0.19198583 -0.048709575
-0.011501595 0.1821027 -0.1975012 0.15805665 0.016428234 -0.12411059 0.04071402 -0.03495821
-0.14021228 0.10068512 0.09762906 0.13591494 0.20316233 -0.0110847065 0.08335095 -0.046352684
-0.00071078906 -0.012763545 -0.041017175 0.10591804 0.08288229 0.15472922 0.19772387 -0.0005657306
0.11738253 0.16470505 -0.0013483876 0.21395017 0.1520245 0.11589742 -0.05456811 0.074050196
-1.0357645 3.3989441 2.6467698 2.843367 2.2900617 5.7054687 7.1810746 -0.08851629
5.6845884 7.597445 7.5108013 6.615885 6.3590517 6.740502 8.781495 7.652641
7.908501 6.794129 7.471507 7.4160933 7.4146757 0.08746669 8.370904 5.3310966
7.1811824 7.183616 7.0039186 8.084485 7.319915 0.0014776855 0.0545581 0.069766
-0.04738977 -0.10911899 0.025449736 0.016554533 0.061200712 0.041533474 -0.14741096 0.004586354
0.070724495 -0.0077503175 -0.11703991 -0.11218978 0.0036095977 -0.031835973 0.014470324 -0.052089453
-0.074002504 0.032598253 -0.030691087 0.00450933 -0.012902945 -0.081078045 -0.0864983 -0.12036837
0.097165935 0.011496246 -0.08970932 0.11344337 -0.085067265 -0.112537496 0.04763532 -0.07064635
-0.031100394 1.9829332 1.2814614 -0.47151068 -0.5445546 2.3308947 0.10373878 3.3620157
6.6470366 5.837639 -0.097235516 7.381436 7.717844 7.7759924 0.099359386 8.38369
9.068979 8.034817 7.570146 7.1710844 6.8802223 6.460265 0.0095803635 8.270503
6.4566817 3.4971213 0.052076057 7.0201926 4.1402173 8.603298 0.113372885 0.057867274
0.05388236 0.07954861 -0.13438714 -0.0623145 -0.10448729 -0.10696496 -0.04572584 -0.112385914
0.04926544 0.114358656 0.07089233 -0.04026675 -0.031795565 0.053090457 0.089297764 -0.09574664
-0.08152826 -0.04629856 -0.069802456 0.042170186 -0.12133003 0.090500474 -0.0029143244 0.111027606
0.040096227 -0.06411386 -0.035287857 -0.08405379 0.03863845 -0.082351096 0.1183138 0.08915006
0.046630856 0.03918993 0.5541693 0.101315506 0.08719329 -0.14309874 -0.01452408 0.030439107
-0.013762906 -0.027525486 0.122755535 0.0066912402 -0.034619477 0.39062297 -0.082056925 0.59261805
0.01701294 0.052489165 -0.03143919 0.120770365 0.18529151 0.07984924 -0.050017837 0.17486222
0.06219375 0.054746088 0.00871782 0.29642108 -0.008543038 0.70130926 0.5808121 0.041279353
0.06656312 -0.052273747 0.83819395 -0.043576594 -0.048792478 0.1082189 -0.026499212 0.01592432
0.67901707 0.024303854 0.7672071 0.12856509 0.35263422 0.13093008 0.048096493 0.07808046
-0.08460092 0.036296643 0.35667273 -0.16726206 -0.093719356 -0.07354303 0.11886381 0.026207538
-0.077956244 0.1361245 0.15809919 0.055046912 0.051229235 -0.055189844 -0.028061448 0.03206295
00000000: 7f5b 003e 30ff 3c3e c1cf 94bd 0a3e 993c
00000010: 8a37 293d 0531 39be a619 423d b763 8b3d
00000020: 9f15 d4bd 8f0f bdbc a5f1 b33d 79f6 103e
00000030: ffc4 0b3e 4ce8 443e 80dd b03b 2173 4fbe
00000040: b64f 1c3d 1107 2c3e 2f65 43bc be36 063e
00000050: c1b2 e03d 8127 273c 158a 2d3d 7fc2 713d
00000060: 20ad 12bd ff62 fc3d 41be ee3d 3bae 343e
00000070: b18c 3fbd 7fbd b7be ef97 443e b183 47bd
00000080: 3071 3cbc 2179 3a3e c13d 4abe 9ad9 213e
00000090: 8194 863c b12d febd bfc3 263d 5730 0fbd
000000a0: cf93 0fbe 0034 ce3d bff1 c73d 492d 0b3e
000000b0: c909 503e a19c 35bc e7b3 aa3d 50dc 3dbd
000000c0: 3f54 3aba 301e 51bc a001 28bd 8feb d83d
000000d0: 31be a93d 5671 1e3e 2078 4a3e 8a4d 14ba
000000e0: 4066 f03d 71a8 283e 61bc b0ba c115 5b3e
000000f0: 4fac 1b3e a05b ed3d cf82 5fbd a1a7 973d
00000100: ee93 84bf 4d88 5940 ad64 2940 baf9 3540
00000110: 5f90 1240 3393 b640 5dcb e540 0748 b5bd
00000120: 26e8 b540 451e f340 7c58 f040 54b5 d340
00000130: 5a7d cb40 31b2 d740 0181 0c41 6fe2 f440
00000140: 7112 fd40 8169 d940 9616 ef40 a350 ed40
00000150: 0645 ed40 bc21 b33d 39ef 0541 5898 aa40
00000160: 3fcc e540 2fe0 e540 1a20 e040 0d5a 0141
00000170: be3c ea40 e6ae c13a 5078 5f3d 7ae1 8e3d
00000180: c71b 42bd c779 dfbd f77b d03c 5f9d 873c
00000190: 99ad 7a3d 011f 2a3d e6f2 16be 2049 963b
000001a0: 01d8 903d 60f6 fdbb 9fb2 efbd c1c3 e5bd
000001b0: 008f 6c3b 7066 02bd f014 6d3c c05b 55bd
000001c0: a08e 97bd bf85 053d e06b fbbc 00c3 933b
000001d0: e066 53bc 3f0c a6bd 0526 b1bd b183 f6bd
000001e0: effe c63d c05a 3c3c 85b9 b7bd ff54 e83d
000001f0: bf37 aebd 0f7a e6bd 411d 433d 09af 90bd
00000200: 41c6 febc c1d0 fd3f ed06 a43f d969 f1be
00000210: ee67 0bbf 612d 1540 ff74 d43d 442b 5740
00000220: 86b4 d440 f0cd ba40 6a23 c7bd b934 ec40
00000230: 94f8 f640 eed4 f840 ef7c cb3d 9823 0641
00000240: 8a1a 1141 9c8e 0041 a33e f240 8679 e540
00000250: c82a dc40 7eba ce40 f5f6 1c3c fb53 0441
00000260: 239d ce40 d6d0 5f40 b44d 553d 6ba5 e040
00000270: a97c 8440 1ca7 0941 0b30 e83d 3c06 6d3d
00000280: c0b3 5c3d 62ea a23d c89c 09be 7d3d 7fbd
00000290: 6ffd d5bd 7210 dbbd 054b 3bbd 962a e6bd
000002a0: 8fca 493d df34 ea3d ff2f 913d bfee 24bd
000002b0: 113c 02bd 6175 593d bfe1 b63d d016 c4bd
000002c0: 4af8 a6bd 8fa3 3dbd 97f4 8ebd a5ba 2c3d
000002d0: e17b f8bd 5058 b93d 40fe 3ebb 7162 e33d
000002e0: f13b 243d 214e 83bd 008a 10bd 6524 acbd
000002f0: 5a43 1e3d b1a7 a8bd 814e f23d 4f94 b63d
00000300: ffff 3e3d 9f85 203d 0ade 0d3f 817e cf3d
00000310: 6592 b23d 7a88 12be 68f6 6dbc 6f5b f93c
00000320: d07d 61bc 217d e1bc 4167 fb3d 3142 db3b
00000330: 27cd 0dbd bcff c73e 760d a8bd d1b5 173f
00000340: b95e 8b3c e1fe 563d 61c6 00bd 7456 f73d
00000350: 0fbd 3d3e 0088 a33d 81df 4cbd 150f 333e
00000360: e0be 7e3d 6f3d 603d 30d5 0e3c 81c4 973e
00000370: 19f8 0bbc 0189 333f 1ab0 143f 8a14 293d
00000380: 3f52 883d ff1c 56bd e193 563f 5f7d 32bd
00000390: 9fda 47bd dfa1 dd3d e014 d9bc b873 823c
000003a0: 10d4 2d3f e018 c73c af67 443f 91a6 033e
000003b0: 798c b43e 8912 063e d400 453d a6e8 9f3d
000003c0: 3f43 adbd caab 143d cf9d b63e bf46 2bbe
000003d0: efef bfbd ba9d 96bd df6e f33d 31b1 d63c
000003e0: 86a7 9fbd 3964 0b3e c1e4 213e df78 613d
000003f0: bfd5 513d bf0e 62bd 1fe1 e5bc 7154 033d

lstm_cell.weight_hh f4 [256, 64]
0.4554649 0.37651086 1.0695702 -4.185482 1.335506 -2.8255408 -2.3954828 2.4312024
3.4796336 0.77567416 0.4399183 -1.2731826 -0.03554327 -1.4544461 -1.8489249 -0.21667239
-0.80540603 0.6081144 -3.1358616 -1.5399178 -0.052201778 2.5835812 2.5215693 -0.7759086
0.5134531 2.5202634 -2.4619493 0.90003383 -0.17576148 -2.9068227 -1.9189109 0.10214624
1.1815084 -1.9492792 -0.40123236 0.92638516 2.4390945 -1.3909365 0.21082172 -2.2534804
1.2352238 -0.088716626 -2.787048 -1.1583452 -1.2405459 -1.8494562 0.56499684 1.5715399
0.4617346 2.0827868 -1.9980677 0.6966376 1.4712305 1.5531373 -2.380525 3.0505314
1.3007873 -2.3578846 0.9333841 0.30139086 2.84131 1.2753415 0.48384863 2.8543603
0.4342303 -0.46439618 0.029730951 0.32117063 -2.2247527 -2.7453578 0.5636139 0.34637028
-2.0869968 -1.1038263 -0.6333341 -0.6375737 -1.015605 -0.5442049 -0.2134979 2.739256
-0.5714275 -0.9969708 -0.81705815 -2.3717566 -0.70658576 1.8291675 0.3546351 0.9183457
1.1639496 -0.27700114 -2.32632 -3.8761752 -0.77379084 -0.32633486 -2.1878994 -0.9472312
0.17614841 1.5320385 -3.6371005 2.1009774 1.62888 -0.42212164 -0.06799161 2.9404087
-1.0876839 -0.82629234 4.591814 0.6611586 -1.5531014 -0.31712946 -1.440326 -0.8300597
4.0153794 -2.016258 1.2506754 -2.167192 0.21142726 -0.18387234 -3.2139976 -0.13114282
-0.10909583 -1.8440135 1.7635082 0.59847325 1.6268901 -1.1634601 0.11289222 -1.938193
2.6600988 0.9864008 0.36958763 0.44287825 4.4123573 0.3296062 0.31069142 -1.9278647
2.0985508 -2.4214664 1.6861069 0.029473841 -0.11040953 -1.320796 -1.9057571 -0.64721036
1.5656801 0.67312413 -0.50625306 -1.9493078 3.8094728 0.48882553 1.4439292 1.5461012
0.63923866 1.4467171 1.6524976 -0.3507644 -2.00111 2.5413795 0.8797874 1.0950708
1.5396731 -1.5134608 -0.07250999 -0.9521205 1.8046215 1.9256352 1.2543496 2.5111253
-2.2211308 -0.49126843 -2.4121845 -0.48480082 1.8233244 -3.1839159 0.8208023 1.0966008
0.19694571 -4.345162 0.8907036 0.9198138 -3.8978493 1.1212857 0.8249955 1.1305763
1.7343372 0.28731272 -0.8276248 0.9777595 2.9478195 -1.2314857 -0.45263168 -1.5834734
-1.6334434 0.98894244 -0.29078817 0.16471054 -0.7005463 0.17989822 -0.9639015 -1.8769631
-3.1789057 1.7112542 -1.5879191 -1.1911525 0.9979063 -0.764424 0.19107093 -0.26321444
0.10648917 1.977653 1.8900958 -0.072974786 -1.0537696 -0.580945 0.116830006 0.3452227
2.8463776 -0.0037522318 0.6055547 2.6227834 2.4589696 1.4595356 -0.098243676 -4.707345
-1.7927618 -0.88060135 1.2436876 0.4494455 1.3734573 -0.3081104 2.5918133 0.7375554
-0.18526943 2.8364666 -2.9532466 -2.8810482 2.0523314 -0.37219018 2.7581153 0.79226446
2.6463087 0.032270472 -0.58373696 0.44974145 0.034637965 -0.78496164 0.2903185 -2.399902
-0.32521185 2.0372937 -3.2460644 -0.47141576 -1.2360449 -1.1037755 0.52066296 -2.5579538
00000000: b232 e93e 08c6 c03e ade7 883f 78ef 85c0
00000010: dcf1 aa3f a9d5 34c0 974f 19c0 d298 1b40
00000020: 51b2 5e40 9592 463f f93c e13e a6f7 a2bf
00000030: d295 11bd 4a2b babf 92a9 ecbf 5edf 5dbe
00000040: 172f 4ebf 63ad 1b3f f5b1 48c0 071c c5bf
00000050: 88d1 55bd 6559 2540 6461 2140 f2a1 46bf
00000060: aa71 033f ff4b 2140 9490 1dc0 9e68 663f
00000070: d1fa 33be 6209 3ac0 df9e f5bf 0c32 d13d
00000080: ab3b 973f fb81 f9bf 546e cdbe 9427 6d3f
00000090: 201a 1c40 350a b2bf a6e1 573e 0639 10c0
000000a0: d01b 9e3f 10b1 b5bd ff5e 32c0 a844 94bf
000000b0: 35ca 9ebf fbba ecbf a2a3 103f 3828 c93f
000000c0: 7a68 ec3e 614c 0540 afc0 ffbf d756 323f
000000d0: 4851 bc3f 34cd c63f 865a 18c0 e83b 4340
000000e0: 3380 a63f 95e7 16c0 43f2 6e3f e74f 9a3e
000000f0: 06d8 3540 643e a33f 02bb f73e d7ad 3640
00000100: 6f53 de3e 56c5 edbe 538e f33c 7a70 a43e
00000110: 5962 0ec0 f1b3 2fc0 0049 103f 7257 b13e
00000120: 5b91 05c0 2e4a 8dbf 2f22 22bf 0838 23bf
00000130: 58ff 81bf 0351 0bbf 329f 5abe f84f 2f40
00000140: 1349 12bf 7a39 7fbf b92a 51bf dcca 17c0
00000150: cee2 34bf 2922 ea3f bb92 b53e b418 6b3f
00000160: 4dfc 943f 18d3 8dbe 6de2 14c0 4113 78c0
00000170: 2817 46bf 5d15 a7be 8b06 0cc0 be7d 72bf
00000180: 4060 343e d619 c43f 41c6 68c0 6a76 0640
00000190: 247f d03f 5420 d8be 2f3f 8bbd a82f 3c40
000001a0: 3a39 8bbf e587 53bf 24f0 9240 b141 293f
000001b0: 07cc c6bf cb5e a2be 9a5c b8bf cb7e 54bf
000001c0: fd7d 8040 5f0a 01c0 2216 a03f 46b3 0ac0
000001d0: 6380 583e 0849 3cbe 23b2 4dc0 4e4a 06be
000001e0: a26d dfbd a208 ecbf a3ba e13f 8b35 193f
000001f0: ef3d d03f 43ec 94bf 0934 e73d b516 f8bf
00000200: 0f3f 2a40 c384 7c3f 973a bd3e f0c0 e23e
00000210: 0832 8d40 25c2 a83e f212 9f3e 45c4 f6bf
00000220: a84e 0640 4ef9 1ac0 5ad2 d73f 2073 f13c
00000230: 641e e2bd d80f a9bf d9ef f3bf 94af 25bf
00000240: 3568 c83f dd51 2c3f cd99 01bf eb82 f9bf
00000250: 67ce 7340 5747 fa3e acd2 b83f a5e6 c53f
00000260: 25a5 233f 072e b93f 0b85 d33f 6497 b3be
00000270: 3012 00c0 f6a5 2240 bf39 613f 482b 8c3f
00000280: 0214 c53f 15b9 c1bf 1e80 94bd 2bbe 73bf
00000290: d6fd e63f 377b f63f 878e a03f 47b6 2040
000002a0: 0227 0ec0 8987 fbbe 3b61 1ac0 d037 f8be
000002b0: b262 e93f 47c5 4bc0 1920 523f 6a5d 8c3f
000002c0: 23ac 493e 910b 8bc0 2705 643f eb78 6b3f
000002d0: 5d76 79c0 4a86 8f3f e832 533f b9b6 903f
000002e0: c3fe dd3f a71a 933e 38df 53bf 724e 7a3f
000002f0: 13a9 3c40 53a1 9dbf 57bf e7be 42af cabf
00000300: ac14 d1bf 552b 7d3f 30e2 94be e1a9 283e
00000310: 0157 33bf 3d37 383e 40c2 76bf 5440 f0bf
00000320: 3173 4bc0 610a db3f ef40 cbbf af77 98bf
00000330: ca76 7f3f 4bb1 43bf 19a8 433e 0bc4 86be
00000340: fe16 da3d bc23 fd3f a9ee f13f ce73 95bd
00000350: ece1 86bf d0b8 14bf 9244 ef3d 08c1 b03e
00000360: 0d2b 3640 01e8 75bb a205 1b3f afdb 2740
00000370: c25f 1d40 10d2 ba3f fb33 c9bd 92a2 96c0
00000380: 3879 e5bf 176f 61bf 2831 9f3f b81d e63e
00000390: 73cd af3f a5c0 9dbe 45e0 2540 6ed0 3c3f
000003a0: 45b7 3dbe ab88 3540 fe01 3dc0 1863 38c0
000003b0: 6659 0340 b68f bebe f684 3040 d8d1 4a3f
000003c0: 1f5d 2940 0b2e 043d c96f 15bf 8344 e63e
000003d0: 8ae0 0d3d 3ff3 48bf a0a4 943e ff97 19c0
000003e0: 2b82 a6be 0563 0240 85bf 4fc0 685d f1be
000003f0: b836 9ebf 8448 8dbf 2b4a 053f 84b5 23c0

lstm_cell.bias_ih f4 [256]
-1.2887987 1.6820402 0.5901069 3.2045705 2.9730463 3.2615442 1.0308259 2.625875
0.7001184 0.67510635 3.203373 2.1394875 -3.8246598 0.036567003 -3.0128286 0.058814663
2.9063375 -2.3192945 -2.7653134 0.8434466 -1.4546909 -4.057258 -1.6208087 0.3421933
1.7674259 -1.1220104 0.81966436 1.1241535 -0.7127678 2.448145 2.4306986 0.26842123
1.6358463 1.835203 -0.54747254 -1.2537282 -0.63905936 1.3913925 -0.23585677 1.6417371
0.4844126 0.81875724 0.7045338 -1.4522392 -4.7971125 -1.7002908 0.7702254 -0.041653417
-4.387892 -2.1387243 -2.8990097 0.61414266 -2.4548457 -1.8286893 -0.16604371 -0.14392225
-2.2079146 -2.9968636 1.2591937 0.68538123 0.8754536 3.2111838 2.2719944 -2.8495934
-1.1765188 -0.6344505 -0.33442193 0.8758667 -1.5518186 0.27664146 0.95120823 -2.3353114
0.8498638 -1.0737809 -3.3949306 -2.5850055 0.7466002 0.015125011 -1.8828897 0.26561746
-0.9308446 0.46848285 -0.61324465 2.083661 -2.7779348 0.77259 -2.6871886 -1.2835486
0.8047127 -0.6289141 0.24182734 -0.4347157 -1.3535618 -0.9988409 0.2753337 -0.85511893
-0.059993144 -2.9138935 -0.22573929 -3.3489296 2.5885358 -0.91293347 -0.43582144 -1.6716208
-1.5158994 1.7649114 0.69169426 0.56505084 -0.35618314 -2.1255033 -1.0321549 -0.8835772
-1.2659062 1.0072103 -0.5228072 -2.2421532 -2.562522 0.2602724 0.44393834 -1.6793542
2.3751593 1.3000659 -4.262314 2.145138 -0.22686732 -2.048046 0.7076411 -0.46250594
2.9895196 -0.29278284 -3.586812 -2.2874944 1.5512745 -0.5224145 0.5696963 -1.4866757
2.2485943 -2.0927818 3.8452039 0.66406924 0.16684692 2.9023407 1.7322338 -0.5883622
2.379897 4.538197 -2.1810634 0.2605711 -0.92047346 0.21611539 0.5720825 0.7541782
0.59714043 -0.53749686 0.075061426 -1.7837468 0.8147563 0.74541676 2.343482 2.4341123
1.9226754 -1.5116055 -0.37647262 1.9375165 1.8781092 -0.29510176 1.4060098 0.34524518
-0.36100912 1.7302765 -0.5396291 1.889208 0.76198703 0.013070049 3.322923 -2.6282897
-2.0306294 0.3219332 0.39615738 -0.69194245 -1.1220818 -2.8041086 -1.4101307 -1.8610953
-0.34003755 1.2856404 -1.2345431 -0.041681334 -1.8187505 -1.3026675 2.021971 0.64496887
-0.2630625 -4.183971 0.6248209 5.1603456 -0.777867 -2.2479124 1.6137741 1.9580811
-1.2404827 0.87708145 -2.0326135 3.3430874 -0.92973655 1.6885997 -2.755143 -0.48562554
-2.423708 -0.63798356 -2.5109985 0.09336589 1.1440281 -0.98502725 1.3256272 0.7587957
-0.705428 0.1647424 1.8357931 -3.253505 0.4219727 -1.4800115 1.4175378 -0.4497636
-0.8071717 2.1379206 -0.3152743 -1.2185031 -0.45974106 2.85697 -2.1445808 3.059473
0.58409286 3.2995358 -1.7314714 1.7338876 -2.3714652 -4.212627 1.7734572 -0.811328
-3.2109706 -1.7252735 -1.938738 -2.1638994 -0.83611274 -1.6600066 2.151479 -2.406952
2.4212134 -1.0791323 0.33933523 -2.3014162 -0.732348 1.0112273 -2.4228938 0.36086407
00000000: 5bf7 a4bf 184d d73f 3f11 173f af17 4d40
00000010: 6446 3e40 24bd 5040 1af2 833f 560e 2840
00000020: f63a 333f c5d3 2c3f 1004 4d40 5ded 0840
00000030: 3ac7 74c0 48c7 153d 2fd2 40c0 a5e7 703d
00000040: 6f01 3a40 526f 14c0 e5fa 30c0 1eec 573f
00000050: 5033 babf 0fd5 81c0 a976 cfbf f633 af3e
00000060: 033b e23f 099e 8fbf 86d5 513f 43e4 8f3f
00000070: f377 36bf 68ae 1c40 9190 1b40 826e 893e
00000080: 6963 d13f efe7 ea3f 2927 0cbf 2a7a a0bf
00000090: 6599 23bf 2619 b23f 7084 71be 7124 d23f
000000a0: ee04 f83e 139a 513f 545c 343f f9e2 b9bf
000000b0: f281 99c0 21a3 d9bf 7e2d 453f c69c 2abd
000000c0: 9c69 8cc0 dce0 08c0 6089 39c0 7438 1d3f
000000d0: 311c 1dc0 7e12 eabf 5d07 2abe 5b60 13be
000000e0: 794e 0dc0 9dcc 3fc0 422d a13f 2575 2f3f
000000f0: ba1d 603f 0984 4d40 5b68 1140 bd5f 36c0
00000100: 2b98 96bf 596b 22bf 5a39 abbe cd38 603f
00000110: fea1 c6bf f3a3 8d3e 6282 733f be75 15c0
00000120: ad90 593f a771 89bf 8b46 59c0 bb70 25c0
00000130: 3121 3f3f e5ce 773c 8802 f1bf 03ff 873e
00000140: d54b 6ebf fcdc ef3e 9afd 1cbf b45a 0540
00000150: afc9 31c0 75c8 453f e6fa 2bc0 524b a4bf
00000160: a701 4e3f 8400 21bf 96a1 773e 0e93 debe
00000170: 8341 adbf 0ab4 7fbf 8af8 8c3e 13e9 5abf
00000180: 5fbb 75bd 3b7d 3ac0 3328 67be dd54 56c0
00000190: 92aa 2540 02b6 69bf fd23 dfbe acf7 d5bf
000001a0: fe08 c2bf 9ee8 e13f e012 313f 2ca7 103f
000001b0: a35d b6be 3f08 08c0 a71d 84bf 1e32 62bf
000001c0: 3709 a2bf 44ec 803f b1d6 05bf 707f 0fc0
000001d0: 5c00 24c0 6d42 853e e34b e33e 14f5 d6bf
000001e0: 9c02 1840 8f68 a63f e064 88c0 f149 0940
000001f0: e84f 68be 3013 03c0 f827 353f 94cd ecbe
00000200: 4a54 3f40 a2e7 95be 548e 65c0 4f66 12c0
00000210: 2a90 c63f f5bc 05bf 9ed7 113f 644b bebf
00000220: f8e8 0f40 23f0 05c0 d217 7640 7100 2a3f
00000230: ebd9 2a3e f3bf 3940 d6b9 dd3f e89e 16bf
00000240: 3c50 1840 e938 9140 8b96 0bc0 9369 853e
00000250: 26a4 6bbf 5a4d 5d3e 0074 123f d311 413f
00000260: 32de 183f 6599 09bf ceb9 993d d151 e4bf
00000270: de93 503f a2d3 3e3f 9cfb 1540 7fc8 1b40
00000280: 3a1a f63f 4a7c c1bf 05c1 c0be 8a00 f83f
00000290: e265 f03f 9417 97be 21f8 b33f fac3 b03e
000002a0: 30d6 b8be b379 dd3f 2225 0abf 91d1 f13f
000002b0: 9511 433f c223 563c c5aa 5440 e635 28c0
000002c0: d5f5 01c0 6ed4 a43e 24d5 ca3e 2423 31bf
000002d0: 60a0 8fbf 8476 33c0 2a7f b4bf 5f38 eebf
000002e0: 6719 aebe dd8f a43f 8205 9ebf 0cba 2abd
000002f0: d1cc e8bf cfbd a6bf f967 0140 ae1c 253f
00000300: 21b0 86be 17e3 85c0 43f4 1f3f 8d21 a540
00000310: 4b22 47bf ccdd 0fc0 2690 ce3f 67a2 fa3f
00000320: 23c8 9ebf 6988 603f 5716 02c0 25f5 5540
00000330: 3703 6ebf 0924 d83f 4354 30c0 e9a3 f8be
00000340: 081e 1bc0 e452 23bf 33b4 20c0 9e36 bf3d
00000350: 836f 923f bf2a 7cbf 27ae a93f 6f40 423f
00000360: ee96 34bf 3bb2 283e 45fb ea3f 6d39 50c0
00000370: ce0c d83e 0471 bdbf e171 b53f 6a47 e6be
00000380: cea2 4ebf b1d3 0840 a26b a1be e9f7 9bbf
00000390: 2e63 ebbe 99d8 3640 d040 09c0 68ce 4340
000003a0: 1c87 153f 982b 5340 dba0 ddbf 07f0 dd3f
000003b0: 16c6 17c0 d7cd 86c0 a500 e33f 31b3 4fbf
000003c0: 8b80 4dc0 c3d5 dcbf 9128 f8bf 547d 0ac0
000003d0: 7c0b 56bf 197b d4bf d5b1 0940 800b 1ac0
000003e0: 29f5 1a40 0221 8abf 59bd ad3e 674a 13c0
000003f0: 297b 3bbf e56f 813f b110 1bc0 2dc3 b83e

lstm_cell.bias_hh f4 [256]
-1.3211691 1.790652 0.36965427 3.1351423 3.045167 3.2724085 0.92935514 2.6613402
0.7220987 0.6526484 3.2071915 2.2661157 -3.9861817 0.13341716 -2.8614004 0.09851139
2.9026563 -2.458302 -2.7661145 0.71909595 -1.4640485 -3.9128428 -1.7121853 0.3632458
1.7222255 -1.2242099 1.0500127 1.0213836 -0.62350005 2.3835201 2.58521 0.2703998
1.6552707 1.8124408 -0.6353677 -1.1768029 -0.7277929 1.5744234 -0.20244525 1.7504712
0.27261713 0.8981741 0.86511 -1.3354238 -4.8522654 -1.6630555 0.7847413 -0.0025445228
-4.390581 -2.0853262 -2.7853894 0.6512549 -2.6479383 -1.863651 -0.020124864 -0.22829457
-2.1542914 -2.8690302 1.211326 0.56451505 0.8184067 3.1753976 2.1352108 -2.7753904
-1.0654825 -0.4894184 -0.3013094 0.9486988 -1.4840848 0.27707347 1.0343677 -2.3857303
0.7736748 -1.2161206 -3.4638736 -2.6074245 0.6678138 0.23984936 -1.6950216 0.31499714
-1.1363121 0.39077213 -0.5289493 2.042191 -2.7686384 0.6473183 -2.7111557 -1.2877795
0.79763526 -0.54471123 0.1603759 -0.46575493 -1.3155454 -0.9620161 0.24524474 -0.9025995
-0.09411391 -2.9263446 -0.2736651 -3.2197754 2.6741145 -1.0223846 -0.31267264 -1.7863021
-1.3376977 1.8638208 0.85918325 0.61710906 -0.28874722 -2.0550916 -1.0727032 -0.8871497
-1.0263884 0.9891292 -0.3366515 -2.2929688 -2.4599066 0.23439959 0.38471338 -1.7419477
2.3008032 1.3747098 -4.056392 2.193431 -0.22365057 -2.141727 0.57086605 -0.40197822
2.925082 -0.5252624 -3.5801885 -2.338909 1.432565 -0.50918514 0.4590807 -1.4811573
2.1491623 -2.0570457 3.989346 0.7710839 0.21693483 2.9130218 1.5298659 -0.6659644
2.5640507 4.4369473 -2.24717 0.2045396 -0.8707193 0.18337977 0.55959517 0.6427662
0.81302845 -0.53378993 0.06442234 -1.8207574 0.78356826 0.7955419 2.427445 2.2486
1.8287213 -1.3359708 -0.33895174 1.9880993 1.7831423 -0.24613364 1.282543 0.26864985
-0.3436432 1.6747397 -0.5682156 1.9050809 0.8029007 0.06714177 3.3020718 -2.563005
-2.1370595 0.22413744 0.38934153 -0.6447162 -1.3228813 -2.7809258 -1.2599511 -1.9025592
-0.40958235 1.4387661 -1.2419856 -0.07647159 -1.9641992 -1.4865243 1.7982956 0.60764974
-0.21158022 -4.14437 0.6202528 5.3199887 -0.8044508 -2.2520514 1.4414431 1.8665341
-1.1276174 0.8227678 -2.017866 3.219415 -1.0242718 1.681512 -2.7488372 -0.6762212
-2.2317371 -0.72076255 -2.4108284 0.101842865 1.3386077 -1.036238 1.3784025 0.77294624
-0.7697882 0.23719528 1.8318831 -3.3082573 0.48042905 -1.5101438 1.4731752 -0.52253467
-0.71081734 2.1851416 -0.24226929 -1.0609695 -0.474873 2.8670104 -2.1526475 3.1117878
0.64010024 3.3351002 -1.5960153 1.7420243 -2.5197914 -4.251125 1.7521807 -0.6815015
-3.1620576 -1.7646145 -1.820059 -2.1059809 -0.911679 -1.5297458 2.157329 -2.2247808
2.2648978 -0.987884 0.3219657 -2.2484164 -0.7769113 0.99835235 -2.619998 0.3943778
00000000: 121c a9bf 1634 e53f 5343 bd3e 2ca6 4840
00000010: 04e4 4240 246f 5140 38ea 6d3f 6653 2a40
00000020: 76db 383f f713 273f a042 4d40 0a08 1140
00000030: 9a1d 7fc0 829e 083e 2f21 37c0 57c0 c93d
00000040: 1fc5 3940 d254 1dc0 0508 31c0 ac16 383f
00000050: f165 bbbf 046c 7ac0 e328 dbbf 5afb b93e
00000060: e371 dc3f e9b2 9cbf d166 863f b3bc 823f
00000070: b39d 1fbf 988b 1840 1574 2540 d871 8a3e
00000080: e9df d33f 0ffe e73f 75a7 22bf 7aa1 96bf
00000090: a350 3abf b586 c93f cf4d 4fbe 710f e03f
000000a0: 7994 8b3e bdee 653f d977 5d3f 2bef aabf
000000b0: c245 9bc0 01df d4bf cee4 483f 02c2 26bb
000000c0: a47f 8cc0 fc75 05c0 d243 32c0 a4b8 263f
000000d0: d277 29c0 1e8c eebf e6dc a4bc 0dc6 69be
000000e0: e9df 09c0 319e 37c0 bb0c 9b3f 0f84 103f
000000f0: 1a83 513f b739 4b40 4ba7 0840 ff9f 31c0
00000100: bb61 88bf 0c95 fabe 3a45 9abe eddd 723f
00000110: 7ef6 bdbf 93dc 8d3e 2966 843f ceaf 18c0
00000120: 8d0f 463f d7a9 9bbf 1bb0 5dc0 0be0 26c0
00000130: d8f5 2a3f 129b 753e 78f6 d8bf 4e47 a13e
00000140: ad72 91bf 4913 c83e 3969 07bf 42b3 0240
00000150: 5f31 31c0 a7b6 253f 9383 2dc0 f5d5 a4bf
00000160: d331 4c3f 3272 0bbf 9439 243e 6e77 eebe
00000170: cb63 a8bf b046 76bf 7021 7b3e c310 67bf
00000180: cbbe c0bd 3b49 3bc0 d51d 8cbe cd10 4ec0
00000190: b124 2b40 80dd 82bf a116 a0be 8ca5 e4bf
000001a0: ae39 abbf ae91 ee3f 6ff3 5b3f dcfa 1d3f
000001b0: add6 93be 9f86 03c0 574e 89bf 3e1c 63bf
000001c0: b260 83bf 9237 7d3f 965d acbe 00c0 12c0
000001d0: 1c6f 1dc0 7206 703e 27f9 c43e 24f8 debf
000001e0: 5c40 1340 7ef6 af3f f7cd 81c0 2c61 0c40
000001f0: a804 65be 0e12 09c0 4724 123f 17d0 cdbe
00000200: 8b34 3b40 9977 06bf cf21 65c0 afb0 15c0
00000210: 4a5e b73f f559 02bf a00c eb3e 9096 bdbf
00000220: e08b 0940 a3a6 03c0 7251 7f40 c165 453f
00000230: 2a24 5e3e f36e 3a40 a5d2 c33f a57c 2abf
00000240: 6819 2440 79fb 8d40 a2d1 0fc0 d472 513e
00000250: 76e7 5ebf e8c7 3b3e a141 0f3f 538c 243f
00000260: a222 503f 75a6 08bf dcef 833d 940e e9bf
00000270: ee97 483f a2a8 4b3f 425b 1b40 10e9 0f40
00000280: 8a13 ea3f 1701 abbf 158b adbe 0a7a fe3f
00000290: 023e e43f 750a 7cbe 5e2a a43f 798c 893e
000002a0: 00f2 afbe df5d d63f 9476 11bf b1d9 f33f
000002b0: e68a 4d3f a081 893d 2555 5340 4608 24c0
000002c0: 95c5 08c0 4984 653e c657 c73e 1f0c 25bf
000002d0: 2d54 a9bf b0fa 31c0 1446 a1bf 0f87 f3bf
000002e0: c7b4 d1be 7d29 b83f 62f9 9ebf 239d 9cbd
000002f0: e16a fbbf 6e46 bebf 8d2e e63f ef8e 1b3f
00000300: 7ca8 58be ae9e 84c0 e3c8 1e3f 593d aa40
00000310: 7df0 4dbf 9c21 10c0 3581 b83f 97ea ee3f
00000320: c455 90bf e9a0 523f b724 01c0 e50a 4e40
00000330: 571b 83bf c93b d73f f3ec 2fc0 d51c 2dbf
00000340: c8d4 0ec0 e583 38bf 034b 1ac0 fe92 d03d
00000350: 7f57 ab3f 72a3 84bf 7e6f b03f cedf 453f
00000360: d710 45bf 52e3 723e 257b ea3f 7dba 53c0
00000370: ccfa f53e 644c c1bf 0191 bc3f d5c4 05bf
00000380: 20f8 35bf 5cd9 0b40 7115 78be d9cd 87bf
00000390: 8e22 f3be 197d 3740 fac4 09c0 8827 4740
000003a0: 9cdd 233f 4872 5540 3b4a ccbf a7fa de3f
000003b0: 4344 21c0 3709 88c0 7547 e03f e276 2ebf
000003c0: 275f 4ac0 e3de e1bf b1f7 e8bf 64c8 06c0
000003d0: cc63 69bf b6ce c3bf ae11 0a40 cf62 0ec0
000003e0: 16f4 1040 f7e5 7cbf b0d8 a43e 0ee6 0fc0
000003f0: a9e3 46bf 0594 7f3f 0cae 27c0 e3eb c93e

linear0.weight f4 [32, 384]
-0.050474368 0.017491875 -0.097656734 -0.031446673 0.083444096 0.0581756 -0.083972394 0.042298358
0.08187921 0.07620859 -0.041099492 0.03322242 0.0414806 0.05696511 -0.09927776 -0.09422112
0.038357586 -0.050832566 -0.05557334 0.0064374814 -0.0019744132 -0.03570825 -0.021727385 -0.0999615
-0.08303089 -0.09199901 -0.006412369 0.03858779 0.100213625 -0.00050903554 -0.08886302 0.09433142
-0.07717208 0.013005247 0.022815479 0.027550919 -0.07776539 -0.055721633 -0.0081253955 -0.11592316
0.08157882 0.0969272 0.06084151 -0.018099427 -0.0518901 0.06607669 -0.028452097 -0.0053993613
0.08069608 -0.029975284 0.07067648 -0.05763479 0.0139044 -0.098301396 0.0042192643 -0.04702989
-0.040996324 0.09885161 0.020951085 0.037592944 -0.044679895 0.064199455 -0.051062804 0.022651156
-0.025393229 0.052283593 -0.066701695 -0.048192024 0.06884993 0.03628124 -0.08897717 0.07403957
0.061192002 0.06744988 -0.045953088 0.06332043 0.085513115 0.11658279 -0.08047326 -0.073352374
0.031344157 -0.06771476 -0.11788256 0.0053984863 -0.07745317 -0.019616779 -0.053239144 -0.07960821
-0.08978652 -0.072589375 -0.072818816 0.10006877 0.10890013 -0.061345313 -0.06908662 0.08546114
-0.07457618 0.062307775 0.06492483 0.013252561 -0.026078168 -0.11030433 -0.009379756 -0.047796715
0.108414754 0.00068411353 0.0065829703 -0.08203329 -0.07679334 0.107798986 -0.051839583 0.107658714
0.053183343 -0.028474566 0.0916723 -0.08789864 0.076809555 -0.059851516 0.0330981 -0.018874468
-0.090566754 0.09196287 0.052699674 0.07227834 -0.09887886 0.024389341 -0.06786268 0.070566975
-0.0148833105 -0.036744334 -0.05411844 -0.02560717 -0.02416906 -0.09928382 -0.100179456 -0.10841166
0.04613781 -0.025220571 -0.026106356 -0.039919235 -0.10846115 -0.063587405 0.007106878 -0.10582768
-0.017103238 -0.01353447 -0.05895638 -0.06025693 -0.033465113 -0.050248142 -0.09689938 -0.043944973
-0.014681132 -0.10822343 0.039250378 -0.07876782 -0.0738442 -0.08261864 -0.0694732 -0.08203359
-0.008382312 -0.076781265 -0.01562603 -0.01794805 -0.025246294 -0.047811393 -0.011428594 -0.039524935
-0.06952911 0.036654018 -0.09708773 -0.07863493 -0.05668317 -0.10792982 -0.017664568 -0.028037967
-0.018388838 0.031288806 -0.06295996 -0.024513839 0.007195942 -0.031984504 -0.08509133 -0.049303476
-0.013509483 -0.061159134 -0.064042576 -0.02063496 -0.07529295 -0.095223434 -0.0820982 -0.102451436
-0.05265621 0.030391045 0.012467097 -0.0206141 0.013084356 -0.025410544 -0.040245183 -0.016239611
-0.0040621716 -0.0074395 0.00043112584 0.024187598 0.010248683 0.05721052 -0.022610212 0.022377918
-0.017241927 -0.018634649 0.033097226 0.05435172 -0.013046211 0.015595946 0.010564917 -0.008415441
0.027718332 0.008683027 0.010047047 -0.027571619 -0.012667464 -0.034171734 -0.03840134 0.048805103
-0.020660598 0.02408964 0.04998097 0.049001783 -0.01273759 0.031794574 -0.0213109 0.021976467
0.04978675 0.037963923 -0.010349894 -0.05051214 -0.03855216 0.00017183647 0.04801124 0.014737591
-0.04745585 0.04444055 -0.0065685366 -0.046259403 0.031327125 0.044740792 -0.034387555 0.03214708
0.046178345 0.04752713 0.049012538 -0.012655913 0.020776091 0.03899783 -0.016953481 -0.003896892
00000000: 36be 4ebd 1f4b 8f3c 4100 c8bd 3ace 00bd
00000010: bde4 aa3d 8a49 6e3d b8f9 abbd 0b41 2d3d
00000020: 4ab0 a73d 4013 9c3d f157 28bd 3b14 083d
00000030: 90e7 293d 3f54 693d 2352 cbbd 01f7 c0bd
00000040: d81c 1d3d cf35 50bd dfa0 63bd 82f1 d23b
00000050: 2865 01bb d042 12bd a1fd b1bc 9db8 ccbd
00000060: 190c aabd fa69 bcbd da1e d2bb 3b0e 1e3d
00000070: cd3c cd3d cc70 05ba d1fd b5bd d530 c13d
00000080: 650c 9ebd f613 553c 87e7 ba3c 77b2 e13c
00000090: 7643 9fbd 5e3c 64bd 6120 05bc 1f69 edbd
000000a0: cc12 a73d c581 c63d f234 793d 4045 94bc
000000b0: b78a 54bd 3753 873d 5f14 e9bc 20ed b0bb
000000c0: fd43 a53d ba8e f5bc d5be 903d 7512 6cbd
000000d0: 48cf 633c 3e52 c9bd c141 8a3b 6aa2 40bd
000000e0: c3eb 27bd b772 ca3d 9ca1 ab3c 0ffb 193d
000000f0: 4402 37bd 017b 833d 3b27 51bd eb8e b93c
00000100: 7605 d0bc 5227 563d e69a 88bd 0065 45bd
00000110: 3101 8d3d a39b 143d aa39 b6bd 0fa2 973d
00000120: 77a4 7a3d 2a23 8a3d 4e39 3cbd 24ae 813d
00000130: 8021 af3d f5c2 ee3d 2acf a4bd c539 96bd
00000140: bb62 003d 09ae 8abd 696c f1bd c9e5 b03b
00000150: c59f 9ebd 5eb3 a0bc 4a11 5abd a109 a3bd
00000160: ffe1 b7bd bda9 94bd 0822 95bd dbf0 cc3d
00000170: 0807 df3d 3945 7bbd 497d 8dbd 4006 af3d
00000180: 65bb 98bd 7036 7f3d 4ff7 843d 4521 593c
00000190: e2a1 d5bc 3de7 e1bd 8cad 19bc 7dc6 43bd
000001a0: 8e08 de3d 1556 333a f5b5 d73b 1201 a8bd
000001b0: d445 9dbd b7c5 dc3d be55 54bd 2c7c dc3d
000001c0: c7d6 593d 7e43 e9bc b0be bb3d 3404 b4bd
000001d0: 544e 9d3d dd26 75bd e091 073d a19e 9abc
000001e0: 107b b9bd 0757 bc3d 9ddb 573d ab06 943d
000001f0: 0081 cabd 28cc c73c 97fb 8abd 6b85 903d
00000200: 21d9 73bc 3a81 16bd 4cab 5dbd 21c6 d1bc
00000210: 31fe c5bc 5155 cbbd e32a cdbd ef06 debd
00000220: 00fb 3c3d 5f9b cebc ffdc d5bc 5a82 23bd
00000230: e120 debd 1d3a 82bd d0e0 e83b 2fbc d8bd
00000240: 171c 8cbc afbf 5dbc 3f7c 71bd f8cf 76bd
00000250: b712 09bd ffd0 4dbd 2f73 c6bd a5ff 33bd
00000260: 2189 70bc 3fa4 ddbd 01c5 203d 0651 a1bd
00000270: a13b 97bd f633 a9bd f747 8ebd 3a01 a8bd
00000280: f755 09bc 7f3f 9dbd 2902 80bc ca07 93bc
00000290: 51d1 cebc e1d5 43bd ff3e 3bbc e6e4 21bd
000002a0: 4765 8ebd 8622 163d efd5 c6bd 5a0b a1bd
000002b0: 9d2c 68bd 4f0a ddbd 49b5 90bc e1af e5bc
000002c0: 30a4 96bc b128 003d 27f1 80bd 3fd1 c8bc
000002d0: f0cb eb3b 2f02 03bd 5d44 aebd 71f2 49bd
000002e0: e156 5dbc 0082 7abd c128 83bd a60a a9bc
000002f0: 3133 9abd 8104 c3bd 1a23 a8bd 0fd2 d1bd
00000300: 0aae 57bd a4f6 f83c cb42 4c3c e7de a8bc
00000310: c45f 563c c629 d0bc 22d8 24bd ef08 85bc
00000320: f71b 85bb 0dc7 f3bb bb08 e239 1225 c63c
00000330: 18ea 273c 9455 6a3d 0d39 b9bc e551 b73c
00000340: f13e 8dbc b1a7 98bc f590 073d e99f 5e3d
00000350: c6bf 55bc 2486 7f3c 7918 2d3c ebe0 09bc
00000360: 8e11 e33c 4143 0e3c 5f9c 243c e0dd e1bc
00000370: 328b 4fbc a9f7 0bbd b94a 1dbd dce7 473d
00000380: 6a40 a9bc a357 c53c d8b8 4c3d 18b6 483d
00000390: 53b1 50bc 073b 023d 3294 aebc fe07 b43c
000003a0: 31ed 4b3d 0f80 1b3d 9a92 29bc d1e5 4ebd
000003b0: dfe8 1dbd 002f 3439 6fa7 443d f075 713c
000003c0: 1161 42bd 4b07 363d e13c d7bb 807a 3dbd
000003d0: df50 003d 1f42 373d f7d9 0cbd a8ac 033d
000003e0: 8125 3d3d cfab 423d 5fc1 483d bf5a 4fbc
000003f0: 9f32 aa3c 30bc 1f3d 07e2 8abc 0063 7fbb

linear0.bias f4 [32]
-0.0933174 -0.1839016 0.07435878 -0.27909473 -0.04100199 -0.0949379 -0.026767232 0.44598833
-0.15969966 -0.076561525 -0.4509206 -0.25834438 -0.27526665 -0.39573348 0.030376593 -0.22336516
-0.28386804 0.057568744 -0.19872905 -0.08973301 -0.06409024 -0.013583514 0.055301555 0.1825598
-0.0054836767 -0.15794718 -0.0042368057 -0.051711135 0.02530397 -0.07080682 -0.25065398 -0.23731051
00000000: 311d bfbd b350 3cbe 6b49 983d 81e5 8ebe
00000010: b4f1 27bd cd6e c2bd f446 dbbc 9558 e43e
00000020: 4f88 23be 4acc 9cbd 11df e6be b745 84be
00000030: c0ef 8cbe 949d cabe 55d8 f83c d6b9 64be
00000040: 2757 91be 34cd 6b3d a17f 4bbe f1c5 b7bd
00000050: be41 83bd 638d 5ebc e283 623d f5f0 3a3e
00000060: 6ab0 b3bb e8bc 21be e7d4 8abb 0ecf 53bd
00000070: 454a cf3c 2b03 91bd b855 80be 8701 73be
