model/1715146453/2_NSFnet_global_model_1.pth (torch, 331200 bytes, 17 tensors)

conv1.lin_l.weight f4 [16, 1]
00000000: 712a 22bf efad 5ebc 0171 2fbf 91ff 26bf
00000010: e14e 00bf f941 923e 110e 56bf bfab 15be
00000020: d7b5 22bf cf03 9d3d 385f 88be cf14 62bf
00000030: dfcc 533d 3fa2 f8be fa91 c33e 618f e8be
-0.6334601 -0.013591274 -0.68531805 -0.65233713 -0.5012036 0.28565958 -0.83615214 -0.14616297
-0.63558716 0.07666742 -0.26635146 -0.88313 0.051709052 -0.48561284 0.3819731 -0.4542189

conv1.lin_l.bias f4 [16]
00000000: 07cb 1ebe 59bf 173f ff8f 89bf 5fc6 be3e
00000010: 1f0d e33e 1185 8dbe b1bd 51bf d1c5 cc3e
00000020: ffcb 2a3f 315b 34bf 8fe3 213f 8158 72bf
00000030: 6115 ff3e 507c 84be 3f9d ccbe d053 d9bd
-0.15507136 0.5927635 -1.0747069 0.3726072 0.44345948 -0.27640584 -0.8193007 0.39994672
0.66717523 -0.7045165 0.6323785 -0.94666296 0.49820998 -0.25876093 -0.3996372 -0.10611689

conv1.lin_r.weight f4 [16, 1]
00000000: d1bd 7fbf a187 00bf 2b57 443e b14b 5bbf
00000010: 116b a5be bf85 143f 1a56 38bf e1a2 fd3d
00000020: 8fee f9be 417d 53bf 2f62 57bf 6f65 d13d
00000030: 2243 44bf e1b7 4bbf 0fe2 89be 8034 65bd
-0.9989901 -0.50206953 0.19173877 -0.8566237 -0.32308248 0.5801658 -0.7200638 0.12384582
-0.48814818 -0.82613 -0.8413419 0.10224425 -0.76664937 -0.7957745 -0.26930282 -0.05595827

conv2.lin_l.weight f4 [64, 16]
00000000: b199 acbd 5f13 0f3e 9fb9 b8bc a991 0f3e
00000010: 893a 0abd 8104 62bd f047 17be d02f c83d
00000020: 5f6a fc3d 2f9a 3e3d 27c1 06be 1745 0f3e
00000030: a95e 9d3d 892e 243e 9f3d c3be 512e 42be
00000040: 4796 173e c7e1 93be 41ad a43d f16e 2d3e
00000050: 2f3d 903d 31a4 493d 613d a1bd 38c6 86be
00000060: 71f1 563e efe9 88be e167 72be 97ce 9cbd
00000070: 8117 61be a061 1bbe 172b 99be af1f e4bd
00000080: 21e9 85bd 560c b7bd 87fd 1f3e e079 60bc
00000090: 4088 bc3b ff7d 44bc a158 e23d 2f1a 0f3e
000000a0: 26f3 b63d ef7e cabd c0a1 23bc afbb b73d
000000b0: c705 8abd 81d2 04be 2005 96be 60d2 48be
000000c0: af3e f83d afa2 6abe cf22 c9bd 5157 e83d
000000d0: bf00 e93d 0992 90be 802a 913c 775c 1ebe
000000e0: b0fc be3c 5aef b6be c180 223e 40de 86bc
000000f0: df2e aabe 5fce 3f3e c0a3 d53d 71b9 febd
00000100: 8f6e 433e 3122 de3d e61a 3abe e751 a83d
00000110: a0d9 53bc f02b 5ebe 5009 2f3e ffbf a6be
00000120: 6ff4 1f3e 51d1 72be 00bc 7e3e e16c 80bd
00000130: 91d3 1dbe c117 23be ef7a a3be 8148 39be
00000140: ef9d 48be 41f9 8ebd 3fc6 84be 418a f4bd
00000150: 41a0 753e f73b 13be b087 debd 0a5b 2bbd
00000160: c147 743e df99 72be bf38 1b3e effa c2be
00000170: d9c7 a9be f0ea e83c 3149 e6be 9036 00be
00000180: 2168 53be b94e a3bd c17a dabd c086 9e3b
00000190: 01f7 51be 1a4e 9dbe e183 22be 3f31 8cbe
000001a0: a0d8 1c3c e122 1d3e 2142 4abe 1acf 2c3e
000001b0: c611 373e 0f5b 7e3e e70e 0abe f073 e03c
000001c0: 11b3 e33d 0fa7 51be 4fc7 e9bd ef91 c8bd
000001d0: 00b4 0e3e 8153 0cbe 2170 2bbe cf28 91be
000001e0: dfc2 e7bd 215c bcbc 6ff2 3cbe 97a4 84be
000001f0: a117 aebd c183 cbbd 4fa0 4dbe 810e 18be
00000200: d067 f0bc f0c5 303d c182 01be 5f91 c2bd
00000210: 7002 073e df2c 07be bf44 7bbe 1fe8 f23d
00000220: f1a2 d73d c192 543e 0100 c43d 002c d8bb
00000230: 4100 7f3d f1dc 523e a04a 09bc 2124 1cbe
00000240: 10a9 4abd fab3 37be 17f4 973d 7136 913d
00000250: 9f3a 4bbe 21f4 68be 6f0f 5ebe 7f1a e3bd
00000260: d0e0 033d f133 d13d bfe3 76be f93e 9dbe
00000270: 5143 bb3d a16b 713e 8f86 ea3d 0082 153d
00000280: 70d5 83bd 7094 ccbc 9115 083e 016d 153e
00000290: e175 45bd bf1b 4dbe 7041 edbd 0624 313e
000002a0: 4117 00be 0f5f 823d 0145 cf3d 1053 fcbd
000002b0: 1a8b 2ebe bfe5 573e 1ad7 2f3e 50e2 29bd
000002c0: a1da 45be d1ce 31be 0024 eb3c 5064 fe3d
000002d0: 2138 5f3e 1f17 b73d 60fa 623c 69a8 23be
000002e0: b1a5 183e a7d5 9f3a 4fd7 72be 3fff c0bd
000002f0: b1bd 8bbd 30b4 8c3c b761 9ebe 81b5 4bbe
00000300: cfb7 48be 9f04 0bbe 4f9f 9bbc 0f93 ffbd
00000310: a178 573e df62 d3bd e09e 143d bf69 25be
00000320: 8f84 02be 0a1a afbd cfb3 063e 19b8 193d
00000330: af15 d33d e1cb 563d c724 163e a058 c13c
00000340: 6161 7abd 5f18 02be a9af 03bd 11af 243e
00000350: 51ac c33d b165 843d a082 24be 1967 a83c
00000360: cf5f 353e 9f13 033e f61e 32be 2f29 afbd
00000370: f95c 973c 90d7 11bd 211e 9b3c f03c 893d
00000380: 1fcc 413e e76c a23d 8152 3a3e f080 fe3d
00000390: 10ec 58be 1931 0cbe d04a 603e 10fa 99bc
000003a0: b763 0cbe af7a 6d3e e0a8 e93c 110f 0cbe
000003b0: 1f1e 5fbe 4041 e3bb 2f33 8a3d 61da 54bd
000003c0: 71b6 143e c7cc 8b3e 21ac 0f3e d047 3b3e
000003d0: e179 f33d 5118 c33c 803a 82bc ff02 5e3c
000003e0: cf51 64be 5769 8b3c 01c4 ed3d a72f 9c3c
000003f0: ff80 0cbc e10d cc3d 313f 5a3d 00ff e53b
-0.08427752 0.13972233 -0.022549449 0.14020409 -0.03374723 -0.055180077 -0.14773536 0.097747445
0.12324976 0.04653376 -0.1315962 0.139912 0.076840706 0.16033377 -0.3813295 -0.18962981
0.1480342 -0.28883192 0.08040858 0.16936852 0.0704292 0.04922885 -0.07873035 -0.26323104
0.2099054 -0.26740977 -0.23672439 -0.076565914 -0.21981622 -0.1517396 -0.29915687 -0.11138856
-0.065386064 -0.089379 0.15624057 -0.013700932 0.005753547 -0.01199293 0.11052061 0.13974832
0.08933096 -0.09887492 -0.009987295 0.08971345 -0.06739383 -0.12970926 -0.29300785 -0.19611502
0.12121331 -0.22913621 -0.09821092 0.11344779 0.113770954 -0.28236416 0.01772046 -0.1546496
0.02331385 -0.35729486 0.15869428 -0.016463399 -0.33238885 0.18731068 0.104316235 -0.12437714
0.19085144 0.10846365 -0.18174323 0.08218747 -0.012930304 -0.21696448 0.17093396 -0.32568356
0.15620588 -0.2371266 0.24876404 -0.06270767 -0.15412737 -0.1592703 -0.31929728 -0.18094064
-0.19591497 -0.06981135 -0.259325 -0.11940432 0.23986913 -0.14378344 -0.10865724 -0.04183487
0.23855497 -0.2369151 0.15158366 -0.38082072 -0.33160284 0.02843234 -0.44977716 -0.12520814
-0.20645191 -0.079739995 -0.10667945 0.004837841 -0.20504381 -0.3072365 -0.1587062 -0.27381322
0.009573132 0.15345336 -0.19751789 0.16875878 0.17877874 0.24839424 -0.13482247 0.027399033
0.111181386 -0.20473884 -0.11414968 -0.097934596 0.13935852 -0.13703729 -0.16741993 -0.28351447
-0.113164656 -0.02299315 -0.18451856 -0.25906822 -0.085006006 -0.099372394 -0.20080684 -0.14849283
-0.029346377 0.043157518 -0.12647535 -0.095003836 0.13184524 -0.1320071 -0.24537943 0.1186068
0.105291255 0.20759107 0.09570313 -0.006597042 0.0622561 0.20592095 -0.008379608 -0.15248157
-0.049477637 -0.1793975 0.07419603 0.07090462 -0.19846581 -0.22749378 -0.21685575 -0.11089038
0.03219682 0.10214985 -0.24110316 -0.30712107 0.09143699 0.23576213 0.11451446 0.03650093
-0.06437194 -0.024973124 0.13289477 0.14592363 -0.04820812 -0.20030116 -0.11584747 0.17298898
-0.1250887 0.06365787 0.10120583 -0.123205304 -0.1704525 0.21083735 0.17171898 -0.041475594
-0.19321682 -0.1736405 0.02870369 0.12421477 0.21798755 0.08939957 0.013853639 -0.15982212
0.14906956 0.0012194411 -0.23714946 -0.09423684 -0.0682329 0.017175764 -0.30933926 -0.19893457
-0.19601367 -0.13575982 -0.018996863 -0.12479221 0.2104211 -0.103215925 0.036284328 -0.1615362
-0.1274588 -0.085498884 0.13154529 0.037529085 0.1030687 0.052440528 0.14662467 0.02360183
-0.061128024 -0.1270461 -0.032149944 0.16082408 0.09554351 0.064647086 -0.16065454 0.020556973
0.1771233 0.12800454 -0.17394623 -0.08552777 0.01847695 -0.035605967 0.018935265 0.06701076
0.18925522 0.07930928 0.18195535 0.124269366 -0.211838 -0.13690604 0.21903539 -0.018795997
-0.13709913 0.23191331 0.028522909 -0.13677622 -0.21788834 -0.0069352686 0.06748044 -0.051966075
0.14522721 0.2730467 0.14030506 0.18289113 0.11888481 0.023815306 -0.015897036 0.013550519
-0.22296833 0.017018003 0.116096504 0.019065691 -0.008575677 0.09963585 0.05328292 0.0070189238

conv2.lin_l.bias f4 [64]
00000000: 99e6 96bd 5fee f7bd 66cf a8be 7174 bbbe
00000010: 0fac ddbd 8f1b b2be 5154 2d3e ff1e 4d3d
00000020: e0d7 503d 0f4d 4fbe 9096 4f3d 214d 093d
00000030: 6fa0 013e 9713 883c af9d 56be affb 75be
00000040: 6799 9ebd 3f83 6cbe a0e6 95be 977b 9dbe
00000050: 919f 71be 5af2 ac3d c1cf cdbd 1fa6 62bd
00000060: 4a8a 2f3e 11b2 1dbe d057 023e 211d cabd
00000070: 7731 88be 6f19 ac3d 6181 94be f1e3 e0be
00000080: bf55 5abe 2f69 493e 51ae dfbd e768 28be
00000090: 7f69 9bbe e93e 213e f081 303e 506e e43d
000000a0: a718 22bd 7f52 dbbd 78f1 07bc 6962 16be
000000b0: 4fe2 f1bd c1dc cfbc 2fb6 4fbe 80a5 c6be
000000c0: a7f0 a1be 8677 b5be 41ca 0f3d a1ff 56be
000000d0: b124 acbd a70a aabd 9853 193e c6e9 b63d
000000e0: c169 b0be b1f5 403e 7ffe f9bd 9fa6 3abe
000000f0: cfa2 b93d 1181 9f3d 1f2b 1c3e 297f 953c
-0.07368202 -0.121060126 -0.32970732 -0.36612275 -0.10823833 -0.3478665 0.16926695 0.05007839
0.050987124 -0.2024424 0.050680697 0.03352082 0.12658857 0.016610904 -0.20958589 -0.24021791
-0.07744103 -0.23096941 -0.29277515 -0.30758354 -0.23596026 0.084446624 -0.100493915 -0.055334207
0.17142597 -0.15399958 0.1272881 -0.09868837 -0.2660024 0.084032886 -0.29004958 -0.43923905
-0.21321772 0.1966903 -0.1092192 -0.16446267 -0.30353925 0.15746655 0.17237067 0.11153853
-0.03957429 -0.10709094 -0.008297317 -0.14685978 -0.11810743 -0.025373818 -0.20284341 -0.3879814
-0.31628916 -0.35442752 0.035104994 -0.20995952 -0.08405436 -0.08302813 0.14973295 0.089313075
-0.34455684 0.18843724 -0.122067444 -0.18227623 0.090642564 0.07788289 0.15250824 0.018249111

conv2.lin_r.weight f4 [64, 16]
00000000: d0f6 22be 11fe c33d 0f00 97be a1ea a63d
00000010: 4f63 13be 5faf 833d 3713 263e 6f69 4cbe
00000020: 9fa4 06be 5733 003e c688 b7bd 8fa8 25be
00000030: 6f56 22be 5a15 35be 090b 0abe ffe1 043e
00000040: 40e2 0fbd 0177 85be 09be 90be a0dc 8a3c
00000050: 60c6 063e ffed 1abe c1fb 27be efc4 a33c
00000060: 9fc6 293e e142 d6bd 2100 c7bd a96a 183d
00000070: 8f6f 88be cf95 24be a7c1 8b3d f146 0d3e
00000080: 4114 e63d b1c7 273e 21e3 3f3e 9110 013e
00000090: 7113 203e ef29 e3bb 4023 853d 21f9 79bd
000000a0: 915a 3c3e 31c7 cabd c0f3 63be 6fe5 763e
000000b0: 6556 5b3e 0f24 49be 81fd c1bd 9f9e 60be
000000c0: 60cf 403d 20c0 733d fff8 cabd 7f2b 50bd
000000d0: 11f3 be3d 7116 dc3b 21b2 5a3e e130 9abe
000000e0: 507d 453e e122 73be 1f4a 96bd 41bf dd3d
000000f0: 5067 cebc e1ea 533d 8f61 0bbe 91e2 a3bd
00000100: 008f af3c 00cb 093d 416f 71be a63a 32bd
00000110: 11e0 ef3d bf1d d53d d994 0abe 6fbb fd3c
00000120: 80f7 653b 316f 293c 3782 893d 560f ad3d
00000130: f7e5 a53d 9fc6 71be 8164 35bd efe1 8a3d
00000140: aff8 09be df01 07bf e1a4 0ebe a16f 453d
00000150: b887 083d 7106 93be 100a 263e 0159 02bf
00000160: f7fb 1bbe 51b5 02bf 30e1 79be a6bb b9be
00000170: 4fa4 e0be 2185 03be 41de 43be 60b4 debd
00000180: a9b7 9cbd ef02 67be 0587 d3bd b757 1d3e
00000190: df72 403e 0f2e ef3d 4942 96bd c8e5 093e
000001a0: 07cf 21be bfce 16bd 3f93 573e 0fdc 61be
000001b0: c16d d43d 00ca 2f3a 8fdc db3b ff54 6bbe
000001c0: 8158 6e3e 1104 90be b1ec 73be c110 c2bd
000001d0: 8088 7fbd 2ffe d43c 8101 5dbd 1707 0f3e
000001e0: bff2 72be 3fae f83d ff1d 4bbe 811a 5b3e
000001f0: bf14 7bbe c0f5 eb3c 5f8e 5dbd cf71 e1bd
00000200: 61d2 bd3d b138 613e 81b5 78bd 8f6b 37be
00000210: cf18 0bbe b0b7 e7bd f991 053e f058 4fbe
00000220: 3ff4 3a3e a775 a33d 6941 9a3d 6f64 34be
00000230: affe e5bd c167 18be 011b da3d 3008 d83d
00000240: 5079 3e3e 6ff7 42bb f1df 6b3d d008 7f3d
00000250: 10a7 60bd e194 213d 2f15 34be 4f27 69be
00000260: 60ef 373d 603a 84bc 00d1 ca3c b129 0dbc
00000270: 1f75 40be 5fa0 cdbd 7118 f8bd a9b5 0fbd
00000280: 9f6b b4bd 8f2f 4a3e 6f75 193e 013d 70be
00000290: bf8c c03d e1ac 5cbe 30fd b23d cfa2 78be
000002a0: c9a2 0f3d cfc8 1abe c088 7c3e 7f15 61be
000002b0: c1d9 fcbd c15a 713e 9ff7 46bd e114 7a3e
000002c0: a12f 60bd f122 0d3e 9140 79be e076 303d
000002d0: f01e 863d af09 80bd b122 febd ffc8 6dbe
000002e0: c1b2 e13d 114c afbd 3a83 303e 2ae4 373e
000002f0: 1f80 1a3e 202e 973d efc2 43be 4034 333e
00000300: 01c2 3cbe 216b 38bc 2a1d b7bd a01e 1b3e
00000310: 5fd1 1d3e bfe1 3bbe 67b9 243e e1bc be3d
00000320: efac a53d f152 f6bd 7f32 1fbe df85 6bbe
00000330: afc3 36be 4ff7 51be 4024 cc3c 4ff3 363e
00000340: 2f27 623e c060 0dbe bfb6 02be 9f54 613e
00000350: 30ea bc3c 3f1e 90bd c03c 003e 2197 45be
00000360: f137 31be 8f4c 11be 5fc8 c1bd 9936 8c3d
00000370: 6fa9 02be 6f19 7c3e 4118 51be b088 11be
00000380: 6667 333e 419e 743e 7196 6ebe df35 47be
00000390: 47c5 00be 8153 c5bd 8067 5abe 210f d33d
000003a0: 5740 923d a0fe 9a3d d0c8 5a3d 11ef 683e
000003b0: 17c1 94bd 3698 33be 813d 433d 80c9 193e
000003c0: 5077 61be 0fae 91bd 0f78 19bb c121 653d
000003d0: e011 96bc 5f32 9cbd 80ce 653b 3141 573d
000003e0: 2068 0fbd 6f86 c8bd 21c1 e23d 918a 473d
000003f0: 7f76 4c3e a0d9 943d 4186 0bbe 307e b2bd
-0.15914464 0.09569944 -0.29492232 0.08150221 -0.14393352 0.06429934 0.16218267 -0.19962095
-0.13148735 0.12519585 -0.08961634 -0.16177581 -0.15853284 -0.17683926 -0.13480772 0.12976836
-0.03512788 -0.26067355 -0.28269985 0.016950905 0.13161612 -0.15129851 -0.1640463 0.019991366
0.16579674 -0.10461975 -0.097168215 0.037211094 -0.26647612 -0.16072772 0.06824046 0.13796593
0.11234332 0.1638477 0.18738987 0.12603976 0.15632416 -0.006932489 0.06500864 -0.061028603
0.18393923 -0.09901274 -0.22260952 0.2411096 0.21419676 -0.19642662 -0.0947218 -0.21935509
0.04707277 0.059509397 -0.099107735 -0.05082273 0.09323705 0.0067165424 0.21357013 -0.30115417
0.19286084 -0.23743774 -0.07338356 0.108274944 -0.025195748 0.05173767 -0.13611434 -0.080021985
0.021430492 0.03364086 -0.23577596 -0.043512963 0.11712659 0.10406064 -0.13533343 0.030973164
0.0035090148 0.0103414515 0.0671429 0.08450191 0.08100503 -0.23610924 -0.0442853 0.06781375
-0.13473772 -0.5273723 -0.13930084 0.04820216 0.033332556 -0.28715852 0.16214776 -0.5091706
-0.15232836 -0.51057917 -0.24402308 -0.36275977 -0.43875358 -0.12843753 -0.19127752 -0.108742476
-0.07652218 -0.22559713 -0.10328487 0.15365492 0.1879382 0.11678707 -0.07336862 0.13466561
-0.15801631 -0.036818262 0.21052264 -0.22056602 0.103724964 0.00067058206 0.0067096422 -0.22981642
0.23275949 -0.28128102 -0.2382076 -0.09475852 -0.062386036 0.02600011 -0.053956512 0.13967548
-0.23725413 0.1214261 -0.19835661 0.21396829 -0.24519633 0.028803706 -0.054090854 -0.110080354
0.09268642 0.21994282 -0.06071997 -0.17912124 -0.13583682 -0.113143325 0.13043965 -0.2024877
0.18257235 0.07981425 0.07532007 -0.17616437 -0.11230218 -0.14883329 0.10649682 0.10548437
0.18600965 -0.0029749533 0.057586614 0.062264264 -0.054846823 0.039448623 -0.17586206 -0.22768901
0.04490602 -0.016141117 0.024757862 -0.008615897 -0.18794678 -0.10040354 -0.12114037 -0.035085354
-0.088095896 0.19744705 0.14986204 -0.23460771 0.09401845 -0.21550323 0.08739698 -0.24280857
0.035067353 -0.15115665 0.24661541 -0.21980856 -0.12346221 0.23569776 -0.048575994 0.24422027
-0.054732922 0.1378286 -0.24341036 0.043082118 0.065488696 -0.06251847 -0.124089606 -0.23221205
0.11020423 -0.085594304 0.17237559 0.17958131 0.15087937 0.073818445 -0.1911733 0.175004
-0.18433382 -0.01125601 -0.089411095 0.15148401 0.154119 -0.18347834 0.1608635 0.093133695
0.08089625 -0.120275386 -0.15546606 -0.23000287 -0.17848085 -0.20504497 0.02491963 0.17866252
0.2208526 -0.13806438 -0.12765025 0.22004937 0.023060888 -0.07037019 0.12523174 -0.19295932
-0.17306496 -0.14189361 -0.09462046 0.06846351 -0.12759946 0.24619077 -0.20419408 -0.14212298
0.17519912 0.23888494 -0.23299576 -0.19454144 -0.12575255 -0.09635068 -0.21328545 0.1030562
0.07141178 0.07568097 0.053414166 0.22747447 -0.072633915 -0.17538533 0.047666077 0.15018272
-0.2201817 -0.07113277 -0.0023417508 0.055940393 -0.01831907 -0.07626795 0.003506571 0.052552406
-0.03501141 -0.09791266 0.11071993 0.04871613 0.19967078 0.07268071 -0.13625433 -0.087154746

lstm_cell.weight_ih f4 [256, 192]
00000000: 7f5b 003e 30ff 3c3e d124 94bd 093e 993c
00000010: 8937 293d 0631 39be 4fb7 463d b763 8b3d
00000020: 9f15 d4bd 8f0f bdbc a6f1 b33d 79f6 103e
00000030: ffc4 0b3e 8181 433e 80dd b03b 2173 4fbe
00000040: b74f 1c3d 1107 2c3e 2f65 43bc 6f98 073e
00000050: c1b2 e03d 8127 273c 168a 2d3d 7fc2 713d
00000060: 20ad 12bd ff62 fc3d 41be ee3d 3aae 343e
00000070: b18c 3fbd 7fbd b7be ef97 443e b183 47bd
00000080: 3071 3cbc 2179 3a3e c13d 4abe 99d9 213e
00000090: 8194 863c b12d febd bfc3 263d 5730 0fbd
000000a0: cf93 0fbe 0034 ce3d bff1 c73d 492d 0b3e
000000b0: 7171 513e a19c 35bc dae1 af3d 50dc 3dbd
000000c0: 3f54 3aba 301e 51bc a001 28bd 8feb d83d
000000d0: 31be a93d 5771 1e3e de8a 4b3e 894d 14ba
000000e0: 4066 f03d 71a8 283e 61bc b0ba c115 5b3e
000000f0: 4fac 1b3e a05b ed3d cf82 5fbd a1a7 973d
00000100: 369b 84bf 60d6 5840 fd74 2940 4731 3540
00000110: 6e2e 1240 abb9 b640 d9cf e540 314a b3bd
00000120: cbd9 b540 6720 f340 5278 f040 2cc2 d340
00000130: 3e58 cb40 f3d0 d740 2a7f 0c41 cde8 f440
00000140: 2a0f fd40 0c71 d940 c61f ef40 c662 ed40
00000150: fb45 ed40 31ea af3d 1101 0641 fe6f aa40
00000160: 3a15 e640 589b e540 9105 e040 2f5a 0141
00000170: b129 ea40 8101 84ba 1f9f 583d 1fac 773d
00000180: bf42 4ebd 617f dfbd 1e3b bd3c f9e8 093c
00000190: 4fa4 2a3d 011f 2a3d a142 14be 2049 963b
000001a0: 01d8 903d 60f6 fdbb 9fb2 efbd c1c3 e5bd
000001b0: 008f 6c3b 7066 02bd f014 6d3c c05b 55bd
000001c0: a08e 97bd bf85 053d e06b fbbc 00c3 933b
000001d0: e066 53bc 3f0c a6bd 0626 b1bd b183 f6bd
000001e0: effe c63d c05a 3c3c 86b9 b7bd ff54 e83d
000001f0: bf37 aebd 0f7a e6bd 411d 433d 09af 90bd
00000200: 41c6 febc 35a6 fd3f 80c7 a33f 9b8f f2be
00000210: e985 09bf 9599 1440 ff74 d43d bc7a 5640
00000220: 5aa1 d440 9bbf ba40 50c1 c1bd e33c ec40
00000230: 33d8 f640 e3c2 f840 05f1 cd3d f31a 0641
00000240: c015 1141 9b8e 0041 123b f240 8783 e540
00000250: 0334 dc40 f2c6 ce40 ba97 4c3c 996c 0441
00000260: e98a ce40 321d 6040 7152 4e3d e694 e040
00000270: 3958 8440 3cb8 0941 df38 e53d 5197 643d
00000280: 4f1d 4d3d 8f51 9d3d 699c 0abe f1b8 81bd
00000290: f0f9 dcbd 71af e3bd 1772 85bd 81b8 ecbd
000002a0: 8fca 493d df34 ea3d ff2f 913d bfee 24bd
000002b0: 113c 02bd 6175 593d bfe1 b63d d016 c4bd
000002c0: 49f8 a6bd 8fa3 3dbd 97f4 8ebd a6ba 2c3d
000002d0: e17b f8bd 5058 b93d 40fe 3ebb 7162 e33d
000002e0: f13b 243d 214e 83bd 008a 10bd 6624 acbd
000002f0: 5943 1e3d b1a7 a8bd 814e f23d 4f94 b63d
00000300: ffff 3e3d 9f85 203d b17f 0e3f 817e cf3d
00000310: 6692 b23d 7988 12be 1fd7 54bc 6f5b f93c
00000320: d07d 61bc 217d e1bc 4167 fb3d 3142 db3b
00000330: 27cd 0dbd 5167 c73e 770d a8bd d1b5 173f
00000340: b95e 8b3c e1fe 563d 61c6 00bd 7094 f63d
00000350: 0fbd 3d3e 0088 a33d 81df 4cbd 160f 333e
00000360: e0be 7e3d 6f3d 603d 30d5 0e3c 81c4 973e
00000370: 19f8 0bbc 0189 333f 19b0 143f 8914 293d
00000380: 3f52 883d ff1c 56bd e193 563f 5f7d 32bd
00000390: 9fda 47bd dfa1 dd3d e014 d9bc b873 823c
000003a0: 10d4 2d3f e018 c73c af67 443f 91a6 033e
000003b0: 2a48 b43e 8912 063e 0722 253d a7e8 9f3d
000003c0: 3f43 adbd c9ab 143d cf9d b63e bf46 2bbe
000003d0: efef bfbd b99d 96bd c156 f33d 31b1 d63c
000003e0: 87a7 9fbd 3964 0b3e c1e4 213e df78 613d
000003f0: bfd5 513d bf0e 62bd 1fe1 e5bc 7154 033d
0.12534903 0.18456721 -0.07233585 0.018706338 0.041312728 -0.18085107 0.04851466 0.068061285
-0.103556864 -0.023078708 0.08786325 0.14156522 0.13649367 0.1909237 0.0053974986 -0.20258762
0.03816196 0.1679957 -0.0119259795 0.13241743 0.109715946 0.01020229 0.042368017 0.059023377
-0.035809636 0.123235695 0.11657382 0.17644587 -0.046765033 -0.35886762 0.19198583 -0.048709575
-0.011501595 0.1821027 -0.1975012 0.15805663 0.016428234 -0.12411059 0.04071402 -0.03495821
-0.14021228 0.10068512 0.09762906 0.13591494 0.2045343 -0.0110847065 0.08588 -0.046352684
-0.00071078906 -0.012763545 -0.041017175 0.10591804 0.08288229 0.15472923 0.19877192 -0.00056573056
0.11738253 0.16470505 -0.0013483876 0.21395017 0.1520245 0.11589742 -0.05456811 0.074050196
-1.0359867 3.3880844 2.6477654 2.8311327 2.2840838 5.7101645 7.181622 -0.08754385
5.682836 7.5977054 7.5146875 6.6174526 6.3545218 6.7442565 8.781046 7.653418
7.908101 6.7950497 7.4726286 7.4183073 7.4147925 0.0858959 8.37526 5.326171
7.190091 7.175213 7.0006795 8.0845175 7.3175893 -0.0010071249 0.052886125 0.06046688
-0.050356623 -0.109129675 0.023099478 0.008417361 0.041660603 0.041533474 -0.14478542 0.004586354
0.070724495 -0.0077503175 -0.11703991 -0.11218978 0.0036095977 -0.031835973 0.014470324 -0.052089453
-0.074002504 0.032598253 -0.030691087 0.00450933 -0.012902945 -0.081078045 -0.086498305 -0.12036837
0.097165935 0.011496246 -0.08970933 0.11344337 -0.085067265 -0.112537496 0.04763532 -0.07064635
-0.031100394 1.9816347 1.2795258 -0.47375187 -0.53719956 2.321874 0.10373878 3.351241
6.644696 5.8358893 -0.094606996 7.3824325 7.7138915 7.77379 0.100557365 8.381579
9.06781 8.034816 7.5697107 7.1723056 6.881349 6.4617853 0.012487346 8.276513
6.454457 3.501782 0.05037159 7.018176 4.1357694 8.607479 0.11192488 0.05580837
0.05007678 0.07681572 -0.13536228 -0.06334103 -0.10789859 -0.11117447 -0.065159015 -0.11558629
0.04926544 0.114358656 0.07089233 -0.04026675 -0.031795565 0.053090457 0.089297764 -0.09574664
-0.081528254 -0.04629856 -0.069802456 0.04217019 -0.12133003 0.090500474 -0.0029143244 0.111027606
0.040096227 -0.06411386 -0.035287857 -0.0840538 0.038638446 -0.082351096 0.1183138 0.08915006
0.046630856 0.03918993 0.5566359 0.101315506 0.087193295 -0.14309873 -0.012990742 0.030439107
-0.013762906 -0.027525486 0.122755535 0.0066912402 -0.034619477 0.38946012 -0.08205693 0.59261805
0.01701294 0.052489165 -0.03143919 0.12040031 0.18529151 0.07984924 -0.050017837 0.17486224
0.06219375 0.054746088 0.00871782 0.29642108 -0.008543038 0.70130926 0.58081204 0.04127935
0.06656312 -0.052273747 0.83819395 -0.043576594 -0.048792478 0.1082189 -0.026499212 0.01592432
0.67901707 0.024303854 0.7672071 0.12856509 0.35211307 0.13093008 0.040315654 0.07808047
-0.08460092 0.03629664 0.35667273 -0.16726206 -0.093719356 -0.07354302 0.11881781 0.026207538
-0.07795625 0.1361245 0.15809919 0.055046912 0.051229235 -0.055189844 -0.028061448 0.03206295

lstm_cell.weight_hh f4 [256, 64]
00000000: 5134 ea3e aaaf c13e 32db 883f 42ed 85c0
00000010: 5e89 ab3f db6d 34c0 1f3c 19c0 10c4 1b40
00000020: b2b6 5e40 9da9 473f 5688 e13e c26c a3bf
00000030: eee9 30bd e83c b9bf 8cd6 ecbf f1a7 60be
00000040: 94e7 4dbf cf8f 1a3f 8c92 48c0 4445 c5bf
00000050: a2c5 46bd 64d6 2540 dc7f 2140 bb25 46bf
00000060: 2dd8 043f 7278 2140 eddf 1dc0 23d1 663f
00000070: 6410 34be 6150 3ac0 e69e f5bf 7ecd cc3d
00000080: e0a1 963f 96b1 f9bf a6a3 cebe a74f 6d3f
00000090: a2f3 1b40 9a7a b1bf a8ac 603e 3a3a 10c0
000000a0: 4f60 9e3f 3ccb c2bd 0e71 32c0 6861 94bf
000000b0: 4fdb 9ebf 7829 ecbf 66c8 0f3f 531d ca3f
000000c0: fd5b eb3e fc38 0540 bfc9 ffbf 12b3 333f
000000d0: 74a2 bc3f 3e92 c63f 261c 18c0 2517 4340
000000e0: dd43 a63f ead2 16c0 7e4a 6d3f a165 9a3e
000000f0: 00d4 3540 d4cd a23f 059a f63e 8cd8 3640
00000100: 71b3 de3e 1443 f2be 2ea2 f83c 06c7 a33e
00000110: 2287 0ec0 f4cf 2fc0 1533 0f3f 7b7c b33e
00000120: fc8c 05c0 b6f7 8cbf 8f6d 21bf fe3d 22bf
00000130: dfee 81bf b3e5 0abf 620b 57be 9760 2f40
00000140: c8da 13bf 860c 80bf 5a42 50bf cb80 17c0
00000150: ac48 35bf 4679 ea3f 5121 b23e 6efa 693f
00000160: 5162 953f 43a3 8cbe 06de 14c0 54e0 77c0
00000170: 6d36 46bf 2f4f a9be 286e 0cc0 74b6 73bf
00000180: 9a9b 333e 88a2 c43f 9bc7 68c0 fa35 0640
00000190: e141 d03f de28 dbbe 5234 87bd 5248 3c40
000001a0: 0dbe 8bbf 5c05 54bf a0e2 9240 30e3 263f
000001b0: b878 c7bf c69f a1be eeee b8bf 19ab 55bf
000001c0: d85a 8040 707d 01c0 22ba 9f3f 2a21 0ac0
000001d0: 2e22 5b3e 44f3 35be 03d7 4dc0 830b 02be
000001e0: 5130 dcbd 4096 ecbf a798 e03f 3007 1a3f
000001f0: ff7c d03f 9e85 94bf 72ef e93d 03aa f8bf
00000200: 0159 2a40 39c8 7d3f 4952 bf3e 1c66 e13e
00000210: be27 8d40 552a a63e 80d5 9c3e d36c f7bf
00000220: ea6f 0640 22ed 1ac0 f587 d83f c602 fd3c
00000230: 1336 e2bd f2cc a9bf 12e3 f4bf ccec 25bf
00000240: 1829 c83f a597 2d3f 5f9d febe 3872 f9bf
00000250: 05df 7340 c3fb f83e 4fed b83f ef6d c53f
00000260: 7db2 203f 72cd b83f 167c d33f 8495 b5be
00000270: 3774 00c0 8f5e 2240 c6e2 603f b3b0 8b3f
00000280: 2bbf c43f 2a2c c1bf 251c 95bd 0c1e 74bf
00000290: ae5a e63f bfd1 f53f 00b4 a03f c0fa 2040
000002a0: 7606 0ec0 7b6c fcbe d9f5 19c0 f235 f5be
000002b0: b8d4 e93f a4a0 4bc0 5119 513f b81a 8c3f
000002c0: 0fbf 463e ce13 8bc0 b36a 613f 76ef 6a3f
000002d0: febf 79c0 db8a 903f efaa 523f f6c5 903f
000002e0: 415b dd3f 27fe 913e 69cb 52bf 107d 793f
000002f0: 58a7 3c40 88e0 9cbf 7b52 e8be 44e6 c9bf
00000300: 5057 d1bf 6e48 7d3f 0fff 91be 0102 293e
00000310: be70 32bf 19b8 353e a42e 78bf a6fd f0bf
00000320: 3e7f 4bc0 1dea d93f 93c0 cabf d29c 98bf
00000330: 374d 7d3f 472d 42bf 7bac 4c3e 6db7 88be
00000340: 2eb1 dc3d f462 fd3f 3658 f33f dc21 81bd
00000350: 9d1d 87bf 06b8 12bf 17ee ec3d 37bc b53e
00000360: df34 3640 8248 a9bb 29bd 193f 20dc 2740
00000370: 2982 1d40 ae46 bb3f 3821 bfbd 42d3 96c0
00000380: eddf e5bf c075 60bf fc39 a03f af8a e53e
00000390: acb9 b03f 71a4 9dbe 4fec 2540 dea1 3b3f
000003a0: c41d 37be 62a9 3540 52e1 3cc0 a813 38c0
000003b0: e50b 0340 9a3c bdbe 5b1c 3040 52e7 493f
000003c0: cd0d 2940 fd0c 033d e02a 15bf ef7b e33e
000003d0: 8c86 093d 5b3d 4abf de51 953e ea9e 19c0
000003e0: a212 a9be 5cd3 0240 82ef 4fc0 80e9 f3be
000003f0: 4f52 9ebf 93da 8dbf bcf2 033f 30d2 23c0
0.4574304 0.37829334 1.0691893 -4.185212 1.3401296 -2.819205 -2.3942945 2.4338417
3.4799008 0.77993184 0.4404933 -1.2767565 -0.043191843 -1.4471712 -1.8502975 -0.21939065
-0.80431485 0.60375684 -3.1339445 -1.5411763 -0.04852832 2.5912104 2.523429 -0.7740132
0.5189236 2.5229764 -2.4667923 0.9016287 -0.17584378 -2.911156 -1.9189117 0.10000132
1.176815 -1.950732 -0.4035923 0.92699665 2.4367452 -1.386554 0.21940863 -2.2535539
1.2373141 -0.0951142 -2.7881503 -1.1592226 -1.2410678 -1.8450155 0.5616516 1.5790199
0.4596862 2.081603 -1.9983443 0.70195115 1.4737077 1.551338 -2.376718 3.0482876
1.298946 -2.3566232 0.9269179 0.30155662 2.8410645 1.2719064 0.48164383 2.856967
0.43496278 -0.47316802 0.03035077 0.3198778 -2.2269979 -2.7470675 0.5593732 0.3505591
-2.08673 -1.1013095 -0.630578 -0.6337584 -1.0151023 -0.54256743 -0.21000436 2.7402704
-0.5775571 -1.0003822 -0.81351244 -2.367236 -0.70814013 1.831826 0.34791043 0.9139775
1.1670629 -0.2746831 -2.3260512 -3.873067 -0.774268 -0.33068225 -2.1942234 -0.95200276
0.17539826 1.5362101 -3.637183 2.0970445 1.6270105 -0.42804617 -0.06601776 2.941914
-1.0917374 -0.8282068 4.590164 0.6519041 -1.5583715 -0.3156721 -1.4447916 -0.834642
4.0110893 -2.023281 1.2478678 -2.1582742 0.21399757 -0.1776858 -3.2162483 -0.12699704
-0.10751403 -1.8483353 1.7546586 0.6016722 1.6288146 -1.1603277 0.11422624 -1.9426883
2.6616824 0.9913364 0.37367466 0.44023216 4.4111013 0.32454172 0.30631638 -1.9330086
2.1005807 -2.4207234 1.6916491 0.030885112 -0.1104547 -1.3265669 -1.9131796 -0.6481445
1.5637541 0.67809516 -0.4972944 -1.9487982 3.810487 0.4862958 1.4447421 1.5424174
0.6277235 1.4437697 1.6522243 -0.35465634 -2.0070932 2.5370214 0.8784603 1.0913299
1.537084 -1.5091603 -0.07280759 -0.9535835 1.7996423 1.9204634 1.2554932 2.5153046
-2.2191443 -0.49301514 -2.4056304 -0.4789272 1.8268042 -3.1816797 0.81679255 1.0945654
0.1940882 -4.3461676 0.88053435 0.9177164 -3.9023433 1.1292375 0.82292074 1.1310413
1.7293473 0.28514215 -0.8234163 0.97456455 2.9477139 -1.2256021 -0.45375428 -1.5773396
-1.6354771 0.98938644 -0.28514907 0.1650467 -0.6970328 0.17746009 -0.9694617 -1.8827407
-3.1796412 1.7024571 -1.5840019 -1.1922858 0.98945946 -0.7585034 0.19987671 -0.26702443
0.10775982 1.9795823 1.9011295 -0.06305286 -1.0555912 -0.5731205 0.115688495 0.3549516
2.846977 -0.0051661143 0.6005426 2.6228104 2.4610693 1.4630945 -0.09332508 -4.7132883
-1.7958962 -0.8767967 1.2517695 0.4483237 1.3806663 -0.3078952 2.5925481 0.73293865
-0.17882448 2.8384633 -2.9512525 -2.8761997 2.047601 -0.36960298 2.7517307 0.7886859
2.6414673 0.03199481 -0.5826855 0.4443049 0.03357558 -0.7899987 0.29164022 -2.4003243
-0.33022028 2.0441504 -3.2489934 -0.47639084 -1.2368869 -1.1082329 0.5154226 -2.5597038

lstm_cell.bias_ih f4 [256]
00000000: 4cfb a4bf 583e d73f eaad 153f 3eff 4c40
00000010: 2a61 3e40 5b4f 5140 ab00 843f e71f 2840
00000020: df05 353f 39a7 2d3f 2a1c 4c40 23e6 0740
00000030: 7f73 74c0 0ba3 243d 288c 40c0 30ad 7b3d
00000040: 1924 3a40 3d9d 14c0 2b85 31c0 e000 573f
00000050: e04f babf 4a5e 81c0 c625 cfbf b34f ae3e
00000060: 9b11 e23f 8c12 90bf dd08 523f 86a9 8f3f
00000070: a8bd 34bf 182c 1c40 ac9e 1b40 bf89 813e
00000080: d77c d13f 3edb ea3f 03dd 0abf 4708 a1bf
00000090: 2192 23bf ca8e b03f e38e 73be bc04 d23f
000000a0: ed50 f73e bc69 513f 9f62 343f 1a49 babf
000000b0: 66d9 99c0 ac10 dabf 2eee 423f 927c 0abd
000000c0: 5b7f 8cc0 bfbd 08c0 df7d 39c0 8d72 1e3f
000000d0: 9916 1dc0 75cd e9bf 95b5 26be 913a 28be
000000e0: 322f 0dc0 2f96 3fc0 44fb a03f 4b8c 303f
000000f0: 10c3 5e3f 03e9 4d40 1a55 1140 34a8 36c0
00000100: 09aa 96bf 44c7 21bf 113f aabe 8a79 5f3f
00000110: 752f c6bf 3b84 8b3e 9b40 723f 9172 15c0
00000120: 8b83 573f 82c5 89bf 3a5b 5ac0 1652 25c0
00000130: c4f9 3d3f cc70 933c 7603 f1bf 590c 833e
00000140: 93b1 6ebf a133 ef3e 09bf 1ebf 5e6b 0540
00000150: 0f21 31c0 0cc7 453f 1bf0 2bc0 89e7 a3bf
00000160: 371c 503f e84a 21bf d4e0 723e fae9 e0be
00000170: 529b adbf 0418 80bf b076 8c3e 809e 58bf
00000180: 8d67 70bd f73c 3ac0 8f7f 6dbe f426 56c0
00000190: 72e6 2440 a677 68bf 9235 e0be 28cc d5bf
000001a0: 6253 c2bf f8d5 e13f ff2b 333f 43d8 0e3f
000001b0: 8749 b9be 8d9f 07c0 e0d2 85bf e7e7 62bf
000001c0: f776 a1bf ff1a 803f 1c4c 05bf 736e 0fc0
000001d0: e697 23c0 ba61 853e a05f e03e 7bff d5bf
000001e0: b09a 1740 70f6 a53f d856 88c0 41d4 0940
000001f0: faf9 66be 4f58 03c0 8151 353f 175a e9be
00000200: e548 3f40 b310 94be 20aa 65c0 a5f4 12c0
00000210: d720 c73f 3b7b 05bf e040 123f 7d82 bebf
00000220: 62b3 0e40 d12f 06c0 9163 7540 370a 2a3f
00000230: 7597 2d3e 8f99 3940 044c dd3f a144 15bf
00000240: b155 1840 7e39 9140 6cb9 0bc0 0430 7e3e
00000250: edb7 6bbf 5677 663e 5e8a 133f 5a1f 413f
00000260: 24bc 1a3f c523 09bf f441 983d 731e e4bf
00000270: 6f4c 513f f591 3e3f 7347 1640 c917 1b40
00000280: d530 f63f e1a8 c2bf 0d7a c1be e100 f83f
00000290: fb09 f03f 8703 97be 9565 b43f 3053 aa3e
000002a0: 010d bfbe 29bc dd3f 7303 08bf da65 f13f
000002b0: 6b47 433f a9d4 e83b 91db 5440 5ded 27c0
000002c0: 94bd 01c0 1afa a43e a60c c93e 59b1 2fbf
000002d0: ee86 8fbf cd8c 33c0 0894 b4bf 9447 edbf
000002e0: 03ea aebe 651b a53f aef8 9dbf 070f 22bd
000002f0: 43ec e8bf fc61 a7bf d82b 0140 9c38 253f
00000300: 2495 8abe 9bf1 85c0 c417 213f ca21 a540
00000310: 8736 49bf 03ff 0fc0 725e ce3f 0b9f fa3f
00000320: 1c2b 9fbf 104a 5f3f d366 02c0 c632 5640
00000330: 702a 6fbf 7d4f d83f 2745 30c0 c01d f6be
00000340: e97b 1bc0 4bcd 22bf 5f99 20c0 af86 d13d
00000350: b7ff 933f be2a 7dbf 9c2a aa3f 82a8 3f3f
00000360: d320 35bf 3922 243e 30f2 ea3f 0238 50c0
00000370: d429 d73e a069 bdbf f411 b43f ce94 e7be
00000380: 74d7 4dbf 21e9 0840 5eaa a3be cfe2 9bbf
00000390: 52c1 edbe 8262 3640 1374 09c0 e407 4440
000003a0: 03a1 163f c2de 5240 dcf1 dcbf e84b dd3f
000003b0: 4736 18c0 3591 86c0 0136 e33f 0412 4ebf
000003c0: f7d2 4cc0 a916 ddbf 733a f8bf 1fd0 0ac0
000003d0: 9937 57bf 2e37 d4bf b8e2 0840 4121 1ac0
000003e0: 06bc 1a40 afb4 8abf e98a ae3e 9bcf 12c0
000003f0: d049 39bf f9cd 803f f91e 1bc0 ffc8 b93e
-1.288919 1.6815901 0.58468497 3.2030787 2.9746804 3.2704685 1.0312704 2.6269472
0.70712084 0.67833287 3.189219 2.1234214 -3.8195493 0.040194552 -3.0085545 0.06144446
2.9084532 -2.322097 -2.773753 0.8398571 -1.4555626 -4.04276 -1.6183403 0.3404518
1.7661623 -1.125566 0.82044774 1.122361 -0.7060189 2.4401913 2.4315596 0.25300404
1.6366223 1.8348157 -0.5424349 -1.2580651 -0.6389485 1.3793576 -0.23784976 1.6407695
0.4830393 0.8180196 0.70462984 -1.4553559 -4.807788 -1.7036338 0.76144683 -0.033810206
-4.3905463 -2.1365812 -2.8983076 0.6189354 -2.4545043 -1.8265826 -0.16280206 -0.16428591
-2.2060056 -2.9935415 1.257668 0.6896407 0.8701639 3.217347 2.2708192 -2.8540163
-1.1770641 -0.6319468 -0.3325124 0.8729483 -1.5483233 0.2724932 0.9462983 -2.3351176
0.84185094 -1.07634 -3.411818 -2.5831351 0.7420924 0.017998122 -1.8829181 0.25595358
-0.93239707 0.46719077 -0.62010247 2.0846782 -2.7676427 0.77256846 -2.6865299 -1.2805034
0.8129305 -0.6300492 0.23718578 -0.4392851 -1.3563025 -1.0007329 0.274343 -0.8461685
-0.058692504 -2.909971 -0.23193191 -3.3461275 2.5765653 -0.9080757 -0.4379087 -1.6702929
-1.5181696 1.7643423 0.6998901 0.5579874 -0.3618891 -2.1191132 -1.0454979 -0.88635105
-1.261443 1.0008239 -0.5206926 -2.2411163 -2.5561461 0.26051122 0.43822956 -1.6718591
2.3688164 1.2965832 -4.260601 2.15358 -0.22556296 -2.052265 0.7082749 -0.45576546
2.9888241 -0.2891899 -3.5885086 -2.296182 1.5556897 -0.5214116 0.5713024 -1.4883572
2.2296987 -2.0966685 3.834202 0.66421837 0.16952308 2.8999975 1.7288823 -0.58307844
2.3802302 4.538268 -2.1831923 0.24823004 -0.92077523 0.2250646 0.57633007 0.75438464
0.6044333 -0.53570205 0.074344546 -1.7821792 0.81757253 0.7444146 2.348111 2.4233267
1.9233652 -1.5207788 -0.3778843 1.9375268 1.8753046 -0.2949488 1.40935 0.33266592
-0.3731461 1.7323047 -0.53130263 1.8859208 0.7628085 0.007105429 3.3259013 -2.6238625
-2.027196 0.32222062 0.39267462 -0.68629986 -1.1213052 -2.8054688 -1.4107676 -1.8537469
-0.34162912 1.2898985 -1.2341516 -0.039565112 -1.8197101 -1.3076777 2.018301 0.64539504
-0.2706691 -4.185743 0.6292689 5.1603746 -0.7859883 -2.2499397 1.6122572 1.9579786
-1.2435031 0.87222385 -2.037526 3.346849 -0.9342413 1.6899258 -2.7542207 -0.48069572
-2.4294379 -0.635945 -2.509361 0.10230767 1.1562413 -0.98893344 1.3294253 0.748665
-0.7075321 0.1602868 1.835516 -3.2534184 0.420241 -1.4797859 1.4067979 -0.45230716
-0.8040688 2.139229 -0.31965917 -1.2178591 -0.46436554 2.8497624 -2.1477096 3.0629816
0.58839434 3.294846 -1.726131 1.728879 -2.3783128 -4.2052255 1.7750856 -0.8049624
-3.2003763 -1.727254 -1.9392837 -2.1689527 -0.8406921 -1.657934 2.1388378 -2.4082797
2.417726 -1.083639 0.34090355 -2.2939212 -0.72378254 1.0062858 -2.4237654 0.3628616

lstm_cell.bias_hh f4 [256]
00000000: fc1f a9bf 4c25 e53f 6d7b ba3e ca8d 4840
00000010: cafe 4240 5b01 5240 ca07 6e3f fc64 2a40
00000020: 5fa6 3a3f 61e7 273f ba5a 4c40 cf00 1040
00000030: dfc9 7ec0 0d56 0c3e 29db 36c0 c022 cf3d
00000040: c9e7 3940 bd82 1dc0 4b92 31c0 702b 373f
00000050: 8082 bbbf 6b7f 79c0 f6d7 dabf 2317 b93e
00000060: 7b48 dc3f 6c27 9dbf db80 863f f681 823f
00000070: 68e3 1dbf 4809 1840 2e82 2540 178d 823e
00000080: 57f9 d33f 5ef1 e73f 515d 21bf 972f 97bf
00000090: 5549 3abf 55fc c73f 4358 51be bcef df3f
000000a0: 7be0 8a3e 6cbe 653f 2b7e 5d3f 4a55 abbf
000000b0: 369d 9bc0 8c4c d5bf 7ea5 463f 2e96 ad3b
000000c0: 5b95 8cc0 df52 05c0 4f38 32c0 bdf2 273f
000000d0: 3972 29c0 1547 eebf 534c 8abc 56a0 7ebe
000000e0: a2c0 09c0 c367 37c0 c2da 9a3f 2c9b 113f
000000f0: 7028 503f ae9e 4b40 0a94 0840 74e8 31c0
00000100: 9a73 88bf 794c f9be ef4a 99be aa1e 723f
00000110: f583 bdbf dbbc 8b3e 3bc5 833f a1ac 18c0
00000120: 6502 443f b2fd 9bbf cac4 5ec0 66c1 26c0
00000130: 6fce 293f 288c 783e 75f7 d8bf a454 9c3e
00000140: 76a5 91bf eb69 c73e a92a 09bf e2c3 0240
00000150: bf88 30c0 3bb5 253f c578 2dc0 2972 a4bf
00000160: 574c 4e3f 96bc 0bbf d278 1f3e 5ace f0be
00000170: 91bd a8bf bec2 76bf 2820 7a3e 31c6 64bf
00000180: 6614 bebd f708 3bc0 e149 8fbe e4e2 4dc0
00000190: 9260 2a40 eb3d 82bf 3228 a1be 047a e4bf
000001a0: 1284 abbf 077f ee3f 8e0c 5e3f f42b 1c3f
000001b0: 97c2 96be ed1d 03c0 8b03 8bbf 07d2 63bf
000001c0: 77ce 82bf 9294 7b3f a549 abbe 03af 12c0
000001d0: 9b06 1dc0 bc43 703e dd0c c23e 8d02 debf
000001e0: 70d8 1240 5c84 af3f e8bf 81c0 79eb 0c40
000001f0: baae 63be 2f57 09c0 d14d 123f 995c cabe
00000200: 2529 3b40 c58b 05bf a03d 65c0 053f 16c0
00000210: f7ee b73f 3b18 02bf 7edf eb3e accd bdbf
00000220: 4a56 0840 51e6 03c0 319d 7e40 8b6f 453f
00000230: b5e1 603e 8f48 3a40 c364 c33f 5b22 29bf
00000240: dd1e 2440 0efc 8d40 84f4 0fc0 a1ce 443e
00000250: 31fb 5ebf e7f1 443e 0158 103f da99 243f
00000260: 9300 523f d530 08bf 0578 823d 33db e8bf
00000270: 8450 493f f566 4b3f 13a7 1b40 5438 0f40
00000280: 252a ea3f a62d acbf 2144 aebe 617a fe3f
00000290: 1be2 e33f 7fe6 7bbe d497 a43f a41b 833e
000002a0: cc28 b6be 59a0 d63f e354 0fbf fa6d f33f
000002b0: bac0 4d3f 4c96 7a3d f185 5340 bdbf 23c0
000002c0: 548d 08c0 11cf 653e 468f c53e 5a9a 23bf
000002d0: c53a a9bf fc10 32c0 ee5a a1bf 4496 f2bf
000002e0: 5785 d2be 06b5 b83f 8eec 9ebf 1047 98bd
000002f0: 538a fbbf 9dea bebf 92b6 e53f ceaa 1b3f
00000300: ef71 60be 33ad 84c0 64ec 1f3f 963d aa40
00000310: ac04 50bf d342 10c0 824f b83f 3ae7 ee3f
00000320: b8b8 90bf 9062 513f 3375 01c0 8648 4e40
00000330: b1ae 83bf 3d67 d73f d7dd 2fc0 5ad9 2bbf
00000340: a932 0fc0 4bfe 37bf 2f30 1ac0 0fe3 e23d
00000350: b5e7 ac3f 7822 85bf ffeb b03f e247 433f
00000360: b49a 45bf 4753 6e3e 1072 ea3f 20b9 53c0
00000370: d417 f53e 0045 c1bf 1431 bb3f 716b 06bf
00000380: c32c 35bf caee 0b40 0a93 7cbe bfb8 87bf
00000390: b280 f5be 0207 3740 43f8 09c0 0461 4740
000003a0: 8bf7 243f 7225 5540 3b9b cbbf 8856 de3f
000003b0: 71b4 21c0 95cc 87c0 d17c e03f aad5 2cbf
000003c0: 89b1 49c0 c91f e2bf 9309 e9bf 2f1b 07c0
000003d0: f58f 6abf c98a c3bf 9042 0940 9178 0ec0
000003e0: f5ba 1040 690c 7ebf 3aa6 a53e 4b6b 0fc0
000003f0: 50b2 44bf 7d50 7e3f 59bc 27c0 b1f1 ca3e
-1.3212886 1.7902007 0.3642229 3.133654 3.046801 3.2813327 0.92980635 2.6624136
0.7291011 0.6558743 3.1930375 2.2500494 -3.9810712 0.13704701 -2.8571265 0.1011405
2.904772 -2.4611046 -2.774554 0.71550655 -1.46492 -3.898402 -1.7097156 0.36150464
1.7209619 -1.2277656 1.0508074 1.0195911 -0.6167512 2.3755665 2.5860705 0.25498268
1.6560467 1.8120534 -0.63033015 -1.1811398 -0.72768146 1.5623881 -0.20443825 1.7495036
0.2712439 0.89743686 0.8652064 -1.3385403 -4.862941 -1.6663985 0.7759627 0.005297444
-4.393232 -2.083183 -2.7846868 0.65604764 -2.6475966 -1.8615443 -0.016882097 -0.24865851
-2.1523824 -2.865708 1.209801 0.568774 0.813117 3.18156 2.1340356 -2.7798128
-1.0660279 -0.48691157 -0.29939982 0.9457804 -1.4805895 0.27292523 1.0294565 -2.3855364
0.76566154 -1.2186797 -3.480761 -2.605554 0.6633062 0.24272215 -1.6950518 0.30533326
-1.137862 0.38947996 -0.5358072 2.0432057 -2.7583463 0.6472966 -2.7104962 -1.2847339
0.80585235 -0.54584634 0.15573433 -0.47032434 -1.3182851 -0.96390903 0.24426329 -0.89364916
-0.092812344 -2.9224222 -0.27986053 -3.2169733 2.6621442 -1.0175146 -0.3147598 -1.7849736
-1.339968 1.8632516 0.86737907 0.6100457 -0.29445335 -2.0487015 -1.0860456 -0.8899235
-1.0219258 0.98273575 -0.33454624 -2.2919319 -2.4535282 0.23463339 0.3790044 -1.7344528
2.2944603 1.3712268 -4.054676 2.201872 -0.22234622 -2.1459463 0.5714999 -0.3952377
2.9243863 -0.52166396 -3.5818863 -2.3475964 1.4369801 -0.5081822 0.46068949 -1.4828391
2.1302667 -2.0609324 3.9783442 0.77123326 0.219611 2.9106786 1.5265125 -0.6606805
2.5643837 4.4370184 -2.249299 0.19219448 -0.8710204 0.19232903 0.56384283 0.6429726
0.82032126 -0.5319951 0.06370548 -1.8191894 0.7863848 0.79453975 2.4320724 2.237813
1.8294111 -1.3451431 -0.34036353 1.9881097 1.7803377 -0.24599646 1.2858834 0.25607026
-0.35578 1.6767684 -0.559889 1.9017937 0.803722 0.06117849 3.3050501 -2.5585778
-2.133626 0.22442271 0.3858587 -0.63907397 -1.322106 -2.7822866 -1.2605875 -1.8952107
-0.41117355 1.4430244 -1.2415941 -0.07435429 -1.9651588 -1.4915348 1.7946341 0.608075
-0.21918462 -4.1461425 0.6247008 5.320018 -0.8125713 -2.2540786 1.4399264 1.8664315
-1.1306372 0.8179102 -2.0227783 3.2231765 -1.0287687 1.6828381 -2.747915 -0.6712853
-2.237467 -0.71872395 -2.409191 0.11078464 1.3508211 -1.0401144 1.382202 0.7628156
-0.77189183 0.23273955 1.8316059 -3.3081741 0.47869742 -1.5099182 1.4624352 -0.5250769
-0.70771426 2.1864495 -0.24665466 -1.0603255 -0.4794975 2.8598027 -2.1557777 3.1152964
0.6444022 3.3304105 -1.5906748 1.7370157 -2.5266383 -4.2437234 1.7538091 -0.67513525
-3.151461 -1.766595 -1.8206047 -2.1110342 -0.9162591 -1.5276729 2.1446877 -2.2261088
2.261411 -0.99237686 0.32353383 -2.2409236 -0.76834583 0.99341565 -2.6208708 0.3963752

linear0.weight f4 [32, 384]
00000000: b1a6 48bd 71d2 9b3b cb9a bebd 11a6 b8bc
00000010: 0f50 923d 9573 473d e8f2 96bd 7fbb 3c3d
00000020: bf6c c23d 916e a73d f099 31bd 5f0e 3a3d
00000030: 6aea 363d 5f4e 763d 816c d4bd 812f d9bd
00000040: a10a 153d 7f6f 6abd 91b1 85bd 7166 df3a
00000050: 6f06 45bc 7184 06bd f9a4 94bc 4f7d d5bd
00000060: 7f66 6cbd 5a34 c2bd f078 603b 8746 0c3d
00000070: 9100 d53d 1ad1 383c 0684 b9bd 4fd7 af3d
00000080: a191 b4bd 71a6 573c 31b2 ad3c 0f61 163b
00000090: d0af 86bd dfff 70bd c12b 02bc b1cf f2bd
000000a0: b1cb a43d d0bf b43d 3090 793d 5feb 1fbd
000000b0: 21c5 01bd ef3a 833d 3123 e2bc 2196 d5bc
000000c0: 2f24 b43d f1dd f9bb 5082 a23d 1f5d 68bd
000000d0: bfbe 883c df73 b4bd b7cc a23b 9f0c 7fbd
000000e0: ffa6 48bd c551 da3d e8c5 043d 67b8 253d
000000f0: 8efa 42bd 701b 893d aa6f 21bd 87e5 1a3c
00000100: 5185 91bc 5aad 2c3d c0fc 58bd 00ae 3bbd
00000110: bf7b 7e3d 803d 0b3d d10c a6bd 7834 923d
00000120: 1f57 833d af14 9a3d e167 67bd 5722 993d
00000130: 0664 b33d c1e8 f43d 9fdf a0bd 20fd 81bd
00000140: 479b 933c 5969 82bd b1a9 f5bd fe70 483b
00000150: 4686 b6bd 31c3 7ebb 61f3 68bd 4a8f b2bd
00000160: 7010 a3bd cfba 53bd 8f14 9abd 3f77 d03d
00000170: 0b17 c13d 3f07 73bd 41d7 a1bd a729 9a3d
00000180: cf3d bfbd 0f42 623d 9fe1 973d 41a9 34ba
00000190: c15d 0abd df71 d0bd caf5 22bc 910c 38bd
000001a0: af59 e53d 81d9 ffbb 3154 5d3a 1f20 d2bd
000001b0: 593d 88bd ef2f f13d 8058 4cbd 3120 d33d
000001c0: cfd3 673d ba42 b33a cfd8 d83d 51b2 aebd
000001d0: 7187 a03d f1d0 36bd 516a 503d 71c8 d9bc
000001e0: 5195 b9bd 2aaa b33d 670c 833d 313e 923d
000001f0: 7769 a7bd 0f55 c53c ff37 8cbd 3fa8 4d3d
00000200: 21d9 73bc 3981 16bd 4057 91bd 21c6 d1bc
00000210: 31fe c5bc 5155 cbbd 117d e4bd ef06 debd
00000220: 00fb 3c3d 5f9b cebc ffdc d5bc 5982 23bd
00000230: e120 debd c11e 9ebd d0e0 e83b 2fbc d8bd
00000240: 171c 8cbc afbf 5dbc 3f7c 71bd cfee 93bd
00000250: b712 09bd ffd0 4dbd 2f73 c6bd a6ff 33bd
00000260: 2189 70bc 3fa4 ddbd 01c5 203d 0751 a1bd
00000270: a13b 97bd f733 a9bd f747 8ebd 3901 a8bd
00000280: f755 09bc 7f3f 9dbd 2902 80bc c907 93bc
00000290: 51d1 cebc e1d5 43bd ff3e 3bbc e7e4 21bd
000002a0: 4765 8ebd 8722 163d efd5 c6bd 590b a1bd
000002b0: 09eb 8bbd 4f0a ddbd ffa4 c6bc e1af e5bc
000002c0: 30a4 96bc b128 003d 27f1 80bd 3fd1 c8bc
000002d0: f0cb eb3b 2f02 03bd 9199 c5bd 71f2 49bd
000002e0: e156 5dbc 0082 7abd c128 83bd a70a a9bc
000002f0: 3133 9abd 8104 c3bd 1923 a8bd 0fd2 d1bd
00000300: c224 4bbd c941 003d 3959 a03b 41f1 97bc
00000310: b149 39bc 419e 3dbd 6fbe 08bd 59bc 90bc
00000320: 69d4 103c df05 bbbc d117 8e3c 2f36 863c
00000330: 0178 4d3d 6a24 ad3d 3122 8db8 bfda 163d
00000340: 41e3 40bd bfa0 10bd da13 2e3d a9de 903d
00000350: 304f 7c3c f189 4a3d 21f6 d23c d17e b03b
00000360: df66 bd3c a1fb c83b c96b 243a 4982 1cbd
00000370: f1f4 04bd c1cc 2abd d5eb 42bd e1bd 3e3d
00000380: 8fbd 48bd e115 103c 4a5a b03d 3f0c 9a3d
00000390: bfaf c739 194a 023d a99f 1bbb 7f7d d43c
000003a0: 31ed 4b3d 0f80 1b3d 9992 29bc d1e5 4ebd
000003b0: dfe8 1dbd 002f 3439 6fa7 443d f075 713c
000003c0: 1161 42bd 4a07 363d e13c d7bb 807a 3dbd
000003d0: df50 003d 1f42 373d f7d9 0cbd a8ac 033d
000003e0: 8125 3d3d cfab 423d 5fc1 483d bf5a 4fbc
000003f0: 9f32 aa3c 30bc 1f3d 07e2 8abc 0063 7fbb
-0.048987094 0.004755311 -0.09306868 -0.022540124 0.07144176 0.048694212 -0.073705494 0.046077248
0.09493398 0.08175386 -0.043359697 0.04542386 0.04465715 0.060133334 -0.10372258 -0.10604764
0.03638709 -0.057235237 -0.06528009 0.001704408 -0.01202546 -0.03284115 -0.018145071 -0.10424291
-0.057714935 -0.094826415 0.0034251772 0.034246948 0.10400499 0.011280322 -0.090583846 0.08585989
-0.08816839 0.013162241 0.021203132 0.0022946035 -0.06576502 -0.058837768 -0.007945002 -0.1185602
0.080466636 0.08825648 0.060928524 -0.039042827 -0.031682137 0.06407725 -0.027604671 -0.026072564
0.08795964 -0.0076253344 0.079350114 -0.056729432 0.016692517 -0.08811163 0.0049682516 -0.062267896
-0.048987385 0.106601276 0.0324153 0.040459063 -0.04760223 0.066946864 -0.03941313 0.009454138
-0.017763766 0.04215751 -0.052975416 -0.045820236 0.062129732 0.033994198 -0.08107913 0.07138914
0.064131014 0.07523476 -0.05649555 0.07477253 0.08759312 0.11958457 -0.07855152 -0.06347108
0.018018378 -0.0636775 -0.11995257 0.0030584927 -0.089123294 -0.0038873667 -0.05687273 -0.087187365
-0.079621196 -0.051691826 -0.075234525 0.101789944 0.09428223 -0.059333082 -0.079023845 0.07527476
-0.09337961 0.05523878 0.07416081 -0.0006891676 -0.033780817 -0.10177969 -0.009946296 -0.04493386
0.111987464 -0.007807911 0.00084430265 -0.10260033 -0.06652326 0.11776721 -0.049889088 0.103088744
0.05659848 0.0013676502 0.10588228 -0.08530105 0.078383334 -0.044632856 0.05088264 -0.026584836
-0.09061683 0.087726906 0.0639885 0.07140768 -0.08174413 0.02408841 -0.06846618 0.05020928
-0.0148833105 -0.03674433 -0.0709672 -0.02560717 -0.02416906 -0.09928382 -0.11156667 -0.10841166
0.04613781 -0.025220571 -0.026106356 -0.03991923 -0.10846115 -0.077207096 0.007106878 -0.10582768
-0.017103238 -0.01353447 -0.05895638 -0.072232835 -0.033465113 -0.050248142 -0.09689938 -0.043944977
-0.014681132 -0.10822343 0.039250378 -0.07876783 -0.0738442 -0.08261865 -0.0694732 -0.08203358
-0.008382312 -0.076781265 -0.01562603 -0.017948048 -0.025246294 -0.047811393 -0.011428594 -0.03952494
-0.06952911 0.03665402 -0.09708773 -0.078634925 -0.06831939 -0.10792982 -0.024248598 -0.028037967
-0.018388838 0.031288806 -0.06295996 -0.024513839 0.007195942 -0.031984504 -0.09648431 -0.049303476
-0.013509483 -0.061159134 -0.064042576 -0.020634962 -0.07529295 -0.095223434 -0.08209819 -0.102451436
-0.0495956 0.031312738 0.0048934487 -0.018547656 -0.011309073 -0.0462935 -0.033384737 -0.017667936
0.008839705 -0.022829948 0.01734534 0.016383259 0.050163273 0.08454211 -6.7297726e-05 0.036829706
-0.047091726 -0.03530955 0.0424994 0.07073719 0.015399739 0.049447957 0.025752129 0.0053862114
0.023120342 0.006133512 0.0006272165 -0.038210187 -0.032460157 -0.041699175 -0.04758819 0.0465678
-0.049008902 0.008794279 0.08610971 0.07521867 0.0003808718 0.031808946 -0.0023746288 0.025938747
0.04978675 0.037963923 -0.010349893 -0.05051214 -0.03855216 0.00017183647 0.04801124 0.014737591
-0.04745585 0.044440545 -0.0065685366 -0.046259403 0.031327125 0.044740792 -0.034387555 0.03214708
0.046178345 0.04752713 0.049012538 -0.012655913 0.020776091 0.03899783 -0.016953481 -0.003896892

linear0.bias f4 [32]
00000000: f12f c4bd 069f 2bbe 2bb2 b23d 81e5 8ebe
00000010: 91d9 bcbc 312e ccbd 8f0d e4bc 2cf3 d43e
00000020: 4f88 23be 0f9f a3bd 11df e6be b745 84be
00000030: d72c 8dbe 3bb6 c8be a115 693d 4f43 67be
00000040: 79d2 91be 418d 833d 9e5c 4bbe f1c5 b7bd
00000050: 7fe2 72bd c010 43bc b272 933d c0ea 393e
00000060: 99a2 283c 5f95 2abe 0a40 94bb a633 3ebd
00000070: 8d5a 293d b89a 91bd 315b 70be b12c 6abe
-0.095794566 -0.16759881 0.08725389 -0.27909473 -0.023052962 -0.09969748 -0.027838496 0.41591775
-0.15969966 -0.079893224 -0.4509206 -0.25834438 -0.27573273 -0.3920153 0.056905393 -0.2258427
-0.2848089 0.064234264 -0.1985955 -0.08973301 -0.059298035 -0.011905849 0.07199611 0.18155956
0.010292673 -0.16658543 -0.0045242356 -0.046435975 0.04134612 -0.071095884 -0.23472287 -0.22868611
