model/1715146453/2_Pee1_global_model_2.pth (torch, 331092 bytes, 17 tensors)

conv1.lin_l.weight f4 [16, 1]
-0.6334601 -0.013591274 -0.68531805 -0.65233713 -0.5012036 0.28565958 -0.83615214 -0.14616297
-0.6355871 0.07666742 -0.26635146 -0.8831297 0.05170904 -0.48561284 0.38197303 -0.4542189
00000000: 712a 22bf efad 5ebc 0171 2fbf 91ff 26bf
00000010: e14e 00bf f941 923e 110e 56bf bfab 15be
00000020: d6b5 22bf cf03 9d3d 385f 88be ca14 62bf
00000030: dccc 533d 3fa2 f8be f891 c33e 618f e8be

conv1.lin_l.bias f4 [16]
-0.15507135 0.59276354 -1.0747067 0.3726072 0.44345948 -0.27640587 -0.8193007 0.39994672
0.66717523 -0.7045165 0.6323785 -0.9466631 0.49821007 -0.25876093 -0.39963713 -0.10611689
00000000: 06cb 1ebe 5abf 173f fd8f 89bf 5fc6 be3e
00000010: 1f0d e33e 1285 8dbe b1bd 51bf d1c5 cc3e
00000020: ffcb 2a3f 315b 34bf 8fe3 213f 8358 72bf
00000030: 6415 ff3e 507c 84be 3d9d ccbe d053 d9bd

conv1.lin_r.weight f4 [16, 1]
-0.9989901 -0.50206953 0.19173874 -0.8566237 -0.32308248 0.5801658 -0.72006387 0.123845875
-0.48814818 -0.8261302 -0.8413419 0.10224425 -0.76664954 -0.7957745 -0.2693028 -0.05595827
00000000: d1bd 7fbf a187 00bf 2957 443e b14b 5bbf
00000010: 116b a5be bf85 143f 1b56 38bf e8a2 fd3d
00000020: 8fee f9be 457d 53bf 2f62 57bf 6f65 d13d
00000030: 2543 44bf e1b7 4bbf 0ee2 89be 8034 65bd

conv2.lin_l.weight f4 [64, 16]
-0.08427752 0.13972233 -0.022549449 0.14020409 -0.03374723 -0.055180077 -0.14773536 0.097747445
0.12324976 0.04653376 -0.1315962 0.139912 0.07684071 0.16033378 -0.3813295 -0.18962981
0.14803419 -0.2888319 0.08040858 0.16936852 0.0704292 0.04922885 -0.07873035 -0.26323104
0.2099054 -0.26740977 -0.23672439 -0.07656591 -0.21981622 -0.1517396 -0.29915684 -0.11138856
-0.065386064 -0.08937899 0.15624057 -0.013700932 0.005753547 -0.011992929 0.11052061 0.13974828
0.08933095 -0.09887492 -0.009987295 0.08971345 -0.06739383 -0.12970926 -0.29300785 -0.19611502
0.12121331 -0.22913621 -0.09821092 0.11344779 0.113770954 -0.28236416 0.01772046 -0.15464959
0.02331385 -0.3572949 0.15869428 -0.016463399 -0.33238885 0.18731068 0.104316235 -0.12437714
0.19085144 0.10846365 -0.18174322 0.08218746 -0.012930304 -0.21696448 0.17093396 -0.32568356
0.15620588 -0.2371266 0.24876404 -0.06270767 -0.15412737 -0.1592703 -0.31929728 -0.18094064
-0.19591497 -0.06981135 -0.259325 -0.11940432 0.23986913 -0.14378342 -0.10865724 -0.041834872
0.23855497 -0.2369151 0.15158366 -0.38082072 -0.33160287 0.02843234 -0.44977716 -0.12520814
-0.20645191 -0.07974 -0.10667945 0.004837841 -0.20504381 -0.30723652 -0.1587062 -0.27381313
0.009573132 0.15345338 -0.19751789 0.1687588 0.17877877 0.24839424 -0.13482244 0.027399033
0.111181386 -0.20473884 -0.11414968 -0.097934596 0.13935852 -0.13703729 -0.16741993 -0.28351447
-0.113164656 -0.02299315 -0.18451856 -0.25906822 -0.085006006 -0.099372394 -0.20080684 -0.14849283
-0.029346377 0.043157518 -0.12647535 -0.095003836 0.13184524 -0.1320071 -0.24537943 0.1186068
0.105291255 0.20759107 0.09570313 -0.006597042 0.0622561 0.20592095 -0.008379608 -0.15248157
-0.049477637 -0.17939751 0.074196026 0.07090462 -0.19846581 -0.22749378 -0.21685575 -0.11089038
0.03219682 0.10214985 -0.24110316 -0.3071211 0.09143699 0.23576213 0.11451446 0.03650093
-0.06437194 -0.024973124 0.13289477 0.14592363 -0.04820812 -0.20030116 -0.11584747 0.17298897
-0.1250887 0.06365787 0.10120583 -0.123205304 -0.17045252 0.21083735 0.171719 -0.041475594
-0.19321682 -0.1736405 0.02870369 0.12421477 0.21798755 0.08939957 0.013853639 -0.15982214
0.14906956 0.001219441 -0.23714946 -0.09423684 -0.0682329 0.017175764 -0.30933923 -0.19893457
-0.19601367 -0.13575982 -0.018996863 -0.12479221 0.2104211 -0.103215925 0.036284328 -0.1615362
-0.1274588 -0.08549889 0.13154529 0.03752909 0.1030687 0.052440528 0.14662465 0.02360183
-0.061128024 -0.1270461 -0.03214995 0.16082408 0.09554351 0.064647086 -0.16065454 0.020556975
0.1771233 0.12800452 -0.17394622 -0.08552777 0.018476952 -0.035605967 0.018935267 0.06701076
0.18925522 0.07930927 0.18195535 0.124269366 -0.211838 -0.13690604 0.21903539 -0.018795997
-0.13709913 0.23191331 0.028522909 -0.13677622 -0.21788834 -0.0069352686 0.06748044 -0.051966075
0.14522721 0.2730467 0.14030506 0.18289113 0.11888481 0.023815306 -0.015897036 0.013550519
-0.22296833 0.017018003 0.116096504 0.01906569 -0.008575677 0.09963585 0.05328292 0.0070189238
00000000: b199 acbd 5f13 0f3e 9fb9 b8bc a991 0f3e
00000010: 893a 0abd 8104 62bd f047 17be d02f c83d
00000020: 5f6a fc3d 2f9a 3e3d 27c1 06be 1745 0f3e
00000030: aa5e 9d3d 8a2e 243e 9f3d c3be 512e 42be
00000040: 4696 173e c6e1 93be 41ad a43d f16e 2d3e
00000050: 2f3d 903d 31a4 493d 613d a1bd 38c6 86be
00000060: 71f1 563e efe9 88be e167 72be 96ce 9cbd
00000070: 8117 61be a061 1bbe 162b 99be af1f e4bd
00000080: 21e9 85bd 550c b7bd 87fd 1f3e e079 60bc
00000090: 4088 bc3b fd7d 44bc a158 e23d 2c1a 0f3e
000000a0: 25f3 b63d ef7e cabd c0a1 23bc afbb b73d
000000b0: c705 8abd 81d2 04be 2005 96be 60d2 48be
000000c0: af3e f83d afa2 6abe cf22 c9bd 5157 e83d
000000d0: bf00 e93d 0992 90be 802a 913c 765c 1ebe
000000e0: b0fc be3c 5bef b6be c180 223e 40de 86bc
000000f0: df2e aabe 5fce 3f3e c0a3 d53d 71b9 febd
00000100: 8f6e 433e 3122 de3d e51a 3abe e651 a83d
00000110: a0d9 53bc f02b 5ebe 5009 2f3e ffbf a6be
00000120: 6ff4 1f3e 51d1 72be 00bc 7e3e e16c 80bd
00000130: 91d3 1dbe c117 23be ef7a a3be 8148 39be
00000140: ef9d 48be 41f9 8ebd 3fc6 84be 418a f4bd
00000150: 41a0 753e f63b 13be b087 debd 0b5b 2bbd
00000160: c147 743e df99 72be bf38 1b3e effa c2be
00000170: dac7 a9be f0ea e83c 3149 e6be 9036 00be
00000180: 2168 53be ba4e a3bd c17a dabd c086 9e3b
00000190: 01f7 51be 1b4e 9dbe e183 22be 3c31 8cbe
000001a0: a0d8 1c3c e222 1d3e 2142 4abe 1bcf 2c3e
000001b0: c811 373e 0f5b 7e3e e50e 0abe f073 e03c
000001c0: 11b3 e33d 0fa7 51be 4fc7 e9bd ef91 c8bd
000001d0: 00b4 0e3e 8153 0cbe 2170 2bbe cf28 91be
000001e0: dfc2 e7bd 215c bcbc 6ff2 3cbe 97a4 84be
000001f0: a117 aebd c183 cbbd 4fa0 4dbe 810e 18be
00000200: d067 f0bc f0c5 303d c182 01be 5f91 c2bd
00000210: 7002 073e df2c 07be bf44 7bbe 1fe8 f23d
00000220: f1a2 d73d c192 543e 0100 c43d 002c d8bb
00000230: 4100 7f3d f1dc 523e a04a 09bc 2124 1cbe
00000240: 10a9 4abd fbb3 37be 16f4 973d 7136 913d
00000250: 9f3a 4bbe 21f4 68be 6f0f 5ebe 7f1a e3bd
00000260: d0e0 033d f133 d13d bfe3 76be fa3e 9dbe
00000270: 5143 bb3d a16b 713e 8f86 ea3d 0082 153d
00000280: 70d5 83bd 7094 ccbc 9115 083e 016d 153e
00000290: e175 45bd bf1b 4dbe 7041 edbd 0524 313e
000002a0: 4117 00be 0f5f 823d 0145 cf3d 1053 fcbd
000002b0: 1b8b 2ebe bfe5 573e 1bd7 2f3e 50e2 29bd
000002c0: a1da 45be d1ce 31be 0024 eb3c 5064 fe3d
000002d0: 2138 5f3e 1f17 b73d 60fa 623c 6aa8 23be
000002e0: b1a5 183e a6d5 9f3a 4fd7 72be 3fff c0bd
000002f0: b1bd 8bbd 30b4 8c3c b661 9ebe 81b5 4bbe
00000300: cfb7 48be 9f04 0bbe 4f9f 9bbc 0f93 ffbd
00000310: a178 573e df62 d3bd e09e 143d bf69 25be
00000320: 8f84 02be 0b1a afbd cfb3 063e 1ab8 193d
00000330: af15 d33d e1cb 563d c624 163e a058 c13c
00000340: 6161 7abd 5f18 02be aaaf 03bd 11af 243e
00000350: 51ac c33d b165 843d a082 24be 1a67 a83c
00000360: cf5f 353e 9e13 033e f51e 32be 2f29 afbd
00000370: fa5c 973c 90d7 11bd 221e 9b3c f03c 893d
00000380: 1fcc 413e e66c a23d 8152 3a3e f080 fe3d
00000390: 10ec 58be 1931 0cbe d04a 603e 10fa 99bc
000003a0: b763 0cbe af7a 6d3e e0a8 e93c 110f 0cbe
000003b0: 1f1e 5fbe 4041 e3bb 2f33 8a3d 61da 54bd
000003c0: 71b6 143e c7cc 8b3e 21ac 0f3e d047 3b3e
000003d0: e179 f33d 5118 c33c 803a 82bc ff02 5e3c
000003e0: cf51 64be 5769 8b3c 01c4 ed3d a62f 9c3c
000003f0: ff80 0cbc e10d cc3d 313f 5a3d 00ff e53b

conv2.lin_l.bias f4 [64]
-0.073682025 -0.121060126 -0.3297073 -0.36612275 -0.10823833 -0.3478665 0.16926698 0.05007839
0.050987124 -0.2024424 0.050680697 0.03352082 0.12658857 0.016610902 -0.20958589 -0.24021791
-0.07744102 -0.23096941 -0.29277515 -0.30758354 -0.23596026 0.08444663 -0.100493915 -0.055334207
0.17142598 -0.15399958 0.1272881 -0.09868837 -0.2660024 0.084032886 -0.29004958 -0.43923905
-0.21321772 0.1966903 -0.1092192 -0.16446266 -0.30353925 0.15746656 0.17237067 0.11153853
-0.039574288 -0.10709094 -0.008297317 -0.1468598 -0.11810742 -0.025373818 -0.20284332 -0.3879814
-0.31628913 -0.3544275 0.035104994 -0.20995952 -0.08405436 -0.08302812 0.14973295 0.08931307
-0.34455684 0.18843724 -0.122067444 -0.18227623 0.090642564 0.07788289 0.15250824 0.018249113
00000000: 9ae6 96bd 5fee f7bd 65cf a8be 7174 bbbe
00000010: 0fac ddbd 8f1b b2be 5354 2d3e ff1e 4d3d
00000020: e0d7 503d 0f4d 4fbe 9096 4f3d 214d 093d
00000030: 6fa0 013e 9613 883c af9d 56be affb 75be
00000040: 6699 9ebd 3f83 6cbe a0e6 95be 977b 9dbe
00000050: 919f 71be 5bf2 ac3d c1cf cdbd 1fa6 62bd
00000060: 4b8a 2f3e 11b2 1dbe d057 023e 211d cabd
00000070: 7731 88be 6f19 ac3d 6181 94be f1e3 e0be
00000080: bf55 5abe 2f69 493e 51ae dfbd e668 28be
00000090: 7f69 9bbe ea3e 213e f081 303e 506e e43d
000000a0: a618 22bd 7f52 dbbd 78f1 07bc 6a62 16be
000000b0: 4ee2 f1bd c1dc cfbc 29b6 4fbe 80a5 c6be
000000c0: a6f0 a1be 8577 b5be 41ca 0f3d a1ff 56be
000000d0: b124 acbd a60a aabd 9853 193e c5e9 b63d
000000e0: c169 b0be b1f5 403e 7ffe f9bd 9fa6 3abe
000000f0: cfa2 b93d 1181 9f3d 1f2b 1c3e 2a7f 953c

conv2.lin_r.weight f4 [64, 16]
-0.15914464 0.09569944 -0.29492232 0.08150221 -0.14393352 0.06429934 0.16218266 -0.19962095
-0.13148735 0.12519585 -0.089616336 -0.16177581 -0.15853284 -0.17683928 -0.13480772 0.12976836
-0.03512788 -0.26067355 -0.28269985 0.016950905 0.13161612 -0.15129851 -0.1640463 0.019991366
0.16579674 -0.10461975 -0.097168215 0.037211098 -0.26647612 -0.16072772 0.06824046 0.13796593
0.11234332 0.1638477 0.18738987 0.12603976 0.15632416 -0.006932489 0.06500864 -0.061028603
0.18393923 -0.09901276 -0.22260952 0.2411096 0.2141968 -0.19642662 -0.0947218 -0.21935509
0.04707277 0.059509397 -0.099107735 -0.05082273 0.09323705 0.0067165424 0.21357013 -0.30115417
0.19286084 -0.23743774 -0.07338356 0.108274944 -0.025195748 0.05173767 -0.13611434 -0.080021985
0.021430492 0.03364086 -0.23577596 -0.04351296 0.11712659 0.10406064 -0.13533343 0.030973164
0.0035090148 0.0103414515 0.0671429 0.0845019 0.08100502 -0.23610924 -0.0442853 0.06781375
-0.13473772 -0.5273723 -0.13930084 0.04820216 0.033332556 -0.28715852 0.16214776 -0.5091706
-0.15232834 -0.51057917 -0.24402308 -0.36275974 -0.43875358 -0.12843753 -0.19127752 -0.108742476
-0.07652219 -0.22559713 -0.103284895 0.1536549 0.1879382 0.11678707 -0.073368624 0.13466561
-0.1580163 -0.036818262 0.21052264 -0.22056602 0.103724964 0.00067058206 0.0067096422 -0.22981642
0.23275949 -0.28128102 -0.2382076 -0.09475852 -0.062386036 0.02600011 -0.053956512 0.13967548
-0.23725413 0.1214261 -0.19835661 0.21396829 -0.24519633 0.028803706 -0.054090854 -0.110080354
0.09268642 0.21994282 -0.06071997 -0.17912124 -0.13583682 -0.113143325 0.13043965 -0.2024877
0.18257235 0.07981424 0.07532008 -0.17616437 -0.11230218 -0.14883329 0.10649682 0.10548437
0.18600965 -0.0029749533 0.057586614 0.062264264 -0.054846823 0.039448623 -0.17586206 -0.22768901
0.04490602 -0.016141117 0.024757862 -0.008615897 -0.18794678 -0.10040354 -0.12114037 -0.035085354
-0.088095896 0.19744705 0.14986204 -0.23460771 0.09401845 -0.21550323 0.08739698 -0.24280857
0.035067353 -0.15115665 0.24661541 -0.21980856 -0.12346221 0.23569776 -0.048575994 0.24422027
-0.054732922 0.1378286 -0.24341036 0.043082118 0.065488696 -0.06251847 -0.124089606 -0.23221205
0.11020423 -0.085594304 0.1723756 0.17958133 0.15087937 0.073818445 -0.1911733 0.175004
-0.18433382 -0.01125601 -0.0894111 0.15148401 0.154119 -0.18347834 0.16086349 0.093133695
0.08089625 -0.120275386 -0.15546606 -0.23000287 -0.17848085 -0.20504497 0.02491963 0.17866252
0.2208526 -0.13806438 -0.12765025 0.22004937 0.023060888 -0.07037018 0.12523174 -0.19295932
-0.17306496 -0.14189361 -0.09462046 0.06846351 -0.12759946 0.24619077 -0.20419408 -0.14212298
0.1751991 0.23888494 -0.23299576 -0.19454144 -0.12575255 -0.09635068 -0.21328545 0.1030562
0.07141178 0.07568097 0.053414166 0.22747447 -0.07263391 -0.17538531 0.047666077 0.15018272
-0.2201817 -0.07113277 -0.0023417508 0.055940393 -0.01831907 -0.07626795 0.003506571 0.052552406
-0.03501141 -0.09791266 0.11071993 0.04871613 0.19967078 0.07268071 -0.13625433 -0.087154746
00000000: d0f6 22be 11fe c33d 0f00 97be a1ea a63d
00000010: 4f63 13be 5faf 833d 3613 263e 6f69 4cbe
00000020: 9fa4 06be 5733 003e c588 b7bd 8fa8 25be
00000030: 6f56 22be 5b15 35be 090b 0abe ffe1 043e
00000040: 40e2 0fbd 0177 85be 09be 90be a0dc 8a3c
00000050: 60c6 063e ffed 1abe c1fb 27be efc4 a33c
00000060: 9fc6 293e e142 d6bd 2100 c7bd aa6a 183d
00000070: 8f6f 88be cf95 24be a7c1 8b3d f146 0d3e
00000080: 4114 e63d b1c7 273e 21e3 3f3e 9110 013e
00000090: 7113 203e ef29 e3bb 4023 853d 21f9 79bd
000000a0: 915a 3c3e 34c7 cabd c0f3 63be 6fe5 763e
000000b0: 6856 5b3e 0f24 49be 81fd c1bd 9f9e 60be
000000c0: 60cf 403d 20c0 733d fff8 cabd 7f2b 50bd
000000d0: 11f3 be3d 7116 dc3b 21b2 5a3e e130 9abe
000000e0: 507d 453e e122 73be 1f4a 96bd 41bf dd3d
000000f0: 5067 cebc e1ea 533d 8f61 0bbe 91e2 a3bd
00000100: 008f af3c 00cb 093d 416f 71be a53a 32bd
00000110: 11e0 ef3d bf1d d53d d994 0abe 6fbb fd3c
00000120: 80f7 653b 316f 293c 3782 893d 550f ad3d
00000130: f6e5 a53d 9fc6 71be 8164 35bd efe1 8a3d
00000140: aff8 09be df01 07bf e1a4 0ebe a16f 453d
00000150: b887 083d 7106 93be 100a 263e 0159 02bf
00000160: f6fb 1bbe 51b5 02bf 30e1 79be a5bb b9be
00000170: 4fa4 e0be 2185 03be 41de 43be 60b4 debd
00000180: aab7 9cbd ef02 67be 0887 d3bd b657 1d3e
00000190: df72 403e 0f2e ef3d 4a42 96bd c8e5 093e
000001a0: 06cf 21be bfce 16bd 3f93 573e 0fdc 61be
000001b0: c16d d43d 00ca 2f3a 8fdc db3b ff54 6bbe
000001c0: 8158 6e3e 1104 90be b1ec 73be c110 c2bd
000001d0: 8088 7fbd 2ffe d43c 8101 5dbd 1707 0f3e
000001e0: bff2 72be 3fae f83d ff1d 4bbe 811a 5b3e
000001f0: bf14 7bbe c0f5 eb3c 5f8e 5dbd cf71 e1bd
00000200: 61d2 bd3d b138 613e 81b5 78bd 8f6b 37be
00000210: cf18 0bbe b0b7 e7bd f991 053e f058 4fbe
00000220: 3ff4 3a3e a675 a33d 6a41 9a3d 6f64 34be
00000230: affe e5bd c167 18be 011b da3d 3008 d83d
00000240: 5079 3e3e 6ff7 42bb f1df 6b3d d008 7f3d
00000250: 10a7 60bd e194 213d 2f15 34be 4f27 69be
00000260: 60ef 373d 603a 84bc 00d1 ca3c b129 0dbc
00000270: 1f75 40be 5fa0 cdbd 7118 f8bd a9b5 0fbd
00000280: 9f6b b4bd 8f2f 4a3e 6f75 193e 013d 70be
00000290: bf8c c03d e1ac 5cbe 30fd b23d cfa2 78be
000002a0: c9a2 0f3d cfc8 1abe c088 7c3e 7f15 61be
000002b0: c1d9 fcbd c15a 713e 9ff7 46bd e114 7a3e
000002c0: a12f 60bd f122 0d3e 9140 79be e076 303d
000002d0: f01e 863d af09 80bd b122 febd ffc8 6dbe
000002e0: c1b2 e13d 114c afbd 3b83 303e 2be4 373e
000002f0: 1f80 1a3e 202e 973d efc2 43be 4034 333e
00000300: 01c2 3cbe 216b 38bc 2b1d b7bd a01e 1b3e
00000310: 5fd1 1d3e bfe1 3bbe 66b9 243e e1bc be3d
00000320: efac a53d f152 f6bd 7f32 1fbe df85 6bbe
00000330: afc3 36be 4ff7 51be 4024 cc3c 4ff3 363e
00000340: 2f27 623e c060 0dbe bfb6 02be 9f54 613e
00000350: 30ea bc3c 3e1e 90bd c03c 003e 2197 45be
00000360: f137 31be 8f4c 11be 5fc8 c1bd 9936 8c3d
00000370: 6fa9 02be 6f19 7c3e 4118 51be b088 11be
00000380: 6567 333e 419e 743e 7196 6ebe df35 47be
00000390: 47c5 00be 8153 c5bd 8067 5abe 210f d33d
000003a0: 5740 923d a0fe 9a3d d0c8 5a3d 11ef 683e
000003b0: 16c1 94bd 3598 33be 813d 433d 80c9 193e
000003c0: 5077 61be 0fae 91bd 0f78 19bb c121 653d
000003d0: e011 96bc 5f32 9cbd 80ce 653b 3141 573d
000003e0: 2068 0fbd 6f86 c8bd 21c1 e23d 918a 473d
000003f0: 7f76 4c3e a0d9 943d 4186 0bbe 307e b2bd

lstm_cell.weight_ih f4 [256, 192]
0.12534903 0.18456721 -0.07233586 0.01870634 0.04131273 -0.18085106 0.048514653 0.068061285
-0.103556864 -0.023078708 0.087863244 0.14156522 0.13649367 0.19092372 0.0053974986 -0.20258762
0.038161956 0.1679957 -0.0119259795 0.13241738 0.109715946 0.01020229 0.042368013 0.059023377
-0.035809636 0.123235695 0.11657382 0.17644589 -0.046765033 -0.35886762 0.19198583 -0.048709575
-0.011501595 0.1821027 -0.1975012 0.15805665 0.016428234 -0.12411059 0.04071402 -0.03495821
-0.14021228 0.10068512 0.09762906 0.13591494 0.20453435 -0.0110847065 0.08587999 -0.046352684
-0.00071078906 -0.012763545 -0.041017175 0.10591804 0.08288229 0.15472922 0.19877188 -0.0005657306
0.11738253 0.16470505 -0.0013483876 0.21395017 0.1520245 0.11589742 -0.05456811 0.074050196
-1.0364279 3.3900652 2.6476502 2.8302455 2.2862191 5.7097616 7.1844883 -0.087543875
5.6848307 7.598354 7.515173 6.6186404 6.3579082 6.7447734 8.781967 7.6538177
7.9084983 6.795563 7.472786 7.418591 7.414874 0.0858959 8.37535 5.3272643
7.1902657 7.178766 7.002164 8.085931 7.3177834 -0.001007125 0.052886102 0.060466856
-0.050356615 -0.109129675 0.023099473 0.008417361 0.0416606 0.041533474 -0.14478546 0.004586354
0.070724495 -0.0077503175 -0.11703991 -0.11218978 0.0036095977 -0.031835973 0.014470324 -0.052089453
-0.074002504 0.032598253 -0.030691087 0.00450933 -0.012902945 -0.081078045 -0.0864983 -0.12036837
0.097165935 0.011496246 -0.08970932 0.11344337 -0.085067265 -0.112537496 0.04763532 -0.07064635
-0.031100394 1.9809444 1.2811822 -0.47431052 -0.53978354 2.3240094 0.10373878 3.3544476
6.646538 5.8378844 -0.094606996 7.382921 7.714539 7.776445 0.10055739 8.381871
9.068727 8.035205 7.5701494 7.1732135 6.881766 6.4613895 0.012487344 8.276727
6.455654 3.5019221 0.050371602 7.0186186 4.13748 8.608436 0.11192486 0.05580837
0.05007676 0.07681571 -0.13536231 -0.06334104 -0.10789859 -0.11117451 -0.065159 -0.11558631
0.04926544 0.114358656 0.07089233 -0.04026675 -0.031795565 0.053090457 0.089297764 -0.09574664
-0.08152826 -0.04629856 -0.069802456 0.042170186 -0.12133003 0.090500474 -0.0029143244 0.111027606
0.040096227 -0.06411386 -0.035287857 -0.08405379 0.03863845 -0.082351096 0.1183138 0.08915006
0.046630856 0.03918993 0.5566361 0.101315506 0.08719329 -0.14309874 -0.012990739 0.030439107
-0.013762906 -0.027525486 0.122755535 0.0066912402 -0.034619477 0.38946012 -0.082056925 0.59261805
0.01701294 0.052489165 -0.03143919 0.12040031 0.18529151 0.07984924 -0.050017837 0.17486222
0.06219375 0.054746088 0.00871782 0.29642108 -0.008543038 0.70130926 0.5808121 0.041279353
0.06656312 -0.052273747 0.83819395 -0.043576594 -0.048792478 0.1082189 -0.026499212 0.01592432
0.67901707 0.024303854 0.7672071 0.12856509 0.35211304 0.13093008 0.04031565 0.07808046
-0.08460092 0.036296643 0.35667273 -0.16726206 -0.093719356 -0.07354303 0.118817836 0.026207538
-0.077956244 0.1361245 0.15809919 0.055046912 0.051229235 -0.055189844 -0.028061448 0.03206295
00000000: 7f5b 003e 30ff 3c3e d324 94bd 0a3e 993c
00000010: 8a37 293d 0531 39be 4db7 463d b763 8b3d
00000020: 9f15 d4bd 8f0f bdbc a5f1 b33d 79f6 103e
00000030: ffc4 0b3e 8281 433e 80dd b03b 2173 4fbe
00000040: b64f 1c3d 1107 2c3e 2f65 43bc 6c98 073e
00000050: c1b2 e03d 8127 273c 158a 2d3d 7fc2 713d
00000060: 20ad 12bd ff62 fc3d 41be ee3d 3bae 343e
00000070: b18c 3fbd 7fbd b7be ef97 443e b183 47bd
00000080: 3071 3cbc 2179 3a3e c13d 4abe 9ad9 213e
00000090: 8194 863c b12d febd bfc3 263d 5730 0fbd
000000a0: cf93 0fbe 0034 ce3d bff1 c73d 492d 0b3e
000000b0: 7471 513e a19c 35bc d9e1 af3d 50dc 3dbd
000000c0: 3f54 3aba 301e 51bc a001 28bd 8feb d83d
000000d0: 31be a93d 5671 1e3e db8a 4b3e 8a4d 14ba
000000e0: 4066 f03d 71a8 283e 61bc b0ba c115 5b3e
000000f0: 4fac 1b3e a05b ed3d cf82 5fbd a1a7 973d
00000100: aba9 84bf d4f6 5840 1a73 2940 be22 3540
00000110: 6a51 1240 5eb6 b640 54e7 e540 344a b3bd
00000120: 22ea b540 b725 f340 4c7c f040 e7cb d340
00000130: fc73 cb40 2fd5 d740 f082 0c41 13ec f440
00000140: 6b12 fd40 4175 d940 1021 ef40 1965 ed40
00000150: a646 ed40 31ea af3d 6f01 0641 f378 aa40
00000160: a816 e640 73b8 e540 ba11 e040 f95f 0141
00000170: 482b ea40 8201 84ba 199f 583d 18ac 773d
00000180: bd42 4ebd 617f dfbd 1b3b bd3c f9e8 093c
00000190: 4ea4 2a3d 011f 2a3d a442 14be 2049 963b
000001a0: 01d8 903d 60f6 fdbb 9fb2 efbd c1c3 e5bd
000001b0: 008f 6c3b 7066 02bd f014 6d3c c05b 55bd
000001c0: a08e 97bd bf85 053d e06b fbbc 00c3 933b
000001d0: e066 53bc 3f0c a6bd 0526 b1bd b183 f6bd
000001e0: effe c63d c05a 3c3c 85b9 b7bd ff54 e83d
000001f0: bf37 aebd 0f7a e6bd 411d 433d 09af 90bd
00000200: 41c6 febc 968f fd3f c7fd a33f d4d8 f2be
00000210: 412f 0abf 92bc 1440 ff74 d43d 45af 5640
00000220: 70b0 d440 f3cf ba40 50c1 c1bd e440 ec40
00000230: 81dd f640 a3d8 f840 08f1 cd3d 251c 0641
00000240: 8119 1141 3390 0041 aa3e f240 f78a e540
00000250: 6d37 dc40 b4c3 ce40 b897 4c3c 796d 0441
00000260: b894 ce40 7e1f 6040 7452 4e3d 8698 e040
00000270: 3c66 8440 27bc 0941 dc38 e53d 5197 643d
00000280: 4a1d 4d3d 8e51 9d3d 6b9c 0abe f2b8 81bd
00000290: f0f9 dcbd 76af e3bd 1572 85bd 84b8 ecbd
000002a0: 8fca 493d df34 ea3d ff2f 913d bfee 24bd
000002b0: 113c 02bd 6175 593d bfe1 b63d d016 c4bd
000002c0: 4af8 a6bd 8fa3 3dbd 97f4 8ebd a5ba 2c3d
000002d0: e17b f8bd 5058 b93d 40fe 3ebb 7162 e33d
000002e0: f13b 243d 214e 83bd 008a 10bd 6524 acbd
000002f0: 5a43 1e3d b1a7 a8bd 814e f23d 4f94 b63d
00000300: ffff 3e3d 9f85 203d b47f 0e3f 817e cf3d
00000310: 6592 b23d 7a88 12be 1cd7 54bc 6f5b f93c
00000320: d07d 61bc 217d e1bc 4167 fb3d 3142 db3b
00000330: 27cd 0dbd 5167 c73e 760d a8bd d1b5 173f
00000340: b95e 8b3c e1fe 563d 61c6 00bd 7094 f63d
00000350: 0fbd 3d3e 0088 a33d 81df 4cbd 150f 333e
00000360: e0be 7e3d 6f3d 603d 30d5 0e3c 81c4 973e
00000370: 19f8 0bbc 0189 333f 1ab0 143f 8a14 293d
00000380: 3f52 883d ff1c 56bd e193 563f 5f7d 32bd
00000390: 9fda 47bd dfa1 dd3d e014 d9bc b873 823c
000003a0: 10d4 2d3f e018 c73c af67 443f 91a6 033e
000003b0: 2948 b43e 8912 063e 0622 253d a6e8 9f3d
000003c0: 3f43 adbd caab 143d cf9d b63e bf46 2bbe
000003d0: efef bfbd ba9d 96bd c456 f33d 31b1 d63c
000003e0: 86a7 9fbd 3964 0b3e c1e4 213e df78 613d
000003f0: bfd5 513d bf0e 62bd 1fe1 e5bc 7154 033d

lstm_cell.weight_hh f4 [256, 64]
0.45681754 0.3798518 1.0691339 -4.184689 1.3379432 -2.8210325 -2.3961124 2.4330401
3.4816775 0.78232527 0.44144893 -1.2772379 -0.043172203 -1.4459124 -1.8504205 -0.21902344
-0.8045639 0.60337466 -3.1351905 -1.5430481 -0.049713008 2.5886824 2.5241516 -0.77717996
0.51870984 2.5210397 -2.465659 0.90142703 -0.17625847 -2.9089954 -1.9190027 0.10034487
1.1760758 -1.9506277 -0.40542415 0.9266479 2.438831 -1.3880737 0.21847093 -2.255382
1.2371893 -0.09503731 -2.787235 -1.1589861 -1.239158 -1.8455027 0.5602995 1.5775472
0.45845357 2.0821717 -1.9992725 0.70085794 1.4754864 1.5522908 -2.3771977 3.0473824
1.3010122 -2.3560152 0.92796 0.30090588 2.8404863 1.2734181 0.48238283 2.8568468
0.43246824 -0.47200093 0.031286534 0.31730458 -2.2285256 -2.7466233 0.5599264 0.34839222
-2.0883932 -1.1015781 -0.6273873 -0.63323736 -1.0162767 -0.54372686 -0.20825945 2.7394657
-0.5761895 -1.0003139 -0.81035227 -2.368612 -0.707399 1.8311088 0.34817332 0.91505927
1.165617 -0.27490753 -2.3271592 -3.8734815 -0.7750355 -0.3304092 -2.1908808 -0.9498483
0.17450498 1.5347867 -3.6375973 2.0988111 1.6263585 -0.42638093 -0.0660112 2.9442823
-1.0896841 -0.82840216 4.5896 0.65462005 -1.5581305 -0.31636447 -1.4426094 -0.83349144
4.012058 -2.0236497 1.2496804 -2.1594298 0.21374145 -0.17681825 -3.2185442 -0.1262253
-0.10564419 -1.8482729 1.7568414 0.6016366 1.6264968 -1.1615199 0.11520114 -1.9421799
2.6609867 0.99183214 0.3746143 0.44050455 4.41328 0.3268124 0.30574536 -1.929099
2.1004992 -2.4193783 1.6920342 0.030235432 -0.11156046 -1.3267164 -1.9138483 -0.6475163
1.5642282 0.6767739 -0.49604604 -1.9466319 3.8089914 0.4873282 1.4450797 1.5406594
0.6287573 1.445894 1.6499065 -0.35457802 -2.005612 2.5376472 0.8786373 1.0917614
1.537649 -1.5078619 -0.07272284 -0.95386165 1.8000658 1.9218532 1.2550701 2.5152662
-2.2200646 -0.4939198 -2.4075532 -0.47861135 1.8255582 -3.1812603 0.81796515 1.0965657
0.19595239 -4.34705 0.8820178 0.91674674 -3.8997018 1.1274465 0.82650346 1.1316812
1.7313948 0.2831532 -0.82516134 0.9780056 2.9497135 -1.2262243 -0.45289534 -1.5784777
-1.635317 0.9921051 -0.28347903 0.16664663 -0.6988499 0.17783642 -0.9691129 -1.8810579
-3.1800249 1.703418 -1.5839168 -1.1923261 0.9901262 -0.75903267 0.19958109 -0.26600972
0.10833053 1.9815606 1.897587 -0.065111674 -1.0551499 -0.57418925 0.11424821 0.35474995
2.8460667 -0.0035754808 0.60095537 2.6218588 2.4580607 1.4625474 -0.09355384 -4.7135935
-1.7979274 -0.879281 1.2504508 0.44896245 1.3788095 -0.3063406 2.594461 0.73250145
-0.17929822 2.83816 -2.951751 -2.8743947 2.047469 -0.37077874 2.7519007 0.79017943
2.6421094 0.030784653 -0.5831723 0.44415894 0.033062797 -0.79103076 0.29197603 -2.3969631
-0.33018893 2.042424 -3.2471888 -0.4734972 -1.2351725 -1.1063434 0.51525825 -2.5601614
00000000: fde3 e93e ef7b c23e 61d9 883f f9e8 85c0
00000010: b941 ab3f cc8b 34c0 e859 19c0 eeb6 1b40
00000020: ced3 5e40 7846 483f 9805 e23e 887c a3bf
00000030: 56d5 30bd a813 b9bf 94da ecbf ae47 60be
00000040: e6f7 4dbf c376 1a3f f6a6 48c0 9a82 c5bf
00000050: de9f 4bbd f9ac 2540 b38b 2140 44f5 46bf
00000060: 2bca 043f b758 2140 5bcd 1dc0 ecc3 663f
00000070: 1a7d 34be fb2c 3ac0 e1a1 f5bf 9c81 cd3d
00000080: a789 963f 2bae f9bf c193 cfbe cc38 6d3f
00000090: cf15 1c40 66ac b1bf d8b6 5f3e 2e58 10c0
000000a0: 385c 9e3f eca2 c2bd 0f62 32c0 a859 94bf
000000b0: bb9c 9ebf 6f39 ecbf ca6f 0f3f 11ed c93f
000000c0: 6dba ea3e 4d42 0540 29e8 ffbf 6d6b 333f
000000d0: bddc bc3f 77b1 c63f 0224 18c0 5008 4340
000000e0: 9187 a63f f4c8 16c0 c98e 6d3f 5610 9a3e
000000f0: 87ca 3540 5dff a23f e2fa f63e 94d6 3640
00000100: 7a6c dd3e 1baa f1be 4f26 003d bf75 a23e
00000110: 2aa0 0ec0 adc8 2fc0 5657 0f3f 7760 b23e
00000120: 3ca8 05c0 8300 8dbf 749c 20bf d81b 22bf
00000130: 5b15 82bf af31 0bbf f741 55be 6853 2f40
00000140: 2881 13bf 490a 80bf 3f73 4fbf 5797 17c0
00000150: 1a18 35bf c661 ea3f c643 b23e 5341 6a3f
00000160: f032 953f aec0 8cbe 2df0 14c0 1fe7 77c0
00000170: ba68 46bf 652b a9be 6437 0cc0 4229 73bf
00000180: 6fb1 323e e473 c43f 65ce 68c0 ec52 0640
00000190: 842c d03f 9a4e dabe e130 87bd 1f6f 3c40
000001a0: c57a 8bbf 2a12 54bf 01de 9240 2e95 273f
000001b0: d270 c7bf 86fa a1be 6da7 b8bf b25f 55bf
000001c0: c762 8040 7a83 01c0 87f5 9f3f 1934 0ac0
000001d0: 0adf 5a3e d80f 35be a1fc 4dc0 3441 01be
000001e0: fb5b d8bd 3594 ecbf 2ee0 e03f db04 1a3f
000001f0: 0c31 d03f afac 94bf 93ee eb3d 5a99 f8bf
00000200: 9b4d 2a40 b6e8 7d3f 72cd bf3e d089 e13e
00000210: 9739 8d40 f453 a73e a88a 9c3e b7ec f6bf
00000220: 946e 0640 18d7 1ac0 9494 d83f 4cb0 f73c
00000230: cf79 e4bd d8d1 a9bf fbf8 f4bf a1c3 25bf
00000240: a138 c83f 0e41 2d3f bff9 fdbe 3c2b f9bf
00000250: 84c6 7340 1583 f93e 5ff8 b83f 5434 c53f
00000260: 3df6 203f 0e13 b93f 2330 d33f 408b b5be
00000270: f25b 00c0 d068 2240 60ee 603f d6be 8b3f
00000280: afd1 c43f 9e01 c1bf b6ef 94bd 4730 74bf
00000290: 8e68 e63f 49ff f53f 23a6 a03f 1ffa 2040
000002a0: 8a15 0ec0 0ee3 fcbe 5a15 1ac0 8c0c f5be
000002b0: e4ab e93f c599 4bc0 2a66 513f 445c 8c3f
000002c0: bea7 483e 091b 8bc0 ebcb 613f eaaf 6a3f
000002d0: b794 79c0 2b50 903f bb95 533f eeda 903f
000002e0: 589e dd3f 75f9 903e c63d 53bf 935e 7a3f
000002f0: 1bc8 3c40 ebf4 9cbf e6e1 e7be 8f0b cabf
00000300: 1152 d1bf 9afa 7d3f 2a24 91be 6aa5 2a3e
00000310: d4e7 32bf c01a 363e c817 78bf 81c6 f0bf
00000320: 8785 4bc0 9a09 da3f c9bd cabf 249e 98bf
00000330: e978 7d3f f74f 42bf fc5e 4c3e 6d32 88be
00000340: 66dc dd3d c7a3 fd3f 21e4 f23f 4559 85bd
00000350: 270f 87bf 11fe 12bf f7fa e93d c9a1 b53e
00000360: f525 3640 9d52 6abb 36d8 193f 89cc 2740
00000370: de50 1d40 c134 bb3f 2899 bfbd c2d5 96c0
00000380: 7c22 e6bf 8f18 61bf c60e a03f 68de e53e
00000390: d47c b03f add8 9cbe a60b 2640 3785 3b3f
000003a0: f499 37be 6aa4 3540 7de9 3cc0 15f6 37c0
000003b0: bb09 0340 b6d6 bdbe 241f 3040 3349 4a3f
000003c0: 5218 2940 1930 fc3c c84a 15bf cd68 e33e
000003d0: db6c 073d fe80 4abf e27d 953e d867 19c0
000003e0: 860e a9be 13b7 0240 f1d1 4fc0 3a6e f2be
000003f0: 221a 9ebf a99c 8dbf f7e7 033f afd9 23c0

lstm_cell.bias_ih f4 [256]
-1.289748 1.6804286 0.58545864 3.2052617 2.9764833 3.2694383 1.0316265 2.626303
0.70720506 0.6750592 3.1918914 2.1265092 -3.8203518 0.038051117 -3.0093899 0.06247794
2.907685 -2.320158 -2.7715704 0.8391603 -1.4561509 -4.046267 -1.6204073 0.34015658
1.7659537 -1.1281891 0.82327676 1.123514 -0.7061504 2.4437315 2.4295874 0.25544837
1.634297 1.8317568 -0.54281163 -1.2587566 -0.6377218 1.3812791 -0.23529609 1.6426556
0.48115498 0.8177383 0.7034209 -1.4533316 -4.80252 -1.7039458 0.7626951 -0.033518743
-4.389633 -2.1373472 -2.8977876 0.6189482 -2.4517817 -1.8270847 -0.16314167 -0.15884176
-2.206709 -2.992522 1.2594815 0.68742085 0.8683568 3.216536 2.2709503 -2.8540804
-1.1747782 -0.633864 -0.33393458 0.8719943 -1.5458933 0.27311343 0.94878966 -2.3373365
0.8449388 -1.0745333 -3.4061532 -2.5829668 0.74066573 0.017219612 -1.8829546 0.25911295
-0.9306126 0.46650288 -0.61636245 2.0839772 -2.7704635 0.7731097 -2.6859283 -1.2811767
0.80916744 -0.6299926 0.23820311 -0.43761218 -1.357379 -0.9998463 0.2741714 -0.8489001
-0.05829358 -2.9104795 -0.23047124 -3.3478725 2.5796485 -0.9073535 -0.4362825 -1.6718298
-1.5167977 1.7653595 0.698996 0.5595803 -0.35620728 -2.1204994 -1.0454783 -0.8860442
-1.2579442 1.0021981 -0.5194315 -2.2419176 -2.5561209 0.259858 0.44069794 -1.6690004
2.369557 1.2954811 -4.260406 2.1533113 -0.22687268 -2.0501966 0.70528907 -0.45976907
2.9899826 -0.28991345 -3.5870974 -2.2950819 1.5545298 -0.5200986 0.57086235 -1.487392
2.2338583 -2.0964506 3.834821 0.6630504 0.16939625 2.8980827 1.7292234 -0.58175755
2.380444 4.539192 -2.1819146 0.24905479 -0.9195756 0.22203164 0.5759517 0.7540001
0.6035939 -0.5365738 0.074485965 -1.7827595 0.8191209 0.7465226 2.3479292 2.4295027
1.9244783 -1.5178043 -0.37733474 1.9356263 1.8727148 -0.29449496 1.4100633 0.33426574
-0.3671725 1.7337283 -0.5335031 1.8850596 0.7614241 0.008065218 3.327395 -2.6263623
-2.0300403 0.3245836 0.3931955 -0.6868228 -1.1185037 -2.8063552 -1.4111828 -1.8544793
-0.3416804 1.2881854 -1.2339116 -0.039002817 -1.8216674 -1.3055736 2.0190766 0.64582425
-0.26622128 -4.1852584 0.62588644 5.160548 -0.783447 -2.2507591 1.6118132 1.9582521
-1.2447357 0.8729941 -2.0377612 3.344328 -0.9349809 1.68922 -2.7557766 -0.48030812
-2.4303226 -0.63708085 -2.5091882 0.09978445 1.1510043 -0.98705506 1.3252633 0.7524511
-0.70864075 0.16227514 1.8356708 -3.2532632 0.42338818 -1.4797986 1.4081362 -0.4520282
-0.80641776 2.1369717 -0.3207084 -1.2208077 -0.46403173 2.8502195 -2.1472142 3.0603092
0.59015787 3.2951586 -1.727574 1.728903 -2.377893 -4.2094903 1.7752614 -0.80717194
-3.198431 -1.7252654 -1.9346275 -2.1688235 -0.8378605 -1.6581444 2.1442573 -2.4047804
2.419985 -1.0811007 0.3414841 -2.295665 -0.7254402 1.0054508 -2.4229226 0.36048788
00000000: 7616 a5bf 4918 d73f 9ee0 153f 0223 4d40
00000010: b47e 3e40 7a3e 5140 560c 843f 5915 2840
00000020: 640b 353f aed0 2c3f f347 4c40 ba18 0840
00000030: a580 74c0 7ddb 1b3d d899 40c0 dee8 7f3d
00000040: 8317 3a40 787d 14c0 6961 31c0 36d3 563f
00000050: 2763 babf 057b 81c0 8269 cfbf 0129 ae3e
00000060: c50a e23f 8068 90bf 44c2 523f 4fcf 8f3f
00000070: 46c6 34bf 1966 1c40 5c7e 1b40 21ca 823e
00000080: a530 d13f 0277 ea3f b4f5 0abf f01e a1bf
00000090: bc41 23bf c1cd b03f 75f1 70be 8a42 d23f
000000a0: f259 f63e 4c57 513f 6413 343f c506 babf
000000b0: 3eae 99c0 e51a dabf fc3f 433f f34a 09bd
000000c0: e077 8cc0 4cca 08c0 5a75 39c0 6473 1e3f
000000d0: fee9 1cc0 e9dd e9bf 9c0e 27be 6aa7 22be
000000e0: b83a 0dc0 7b85 3fc0 b136 a13f d0fa 2f3f
000000f0: a24c 5e3f badb 4d40 4057 1140 41a9 36c0
00000100: 225f 96bf e944 22bf 79f9 aabe 053b 5f3f
00000110: d5df c5bf 86d5 8b3e e1e3 723f ec96 15c0
00000120: e94d 583f 4f8a 89bf 6afe 59c0 544f 25c0
00000130: 459c 3d3f 2510 8d3c a804 f1bf 74aa 843e
00000140: a13c 6ebf 77d9 ee3e eec9 1dbf e25f 0540
00000150: 464f 31c0 84ea 453f 40e6 2bc0 99fd a3bf
00000160: 9925 4f3f 3247 21bf 84eb 733e b40e e0be
00000170: 98be adbf edf5 7fbf 3260 8c3e 8451 59bf
00000180: 40c5 6ebd 4c45 3ac0 a700 6cbe 8b43 56c0
00000190: f618 2540 5248 68bf 6b60 dfbe 85fe d5bf
000001a0: 6d26 c2bf 4df7 e13f 67f1 323f a840 0f3f
000001b0: cd60 b6be 43b6 07c0 3cd2 85bf cbd3 62bf
000001c0: 5104 a1bf 0748 803f 76f9 04bf 947b 0fc0
000001d0: 7c97 23c0 1c0c 853e 29a3 e13e cea1 d5bf
000001e0: d2a6 1740 53d2 a53f 3f55 88c0 dacf 0940
000001f0: 5051 68be 6c36 03c0 d38d 343f da66 ebbe
00000200: e05b 3f40 896f 94be 0193 65c0 9fe2 12c0
00000210: d5fa c63f 2f25 05bf 0924 123f dc62 bebf
00000220: 89f7 0e40 3f2c 06c0 b56d 7540 acbd 293f
00000230: 3676 2d3e 307a 3940 3157 dd3f 10ee 14bf
00000240: 3259 1840 1041 9140 7da4 0bc0 3808 7f3e
00000250: 4e69 6bbf 435c 633e 9271 133f 2706 413f
00000260: 2185 1a3f e75c 09bf 198c 983d 7731 e4bf
00000270: e8b1 513f 1b1c 3f3f 7944 1640 f97c 1b40
00000280: 4e55 f63f 6947 c2bf 0532 c1be 9ac2 f73f
00000290: 1eb5 ef3f 0bc8 96be f47c b43f e124 ab3e
000002a0: 09fe bbbe cfea dd3f a993 08bf a249 f13f
000002b0: b1ec 423f fa23 043c 0af4 5440 5216 28c0
000002c0: 2eec 01c0 d22f a63e ec50 c93e 9ed3 2fbf
000002d0: 212b 8fbf 539b 33c0 a3a1 b4bf 945f edbf
000002e0: bcf0 aebe 42e3 a43f d1f0 9dbf 6bc1 1fbd
000002f0: 662c e9bf 091d a7bf 8d38 0140 bd54 253f
00000300: 284e 88be a3ed 85c0 183a 203f 3623 a540
00000310: fc8f 48bf 700c 10c0 e54f ce3f 01a8 fa3f
00000320: 8053 9fbf 8b7c 5f3f ae6a 02c0 7809 5640
00000330: e95a 6fbf 5c38 d83f a55e 30c0 f2ea f5be
00000340: 688a 1bc0 bb17 23bf 8a96 20c0 ca5b cc3d
00000350: 1c54 933f a4af 7cbf 3aa2 a93f a3a0 403f
00000360: 7b69 35bf 742b 263e 43f7 ea3f 7735 50c0
00000370: 56c6 d83e 0a6a bdbf cf3d b43f 3d70 e7be
00000380: 6571 4ebf 25c4 0840 e433 a4be 6d43 9cbf
00000390: 9195 edbe ff69 3640 f56b 09c0 1bdc 4340
000003a0: 9614 173f e1e3 5240 2521 ddbf b24c dd3f
000003b0: 662f 18c0 25b4 86c0 c43b e33f d2a2 4ebf
000003c0: 18b3 4cc0 7fd5 dcbf e0a1 f7bf 01ce 0ac0
000003d0: 077e 56bf 133e d4bf 833b 0940 ece7 19c0
000003e0: 09e1 1a40 8261 8abf 01d7 ae3e 2dec 12c0
000003f0: 73b6 39bf 9db2 803f 2a11 1bc0 de91 b83e

lstm_cell.bias_hh f4 [256]
-1.3221176 1.7890391 0.36499837 3.135836 3.048604 3.2803025 0.9301587 2.6617692
0.72918534 0.6526009 3.19571 2.253137 -3.9818738 0.13490422 -2.8579617 0.102174304
2.9040039 -2.4591656 -2.7723715 0.7148098 -1.4655083 -3.9018815 -1.7117827 0.36120942
1.7207533 -1.2303886 1.0536292 1.0207442 -0.6168826 2.3791068 2.5840993 0.257427
1.6537215 1.8089945 -0.63070655 -1.1818314 -0.7264549 1.5643095 -0.20188458 1.7513897
0.2693595 0.89715546 0.8639976 -1.336516 -4.8576727 -1.6667105 0.77721095 0.0055891303
-4.3923187 -2.083949 -2.7841668 0.65606046 -2.644874 -1.8620464 -0.017221782 -0.24321425
-2.1530857 -2.8646886 1.2116145 0.5665541 0.81130993 3.1807494 2.1341667 -2.779877
-1.063742 -0.4888328 -0.30082205 0.9448264 -1.4781595 0.27354544 1.0319521 -2.3877554
0.7687497 -1.2168727 -3.4750962 -2.6053858 0.6618794 0.24194336 -1.6950876 0.30849263
-1.1360787 0.38879183 -0.5320672 2.0425057 -2.761167 0.6478379 -2.7098947 -1.2854073
0.8020893 -0.54578966 0.1567516 -0.4686514 -1.3193619 -0.96302015 0.24409044 -0.8963806
-0.09241339 -2.9229307 -0.27839783 -3.2187183 2.6652274 -1.0168025 -0.3131336 -1.7865111
-1.338596 1.8642689 0.866485 0.6116386 -0.28877154 -2.0500877 -1.0860265 -0.88961667
-1.018427 0.9841092 -0.33328843 -2.2927327 -2.4535034 0.23397942 0.3814729 -1.7315948
2.2952008 1.370125 -4.054481 2.2016034 -0.22365594 -2.143878 0.56851393 -0.39924133
2.9255447 -0.52239084 -3.580475 -2.3464963 1.4358202 -0.50686926 0.46024868 -1.4818739
2.1344264 -2.0607145 3.9789631 0.77006537 0.21948418 2.9087636 1.5268537 -0.65935963
2.5645976 4.4379425 -2.2480214 0.1930191 -0.86982095 0.18929605 0.56346446 0.6425881
0.819482 -0.5328669 0.06384683 -1.8197697 0.7879329 0.7966477 2.4318907 2.2439895
1.8305242 -1.3421688 -0.33981386 1.9862092 1.7777479 -0.2455406 1.2865963 0.2576702
-0.34980646 1.678192 -0.5620895 1.9009326 0.8023377 0.0621383 3.3065438 -2.5610776
-2.1364703 0.2267864 0.3863796 -0.6395969 -1.3193043 -2.7831726 -1.2610022 -1.8959432
-0.41122472 1.4413111 -1.2413541 -0.07379215 -1.9671161 -1.4894308 1.7954054 0.60850453
-0.21473488 -4.145658 0.62131834 5.320193 -0.8100303 -2.254898 1.4394822 1.8667046
-1.13187 0.81868047 -2.0230136 3.2206554 -1.0295138 1.6821322 -2.749471 -0.67089885
-2.2383516 -0.7198598 -2.409018 0.10826142 1.3455843 -1.0382483 1.3780396 0.76660174
-0.7730005 0.23472792 1.8317608 -3.3080168 0.4818446 -1.5099308 1.4637736 -0.52479327
-0.7100633 2.1841924 -0.24770343 -1.063274 -0.47916368 2.8602598 -2.1552823 3.112624
0.6461656 3.330723 -1.5921181 1.7370398 -2.526219 -4.247988 1.7539849 -0.6773448
-3.1495159 -1.7646064 -1.8159485 -2.110905 -0.9134272 -1.5278834 2.1501071 -2.2226095
2.2636702 -0.98983914 0.32411435 -2.2426672 -0.7700035 0.9925793 -2.620028 0.39400154
00000000: 263b a9bf 3cff e43f 11e1 ba3e 89b1 4840
00000010: 541c 4340 7af0 5140 e11e 6e3f 6d5a 2a40
00000020: e4ab 3a3f da10 273f 8386 4c40 6633 1040
00000030: 05d7 7ec0 5524 0a3e d8e8 36c0 c340 d13d
00000040: 33db 3940 f862 1dc0 896e 31c0 c6fd 363f
00000050: c795 bbbf 6db8 79c0 b21b dbbf 71f0 b83e
00000060: a541 dc3f 607d 9dbf 52dd 863f bfa7 823f
00000070: 05ec 1dbf 4943 1840 e261 2540 79cd 833e
00000080: 25ad d33f 228d e73f fc75 21bf 4046 97bf
00000090: f3f8 39bf 4b3b c83f d5ba 4ebe 8a2d e03f
000000a0: 7de9 893e fbab 653f f22e 5d3f f512 abbf
000000b0: 0e72 9bc0 c556 d5bf 4cf7 463f 0625 b73b
000000c0: e08d 8cc0 6c5f 05c0 ca2f 32c0 94f3 273f
000000d0: 9e45 29c0 8957 eebf b214 8dbc 280d 79be
000000e0: 28cc 09c0 0f57 37c0 2f16 9b3f b109 113f
000000f0: 02b2 4f3f 6691 4b40 3096 0840 81e9 31c0
00000100: b328 88bf 4b48 fabe 5905 9abe 25e0 713f
00000110: 5534 bdbf 260e 8c3e 0217 843f fcd0 18c0
00000120: c8cc 443f 7cc2 9bbf fa67 5ec0 a4be 26c0
00000130: ee70 293f 00c0 773e a1f8 d8bf bff2 9d3e
00000140: 076b 91bf b90f c73e 8e35 08bf 6ab8 0240
00000150: f6b6 30c0 b4d8 253f ea6e 2dc0 3a88 a4bf
00000160: b955 4d3f dfb8 0bbf 7e83 203e 14f3 efbe
00000170: dae0 a8bf 7d88 76bf d8f2 793e 3379 65bf
00000180: 3b43 bdbd 4c11 3bc0 298a 8ebe 7bff 4dc0
00000190: 1693 2a40 9626 82bf 0c53 a0be 65ac e4bf
000001a0: 1d57 abbf 5da0 ee3f f6d1 5d3f 5994 1c3f
000001b0: ddd9 93be a334 03c0 eb02 8bbf ebbd 63bf
000001c0: d15b 82bf 95ee 7b3f c8a4 aabe 22bc 12c0
000001d0: 3306 1dc0 4d98 6f3e 6a50 c33e e6a4 ddbf
000001e0: 92e4 1240 4260 af3f 4fbe 81c0 12e7 0c40
000001f0: 1006 65be 4c35 09c0 218a 113f 5c69 ccbe
00000200: 203c 3b40 68bb 05bf 8126 65c0 ff2c 16c0
00000210: f5c8 b73f 2fc2 01bf b7a5 eb3e 0bae bdbf
00000220: 719a 0840 bfe2 03c0 55a7 7e40 0123 453f
00000230: 76c0 603e 2f29 3a40 f16f c33f cbcb 28bf
00000240: 5e22 2440 a003 8e40 95df 0fc0 cda6 453e
00000250: 96ac 5ebf d3d6 413e 353f 103f a780 243f
00000260: 93c9 513f f769 08bf 20c2 823d 37ee e8bf
00000270: f8b5 493f 1bf1 4b3f 19a4 1b40 869d 0f40
00000280: 9e4e ea3f 30cc abbf 15fc adbe 1a3c fe3f
00000290: 3e8d e33f ff6e 7bbe 30af a43f 59ed 833e
000002a0: d519 b3be ffce d63f 19e5 0fbf c251 f33f
000002b0: 0166 4d3f bb84 7e3d 6a9e 5340 b2e8 23c0
000002c0: eebb 08c0 b23a 683e 8cd3 c53e 9fbc 23bf
000002d0: f7de a8bf 801f 32c0 8568 a1bf 44ae f2bf
000002e0: 0c8c d2be e27c b83f b1e4 9ebf 5720 97bd
000002f0: 76ca fbbf aba5 bebf d8cf e53f f4c6 1b3f
00000300: 76e3 5bbe 3ba9 84c0 b80e 1f3f 053f aa40
00000310: 255e 4fbf 4050 10c0 f440 b83f 2df0 ee3f
00000320: 1ee1 90bf 0b95 513f 0e79 01c0 381f 4e40
00000330: 1cc7 83bf 1c50 d73f 55f7 2fc0 07c0 2bbf
00000340: 2741 0fc0 bb48 38bf 5a2d 1ac0 2ab8 dd3d
00000350: 1b3c ac3f 52e5 84bf 9a63 b03f 0340 443f
00000360: 5ce3 45bf 845c 703e 2377 ea3f 8cb6 53c0
00000370: 56b4 f63e 6a45 c1bf ef5c bb3f da58 06bf
00000380: b5c6 35bf cfc9 0b40 f8a5 7dbe 5d19 88bf
00000390: f154 f5be 7f0e 3740 25f0 09c0 3b35 4740
000003a0: 1c6b 253f 912a 5540 87ca cbbf 5257 de3f
000003b0: 92ad 21c0 85ef 87c0 9482 e03f 7866 2dbf
000003c0: ab91 49c0 9fde e1bf 0071 e8bf 1119 07c0
000003d0: 5dd6 69bf af91 c3bf 5b9b 0940 3c3f 0ec0
000003e0: f9df 1040 1966 7dbf 51f2 a53e dc87 0fc0
000003f0: f31e 45bf ad19 7e3f 8aae 27c0 92ba c93e

linear0.weight f4 [32, 384]
-0.048987098 0.0047553126 -0.09306867 -0.02254013 0.07144176 0.048694216 -0.073705494 0.04607724
0.094933964 0.081753865 -0.043359697 0.04542386 0.04465715 0.060133316 -0.103722595 -0.10604766
0.036387093 -0.05723522 -0.06528009 0.0017044087 -0.012025459 -0.032841153 -0.018145071 -0.104242876
-0.05771491 -0.0948264 0.0034251772 0.034246944 0.104005024 0.011280321 -0.090583846 0.085859865
-0.0881684 0.013162246 0.021203132 0.0022946028 -0.06576502 -0.058837757 -0.007945003 -0.118560225
0.08046666 0.08825648 0.060928524 -0.039042827 -0.031682137 0.064077236 -0.027604675 -0.026072564
0.087959625 -0.007625336 0.079350114 -0.05672943 0.016692515 -0.08811161 0.004968251 -0.062267896
-0.048987377 0.1066013 0.0324153 0.04045906 -0.047602218 0.066946864 -0.039413135 0.009454137
-0.017763771 0.042157512 -0.052975416 -0.045820236 0.06212972 0.033994198 -0.08107914 0.07138914
0.06413101 0.07523476 -0.05649557 0.07477253 0.087593116 0.11958461 -0.0785515 -0.06347108
0.018018378 -0.063677505 -0.1199526 0.003058492 -0.089123294 -0.003887368 -0.056872744 -0.087187365
-0.079621196 -0.051691808 -0.07523452 0.101789914 0.09428222 -0.059333067 -0.07902385 0.07527475
-0.093379594 0.05523878 0.074160784 -0.00068916776 -0.033780828 -0.10177968 -0.009946297 -0.04493386
0.111987464 -0.007807912 0.0008443027 -0.1026003 -0.06652327 0.11776719 -0.049889088 0.10308876
0.056598477 0.0013676503 0.10588225 -0.08530107 0.07838335 -0.044632867 0.05088266 -0.026584836
-0.090616845 0.08772691 0.06398849 0.0714077 -0.08174412 0.024088407 -0.06846616 0.050209265
-0.0148833105 -0.036744334 -0.0709672 -0.02560717 -0.02416906 -0.09928382 -0.11156671 -0.10841166
0.04613781 -0.025220571 -0.026106356 -0.039919235 -0.10846115 -0.077207096 0.007106878 -0.10582768
-0.017103238 -0.01353447 -0.05895638 -0.07223283 -0.033465113 -0.050248142 -0.09689938 -0.043944973
-0.014681132 -0.10822343 0.039250378 -0.07876782 -0.0738442 -0.08261864 -0.0694732 -0.08203359
-0.008382312 -0.076781265 -0.01562603 -0.01794805 -0.025246294 -0.047811393 -0.011428594 -0.039524935
-0.06952911 0.036654018 -0.09708773 -0.07863493 -0.068319395 -0.10792982 -0.024248598 -0.028037967
-0.018388838 0.031288806 -0.06295996 -0.024513839 0.007195942 -0.031984504 -0.09648433 -0.049303476
-0.013509483 -0.061159134 -0.064042576 -0.02063496 -0.07529295 -0.095223434 -0.0820982 -0.102451436
-0.049595613 0.031312745 0.004893448 -0.018547662 -0.011309076 -0.046293512 -0.03338473 -0.017667938
0.008839705 -0.022829946 0.01734534 0.016383253 0.050163276 0.0845421 -6.729773e-05 0.0368297
-0.047091734 -0.035309542 0.042499404 0.070737205 0.015399739 0.04944796 0.025752136 0.0053862114
0.02312034 0.0061335126 0.0006272165 -0.03821019 -0.032460157 -0.041699182 -0.047588196 0.046567813
-0.049008902 0.00879428 0.08610972 0.07521867 0.00038087173 0.031808946 -0.0023746288 0.025938736
0.04978675 0.037963923 -0.010349894 -0.05051214 -0.03855216 0.00017183647 0.04801124 0.014737591
-0.04745585 0.04444055 -0.0065685366 -0.046259403 0.031327125 0.044740792 -0.034387555 0.03214708
0.046178345 0.04752713 0.049012538 -0.012655913 0.020776091 0.03899783 -0.016953481 -0.003896892
00000000: b2a6 48bd 74d2 9b3b c99a bebd 14a6 b8bc
00000010: 0f50 923d 9673 473d e8f2 96bd 7dbb 3c3d
00000020: bd6c c23d 926e a73d f099 31bd 5f0e 3a3d
00000030: 6aea 363d 5a4e 763d 836c d4bd 842f d9bd
00000040: a20a 153d 7a6f 6abd 91b1 85bd 7766 df3a
00000050: 6e06 45bc 7284 06bd f9a4 94bc 4a7d d5bd
00000060: 7866 6cbd 5834 c2bd f078 603b 8646 0c3d
00000070: 9600 d53d 18d1 383c 0684 b9bd 4cd7 af3d
00000080: a291 b4bd 76a6 573c 31b2 ad3c 0c61 163b
00000090: d0af 86bd dcff 70bd c22b 02bc b4cf f2bd
000000a0: b4cb a43d d0bf b43d 3090 793d 5feb 1fbd
000000b0: 21c5 01bd ed3a 833d 3323 e2bc 2196 d5bc
000000c0: 2d24 b43d f4dd f9bb 5082 a23d 1e5d 68bd
000000d0: bebe 883c dc73 b4bd b6cc a23b 9f0c 7fbd
000000e0: fda6 48bd c851 da3d e8c5 043d 66b8 253d
000000f0: 8bfa 42bd 701b 893d ab6f 21bd 86e5 1a3c
00000100: 5485 91bc 5bad 2c3d c0fc 58bd 00ae 3bbd
00000110: bc7b 7e3d 803d 0b3d d20c a6bd 7834 923d
00000120: 1e57 833d af14 9a3d e667 67bd 5722 993d
00000130: 0564 b33d c7e8 f43d 9cdf a0bd 20fd 81bd
00000140: 479b 933c 5a69 82bd b5a9 f5bd fb70 483b
00000150: 4686 b6bd 36c3 7ebb 65f3 68bd 4a8f b2bd
00000160: 7010 a3bd caba 53bd 8e14 9abd 3b77 d03d
00000170: 0917 c13d 3b07 73bd 42d7 a1bd a629 9a3d
00000180: cd3d bfbd 0f42 623d 9ce1 973d 44a9 34ba
00000190: c45d 0abd dd71 d0bd cbf5 22bc 910c 38bd
000001a0: af59 e53d 83d9 ffbb 3254 5d3a 1b20 d2bd
000001b0: 5a3d 88bd ed2f f13d 8058 4cbd 3320 d33d
000001c0: ced3 673d bb42 b33a cbd8 d83d 54b2 aebd
000001d0: 7387 a03d f4d0 36bd 566a 503d 71c8 d9bc
000001e0: 5395 b9bd 2baa b33d 660c 833d 333e 923d
000001f0: 7669 a7bd 0d55 c53c fc37 8cbd 3ba8 4d3d
00000200: 21d9 73bc 3a81 16bd 4057 91bd 21c6 d1bc
00000210: 31fe c5bc 5155 cbbd 167d e4bd ef06 debd
00000220: 00fb 3c3d 5f9b cebc ffdc d5bc 5a82 23bd
00000230: e120 debd c11e 9ebd d0e0 e83b 2fbc d8bd
00000240: 171c 8cbc afbf 5dbc 3f7c 71bd ceee 93bd
00000250: b712 09bd ffd0 4dbd 2f73 c6bd a5ff 33bd
00000260: 2189 70bc 3fa4 ddbd 01c5 203d 0651 a1bd
00000270: a13b 97bd f633 a9bd f747 8ebd 3a01 a8bd
00000280: f755 09bc 7f3f 9dbd 2902 80bc ca07 93bc
00000290: 51d1 cebc e1d5 43bd ff3e 3bbc e6e4 21bd
000002a0: 4765 8ebd 8622 163d efd5 c6bd 5a0b a1bd
000002b0: 0aeb 8bbd 4f0a ddbd ffa4 c6bc e1af e5bc
000002c0: 30a4 96bc b128 003d 27f1 80bd 3fd1 c8bc
000002d0: f0cb eb3b 2f02 03bd 9499 c5bd 71f2 49bd
000002e0: e156 5dbc 0082 7abd c128 83bd a60a a9bc
000002f0: 3133 9abd 8104 c3bd 1a23 a8bd 0fd2 d1bd
00000300: c524 4bbd cb41 003d 3859 a03b 44f1 97bc
00000310: b449 39bc 449e 3dbd 6dbe 08bd 5abc 90bc
00000320: 69d4 103c de05 bbbc d117 8e3c 2c36 863c
00000330: 0278 4d3d 6924 ad3d 3222 8db8 bdda 163d
00000340: 43e3 40bd bda0 10bd db13 2e3d abde 903d
00000350: 304f 7c3c f289 4a3d 25f6 d23c d17e b03b
00000360: de66 bd3c a2fb c83b c96b 243a 4a82 1cbd
00000370: f1f4 04bd c3cc 2abd d7eb 42bd e4bd 3e3d
00000380: 8fbd 48bd e215 103c 4b5a b03d 3f0c 9a3d
00000390: bdaf c739 194a 023d a99f 1bbb 797d d43c
000003a0: 31ed 4b3d 0f80 1b3d 9a92 29bc d1e5 4ebd
000003b0: dfe8 1dbd 002f 3439 6fa7 443d f075 713c
000003c0: 1161 42bd 4b07 363d e13c d7bb 807a 3dbd
000003d0: df50 003d 1f42 373d f7d9 0cbd a8ac 033d
000003e0: 8125 3d3d cfab 423d 5fc1 483d bf5a 4fbc
000003f0: 9f32 aa3c 30bc 1f3d 07e2 8abc 0063 7fbb

linear0.bias f4 [32]
-0.09579457 -0.16759881 0.09069608 -0.27909473 -0.023052962 -0.099697486 -0.027838496 0.4278639
-0.15969966 -0.07989322 -0.4509206 -0.25834438 -0.27573273 -0.39201525 0.05690542 -0.22584265
-0.28480896 0.063566275 -0.19859545 -0.08973301 -0.059298012 -0.011905849 0.07698408 0.18932095
0.010292673 -0.16658542 -0.004524236 -0.046435982 0.043654304 -0.071095884 -0.23472291 -0.22868612
00000000: f22f c4bd 069f 2bbe debe b93d 81e5 8ebe
00000010: 91d9 bcbc 322e ccbd 8f0d e4bc fa10 db3e
00000020: 4f88 23be 0e9f a3bd 11df e6be b745 84be
00000030: d72c 8dbe 39b6 c8be a815 693d 4c43 67be
00000040: 7bd2 91be 092f 823d 9b5c 4bbe f1c5 b7bd
00000050: 79e2 72bd c010 43bc d4a9 9d3d 5add 413e
00000060: 99a2 283c 5e95 2abe 0b40 94bb a833 3ebd
00000070: dbce 323d b89a 91bd 345b 70be b22c 6abe
