model/1715146453/3_Claranet_global_model_0.pth (torch, 331244 bytes, 17 tensors)

conv1.lin_l.weight f4 [16, 1]
0	0xbf222a71	-0.6334601
1	0xbc5eadef	-0.013591274
2	0xbf2f739f	-0.685358
3	0xbf26ff91	-0.65233713
4	0xbf004ee1	-0.5012036
5	0x3e8fc896	0.28082722
6	0xbf560e11	-0.83615214
7	0xbe1ca803	-0.15298466
8	0xbf22b5d7	-0.63558716
9	0x3daa240a	0.08307655
10	0xbe885f38	-0.26635146
11	0xbf61d24f	-0.8821153
12	0x3d482593	0.04886396
13	0xbef8a23f	-0.48561284
14	0x3ec67705	0.3876268
15	0xbee88f61	-0.4542189

conv1.lin_l.bias f4 [16]
0	0xbe1ecb07	-0.15507136
1	0x3f17bf59	0.5927635
2	0xbf89dbae	-1.0770166
3	0x3ebec65f	0.3726072
4	0x3ee30d1f	0.44345948
5	0xbe8fa428	-0.2805493
6	0xbf51bdb1	-0.8193007
7	0x3ec9e4d3	0.39432392
8	0x3f2acbff	0.66717523
9	0xbf3305bb	-0.6993062
10	0x3f21e38f	0.6323785
11	0xbf721601	-0.94564825
12	0x3efe3da6	0.4965641
13	0xbe847c50	-0.25876093
14	0xbeca3d67	-0.3949997
15	0xbdd953d0	-0.10611689

conv1.lin_r.weight f4 [16, 1]
0	0xbf7fbdd1	-0.9989901
1	0xbf0087a1	-0.50206953
2	0x3e41df66	0.18932876
3	0xbf5b4bb1	-0.8566237
4	0xbea56b11	-0.32308248
5	0x3f165adc	0.5873239
6	0xbf38561a	-0.7200638
7	0x3df0e5b7	0.11762565
8	0xbef9ee8f	-0.48814818
9	0xbf5227cb	-0.8209197
10	0xbf57622f	-0.8413419
11	0x3dd4b04f	0.10385191
12	0xbf44af91	-0.76830393
13	0xbf4bb7e1	-0.7957745
14	0xbe8d282a	-0.27569705
15	0xbd653480	-0.05595827

conv2.lin_l.weight f4 [64, 16]
0	0xbdac99b1	-0.08427752
1	0x3e0f135f	0.13972233
2	0xbcb8b99f	-0.022549449
3	0x3e0f91a9	0.14020409
4	0xbd0a3a89	-0.03374723
5	0xbd6101cf	-0.054933365
6	0xbe1747f0	-0.14773536
7	0x3dc7e4ba	0.09760423
8	0x3dfc6a5f	0.12324976
9	0x3d3e9a2f	0.04653376
10	0xbe06c127	-0.1315962
11	0x3e0f4517	0.139912
12	0x3d9d5ea9	0.076840706
13	0x3e242e89	0.16033377
14	0xbec334db	-0.38126263
15	0xbe422e51	-0.18962981
16	0x3e179647	0.1480342
17	0xbe93e1c7	-0.28883192
18	0x3da4ad41	0.08040858
19	0x3e2d6ef1	0.16936852
20	0x3d903d2f	0.0704292
21	0x3d49a431	0.04922885
22	0xbda13d61	-0.07873035
23	0xbe86c638	-0.26323104
24	0x3e56f171	0.2099054
25	0xbe88e9ef	-0.26740977
26	0xbe7267e1	-0.23672439
27	0xbd9cce97	-0.076565914
28	0xbe611781	-0.21981622
29	0xbe1b61a0	-0.1517396
30	0xbe992b17	-0.29915687
31	0xbde41faf	-0.11138856
32	0xbd85e921	-0.065386064
33	0xbdb70c56	-0.089379
34	0x3e229e59	0.15880717
35	0xbc6079e0	-0.013700932
36	0x3bbc8840	0.005753547
37	0xbc1a7200	-0.009426594
38	0x3de258a1	0.11052061
39	0x3e11bc3f	0.14231966
40	0x3db6f326	0.08933096
41	0xbdca7eef	-0.09887492
42	0xbc23a1c0	-0.009987295
43	0x3dbcf83b	0.09227034
44	0xbd8a05c7	-0.06739383
45	0xbe04d281	-0.12970926
46	0xbe960520	-0.29300785
47	0xbe48d260	-0.19611502
48	0x3df83eaf	0.12121331
49	0xbe6aa2af	-0.22913621
50	0xbdc922cf	-0.09821092
51	0x3de85751	0.11344779
52	0x3de900bf	0.113770954
53	0xbe909209	-0.28236416
54	0x3c912a80	0.01772046
55	0xbe1e5c77	-0.1546496
56	0x3cbefcb0	0.02331385
57	0xbeb6ef5a	-0.35729486
58	0x3e2280c1	0.15869428
59	0xbc86de40	-0.016463399
60	0xbeaa2edf	-0.33238885
61	0x3e3fce5f	0.18731068
62	0x3dd5a3c0	0.104316235
63	0xbdfeb971	-0.12437714
64	0x3e436e8f	0.19085144
65	0x3dde2231	0.10846365
66	0xbe3a1ae6	-0.18174323
67	0x3da851e7	0.08218747
68	0xbc53d9a0	-0.012930304
69	0xbe5e2bf0	-0.21696448
70	0x3e2f0950	0.17093396
71	0xbea6bfff	-0.32568356
72	0x3e1ff46f	0.15620588
73	0xbe72d151	-0.2371266
74	0x3e7ebc00	0.24876404
75	0xbd806ce1	-0.06270767
76	0xbe1dd391	-0.15412737
77	0xbe2317c1	-0.1592703
78	0xbea37aef	-0.31929728
79	0xbe394881	-0.18094064
80	0xbe489def	-0.19591497
81	0xbd8ef941	-0.06981135
82	0xbe84c63f	-0.259325
83	0xbdf48a41	-0.11940432
84	0x3e75a041	0.23986913
85	0xbe133bf7	-0.14378344
86	0xbdde87b0	-0.10865724
87	0xbd2b5b0a	-0.04183487
88	0x3e7447c1	0.23855497
89	0xbe7299df	-0.2369151
90	0x3e1b38bf	0.15158366
91	0xbec2faef	-0.38082072
92	0xbea9c7d9	-0.33160284
93	0x3ce8eaf0	0.02843234
94	0xbee64931	-0.44977716
95	0xbe003690	-0.12520814
96	0xbe536821	-0.20645191
97	0xbda34eb9	-0.079739995
98	0xbdda7ac1	-0.10667945
99	0x3b9e86c0	0.004837841
100	0xbe51f701	-0.20504381
101	0xbe9ccdc1	-0.30625728
102	0xbe2283e1	-0.1587062
103	0xbe8b19e1	-0.27168182
104	0x3c1cd8a0	0.009573132
105	0x3e1e2121	0.15442325
106	0xbe4a4221	-0.19751789
107	0x3e2ccf1a	0.16875878
108	0x3e38119f	0.17975472
109	0x3e7e5b0f	0.24839424
110	0xbe090f41	-0.13384725
111	0x3ce073f0	0.027399033
112	0x3de3b311	0.111181386
113	0xbe51a70f	-0.20473884
114	0xbde9c74f	-0.11414968
115	0xbdc891ef	-0.097934596
116	0x3e0eb400	0.13935852
117	0xbe0c5381	-0.13703729
118	0xbe2b7021	-0.16741993
119	0xbe9128cf	-0.28351447
120	0xbde7c2df	-0.113164656
121	0xbcbc5c21	-0.02299315
122	0xbe3cf26f	-0.18451856
123	0xbe84a497	-0.25906822
124	0xbdae17a1	-0.085006006
125	0xbdcb83c1	-0.099372394
126	0xbe4da04f	-0.20080684
127	0xbe180e81	-0.14849283
128	0xbcf067d0	-0.029346377
129	0x3d30c5f0	0.043157518
130	0xbe0182c1	-0.12647535
131	0xbdc2915f	-0.095003836
132	0x3e070270	0.13184524
133	0xbe072cdf	-0.1320071
134	0xbe7b44bf	-0.24537943
135	0x3df2e81f	0.1186068
136	0x3dd7a2f1	0.105291255
137	0x3e5492c1	0.20759107
138	0x3dc40001	0.09570313
139	0xbbd82c00	-0.006597042
140	0x3d7f0041	0.0622561
141	0x3e52dcf1	0.20592095
142	0xbc094aa0	-0.008379608
143	0xbe1c2421	-0.15248157
144	0xbd4aa910	-0.049477637
145	0xbe37b3fa	-0.1793975
146	0x3d97f417	0.07419603
147	0x3d913671	0.07090462
148	0xbe4b3a9f	-0.19846581
149	0xbe68f421	-0.22749378
150	0xbe5e0f6f	-0.21685575
151	0xbde31a7f	-0.11089038
152	0x3d03e0d0	0.03219682
153	0x3dd133f1	0.10214985
154	0xbe76e3bf	-0.24110316
155	0xbe9d3ef9	-0.30712107
156	0x3dbb4351	0.09143699
157	0x3e716ba1	0.23576213
158	0x3dea868f	0.11451446
159	0x3d158200	0.03650093
160	0xbd83d570	-0.06437194
161	0xbccc9470	-0.024973124
162	0x3e081591	0.13289477
163	0x3e156d01	0.14592363
164	0xbd4575e1	-0.04820812
165	0xbe4d1bbf	-0.20030116
166	0xbded4170	-0.11584747
167	0x3e312406	0.17298898
168	0xbe001741	-0.1250887
169	0x3d825f0f	0.06365787
170	0x3dcf4501	0.10120583
171	0xbdfc5310	-0.123205304
172	0xbe2e8b1a	-0.1704525
173	0x3e57e5bf	0.21083735
174	0x3e2fd71a	0.17171898
175	0xbd29e250	-0.041475594
176	0xbe45daa1	-0.19321682
177	0xbe31ced1	-0.1736405
178	0x3ceb2400	0.02870369
179	0x3dfe6450	0.12421477
180	0x3e5f3821	0.21798755
181	0x3db7171f	0.08939957
182	0x3c62fa60	0.013853639
183	0xbe23a869	-0.15982212
184	0x3e18a5b1	0.14906956
185	0x3a9fd5a7	0.0012194411
186	0xbe72d74f	-0.23714946
187	0xbdc0ff3f	-0.09423684
188	0xbd8bbdb1	-0.0682329
189	0x3c8cb430	0.017175764
190	0xbe9e61b7	-0.30933926
191	0xbe4bb581	-0.19893457
192	0xbe48b7cf	-0.19601367
193	0xbe0b049f	-0.13575982
194	0xbc9b9f4f	-0.018996863
195	0xbdff930f	-0.12479221
196	0x3e5778a1	0.2104211
197	0xbdd362df	-0.103215925
198	0x3d149ee0	0.036284328
199	0xbe2569bf	-0.1615362
200	0xbe02848f	-0.1274588
201	0xbdaf1a0a	-0.085498884
202	0x3e06b3cf	0.13154529
203	0x3d19b819	0.037529085
204	0x3dd315af	0.1030687
205	0x3d56cbe1	0.052440528
206	0x3e1624c7	0.14662467
207	0x3cc158a0	0.02360183
208	0xbd7a6161	-0.061128024
209	0xbe02185f	-0.1270461
210	0xbd048de9	-0.0323619
211	0x3e24af11	0.16082408
212	0x3dc3ac51	0.09554351
213	0x3d83f699	0.06443519
214	0xbe2482a0	-0.16065454
215	0x3ca6aa97	0.020345015
216	0x3e355fcf	0.1771233
217	0x3e02dc0f	0.12779258
218	0xbe321ef6	-0.17394623
219	0xbdaf292f	-0.08552777
220	0x3c95a077	0.018264992
221	0xbd11d790	-0.035605967
222	0x3c99619f	0.018723307
223	0x3d893cf0	0.06701076
224	0x3e41cc1f	0.18925522
225	0x3da26ce7	0.07930928
226	0x3e3a5281	0.18195535
227	0x3dfe80f0	0.124269366
228	0xbe58ec10	-0.211838
229	0xbe0c3119	-0.13690604
230	0x3e604ad0	0.21903539
231	0xbc99fa10	-0.018795997
232	0xbe0c63b7	-0.13709913
233	0x3e6d7aaf	0.23191331
234	0x3ce9a8e0	0.028522909
235	0xbe0c0f11	-0.13677622
236	0xbe5f1e1f	-0.21788834
237	0xbbe34140	-0.0069352686
238	0x3d8a332f	0.06748044
239	0xbd54da61	-0.051966075
240	0x3e14b671	0.14522721
241	0x3e8bccc7	0.2730467
242	0x3e0fac21	0.14030506
243	0x3e3b47d0	0.18289113
244	0x3df379e1	0.11888481
245	0x3cc31851	0.023815306
246	0xbc823a80	-0.015897036
247	0x3c5e02ff	0.013550519
248	0xbe6451cf	-0.22296833
249	0x3c8b6957	0.017018003
250	0x3dedc401	0.116096504
251	0x3c9c2fa7	0.019065691
252	0xbc0c80ff	-0.008575677
253	0x3dcc0de1	0.09963585
254	0x3d5a3f31	0.05328292
255	0x3be5ff00	0.0070189238

conv2.lin_l.bias f4 [64]
0	0xbd966aaf	-0.07344567
1	0xbdf7ee5f	-0.121060126
2	0xbea77f7f	-0.3271446
3	0xbebb7471	-0.36612275
4	0xbdddac0f	-0.10823833
5	0xbeb21b8f	-0.3478665
6	0x3e2e54bf	0.17024516
7	0x3d4d1eff	0.05007839
8	0x3d50d7e0	0.050987124
9	0xbe4f4d0f	-0.2024424
10	0x3d4f9690	0.050680697
11	0x3d094d21	0.03352082
12	0x3e01a06f	0.12658857
13	0x3c865711	0.016398938
14	0xbe569daf	-0.20958589
15	0xbe75fbaf	-0.24021791
16	0xbd9e9967	-0.07744103
17	0xbe6c833f	-0.23096941
18	0xbe95e6a0	-0.29277515
19	0xbe9e8ea9	-0.30968216
20	0xbe719f91	-0.23596026
21	0x3dacf25a	0.084446624
22	0xbdcdcfc1	-0.100493915
23	0xbd62a61f	-0.055334207
24	0x3e2f8a4a	0.17142597
25	0xbe1db211	-0.15399958
26	0x3e0257d0	0.1272881
27	0xbdca1d21	-0.09868837
28	0xbe883177	-0.2660024
29	0x3dac196f	0.084032886
30	0xbe948161	-0.29004958
31	0xbee0e3f1	-0.43923905
32	0xbe5a55bf	-0.21321772
33	0x3e49692f	0.1966903
34	0xbddfae51	-0.1092192
35	0xbe2868e7	-0.16446267
36	0xbe9b697f	-0.30353925
37	0x3e213ee9	0.15746655
38	0x3e3081f0	0.17237067
39	0x3de46e50	0.11153853
40	0xbd2218a7	-0.03957429
41	0xbddb527f	-0.10709094
42	0xbc07f178	-0.008297317
43	0xbe165801	-0.14682008
44	0xbdf16a41	-0.117878444
45	0xbccfdcc1	-0.025373818
46	0xbe4ee169	-0.20203175
47	0xbec6a580	-0.3879814
48	0xbea1f0a7	-0.31628916
49	0xbeb57786	-0.35442752
50	0x3d0fca41	0.035104994
51	0xbe56ffa1	-0.20995952
52	0xbdac24b1	-0.08405436
53	0xbdaa0aa7	-0.08302813
54	0x3e19938f	0.14997695
55	0x3db6e9c6	0.089313075
56	0xbeb069c1	-0.34455684
57	0x3e40f5b1	0.18843724
58	0xbdf9fe7f	-0.122067444
59	0xbe3aa69f	-0.18227623
60	0x3db9a2cf	0.090642564
61	0x3d9f8111	0.07788289
62	0x3e1c2b1f	0.15250824
63	0x3c957f29	0.018249111

conv2.lin_r.weight f4 [64, 16]
0	0xbe22f6d0	-0.15914464
1	0x3dc3fe11	0.09569944
2	0xbe97000f	-0.29492232
3	0x3da6eaa1	0.08150221
4	0xbe13634f	-0.14393352
5	0x3d8430c7	0.06454616
6	0x3e261337	0.16218267
7	0xbe4ce091	-0.2000754
8	0xbe06a49f	-0.13148735
9	0x3e003357	0.12519585
10	0xbdb788c6	-0.08961634
11	0xbe25a88f	-0.16177581
12	0xbe22566f	-0.15853284
13	0xbe35155a	-0.17683926
14	0xbe0b8129	-0.1362349
15	0x3e04e1ff	0.12976836
16	0xbd0fe240	-0.03512788
17	0xbe857701	-0.26067355
18	0xbe90be09	-0.28269985
19	0x3c8adca0	0.016950905
20	0x3e06c660	0.13161612
21	0xbe1aedff	-0.15129851
22	0xbe27fbc1	-0.1640463
23	0x3ca3c4ef	0.019991366
24	0x3e29c69f	0.16579674
25	0xbdd642e1	-0.10461975
26	0xbdc70021	-0.097168215
27	0x3d186aa9	0.037211094
28	0xbe886f8f	-0.26647612
29	0xbe2495cf	-0.16072772
30	0x3d8bc1a7	0.06824046
31	0x3e0d46f1	0.13796593
32	0x3de61441	0.11234332
33	0x3e27c7b1	0.1638477
34	0x3e3fe321	0.18738987
35	0x3e011091	0.12603976
36	0x3e201371	0.15632416
37	0xbb8efa3f	-0.0043633278
38	0x3d852340	0.06500864
39	0xbd79f921	-0.061028603
40	0x3e3c5a91	0.18393923
41	0xbdc585f1	-0.09644688
42	0xbe63f3c0	-0.22260952
43	0x3e76e56f	0.2411096
44	0x3e5df3a1	0.21674968
45	0xbe49240f	-0.19642662
46	0xbdbcbbd1	-0.09215511
47	0xbe609e9f	-0.21935509
48	0x3d40cf60	0.04707277
49	0x3d73c020	0.059509397
50	0xbdcaf8ff	-0.099107735
51	0xbd502b7f	-0.05082273
52	0x3dbef311	0.09323705
53	0x3bdc1671	0.0067165424
54	0x3e5ab221	0.21357013
55	0xbe9a30e1	-0.30115417
56	0x3e457d50	0.19286084
57	0xbe7322e1	-0.23743774
58	0xbd964a1f	-0.07338356
59	0x3dddbf41	0.108274944
60	0xbcce6750	-0.025195748
61	0x3d53eae1	0.05173767
62	0xbe0b618f	-0.13611434
63	0xbda3e291	-0.080021985
64	0x3caf8f00	0.021430492
65	0x3d09cb00	0.03364086
66	0xbe716f41	-0.23577596
67	0xbd323aa6	-0.043512963
68	0x3defe011	0.11712659
69	0x3dd51dbf	0.10406064
70	0xbe0a94d9	-0.13533343
71	0x3cfdbb6f	0.030973164
72	0x3b65f780	0.0035090148
73	0x3c296f31	0.0103414515
74	0x3d898237	0.0671429
75	0x3dad0f56	0.08450191
76	0x3da5e5f7	0.08100503
77	0xbe71c69f	-0.23610924
78	0xbd356481	-0.0442853
79	0x3d8ae1ef	0.06781375
80	0xbe09f8af	-0.13473772
81	0xbf0701df	-0.5273723
82	0xbe0ea4e1	-0.13930084
83	0x3d456fa1	0.04820216
84	0x3d0887b8	0.033332556
85	0xbe930671	-0.28715852
86	0x3e260a10	0.16214776
87	0xbf025901	-0.5091706
88	0xbe1bfbf7	-0.15232836
89	0xbf02b551	-0.51057917
90	0xbe79e130	-0.24402308
91	0xbeb9bba6	-0.36275977
92	0xbee0a44f	-0.43875358
93	0xbe038521	-0.12843753
94	0xbe43de41	-0.19127752
95	0xbddeb460	-0.108742476
96	0xbd9cb7a9	-0.07652218
97	0xbe6702ef	-0.22559713
98	0xbdd17aa1	-0.10228468
99	0x3e1d57b7	0.15365492
100	0x3e4072df	0.1879382
101	0x3df12f01	0.117765434
102	0xbd964249	-0.07336862
103	0x3e0ae727	0.1356474
104	0xbe21cf07	-0.15801631
105	0xbd16cebf	-0.036818262
106	0x3e57933f	0.21052264
107	0xbe61dc0f	-0.22056602
108	0x3dd46dc1	0.103724964
109	0x3a2fca00	0.00067058206
110	0x3bdbdc8f	0.0067096422
111	0xbe6b54ff	-0.22981642
112	0x3e6e5881	0.23275949
113	0xbe900411	-0.28128102
114	0xbe73ecb1	-0.2382076
115	0xbdc210c1	-0.09475852
116	0xbd7f8880	-0.062386036
117	0x3cd4fe2f	0.02600011
118	0xbd5d0181	-0.053956512
119	0x3e0f0717	0.13967548
120	0xbe72f2bf	-0.23725413
121	0x3df8ae3f	0.1214261
122	0xbe4b1dff	-0.19835661
123	0x3e5b1a81	0.21396829
124	0xbe7b14bf	-0.24519633
125	0x3cebf5c0	0.028803706
126	0xbd5d8e5f	-0.054090854
127	0xbde171cf	-0.110080354
128	0x3dbdd261	0.09268642
129	0x3e6138b1	0.21994282
130	0xbd78b581	-0.06071997
131	0xbe376b8f	-0.17912124
132	0xbe0b18cf	-0.13583682
133	0xbde7b7b0	-0.113143325
134	0x3e0591f9	0.13043965
135	0xbe4f58f0	-0.2024877
136	0x3e3af43f	0.18257235
137	0x3da375a7	0.07981425
138	0x3d9a4169	0.07532007
139	0xbe34646f	-0.17616437
140	0xbde5feaf	-0.11230218
141	0xbe1867c1	-0.14883329
142	0x3dda1b01	0.10649682
143	0x3dd80830	0.10548437
144	0x3e3e7950	0.18600965
145	0xbb42f76f	-0.0029749533
146	0x3d6bdff1	0.057586614
147	0x3d7f08d0	0.062264264
148	0xbd60a710	-0.054846823
149	0x3d2194e1	0.039448623
150	0xbe34152f	-0.17586206
151	0xbe69274f	-0.22768901
152	0x3d37ef60	0.04490602
153	0xbc843a60	-0.016141117
154	0x3ccad100	0.024757862
155	0xbc0d29b1	-0.008615897
156	0xbe40751f	-0.18794678
157	0xbdcda05f	-0.10040354
158	0xbdf81871	-0.12114037
159	0xbd0fb5a9	-0.035085354
160	0xbdb46b9f	-0.088095896
161	0x3e4a2f8f	0.19744705
162	0x3e19756f	0.14986204
163	0xbe703d01	-0.23460771
164	0x3dc08cbf	0.09401845
165	0xbe5cace1	-0.21550323
166	0x3db2fd30	0.08739698
167	0xbe78a2cf	-0.24280857
168	0x3d0fa2c9	0.035067353
169	0xbe1ac8cf	-0.15115665
170	0x3e7c88c0	0.24661541
171	0xbe61157f	-0.21980856
172	0xbdfcd9c1	-0.12346221
173	0x3e715ac1	0.23569776
174	0xbd46f79f	-0.048575994
175	0x3e7a14e1	0.24422027
176	0xbd602fa1	-0.054732922
177	0x3e0d22f1	0.1378286
178	0xbe794091	-0.24341036
179	0x3d3076e0	0.043082118
180	0x3d861ef0	0.065488696
181	0xbd8009af	-0.06251847
182	0xbdfe22b1	-0.124089606
183	0xbe6dc8ff	-0.23221205
184	0x3de1b2c1	0.11020423
185	0xbdaf4c11	-0.085594304
186	0x3e30833a	0.17237559
187	0x3e37e42a	0.17958131
188	0x3e1a801f	0.15087937
189	0x3d972e20	0.073818445
190	0xbe43c2ef	-0.1911733
191	0x3e333440	0.175004
192	0xbe3cc201	-0.18433382
193	0xbc386b21	-0.01125601
194	0xbdb71d2a	-0.089411095
195	0x3e1b1ea0	0.15148401
196	0x3e1dd15f	0.154119
197	0xbe3be1bf	-0.18347834
198	0x3e24b967	0.1608635
199	0x3dbebce1	0.093133695
200	0x3da5acef	0.08089625
201	0xbdf652f1	-0.120275386
202	0xbe1f327f	-0.15546606
203	0xbe6b85df	-0.23000287
204	0xbe36c3af	-0.17848085
205	0xbe51f74f	-0.20504497
206	0x3ccc2440	0.02491963
207	0x3e36f34f	0.17866252
208	0x3e62272f	0.2208526
209	0xbe0d60c0	-0.13806438
210	0xbe02b6bf	-0.12765025
211	0x3e61549f	0.22004937
212	0x3cbcea30	0.023060888
213	0xbd908d57	-0.070582084
214	0x3e003cc0	0.12523174
215	0xbe459721	-0.19295932
216	0xbe3137f1	-0.17306496
217	0xbe114c8f	-0.14189361
218	0xbdc1c85f	-0.09462046
219	0x3d8c3699	0.06846351
220	0xbe02a96f	-0.12759946
221	0x3e7c196f	0.24619077
222	0xbe514fd1	-0.20440604
223	0xbe1188b0	-0.14212298
224	0x3e336766	0.17519912
225	0x3e749e41	0.23888494
226	0xbe6e9671	-0.23299576
227	0xbe4735df	-0.19454144
228	0xbe00c547	-0.12575255
229	0xbdc55381	-0.09635068
230	0xbe5a6780	-0.21328545
231	0x3dd30f21	0.1030562
232	0x3d924057	0.07141178
233	0x3d9afea0	0.07568097
234	0x3d5ac8d0	0.053414166
235	0x3e68ef11	0.22747447
236	0xbd94c117	-0.072633915
237	0xbe339836	-0.17538533
238	0x3d433d81	0.047666077
239	0x3e19c980	0.15018272
240	0xbe617750	-0.2201817
241	0xbd91ae0f	-0.07113277
242	0xbb19780f	-0.0023417508
243	0x3d6521c1	0.055940393
244	0xbc9611e0	-0.01831907
245	0xbd9c325f	-0.07626795
246	0x3b65ce80	0.003506571
247	0x3d574131	0.052552406
248	0xbd0f6820	-0.03501141
249	0xbdc8866f	-0.09791266
250	0x3de2c121	0.11071993
251	0x3d478a91	0.04871613
252	0x3e4c767f	0.19967078
253	0x3d94d9a0	0.07268071
254	0xbe0b8641	-0.13625433
255	0xbdb27e30	-0.087154746

lstm_cell.weight_ih f4 [256, 192]
0	0x3e008811	0.12551905
1	0x3e3cff30	0.18456721
2	0xbd927501	-0.07151223
3	0x3c993e09	0.018706338
4	0x3d293789	0.041312728
5	0xbe393106	-0.18085107
6	0x3d3c44c1	0.045964006
7	0x3d8b63b7	0.068061285
8	0xbdd4159f	-0.103556864
9	0xbcbd0f8f	-0.023078708
10	0x3db3f1a6	0.08786325
11	0x3e10f679	0.14156522
12	0x3e0bc4ff	0.13649367
13	0x3e438181	0.1909237
14	0x3bb0dd80	0.0053974986
15	0xbe4f7321	-0.20258762
16	0x3d1c4fb7	0.03816196
17	0x3e2c0711	0.1679957
18	0xbc43652f	-0.0119259795
19	0x3e09cae9	0.1345631
20	0x3de0b2c1	0.109715946
21	0x3c272781	0.01020229
22	0x3d2d8a16	0.042368017
23	0x3d71c27f	0.059023377
24	0xbd12ad20	-0.035809636
25	0x3dfc62ff	0.123235695
26	0x3deebe41	0.11657382
27	0x3e34ae3a	0.17644587
28	0xbd3f8cb1	-0.046765033
29	0xbeb7bd7f	-0.35886762
30	0x3e4497ef	0.19198583
31	0xbd4783b1	-0.048709575
32	0xbc3c7130	-0.011501595
33	0x3e3a7921	0.1821027
34	0xbe4a3dc1	-0.1975012
35	0x3e21d999	0.15805663
36	0x3c869481	0.016428234
37	0xbdfe2db1	-0.12411059
38	0x3d26c3bf	0.04071402
39	0xbd0f3057	-0.03495821
40	0xbe0f93cf	-0.14021228
41	0x3dce3400	0.10068512
42	0x3dc7f1bf	0.09762906
43	0x3e0b3849	0.1359569
44	0x3e53b211	0.20673396
45	0xbc359ca1	-0.0110847065
46	0x3daf3ee0	0.08556914
47	0xbd3ddc50	-0.046352684
48	0xba3a543f	-0.00071078906
49	0xbc511e30	-0.012763545
50	0xbd2801a0	-0.041017175
51	0x3dd8eb8f	0.10591804
52	0x3da9be31	0.08288229
53	0x3e1e7157	0.15472923
54	0x3e4d9a91	0.20078494
55	0xba144d89	-0.00056573056
56	0x3df06640	0.11738253
57	0x3e28a871	0.16470505
58	0xbab0bc61	-0.0013483876
59	0x3e5b15c1	0.21395017
60	0x3e1bac4f	0.1520245
61	0x3ded5ba0	0.11589742
62	0xbd5f82cf	-0.05456811
63	0x3d97a7a1	0.074050196
64	0xbf843ccb	-1.0331053
65	0x40584c8b	3.3796718
66	0x4029f505	2.6555798
67	0x4034c01f	2.8242261
68	0x4011d41b	2.278571
69	0x40b6dc15	5.7143655
70	0x40e5bc6b	7.1792502
71	0xbdb69d46	-0.08916716
72	0x40b5ef26	5.685443
73	0x40f34dcb	7.603246
74	0x40f08a90	7.5169144
75	0x40d3c368	6.6176033
76	0x40cb81cf	6.359596
77	0x40d7f47e	6.748595
78	0x410c7d9b	8.780665
79	0x40f4e13e	7.6524954
80	0x40fd041e	7.9067526
81	0x40d96dc0	6.794647
82	0x40ef20f0	7.4727707
83	0x40ed72a3	7.4202437
84	0x40ed515e	7.4161825
85	0x3db22e19	0.08700199
86	0x4105f896	8.37319
87	0x40aa5b06	5.3236113
88	0x40e60efb	7.1893287
89	0x40e55b26	7.1673765
90	0x40e03e2a	7.0075884
91	0x4101529f	8.082671
92	0x40ea4930	7.321434
93	0x3ba65b58	0.005076807
94	0x3d715e1e	0.058927648
95	0x3d74dd28	0.059781224
96	0xbd503507	-0.05083182
97	0xbdd72671	-0.10505379
98	0x3c62ad5f	0.01383528
99	0x3c8d2b91	0.017232688
100	0x3cecf34f	0.028924612
101	0x3d2a1f01	0.041533474
102	0xbe0fc791	-0.14040972
103	0x3b964920	0.004586354
104	0x3d90d801	0.070724495
105	0xbbfdf660	-0.0077503175
106	0xbdefb29f	-0.11703991
107	0xbde5c3c1	-0.11218978
108	0x3b6c8f00	0.0036095977
109	0xbd026670	-0.031835973
110	0x3c6d14f0	0.014470324
111	0xbd555bc0	-0.052089453
112	0xbd978ea0	-0.074002504
113	0x3d0585bf	0.032598253
114	0xbcfb6be0	-0.030691087
115	0x3b93c300	0.00450933
116	0xbc5366e0	-0.012902945
117	0xbda60c3f	-0.081078045
118	0xbdb12606	-0.086498305
119	0xbdf683b1	-0.12036837
120	0x3dc6feef	0.097165935
121	0x3c3c5ac0	0.011496246
122	0xbdb7b986	-0.08970933
123	0x3de854ff	0.11344337
124	0xbdae37bf	-0.085067265
125	0xbde67a0f	-0.112537496
126	0x3d431d41	0.04763532
127	0xbd90af09	-0.07064635
128	0xbcfec641	-0.031100394
129	0x3ffdfb4e	1.9842317
130	0x3fa403e2	1.2813685
131	0xbef28f9e	-0.47375196
132	0xbf08a400	-0.53375244
133	0x40144f37	2.317335
134	0x3dd474ff	0.10373878
135	0x40565d8c	3.3494596
136	0x40d47f1d	6.6405168
137	0x40bad4f3	5.838495
138	0xbdb7db54	-0.089773804
139	0x40ec41c0	7.383026
140	0x40f6ac64	7.708544
141	0x40f8bf39	7.7733426
142	0x3dcc8fcf	0.09988367
143	0x41062101	8.383058
144	0x411111f2	9.066881
145	0x41008c25	8.034215
146	0x40f23a30	7.569603
147	0x40e571a6	7.170123
148	0x40dc2b7b	6.8803077
149	0x40cebe69	6.4607434
150	0x3c595c2f	0.013266607
151	0x41046a6e	8.275984
152	0x40ce59a4	6.4484425
153	0x405fe99c	3.4986334
154	0x3d57ea0b	0.052713435
155	0x40e07a82	7.0149546
156	0x40843cc7	4.132419
157	0x4109b18f	8.605849
158	0x3def466f	0.11683356
159	0x3d73e221	0.059541825
160	0x3d55b1ea	0.052171625
161	0x3d94d8ad	0.0726789
162	0xbe06c4aa	-0.13160959
163	0xbd9139d7	-0.0709111
164	0xbdc6a4c6	-0.09699397
165	0xbdeb322f	-0.11484181
166	0xbd9f25a7	-0.077708535
167	0xbdf1b941	-0.118029125
168	0x3d49ca8f	0.04926544
169	0x3dea34df	0.114358656
170	0x3d912fff	0.07089233
171	0xbd24eebf	-0.04026675
172	0xbd023c11	-0.031795565
173	0x3d597561	0.053090457
174	0x3db6e1bf	0.089297764
175	0xbdc416d0	-0.09574664
176	0xbda6f849	-0.081528254
177	0xbd3da38f	-0.04629856
178	0xbd8ef497	-0.069802456
179	0x3d2cbaa6	0.04217019
180	0xbdf87be1	-0.12133003
181	0x3db95850	0.090500474
182	0xbb3efe40	-0.0029143244
183	0x3de36271	0.111027606
184	0x3d243bf1	0.040096227
185	0xbd834e21	-0.06411386
186	0xbd108a00	-0.035287857
187	0xbdac2466	-0.0840538
188	0x3d1e4359	0.038638446
189	0xbda8a7b1	-0.082351096
190	0x3df24e81	0.1183138
191	0x3db6944f	0.08915006
192	0x3d2fd111	0.04292399
193	0x3d20859f	0.03918993
194	0x3f0edd29	0.55806214
195	0x3dcf7e81	0.101315506
196	0x3db29266	0.087193295
197	0xbe128879	-0.14309873
198	0xbc557fbf	-0.013030945
199	0x3cf95b6f	0.030439107
200	0xbc617dd0	-0.013762906
201	0xbce17d21	-0.027525486
202	0x3dfb6741	0.122755535
203	0x3bdb4231	0.0066912402
204	0xbd0dcd27	-0.034619477
205	0x3ec76751	0.38946012
206	0xbda80d77	-0.08205693
207	0x3f17b5d1	0.59261805
208	0x3c8b5eb9	0.01701294
209	0x3d56fee1	0.052489165
210	0xbd00c661	-0.03143919
211	0x3df5d10f	0.120027654
212	0x3e3dbd0f	0.18529151
213	0x3da38800	0.07984924
214	0xbd4cdf81	-0.050017837
215	0x3e330f16	0.17486224
216	0x3d7ebee0	0.06219375
217	0x3d603d6f	0.054746088
218	0x3c0ed530	0.00871782
219	0x3e97c481	0.29642108
220	0xbc0bf819	-0.008543038
221	0x3f338901	0.70130926
222	0x3f14b019	0.58081204
223	0x3d291489	0.04127935
224	0x3d88523f	0.06656312
225	0xbd561cff	-0.052273747
226	0x3f5693e1	0.83819395
227	0xbd327d5f	-0.043576594
228	0xbd47da9f	-0.048792478
229	0x3ddda1df	0.1082189
230	0xbcd914e0	-0.026499212
231	0x3c8273b8	0.01592432
232	0x3f2dd410	0.67901707
233	0x3cc718e0	0.024303854
234	0x3f4467af	0.7672071
235	0x3e0022f9	0.12513341
236	0x3eb419ca	0.35175925
237	0x3e061289	0.13093008
238	0x3d143922	0.0361873
239	0x3d9fe8a7	0.07808047
240	0xbdad433f	-0.08460092
241	0x3d14abc9	0.03629664
242	0x3eb69dcf	0.35667273
243	0xbe2b46bf	-0.16726206
244	0xbdbfefef	-0.093719356
245	0xbd969db9	-0.07354302
246	0x3df232cf	0.11826097
247	0x3cd6b131	0.026207538
248	0xbd9fa787	-0.07795625
249	0x3e0b6439	0.1361245
250	0x3e21e4c1	0.15809919
251	0x3d6178df	0.055046912
252	0x3d51d5bf	0.051229235
253	0xbd620ebf	-0.055189844
254	0xbce5e11f	-0.028061448
255	0x3d035471	0.03206295

lstm_cell.weight_hh f4 [256, 64]
0	0x3ee7b06d	0.4525179
1	0x3ec24c14	0.37948668
2	0x3f88daa0	1.0691719
3	0xc085ddc8	-4.183323
4	0x3faa67f6	1.3312976
5	0xc03474ea	-2.8196359
6	0xc01903ae	-2.3908496
7	0x401c00cc	2.4375486
8	0x405ed383	3.4816597
9	0x3f4724fc	0.7779081
10	0x3ee50330	0.44728994
11	0xbfa33b9f	-1.275257
12	0xbd3970f3	-0.045273732
13	0xbfb9046f	-1.4454478
14	0xbfec6d6f	-1.8470896
15	0xbe62a999	-0.22135009
16	0xbf4e9950	-0.80702686
17	0x3f1b62fa	0.606979
18	0xc0489626	-3.1341643
19	0xbfc59317	-1.5435513
20	0xbd47abbf	-0.048747774
21	0x40266616	2.5999808
22	0x4021b5ab	2.5267131
23	0xbf461f13	-0.77391165
24	0x3f054dc7	0.52071804
25	0x40219695	2.5248158
26	0xc01dee0e	-2.4676547
27	0x3f67f215	0.9060376
28	0xbe302be5	-0.17204244
29	0xc03a10ac	-2.9072676
30	0xbff5a76c	-1.9191718
31	0x3dc87a35	0.09788934
32	0x3f96a0e4	1.176785
33	0xbff9c721	-1.9513894
34	0xbece2ccb	-0.4026855
35	0x3f6fc40d	0.93658525
36	0x401be5b8	2.435896
37	0xbfb17cea	-1.3866246
38	0x3e6174a2	0.22017148
39	0xc0101fb8	-2.251936
40	0x3f9dd26c	1.2329841
41	0xbdb9f2a5	-0.09079484
42	0xc0329171	-2.790127
43	0xbf947bb0	-1.1600246
44	0xbf9f3d7d	-1.244064
45	0xbfec52fd	-1.8462826
46	0x3f117557	0.5681967
47	0x3fca5545	1.5807272
48	0x3ee82656	0.45341748
49	0x40052d1e	2.0808787
50	0xc0000dbd	-2.0008385
51	0x3f33d1ae	0.7024182
52	0x3fbc4213	1.4707664
53	0x3fc7dd3e	1.5614393
54	0xc017c774	-2.3715487
55	0x4043272c	3.0492659
56	0x3fa5b49d	1.2945744
57	0xc016e796	-2.357885
58	0x3f6ce911	0.9254313
59	0x3e9851df	0.29749963
60	0x4035c2a0	2.840004
61	0x3fa2498d	1.2678696
62	0x3ef94bcc	0.4869064
63	0x4036d5bc	2.8567953
64	0x3edf4c7d	0.43613043
65	0xbef48f77	-0.47765705
66	0x3ce8df3b	0.028426757
67	0x3ea29c01	0.31759647
68	0xc00e7f1d	-2.2265084
69	0xc02fd9d8	-2.7476711
70	0x3f0ea64a	0.55722487
71	0x3eb3d8db	0.35126385
72	0xc005a3d8	-2.0881252
73	0xbf8d5146	-1.1040428
74	0xbf232f8d	-0.6374443
75	0xbf207566	-0.62679136
76	0xbf817114	-1.0112634
77	0xbf0ba5d5	-0.54549915
78	0xbe543bff	-0.20726012
79	0x402f59e0	2.7398605
80	0xbf13fd8d	-0.5780876
81	0xbf80e3e6	-1.0069549
82	0xbf518346	-0.8184093
83	0xc0171378	-2.3605633
84	0xbf353884	-0.7078936
85	0x3feab6fd	1.8337094
86	0x3eb2e6c5	0.34941688
87	0x3f69589f	0.9115085
88	0x3f9476ef	1.1598796
89	0xbe8b84a0	-0.27249622
90	0xc014dc86	-2.3259597
91	0xc077e803	-3.8735359
92	0xbf475de4	-0.7787764
93	0xbeaab467	-0.3334076
94	0xc00c5742	-2.1928258
95	0xbf735ae3	-0.9506056
96	0x3e2e09f8	0.1699599
97	0x3fc5eca8	1.5462847
98	0xc0698a3c	-3.6490622
99	0x400629e7	2.0963075
100	0x3fd0f882	1.6325839
101	0xbed97d02	-0.42478186
102	0xbd950c9f	-0.07277798
103	0x403cd51f	2.9505079
104	0xbf8be71d	-1.0929905
105	0xbf54d099	-0.83130795
106	0x40931024	4.5957203
107	0x3f2707c2	0.6524621
108	0xbfc724b9	-1.5558082
109	0xbe9da042	-0.3078633
110	0xbfb9485f	-1.4475211
111	0xbf52c9d6	-0.8233923
112	0x4080705a	4.013715
113	0xc0016e27	-2.0223482
114	0x3f9eb5f3	1.2399276
115	0xc00a4142	-2.160233
116	0x3e5aef04	0.2138024
117	0xbe34b877	-0.17648493
118	0xc04db141	-3.2139437
119	0xbe00b794	-0.1257003
120	0xbddaa311	-0.10675634
121	0xbfecc67e	-1.8498075
122	0x3fe01bca	1.750848
123	0x3f1af3ac	0.60528064
124	0x3fd0879f	1.6291388
125	0xbf936b4b	-1.1517118
126	0x3dd633ec	0.10459122
127	0xbff89158	-1.9419355
128	0x402a2ec5	2.6591046
129	0x3f7d73f0	0.9900503
130	0x3ebfd23c	0.37465084
131	0x3ee37ea0	0.44432545
132	0x408d2927	4.4112735
133	0x3ea4dea3	0.32201108
134	0x3e9ae416	0.3025214
135	0xbff7e310	-1.9366169
136	0x4006177f	2.095184
137	0xc01b067e	-2.4222713
138	0x3fd8c938	1.6936407
139	0x3cf6a28d	0.030106807
140	0xbded378c	-0.1158286
141	0xbfaa15c7	-1.3287896
142	0xbff4d0f9	-1.9126273
143	0xbf2520c6	-0.64503133
144	0x3fc87f5e	1.5663869
145	0x3f2e85e7	0.6817307
146	0xbf00d105	-0.5031894
147	0xbff9869d	-1.9494206
148	0x4073eb92	3.811253
149	0x3ef948c8	0.4868834
150	0x3fb99b09	1.4500438
151	0x3fc5f2e6	1.5464752
152	0x3f1f45aa	0.62215674
153	0x3fb8434f	1.4395541
154	0x3fd2c7c0	1.6467209
155	0xbeb537d5	-0.3539416
156	0xc0001b13	-2.0016525
157	0x4022b2f3	2.5421722
158	0x3f62e672	0.8863288
159	0x3f8c1878	1.0944967
160	0x3fc3d8a8	1.5300493
161	0xbfc06eeb	-1.503385
162	0xbd9ed2fc	-0.07755086
163	0xbf7379c6	-0.95107687
164	0x3fe6424d	1.7988983
165	0x3ff59424	1.9185834
166	0x3f9ff9f7	1.2498158
167	0x40209661	2.5091784
168	0xc00e1792	-2.2201886
169	0xbefc8ed1	-0.4932771
170	0xc01a6b30	-2.4127922
171	0xbef39199	-0.4757202
172	0x3fea724d	1.8316132
173	0xc04b2cee	-3.1746173
174	0x3f5330da	0.82496417
175	0x3f8c5a13	1.0964988
176	0x3e46d97c	0.19418901
177	0xc08b12b6	-4.346034
178	0x3f60e55a	0.8784996
179	0x3f6b6573	0.91951674
180	0xc079678f	-3.8969457
181	0x3f901166	1.125531
182	0x3f50397f	0.8133773
183	0x3f909b42	1.1297381
184	0x3fdd2fa2	1.7280161
185	0x3e966d24	0.29380143
186	0xbf5087b2	-0.81457055
187	0x3f7bf816	0.98425424
188	0x403c9362	2.9464955
189	0xbf9d7922	-1.2302592
190	0xbee92a8a	-0.45540267
191	0xbfca41cc	-1.580133
192	0xbfd0d79e	-1.6315801
193	0x3f7cde0a	0.98776305
194	0xbe90f3be	-0.2831096
195	0x3e2e4e7d	0.17022128
196	0xbf339379	-0.701469
197	0x3e3264d9	0.17421283
198	0xbf77e2cd	-0.96830446
199	0xbff1affa	-1.8881829
200	0xc04bbfa7	-3.1835725
201	0x3fda6f7e	1.7065275
202	0xbfca83c6	-1.5821464
203	0xbf981ce6	-1.1883819
204	0x3f7d905b	0.99048394
205	0xbf436945	-0.76332504
206	0x3e4fbefa	0.20287696
207	0xbe8bd5db	-0.27311596
208	0x3de7d0bc	0.1131911
209	0x3ffd86c3	1.9806751
210	0x3ff3b010	1.9038105
211	0xbd7c13c5	-0.06154229
212	0xbf870583	-1.0548557
213	0xbf118c95	-0.56855136
214	0x3deab7e6	0.11460857
215	0x3eb2f850	0.34955072
216	0x4035e8fa	2.8423448
217	0x3848803f	4.7803154e-05
218	0x3f1a5532	0.6028625
219	0x40277282	2.616364
220	0x401e12f8	2.4699078
221	0x3fba22b7	1.4541844
222	0xbdb8771b	-0.090070926
223	0xc096ded0	-4.714699
224	0xbfe69a8d	-1.8015915
225	0xbf5f09af	-0.8712415
226	0x3fa0d2c3	1.2564319
227	0x3ee823c8	0.453398
228	0x3faff07b	1.3745264
229	0xbe9ee52f	-0.31034228
230	0x4025e83f	2.5923002
231	0x3f3b2431	0.731021
232	0xbe354def	-0.1770551
233	0x40357687	2.8353593
234	0xc03c958c	-2.9466276
235	0xc0383bcf	-2.8786504
236	0x400322f9	2.0490096
237	0xbebdc6b6	-0.37065667
238	0x402f647a	2.7405076
239	0x3f4b5be8	0.7943711
240	0x402902ee	2.6408038
241	0x3d142802	0.036170967
242	0xbf16a322	-0.5884267
243	0x3ee0cf12	0.43907982
244	0x3d0f2ac8	0.03495291
245	0xbf493f52	-0.78612244
246	0x3e961d33	0.29319152
247	0xc019fa27	-2.405893
248	0xbea940c1	-0.33057216
249	0x40034037	2.0507944
250	0xc04fe69b	-3.24845
251	0xbef384f8	-0.47562385
252	0xbf9f5b85	-1.2449805
253	0xbf8d5a58	-1.1043196
254	0x3f04bdb5	0.5185197
255	0xc023a8ff	-2.5571897

lstm_cell.bias_ih f4 [256]
0	0xbfa4b621	-1.2868081
1	0x3fd603f4	1.6719956
2	0x3f168bcf	0.5880708
3	0x404d131b	3.204291
4	0x403e72d9	2.9757597
5	0x40511a32	3.2672238
6	0x3f842cb2	1.032614
7	0x4027e93c	2.6236105
8	0x3f322697	0.69590133
9	0x3f2e6644	0.68124795
10	0x404b89ea	3.1802926
11	0x40079a49	2.1187918
12	0xc074481c	-3.8169012
13	0x3d2b378e	0.041801028
14	0xc040b76a	-3.0111947
15	0x3d6f0607	0.058355357
16	0x4039d4b9	2.9036086
17	0xc014d03b	-2.3252094
18	0xc031a827	-2.7758882
19	0x3f563737	0.83678
20	0xbfba33ee	-1.4547098
21	0xc0814e42	-4.040803
22	0xbfcfa562	-1.6222346
23	0x3eaf9363	0.34292135
24	0x3fe1ccf0	1.7640667
25	0xbf9091cb	-1.1294492
26	0x3f514940	0.81752396
27	0x3f8fd4f0	1.1236858
28	0xbf3450c6	-0.7043575
29	0x401c62a9	2.4435217
30	0x401b642f	2.4279897
31	0x3e7baa65	0.24576719
32	0x3fd192f3	1.637297
33	0x3feb0fd9	1.8364211
34	0xbf0a6050	-0.5405321
35	0xbf9ffc0e	-1.2498796
36	0xbf241f93	-0.6411068
37	0x3fb014c2	1.3756335
38	0xbe75ec7e	-0.24015996
39	0x3fd2e8d3	1.6477302
40	0x3ef4c7d0	0.47808695
41	0x3f4f88c4	0.8106806
42	0x3f341601	0.70346075
43	0xbfbacf92	-1.4594595
44	0xc099d434	-4.8071537
45	0xbfd9f16d	-1.7026802
46	0x3f4230f8	0.7585597
47	0xbd1c394e	-0.038140588
48	0xc08c8995	-4.3917947
49	0xc008ce6b	-2.1375988
50	0xc039efb3	-2.905255
51	0x3f1d7d6b	0.615195
52	0xc01d4be2	-2.4577565
53	0xbfea8bc1	-1.83239
54	0xbe266c6f	-0.16252302
55	0xbe31852f	-0.17335962
56	0xc00d2d5a	-2.205893
57	0xc03fda57	-2.9977014
58	0x3fa05ad5	1.252772
59	0x3f3048ca	0.6886107
60	0x3f5ec8c7	0.8702511
61	0x404e01ad	3.2188523
62	0x40119001	2.2744143
63	0xc0369dd4	-2.853383
64	0xbf9725d3	-1.1808418
65	0xbf218ceb	-0.6310565
66	0xbea98814	-0.33111632
67	0x3f5edfd3	0.8706028
68	0xbfc6ae17	-1.5521878
69	0x3e890a61	0.2676573
70	0x3f735785	0.9505542
71	0xc015f5b1	-2.3431208
72	0x3f55bb1c	0.8348863
73	0xbf8a05dc	-1.0783038
74	0xc05b06a5	-3.4222806
75	0xc0252058	-2.580099
76	0x3f3da0d7	0.7407355
77	0x3c8f1c0d	0.01746943
78	0xbff103fb	-1.882934
79	0x3e853ecd	0.26024476
80	0xbf6e8659	-0.9317375
81	0x3eee663d	0.46562377
82	0xbf1ee352	-0.62065613
83	0x40059d6d	2.0877335
84	0xc030e7eb	-2.7641551
85	0x3f45e078	0.7729564
86	0xc02c0779	-2.687956
87	0xbfa497ea	-1.285886
88	0x3f51aabd	0.8190115
89	0xbf20ddb2	-0.6283828
90	0x3e6f91d7	0.23395477
91	0xbee0d726	-0.43914145
92	0xbfad8608	-1.3556528
93	0xbf80afb4	-1.005362
94	0x3e8e94b5	0.2784783
95	0xbf5632f4	-0.836715
96	0xbd50872f	-0.05091017
97	0xc03a769f	-2.91349
98	0xbe72a531	-0.23695828
99	0xc0563c0c	-3.347415
100	0x402459c2	2.5679784
101	0xbf67d6ff	-0.90562433
102	0xbedebaae	-0.435018
103	0xbfd6ddf9	-1.6786491
104	0xbfc268ed	-1.5188271
105	0x3fe1e994	1.7649407
106	0x3f348bf2	0.7052604
107	0x3f0f0ccb	0.55878896
108	0xbeb66687	-0.35625097
109	0xc0075fda	-2.1152253
110	0xbf8682a0	-1.0508614
111	0xbf626be3	-0.8844587
112	0xbfa0e0ce	-1.2568605
113	0x3f808f10	1.0043659
114	0xbf06c154	-0.52638745
115	0xc00f4c7e	-2.2390437
116	0xc0237be4	-2.5544367
117	0x3e84851d	0.25882807
118	0x3edf7088	0.43640542
119	0xbfd503b4	-1.6641755
120	0x40177efa	2.367125
121	0x3fa6baf5	1.3025805
122	0xc08868f1	-4.26281
123	0x400a226c	2.158351
124	0xbe676719	-0.22597922
125	0xc0035563	-2.0520866
126	0x3f3423a5	0.7036689
127	0xbee975a6	-0.4559757
128	0x403f6671	2.9906275
129	0xbe930985	-0.287182
130	0xc065c6ca	-3.5902581
131	0xc012cfdf	-2.2939374
132	0x3fc77f7f	1.5585784
133	0xbf047907	-0.51747173
134	0x3f101041	0.562748
135	0xbfbf85bd	-1.4962689
136	0x400e6271	2.2247584
137	0xc0061816	-2.09522
138	0x40751282	3.8292546
139	0x3f2a8b1b	0.6661851
140	0x3e353ee0	0.17699766
141	0x403900da	2.890677
142	0x3fdd92f2	1.7310469
143	0xbf171ba7	-0.5902657
144	0x4017ffce	2.374988
145	0x4091137d	4.533629
146	0xc00bb481	-2.182892
147	0x3e756f71	0.23968293
148	0xbf6a3b45	-0.9149669
149	0x3e68af52	0.2272313
150	0x3f13a488	0.5767293
151	0x3f4227ab	0.7584178
152	0x3f1b8481	0.6074906
153	0xbf08cf46	-0.53441274
154	0x3d84883e	0.06471299
155	0xbfe4e420	-1.7882118
156	0x3f50973d	0.8148077
157	0x3f3e03bc	0.7422445
158	0x401670ee	2.3506427
159	0x401a5d9e	2.411964
160	0x3ff7947a	1.9342186
161	0xbfc2d7d6	-1.5222118
162	0xbec0ba45	-0.37642112
163	0x3ff7fbb1	1.9373685
164	0x3fefa3dc	1.8721881
165	0xbe967b90	-0.29391146
166	0x3fb4e1a9	1.4131366
167	0x3eac6850	0.33673334
168	0xbec0ed55	-0.3768107
169	0x3fdceef9	1.7260429
170	0xbf07b7e5	-0.53014976
171	0x3ff18b8c	1.8870711
172	0x3f42bfe3	0.76074046
173	0x3ae88908	0.0017741034
174	0x4054feef	3.32806
175	0xc027b215	-2.6202443
176	0xc0016c83	-2.022248
177	0x3ea57851	0.32318357
178	0x3ecb1d34	0.39670718
179	0xbf3148d1	-0.69251734
180	0xbf8ef028	-1.116704
181	0xc0337fc9	-2.8046744
182	0xbfb51f0a	-1.4150097
183	0xbfed4bad	-1.853872
184	0xbead1b77	-0.33810017
185	0x3fa57f6f	1.2929515
186	0xbf9e2694	-1.2355523
187	0xbd1f54be	-0.038899176
188	0xbfe87e0d	-1.8163468
189	0xbfa73a9b	-1.306476
190	0x4000ed0c	2.0144682
191	0x3f254d23	0.64570826
192	0xbe8f2123	-0.2795497
193	0xc08626f7	-4.1922565
194	0x3f21b370	0.63164425
195	0x40a52e08	5.161869
196	0xbf48ef1f	-0.7848987
197	0xc00f8353	-2.2423904
198	0x3fcde2b5	1.608481
199	0x3ffae71b	1.9601778
200	0xbf9fca39	-1.2483588
201	0x3f5efb80	0.8710251
202	0xc0026a05	-2.037721
203	0x4055de5b	3.3416965
204	0xbf6fad01	-0.9362336
205	0x3fd79b5c	1.6844287
206	0xc0304e29	-2.7547705
207	0xbef1db4a	-0.47237617
208	0xc01bb038	-2.4326305
209	0xbf23a0a6	-0.63917005
210	0xc020a47c	-2.5100393
211	0x3dd7412e	0.10510479
212	0x3f9482e2	1.1602442
213	0xbf7c95ea	-0.9866625
214	0x3faa0e60	1.3285637
215	0x3f3ecc9e	0.7453097
216	0xbf359d02	-0.709427
217	0x3e29d88a	0.1658651
218	0x3feaa9ae	1.8333032
219	0xc04fd563	-3.247399
220	0x3ed61487	0.41812536
221	0xbfbccd30	-1.4750118
222	0x3fb32a3d	1.3997265
223	0xbee5e7dd	-0.4490346
224	0xbf4e8171	-0.8066626
225	0x40098be1	2.1491625
226	0xbea2cf1c	-0.31798637
227	0xbf9b592b	-1.2136587
228	0xbeee3d9b	-0.46531376
229	0x4036500b	2.8486354
230	0xc009fbc0	-2.1559906
231	0x40442949	3.0650198
232	0x3f161655	0.58627826
233	0x4052c718	3.2934017
234	0xbfddaa05	-1.7317511
235	0x3fdd9a94	1.7312799
236	0xc017f3f7	-2.3742654
237	0xc08664a2	-4.1997843
238	0x3fe2e72c	1.7726798
239	0xbf4f7273	-0.8103401
240	0xc04ccadb	-3.1998813
241	0xbfdcf113	-1.726107
242	0xbff859d9	-1.9402419
243	0xc00aa428	-2.1662693
244	0xbf58464e	-0.84482276
245	0xbfd4144b	-1.6568693
246	0x400914e9	2.1419013
247	0xc019e57f	-2.4046323
248	0x401a388b	2.409701
249	0xbf8ab313	-1.0835899
250	0x3eb1946d	0.34683552
251	0xc012923e	-2.290176
252	0xbf37aff9	-0.7175289
253	0x3f8144d7	1.0099133
254	0xc01ac9ab	-2.4185588
255	0x3eb91baa	0.36153919

lstm_cell.bias_hh f4 [256]
0	0xbfa8dad2	-1.3191779
1	0x3fe3eaee	1.780607
2	0x3ebc37bd	0.36761275
3	0x4048a1a6	3.1348662
4	0x40431079	3.0478804
5	0x4051cc32	3.278088
6	0x3f6e5e04	0.93112206
7	0x402a2e56	2.6590781
8	0x3f37c717	0.7178816
9	0x3f28a665	0.658789
10	0x404bc87a	3.184111
11	0x400fb4f9	2.2454207
12	0xc07e9e7c	-3.978423
13	0x3e0dfab4	0.13865167
14	0xc037066a	-2.8597665
15	0x3dc8d01a	0.09805317
16	0x40399869	2.8999274
17	0xc01db5b6	-2.4642158
18	0xc031b547	-2.7766893
19	0x3f3661cb	0.7124297
20	0xbfbb668e	-1.4640672
21	0xc0795e08	-3.8963642
22	0xbfdb5792	-1.7136099
23	0x3eba5ad3	0.36397418
24	0x3fdc03d0	1.7188663
25	0xbf9da6ac	-1.2316489
26	0x3f8621b6	1.0479038
27	0x3f82ad60	1.020916
28	0xbf1d768d	-0.6150902
29	0x40183fd9	2.378897
30	0x402547b4	2.5825014
31	0x3e7db165	0.24774702
32	0x3fd40f73	1.6567215
33	0x3fe825f9	1.8136588
34	0xbf20e0a8	-0.628428
35	0xbf96235e	-1.1729543
36	0xbf3ad6c4	-0.72983956
37	0x3fc78242	1.5586627
38	0xbe53b5de	-0.20674846
39	0x3fe0d3d3	1.7564644
40	0x3e88575f	0.2662916
41	0x3f63dd74	0.89009786
42	0x3f5d3181	0.8640366
43	0xbfabdbc2	-1.342644
44	0xc09b9804	-4.8623066
45	0xbfd52d4d	-1.665445
46	0x3f45e84c	0.7730758
47	0x3a7db9ff	0.00096788997
48	0xc08c9f95	-4.39448
49	0xc005638b	-2.0842006
50	0xc032aa24	-2.7916346
51	0x3f26fd9b	0.6523072
52	0xc029a782	-2.6508489
53	0xbfef0561	-1.8673517
54	0xbc880398	-0.016603276
55	0xbe83f635	-0.2577378
56	0xc009beca	-2.1522698
57	0xc037abee	-2.8698688
58	0x3f9a3a57	1.2049054
59	0x3f1157aa	0.5677439
60	0x3f502e27	0.8132042
61	0x404bb757	3.1830652
62	0x4008cef1	2.1376307
63	0xc031de14	-2.7791796
64	0xbf88ef63	-1.0698055
65	0xbef8d8a6	-0.4860279
66	0xbe9893f4	-0.2980038
67	0x3f7184f5	0.943435
68	0xbfbe0297	-1.484454
69	0x3e894301	0.26808932
70	0x3f8451ab	1.0337423
71	0xc0192fc1	-2.3935397
72	0x3f4239fc	0.7586973
73	0xbf9c3e0c	-1.2206435
74	0xc05f7035	-3.4912236
75	0xc0268fa8	-2.602518
76	0x3f297581	0.6619492
77	0x3e78018b	0.24219339
78	0xbfd8f7fb	-1.6950678
79	0x3e9e871c	0.30962455
80	0xbf918fc9	-1.1372005
81	0x3ec69c8d	0.38791314
82	0xbf094ef2	-0.53636086
83	0x4002f5ed	2.04626
84	0xc0304f9a	-2.7548585
85	0x3f25cea8	0.6476846
86	0xc02d9019	-2.71192
87	0xbfa5228a	-1.2901165
88	0x3f4fdadd	0.81193334
89	0xbf0b4f68	-0.5441804
90	0x3e1c29d8	0.15250337
91	0xbef0bb86	-0.4701807
92	0xbfa8a849	-1.3176357
93	0xbf77f256	-0.9685415
94	0x3e7e5c32	0.24839857
95	0xbf625aae	-0.88419616
96	0xbdae24cf	-0.085031144
97	0xc03b429f	-2.9259412
98	0xbe91ddc2	-0.284895
99	0xc04df7fc	-3.2182608
100	0x4029d3e2	2.6535573
101	0xbf81ed26	-1.0150497
102	0xbe9fad4e	-0.31186908
103	0xbfe58bcb	-1.7933286
104	0xbfab999e	-1.3406255
105	0x3fee92a4	1.8638501
106	0x3f5f6c82	0.87274945
107	0x3f1c6075	0.6108468
108	0xbe93df96	-0.2888152
109	0xc002de3a	-2.0448136
110	0xbf8bb348	-1.0914087
111	0xbf635603	-0.8880312
112	0xbf82384e	-1.0173433
113	0x3f7c7b82	0.9862596
114	0xbeae33ec	-0.34023988
115	0xc0128d0e	-2.2898593
116	0xc01cea95	-2.4518178
117	0x3e6e89cb	0.23294751
118	0x3ec11dbe	0.37718004
119	0xbfdd06c4	-1.726769
120	0x4012bcba	2.292769
121	0x3fb048e6	1.3772247
122	0xc081d201	-4.0568852
123	0x400d39a4	2.206643
124	0xbe641bd8	-0.22276247
125	0xc0095443	-2.145768
126	0x3f111ffe	0.5668944
127	0xbeca781d	-0.39544764
128	0x403b46b1	2.9261897
129	0xbf0507a2	-0.5196477
130	0xc0655a4a	-3.5836358
131	0xc0161a3f	-2.345352
132	0x3fb84d9f	1.4398688
133	0xbf011607	-0.50424236
134	0x3ee77dfd	0.4521331
135	0xbfbed0ed	-1.4907509
136	0x40080559	2.1253264
137	0xc003ce96	-2.059484
138	0x407e4c22	3.9733968
139	0x3f45f071	0.7732001
140	0x3e688920	0.22708559
141	0x4039afda	2.9013581
142	0x3fc3abb1	1.5286771
143	0xbf2af961	-0.6678677
144	0x4023c8fe	2.5591426
145	0x408dd60d	4.4323792
146	0xc00fef91	-2.248997
147	0x3e3c0e11	0.18364741
148	0xbf5d7e85	-0.8652118
149	0x3e4729e1	0.1944957
150	0x3f107228	0.5642419
151	0x3f25a230	0.64700603
152	0x3f52c8f0	0.82337856
153	0xbf07dc56	-0.5307058
154	0x3d5d7d41	0.05407453
155	0xbfe9a0e0	-1.825222
156	0x3f489b4d	0.7836197
157	0x3f4ad8bc	0.7923696
158	0x401bd08e	2.4346042
159	0x400e7e26	2.2264495
160	0x3feb8dbe	1.8402631
161	0xbfac5c96	-1.3465755
162	0xbead8455	-0.33890024
163	0x3ffe7531	1.9879514
164	0x3fe37bfc	1.7772212
165	0xbe7ad97e	-0.24497029
166	0x3fa513e3	1.2896694
167	0x3e8530c3	0.26013765
168	0xbeb80924	-0.35944474
169	0x3fd5d32a	1.6705067
170	0xbf0f0955	-0.55873615
171	0x3ff393ac	1.9029441
172	0x3f4d3927	0.8016533
173	0x3d64c001	0.05584717
174	0x4053a94f	3.3072088
175	0xc0238475	-2.5549595
176	0xc0083c43	-2.128678
177	0x3e66cb05	0.22538383
178	0x3ec79fd4	0.38989127
179	0xbf2531ca	-0.645291
180	0xbfa8a3fc	-1.3175044
181	0xc03203f9	-2.7814925
182	0xbfa1e5ed	-1.2648293
183	0xbff29a5d	-1.8953358
184	0xbed0b6c5	-0.40764442
185	0x3fb91910	1.4460773
186	0xbf9f1a74	-1.2429948
187	0xbd96ea42	-0.073689
188	0xbffb1c1d	-1.9617954
189	0xbfbec33b	-1.490333
190	0x3fe53bdb	1.7908891
191	0x3f1bbf53	0.6083881
192	0xbe698b81	-0.22807123
193	0xc084e28f	-4.152656
194	0x3f208810	0.62707615
195	0x40aa49d5	5.3215127
196	0xbf4fbd4a	-0.8114821
197	0xc00fc723	-2.2465293
198	0x3fb7d3c0	1.4361496
199	0x3fef2f4b	1.8686308
200	0xbf9157d0	-1.1354923
201	0x3f511400	0.8167114
202	0xc0017865	-2.0229733
203	0x404df41b	3.218024
204	0xbf83ef50	-1.0307407
205	0x3fd6b31c	1.677341
206	0xc02fe6d9	-2.7484648
207	0xbf29b830	-0.6629667
208	0xc00f66f9	-2.24066
209	0xbf38d1a6	-0.721949
210	0xc01a3b4c	-2.4098692
211	0x3de89d9d	0.11358187
212	0x3fad6ae1	1.3548242
213	0xbf84d886	-1.0378578
214	0x3fb0cfc0	1.38134
215	0x3f426bfe	0.75946033
216	0xbf4616e2	-0.77378666
217	0x3e74099c	0.2383179
218	0x3fea298e	1.8293931
219	0xc0535677	-3.3021524
220	0x3ef40287	0.47658178
221	0xbfc0a890	-1.5051441
222	0x3fba495d	1.4553639
223	0xbf05952d	-0.5218075
224	0xbf35d6c0	-0.7103081
225	0x400c9189	2.1963828
226	0xbe7adb68	-0.2449776
227	0xbf872f1b	-1.056125
228	0xbef5fcfb	-0.4804457
229	0x4036f48b	2.8586757
230	0xc00a7ff0	-2.1640587
231	0x40478269	3.1173346
232	0x3f246cd5	0.64228565
233	0x40550dc8	3.3289661
234	0xbfcc535b	-1.5962938
235	0x3fdea534	1.7394166
236	0xc021721e	-2.5225902
237	0xc087a002	-4.238282
238	0x3fe02dfc	1.7514033
239	0xbf2e3623	-0.68051356
240	0xc049a96c	-3.1509657
241	0xbfe1fa33	-1.765448
242	0xbfe928f9	-1.8215629
243	0xc006ef38	-2.1083508
244	0xbf6b9ea1	-0.92038924
245	0xbfc367e4	-1.526608
246	0x400974c1	2.147751
247	0xc00e3cd3	-2.2224624
248	0x40103775	2.2533848
249	0xbf7e09bb	-0.992336
250	0x3ea8afb0	0.3294654
251	0xc00f2df5	-2.23718
252	0xbf431873	-0.7620918
253	0x3f7f3e5e	0.9970454
254	0xc0276707	-2.6156633
255	0x3eca445a	0.39505273

linear0.weight f4 [32, 384]
0	0xbd639c4c	-0.05556898
1	0x3b2b2f61	0.002612077
2	0xbdbd8591	-0.092539914
3	0xbd067666	-0.032827757
4	0x3d9d2cdc	0.07674572
5	0x3d547770	0.051871717
6	0xbd9626d0	-0.07331622
7	0x3d248460	0.040165305
8	0x3dddfc45	0.10839132
9	0x3da5fd47	0.081049494
10	0xbd585860	-0.052818656
11	0x3d2a43ac	0.041568443
12	0x3d5111ea	0.051042475
13	0x3d8e011c	0.06933805
14	0xbdd07bb5	-0.10179845
15	0xbdd1ad96	-0.10238187
16	0x3d04fdde	0.03246867
17	0xbd6d7033	-0.05796833
18	0xbda78680	-0.08179951
19	0xbc077605	-0.008267884
20	0xbccac9b6	-0.024754386
21	0xbd22b31b	-0.03972159
22	0xbc95f6c1	-0.018306138
23	0xbdd909f8	-0.105976045
24	0xbd601a99	-0.054712866
25	0xbdd73acf	-0.10509264
26	0x3caaf0fb	0.020866862
27	0x3cb42249	0.021989005
28	0x3dc9a382	0.0984564
29	0x3cfe54e8	0.031046346
30	0xbda1a44b	-0.078926645
31	0x3db8a312	0.09015478
32	0xbda8f12d	-0.08249126
33	0x3abc60db	0.0014372127
34	0x3c30c507	0.0107891625
35	0xbc3fe279	-0.01171171
36	0xbd4747e1	-0.048652533
37	0xbd815351	-0.063147195
38	0xbc6021b1	-0.013679908
39	0xbe088111	-0.13330485
40	0x3dabe839	0.08393902
41	0x3da8a571	0.082346804
42	0x3d782935	0.060586173
43	0xbd16287d	-0.036659706
44	0xbd041f7b	-0.032256585
45	0x3d62bd4b	0.055356305
46	0xbc89db4b	-0.0168282
47	0xbd321e61	-0.043486003
48	0x3dbc5f53	0.09197869
49	0x3afeeb72	0.001944883
50	0x3dae53f2	0.08512105
51	0xbd826656	-0.06367175
52	0x3bfa09fb	0.0076305843
53	0xbdb96f9c	-0.09054491
54	0xb9c1abd9	-0.00036939865
55	0xbd9a9267	-0.07547455
56	0xbd3c480b	-0.045967143
57	0x3df4248b	0.119210325
58	0x3ca6d157	0.020363493
59	0x3d5bc47e	0.053654186
60	0xbd76fb42	-0.060298212
61	0x3d6fc5dd	0.058538307
62	0xbc866585	-0.01640583
63	0x3b75bdf2	0.003749725
64	0xbbc81428	-0.0061059184
65	0x3d26421a	0.040590383
66	0xbd4fa499	-0.050694082
67	0xbd633536	-0.055470668
68	0x3d6dc765	0.058051486
69	0x3cf6b678	0.030116305
70	0xbda6d3db	-0.08145877
71	0x3d9b0ae1	0.07570434
72	0x3d97854e	0.07398473
73	0x3da0eee9	0.078580685
74	0xbd86d5cf	-0.065837495
75	0x3d868072	0.06567468
76	0x3da98c69	0.08278734
77	0x3e06ca15	0.13163026
78	0xbda2a306	-0.079412505
79	0xbd626815	-0.05527504
80	0x3c84a0b0	0.016189903
81	0xbd6ea547	-0.05826309
82	0xbe038006	-0.12841806
83	0xbbd853ab	-0.006601771
84	0xbdd83652	-0.10557236
85	0xbc0b7967	-0.008512831
86	0xbd81118d	-0.06302176
87	0xbdc781f0	-0.097415805
88	0xbd978e4a	-0.07400186
89	0xbd4ce05a	-0.050018646
90	0xbd882d67	-0.06649285
91	0x3dd949ea	0.10609801
92	0x3dbd72f3	0.092504404
93	0xbd4c47c7	-0.04987314
94	0xbd903b91	-0.070426114
95	0x3d9bf937	0.07615893
96	0xbdcaa5c8	-0.098949015
97	0x3d30338d	0.043017913
98	0x3d9f5097	0.07779043
99	0xbc3a41b5	-0.011368205
100	0xbcf7c656	-0.030245941
101	0xbdcc00d8	-0.099610984
102	0xbae9fc20	-0.0017851628
103	0xbd5af750	-0.05345851
104	0x3dfbc06a	0.122925594
105	0xbc602730	-0.013681218
106	0xbb963d6f	-0.00458496
107	0xbdcda0b0	-0.10040414
108	0xbd9b2cdd	-0.07576916
109	0x3e04de36	0.12975392
110	0xbd1c499e	-0.038156144
111	0x3db4c82f	0.088272445
112	0x3d6b08cb	0.057381433
113	0x3c006dfa	0.00783872
114	0x3df51824	0.11967495
115	0xbdbab0d1	-0.09115756
116	0x3d8d9b9e	0.06914447
117	0xbd41bb5e	-0.047297828
118	0x3d632aa2	0.05546058
119	0xbd20be7a	-0.039244153
120	0xbda1630b	-0.07880219
121	0x3da52a14	0.080646664
122	0x3d5509d3	0.052011322
123	0x3daa91ef	0.08328616
124	0xbd8df7df	-0.06932043
125	0x3c870dde	0.016486105
126	0xbd6088db	-0.054818016
127	0x3d193fc1	0.037414316
128	0xbc73d921	-0.0148833105
129	0xbd168139	-0.03674433
130	0xbdb639ff	-0.088977806
131	0xbcd1c621	-0.02560717
132	0xbcc5fe31	-0.02416906
133	0xbdcb5551	-0.09928382
134	0xbdff5cef	-0.124688976
135	0xbdde06ef	-0.10841166
136	0x3d3cfb00	0.04613781
137	0xbcce9b5f	-0.025220571
138	0xbcd5dcff	-0.026106356
139	0xbd238259	-0.03991923
140	0xbdde20e1	-0.10846115
141	0xbd9dafa9	-0.0769952
142	0x3be8e0d0	0.007106878
143	0xbdd8bc2f	-0.10582768
144	0xbc8c1c17	-0.017103238
145	0xbc5dbfaf	-0.01353447
146	0xbd717c3f	-0.05895638
147	0xbdaf0746	-0.08546309
148	0xbd0912b7	-0.033465113
149	0xbd4dd0ff	-0.050248142
150	0xbdc6732f	-0.09689938
151	0xbd33ffa6	-0.043944977
152	0xbc708921	-0.014681132
153	0xbddda43f	-0.10822343
154	0x3d20c501	0.039250378
155	0xbda15107	-0.07876783
156	0xbd973ba1	-0.0738442
157	0xbda933f7	-0.08261865
158	0xbd8e47f7	-0.0694732
159	0xbda80139	-0.08203358
160	0xbc0955f7	-0.008382312
161	0xbd9d3f7f	-0.076781265
162	0xbc800229	-0.01562603
163	0xbc9307c9	-0.017948048
164	0xbcced151	-0.025246294
165	0xbd43d5e1	-0.047811393
166	0xbc3b3eff	-0.011428594
167	0xbd21e4e7	-0.03952494
168	0xbd8e6547	-0.06952911
169	0x3d162287	0.03665402
170	0xbdc6d5ef	-0.09708773
171	0xbda10b59	-0.078634925
172	0xbda61967	-0.08110314
173	0xbddd0a4f	-0.10792982
174	0xbc813574	-0.015772559
175	0xbce5afe1	-0.028037967
176	0xbc96a430	-0.018388838
177	0x3d0028b1	0.031288806
178	0xbd80f127	-0.06295996
179	0xbcc8d13f	-0.024513839
180	0x3bebcbf0	0.007195942
181	0xbd03022f	-0.031984504
182	0xbddfc151	-0.10925544
183	0xbd49f271	-0.049303476
184	0xbc5d56e1	-0.013509483
185	0xbd7a8200	-0.061159134
186	0xbd8328c1	-0.064042576
187	0xbca90aa7	-0.020634962
188	0xbd9a3331	-0.07529295
189	0xbdc30481	-0.095223434
190	0xbda82319	-0.08209819
191	0xbdd1d20f	-0.102451436
192	0xbd6426b3	-0.05570097
193	0x3cc23183	0.02370525
194	0x3b804672	0.0039146477
195	0xbc0e316d	-0.008678776
196	0xbd1e2713	-0.038611483
197	0xbd904890	-0.0704509
198	0xbd04653b	-0.032323103
199	0xbccead1e	-0.025229033
200	0x3d14675a	0.036231376
201	0xbcc323a5	-0.023820708
202	0x3d014922	0.031563886
203	0x3b878395	0.004135559
204	0x3da3768b	0.07981595
205	0x3dd0edee	0.102016315
206	0x3c908c9e	0.017645177
207	0x3d44c8dd	0.04804312
208	0xbd8f7995	-0.07005612
209	0xbd42f837	-0.047599997
210	0x3d52dab3	0.0514781
211	0x3da718e1	0.08159042
212	0x3d0f29f5	0.034952123
213	0x3d8810a2	0.066437975
214	0x3d19e6f4	0.03757377
215	0x3c7819b4	0.015142847
216	0x3ca9a91a	0.020710517
217	0x3a476a1f	0.0007607061
218	0x3b18b1b1	0.0023299272
219	0xbd2ac622	-0.04169286
220	0xbd19ef24	-0.037581578
221	0xbd1fb0ca	-0.03898696
222	0xbd31298a	-0.043252505
223	0x3d5ee163	0.054414164
224	0xbd9c22f8	-0.07623857
225	0xbba8676b	-0.0051392815
226	0x3df95265	0.12173919
227	0x3dcb79ce	0.09935342
228	0x3bf73891	0.007544585
229	0x3cffa32f	0.031205742
230	0x3c05a1e1	0.008156271
231	0x3ce7a81f	0.028278409
232	0x3d4bed31	0.04978675
233	0x3d1b800f	0.037963923
234	0xbc299299	-0.010349893
235	0xbd4ee5d1	-0.05051214
236	0xbd1de8df	-0.03855216
237	0x39342f00	0.00017183647
238	0x3d44a76f	0.04801124
239	0x3c7175f0	0.014737591
240	0xbd426111	-0.04745585
241	0x3d36074a	0.044440545
242	0xbbd73ce1	-0.0065685366
243	0xbd3d7a80	-0.046259403
244	0x3d0050df	0.031327125
245	0x3d37421f	0.044740792
246	0xbd0cd9f7	-0.034387555
247	0x3d03aca8	0.03214708
248	0x3d3d2581	0.046178345
249	0x3d42abcf	0.04752713
250	0x3d48c15f	0.049012538
251	0xbc4f5abf	-0.012655913
252	0x3caa329f	0.020776091
253	0x3d1fbc30	0.03899783
254	0xbc8ae207	-0.016953481
255	0xbb7f6300	-0.003896892

linear0.bias f4 [32]
0	0xbdb168a3	-0.08662536
1	0xbe32f87e	-0.17477605
2	0x3daaa15a	0.083315566
3	0xbe8ee581	-0.27909473
4	0xbb0db9c2	-0.0021625613
5	0xbdbbf985	-0.091784514
6	0xbcebcb81	-0.028783562
7	0x3eca4618	0.39506602
8	0xbe23884f	-0.15969966
9	0xbd8f0dff	-0.069850914
10	0xbee6df11	-0.4509206
11	0xbe8445b7	-0.25834438
12	0xbe8d46c0	-0.2759304
13	0xbecde5bf	-0.40214345
14	0x3d6d4ba4	0.057933465
15	0xbe68d40a	-0.22737136
16	0xbe91c19a	-0.2846802
17	0x3d53f374	0.051745847
18	0xbe4ae471	-0.19813706
19	0xbdb7c5f1	-0.08973301
20	0xbd4a49b0	-0.04938668
21	0xbc80d107	-0.015724672
22	0x3d9dd8bc	0.077073544
23	0x3e2dd8c0	0.16977215
24	0x3b75586f	0.0037436744
25	0xbe340cb2	-0.17582968
26	0xbb9061c9	-0.004406188
27	0xbd2f4231	-0.042787734
28	0x3d0c4172	0.0342421
29	0xbd721278	-0.059099644
30	0xbe6aaf39	-0.22918405
31	0xbe5b65cb	-0.2142555
