model/1715146453/3_NSFnet_global_model_2.pth (torch, 331200 bytes, 17 tensors)

conv1.lin_l.weight f4 [16, 1]
0	0xbf222a71	-0.6334601
1	0xbc5eadef	-0.013591274
2	0xbf2fc7e6	-0.68664396
3	0xbf26ff91	-0.65233713
4	0xbf004ee1	-0.5012036
5	0x3e913378	0.2835958
6	0xbf560e11	-0.83615214
7	0xbe1972e7	-0.14985238
8	0xbf22b5d7	-0.63558716
9	0x3da39bd7	0.079887085
10	0xbe885f38	-0.26635146
11	0xbf61d24f	-0.8821153
12	0x3d53d0e1	0.051712874
13	0xbef8a23f	-0.48561284
14	0x3ec50746	0.38482112
15	0xbee88f61	-0.4542189

conv1.lin_l.bias f4 [16]
0	0xbe1ecb07	-0.15507136
1	0x3f17bf59	0.5927635
2	0xbf8a0750	-1.0783482
3	0x3ebec65f	0.3726072
4	0x3ee30d1f	0.44345948
5	0xbe8e7081	-0.2782021
6	0xbf51bdb1	-0.8193007
7	0x3ecafb96	0.3964507
8	0x3f2acbff	0.66717523
9	0xbf33bd71	-0.7021094
10	0x3f21e38f	0.6323785
11	0xbf721601	-0.94564825
12	0x3eff6e41	0.49888805
13	0xbe847c50	-0.25876093
14	0xbecb67df	-0.39727685
15	0xbdd953d0	-0.10611689

conv1.lin_r.weight f4 [16, 1]
0	0xbf7fbdd1	-0.9989901
1	0xbf0087a1	-0.50206953
2	0x3e4072f1	0.18793847
3	0xbf5b4bb1	-0.8566237
4	0xbea56b11	-0.32308248
5	0x3f15a1a9	0.584498
6	0xbf38561a	-0.7200638
7	0x3df562bc	0.11981723
8	0xbef9ee8f	-0.48814818
9	0xbf52df81	-0.8237229
10	0xbf57622f	-0.8413419
11	0x3dd4b04f	0.10385191
12	0xbf441720	-0.76597786
13	0xbf4bb7e1	-0.7957745
14	0xbe8aec81	-0.27133563
15	0xbd653480	-0.05595827

conv2.lin_l.weight f4 [64, 16]
0	0xbdac99b1	-0.08427752
1	0x3e0f135f	0.13972233
2	0xbcb8b99f	-0.022549449
3	0x3e0f91a9	0.14020409
4	0xbd0a3a89	-0.03374723
5	0xbd6101cf	-0.054933365
6	0xbe1747f0	-0.14773536
7	0x3dc7e4ba	0.09760423
8	0x3dfc6a5f	0.12324976
9	0x3d3e9a2f	0.04653376
10	0xbe06c127	-0.1315962
11	0x3e0f4517	0.139912
12	0x3d9d5ea9	0.076840706
13	0x3e242e89	0.16033377
14	0xbec334db	-0.38126263
15	0xbe422e51	-0.18962981
16	0x3e179647	0.1480342
17	0xbe93e1c7	-0.28883192
18	0x3da4ad41	0.08040858
19	0x3e2d6ef1	0.16936852
20	0x3d903d2f	0.0704292
21	0x3d49a431	0.04922885
22	0xbda13d61	-0.07873035
23	0xbe86c638	-0.26323104
24	0x3e56f171	0.2099054
25	0xbe88e9ef	-0.26740977
26	0xbe7267e1	-0.23672439
27	0xbd9cce97	-0.076565914
28	0xbe611781	-0.21981622
29	0xbe1b61a0	-0.1517396
30	0xbe992b17	-0.29915687
31	0xbde41faf	-0.11138856
32	0xbd85e921	-0.065386064
33	0xbdb70c56	-0.089379
34	0x3e229e59	0.15880717
35	0xbc6079e0	-0.013700932
36	0x3bbc8840	0.005753547
37	0xbc1a7200	-0.009426594
38	0x3de258a1	0.11052061
39	0x3e11bc3f	0.14231966
40	0x3db6f326	0.08933096
41	0xbdca7eef	-0.09887492
42	0xbc23a1c0	-0.009987295
43	0x3dbcf83b	0.09227034
44	0xbd8a05c7	-0.06739383
45	0xbe04d281	-0.12970926
46	0xbe960520	-0.29300785
47	0xbe48d260	-0.19611502
48	0x3df83eaf	0.12121331
49	0xbe6aa2af	-0.22913621
50	0xbdc922cf	-0.09821092
51	0x3de85751	0.11344779
52	0x3de900bf	0.113770954
53	0xbe909209	-0.28236416
54	0x3c912a80	0.01772046
55	0xbe1e5c77	-0.1546496
56	0x3cbefcb0	0.02331385
57	0xbeb6ef5a	-0.35729486
58	0x3e2280c1	0.15869428
59	0xbc86de40	-0.016463399
60	0xbeaa2edf	-0.33238885
61	0x3e3fce5f	0.18731068
62	0x3dd5a3c0	0.104316235
63	0xbdfeb971	-0.12437714
64	0x3e436e8f	0.19085144
65	0x3dde2231	0.10846365
66	0xbe3a1ae6	-0.18174323
67	0x3da851e7	0.08218747
68	0xbc53d9a0	-0.012930304
69	0xbe5e2bf0	-0.21696448
70	0x3e2f0950	0.17093396
71	0xbea6bfff	-0.32568356
72	0x3e1ff46f	0.15620588
73	0xbe72d151	-0.2371266
74	0x3e7ebc00	0.24876404
75	0xbd806ce1	-0.06270767
76	0xbe1dd391	-0.15412737
77	0xbe2317c1	-0.1592703
78	0xbea37aef	-0.31929728
79	0xbe394881	-0.18094064
80	0xbe489def	-0.19591497
81	0xbd8ef941	-0.06981135
82	0xbe84c63f	-0.259325
83	0xbdf48a41	-0.11940432
84	0x3e75a041	0.23986913
85	0xbe133bf7	-0.14378344
86	0xbdde87b0	-0.10865724
87	0xbd2b5b0a	-0.04183487
88	0x3e7447c1	0.23855497
89	0xbe7299df	-0.2369151
90	0x3e1b38bf	0.15158366
91	0xbec2faef	-0.38082072
92	0xbea9c7d9	-0.33160284
93	0x3ce8eaf0	0.02843234
94	0xbee64931	-0.44977716
95	0xbe003690	-0.12520814
96	0xbe536821	-0.20645191
97	0xbda34eb9	-0.079739995
98	0xbdda7ac1	-0.10667945
99	0x3b9e86c0	0.004837841
100	0xbe51f701	-0.20504381
101	0xbe9ccdc1	-0.30625728
102	0xbe2283e1	-0.1587062
103	0xbe8b19e1	-0.27168182
104	0x3c1cd8a0	0.009573132
105	0x3e1e2121	0.15442325
106	0xbe4a4221	-0.19751789
107	0x3e2ccf1a	0.16875878
108	0x3e38119f	0.17975472
109	0x3e7e5b0f	0.24839424
110	0xbe090f41	-0.13384725
111	0x3ce073f0	0.027399033
112	0x3de3b311	0.111181386
113	0xbe51a70f	-0.20473884
114	0xbde9c74f	-0.11414968
115	0xbdc891ef	-0.097934596
116	0x3e0eb400	0.13935852
117	0xbe0c5381	-0.13703729
118	0xbe2b7021	-0.16741993
119	0xbe9128cf	-0.28351447
120	0xbde7c2df	-0.113164656
121	0xbcbc5c21	-0.02299315
122	0xbe3cf26f	-0.18451856
123	0xbe84a497	-0.25906822
124	0xbdae17a1	-0.085006006
125	0xbdcb83c1	-0.099372394
126	0xbe4da04f	-0.20080684
127	0xbe180e81	-0.14849283
128	0xbcf067d0	-0.029346377
129	0x3d30c5f0	0.043157518
130	0xbe0182c1	-0.12647535
131	0xbdc2915f	-0.095003836
132	0x3e070270	0.13184524
133	0xbe072cdf	-0.1320071
134	0xbe7b44bf	-0.24537943
135	0x3df2e81f	0.1186068
136	0x3dd7a2f1	0.105291255
137	0x3e5492c1	0.20759107
138	0x3dc40001	0.09570313
139	0xbbd82c00	-0.006597042
140	0x3d7f0041	0.0622561
141	0x3e52dcf1	0.20592095
142	0xbc094aa0	-0.008379608
143	0xbe1c2421	-0.15248157
144	0xbd4aa910	-0.049477637
145	0xbe37b3fa	-0.1793975
146	0x3d97f417	0.07419603
147	0x3d913671	0.07090462
148	0xbe4b3a9f	-0.19846581
149	0xbe68f421	-0.22749378
150	0xbe5e0f6f	-0.21685575
151	0xbde31a7f	-0.11089038
152	0x3d03e0d0	0.03219682
153	0x3dd133f1	0.10214985
154	0xbe76e3bf	-0.24110316
155	0xbe9d3ef9	-0.30712107
156	0x3dbb4351	0.09143699
157	0x3e716ba1	0.23576213
158	0x3dea868f	0.11451446
159	0x3d158200	0.03650093
160	0xbd83d570	-0.06437194
161	0xbccc9470	-0.024973124
162	0x3e081591	0.13289477
163	0x3e156d01	0.14592363
164	0xbd4575e1	-0.04820812
165	0xbe4d1bbf	-0.20030116
166	0xbded4170	-0.11584747
167	0x3e312406	0.17298898
168	0xbe001741	-0.1250887
169	0x3d825f0f	0.06365787
170	0x3dcf4501	0.10120583
171	0xbdfc5310	-0.123205304
172	0xbe2e8b1a	-0.1704525
173	0x3e57e5bf	0.21083735
174	0x3e2fd71a	0.17171898
175	0xbd29e250	-0.041475594
176	0xbe45daa1	-0.19321682
177	0xbe31ced1	-0.1736405
178	0x3ceb2400	0.02870369
179	0x3dfe6450	0.12421477
180	0x3e5f3821	0.21798755
181	0x3db7171f	0.08939957
182	0x3c62fa60	0.013853639
183	0xbe23a869	-0.15982212
184	0x3e18a5b1	0.14906956
185	0x3a9fd5a7	0.0012194411
186	0xbe72d74f	-0.23714946
187	0xbdc0ff3f	-0.09423684
188	0xbd8bbdb1	-0.0682329
189	0x3c8cb430	0.017175764
190	0xbe9e61b7	-0.30933926
191	0xbe4bb581	-0.19893457
192	0xbe48b7cf	-0.19601367
193	0xbe0b049f	-0.13575982
194	0xbc9b9f4f	-0.018996863
195	0xbdff930f	-0.12479221
196	0x3e5778a1	0.2104211
197	0xbdd362df	-0.103215925
198	0x3d149ee0	0.036284328
199	0xbe2569bf	-0.1615362
200	0xbe02848f	-0.1274588
201	0xbdaf1a0a	-0.085498884
202	0x3e06b3cf	0.13154529
203	0x3d19b819	0.037529085
204	0x3dd315af	0.1030687
205	0x3d56cbe1	0.052440528
206	0x3e1624c7	0.14662467
207	0x3cc158a0	0.02360183
208	0xbd7a6161	-0.061128024
209	0xbe02185f	-0.1270461
210	0xbd048de9	-0.0323619
211	0x3e24af11	0.16082408
212	0x3dc3ac51	0.09554351
213	0x3d83f699	0.06443519
214	0xbe2482a0	-0.16065454
215	0x3ca6aa97	0.020345015
216	0x3e355fcf	0.1771233
217	0x3e02dc0f	0.12779258
218	0xbe321ef6	-0.17394623
219	0xbdaf292f	-0.08552777
220	0x3c95a077	0.018264992
221	0xbd11d790	-0.035605967
222	0x3c99619f	0.018723307
223	0x3d893cf0	0.06701076
224	0x3e41cc1f	0.18925522
225	0x3da26ce7	0.07930928
226	0x3e3a5281	0.18195535
227	0x3dfe80f0	0.124269366
228	0xbe58ec10	-0.211838
229	0xbe0c3119	-0.13690604
230	0x3e604ad0	0.21903539
231	0xbc99fa10	-0.018795997
232	0xbe0c63b7	-0.13709913
233	0x3e6d7aaf	0.23191331
234	0x3ce9a8e0	0.028522909
235	0xbe0c0f11	-0.13677622
236	0xbe5f1e1f	-0.21788834
237	0xbbe34140	-0.0069352686
238	0x3d8a332f	0.06748044
239	0xbd54da61	-0.051966075
240	0x3e14b671	0.14522721
241	0x3e8bccc7	0.2730467
242	0x3e0fac21	0.14030506
243	0x3e3b47d0	0.18289113
244	0x3df379e1	0.11888481
245	0x3cc31851	0.023815306
246	0xbc823a80	-0.015897036
247	0x3c5e02ff	0.013550519
248	0xbe6451cf	-0.22296833
249	0x3c8b6957	0.017018003
250	0x3dedc401	0.116096504
251	0x3c9c2fa7	0.019065691
252	0xbc0c80ff	-0.008575677
253	0x3dcc0de1	0.09963585
254	0x3d5a3f31	0.05328292
255	0x3be5ff00	0.0070189238

conv2.lin_l.bias f4 [64]
0	0xbd966aaf	-0.07344567
1	0xbdf7ee5f	-0.121060126
2	0xbea77f7f	-0.3271446
3	0xbebb7471	-0.36612275
4	0xbdddac0f	-0.10823833
5	0xbeb21b8f	-0.3478665
6	0x3e2e54bf	0.17024516
7	0x3d4d1eff	0.05007839
8	0x3d50d7e0	0.050987124
9	0xbe4f4d0f	-0.2024424
10	0x3d4f9690	0.050680697
11	0x3d094d21	0.03352082
12	0x3e01a06f	0.12658857
13	0x3c865711	0.016398938
14	0xbe569daf	-0.20958589
15	0xbe75fbaf	-0.24021791
16	0xbd9e9967	-0.07744103
17	0xbe6c833f	-0.23096941
18	0xbe95e6a0	-0.29277515
19	0xbe9e8ea9	-0.30968216
20	0xbe719f91	-0.23596026
21	0x3dacf25a	0.084446624
22	0xbdcdcfc1	-0.100493915
23	0xbd62a61f	-0.055334207
24	0x3e2f8a4a	0.17142597
25	0xbe1db211	-0.15399958
26	0x3e0257d0	0.1272881
27	0xbdca1d21	-0.09868837
28	0xbe883177	-0.2660024
29	0x3dac196f	0.084032886
30	0xbe948161	-0.29004958
31	0xbee0e3f1	-0.43923905
32	0xbe5a55bf	-0.21321772
33	0x3e49692f	0.1966903
34	0xbddfae51	-0.1092192
35	0xbe2868e7	-0.16446267
36	0xbe9b697f	-0.30353925
37	0x3e213ee9	0.15746655
38	0x3e3081f0	0.17237067
39	0x3de46e50	0.11153853
40	0xbd2218a7	-0.03957429
41	0xbddb527f	-0.10709094
42	0xbc07f178	-0.008297317
43	0xbe165801	-0.14682008
44	0xbdf16a41	-0.117878444
45	0xbccfdcc1	-0.025373818
46	0xbe51495f	-0.20438145
47	0xbec6a580	-0.3879814
48	0xbea1f0a7	-0.31628916
49	0xbeb57786	-0.35442752
50	0x3d0fca41	0.035104994
51	0xbe56ffa1	-0.20995952
52	0xbdac24b1	-0.08405436
53	0xbdaa0aa7	-0.08302813
54	0x3e19938f	0.14997695
55	0x3db6e9c6	0.089313075
56	0xbeb069c1	-0.34455684
57	0x3e40f5b1	0.18843724
58	0xbdf9fe7f	-0.122067444
59	0xbe3aa69f	-0.18227623
60	0x3db9a2cf	0.090642564
61	0x3d9f8111	0.07788289
62	0x3e1c2b1f	0.15250824
63	0x3c957f29	0.018249111

conv2.lin_r.weight f4 [64, 16]
0	0xbe22f6d0	-0.15914464
1	0x3dc3fe11	0.09569944
2	0xbe97000f	-0.29492232
3	0x3da6eaa1	0.08150221
4	0xbe13634f	-0.14393352
5	0x3d8430c7	0.06454616
6	0x3e261337	0.16218267
7	0xbe4ce091	-0.2000754
8	0xbe06a49f	-0.13148735
9	0x3e003357	0.12519585
10	0xbdb788c6	-0.08961634
11	0xbe25a88f	-0.16177581
12	0xbe22566f	-0.15853284
13	0xbe35155a	-0.17683926
14	0xbe0b8129	-0.1362349
15	0x3e04e1ff	0.12976836
16	0xbd0fe240	-0.03512788
17	0xbe857701	-0.26067355
18	0xbe90be09	-0.28269985
19	0x3c8adca0	0.016950905
20	0x3e06c660	0.13161612
21	0xbe1aedff	-0.15129851
22	0xbe27fbc1	-0.1640463
23	0x3ca3c4ef	0.019991366
24	0x3e29c69f	0.16579674
25	0xbdd642e1	-0.10461975
26	0xbdc70021	-0.097168215
27	0x3d186aa9	0.037211094
28	0xbe886f8f	-0.26647612
29	0xbe2495cf	-0.16072772
30	0x3d8bc1a7	0.06824046
31	0x3e0d46f1	0.13796593
32	0x3de61441	0.11234332
33	0x3e27c7b1	0.1638477
34	0x3e3fe321	0.18738987
35	0x3e011091	0.12603976
36	0x3e201371	0.15632416
37	0xbb8efa3f	-0.0043633278
38	0x3d852340	0.06500864
39	0xbd79f921	-0.061028603
40	0x3e3c5a91	0.18393923
41	0xbdc585f1	-0.09644688
42	0xbe63f3c0	-0.22260952
43	0x3e76e56f	0.2411096
44	0x3e5df3a1	0.21674968
45	0xbe49240f	-0.19642662
46	0xbdbcbbd1	-0.09215511
47	0xbe609e9f	-0.21935509
48	0x3d40cf60	0.04707277
49	0x3d73c020	0.059509397
50	0xbdcaf8ff	-0.099107735
51	0xbd502b7f	-0.05082273
52	0x3dbef311	0.09323705
53	0x3bdc1671	0.0067165424
54	0x3e5ab221	0.21357013
55	0xbe9a30e1	-0.30115417
56	0x3e457d50	0.19286084
57	0xbe7322e1	-0.23743774
58	0xbd964a1f	-0.07338356
59	0x3dddbf41	0.108274944
60	0xbcce6750	-0.025195748
61	0x3d53eae1	0.05173767
62	0xbe0b618f	-0.13611434
63	0xbda3e291	-0.080021985
64	0x3caf8f00	0.021430492
65	0x3d09cb00	0.03364086
66	0xbe716f41	-0.23577596
67	0xbd323aa6	-0.043512963
68	0x3defe011	0.11712659
69	0x3dd51dbf	0.10406064
70	0xbe0a94d9	-0.13533343
71	0x3cfdbb6f	0.030973164
72	0x3b65f780	0.0035090148
73	0x3c296f31	0.0103414515
74	0x3d898237	0.0671429
75	0x3dad0f56	0.08450191
76	0x3da5e5f7	0.08100503
77	0xbe71c69f	-0.23610924
78	0xbd356481	-0.0442853
79	0x3d8ae1ef	0.06781375
80	0xbe09f8af	-0.13473772
81	0xbf0701df	-0.5273723
82	0xbe0ea4e1	-0.13930084
83	0x3d456fa1	0.04820216
84	0x3d0887b8	0.033332556
85	0xbe930671	-0.28715852
86	0x3e260a10	0.16214776
87	0xbf025901	-0.5091706
88	0xbe1bfbf7	-0.15232836
89	0xbf02b551	-0.51057917
90	0xbe79e130	-0.24402308
91	0xbeb9bba6	-0.36275977
92	0xbee0a44f	-0.43875358
93	0xbe038521	-0.12843753
94	0xbe43de41	-0.19127752
95	0xbddeb460	-0.108742476
96	0xbd9cb7a9	-0.07652218
97	0xbe6702ef	-0.22559713
98	0xbdd17aa1	-0.10228468
99	0x3e1d57b7	0.15365492
100	0x3e4072df	0.1879382
101	0x3df12f01	0.117765434
102	0xbd964249	-0.07336862
103	0x3e0ae727	0.1356474
104	0xbe21cf07	-0.15801631
105	0xbd16cebf	-0.036818262
106	0x3e57933f	0.21052264
107	0xbe61dc0f	-0.22056602
108	0x3dd46dc1	0.103724964
109	0x3a2fca00	0.00067058206
110	0x3bdbdc8f	0.0067096422
111	0xbe6b54ff	-0.22981642
112	0x3e6e5881	0.23275949
113	0xbe900411	-0.28128102
114	0xbe73ecb1	-0.2382076
115	0xbdc210c1	-0.09475852
116	0xbd7f8880	-0.062386036
117	0x3cd4fe2f	0.02600011
118	0xbd5d0181	-0.053956512
119	0x3e0f0717	0.13967548
120	0xbe72f2bf	-0.23725413
121	0x3df8ae3f	0.1214261
122	0xbe4b1dff	-0.19835661
123	0x3e5b1a81	0.21396829
124	0xbe7b14bf	-0.24519633
125	0x3cebf5c0	0.028803706
126	0xbd5d8e5f	-0.054090854
127	0xbde171cf	-0.110080354
128	0x3dbdd261	0.09268642
129	0x3e6138b1	0.21994282
130	0xbd78b581	-0.06071997
131	0xbe376b8f	-0.17912124
132	0xbe0b18cf	-0.13583682
133	0xbde7b7b0	-0.113143325
134	0x3e0591f9	0.13043965
135	0xbe4f58f0	-0.2024877
136	0x3e3af43f	0.18257235
137	0x3da375a7	0.07981425
138	0x3d9a4169	0.07532007
139	0xbe34646f	-0.17616437
140	0xbde5feaf	-0.11230218
141	0xbe1867c1	-0.14883329
142	0x3dda1b01	0.10649682
143	0x3dd80830	0.10548437
144	0x3e3e7950	0.18600965
145	0xbb42f76f	-0.0029749533
146	0x3d6bdff1	0.057586614
147	0x3d7f08d0	0.062264264
148	0xbd60a710	-0.054846823
149	0x3d2194e1	0.039448623
150	0xbe34152f	-0.17586206
151	0xbe69274f	-0.22768901
152	0x3d37ef60	0.04490602
153	0xbc843a60	-0.016141117
154	0x3ccad100	0.024757862
155	0xbc0d29b1	-0.008615897
156	0xbe40751f	-0.18794678
157	0xbdcda05f	-0.10040354
158	0xbdf81871	-0.12114037
159	0xbd0fb5a9	-0.035085354
160	0xbdb46b9f	-0.088095896
161	0x3e4a2f8f	0.19744705
162	0x3e19756f	0.14986204
163	0xbe703d01	-0.23460771
164	0x3dc08cbf	0.09401845
165	0xbe5cace1	-0.21550323
166	0x3db2fd30	0.08739698
167	0xbe78a2cf	-0.24280857
168	0x3d0fa2c9	0.035067353
169	0xbe1ac8cf	-0.15115665
170	0x3e7c88c0	0.24661541
171	0xbe61157f	-0.21980856
172	0xbdfcd9c1	-0.12346221
173	0x3e715ac1	0.23569776
174	0xbd46f79f	-0.048575994
175	0x3e7a14e1	0.24422027
176	0xbd602fa1	-0.054732922
177	0x3e0d22f1	0.1378286
178	0xbe794091	-0.24341036
179	0x3d3076e0	0.043082118
180	0x3d861ef0	0.065488696
181	0xbd8009af	-0.06251847
182	0xbdfe22b1	-0.124089606
183	0xbe6dc8ff	-0.23221205
184	0x3de1b2c1	0.11020423
185	0xbdaf4c11	-0.085594304
186	0x3e30833a	0.17237559
187	0x3e37e42a	0.17958131
188	0x3e1a801f	0.15087937
189	0x3d972e20	0.073818445
190	0xbe43c2ef	-0.1911733
191	0x3e333440	0.175004
192	0xbe3cc201	-0.18433382
193	0xbc386b21	-0.01125601
194	0xbdb71d2a	-0.089411095
195	0x3e1b1ea0	0.15148401
196	0x3e1dd15f	0.154119
197	0xbe3be1bf	-0.18347834
198	0x3e24b967	0.1608635
199	0x3dbebce1	0.093133695
200	0x3da5acef	0.08089625
201	0xbdf652f1	-0.120275386
202	0xbe1f327f	-0.15546606
203	0xbe6b85df	-0.23000287
204	0xbe36c3af	-0.17848085
205	0xbe51f74f	-0.20504497
206	0x3ccc2440	0.02491963
207	0x3e36f34f	0.17866252
208	0x3e62272f	0.2208526
209	0xbe0d60c0	-0.13806438
210	0xbe02b6bf	-0.12765025
211	0x3e61549f	0.22004937
212	0x3cbcea30	0.023060888
213	0xbd908d57	-0.070582084
214	0x3e003cc0	0.12523174
215	0xbe459721	-0.19295932
216	0xbe3137f1	-0.17306496
217	0xbe114c8f	-0.14189361
218	0xbdc1c85f	-0.09462046
219	0x3d8c3699	0.06846351
220	0xbe02a96f	-0.12759946
221	0x3e7c196f	0.24619077
222	0xbe514fd1	-0.20440604
223	0xbe1188b0	-0.14212298
224	0x3e336766	0.17519912
225	0x3e749e41	0.23888494
226	0xbe6e9671	-0.23299576
227	0xbe4735df	-0.19454144
228	0xbe00c547	-0.12575255
229	0xbdc55381	-0.09635068
230	0xbe5a6780	-0.21328545
231	0x3dd30f21	0.1030562
232	0x3d924057	0.07141178
233	0x3d9afea0	0.07568097
234	0x3d5ac8d0	0.053414166
235	0x3e68ef11	0.22747447
236	0xbd94c117	-0.072633915
237	0xbe339836	-0.17538533
238	0x3d433d81	0.047666077
239	0x3e19c980	0.15018272
240	0xbe617750	-0.2201817
241	0xbd91ae0f	-0.07113277
242	0xbb19780f	-0.0023417508
243	0x3d6521c1	0.055940393
244	0xbc9611e0	-0.01831907
245	0xbd9c325f	-0.07626795
246	0x3b65ce80	0.003506571
247	0x3d574131	0.052552406
248	0xbd0f6820	-0.03501141
249	0xbdc8866f	-0.09791266
250	0x3de2c121	0.11071993
251	0x3d478a91	0.04871613
252	0x3e4c767f	0.19967078
253	0x3d94d9a0	0.07268071
254	0xbe0b8641	-0.13625433
255	0xbdb27e30	-0.087154746

lstm_cell.weight_ih f4 [256, 192]
0	0x3e008811	0.12551905
1	0x3e3cff30	0.18456721
2	0xbd927501	-0.07151223
3	0x3c993e09	0.018706338
4	0x3d293789	0.041312728
5	0xbe393106	-0.18085107
6	0x3d3c44c1	0.045964006
7	0x3d8b63b7	0.068061285
8	0xbdd4159f	-0.103556864
9	0xbcbd0f8f	-0.023078708
10	0x3db3f1a6	0.08786325
11	0x3e10f679	0.14156522
12	0x3e0bc4ff	0.13649367
13	0x3e438181	0.1909237
14	0x3bb0dd80	0.0053974986
15	0xbe4f7321	-0.20258762
16	0x3d1c4fb7	0.03816196
17	0x3e2c0711	0.1679957
18	0xbc43652f	-0.0119259795
19	0x3e09cae9	0.1345631
20	0x3de0b2c1	0.109715946
21	0x3c272781	0.01020229
22	0x3d2d8a16	0.042368017
23	0x3d71c27f	0.059023377
24	0xbd12ad20	-0.035809636
25	0x3dfc62ff	0.123235695
26	0x3deebe41	0.11657382
27	0x3e34ae3a	0.17644587
28	0xbd3f8cb1	-0.046765033
29	0xbeb7bd7f	-0.35886762
30	0x3e4497ef	0.19198583
31	0xbd4783b1	-0.048709575
32	0xbc3c7130	-0.011501595
33	0x3e3a7921	0.1821027
34	0xbe4a3dc1	-0.1975012
35	0x3e21d999	0.15805663
36	0x3c869481	0.016428234
37	0xbdfe2db1	-0.12411059
38	0x3d26c3bf	0.04071402
39	0xbd0f3057	-0.03495821
40	0xbe0f93cf	-0.14021228
41	0x3dce3400	0.10068512
42	0x3dc7f1bf	0.09762906
43	0x3e0b3849	0.1359569
44	0x3e53b211	0.20673396
45	0xbc359ca1	-0.0110847065
46	0x3dadc69a	0.08485146
47	0xbd3ddc50	-0.046352684
48	0xba3a543f	-0.00071078906
49	0xbc511e30	-0.012763545
50	0xbd2801a0	-0.041017175
51	0x3dd8eb8f	0.10591804
52	0x3da9be31	0.08288229
53	0x3e1e7157	0.15472923
54	0x3e4d9a91	0.20078494
55	0xba144d89	-0.00056573056
56	0x3df06640	0.11738253
57	0x3e28a871	0.16470505
58	0xbab0bc61	-0.0013483876
59	0x3e5b15c1	0.21395017
60	0x3e1bac4f	0.1520245
61	0x3ded5ba0	0.11589742
62	0xbd5f82cf	-0.05456811
63	0x3d97a7a1	0.074050196
64	0xbf84350b	-1.0328687
65	0x40586434	3.381116
66	0x4029ebbe	2.6550136
67	0x4034aeb6	2.8231635
68	0x4011e455	2.2795613
69	0x40b6c6e1	5.711777
70	0x40e5b49c	7.178297
71	0xbdb91d4f	-0.09038793
72	0x40b5f073	5.6856017
73	0x40f34d95	7.6032205
74	0x40f0875a	7.5165224
75	0x40d3b0f5	6.615351
76	0x40cb8140	6.3595276
77	0x40d7e646	6.7468596
78	0x410c7cf9	8.780511
79	0x40f4e4b5	7.6529183
80	0x40fd045b	7.9067817
81	0x40d96dc0	6.794647
82	0x40ef238a	7.4730883
83	0x40ed73cf	7.420387
84	0x40ed4e87	7.415836
85	0x3db035a6	0.086039826
86	0x4105f9eb	8.373515
87	0x40aa4b6e	5.3217077
88	0x40e61d4d	7.1910768
89	0x40e55ad0	7.1673355
90	0x40e031bc	7.006071
91	0x4101529f	8.082671
92	0x40ea36a1	7.3191686
93	0x3b6d5681	0.003621489
94	0x3d65a7a1	0.056068067
95	0x3d75f0af	0.060043987
96	0xbd514eb1	-0.051100437
97	0xbdd72671	-0.10505379
98	0x3ca731a1	0.020409407
99	0x3c8d2b91	0.017232688
100	0x3cecf34f	0.028924612
101	0x3d2a1f01	0.041533474
102	0xbe0fc791	-0.14040972
103	0x3b964920	0.004586354
104	0x3d90d801	0.070724495
105	0xbbfdf660	-0.0077503175
106	0xbdefb29f	-0.11703991
107	0xbde5c3c1	-0.11218978
108	0x3b6c8f00	0.0036095977
109	0xbd026670	-0.031835973
110	0x3c6d14f0	0.014470324
111	0xbd555bc0	-0.052089453
112	0xbd978ea0	-0.074002504
113	0x3d0585bf	0.032598253
114	0xbcfb6be0	-0.030691087
115	0x3b93c300	0.00450933
116	0xbc5366e0	-0.012902945
117	0xbda60c3f	-0.081078045
118	0xbdb12606	-0.086498305
119	0xbdf683b1	-0.12036837
120	0x3dc6feef	0.097165935
121	0x3c3c5ac0	0.011496246
122	0xbdb7b986	-0.08970933
123	0x3de854ff	0.11344337
124	0xbdae37bf	-0.085067265
125	0xbde67a0f	-0.112537496
126	0x3d431d41	0.04763532
127	0xbd90af09	-0.07064635
128	0xbcfec641	-0.031100394
129	0x3ffe030d	1.9844681
130	0x3fa403e4	1.2813687
131	0xbef1eef2	-0.47252613
132	0xbf08a88d	-0.5338219
133	0x40145f73	2.3183258
134	0x3dd474ff	0.10373878
135	0x40567b95	3.3512928
136	0x40d48332	6.641015
137	0x40bad63c	5.8386517
138	0xbdbd43f5	-0.092414774
139	0x40ec3e8a	7.382634
140	0x40f6ac65	7.7085443
141	0x40f8c4b0	7.7740097
142	0x3dcc8fcf	0.09988367
143	0x41061a56	8.38143
144	0x411111f3	9.066882
145	0x41008bc1	8.03412
146	0x40f23b28	7.569721
147	0x40e573ba	7.170377
148	0x40dc28b3	6.879968
149	0x40cebc3d	6.4604783
150	0x3c595c2f	0.013266607
151	0x41046b79	8.276238
152	0x40ce5665	6.448046
153	0x406005eb	3.5003612
154	0x3d4e83ef	0.05041879
155	0x40e075f0	7.0143967
156	0x40843123	4.130998
157	0x4109af8a	8.605356
158	0x3decdaff	0.11565208
159	0x3d6857e1	0.056724433
160	0x3d4f11ff	0.05055427
161	0x3d9c9941	0.07646418
162	0xbe0748e0	-0.13211393
163	0xbd840c5f	-0.06447672
164	0xbdc6a4c6	-0.09699397
165	0xbdeb322f	-0.11484181
166	0xbd9f25a7	-0.077708535
167	0xbdf1b941	-0.118029125
168	0x3d49ca8f	0.04926544
169	0x3dea34df	0.114358656
170	0x3d912fff	0.07089233
171	0xbd24eebf	-0.04026675
172	0xbd023c11	-0.031795565
173	0x3d597561	0.053090457
174	0x3db6e1bf	0.089297764
175	0xbdc416d0	-0.09574664
176	0xbda6f849	-0.081528254
177	0xbd3da38f	-0.04629856
178	0xbd8ef497	-0.069802456
179	0x3d2cbaa6	0.04217019
180	0xbdf87be1	-0.12133003
181	0x3db95850	0.090500474
182	0xbb3efe40	-0.0029143244
183	0x3de36271	0.111027606
184	0x3d243bf1	0.040096227
185	0xbd834e21	-0.06411386
186	0xbd108a00	-0.035287857
187	0xbdac2466	-0.0840538
188	0x3d1e4359	0.038638446
189	0xbda8a7b1	-0.082351096
190	0x3df24e81	0.1183138
191	0x3db6944f	0.08915006
192	0x3d2fd111	0.04292399
193	0x3d20859f	0.03918993
194	0x3f0edd29	0.55806214
195	0x3dcf7e81	0.101315506
196	0x3db29266	0.087193295
197	0xbe128879	-0.14309873
198	0xbc557fbf	-0.013030945
199	0x3cf95b6f	0.030439107
200	0xbc617dd0	-0.013762906
201	0xbce17d21	-0.027525486
202	0x3dfb6741	0.122755535
203	0x3bdb4231	0.0066912402
204	0xbd0dcd27	-0.034619477
205	0x3ec76751	0.38946012
206	0xbda80d77	-0.08205693
207	0x3f17b5d1	0.59261805
208	0x3c8b5eb9	0.01701294
209	0x3d56fee1	0.052489165
210	0xbd00c661	-0.03143919
211	0x3df5d10f	0.120027654
212	0x3e3dbd0f	0.18529151
213	0x3da38800	0.07984924
214	0xbd4cdf81	-0.050017837
215	0x3e330f16	0.17486224
216	0x3d7ebee0	0.06219375
217	0x3d603d6f	0.054746088
218	0x3c0ed530	0.00871782
219	0x3e97c481	0.29642108
220	0xbc0bf819	-0.008543038
221	0x3f338901	0.70130926
222	0x3f14b019	0.58081204
223	0x3d291489	0.04127935
224	0x3d88523f	0.06656312
225	0xbd561cff	-0.052273747
226	0x3f5693e1	0.83819395
227	0xbd327d5f	-0.043576594
228	0xbd47da9f	-0.048792478
229	0x3ddda1df	0.1082189
230	0xbcd914e0	-0.026499212
231	0x3c8273b8	0.01592432
232	0x3f2dd410	0.67901707
233	0x3cc718e0	0.024303854
234	0x3f4467af	0.7672071
235	0x3e0022f9	0.12513341
236	0x3eb419ca	0.35175925
237	0x3e061289	0.13093008
238	0x3d153357	0.036425915
239	0x3d9fe8a7	0.07808047
240	0xbdad433f	-0.08460092
241	0x3d14abc9	0.03629664
242	0x3eb69dcf	0.35667273
243	0xbe2b46bf	-0.16726206
244	0xbdbfefef	-0.093719356
245	0xbd969db9	-0.07354302
246	0x3df232cf	0.11826097
247	0x3cd6b131	0.026207538
248	0xbd9fa787	-0.07795625
249	0x3e0b6439	0.1361245
250	0x3e21e4c1	0.15809919
251	0x3d6178df	0.055046912
252	0x3d51d5bf	0.051229235
253	0xbd620ebf	-0.055189844
254	0xbce5e11f	-0.028061448
255	0x3d035471	0.03206295

lstm_cell.weight_hh f4 [256, 64]
0	0x3ee768a6	0.45197028
1	0x3ec3bf21	0.38231757
2	0x3f88a1c5	1.0674368
3	0xc085e15c	-4.1837597
4	0x3faa841c	1.3321567
5	0xc0346d95	-2.8191884
6	0xc018f28d	-2.3898041
7	0x401bec86	2.4363112
8	0x405ec1bb	3.4805744
9	0x3f46cbf9	0.7765499
10	0x3ee5571c	0.44793022
11	0xbfa33cc9	-1.2752925
12	0xbd33abdb	-0.043865066
13	0xbfb8fab3	-1.4451507
14	0xbfec9976	-1.8484333
15	0xbe5ecc98	-0.21757734
16	0xbf4ef0e2	-0.8083631
17	0x3f1b6068	0.6069398
18	0xc048929e	-3.1339488
19	0xbfc5b078	-1.5444479
20	0xbd4686f2	-0.048468538
21	0x4026729b	2.600745
22	0x40219b39	2.525099
23	0xbf45c702	-0.77256787
24	0x3f04a232	0.5180999
25	0x4021be2a	2.5272317
26	0xc01ddbd7	-2.466543
27	0x3f67c1eb	0.9053027
28	0xbe30b9d9	-0.17258395
29	0xc03a0db8	-2.9070873
30	0xbff5756f	-1.9176463
31	0x3dcd34ed	0.100198604
32	0x3f9668e6	1.1750762
33	0xbff9dc17	-1.9520291
34	0xbecea82e	-0.40362686
35	0x3f6f8d89	0.9357534
36	0x401be654	2.435933
37	0xbfb18e24	-1.3871503
38	0x3e61eb48	0.22062409
39	0xc0101191	-2.2510722
40	0x3f9de8cf	1.2336673
41	0xbdb7ef9f	-0.08981251
42	0xc0327e01	-2.7889407
43	0xbf9496f9	-1.1608573
44	0xbf9f1a75	-1.2429949
45	0xbfec2c17	-1.8450955
46	0x3f116e32	0.5680877
47	0x3fca508d	1.5805832
48	0x3ee8115d	0.45325747
49	0x40052c04	2.0808115
50	0xc0001b52	-2.0016675
51	0x3f341700	0.70347595
52	0x3fbc6151	1.4717199
53	0x3fc7b503	1.5602115
54	0xc017c583	-2.3714302
55	0x404318c7	3.0483873
56	0x3fa5dda8	1.2958269
57	0xc016f9e2	-2.3590016
58	0x3f6d01d2	0.925809
59	0x3e97f616	0.29679936
60	0x4035c5dc	2.8402014
61	0x3fa231e7	1.2671479
62	0x3efa2bcf	0.48861548
63	0x4036db92	2.8571515
64	0x3edf7112	0.43640953
65	0xbef3bd76	-0.47605485
66	0x3cf429d3	0.0298051
67	0x3ea3d477	0.31998035
68	0xc00e9976	-2.2281165
69	0xc02fb3be	-2.7453456
70	0x3f0f2427	0.5591454
71	0x3eb41e39	0.35179308
72	0xc005bf4a	-2.0898004
73	0xbf8d14b2	-1.1021941
74	0xbf230cb0	-0.63691235
75	0xbf20379d	-0.6258486
76	0xbf817ec0	-1.0116806
77	0xbf0b9cd0	-0.5453615
78	0xbe55456b	-0.20827262
79	0x402f6abe	2.74089
80	0xbf139440	-0.57648087
81	0xbf80a0fc	-1.0049129
82	0xbf51ab3e	-0.8190192
83	0xc0172281	-2.361481
84	0xbf35c0ef	-0.7099752
85	0x3feae00f	1.8349627
86	0x3eb24235	0.34816137
87	0x3f69782e	0.91199005
88	0x3f94819e	1.1602056
89	0xbe8b92aa	-0.27260333
90	0xc014c5fc	-2.324584
91	0xc077f828	-3.8745213
92	0xbf47958b	-0.7796256
93	0xbea9cae0	-0.33162594
94	0xc00c4240	-2.1915436
95	0xbf72e43e	-0.9487952
96	0x3e2f9ad2	0.17148903
97	0x3fc5cc23	1.5452923
98	0xc069627d	-3.6466362
99	0x40063cb5	2.0974553
100	0x3fd0edbb	1.632255
101	0xbed91936	-0.42402047
102	0xbd952a30	-0.07283437
103	0x403cb669	2.9486334
104	0xbf8bc6fc	-1.09201
105	0xbf54ef1c	-0.8317735
106	0x409310b9	4.5957913
107	0x3f27192a	0.6527277
108	0xbfc7417e	-1.5566862
109	0xbe9dbd62	-0.3080855
110	0xbfb94013	-1.4472679
111	0xbf5290cb	-0.82252187
112	0x408066aa	4.012532
113	0xc0016d64	-2.0223017
114	0x3f9e9202	1.2388308
115	0xc00a1475	-2.1574986
116	0x3e5a362c	0.21309727
117	0xbe332db8	-0.17497909
118	0xc04db378	-3.214079
119	0xbe02a711	-0.12759043
120	0xbdd6da34	-0.10490838
121	0xbfecb079	-1.8491355
122	0x3fe02fd6	1.7514598
123	0x3f1ad345	0.6047862
124	0x3fd04b42	1.6272967
125	0xbf9339b7	-1.1501988
126	0x3ddb3c78	0.10704893
127	0xbff8dc0c	-1.9442153
128	0x402a1db0	2.658062
129	0x3f7d4840	0.9893837
130	0x3ec0bebe	0.37645525
131	0x3ee48a1e	0.44636625
132	0x408d292b	4.4112754
133	0x3ea4b3ff	0.32168576
134	0x3e9b4918	0.30329204
135	0xbff7e924	-1.9368024
136	0x400626c8	2.096117
137	0xc01b0524	-2.4221888
138	0x3fd8c95a	1.6936448
139	0x3d006443	0.031345617
140	0xbdec0bbf	-0.11525678
141	0xbfaa0b59	-1.3284713
142	0xbff4de39	-1.9130317
143	0xbf250826	-0.6446556
144	0x3fc882a8	1.5664873
145	0x3f2e49e0	0.68081474
146	0xbf0097f8	-0.50231886
147	0xbff99690	-1.9499073
148	0x4073ea40	3.8111725
149	0x3ef9c86a	0.48785716
150	0x3fb9e7e7	1.4523896
151	0x3fc6064d	1.5470673
152	0x3f1f2325	0.62163
153	0x3fb81e11	1.4384176
154	0x3fd2def5	1.6474291
155	0xbeb58c95	-0.35458818
156	0xc0001c04	-2.00171
157	0x4022aa5e	2.5416484
158	0x3f634bcc	0.8878753
159	0x3f8c099a	1.094043
160	0x3fc3e4ed	1.5304238
161	0xbfc07342	-1.5035174
162	0xbd9fa2fc	-0.07794759
163	0xbf73edd7	-0.9528479
164	0x3fe63536	1.7984989
165	0x3ff5965c	1.9186511
166	0x3f9fad52	1.2474768
167	0x4020ac31	2.5105097
168	0xc00e36c6	-2.222093
169	0xbefd5ee7	-0.49486467
170	0xc01a5b45	-2.4118207
171	0xbef3c4bb	-0.4761103
172	0x3fea7d54	1.8319497
173	0xc04b2ead	-3.1747239
174	0x3f5319d6	0.824613
175	0x3f8c8e46	1.0980918
176	0x3e44b7d6	0.19210753
177	0xc08b1b64	-4.3470936
178	0x3f60e7e6	0.8785385
179	0x3f6bd3c0	0.9211998
180	0xc0797945	-3.8980267
181	0x3f9047cd	1.1271912
182	0x3f5026b1	0.8130904
183	0x3f90a004	1.1298833
184	0x3fdd5036	1.7290103
185	0x3e9717fa	0.2951048
186	0xbf509ba4	-0.8148749
187	0x3f7bf196	0.98415506
188	0x403c888e	2.9458346
189	0xbf9d7b0f	-1.230318
190	0xbeea651d	-0.45780268
191	0xbfca55b7	-1.5807408
192	0xbfd0f903	-1.6325992
193	0x3f7cf7be	0.98815525
194	0xbe903f03	-0.28173074
195	0x3e2ed5f2	0.17073801
196	0xbf33dc55	-0.70258075
197	0x3e31992a	0.17343584
198	0xbf77d1b4	-0.96804357
199	0xbff1bef5	-1.88864
200	0xc04bbf5f	-3.1835554
201	0x3fda4870	1.7053356
202	0xbfcaa527	-1.583165
203	0xbf981667	-1.1881837
204	0x3f7d2666	0.98886716
205	0xbf434417	-0.7627577
206	0x3e4e3871	0.20138718
207	0xbe8b4255	-0.27199045
208	0x3de1ee15	0.11031739
209	0x3ffd8651	1.9806615
210	0x3ff3b6e6	1.9040191
211	0xbd7e9df4	-0.062162355
212	0xbf870365	-1.0547911
213	0xbf117dec	-0.56832767
214	0x3deae6a6	0.11469774
215	0x3eb38023	0.35058698
216	0x4035eaed	2.8424637
217	0x3a8e04df	0.0010835192
218	0x3f1a7cc1	0.6034661
219	0x40277b90	2.6169167
220	0x401df645	2.468156
221	0x3fba1e26	1.454045
222	0xbdbb474a	-0.09144457
223	0xc096e0d5	-4.7149453
224	0xbfe6af0a	-1.8022168
225	0xbf5ef656	-0.8709463
226	0x3fa0880d	1.2541519
227	0x3ee7e454	0.45291388
228	0x3fb01aed	1.3758217
229	0xbe9ed4e8	-0.3102181
230	0x4025e587	2.5921342
231	0x3f3aae6b	0.7292239
232	0xbe35d85d	-0.17758317
233	0x403574e8	2.8352604
234	0xc03c9f67	-2.9472291
235	0xc03814e8	-2.876276
236	0x40031b3a	2.0485368
237	0xbebca727	-0.36846277
238	0x402f7961	2.7417834
239	0x3f4b40bf	0.7939567
240	0x4028e6e7	2.6390932
241	0x3d15d449	0.036579404
242	0xbf1632fc	-0.58671546
243	0x3ee0a47f	0.438755
244	0x3d0f9ebf	0.0350635
245	0xbf494c88	-0.786324
246	0x3e962122	0.29322153
247	0xc019ebc8	-2.405016
248	0xbeaa258d	-0.33231774
249	0x40033f8b	2.0507534
250	0xc04fd081	-3.247101
251	0xbef34315	-0.47512117
252	0xbf9f520d	-1.2446915
253	0xbf8d708c	-1.1049972
254	0x3f047271	0.51737124
255	0xc023c0de	-2.5586467

lstm_cell.bias_ih f4 [256]
0	0xbfa4998a	-1.2859356
1	0x3fd66a3b	1.6751169
2	0x3f15b7d2	0.5848361
3	0x404d2319	3.2052672
4	0x403e6488	2.974886
5	0x405143c6	3.2697616
6	0x3f83eef5	1.0307299
7	0x4027e467	2.6233156
8	0x3f329972	0.6976539
9	0x3f2e2f38	0.680408
10	0x404ba135	3.1817143
11	0x40079edc	2.119071
12	0xc074501b	-3.8173892
13	0x3d2ceeff	0.042220112
14	0xc040c0af	-3.0117605
15	0x3d6e7492	0.05821664
16	0x4039f62b	2.90565
17	0xc014e28f	-2.326328
18	0xc031c4dd	-2.7776406
19	0x3f5639e7	0.836821
20	0xbfba3632	-1.4547789
21	0xc081502b	-4.041036
22	0xbfcfc06e	-1.62306
23	0x3eae3c16	0.34030217
24	0x3fe1d1a5	1.7642103
25	0xbf9066aa	-1.128133
26	0x3f51cc59	0.81952435
27	0x3f8fa96d	1.122358
28	0xbf343030	-0.7038603
29	0x401c73d7	2.4445703
30	0x401b59c1	2.4273531
31	0x3e7c197c	0.24619097
32	0x3fd1b016	1.6381862
33	0x3feb0c6b	1.8363165
34	0xbf0a8e7a	-0.5412365
35	0xbfa007f6	-1.250243
36	0xbf240bbb	-0.640804
37	0x3fb051f7	1.3775014
38	0xbe78887c	-0.24270815
39	0x3fd325b3	1.649588
40	0x3ef470fa	0.47742444
41	0x3f4fa84f	0.81116194
42	0x3f340fde	0.7033671
43	0xbfbaafb4	-1.458487
44	0xc099caf0	-4.8060226
45	0xbfd9cf98	-1.7016478
46	0x3f42b785	0.7606128
47	0xbd1972a4	-0.037462845
48	0xc08c8dad	-4.3922944
49	0xc008e15b	-2.1387546
50	0xc039e396	-2.9045157
51	0x3f1da47d	0.61579114
52	0xc01d3d43	-2.456864
53	0xbfea4fb1	-1.830557
54	0xbe2709e5	-0.16312368
55	0xbe34ce7e	-0.17656896
56	0xc00d271e	-2.2055125
57	0xc03fd8b9	-2.9976027
58	0x3fa06710	1.2531452
59	0x3f300c35	0.68768626
60	0x3f5e4952	0.8683063
61	0x404e0101	3.2188113
62	0x401178d2	2.2729993
63	0xc036ba9a	-2.8551393
64	0xbf96f2be	-1.1792829
65	0xbf216456	-0.63043725
66	0xbea93522	-0.3304835
67	0x3f5f10d8	0.87135077
68	0xbfc6cd10	-1.553133
69	0x3e88c9c7	0.26716444
70	0x3f73587e	0.95056903
71	0xc015f0fe	-2.342834
72	0x3f55ec34	0.8356354
73	0xbf8a1ae2	-1.0789454
74	0xc05aed49	-3.4207327
75	0xc0252dc9	-2.5809195
76	0x3f3dc90d	0.74134904
77	0x3c996af4	0.018727757
78	0xbff12518	-1.8839445
79	0x3e860020	0.2617197
80	0xbf6eaa2e	-0.93228424
81	0x3eedfac3	0.46480379
82	0xbf1e63ef	-0.61871237
83	0x4005993e	2.0874782
84	0xc030dfd2	-2.763661
85	0x3f462fd2	0.7741672
86	0xc02c0e06	-2.688356
87	0xbfa4684b	-1.2844328
88	0x3f51fc47	0.8202557
89	0xbf20aa89	-0.62760216
90	0x3e6d1820	0.23153734
91	0xbee111c6	-0.43958873
92	0xbfad7ad7	-1.3553113
93	0xbf80cb1e	-1.0061986
94	0x3e8e251b	0.27762684
95	0xbf55afc7	-0.8347134
96	0xbd510221	-0.05102742
97	0xc03a5be1	-2.9118578
98	0xbe735f5d	-0.23766847
99	0xc0564dd4	-3.3485003
100	0x4024632e	2.5685534
101	0xbf68453c	-0.90730643
102	0xbedf9ffd	-0.4367675
103	0xbfd67c4f	-1.6756686
104	0xbfc26718	-1.5187712
105	0x3fe1de37	1.764594
106	0x3f3433cf	0.70391554
107	0x3f0e91ee	0.5569142
108	0xbeb5eddd	-0.35533038
109	0xc0075e15	-2.1151173
110	0xbf864c90	-1.0492115
111	0xbf637152	-0.8884479
112	0xbfa1170b	-1.2585157
113	0x3f808437	1.0040349
114	0xbf06b51e	-0.5262011
115	0xc00f5d5d	-2.2400734
116	0xc0238d65	-2.555505
117	0x3e850b74	0.259853
118	0x3ede92ea	0.43471462
119	0xbfd4f0ec	-1.6636024
120	0x401791f7	2.368284
121	0x3fa69399	1.3013793
122	0xc0885459	-4.2602963
123	0x4009fb0f	2.1559484
124	0xbe678c21	-0.22612049
125	0xc0034875	-2.0512974
126	0x3f33d237	0.7024264
127	0xbee919f8	-0.45527625
128	0x403f3e36	2.988172
129	0xbe92df5c	-0.28686035
130	0xc065ccb6	-3.5906196
131	0xc012d828	-2.2944431
132	0x3fc73fe8	1.5566378
133	0xbf04bc74	-0.51850057
134	0x3f102ea5	0.56321174
135	0xbfbf8ad9	-1.4964248
136	0x400e58d1	2.224171
137	0xc0061868	-2.0952396
138	0x40750b99	3.8288329
139	0x3f2a6dd9	0.66573864
140	0x3e33aff1	0.17547585
141	0x40391abd	2.892257
142	0x3fdd8820	1.7307167
143	0xbf172490	-0.59040165
144	0x4017fe54	2.374898
145	0x409117a4	4.534136
146	0xc00bb004	-2.1826181
147	0x3e7698c2	0.2408171
148	0xbf6a6681	-0.9156266
149	0x3e6947db	0.22781317
150	0x3f1385eb	0.5762622
151	0x3f420b54	0.75798535
152	0x3f1bcb50	0.60857105
153	0xbf088b2f	-0.5333738
154	0x3d888622	0.06666209
155	0xbfe4fab5	-1.788901
156	0x3f5065bd	0.8140524
157	0x3f3d6eb4	0.73997045
158	0x401649fe	2.3482661
159	0x401a3b49	2.4098685
160	0x3ff7a14a	1.9346097
161	0xbfc2e8a7	-1.522725
162	0xbec0d21d	-0.37660304
163	0x3ff82239	1.9385444
164	0x3fef95f4	1.8717637
165	0xbe95917b	-0.29212555
166	0x3fb4f67f	1.4137725
167	0x3eab33e7	0.33438036
168	0xbec161be	-0.37769884
169	0x3fdd0e8e	1.7270067
170	0xbf070f97	-0.52758163
171	0x3ff17385	1.8863379
172	0x3f438f02	0.7639009
173	0x3ad81dde	0.0016488393
174	0x40550601	3.3284914
175	0xc027aace	-2.6198
176	0xc001851d	-2.0237496
177	0x3ea53914	0.3227011
178	0x3ec9c461	0.39407638
179	0xbf3116ac	-0.6917522
180	0xbf8f4904	-1.1194158
181	0xc033a17b	-2.806731
182	0xbfb52d7f	-1.4154509
183	0xbfed1a14	-1.8523583
184	0xbeae13a9	-0.33999375
185	0x3fa5a2c9	1.2940303
186	0xbf9e3fdf	-1.2363242
187	0xbd2172b3	-0.039416026
188	0xbfe86303	-1.8155216
189	0xbfa72308	-1.3057566
190	0x4000ed51	2.0144846
191	0x3f24cec9	0.6437803
192	0xbe8f3497	-0.2796981
193	0xc0862385	-4.191836
194	0x3f211725	0.6292594
195	0x40a53533	5.162744
196	0xbf498596	-0.7871946
197	0xc00f87b2	-2.2426572
198	0x3fcd944d	1.6060883
199	0x3ffac98f	1.9592761
200	0xbf9f71a0	-1.2456551
201	0x3f5ecab0	0.87028027
202	0xc002590e	-2.0366855
203	0x4055c442	3.3401036
204	0xbf6f50a3	-0.93482417
205	0x3fd77868	1.683362
206	0xc0306595	-2.7562
207	0xbef19c78	-0.4718969
208	0xc01b937a	-2.4308763
209	0xbf23ed2e	-0.6403378
210	0xc020a8b2	-2.5102963
211	0x3dd7aa54	0.105305344
212	0x3f94a386	1.1612403
213	0xbf7c1f92	-0.9848567
214	0x3faa034c	1.3282256
215	0x3f3e91c2	0.7444116
216	0xbf3536b9	-0.70786625
217	0x3e28b17f	0.1647396
218	0x3feac8ff	1.8342589
219	0xc0501c46	-3.2517257
220	0x3ed6fbee	0.41989082
221	0xbfbd0653	-1.4767555
222	0x3fb3035a	1.3985398
223	0xbee71734	-0.4513489
224	0xbf4e4e29	-0.8058801
225	0x40098a79	2.1490767
226	0xbea1cb23	-0.31600294
227	0xbf9b91eb	-1.2153906
228	0xbeed9b9b	-0.4640778
229	0x40364931	2.8482172
230	0xc00a068a	-2.156649
231	0x4044555d	3.0677102
232	0x3f163273	0.5867073
233	0x4052ca3a	3.293593
234	0xbfdda73c	-1.7316661
235	0x3fdd90cb	1.7309812
236	0xc017e77b	-2.3735034
237	0xc0866d85	-4.200869
238	0x3fe2f25e	1.7730215
239	0xbf4f9482	-0.8108598
240	0xc04cd0c5	-3.2002423
241	0xbfdd1ab7	-1.7273778
242	0xbff86416	-1.9405544
243	0xc00ab0e7	-2.1670473
244	0xbf588c61	-0.845892
245	0xbfd40d04	-1.6566472
246	0x40090db1	2.1414607
247	0xc019e3dd	-2.4045327
248	0x401a2ff6	2.4091773
249	0xbf8aa368	-1.0831118
250	0x3eb1ce46	0.34727687
251	0xc0129993	-2.2906234
252	0xbf37f4dd	-0.71858007
253	0x3f811e27	1.0087327
254	0xc01ae3eb	-2.420161
255	0x3eb90009	0.3613284

lstm_cell.bias_hh f4 [256]
0	0xbfa8be3b	-1.3183054
1	0x3fe45137	1.7837285
2	0x3eba8f19	0.364373
3	0x4048b1a6	3.1358428
4	0x40430228	3.0470066
5	0x4051f5c6	3.2806258
6	0x3f6de260	0.92923546
7	0x402a2982	2.6587834
8	0x3f3839f2	0.7196342
9	0x3f286f5b	0.65794915
10	0x404bdfc5	3.1855328
11	0x400fb98c	2.2457
12	0xc07ea67b	-3.9789112
13	0x3e0e68ad	0.13907118
14	0xc0370faf	-2.8603323
15	0x3dc8873f	0.09791421
16	0x4039b9db	2.9019687
17	0xc01dc80b	-2.4653347
18	0xc031d1fd	-2.7784417
19	0x3f366478	0.71247053
20	0xbfbb68d2	-1.4641364
21	0xc07961cb	-3.8965938
22	0xbfdb729e	-1.7144353
23	0x3eb90386	0.361355
24	0x3fdc0885	1.71901
25	0xbf9d7b8b	-1.2303327
26	0x3f86630a	1.0498974
27	0x3f8281dd	1.0195881
28	0xbf1d55f7	-0.61459297
29	0x40185107	2.3799455
30	0x40253d45	2.5818646
31	0x3e7e207c	0.2481708
32	0x3fd42c96	1.6576107
33	0x3fe8228b	1.8135542
34	0xbf210ed2	-0.6291324
35	0xbf962f46	-1.1733177
36	0xbf3ac2eb	-0.7295367
37	0x3fc7bf77	1.5605305
38	0xbe5651dc	-0.20929664
39	0x3fe110b3	1.7583221
40	0x3e88008b	0.26562914
41	0x3f63fcff	0.89057916
42	0x3f5d2b5e	0.863943
43	0xbfabbbe4	-1.3416715
44	0xc09b8ec0	-4.8611755
45	0xbfd50b78	-1.6644125
46	0x3f466ed8	0.77512884
47	0x3ad7ab6b	0.0016454285
48	0xc08ca3ad	-4.39498
49	0xc005767b	-2.0853565
50	0xc0329e08	-2.7908955
51	0x3f2724ac	0.6529033
52	0xc02998e3	-2.6499565
53	0xbfeec951	-1.8655187
54	0xbc8ced9d	-0.017203147
55	0xbe859a63	-0.2609435
56	0xc009b88e	-2.1518893
57	0xc037aa51	-2.8697703
58	0x3f9a4694	1.2052789
59	0x3f111b15	0.5668195
60	0x3f4faeb2	0.8112594
61	0x404bb6ab	3.1830242
62	0x4008b7c2	2.1362157
63	0xc031fada	-2.7809358
64	0xbf88bc4e	-1.0682466
65	0xbef8867d	-0.48540106
66	0xbe984102	-0.29737097
67	0x3f71b5f8	0.9441829
68	0xbfbe2190	-1.4853992
69	0x3e890267	0.26759645
70	0x3f84520e	1.0337541
71	0xc0192b0e	-2.3932528
72	0x3f426b11	0.7594462
73	0xbf9c5312	-1.2212851
74	0xc05f56d9	-3.4896758
75	0xc0269d19	-2.6033385
76	0x3f299db8	0.66256285
77	0x3e794baf	0.24345277
78	0xbfd91919	-1.6960784
79	0x3e9f486f	0.3110995
80	0xbf91a1cb	-1.13775
81	0x3ec63111	0.3870931
82	0xbf08cf8f	-0.5344171
83	0x4002f1be	2.0460048
84	0xc0304780	-2.754364
85	0x3f261e02	0.6488954
86	0xc02d96a6	-2.7123199
87	0xbfa4f2eb	-1.2886633
88	0x3f502c67	0.8131775
89	0xbf0b1c3f	-0.54339975
90	0x3e19b022	0.15008596
91	0xbef0f626	-0.47062796
92	0xbfa89d17	-1.317294
93	0xbf782956	-0.96938074
94	0x3e7d7cab	0.24754588
95	0xbf61d77d	-0.88219434
96	0xbdae62a6	-0.085149094
97	0xc03b27e1	-2.924309
98	0xbe923ad3	-0.28560504
99	0xc04e09c4	-3.219346
100	0x4029dd4e	2.6541324
101	0xbf82242c	-1.0167289
102	0xbea0929e	-0.3136186
103	0xbfe52a24	-1.7903485
104	0xbfab97ca	-1.3405697
105	0x3fee8747	1.8635033
106	0x3f5f145c	0.8714044
107	0x3f1be59a	0.6089722
108	0xbe9366ed	-0.28789464
109	0xc002dc75	-2.0447056
110	0xbf8b7d38	-1.0897589
111	0xbf645b72	-0.89202034
112	0xbf826e8b	-1.0189985
113	0x3f7c65dd	0.9859293
114	0xbeae1be8	-0.34005666
115	0xc0129dec	-2.2908888
116	0xc01cfc16	-2.452886
117	0x3e6f9599	0.2339691
118	0x3ec04021	0.37548926
119	0xbfdcf3fc	-1.7261958
120	0x4012cfb7	2.293928
121	0x3fb02189	1.3760234
122	0xc081bd69	-4.0543714
123	0x400d1247	2.2042406
124	0xbe6440e0	-0.22290373
125	0xc0094755	-2.1449788
126	0x3f10ce8f	0.56565183
127	0xbeca1c74	-0.39474833
128	0x403b1e76	2.9237342
129	0xbf04f27a	-0.5193249
130	0xc0656036	-3.5839972
131	0xc0162288	-2.3458576
132	0x3fb80e08	1.4379282
133	0xbf015974	-0.5052712
134	0x3ee7bb00	0.45259857
135	0xbfbed609	-1.4909068
136	0x4007fbb9	2.124739
137	0xc003cee8	-2.0595036
138	0x407e4539	3.972975
139	0x3f45d32f	0.77275366
140	0x3e66fa31	0.22556378
141	0x4039c9bd	2.9029381
142	0x3fc3a0df	1.5283469
143	0xbf2b024a	-0.6680037
144	0x4023c784	2.5590525
145	0x408dda34	4.432886
146	0xc00feb14	-2.248723
147	0x3e3d3762	0.18478158
148	0xbf5da9c1	-0.8658715
149	0x3e47c26b	0.19507758
150	0x3f10538b	0.56377476
151	0x3f2585d7	0.6465735
152	0x3f530fbe	0.82445896
153	0xbf07983f	-0.52966684
154	0x3d6578f3	0.05602355
155	0xbfe9b775	-1.8259112
156	0x3f4869cd	0.7828644
157	0x3f4a43b4	0.79009557
158	0x401ba99e	2.4322276
159	0x400e5bd1	2.224354
160	0x3feb9a8e	1.8406541
161	0xbfac6d67	-1.3470887
162	0xbead9c2d	-0.33908215
163	0x3ffe9bb9	1.9891273
164	0x3fe36e14	1.7767968
165	0xbe790584	-0.2431851
166	0x3fa528ba	1.2903054
167	0x3e83fc59	0.25778463
168	0xbeb87d8c	-0.36033285
169	0x3fd5f2c0	1.6714706
170	0xbf0e6107	-0.556168
171	0x3ff37ba5	1.9022108
172	0x3f4e0847	0.8048138
173	0x3d643cc2	0.055722006
174	0x4053b061	3.3076403
175	0xc0237d2e	-2.5545154
176	0xc00854dd	-2.1301796
177	0x3e664ca0	0.22490168
178	0x3ec64701	0.38726047
179	0xbf24ffa6	-0.6445259
180	0xbfa8fcd5	-1.3202158
181	0xc03225ab	-2.783549
182	0xbfa1f463	-1.2652706
183	0xbff268c4	-1.8938222
184	0xbed1aef8	-0.40953803
185	0x3fb93c6a	1.4471562
186	0xbf9f33bf	-1.2437667
187	0xbd97f955	-0.07420603
188	0xbffb0113	-1.9609703
189	0xbfbeaba8	-1.4896135
190	0x3fe53c1b	1.7908968
191	0x3f1b40f9	0.60646015
192	0xbe69b243	-0.22821908
193	0xc084df1d	-4.1522355
194	0x3f1febc5	0.6246913
195	0x40aa50fe	5.3223867
196	0xbf5053c2	-0.81377804
197	0xc00fcb82	-2.2467961
198	0x3fb7855a	1.4337571
199	0x3fef11bd	1.8677288
200	0xbf90ff37	-1.1327885
201	0x3f50e330	0.8159666
202	0xc001676e	-2.0219378
203	0x404dda02	3.2164311
204	0xbf83c10c	-1.0293288
205	0x3fd69028	1.6762743
206	0xc02ffe45	-2.7498944
207	0xbf29991b	-0.66249245
208	0xc00f4a3b	-2.2389057
209	0xbf391e2f	-0.7231168
210	0xc01a3f82	-2.4101262
211	0x3de906c0	0.113782406
212	0x3fad8b86	1.3558204
213	0xbf849d2d	-1.0360466
214	0x3fb0c4ac	1.381002
215	0x3f423122	0.7585622
216	0xbf45b099	-0.7722259
217	0x3e72e291	0.2371924
218	0x3fea48df	1.8303488
219	0xc0539d58	-3.3064785
220	0x3ef4e9ee	0.47834724
221	0xbfc0e1b3	-1.5068878
222	0x3fba227a	1.4541771
223	0xbf062cbd	-0.52412015
224	0xbf35a37a	-0.7095257
225	0x400c9021	2.196297
226	0xbe78d26f	-0.24299024
227	0xbf8767db	-1.0578569
228	0xbef55afb	-0.47920975
229	0x4036edb1	2.8582575
230	0xc00a8aba	-2.1647172
231	0x4047ae7d	3.120025
232	0x3f2488f3	0.6427147
233	0x405510ea	3.3291574
234	0xbfcc5097	-1.5962094
235	0x3fde9b6b	1.739118
236	0xc02165a2	-2.5218282
237	0xc087a8e5	-4.239367
238	0x3fe0392e	1.751745
239	0xbf2e5833	-0.6810333
240	0xc049af57	-3.151327
241	0xbfe223d7	-1.7667187
242	0xbfe93336	-1.8218753
243	0xc006fbf7	-2.1091287
244	0xbf6be4b5	-0.92145854
245	0xbfc3609a	-1.5263855
246	0x40096d89	2.1473105
247	0xc00e3b33	-2.2223632
248	0x40102ee2	2.2528615
249	0xbf7dea71	-0.99185854
250	0x3ea8e98a	0.32990676
251	0xc00f3549	-2.2376273
252	0xbf435d58	-0.76314306
253	0x3f7ef084	0.9958575
254	0xc0278145	-2.617265
255	0x3eca28ba	0.39484197

linear0.weight f4 [32, 384]
0	0xbd7459a1	-0.05965579
1	0x3b735d1f	0.0037134362
2	0xbdb38d30	-0.08767164
3	0xbcb090ef	-0.021553485
4	0x3d89f141	0.06735469
5	0x3d60bc50	0.05486709
6	0xbd8be809	-0.068313666
7	0x3d387d9f	0.045041677
8	0x3dcaa80b	0.09895333
9	0x3db64a6a	0.08900912
10	0xbd5d804f	-0.054077443
11	0x3d41c8bf	0.047310587
12	0x3d4a5dcb	0.049405854
13	0x3d786831	0.06064624
14	0xbdd88e71	-0.105740435
15	0xbdcfb6d0	-0.101422906
16	0x3cd7b220	0.026330054
17	0xbd71441f	-0.058902856
18	0xbd91a6af	-0.071118705
19	0x3aa41589	0.0012518625
20	0xbcc487f1	-0.023990603
21	0xbd01e0b1	-0.031708423
22	0xbcaa5d07	-0.020796312
23	0xbdcf2361	-0.1011417
24	0xbd58ab7f	-0.052897926
25	0xbdc6bd81	-0.09704114
26	0x3c294419	0.010331177
27	0x3cf8c96f	0.030369489
28	0x3dd21431	0.102577575
29	0x3ca0aeaf	0.019614546
30	0xbdb6be01	-0.08922959
31	0x3dae46e1	0.08509613
32	0xbdb39cf6	-0.08770172
33	0x3c43f881	0.011961103
34	0x3c937ba1	0.018003287
35	0xbbdba561	-0.0067030643
36	0xbd734eff	-0.05940151
37	0xbd72e061	-0.059296016
38	0xbc68b84f	-0.014204099
39	0xbe005061	-0.12530662
40	0x3d9de391	0.077094205
41	0x3da4e797	0.08051985
42	0x3d8a4d61	0.0675304
43	0xbd2772b1	-0.040880863
44	0xbcfecb41	-0.031102778
45	0x3d683db1	0.05669946
46	0xbcbfcdc1	-0.02341354
47	0xbd0a8f87	-0.033828285
48	0x3dc04c61	0.09389568
49	0x3b9284a7	0.00447138
50	0x3da30f07	0.079618506
51	0xbd61f211	-0.055162493
52	0x3c885d89	0.016646164
53	0xbdb490aa	-0.08816655
54	0x3be37be0	0.0069422573
55	0xbd87fdc1	-0.066401966
56	0xbd5f7be1	-0.0545615
57	0x3df5f5a1	0.120097406
58	0x3cf61981	0.030041458
59	0x3d3c853b	0.046025496
60	0xbd4d8b2f	-0.050181564
61	0x3d8c70a1	0.0685742
62	0xbcc83390	-0.02443865
63	0x3b95fda9	0.004577358
64	0xbc1c17f9	-0.0095272
65	0x3d263321	0.040576104
66	0xbd47f13f	-0.048814055
67	0xbd38fab6	-0.04516097
68	0x3d5c3031	0.053756896
69	0x3d115f48	0.035491258
70	0xbd9bcb01	-0.07607079
71	0x3d9b9f39	0.07598729
72	0x3d89cebf	0.06728887
73	0x3dad7391	0.08469308
74	0xbd85e861	-0.065384634
75	0x3d93dad1	0.0721947
76	0x3da9d167	0.082918935
77	0x3dfb251f	0.1226294
78	0xbda6c4f7	-0.08143037
79	0xbd668131	-0.05627555
80	0x3c6e8501	0.014558078
81	0xbd751760	-0.059836745
82	0xbdfcaee0	-0.12338042
83	0x3b1d88c1	0.002403781
84	0xbdd70b81	-0.10500241
85	0xba768f0f	-0.00094054727
86	0xbd85535f	-0.065100424
87	0xbdb864ca	-0.09003599
88	0xbd9d1e1f	-0.07671761
89	0xbd42eb5b	-0.047587734
90	0xbd9c5700	-0.076337814
91	0x3dde4b7f	0.108542435
92	0x3dbdb401	0.09262849
93	0xbd5e21af	-0.054231342
94	0xbda3c9e1	-0.0799749
95	0x3d9b0ae1	0.07570434
96	0xbdd07d0f	-0.10180103
97	0x3d57d8ef	0.05269712
98	0x3d9dd087	0.07705789
99	0xbbe196b1	-0.006884419
100	0xbd150589	-0.03638223
101	0xbdc400a6	-0.09570436
102	0xbb90e341	-0.004421622
103	0xbd3af8a0	-0.045647264
104	0x3de8e9ff	0.11372756
105	0xbc7fba9f	-0.015608459
106	0xbae80d6f	-0.0017704199
107	0xbdd67e20	-0.10473275
108	0xbd9433c0	-0.07236433
109	0x3e0443c7	0.1291648
110	0xbd38cccf	-0.045117196
111	0x3dc8b32f	0.097998016
112	0x3d728eaf	0.059218105
113	0x3c1dc331	0.009629057
114	0x3de8ef30	0.113737464
115	0xbdacda7f	-0.08440112
116	0x3d9f6e7f	0.07784747
117	0xbd33f5f6	-0.04393574
118	0x3d780341	0.06054998
119	0xbd0185b1	-0.03162164
120	0xbdb69651	-0.08915389
121	0x3da98aef	0.082784526
122	0x3d7bb15f	0.06144845
123	0x3d9f1d39	0.07769246
124	0xbd8ef171	-0.06979645
125	0x3cc96b8b	0.024587413
126	0xbd7860c1	-0.060639147
127	0x3d1e37f1	0.03862757
128	0xbc73d921	-0.0148833105
129	0xbd168139	-0.03674433
130	0xbdb639ff	-0.088977806
131	0xbcd1c621	-0.02560717
132	0xbcc5fe31	-0.02416906
133	0xbdcb5551	-0.09928382
134	0xbdff5cef	-0.124688976
135	0xbdde06ef	-0.10841166
136	0x3d3cfb00	0.04613781
137	0xbcce9b5f	-0.025220571
138	0xbcd5dcff	-0.026106356
139	0xbd238259	-0.03991923
140	0xbdde20e1	-0.10846115
141	0xbd9dafa9	-0.0769952
142	0x3be8e0d0	0.007106878
143	0xbdd8bc2f	-0.10582768
144	0xbc8c1c17	-0.017103238
145	0xbc5dbfaf	-0.01353447
146	0xbd717c3f	-0.05895638
147	0xbdaf0746	-0.08546309
148	0xbd0912b7	-0.033465113
149	0xbd4dd0ff	-0.050248142
150	0xbdc6732f	-0.09689938
151	0xbd33ffa6	-0.043944977
152	0xbc708921	-0.014681132
153	0xbddda43f	-0.10822343
154	0x3d20c501	0.039250378
155	0xbda15107	-0.07876783
156	0xbd973ba1	-0.0738442
157	0xbda933f7	-0.08261865
158	0xbd8e47f7	-0.0694732
159	0xbda80139	-0.08203358
160	0xbc0955f7	-0.008382312
161	0xbd9d3f7f	-0.076781265
162	0xbc800229	-0.01562603
163	0xbc9307c9	-0.017948048
164	0xbcced151	-0.025246294
165	0xbd43d5e1	-0.047811393
166	0xbc3b3eff	-0.011428594
167	0xbd21e4e7	-0.03952494
168	0xbd8e6547	-0.06952911
169	0x3d162287	0.03665402
170	0xbdc6d5ef	-0.09708773
171	0xbda10b59	-0.078634925
172	0xbda61967	-0.08110314
173	0xbddd0a4f	-0.10792982
174	0xbccf90ef	-0.025337664
175	0xbce5afe1	-0.028037967
176	0xbc96a430	-0.018388838
177	0x3d0028b1	0.031288806
178	0xbd80f127	-0.06295996
179	0xbcc8d13f	-0.024513839
180	0x3bebcbf0	0.007195942
181	0xbd03022f	-0.031984504
182	0xbddfc151	-0.10925544
183	0xbd49f271	-0.049303476
184	0xbc5d56e1	-0.013509483
185	0xbd7a8200	-0.061159134
186	0xbd8328c1	-0.064042576
187	0xbca90aa7	-0.020634962
188	0xbd9a3331	-0.07529295
189	0xbdc30481	-0.095223434
190	0xbda82319	-0.08209819
191	0xbdd1d20f	-0.102451436
192	0xbd5afdf1	-0.053464834
193	0x3cd97b4f	0.026548056
194	0x39ed126f	0.00045217897
195	0xbc511a85	-0.01276267
196	0xbd0927c9	-0.033485208
197	0xbd85bd6f	-0.06530272
198	0xbd006328	-0.031344563
199	0xbcbc592f	-0.022991745
200	0x3cdc0f41	0.026862742
201	0xbce1dae1	-0.02757019
202	0x3ceec73f	0.029147742
203	0x3bf95d71	0.007610016
204	0x3d9ce979	0.07661719
205	0x3dcf874f	0.1013323
206	0x3c7664d1	0.015038685
207	0x3d3fc8df	0.046822425
208	0xbd8af839	-0.06785626
209	0xbd3dd17b	-0.046342354
210	0x3d4b6521	0.04965699
211	0x3da70499	0.08155174
212	0x3d0919f9	0.033472035
213	0x3d8af6a1	0.06785322
214	0x3d1395b0	0.036031425
215	0x3c6aaee1	0.014323921
216	0x3ca89537	0.020578964
217	0x3b3fab1f	0.0029246283
218	0xba806f08	-0.0009798715
219	0xbd2e9fa6	-0.04263272
220	0xbd26b95f	-0.040704127
221	0xbd2b3941	-0.04180265
222	0xbd42acb1	-0.047527973
223	0x3d4e1a6f	0.050318178
224	0xbd926be1	-0.071494825
225	0xbb41c87f	-0.0029568968
226	0x3dedd190	0.116122365
227	0x3dc2f6df	0.09519743
228	0x3bf73891	0.007544585
229	0x3cffa32f	0.031205742
230	0x3c05a1e1	0.008156271
231	0x3ce7a81f	0.028278409
232	0x3d4bed31	0.04978675
233	0x3d1b800f	0.037963923
234	0xbc299299	-0.010349893
235	0xbd4ee5d1	-0.05051214
236	0xbd1de8df	-0.03855216
237	0x39342f00	0.00017183647
238	0x3d44a76f	0.04801124
239	0x3c7175f0	0.014737591
240	0xbd426111	-0.04745585
241	0x3d36074a	0.044440545
242	0xbbd73ce1	-0.0065685366
243	0xbd3d7a80	-0.046259403
244	0x3d0050df	0.031327125
245	0x3d37421f	0.044740792
246	0xbd0cd9f7	-0.034387555
247	0x3d03aca8	0.03214708
248	0x3d3d2581	0.046178345
249	0x3d42abcf	0.04752713
250	0x3d48c15f	0.049012538
251	0xbc4f5abf	-0.012655913
252	0x3caa329f	0.020776091
253	0x3d1fbc30	0.03899783
254	0xbc8ae207	-0.016953481
255	0xbb7f6300	-0.003896892

linear0.bias f4 [32]
0	0xbdc60491	-0.0966884
1	0xbe27d6c7	-0.16390525
2	0x3dbecd26	0.09316473
3	0xbe8ee581	-0.27909473
4	0xbc59eb3f	-0.013300716
5	0xbdd1841f	-0.10230278
6	0xbcebcb81	-0.028783562
7	0x3ec8fb54	0.39254248
8	0xbe23884f	-0.15969966
9	0xbda66b3f	-0.08125924
10	0xbee6df11	-0.4509206
11	0xbe8445b7	-0.25834438
12	0xbe8d46c0	-0.2759304
13	0xbecc9011	-0.39953664
14	0x3d899821	0.067184694
15	0xbe68c81f	-0.2273259
16	0xbe91c831	-0.28473046
17	0x3d7d1ddf	0.061796065
18	0xbe4ae471	-0.19813706
19	0xbdb7c5f1	-0.08973301
20	0xbd752b11	-0.059855524
21	0xbc6ddfa1	-0.014518649
22	0x3db12ddb	0.08651324
23	0x3e38e10b	0.18054597
24	0x3c6bfb4f	0.014403178
25	0xbe34ea21	-0.17667438
26	0xbb9061c9	-0.004406188
27	0xbd34a35a	-0.044101097
28	0x3d32c734	0.043647006
29	0xbd8f1691	-0.06986726
30	0xbe6ede10	-0.23326898
31	0xbe5aa8c1	-0.21353437
