model/1715146453/3_NSFnet_global_model_0.pth (torch, 331200 bytes, 17 tensors)

conv1.lin_l.weight f4 [16, 1]
00000000: 712a 22bf efad 5ebc e5c7 2fbf 91ff 26bf
00000010: e14e 00bf 7833 913e 110e 56bf e572 19be
00000020: d6b5 22bf d59b a33d 385f 88be 4fd2 61bf
00000030: e1d0 533d 3fa2 f8be 4707 c53e 618f e8be
-0.6334601 -0.013591274 -0.6866439 -0.65233713 -0.5012036 0.2835958 -0.83615214 -0.14985235
-0.6355871 0.07988707 -0.26635146 -0.8821153 0.051712874 -0.48561284 0.38482115 -0.4542189

conv1.lin_l.bias f4 [16]
00000000: 06cb 1ebe 5abf 173f 5007 8abf 5fc6 be3e
00000010: 1f0d e33e 8370 8ebe b1bd 51bf 96fb ca3e
00000020: ffcb 2a3f 71bd 33bf 8fe3 213f 0116 72bf
00000030: 436e ff3e 507c 84be dd67 cbbe d053 d9bd
-0.15507135 0.59276354 -1.0783482 0.3726072 0.44345948 -0.27820215 -0.8193007 0.3964507
0.66717523 -0.7021094 0.6323785 -0.94564825 0.4988881 -0.25876093 -0.3972768 -0.10611689

conv1.lin_r.weight f4 [16, 1]
00000000: d1bd 7fbf a187 00bf f172 403e b14b 5bbf
00000010: 116b a5be a9a1 153f 1b56 38bf b862 f53d
00000020: 8fee f9be 81df 52bf 2f62 57bf 4cb0 d43d
00000030: 2017 44bf e1b7 4bbf 84ec 8abe 8034 65bd
-0.9989901 -0.50206953 0.18793847 -0.8566237 -0.32308248 0.584498 -0.72006387 0.1198172
-0.48814818 -0.8237229 -0.8413419 0.103851885 -0.76597786 -0.7957745 -0.27133572 -0.05595827

conv2.lin_l.weight f4 [64, 16]
00000000: b199 acbd 5f13 0f3e 9fb9 b8bc a991 0f3e
00000010: 893a 0abd cc01 61bd f047 17be b9e4 c73d
00000020: 5f6a fc3d 2f9a 3e3d 27c1 06be 1745 0f3e
00000030: aa5e 9d3d 8a2e 243e db34 c3be 512e 42be
00000040: 4696 173e c6e1 93be 41ad a43d f16e 2d3e
00000050: 2f3d 903d 31a4 493d 613d a1bd 38c6 86be
00000060: 71f1 563e efe9 88be e167 72be 96ce 9cbd
00000070: 8117 61be a061 1bbe 162b 99be af1f e4bd
00000080: 21e9 85bd 550c b7bd 5a9e 223e e079 60bc
00000090: 4088 bc3b 0072 1abc a158 e23d 3ebc 113e
000000a0: 25f3 b63d ef7e cabd c0a1 23bc 3bf8 bc3d
000000b0: c705 8abd 81d2 04be 2005 96be 60d2 48be
000000c0: af3e f83d afa2 6abe cf22 c9bd 5157 e83d
000000d0: bf00 e93d 0992 90be 802a 913c 765c 1ebe
000000e0: b0fc be3c 5bef b6be c180 223e 40de 86bc
000000f0: df2e aabe 5fce 3f3e c0a3 d53d 71b9 febd
00000100: 8f6e 433e 3122 de3d e51a 3abe e651 a83d
00000110: a0d9 53bc f02b 5ebe 5009 2f3e ffbf a6be
00000120: 6ff4 1f3e 51d1 72be 00bc 7e3e e16c 80bd
00000130: 91d3 1dbe c117 23be ef7a a3be 8148 39be
00000140: ef9d 48be 41f9 8ebd 3fc6 84be 418a f4bd
00000150: 41a0 753e f63b 13be b087 debd 0b5b 2bbd
00000160: c147 743e df99 72be bf38 1b3e effa c2be
00000170: dac7 a9be f0ea e83c 3149 e6be 9036 00be
00000180: 2168 53be ba4e a3bd c17a dabd c086 9e3b
00000190: 01f7 51be c1cd 9cbe e183 22be e119 8bbe
000001a0: a0d8 1c3c 2221 1e3e 2142 4abe 1bcf 2c3e
000001b0: 9f11 383e 0f5b 7e3e 420f 09be f073 e03c
000001c0: 11b3 e33d 0fa7 51be 4fc7 e9bd ef91 c8bd
000001d0: 00b4 0e3e 8153 0cbe 2170 2bbe cf28 91be
000001e0: dfc2 e7bd 215c bcbc 6ff2 3cbe 97a4 84be
000001f0: a117 aebd c183 cbbd 4fa0 4dbe 810e 18be
00000200: d067 f0bc f0c5 303d c182 01be 5f91 c2bd
00000210: 7002 073e df2c 07be bf44 7bbe 1fe8 f23d
00000220: f1a2 d73d c192 543e 0100 c43d 002c d8bb
00000230: 4100 7f3d f1dc 523e a04a 09bc 2124 1cbe
00000240: 10a9 4abd fbb3 37be 16f4 973d 7136 913d
00000250: 9f3a 4bbe 21f4 68be 6f0f 5ebe 7f1a e3bd
00000260: d0e0 033d f133 d13d bfe3 76be fa3e 9dbe
00000270: 5143 bb3d a16b 713e 8f86 ea3d 0082 153d
00000280: 70d5 83bd 7094 ccbc 9115 083e 016d 153e
00000290: e175 45bd bf1b 4dbe 7041 edbd 0524 313e
000002a0: 4117 00be 0f5f 823d 0145 cf3d 1053 fcbd
000002b0: 1b8b 2ebe bfe5 573e 1bd7 2f3e 50e2 29bd
000002c0: a1da 45be d1ce 31be 0024 eb3c 5064 fe3d
000002d0: 2138 5f3e 1f17 b73d 60fa 623c 6aa8 23be
000002e0: b1a5 183e a6d5 9f3a 4fd7 72be 3fff c0bd
000002f0: b1bd 8bbd 30b4 8c3c b661 9ebe 81b5 4bbe
00000300: cfb7 48be 9f04 0bbe 4f9f 9bbc 0f93 ffbd
00000310: a178 573e df62 d3bd e09e 143d bf69 25be
00000320: 8f84 02be 0b1a afbd cfb3 063e 1ab8 193d
00000330: af15 d33d e1cb 563d c624 163e a058 c13c
00000340: 6161 7abd 5f18 02be e98d 04bd 11af 243e
00000350: 51ac c33d 99f6 833d a082 24be 96aa a63c
00000360: cf5f 353e 0fdc 023e f51e 32be 2f29 afbd
00000370: 76a0 953c 90d7 11bd 9f61 993c f03c 893d
00000380: 1fcc 413e e66c a23d 8152 3a3e f080 fe3d
00000390: 10ec 58be 1931 0cbe d04a 603e 10fa 99bc
000003a0: b763 0cbe af7a 6d3e e0a8 e93c 110f 0cbe
000003b0: 1f1e 5fbe 4041 e3bb 2f33 8a3d 61da 54bd
000003c0: 71b6 143e c7cc 8b3e 21ac 0f3e d047 3b3e
000003d0: e179 f33d 5118 c33c 803a 82bc ff02 5e3c
000003e0: cf51 64be 5769 8b3c 01c4 ed3d a62f 9c3c
000003f0: ff80 0cbc e10d cc3d 313f 5a3d 00ff e53b
-0.08427752 0.13972233 -0.022549449 0.14020409 -0.03374723 -0.054933354 -0.14773536 0.09760422
0.12324976 0.04653376 -0.1315962 0.139912 0.07684071 0.16033378 -0.38126263 -0.18962981
0.14803419 -0.2888319 0.08040858 0.16936852 0.0704292 0.04922885 -0.07873035 -0.26323104
0.2099054 -0.26740977 -0.23672439 -0.07656591 -0.21981622 -0.1517396 -0.29915684 -0.11138856
-0.065386064 -0.08937899 0.15880719 -0.013700932 0.005753547 -0.009426594 0.11052061 0.14231965
0.08933095 -0.09887492 -0.009987295 0.09227034 -0.06739383 -0.12970926 -0.29300785 -0.19611502
0.12121331 -0.22913621 -0.09821092 0.11344779 0.113770954 -0.28236416 0.01772046 -0.15464959
0.02331385 -0.3572949 0.15869428 -0.016463399 -0.33238885 0.18731068 0.104316235 -0.12437714
0.19085144 0.10846365 -0.18174322 0.08218746 -0.012930304 -0.21696448 0.17093396 -0.32568356
0.15620588 -0.2371266 0.24876404 -0.06270767 -0.15412737 -0.1592703 -0.31929728 -0.18094064
-0.19591497 -0.06981135 -0.259325 -0.11940432 0.23986913 -0.14378342 -0.10865724 -0.041834872
0.23855497 -0.2369151 0.15158366 -0.38082072 -0.33160287 0.02843234 -0.44977716 -0.12520814
-0.20645191 -0.07974 -0.10667945 0.004837841 -0.20504381 -0.30625728 -0.1587062 -0.27168182
0.009573132 0.15442327 -0.19751789 0.1687588 0.17975472 0.24839424 -0.13384727 0.027399033
0.111181386 -0.20473884 -0.11414968 -0.097934596 0.13935852 -0.13703729 -0.16741993 -0.28351447
-0.113164656 -0.02299315 -0.18451856 -0.25906822 -0.085006006 -0.099372394 -0.20080684 -0.14849283
-0.029346377 0.043157518 -0.12647535 -0.095003836 0.13184524 -0.1320071 -0.24537943 0.1186068
0.105291255 0.20759107 0.09570313 -0.006597042 0.0622561 0.20592095 -0.008379608 -0.15248157
-0.049477637 -0.17939751 0.074196026 0.07090462 -0.19846581 -0.22749378 -0.21685575 -0.11089038
0.03219682 0.10214985 -0.24110316 -0.3071211 0.09143699 0.23576213 0.11451446 0.03650093
-0.06437194 -0.024973124 0.13289477 0.14592363 -0.04820812 -0.20030116 -0.11584747 0.17298897
-0.1250887 0.06365787 0.10120583 -0.123205304 -0.17045252 0.21083735 0.171719 -0.041475594
-0.19321682 -0.1736405 0.02870369 0.12421477 0.21798755 0.08939957 0.013853639 -0.15982214
0.14906956 0.001219441 -0.23714946 -0.09423684 -0.0682329 0.017175764 -0.30933923 -0.19893457
-0.19601367 -0.13575982 -0.018996863 -0.12479221 0.2104211 -0.103215925 0.036284328 -0.1615362
-0.1274588 -0.08549889 0.13154529 0.03752909 0.1030687 0.052440528 0.14662465 0.02360183
-0.061128024 -0.1270461 -0.0323619 0.16082408 0.09554351 0.06443519 -0.16065454 0.020345014
0.1771233 0.12779258 -0.17394622 -0.08552777 0.01826499 -0.035605967 0.018723307 0.06701076
0.18925522 0.07930927 0.18195535 0.124269366 -0.211838 -0.13690604 0.21903539 -0.018795997
-0.13709913 0.23191331 0.028522909 -0.13677622 -0.21788834 -0.0069352686 0.06748044 -0.051966075
0.14522721 0.2730467 0.14030506 0.18289113 0.11888481 0.023815306 -0.015897036 0.013550519
-0.22296833 0.017018003 0.116096504 0.01906569 -0.008575677 0.09963585 0.05328292 0.0070189238

conv2.lin_l.bias f4 [64]
00000000: ac6a 96bd 5fee f7bd 7f7f a7be 7174 bbbe
00000010: 0fac ddbd 8f1b b2be bf54 2e3e ff1e 4d3d
00000020: e0d7 503d 0f4d 4fbe 9096 4f3d 214d 093d
00000030: 6fa0 013e 1157 863c af9d 56be affb 75be
00000040: 6699 9ebd 3f83 6cbe a0e6 95be ab8e 9ebe
00000050: 919f 71be 5bf2 ac3d c1cf cdbd 1fa6 62bd
00000060: 4b8a 2f3e 11b2 1dbe d057 023e 211d cabd
00000070: 7731 88be 6f19 ac3d 6181 94be f1e3 e0be
00000080: bf55 5abe 2f69 493e 51ae dfbd e668 28be
00000090: 7f69 9bbe ea3e 213e f081 303e 506e e43d
000000a0: a618 22bd 7f52 dbbd 78f1 07bc 0358 16be
000000b0: 416a f1bd c1dc cfbc 5c49 51be 80a5 c6be
000000c0: a6f0 a1be 8577 b5be 41ca 0f3d a1ff 56be
000000d0: b124 acbd a60a aabd 8e93 193e c5e9 b63d
000000e0: c169 b0be b1f5 403e 7ffe f9bd 9fa6 3abe
000000f0: cfa2 b93d 1181 9f3d 1f2b 1c3e 2a7f 953c
-0.07344565 -0.121060126 -0.3271446 -0.36612275 -0.10823833 -0.3478665 0.17024516 0.05007839
0.050987124 -0.2024424 0.050680697 0.03352082 0.12658857 0.016398938 -0.20958589 -0.24021791
-0.07744102 -0.23096941 -0.29277515 -0.30968222 -0.23596026 0.08444663 -0.100493915 -0.055334207
0.17142598 -0.15399958 0.1272881 -0.09868837 -0.2660024 0.084032886 -0.29004958 -0.43923905
-0.21321772 0.1966903 -0.1092192 -0.16446266 -0.30353925 0.15746656 0.17237067 0.11153853
-0.039574288 -0.10709094 -0.008297317 -0.14682011 -0.117878444 -0.025373818 -0.2043814 -0.3879814
-0.31628913 -0.3544275 0.035104994 -0.20995952 -0.08405436 -0.08302812 0.14997694 0.08931307
-0.34455684 0.18843724 -0.122067444 -0.18227623 0.090642564 0.07788289 0.15250824 0.018249113

conv2.lin_r.weight f4 [64, 16]
00000000: d0f6 22be 11fe c33d 0f00 97be a1ea a63d
00000010: 4f63 13be c630 843d 3613 263e 92e0 4cbe
00000020: 9fa4 06be 5733 003e c588 b7bd 8fa8 25be
00000030: 6f56 22be 5b15 35be 2981 0bbe ffe1 043e
00000040: 40e2 0fbd 0177 85be 09be 90be a0dc 8a3c
00000050: 60c6 063e ffed 1abe c1fb 27be efc4 a33c
00000060: 9fc6 293e e142 d6bd 2100 c7bd aa6a 183d
00000070: 8f6f 88be cf95 24be a7c1 8b3d f146 0d3e
00000080: 4114 e63d b1c7 273e 21e3 3f3e 9110 013e
00000090: 7113 203e 3efa 8ebb 4023 853d 21f9 79bd
000000a0: 915a 3c3e f485 c5bd c0f3 63be 6fe5 763e
000000b0: a1f3 5d3e 0f24 49be d1bb bcbd 9f9e 60be
000000c0: 60cf 403d 20c0 733d fff8 cabd 7f2b 50bd
000000d0: 11f3 be3d 7116 dc3b 21b2 5a3e e130 9abe
000000e0: 507d 453e e122 73be 1f4a 96bd 41bf dd3d
000000f0: 5067 cebc e1ea 533d 8f61 0bbe 91e2 a3bd
00000100: 008f af3c 00cb 093d 416f 71be a53a 32bd
00000110: 11e0 ef3d bf1d d53d d994 0abe 6fbb fd3c
00000120: 80f7 653b 316f 293c 3782 893d 550f ad3d
00000130: f6e5 a53d 9fc6 71be 8164 35bd efe1 8a3d
00000140: aff8 09be df01 07bf e1a4 0ebe a16f 453d
00000150: b887 083d 7106 93be 100a 263e 0159 02bf
00000160: f6fb 1bbe 51b5 02bf 30e1 79be a5bb b9be
00000170: 4fa4 e0be 2185 03be 41de 43be 60b4 debd
00000180: aab7 9cbd ef02 67be a17a d1bd b657 1d3e
00000190: df72 403e 012f f13d 4a42 96bd 27e7 0a3e
000001a0: 06cf 21be bfce 16bd 3f93 573e 0fdc 61be
000001b0: c16d d43d 00ca 2f3a 8fdc db3b ff54 6bbe
000001c0: 8158 6e3e 1104 90be b1ec 73be c110 c2bd
000001d0: 8088 7fbd 2ffe d43c 8101 5dbd 1707 0f3e
000001e0: bff2 72be 3fae f83d ff1d 4bbe 811a 5b3e
000001f0: bf14 7bbe c0f5 eb3c 5f8e 5dbd cf71 e1bd
00000200: 61d2 bd3d b138 613e 81b5 78bd 8f6b 37be
00000210: cf18 0bbe b0b7 e7bd f991 053e f058 4fbe
00000220: 3ff4 3a3e a675 a33d 6a41 9a3d 6f64 34be
00000230: affe e5bd c167 18be 011b da3d 3008 d83d
00000240: 5079 3e3e 6ff7 42bb f1df 6b3d d008 7f3d
00000250: 10a7 60bd e194 213d 2f15 34be 4f27 69be
00000260: 60ef 373d 603a 84bc 00d1 ca3c b129 0dbc
00000270: 1f75 40be 5fa0 cdbd 7118 f8bd a9b5 0fbd
00000280: 9f6b b4bd 8f2f 4a3e 6f75 193e 013d 70be
00000290: bf8c c03d e1ac 5cbe 30fd b23d cfa2 78be
000002a0: c9a2 0f3d cfc8 1abe c088 7c3e 7f15 61be
000002b0: c1d9 fcbd c15a 713e 9ff7 46bd e114 7a3e
000002c0: a12f 60bd f122 0d3e 9140 79be e076 303d
000002d0: f01e 863d af09 80bd b122 febd ffc8 6dbe
000002e0: c1b2 e13d 114c afbd 3b83 303e 2be4 373e
000002f0: 1f80 1a3e 202e 973d efc2 43be 4034 333e
00000300: 01c2 3cbe 216b 38bc 2b1d b7bd a01e 1b3e
00000310: 5fd1 1d3e bfe1 3bbe 66b9 243e e1bc be3d
00000320: efac a53d f152 f6bd 7f32 1fbe df85 6bbe
00000330: afc3 36be 4ff7 51be 4024 cc3c 4ff3 363e
00000340: 2f27 623e c060 0dbe bfb6 02be 9f54 613e
00000350: 30ea bc3c 578d 90bd c03c 003e 2197 45be
00000360: f137 31be 8f4c 11be 5fc8 c1bd 9936 8c3d
00000370: 6fa9 02be 6f19 7c3e d14f 51be b088 11be
00000380: 6567 333e 419e 743e 7196 6ebe df35 47be
00000390: 47c5 00be 8153 c5bd 8067 5abe 210f d33d
000003a0: 5740 923d a0fe 9a3d d0c8 5a3d 11ef 683e
000003b0: 16c1 94bd 3598 33be 813d 433d 80c9 193e
000003c0: 5077 61be 0fae 91bd 0f78 19bb c121 653d
000003d0: e011 96bc 5f32 9cbd 80ce 653b 3141 573d
000003e0: 2068 0fbd 6f86 c8bd 21c1 e23d 918a 473d
000003f0: 7f76 4c3e a0d9 943d 4186 0bbe 307e b2bd
-0.15914464 0.09569944 -0.29492232 0.08150221 -0.14393352 0.06454615 0.16218266 -0.20007542
-0.13148735 0.12519585 -0.089616336 -0.16177581 -0.15853284 -0.17683928 -0.1362349 0.12976836
-0.03512788 -0.26067355 -0.28269985 0.016950905 0.13161612 -0.15129851 -0.1640463 0.019991366
0.16579674 -0.10461975 -0.097168215 0.037211098 -0.26647612 -0.16072772 0.06824046 0.13796593
0.11234332 0.1638477 0.18738987 0.12603976 0.15632416 -0.0043633273 0.06500864 -0.061028603
0.18393923 -0.0964469 -0.22260952 0.2411096 0.21674968 -0.19642662 -0.09215511 -0.21935509
0.04707277 0.059509397 -0.099107735 -0.05082273 0.09323705 0.0067165424 0.21357013 -0.30115417
0.19286084 -0.23743774 -0.07338356 0.108274944 -0.025195748 0.05173767 -0.13611434 -0.080021985
0.021430492 0.03364086 -0.23577596 -0.04351296 0.11712659 0.10406064 -0.13533343 0.030973164
0.0035090148 0.0103414515 0.0671429 0.0845019 0.08100502 -0.23610924 -0.0442853 0.06781375
-0.13473772 -0.5273723 -0.13930084 0.04820216 0.033332556 -0.28715852 0.16214776 -0.5091706
-0.15232834 -0.51057917 -0.24402308 -0.36275974 -0.43875358 -0.12843753 -0.19127752 -0.108742476
-0.07652219 -0.22559713 -0.10228468 0.1536549 0.1879382 0.117765434 -0.073368624 0.1356474
-0.1580163 -0.036818262 0.21052264 -0.22056602 0.103724964 0.00067058206 0.0067096422 -0.22981642
0.23275949 -0.28128102 -0.2382076 -0.09475852 -0.062386036 0.02600011 -0.053956512 0.13967548
-0.23725413 0.1214261 -0.19835661 0.21396829 -0.24519633 0.028803706 -0.054090854 -0.110080354
0.09268642 0.21994282 -0.06071997 -0.17912124 -0.13583682 -0.113143325 0.13043965 -0.2024877
0.18257235 0.07981424 0.07532008 -0.17616437 -0.11230218 -0.14883329 0.10649682 0.10548437
0.18600965 -0.0029749533 0.057586614 0.062264264 -0.054846823 0.039448623 -0.17586206 -0.22768901
0.04490602 -0.016141117 0.024757862 -0.008615897 -0.18794678 -0.10040354 -0.12114037 -0.035085354
-0.088095896 0.19744705 0.14986204 -0.23460771 0.09401845 -0.21550323 0.08739698 -0.24280857
0.035067353 -0.15115665 0.24661541 -0.21980856 -0.12346221 0.23569776 -0.048575994 0.24422027
-0.054732922 0.1378286 -0.24341036 0.043082118 0.065488696 -0.06251847 -0.124089606 -0.23221205
0.11020423 -0.085594304 0.1723756 0.17958133 0.15087937 0.073818445 -0.1911733 0.175004
-0.18433382 -0.01125601 -0.0894111 0.15148401 0.154119 -0.18347834 0.16086349 0.093133695
0.08089625 -0.120275386 -0.15546606 -0.23000287 -0.17848085 -0.20504497 0.02491963 0.17866252
0.2208526 -0.13806438 -0.12765025 0.22004937 0.023060888 -0.070582084 0.12523174 -0.19295932
-0.17306496 -0.14189361 -0.09462046 0.06846351 -0.12759946 0.24619077 -0.20440604 -0.14212298
0.1751991 0.23888494 -0.23299576 -0.19454144 -0.12575255 -0.09635068 -0.21328545 0.1030562
0.07141178 0.07568097 0.053414166 0.22747447 -0.07263391 -0.17538531 0.047666077 0.15018272
-0.2201817 -0.07113277 -0.0023417508 0.055940393 -0.01831907 -0.07626795 0.003506571 0.052552406
-0.03501141 -0.09791266 0.11071993 0.04871613 0.19967078 0.07268071 -0.13625433 -0.087154746

lstm_cell.weight_ih f4 [256, 192]
00000000: 1388 003e 30ff 3c3e 0175 92bd 0a3e 993c
00000010: 8a37 293d 0531 39be c144 3c3d b763 8b3d
00000020: 9f15 d4bd 8f0f bdbc a5f1 b33d 79f6 103e
00000030: ffc4 0b3e 8181 433e 80dd b03b 2173 4fbe
00000040: b64f 1c3d 1107 2c3e 2f65 43bc eaca 093e
00000050: c1b2 e03d 8127 273c 158a 2d3d 7fc2 713d
00000060: 20ad 12bd ff62 fc3d 41be ee3d 3bae 343e
00000070: b18c 3fbd 7fbd b7be ef97 443e b183 47bd
00000080: 3071 3cbc 2179 3a3e c13d 4abe 9ad9 213e
00000090: 8194 863c b12d febd bfc3 263d 5730 0fbd
000000a0: cf93 0fbe 0034 ce3d bff1 c73d 4b38 0b3e
000000b0: 11b2 533e a19c 35bc 9bc6 ad3d 50dc 3dbd
000000c0: 3f54 3aba 301e 51bc a001 28bd 8feb d83d
000000d0: 31be a93d 5671 1e3e 919a 4d3e 8a4d 14ba
000000e0: 4066 f03d 71a8 283e 61bc b0ba c115 5b3e
000000f0: 4fac 1b3e a05b ed3d cf82 5fbd a1a7 973d
00000100: df43 84bf fa83 5840 24d4 2940 f3f4 3440
00000110: 64d7 1140 25cb b640 82c4 e540 4f1d b9bd
00000120: dd02 b640 ac4e f340 8690 f040 83bd d340
00000130: e373 cb40 9fe7 d740 4980 0c41 eae6 f440
00000140: 6e0a fd40 d671 d940 6326 ef40 cf73 ed40
00000150: 3d51 ed40 a635 b03d f8f7 0541 8b63 aa40
00000160: 181f e640 1674 e540 f231 e040 7552 0141
00000170: a436 ea40 8356 6d3b a4a7 653d aff0 753d
00000180: b14e 51bd 7126 d7bd a131 a73c 922b 8d3c
00000190: 4ff3 ec3c 011f 2a3d 92c7 0fbe 2049 963b
000001a0: 01d8 903d 60f6 fdbb 9fb2 efbd c1c3 e5bd
000001b0: 008f 6c3b 7066 02bd f014 6d3c c05b 55bd
000001c0: a08e 97bd bf85 053d e06b fbbc 00c3 933b
000001d0: e066 53bc 3f0c a6bd 0526 b1bd b183 f6bd
000001e0: effe c63d c05a 3c3c 85b9 b7bd ff54 e83d
000001f0: bf37 aebd 0f7a e6bd 411d 433d 09af 90bd
00000200: 41c6 febc d448 fe3f ced1 a33f aa50 f2be
00000210: aff0 08bf 7c52 1440 ff74 d43d ec8b 5640
00000220: 4d8b d440 a7e8 ba40 f543 bdbd b647 ec40
00000230: 7cad f640 03bc f840 cf8f cc3d ad1d 0641
00000240: 3f15 1141 c18e 0041 e83c f240 e77f e540
00000250: fa2c dc40 6cc0 ce40 2f5c 593c 576a 0441
00000260: e86e ce40 7140 6040 ec83 4e3d 6690 e040
00000270: f64a 8440 7eb3 0941 fdda ec3d e457 683d
00000280: ff11 4f3d 4299 9c3d e048 07be 5f0c 84bd
00000290: c6a4 c6bd 2f32 ebbd a625 9fbd 44b9 f1bd
000002a0: 8fca 493d df34 ea3d ff2f 913d bfee 24bd
000002b0: 113c 02bd 6175 593d bfe1 b63d d016 c4bd
000002c0: 4af8 a6bd 8fa3 3dbd 97f4 8ebd a5ba 2c3d
000002d0: e17b f8bd 5058 b93d 40fe 3ebb 7162 e33d
000002e0: f13b 243d 214e 83bd 008a 10bd 6524 acbd
000002f0: 5a43 1e3d b1a7 a8bd 814e f23d 4f94 b63d
00000300: 12d1 2f3d 9f85 203d 2add 0e3f 817e cf3d
00000310: 6592 b23d 7a88 12be bf7f 55bc 6f5b f93c
00000320: d07d 61bc 217d e1bc 4167 fb3d 3142 db3b
00000330: 27cd 0dbd 5167 c73e 760d a8bd d1b5 173f
00000340: b95e 8b3c e1fe 563d 61c6 00bd 0fd1 f53d
00000350: 0fbd 3d3e 0088 a33d 81df 4cbd 150f 333e
00000360: e0be 7e3d 6f3d 603d 30d5 0e3c 81c4 973e
00000370: 19f8 0bbc 0189 333f 1ab0 143f 8a14 293d
00000380: 3f52 883d ff1c 56bd e193 563f 5f7d 32bd
00000390: 9fda 47bd dfa1 dd3d e014 d9bc b873 823c
000003a0: 10d4 2d3f e018 c73c af67 443f fa22 003e
000003b0: cb19 b43e 8912 063e 5633 153d a6e8 9f3d
000003c0: 3f43 adbd caab 143d cf9d b63e bf46 2bbe
000003d0: efef bfbd ba9d 96bd cc32 f23d 31b1 d63c
000003e0: 86a7 9fbd 3964 0b3e c1e4 213e df78 613d
000003f0: bfd5 513d bf0e 62bd 1fe1 e5bc 7154 033d
0.12551908 0.18456721 -0.07151223 0.01870634 0.04131273 -0.18085106 0.045964006 0.068061285
-0.103556864 -0.023078708 0.087863244 0.14156522 0.13649367 0.1909237 0.0053974986 -0.20258762
0.038161956 0.1679957 -0.0119259795 0.13456312 0.109715946 0.01020229 0.042368013 0.059023377
-0.035809636 0.123235695 0.11657382 0.17644589 -0.046765033 -0.35886762 0.19198583 -0.048709575
-0.011501595 0.1821027 -0.1975012 0.15805665 0.016428234 -0.12411059 0.04071402 -0.03495821
-0.14021228 0.10068512 0.09762906 0.13595693 0.20673396 -0.0110847065 0.084851466 -0.046352684
-0.00071078906 -0.012763545 -0.041017175 0.10591804 0.08288229 0.15472922 0.20078494 -0.0005657306
0.11738253 0.16470505 -0.0013483876 0.21395017 0.1520245 0.11589742 -0.05456811 0.074050196
-1.0333213 3.3830552 2.653573 2.8274505 2.2787714 5.712298 7.180238 -0.09038793
5.6878495 7.6033535 7.517642 6.6168838 6.3578963 6.747024 8.78132 7.6531878
7.907523 6.795146 7.473436 7.420387 7.416167 0.086039826 8.373039 5.3246512
7.1912956 7.1704206 7.006097 8.082631 7.31917 0.0036214895 0.056068078 0.060043987
-0.051100437 -0.10505379 0.020409407 0.01723269 0.028924612 0.041533474 -0.14040974 0.004586354
0.070724495 -0.0077503175 -0.11703991 -0.11218978 0.0036095977 -0.031835973 0.014470324 -0.052089453
-0.074002504 0.032598253 -0.030691087 0.00450933 -0.012902945 -0.081078045 -0.0864983 -0.12036837
0.097165935 0.011496246 -0.08970932 0.11344337 -0.085067265 -0.112537496 0.04763532 -0.07064635
-0.031100394 1.9865975 1.2798402 -0.47327167 -0.53492254 2.3175344 0.10373878 3.3522902
6.6420045 5.8409 -0.092414774 7.383754 7.7086773 7.7729506 0.09988367 8.382245
9.067687 8.034852 7.569935 7.171863 6.8804903 6.460989 0.013266607 8.275962
6.4510384 3.5039332 0.05041878 7.017627 4.1341505 8.606321 0.11565206 0.056724444
0.05055427 0.07646419 -0.13211393 -0.06447672 -0.09699397 -0.11484181 -0.07770853 -0.11802915
0.04926544 0.114358656 0.07089233 -0.04026675 -0.031795565 0.053090457 0.089297764 -0.09574664
-0.08152826 -0.04629856 -0.069802456 0.042170186 -0.12133003 0.090500474 -0.0029143244 0.111027606
0.040096227 -0.06411386 -0.035287857 -0.08405379 0.03863845 -0.082351096 0.1183138 0.08915006
0.042923994 0.03918993 0.5580622 0.101315506 0.08719329 -0.14309874 -0.013030945 0.030439107
-0.013762906 -0.027525486 0.122755535 0.0066912402 -0.034619477 0.38946012 -0.082056925 0.59261805
0.01701294 0.052489165 -0.03143919 0.120027654 0.18529151 0.07984924 -0.050017837 0.17486222
0.06219375 0.054746088 0.00871782 0.29642108 -0.008543038 0.70130926 0.5808121 0.041279353
0.06656312 -0.052273747 0.83819395 -0.043576594 -0.048792478 0.1082189 -0.026499212 0.01592432
0.67901707 0.024303854 0.7672071 0.12513342 0.35175928 0.13093008 0.03642591 0.07808046
-0.08460092 0.036296643 0.35667273 -0.16726206 -0.093719356 -0.07354303 0.11826095 0.026207538
-0.077956244 0.1361245 0.15809919 0.055046912 0.051229235 -0.055189844 -0.028061448 0.03206295

lstm_cell.weight_hh f4 [256, 64]
00000000: 8422 e83e 0705 c33e 38c1 883f 01f2 85c0
00000010: b6c7 aa3f 1d7e 34c0 9c07 19c0 bdeb 1b40
00000020: 94cd 5e40 09cc 463f ec64 e33e 495e a3bf
00000030: d69f 36bd 3bfc b8bf 29cb ecbf 5271 5fbe
00000040: 9ebc 4ebf c613 1b3f eb7b 48c0 3097 c5bf
00000050: c0c4 49bd 0a6d 2640 d0b4 2140 1bb0 45bf
00000060: 0b6f 053f 6ec7 2140 a6c5 1dc0 74e5 673f
00000070: ac85 33be 5d11 3ac0 2627 f5bf 2940 ca3d
00000080: 34a3 963f 7e8e f9bf bdf8 cebe ed34 6f3f
00000090: 1907 1c40 f568 b1bf 40bd 613e 691e 10c0
000000a0: bce5 9d3f da5b b9bd 5978 32c0 0eba 94bf
000000b0: 48d0 9ebf b111 ecbf 03c8 103f e51e ca3f
000000c0: 1bda e73e 3a42 0540 b107 00c0 bc66 343f
000000d0: 9646 bc3f 457a c73f bdc3 17c0 d2fa 4240
000000e0: cdec a53f 890b 17c0 18d4 6c3f c0b9 973e
000000f0: f99f 3540 6867 a23f ef32 f93e e4b7 3640
00000100: 1e8d df3e 77d1 f3be a9ce f93c a1a7 a33e
00000110: 51b9 0ec0 8493 2fc0 4e9d 0e3f 18de b43e
00000120: 22ae 05c0 936a 8dbf d606 22bf 0cc3 20bf
00000130: 4391 81bf 2fb4 0bbf 3d0d 56be 0d85 2f40
00000140: aa4b 13bf 35c3 80bf 0072 51bf f738 17c0
00000150: a2c2 35bf 08cc ea3f b2b9 b23e ef72 693f
00000160: 735d 943f 62db 8bbe ffba 14c0 b2f1 77c0
00000170: 9c97 47bf 33ad a9be c63f 0cc0 4869 73bf
00000180: bd62 2d3e 58c8 c53f 1c37 69c0 1a40 0640
00000190: 7bd3 d03f dd5e d8be cb5c 8fbd 5bce 3c40
000001a0: 4ac7 8bbf 0745 55bf f2fb 9240 30b3 263f
000001b0: 085b c7bf 9588 9ebe c06b b9bf 601e 53bf
000001c0: 426b 8040 9a83 01c0 64c4 9e3f 1908 0ac0
000001d0: ca83 5b3e c0d3 34be 3bcc 4dc0 69e6 00be
000001e0: d527 dabd 5bac ecbf fc2d e03f d330 1b3f
000001f0: ea80 d03f 2843 93bf 2b23 dc3d b5c4 f8bf
00000200: 2023 2a40 7423 7d3f 2a71 c03e 0ee7 e43e
00000210: 6842 8d40 d393 a43e 4410 9b3e a010 f8bf
00000220: 3230 0640 cbf8 1ac0 b67d d83f e334 0d3d
00000230: 2a46 e9bd d5f1 a9bf 92cb f4bf ca9a 25bf
00000240: 3383 c83f e595 2d3f 6e96 00bf be89 f9bf
00000250: 77d6 7340 14d8 f83e 254a b93f ea01 c63f
00000260: 1929 1f3f 3b0c b83f 31cd d23f 2782 b4be
00000270: c440 00c0 5584 2240 881a 633f a24c 8c3f
00000280: 5ae0 c33f 8b82 c0bf dfd2 9fbd a544 74bf
00000290: c631 e63f 44e4 f53f 06ea 9f3f ffcf 2040
000002a0: 9b56 0ec0 a441 febe 1f3a 1ac0 f561 f4be
000002b0: 7c4a ea3f fa53 4bc0 eac2 523f 9480 8c3f
000002c0: 8b24 453e 9006 8bc0 674a 613f 22f0 6b3f
000002d0: 197e 79c0 e892 903f c280 503f dcc3 903f
000002e0: f035 dd3f 93b0 963e b1b5 50bf 7487 7b3f
000002f0: 437e 3c40 2c52 9dbf dea6 e9be dc3e cabf
00000300: 4d0e d1bf b811 7d3f 75b1 91be 3322 2e3e
00000310: 7106 34bf 8d23 343e 4f26 78bf 3efc f1bf
00000320: 999c 4bc0 e01d da3f 0ae3 cabf cded 97bf
00000330: 2c62 7d3f 7114 42bf 49ed 4f3e fa8a 8abe
00000340: fbe9 dd3d 3fb6 fd3f 6e97 f33f e9e9 82bd
00000350: 79fe 86bf 16a1 11bf 601e ee3d fc7d b33e
00000360: effe 3540 47c0 883a 7d1b 1a3f 5b92 2740
00000370: d2fc 1d40 7d9d ba3f 7969 bdbd c8e4 96c0
00000380: 979b e6bf 7726 5fbf fe79 a03f c267 e63e
00000390: 7962 b03f c583 9ebe 3cc3 2540 eb47 3a3f
000003a0: 5579 38be 5164 3540 d9b9 3cc0 b7ff 37c0
000003b0: fa0e 0340 5949 bdbe 2ac8 2f40 f119 4b3f
000003c0: 3c00 2940 99a0 183d 122f 16bf df42 e03e
000003d0: 7fe0 0b3d 5786 49bf ce2e 953e ddcd 19c0
000003e0: 9c16 aabe 113d 0340 dde9 4fc0 b6e4 f2be
000003f0: e808 9fbf eadf 8dbf 9b6d 053f b2c8 23c0
0.45338833 0.38089773 1.0683966 -4.1857915 1.3342197 -2.8201973 -2.3910894 2.4362633
3.4812975 0.7765508 0.44412935 -1.2763149 -0.044586025 -1.4451975 -1.84995 -0.21820572
-0.80756557 0.60577047 -3.1325634 -1.5436764 -0.0492599 2.6004052 2.526661 -0.7722184
0.52122563 2.5277972 -2.4651885 0.9058449 -0.1753146 -2.9073098 -1.9152572 0.09875519
1.1768556 -1.949661 -0.40424147 0.93440133 2.4379332 -1.3860155 0.2204485 -2.251856
1.2335734 -0.090507224 -2.7885954 -1.1619279 -1.2407312 -1.8442899 0.56555194 1.5790678
0.4528359 2.0821671 -2.0004694 0.7046926 1.4709041 1.5584189 -2.371322 3.0465589
1.2962891 -2.360079 0.9251113 0.29633904 2.837889 1.2687807 0.48671672 2.8549738
0.4366235 -0.47620746 0.030494051 0.31963828 -2.2300608 -2.7433786 0.5570878 0.35325694
-2.0887532 -1.1048149 -0.6329168 -0.6279762 -1.0122455 -0.54571813 -0.20903488 2.7424958
-0.5753733 -1.0059572 -0.81814575 -2.3628519 -0.7100011 1.8343515 0.349073 0.91191
1.1591018 -0.27315813 -2.3239133 -3.874127 -0.7796571 -0.33139953 -2.1913924 -0.9508252
0.16932197 1.5451765 -3.6439886 2.0976624 1.6314539 -0.42259875 -0.07000121 2.950095
-1.0920193 -0.8330845 4.593255 0.6511717 -1.5574656 -0.3096358 -1.4486008 -0.82468224
4.013093 -2.0236573 1.2403684 -2.1567442 0.21436992 -0.17658901 -3.2155902 -0.12587894
-0.106521286 -1.8490099 1.7514033 0.60621375 1.6289341 -1.150487 0.10748895 -1.943503
2.6583939 0.9888222 0.37586337 0.4470753 4.414356 0.3214403 0.30285847 -1.9380074
2.0966916 -2.421435 1.6913364 0.034474265 -0.11390336 -1.3276926 -1.9124625 -0.64689314
1.5665039 0.67806846 -0.5022954 -1.949516 3.809965 0.48602355 1.4475752 1.5469334
0.62172085 1.4378732 1.646887 -0.35255548 -2.003953 2.539327 0.8871236 1.0960886
1.5302842 -1.5039839 -0.07803892 -0.95417243 1.798394 1.9210286 1.2493293 2.512695
-2.224036 -0.49659455 -2.4097974 -0.47730985 1.8303981 -3.1770005 0.82328665 1.0976739
0.19252221 -4.344551 0.88004154 0.9216329 -3.8983214 1.1294832 0.8144647 1.1309772
1.7282085 0.2943159 -0.8152724 0.9825356 2.9452064 -1.2290702 -0.45635122 -1.5800433
-1.6332489 0.9885516 -0.284557 0.17005233 -0.7032233 0.17591687 -0.96933454 -1.8905103
-3.181433 1.7040367 -1.5850537 -1.1869446 0.98977923 -0.7581244 0.20305361 -0.27059156
0.10835644 1.9821242 1.9030588 -0.06392271 -1.0546409 -0.5688642 0.11626887 0.35057056
2.843685 0.001043328 0.60198194 2.6183078 2.468556 1.4579312 -0.09248633 -4.7154274
-1.8016232 -0.8716807 1.2537229 0.45001036 1.3780051 -0.30959907 2.5900412 0.7276599
-0.18015034 2.8342478 -2.9488432 -2.8749826 2.047789 -0.36970022 2.746592 0.7933646
2.6406393 0.037262533 -0.58665574 0.4380102 0.034149643 -0.7872061 0.29137272 -2.40319
-0.33220375 2.0506022 -3.248649 -0.47440118 -1.2424593 -1.1083958 0.5212037 -2.5591245

lstm_cell.bias_ih f4 [256]
00000000: bead a4bf c476 d63f c667 153f 2b0a 4d40
00000010: 646d 3e40 dd44 5140 69c8 833f e5eb 2740
00000020: 18f4 323f 3735 2e3f c4cb 4b40 c68f 0740
00000030: e137 74c0 c656 253d 59b8 40c0 21fe 703d
00000040: 5f2c 3a40 b3ef 14c0 1fb4 31c0 8e31 563f
00000050: f926 babf 225a 81c0 25e0 cfbf 34f4 ae3e
00000060: 4214 e23f f718 90bf f574 513f 218d 8f3f
00000070: e21d 34bf 1a6d 1c40 785e 1b40 b431 7e3e
00000080: 6782 d13f 9be9 ea3f c6eb 0abf 466d a0bf
00000090: c7d9 23bf 1c86 b03f 3617 78be e9e5 d23f
000000a0: 44dc f53e 663c 4f3f 3b31 343f 049d babf
000000b0: 14e8 99c0 ddc5 d9bf 8ffe 423f f2f6 1abd
000000c0: e583 8cc0 e7eb 08c0 3fdc 39c0 d1d8 1d3f
000000d0: d130 1dc0 bb43 eabf a13b 27be 0f70 30be
000000e0: c127 0dc0 0bd4 3fc0 2091 a03f 815e 303f
000000f0: 2670 5e3f f6c5 4d40 d64f 1140 e9cc 36c0
00000100: 5ef8 96bf 3b81 21bf 5206 aabe 7bfd 5e3f
00000110: 8632 c7bf f9a2 893e 4684 733f 62d9 15c0
00000120: 1362 553f 1910 8abf 6bd1 5ac0 1721 25c0
00000130: 1a6a 3d3f 3da9 aa3c 284f f1bf a8e1 853e
00000140: 6156 6ebf dd67 ed3e 168b 1ebf 8296 0540
00000150: e1f6 30c0 6647 463f 32f9 2bc0 d064 a4bf
00000160: 8b6c 513f 6a0f 21bf 9d2d 6d3e db6a e2be
00000170: 372b adbf 8877 80bf 7f5c 8e3e e67b 56bf
00000180: 2932 57bd cb69 3ac0 0eaa 73be 3958 56c0
00000190: 685b 2440 7d50 68bf 037e dfbe 6eb0 d6bf
000001a0: d74d c2bf 5f00 e23f 05ee 333f 46de 0e3f
000001b0: a66f b8be e058 07c0 d36c 86bf fb61 63bf
000001c0: bc23 a1bf 768a 803f ff06 07bf 1b66 0fc0
000001d0: 6ea2 23c0 f315 853e 50ea df3e 08d8 d4bf
000001e0: 0daf 1740 4293 a63f a94c 88c0 f0f4 0940
000001f0: 6bd2 65be 2648 03c0 78d7 333f 62e1 e8be
00000200: 8a49 3f40 938d 92be 92cf 65c0 dae6 12c0
00000210: 8358 c73f c0d3 04bf d761 103f 9a8b bfbf
00000220: 452d 0e40 7e2e 06c0 0912 7540 8852 2a3f
00000230: 1d47 313e ab44 3940 1aa8 dd3f f34d 16bf
00000240: f0fc 1740 0d26 9140 767c 0bc0 b27f 783e
00000250: e050 6abf dead 693e 0c53 133f 7dbd 413f
00000260: 1032 1b3f 95e1 07bf f1df 8d3d 34a6 e4bf
00000270: 87a9 503f 2cca 3d3f 7b57 1640 c17f 1a40
00000280: f9b6 f73f c0e2 c2bf c3c2 c1be c2d0 f73f
00000290: 0288 ef3f 441c 96be a309 b53f d89e ab3e
000002a0: a650 c1be 682a dd3f 29f8 06bf 6351 f13f
000002b0: 3d37 433f 6149 5c3a a025 5540 c9b2 27c0
000002c0: 53b3 01c0 55b2 a53e 01e8 c83e 7600 31bf
000002d0: 0824 8fbf caa8 33c0 bc5a b5bf c03c edbf
000002e0: e247 aebe 7999 a53f 6646 9ebf 342b 22bd
000002f0: 375d e8bf 9306 a7bf 8d0f 0140 7e3f 243f
00000300: 1e07 8dbe 2b1e 86c0 9326 213f aa3a a540
00000310: 0dab 49bf a296 0fc0 9cde cd3f 61bd fa3f
00000320: c848 9fbf 5a20 5f3f 9b4c 02c0 7fdc 5540
00000330: a342 6fbf 60a6 d73f 7d6d 30c0 36a9 f2be
00000340: d892 1bc0 dde3 23bf c8b3 20c0 1287 d93d
00000350: ee74 943f 50cf 7bbf 0758 aa3f 2501 3f3f
00000360: a2ef 34bf de00 293e d2e2 ea3f d505 50c0
00000370: bb52 d73e 2706 bdbf db3c b33f 1b82 e7be
00000380: 7f51 4ebf d25c 0940 ee62 a2be 70c2 9bbf
00000390: 12ef ecbe 8567 3640 10e2 09c0 c763 4440
000003a0: 75c6 163f 17b1 5240 fca6 ddbf ad84 dd3f
000003b0: 69fc 17c0 0463 86c0 3ad8 e23f 4c74 4fbf
000003c0: d3c5 4cc0 3f8a ddbf 073d f8bf a59a 0ac0
000003d0: 20fe 57bf 2925 d4bf 73fd 0840 29d7 19c0
000003e0: 6f37 1a40 617b 8abf 3c68 b13e ea62 12c0
000003f0: 391c 38bf b224 813f e6d5 1ac0 8c56 b83e
-1.2865522 1.6754994 0.5836147 3.2037456 2.9754267 3.269828 1.0295535 2.6237729
0.6990371 0.6804995 3.1843119 2.1181502 -3.8159106 0.040365957 -3.0112517 0.058836106
2.9089582 -2.32713 -2.7766187 0.83669364 -1.4543144 -4.0422525 -1.6240278 0.34170687
1.7662432 -1.1257619 0.8181909 1.1214944 -0.703581 2.444159 2.427641 0.24823648
1.6367921 1.8352541 -0.5426601 -1.2533348 -0.64004177 1.3790927 -0.24227604 1.6476413
0.48019612 0.80951536 0.7038762 -1.4579167 -4.80958 -1.7013508 0.76169676 -0.03783316
-4.3911004 -2.1393983 -2.9040678 0.6165896 -2.4561045 -1.830192 -0.1633134 -0.17230247
-2.2055514 -2.997317 1.2544289 0.688942 0.86889875 3.2152076 2.2704978 -2.8562567
-1.1794546 -0.63087815 -0.33207947 0.8710553 -1.5562294 0.2688215 0.9512371 -2.341393
0.83352774 -1.0786163 -3.4190319 -2.5801446 0.73990023 0.020832652 -1.8852282 0.26148725
-0.93100554 0.46368304 -0.6193098 2.0873113 -2.7650683 0.77452695 -2.6870847 -1.2843266
0.8180625 -0.62914145 0.23161931 -0.4422215 -1.3528813 -1.0036478 0.27804944 -0.83782804
-0.05253807 -2.912707 -0.2379534 -3.3491347 2.568079 -0.90747815 -0.43650827 -1.6772592
-1.5180005 1.7656363 0.70285064 0.5580791 -0.3602268 -2.1147995 -1.050196 -0.8882138
-1.258903 1.0042255 -0.5274505 -2.240607 -2.556789 0.25993308 0.43733454 -1.6628428
2.3700593 1.301369 -4.259358 2.1555748 -0.2244355 -2.0512786 0.70250654 -0.45484453
2.9888635 -0.28623638 -3.590794 -2.29534 1.5573887 -0.51885605 0.5639929 -1.4964478
2.221513 -2.0965877 3.8292258 0.6653218 0.17312284 2.8948162 1.7316926 -0.5871269
2.374813 4.535895 -2.1794715 0.24267462 -0.91529655 0.22820231 0.57548594 0.7567976
0.60623264 -0.53078586 0.06927479 -1.7863221 0.8150868 0.74136615 2.3490894 2.4140475
1.9352714 -1.5225449 -0.37843904 1.9360583 1.8713381 -0.2931844 1.4143566 0.33519626
-0.37756842 1.7278566 -0.5272241 1.8852962 0.7625616 0.00084032683 3.3304214 -2.6202872
-2.02657 0.3236262 0.39239505 -0.6914133 -1.1182871 -2.807177 -1.4168315 -1.8534164
-0.34039217 1.2937461 -1.2365234 -0.039591983 -1.8153447 -1.3048881 2.0165741 0.6415938
-0.27544492 -4.1911826 0.62949485 5.163411 -0.7877663 -2.243569 1.608356 1.9589044
-1.2444086 0.8715874 -2.0359256 3.341583 -0.93461055 1.6847649 -2.7566826 -0.47394723
-2.4308376 -0.64019567 -2.510973 0.10621466 1.1598184 -0.9836321 1.3308114 0.7461112
-0.7067815 0.16504237 1.835047 -3.250356 0.42055306 -1.4767503 1.4002947 -0.4521645
-0.80593103 2.1462903 -0.31716102 -1.2168713 -0.46276146 2.8500683 -2.1544228 3.06859
0.5889657 3.2920587 -1.7316585 1.7306114 -2.374781 -4.199587 1.7722237 -0.8103683
-3.1995742 -1.7307814 -1.9393624 -2.1656888 -0.8437214 -1.657384 2.1404693 -2.4037573
2.4096334 -1.0818902 0.34649837 -2.2872872 -0.71918064 1.0089324 -2.4193053 0.3600353

lstm_cell.bias_hh f4 [256]
00000000: 72d2 a8bf bc5d e43f 72ee b93e b698 4840
00000010: 040b 4340 ddf6 5140 b495 6d3f 0431 2a40
00000020: 9894 383f 5875 283f 540a 4c40 76aa 0f40
00000030: 418e 7ec0 a482 0c3e 5b07 37c0 f5cb c93d
00000040: 0ff0 3940 30d5 1dc0 3fc1 31c0 1e5c 363f
00000050: 9959 bbbf d375 79c0 5592 dbbf a4bb b93e
00000060: 224b dc3f d82d 9dbf 4d37 863f 9165 823f
00000070: a643 1dbf 4a4a 1840 f841 2540 4f1c 803e
00000080: e7fe d33f bbff e73f 1e6c 21bf 9694 96bf
00000090: f790 3abf 9ff3 c73f 97e0 55be e9d0 e03f
000000a0: d26b 893e 1691 633f ba4c 5d3f 34a9 abbf
000000b0: e4ab 9bc0 bd01 d5bf e3b5 463f 8a1e a73a
000000c0: e599 8cc0 0781 05c0 af96 32c0 fe58 273f
000000d0: 718c 29c0 5bbd eebf ab7c 8ebc fe6a 83be
000000e0: 31b9 09c0 a1a5 37c0 a270 9a3f 626d 113f
000000f0: 86d5 4f3f a27b 4b40 c88e 0840 290d 32c0
00000100: eec1 88bf c0c0 f8be 3212 99be 9ba2 713f
00000110: 0687 bebf 99db 893e a967 843f 7213 19c0
00000120: f0e0 413f 4848 9cbf fb3a 5fc0 6790 26c0
00000130: c83e 293f 8f73 7b3e 2843 d9bf f529 9f3e
00000140: cd77 91bf 2e9e c53e b6f6 08bf 02ef 0240
00000150: 915e 30c0 9535 263f d381 2dc0 70ef a4bf
00000160: ab9c 4f3f 1d81 0bbf 9ec5 193e 3b4f f2be
00000170: 764d a8bf e081 77bf b6eb 7d3e 9ea3 62bf
00000180: e57a b1bd cb35 3bc0 1660 92be 2914 4ec0
00000190: 88d5 2940 152a 82bf a470 a0be 465e e5bf
000001a0: 897e abbf 6fa9 ee3f 96ce 5e3f f531 1c3f
000001b0: b6e8 95be 40d7 02c0 7b9d 8bbf 1b4c 64bf
000001c0: 3c7b 82bf 7872 7c3f 21bf aebe aaa6 12c0
000001d0: 2111 1dc0 87aa 6f3e 8a97 c13e 18db dcbf
000001e0: cdec 1240 3221 b03f b9b5 81c0 280c 0d40
000001f0: 2b87 62be 0647 09c0 ccd3 103f e0e3 c9be
00000200: ca29 3b40 67c9 04bf 1263 65c0 3a31 16c0
00000210: a326 b83f c070 01bf b721 e83e cad6 bebf
00000220: 2dd0 0740 fee4 03c0 a94b 7e40 d9b7 453f
00000230: 5c91 643e abf3 3940 dac0 c33f af2b 2abf
00000240: 20c6 2340 9de8 8d40 86b7 0fc0 501e 3f3e
00000250: 2094 5dbf 6f28 483e ac20 103f 0438 253f
00000260: 7c76 523f a5ee 06bf 082d 703d f462 e9bf
00000270: 96ad 483f 2c9f 4a3f 1bb7 1b40 4aa0 0e40
00000280: 3cb0 eb3f 8067 acbf d08c aebe 424a fe3f
00000290: 2260 e33f 801a 7abe dc3b a53f 4c67 843e
000002a0: 746c b8be 980e d63f 9949 0ebf 8359 f33f
000002b0: 84b0 4d3f 31ed 603d 00d0 5340 2985 23c0
000002c0: 1383 08c0 533f 673e a16a c53e 6ee9 24bf
000002d0: d9d7 a8bf fa2c 32c0 a521 a2bf 708b f2bf
000002e0: 33e3 d1be 1933 b93f 463a 9fbf 6e55 98bd
000002f0: 47fb fabf 328f bebf e77f e53f aeb1 1a3f
00000300: 1157 65be c3d9 84c0 33fb 1f3f 7556 aa40
00000310: 3a79 50bf 72da 0fc0 accf b73f 8f05 ef3f
00000320: 5cd6 90bf da38 513f fb5a 01c0 3ff2 4d40
00000330: 33ba 83bf 20be d63f 2d06 30c0 b61f 2abf
00000340: 9949 0fc0 dc14 39bf 984a 1ac0 7be3 ea3d
00000350: ed5c ad3f f774 84bf 6819 b13f 85a0 423f
00000360: 8169 45bf ef31 733e b262 ea3f e586 53c0
00000370: b940 f53e 87e1 c0bf fb5b ba3f 1a62 06bf
00000380: cea6 35bf 7a62 0c40 8501 7abe 6098 87bf
00000390: 72ae f4be 050c 3740 4066 0ac0 e7bc 4740
000003a0: f61c 253f c7f7 5440 5b50 ccbf 4d8f de3f
000003b0: 8d7a 21c0 649e 87c0 0a1f e03f fc37 2ebf
000003c0: 67a4 49c0 5f93 e2bf 270c e9bf b5e5 06c0
000003d0: 7256 6bbf c378 c3bf 4b5d 0940 7c2e 0ec0
000003e0: 5c36 1040 1d9a 7dbf 8483 a83e 9ffe 0ec0
000003f0: b784 43bf 06fd 7e3f 4473 27c0 3c7f c93e
-1.3189223 1.7841105 0.36314732 3.1343207 3.0475473 3.2806923 0.92806554 2.6592417
0.72101736 0.6580405 3.1881304 2.244779 -3.9774325 0.1372171 -2.859824 0.09853355
2.905277 -2.466137 -2.7774198 0.7123431 -1.4636718 -3.8978164 -1.7154032 0.3627597
1.7210429 -1.2279615 1.0485626 1.0187246 -0.6143135 2.3795342 2.5821514 0.25021598
1.6562165 1.8124918 -0.630556 -1.1764095 -0.7287745 1.5621222 -0.20886455 1.7563754
0.26840073 0.8889326 0.864452 -1.3411012 -4.8647327 -1.6641155 0.7762129 0.001275019
-4.393786 -2.0860002 -2.790447 0.65370166 -2.6491969 -1.8651537 -0.01739343 -0.25667566
-2.1519282 -2.8694842 1.2065623 0.5680753 0.81185186 3.179421 2.1337147 -2.7820532
-1.0684183 -0.48584557 -0.29896694 0.9438874 -1.4884956 0.26925352 1.0344135 -2.3918118
0.7573385 -1.2209558 -3.487975 -2.6025636 0.6611142 0.24555801 -1.697362 0.31086698
-1.1364685 0.38597244 -0.5350145 2.0458379 -2.7557719 0.6492551 -2.7110488 -1.288557
0.8109843 -0.54493886 0.15016791 -0.47326073 -1.3148639 -0.9668255 0.24796948 -0.8853091
-0.086660184 -2.9251583 -0.28588933 -3.2199805 2.653658 -1.0169092 -0.31335938 -1.7919395
-1.339799 1.8645457 0.87033975 0.6101373 -0.29279107 -2.0443878 -1.0907434 -0.8917863
-1.0193858 0.98612165 -0.34130195 -2.2914224 -2.4541705 0.23404895 0.37810928 -1.7254362
2.2957032 1.376013 -4.053433 2.203867 -0.22121875 -2.14496 0.56573176 -0.39431667
2.9244256 -0.51869816 -3.5841718 -2.3467546 1.4386791 -0.5056267 0.45338222 -1.4909298
2.122081 -2.0608516 3.973368 0.77233654 0.22321075 2.9054973 1.5293229 -0.66472906
2.5589676 4.434645 -2.2455764 0.18663907 -0.86554146 0.19546674 0.56299853 0.645386
0.8221204 -0.5270789 0.058636695 -1.8233323 0.7838987 0.79149127 2.4330509 2.2285333
1.8413157 -1.3469086 -0.34091806 1.9866412 1.7763712 -0.24424171 1.2908893 0.2586006
-0.36020243 1.6723204 -0.5558105 1.9011692 0.80347466 0.054913703 3.3095703 -2.5550025
-2.1330001 0.2258275 0.38557914 -0.64418685 -1.3190871 -2.7839952 -1.2666517 -1.8948803
-0.40993652 1.4468719 -1.2439659 -0.074381694 -1.9607934 -1.488745 1.7929658 0.6042737
-0.22396494 -4.1515822 0.62492675 5.323054 -0.8143498 -2.2477078 1.4360251 1.8673571
-1.1315417 0.81727374 -2.021178 3.2179105 -1.0291198 1.6776772 -2.750377 -0.6645464
-2.238867 -0.72297454 -2.4108028 0.1146917 1.3543984 -1.0348195 1.3835878 0.76026183
-0.7711411 0.23749517 1.831137 -3.3051083 0.47900942 -1.5068825 1.455932 -0.5249344
-0.7095765 2.1935105 -0.24414642 -1.0593376 -0.4778934 2.8601086 -2.1624908 3.1209047
0.64497316 3.3276231 -1.5962023 1.7387482 -2.523105 -4.238085 1.7509472 -0.68054175
-3.1506593 -1.7701224 -1.8206834 -2.1077702 -0.9192878 -1.5271229 2.1463192 -2.2215872
2.2533178 -0.99063283 0.32912838 -2.2342908 -0.7637438 0.99604833 -2.6164103 0.39354885

linear0.weight f4 [32, 384]
00000000: a159 74bd 1f5d 733b 308d b3bd ef90 b0bc
00000010: 41f1 893d 50bc 603d 0ae8 8bbd 9f7d 383d
00000020: 0ba8 ca3d 6b4a b63d 4f80 5dbd bec8 413d
00000030: cb5d 4a3d 3468 783d 748e d8bd d0b6 cfbd
00000040: 20b2 d73c 1c44 71bd afa6 91bd 8a15 a43a
00000050: f187 c4bc b2e0 01bd 065d aabc 6123 cfbd
00000060: 7fab 58bd 81bd c6bd 1b44 293c 6fc9 f83c
00000070: 3114 d23d aeae a03c 01be b6bd e146 ae3d
00000080: f59c b3bd 81f8 433c a17b 933c 64a5 dbbb
00000090: fd4e 73bd 64e0 72bd 4db8 68bc 6250 00be
000000a0: 91e3 9d3d 96e7 a43d 624d 8a3d b172 27bd
000000b0: 44cb febc b13d 683d c1cd bfbc 868f 0abd
000000c0: 614c c03d a684 923b 050f a33d 11f2 61bd
000000d0: 8a5d 883c ab90 b4bd e07b e33b c2fd 87bd
000000e0: e47b 5fbd a1f5 f53d 8419 f63c 3b85 3c3d
000000f0: 2c8b 4dbd a170 8c3d 9033 c8bc abfd 953b
00000100: fb17 1cbc 2133 263d 3ff1 47bd b5fa 38bd
00000110: 3430 5c3d 485f 113d 02cb 9bbd 3b9f 9b3d
00000120: bfce 893d 9173 ad3d 62e8 85bd d1da 933d
00000130: 66d1 a93d 1c25 fb3d f5c4 a6bd 3181 66bd
00000140: 0185 6e3c 6017 75bd e0ae fcbd c188 1d3b
00000150: 810b d7bd 0c8f 76ba 5e53 85bd cb64 b8bd
00000160: 1f1e 9dbd 5beb 42bd 0057 9cbd 7f4b de3d
00000170: 01b4 bd3d af21 5ebd e2c9 a3bd e20a 9b3d
00000180: 0c7d d0bd efd8 573d 85d0 9d3d b196 e1bb
00000190: 8a05 15bd a600 c4bd 42e3 90bb a0f8 3abd
000001a0: ffe9 e83d 9fba 7fbc 6c0d e8ba 207e d6bd
000001b0: c033 94bd c743 043e cfcc 38bd 2cb3 c83d
000001c0: ad8e 723d 31c3 1d3c 30ef e83d 7fda acbd
000001d0: 7e6e 9f3d f5f5 33bd 4103 783d b285 01bd
000001e0: 5196 b6bd ee8a a93d 5cb1 7b3d 3a1d 9f3d
000001f0: 71f1 8ebd 8b6b c93c c460 78bd f137 1e3d
00000200: 21d9 73bc 3a81 16bd ff39 b6bd 21c6 d1bc
00000210: 31fe c5bc 5155 cbbd ef5c ffbd ef06 debd
00000220: 00fb 3c3d 5f9b cebc ffdc d5bc 5a82 23bd
00000230: e120 debd aaaf 9dbd d0e0 e83b 2fbc d8bd
00000240: 171c 8cbc afbf 5dbc 3f7c 71bd 4507 afbd
00000250: b712 09bd ffd0 4dbd 2f73 c6bd a5ff 33bd
00000260: 2189 70bc 3fa4 ddbd 01c5 203d 0651 a1bd
00000270: a13b 97bd f633 a9bd f747 8ebd 3a01 a8bd
00000280: f755 09bc 7f3f 9dbd 2902 80bc ca07 93bc
00000290: 51d1 cebc e1d5 43bd ff3e 3bbc e6e4 21bd
000002a0: 4765 8ebd 8622 163d efd5 c6bd 5a0b a1bd
000002b0: 6619 a6bd 4f0a ddbd ec90 cfbc e1af e5bc
000002c0: 30a4 96bc b128 003d 27f1 80bd 3fd1 c8bc
000002d0: f0cb eb3b 2f02 03bd 51c1 dfbd 71f2 49bd
000002e0: e156 5dbc 0082 7abd c128 83bd a60a a9bc
000002f0: 3133 9abd 8104 c3bd 1a23 a8bd 0fd2 d1bd
00000300: f4fd 5abd 4f7b d93c 6d12 ed39 861a 51bc
00000310: c927 09bd 6ebd 85bd 2863 00bd 2e59 bcbc
00000320: 410f dc3c e4da e1bc 3fc7 ee3c 715d f93b
00000330: 7ae9 9c3d 4c87 cf3d d164 763c dec8 3f3d
00000340: 39f8 8abd 7bd1 3dbd 2265 4b3d 9a04 a73d
00000350: fa19 093d a2f6 8a3d b095 133d e1ae 6a3c
00000360: 3695 a83c 1fab 3f3b 086f 80ba a59f 2ebd
00000370: 5eb9 26bd 4139 2bbd b1ac 42bd 6c1a 4e3d
00000380: e16b 92bd 7fc8 41bb 90d1 ed3d dff6 c23d
00000390: 9138 f73b 2ca3 ff3c e2a1 053c 1da8 e73c
000003a0: 31ed 4b3d 0f80 1b3d 9a92 29bc d1e5 4ebd
000003b0: dfe8 1dbd 002f 3439 6fa7 443d f075 713c
000003c0: 1161 42bd 4b07 363d e13c d7bb 807a 3dbd
000003d0: df50 003d 1f42 373d f7d9 0cbd a8ac 033d
000003e0: 8125 3d3d cfab 423d 5fc1 483d bf5a 4fbc
000003f0: 9f32 aa3c 30bc 1f3d 07e2 8abc 0063 7fbb
-0.05965579 0.0037134362 -0.08767164 -0.021553485 0.06735469 0.05486709 -0.06831367 0.045041677
0.09895333 0.08900913 -0.054077443 0.047310583 0.049405854 0.06064625 -0.10574046 -0.101422906
0.026330054 -0.058902845 -0.071118705 0.0012518626 -0.023990603 -0.031708427 -0.02079631 -0.1011417
-0.052897926 -0.09704114 0.010331179 0.030369489 0.102577575 0.019614544 -0.08922959 0.08509613
-0.087701716 0.011961103 0.018003287 -0.0067030657 -0.0594015 -0.059296027 -0.014204097 -0.12530664
0.077094205 0.08051984 0.06753041 -0.040880863 -0.031102784 0.05669946 -0.02341354 -0.03382828
0.09389568 0.0044713793 0.07961849 -0.055162493 0.016646165 -0.08816656 0.0069422573 -0.06640197
-0.05456151 0.120097406 0.030041464 0.046025496 -0.050181553 0.0685742 -0.02443865 0.0045773587
-0.009527202 0.040576104 -0.048814055 -0.045160968 0.053756908 0.035491258 -0.0760708 0.0759873
0.06728887 0.08469308 -0.06538464 0.0721947 0.08291893 0.122629374 -0.08143035 -0.05627555
0.014558078 -0.059836745 -0.12338042 0.002403781 -0.10500241 -0.0009405471 -0.06510042 -0.090036
-0.07671761 -0.047587734 -0.076337814 0.108542435 0.09262849 -0.054231342 -0.079974905 0.07570435
-0.10180101 0.05269712 0.077057876 -0.006884419 -0.036382236 -0.09570436 -0.0044216225 -0.045647264
0.11372756 -0.015608459 -0.0017704195 -0.10473275 -0.07236433 0.1291648 -0.045117196 0.09799799
0.059218097 0.009629057 0.113737464 -0.08440112 0.077847466 -0.043935735 0.06054998 -0.031621642
-0.08915389 0.08278452 0.06144844 0.077692464 -0.06979645 0.024587413 -0.060639158 0.03862757
-0.0148833105 -0.036744334 -0.088977806 -0.02560717 -0.02416906 -0.09928382 -0.124688976 -0.10841166
0.04613781 -0.025220571 -0.026106356 -0.039919235 -0.10846115 -0.07699521 0.007106878 -0.10582768
-0.017103238 -0.01353447 -0.05895638 -0.085463084 -0.033465113 -0.050248142 -0.09689938 -0.043944973
-0.014681132 -0.10822343 0.039250378 -0.07876782 -0.0738442 -0.08261864 -0.0694732 -0.08203359
-0.008382312 -0.076781265 -0.01562603 -0.01794805 -0.025246294 -0.047811393 -0.011428594 -0.039524935
-0.06952911 0.036654018 -0.09708773 -0.07863493 -0.08110313 -0.10792982 -0.025337659 -0.028037967
-0.018388838 0.031288806 -0.06295996 -0.024513839 0.007195942 -0.031984504 -0.10925544 -0.049303476
-0.013509483 -0.061159134 -0.064042576 -0.02063496 -0.07529295 -0.095223434 -0.0820982 -0.102451436
-0.053464845 0.026548056 0.0004521789 -0.012762671 -0.033485208 -0.065302715 -0.031344563 -0.022991743
0.026862742 -0.027570195 0.029147742 0.007610016 0.076617196 0.10133228 0.015038685 0.04682242
-0.06785626 -0.046342354 0.049656995 0.081551746 0.03347204 0.06785323 0.036031425 0.014323921
0.020578962 0.0029246283 -0.0009798715 -0.042632718 -0.040704124 -0.04180265 -0.047527973 0.050318167
-0.071494825 -0.0029568968 0.116122365 0.09519743 0.007544585 0.031205736 0.008156272 0.028278405
0.04978675 0.037963923 -0.010349894 -0.05051214 -0.03855216 0.00017183647 0.04801124 0.014737591
-0.04745585 0.04444055 -0.0065685366 -0.046259403 0.031327125 0.044740792 -0.034387555 0.03214708
0.046178345 0.04752713 0.049012538 -0.012655913 0.020776091 0.03899783 -0.016953481 -0.003896892

linear0.bias f4 [32]
00000000: 9404 c6bd c6d6 27be b635 c43d 81e5 8ebe
00000010: 3ceb 59bc 1f84 d1bd 81cb ebbc ed9d d03e
00000020: 4f88 23be 3f6b a6bd 11df e6be b745 84be
00000030: c046 8dbe 1490 ccbe 2298 893d 1cc8 68be
00000040: 31c8 91be dd1d 7d3d 74e4 4abe f1c5 b7bd
00000050: 112b 75bd a4df 6dbc 061e b23d 0ad6 383e
00000060: 4cfb 6b3c 22ea 34be c961 90bb 5ba3 34bd
00000070: a574 383d 9116 8fbd 10de 6ebe c4a8 5abe
-0.09668842 -0.16390523 0.09580557 -0.27909473 -0.013300713 -0.10230278 -0.028783562 0.40745488
-0.15969966 -0.08125924 -0.4509206 -0.25834438 -0.2759304 -0.39953673 0.0671847 -0.22732586
-0.28473046 0.061796058 -0.1981371 -0.08973301 -0.059855524 -0.014518652 0.08697133 0.180504
0.014403176 -0.1766744 -0.004406188 -0.0441011 0.045033116 -0.06986726 -0.23326898 -0.21353441
