model/1715146453/3_Pee1_global_model_2.pth (torch, 331092 bytes, 17 tensors)

conv1.lin_l.weight f4 [16, 1]
00000000: 712a 22bf efad 5ebc e6c7 2fbf 91ff 26bf
00000010: e14e 00bf 52e2 903e 110e 56bf 1415 19be
00000020: d6b5 22bf d59b a33d 385f 88be 4fd2 61bf
00000030: e1d0 533d 3fa2 f8be cbbd c43e 618f e8be
-0.6334601 -0.013591274 -0.68664396 -0.65233713 -0.5012036 0.2829767 -0.83615214 -0.14949447
-0.6355871 0.07988707 -0.26635146 -0.8821153 0.051712874 -0.48561284 0.3842605 -0.4542189

conv1.lin_l.bias f4 [16]
00000000: 06cb 1ebe 5abf 173f 5007 8abf 5fc6 be3e
00000010: 1f0d e33e 16b7 8ebe b1bd 51bf 4f1f cb3e
00000020: ffcb 2a3f 73bd 33bf 8fe3 213f 0116 72bf
00000030: 456e ff3e 507c 84be bca9 cbbe d053 d9bd
-0.15507135 0.59276354 -1.0783482 0.3726072 0.44345948 -0.27874058 -0.8193007 0.39672324
0.66717523 -0.7021095 0.6323785 -0.94564825 0.49888816 -0.25876093 -0.39777935 -0.10611689

conv1.lin_r.weight f4 [16, 1]
00000000: d1bd 7fbf a187 00bf f272 403e b14b 5bbf
00000010: 116b a5be 9a77 153f 1b56 38bf ce20 f63d
00000020: 8fee f9be 82df 52bf 2f62 57bf 4bb0 d43d
00000030: 2017 44bf e1b7 4bbf d448 8bbe 8034 65bd
-0.9989901 -0.50206953 0.18793848 -0.8566237 -0.32308248 0.5838562 -0.72006387 0.12017976
-0.48814818 -0.82372296 -0.8413419 0.10385188 -0.76597786 -0.7957745 -0.27204 -0.05595827

conv2.lin_l.weight f4 [64, 16]
00000000: b199 acbd 5f13 0f3e 9fb9 b8bc a991 0f3e
00000010: 893a 0abd 8104 62bd f047 17be d02f c83d
00000020: 5f6a fc3d 2f9a 3e3d 27c1 06be 1745 0f3e
00000030: aa5e 9d3d 8a2e 243e 9f3d c3be 512e 42be
00000040: 4696 173e c6e1 93be 41ad a43d f16e 2d3e
00000050: 2f3d 903d 31a4 493d 613d a1bd 38c6 86be
00000060: 71f1 563e efe9 88be e167 72be 96ce 9cbd
00000070: 8117 61be a061 1bbe 162b 99be af1f e4bd
00000080: 21e9 85bd 550c b7bd 5a9e 223e e079 60bc
00000090: 4088 bc3b 0072 1abc a158 e23d 3dbc 113e
000000a0: 25f3 b63d ef7e cabd c0a1 23bc 39f8 bc3d
000000b0: c705 8abd 81d2 04be 2005 96be 60d2 48be
000000c0: af3e f83d afa2 6abe cf22 c9bd 5157 e83d
000000d0: bf00 e93d 0992 90be 802a 913c 765c 1ebe
000000e0: b0fc be3c 5bef b6be c180 223e 40de 86bc
000000f0: df2e aabe 5fce 3f3e c0a3 d53d 71b9 febd
00000100: 8f6e 433e 3122 de3d e51a 3abe e651 a83d
00000110: a0d9 53bc f02b 5ebe 5009 2f3e ffbf a6be
00000120: 6ff4 1f3e 51d1 72be 00bc 7e3e e16c 80bd
00000130: 91d3 1dbe c117 23be ef7a a3be 8148 39be
00000140: ef9d 48be 41f9 8ebd 3fc6 84be 418a f4bd
00000150: 41a0 753e f63b 13be b087 debd 0b5b 2bbd
00000160: c147 743e df99 72be bf38 1b3e effa c2be
00000170: dac7 a9be f0ea e83c 3149 e6be 9036 00be
00000180: 2168 53be ba4e a3bd c17a dabd c086 9e3b
00000190: 01f7 51be c2cd 9cbe e183 22be e219 8bbe
000001a0: a0d8 1c3c 2421 1e3e 2142 4abe 1bcf 2c3e
000001b0: 9e11 383e 0f5b 7e3e 430f 09be f073 e03c
000001c0: 11b3 e33d 0fa7 51be 4fc7 e9bd ef91 c8bd
000001d0: 00b4 0e3e 8153 0cbe 2170 2bbe cf28 91be
000001e0: dfc2 e7bd 215c bcbc 6ff2 3cbe 97a4 84be
000001f0: a117 aebd c183 cbbd 4fa0 4dbe 810e 18be
00000200: d067 f0bc f0c5 303d c182 01be 5f91 c2bd
00000210: 7002 073e df2c 07be bf44 7bbe 1fe8 f23d
00000220: f1a2 d73d c192 543e 0100 c43d 002c d8bb
00000230: 4100 7f3d f1dc 523e a04a 09bc 2124 1cbe
00000240: 10a9 4abd fbb3 37be 16f4 973d 7136 913d
00000250: 9f3a 4bbe 21f4 68be 6f0f 5ebe 7f1a e3bd
00000260: d0e0 033d f133 d13d bfe3 76be fa3e 9dbe
00000270: 5143 bb3d a16b 713e 8f86 ea3d 0082 153d
00000280: 70d5 83bd 7094 ccbc 9115 083e 016d 153e
00000290: e175 45bd bf1b 4dbe 7041 edbd 0524 313e
000002a0: 4117 00be 0f5f 823d 0145 cf3d 1053 fcbd
000002b0: 1b8b 2ebe bfe5 573e 1bd7 2f3e 50e2 29bd
000002c0: a1da 45be d1ce 31be 0024 eb3c 5064 fe3d
000002d0: 2138 5f3e 1f17 b73d 60fa 623c 6aa8 23be
000002e0: b1a5 183e a6d5 9f3a 4fd7 72be 3fff c0bd
000002f0: b1bd 8bbd 30b4 8c3c b661 9ebe 81b5 4bbe
00000300: cfb7 48be 9f04 0bbe 4f9f 9bbc 0f93 ffbd
00000310: a178 573e df62 d3bd e09e 143d bf69 25be
00000320: 8f84 02be 0b1a afbd cfb3 063e 1ab8 193d
00000330: af15 d33d e1cb 563d c624 163e a058 c13c
00000340: 6161 7abd 5f18 02be ea8d 04bd 11af 243e
00000350: 51ac c33d 99f6 833d a082 24be 96aa a63c
00000360: cf5f 353e 0fdc 023e f51e 32be 2f29 afbd
00000370: 76a0 953c 90d7 11bd 9f61 993c f03c 893d
00000380: 1fcc 413e e66c a23d 8152 3a3e f080 fe3d
00000390: 10ec 58be 1931 0cbe d04a 603e 10fa 99bc
000003a0: b763 0cbe af7a 6d3e e0a8 e93c 110f 0cbe
000003b0: 1f1e 5fbe 4041 e3bb 2f33 8a3d 61da 54bd
000003c0: 71b6 143e c7cc 8b3e 21ac 0f3e d047 3b3e
000003d0: e179 f33d 5118 c33c 803a 82bc ff02 5e3c
000003e0: cf51 64be 5769 8b3c 01c4 ed3d a62f 9c3c
000003f0: ff80 0cbc e10d cc3d 313f 5a3d 00ff e53b
-0.08427752 0.13972233 -0.022549449 0.14020409 -0.03374723 -0.055180077 -0.14773536 0.097747445
0.12324976 0.04653376 -0.1315962 0.139912 0.07684071 0.16033378 -0.3813295 -0.18962981
0.14803419 -0.2888319 0.08040858 0.16936852 0.0704292 0.04922885 -0.07873035 -0.26323104
0.2099054 -0.26740977 -0.23672439 -0.07656591 -0.21981622 -0.1517396 -0.29915684 -0.11138856
-0.065386064 -0.08937899 0.15880719 -0.013700932 0.005753547 -0.009426594 0.11052061 0.14231963
0.08933095 -0.09887492 -0.009987295 0.09227032 -0.06739383 -0.12970926 -0.29300785 -0.19611502
0.12121331 -0.22913621 -0.09821092 0.11344779 0.113770954 -0.28236416 0.01772046 -0.15464959
0.02331385 -0.3572949 0.15869428 -0.016463399 -0.33238885 0.18731068 0.104316235 -0.12437714
0.19085144 0.10846365 -0.18174322 0.08218746 -0.012930304 -0.21696448 0.17093396 -0.32568356
0.15620588 -0.2371266 0.24876404 -0.06270767 -0.15412737 -0.1592703 -0.31929728 -0.18094064
-0.19591497 -0.06981135 -0.259325 -0.11940432 0.23986913 -0.14378342 -0.10865724 -0.041834872
0.23855497 -0.2369151 0.15158366 -0.38082072 -0.33160287 0.02843234 -0.44977716 -0.12520814
-0.20645191 -0.07974 -0.10667945 0.004837841 -0.20504381 -0.3062573 -0.1587062 -0.27168185
0.009573132 0.1544233 -0.19751789 0.1687588 0.1797547 0.24839424 -0.13384728 0.027399033
0.111181386 -0.20473884 -0.11414968 -0.097934596 0.13935852 -0.13703729 -0.16741993 -0.28351447
-0.113164656 -0.02299315 -0.18451856 -0.25906822 -0.085006006 -0.099372394 -0.20080684 -0.14849283
-0.029346377 0.043157518 -0.12647535 -0.095003836 0.13184524 -0.1320071 -0.24537943 0.1186068
0.105291255 0.20759107 0.09570313 -0.006597042 0.0622561 0.20592095 -0.008379608 -0.15248157
-0.049477637 -0.17939751 0.074196026 0.07090462 -0.19846581 -0.22749378 -0.21685575 -0.11089038
0.03219682 0.10214985 -0.24110316 -0.3071211 0.09143699 0.23576213 0.11451446 0.03650093
-0.06437194 -0.024973124 0.13289477 0.14592363 -0.04820812 -0.20030116 -0.11584747 0.17298897
-0.1250887 0.06365787 0.10120583 -0.123205304 -0.17045252 0.21083735 0.171719 -0.041475594
-0.19321682 -0.1736405 0.02870369 0.12421477 0.21798755 0.08939957 0.013853639 -0.15982214
0.14906956 0.001219441 -0.23714946 -0.09423684 -0.0682329 0.017175764 -0.30933923 -0.19893457
-0.19601367 -0.13575982 -0.018996863 -0.12479221 0.2104211 -0.103215925 0.036284328 -0.1615362
-0.1274588 -0.08549889 0.13154529 0.03752909 0.1030687 0.052440528 0.14662465 0.02360183
-0.061128024 -0.1270461 -0.032361902 0.16082408 0.09554351 0.06443519 -0.16065454 0.020345014
0.1771233 0.12779258 -0.17394622 -0.08552777 0.01826499 -0.035605967 0.018723307 0.06701076
0.18925522 0.07930927 0.18195535 0.124269366 -0.211838 -0.13690604 0.21903539 -0.018795997
-0.13709913 0.23191331 0.028522909 -0.13677622 -0.21788834 -0.0069352686 0.06748044 -0.051966075
0.14522721 0.2730467 0.14030506 0.18289113 0.11888481 0.023815306 -0.015897036 0.013550519
-0.22296833 0.017018003 0.116096504 0.01906569 -0.008575677 0.09963585 0.05328292 0.0070189238

conv2.lin_l.bias f4 [64]
00000000: 9ae6 96bd 5fee f7bd 7f7f a7be 7174 bbbe
00000010: 0fac ddbd 8f1b b2be bf54 2e3e ff1e 4d3d
00000020: e0d7 503d 0f4d 4fbe 9096 4f3d 214d 093d
00000030: 6fa0 013e 1257 863c af9d 56be affb 75be
00000040: 6699 9ebd 3f83 6cbe a0e6 95be ab8e 9ebe
00000050: 919f 71be 5bf2 ac3d c1cf cdbd 1fa6 62bd
00000060: 4b8a 2f3e 11b2 1dbe d057 023e 211d cabd
00000070: 7731 88be 6f19 ac3d 6181 94be f1e3 e0be
00000080: bf55 5abe 2f69 493e 51ae dfbd e668 28be
00000090: 7f69 9bbe ea3e 213e f081 303e 506e e43d
000000a0: a618 22bd 7f52 dbbd 78f1 07bc 6a62 16be
000000b0: 416a f1bd c1dc cfbc 5a49 51be 80a5 c6be
000000c0: a6f0 a1be 8577 b5be 41ca 0f3d a1ff 56be
000000d0: b124 acbd a60a aabd 8c93 193e c5e9 b63d
000000e0: c169 b0be b1f5 403e 7ffe f9bd 9fa6 3abe
000000f0: cfa2 b93d 1181 9f3d 1f2b 1c3e 2a7f 953c
-0.073682025 -0.121060126 -0.3271446 -0.36612275 -0.10823833 -0.3478665 0.17024516 0.05007839
0.050987124 -0.2024424 0.050680697 0.03352082 0.12658857 0.01639894 -0.20958589 -0.24021791
-0.07744102 -0.23096941 -0.29277515 -0.30968222 -0.23596026 0.08444663 -0.100493915 -0.055334207
0.17142598 -0.15399958 0.1272881 -0.09868837 -0.2660024 0.084032886 -0.29004958 -0.43923905
-0.21321772 0.1966903 -0.1092192 -0.16446266 -0.30353925 0.15746656 0.17237067 0.11153853
-0.039574288 -0.10709094 -0.008297317 -0.1468598 -0.117878444 -0.025373818 -0.20438138 -0.3879814
-0.31628913 -0.3544275 0.035104994 -0.20995952 -0.08405436 -0.08302812 0.14997691 0.08931307
-0.34455684 0.18843724 -0.122067444 -0.18227623 0.090642564 0.07788289 0.15250824 0.018249113

conv2.lin_r.weight f4 [64, 16]
00000000: d0f6 22be 11fe c33d 0f00 97be a1ea a63d
00000010: 4f63 13be 5faf 833d 3613 263e 6f69 4cbe
00000020: 9fa4 06be 5733 003e c588 b7bd 8fa8 25be
00000030: 6f56 22be 5b15 35be 090b 0abe ffe1 043e
00000040: 40e2 0fbd 0177 85be 09be 90be a0dc 8a3c
00000050: 60c6 063e ffed 1abe c1fb 27be efc4 a33c
00000060: 9fc6 293e e142 d6bd 2100 c7bd aa6a 183d
00000070: 8f6f 88be cf95 24be a7c1 8b3d f146 0d3e
00000080: 4114 e63d b1c7 273e 21e3 3f3e 9110 013e
00000090: 7113 203e 3dfa 8ebb 4023 853d 21f9 79bd
000000a0: 915a 3c3e f585 c5bd c0f3 63be 6fe5 763e
000000b0: a1f3 5d3e 0f24 49be d1bb bcbd 9f9e 60be
000000c0: 60cf 403d 20c0 733d fff8 cabd 7f2b 50bd
000000d0: 11f3 be3d 7116 dc3b 21b2 5a3e e130 9abe
000000e0: 507d 453e e122 73be 1f4a 96bd 41bf dd3d
000000f0: 5067 cebc e1ea 533d 8f61 0bbe 91e2 a3bd
00000100: 008f af3c 00cb 093d 416f 71be a53a 32bd
00000110: 11e0 ef3d bf1d d53d d994 0abe 6fbb fd3c
00000120: 80f7 653b 316f 293c 3782 893d 550f ad3d
00000130: f6e5 a53d 9fc6 71be 8164 35bd efe1 8a3d
00000140: aff8 09be df01 07bf e1a4 0ebe a16f 453d
00000150: b887 083d 7106 93be 100a 263e 0159 02bf
00000160: f6fb 1bbe 51b5 02bf 30e1 79be a5bb b9be
00000170: 4fa4 e0be 2185 03be 41de 43be 60b4 debd
00000180: aab7 9cbd ef02 67be a17a d1bd b657 1d3e
00000190: df72 403e 042f f13d 4a42 96bd 27e7 0a3e
000001a0: 06cf 21be bfce 16bd 3f93 573e 0fdc 61be
000001b0: c16d d43d 00ca 2f3a 8fdc db3b ff54 6bbe
000001c0: 8158 6e3e 1104 90be b1ec 73be c110 c2bd
000001d0: 8088 7fbd 2ffe d43c 8101 5dbd 1707 0f3e
000001e0: bff2 72be 3fae f83d ff1d 4bbe 811a 5b3e
000001f0: bf14 7bbe c0f5 eb3c 5f8e 5dbd cf71 e1bd
00000200: 61d2 bd3d b138 613e 81b5 78bd 8f6b 37be
00000210: cf18 0bbe b0b7 e7bd f991 053e f058 4fbe
00000220: 3ff4 3a3e a675 a33d 6a41 9a3d 6f64 34be
00000230: affe e5bd c167 18be 011b da3d 3008 d83d
00000240: 5079 3e3e 6ff7 42bb f1df 6b3d d008 7f3d
00000250: 10a7 60bd e194 213d 2f15 34be 4f27 69be
00000260: 60ef 373d 603a 84bc 00d1 ca3c b129 0dbc
00000270: 1f75 40be 5fa0 cdbd 7118 f8bd a9b5 0fbd
00000280: 9f6b b4bd 8f2f 4a3e 6f75 193e 013d 70be
00000290: bf8c c03d e1ac 5cbe 30fd b23d cfa2 78be
000002a0: c9a2 0f3d cfc8 1abe c088 7c3e 7f15 61be
000002b0: c1d9 fcbd c15a 713e 9ff7 46bd e114 7a3e
000002c0: a12f 60bd f122 0d3e 9140 79be e076 303d
000002d0: f01e 863d af09 80bd b122 febd ffc8 6dbe
000002e0: c1b2 e13d 114c afbd 3b83 303e 2be4 373e
000002f0: 1f80 1a3e 202e 973d efc2 43be 4034 333e
00000300: 01c2 3cbe 216b 38bc 2b1d b7bd a01e 1b3e
00000310: 5fd1 1d3e bfe1 3bbe 66b9 243e e1bc be3d
00000320: efac a53d f152 f6bd 7f32 1fbe df85 6bbe
00000330: afc3 36be 4ff7 51be 4024 cc3c 4ff3 363e
00000340: 2f27 623e c060 0dbe bfb6 02be 9f54 613e
00000350: 30ea bc3c 578d 90bd c03c 003e 2197 45be
00000360: f137 31be 8f4c 11be 5fc8 c1bd 9936 8c3d
00000370: 6fa9 02be 6f19 7c3e d14f 51be b088 11be
00000380: 6567 333e 419e 743e 7196 6ebe df35 47be
00000390: 47c5 00be 8153 c5bd 8067 5abe 210f d33d
000003a0: 5740 923d a0fe 9a3d d0c8 5a3d 11ef 683e
000003b0: 16c1 94bd 3598 33be 813d 433d 80c9 193e
000003c0: 5077 61be 0fae 91bd 0f78 19bb c121 653d
000003d0: e011 96bc 5f32 9cbd 80ce 653b 3141 573d
000003e0: 2068 0fbd 6f86 c8bd 21c1 e23d 918a 473d
000003f0: 7f76 4c3e a0d9 943d 4186 0bbe 307e b2bd
-0.15914464 0.09569944 -0.29492232 0.08150221 -0.14393352 0.06429934 0.16218266 -0.19962095
-0.13148735 0.12519585 -0.089616336 -0.16177581 -0.15853284 -0.17683928 -0.13480772 0.12976836
-0.03512788 -0.26067355 -0.28269985 0.016950905 0.13161612 -0.15129851 -0.1640463 0.019991366
0.16579674 -0.10461975 -0.097168215 0.037211098 -0.26647612 -0.16072772 0.06824046 0.13796593
0.11234332 0.1638477 0.18738987 0.12603976 0.15632416 -0.004363327 0.06500864 -0.061028603
0.18393923 -0.09644691 -0.22260952 0.2411096 0.21674968 -0.19642662 -0.09215511 -0.21935509
0.04707277 0.059509397 -0.099107735 -0.05082273 0.09323705 0.0067165424 0.21357013 -0.30115417
0.19286084 -0.23743774 -0.07338356 0.108274944 -0.025195748 0.05173767 -0.13611434 -0.080021985
0.021430492 0.03364086 -0.23577596 -0.04351296 0.11712659 0.10406064 -0.13533343 0.030973164
0.0035090148 0.0103414515 0.0671429 0.0845019 0.08100502 -0.23610924 -0.0442853 0.06781375
-0.13473772 -0.5273723 -0.13930084 0.04820216 0.033332556 -0.28715852 0.16214776 -0.5091706
-0.15232834 -0.51057917 -0.24402308 -0.36275974 -0.43875358 -0.12843753 -0.19127752 -0.108742476
-0.07652219 -0.22559713 -0.10228468 0.1536549 0.1879382 0.11776546 -0.073368624 0.1356474
-0.1580163 -0.036818262 0.21052264 -0.22056602 0.103724964 0.00067058206 0.0067096422 -0.22981642
0.23275949 -0.28128102 -0.2382076 -0.09475852 -0.062386036 0.02600011 -0.053956512 0.13967548
-0.23725413 0.1214261 -0.19835661 0.21396829 -0.24519633 0.028803706 -0.054090854 -0.110080354
0.09268642 0.21994282 -0.06071997 -0.17912124 -0.13583682 -0.113143325 0.13043965 -0.2024877
0.18257235 0.07981424 0.07532008 -0.17616437 -0.11230218 -0.14883329 0.10649682 0.10548437
0.18600965 -0.0029749533 0.057586614 0.062264264 -0.054846823 0.039448623 -0.17586206 -0.22768901
0.04490602 -0.016141117 0.024757862 -0.008615897 -0.18794678 -0.10040354 -0.12114037 -0.035085354
-0.088095896 0.19744705 0.14986204 -0.23460771 0.09401845 -0.21550323 0.08739698 -0.24280857
0.035067353 -0.15115665 0.24661541 -0.21980856 -0.12346221 0.23569776 -0.048575994 0.24422027
-0.054732922 0.1378286 -0.24341036 0.043082118 0.065488696 -0.06251847 -0.124089606 -0.23221205
0.11020423 -0.085594304 0.1723756 0.17958133 0.15087937 0.073818445 -0.1911733 0.175004
-0.18433382 -0.01125601 -0.0894111 0.15148401 0.154119 -0.18347834 0.16086349 0.093133695
0.08089625 -0.120275386 -0.15546606 -0.23000287 -0.17848085 -0.20504497 0.02491963 0.17866252
0.2208526 -0.13806438 -0.12765025 0.22004937 0.023060888 -0.070582084 0.12523174 -0.19295932
-0.17306496 -0.14189361 -0.09462046 0.06846351 -0.12759946 0.24619077 -0.20440604 -0.14212298
0.1751991 0.23888494 -0.23299576 -0.19454144 -0.12575255 -0.09635068 -0.21328545 0.1030562
0.07141178 0.07568097 0.053414166 0.22747447 -0.07263391 -0.17538531 0.047666077 0.15018272
-0.2201817 -0.07113277 -0.0023417508 0.055940393 -0.01831907 -0.07626795 0.003506571 0.052552406
-0.03501141 -0.09791266 0.11071993 0.04871613 0.19967078 0.07268071 -0.13625433 -0.087154746

lstm_cell.weight_ih f4 [256, 192]
00000000: 7f5b 003e 30ff 3c3e 0275 92bd 0a3e 993c
00000010: 8a37 293d 0531 39be c244 3c3d b763 8b3d
00000020: 9f15 d4bd 8f0f bdbc a5f1 b33d 79f6 103e
00000030: ffc4 0b3e 8181 433e 80dd b03b 2173 4fbe
00000040: b64f 1c3d 1107 2c3e 2f65 43bc ebca 093e
00000050: c1b2 e03d 8127 273c 158a 2d3d 7fc2 713d
00000060: 20ad 12bd ff62 fc3d 41be ee3d 3bae 343e
00000070: b18c 3fbd 7fbd b7be ef97 443e b183 47bd
00000080: 3071 3cbc 2179 3a3e c13d 4abe 9ad9 213e
00000090: 8194 863c b12d febd bfc3 263d 5730 0fbd
000000a0: cf93 0fbe 0034 ce3d bff1 c73d 492d 0b3e
000000b0: 11b2 533e a19c 35bc 9ac6 ad3d 50dc 3dbd
000000c0: 3f54 3aba 301e 51bc a001 28bd 8feb d83d
000000d0: 31be a93d 5671 1e3e 919a 4d3e 8a4d 14ba
000000e0: 4066 f03d 71a8 283e 61bc b0ba c115 5b3e
000000f0: 4fac 1b3e a05b ed3d cf82 5fbd a1a7 973d
00000100: 7927 84bf fe9b 5840 e2bb 2940 6e16 3540
00000110: d7ee 1140 0acb b640 bcc1 e540 4e1d b9bd
00000120: 7a08 b640 f850 f340 0690 f040 dec4 d340
00000130: c371 cb40 74e7 d740 0c7f 0c41 bde6 f440
00000140: 6909 fd40 7170 d940 0127 ef40 c774 ed40
00000150: f851 ed40 a835 b03d 91f8 0541 ab8a aa40
00000160: 1c26 e640 a080 e540 b634 e040 7f56 0141
00000170: a736 ea40 8556 6d3b a6a7 653d aef0 753d
00000180: b14e 51bd 7426 d7bd a131 a73c 942b 8d3c
00000190: 4ff3 ec3c 011f 2a3d 93c7 0fbe 2049 963b
000001a0: 01d8 903d 60f6 fdbb 9fb2 efbd c1c3 e5bd
000001b0: 008f 6c3b 7066 02bd f014 6d3c c05b 55bd
000001c0: a08e 97bd bf85 053d e06b fbbc 00c3 933b
000001d0: e066 53bc 3f0c a6bd 0526 b1bd b183 f6bd
000001e0: effe c63d c05a 3c3c 85b9 b7bd ff54 e83d
000001f0: bf37 aebd 0f7a e6bd 411d 433d 09af 90bd
00000200: 41c6 febc e432 fe3f 0bbb a33f 9feb f2be
00000210: 777b 08bf ee69 1440 ff74 d43d 7b99 5640
00000220: 3a88 d440 47ee ba40 f743 bdbd 3747 ec40
00000230: c9af f640 32bf f840 cf8f cc3d 931c 0641
00000240: 0d14 1141 438e 0041 853b f240 a285 e540
00000250: 8b2d dc40 4ac0 ce40 2e5c 593c 8b6b 0441
00000260: 0895 ce40 d15e 6040 ea83 4e3d aaa4 e040
00000270: 4453 8440 5fb3 0941 fbda ec3d e657 683d
00000280: ff11 4f3d 4499 9c3d e048 07be 5f0c 84bd
00000290: c8a4 c6bd 2e32 ebbd a725 9fbd 46b9 f1bd
000002a0: 8fca 493d df34 ea3d ff2f 913d bfee 24bd
000002b0: 113c 02bd 6175 593d bfe1 b63d d016 c4bd
000002c0: 4af8 a6bd 8fa3 3dbd 97f4 8ebd a5ba 2c3d
000002d0: e17b f8bd 5058 b93d 40fe 3ebb 7162 e33d
000002e0: f13b 243d 214e 83bd 008a 10bd 6524 acbd
000002f0: 5a43 1e3d b1a7 a8bd 814e f23d 4f94 b63d
00000300: ffff 3e3d 9f85 203d 2bdd 0e3f 817e cf3d
00000310: 6592 b23d 7a88 12be bc7f 55bc 6f5b f93c
00000320: d07d 61bc 217d e1bc 4167 fb3d 3142 db3b
00000330: 27cd 0dbd 5167 c73e 760d a8bd d1b5 173f
00000340: b95e 8b3c e1fe 563d 61c6 00bd 0cd1 f53d
00000350: 0fbd 3d3e 0088 a33d 81df 4cbd 150f 333e
00000360: e0be 7e3d 6f3d 603d 30d5 0e3c 81c4 973e
00000370: 19f8 0bbc 0189 333f 1ab0 143f 8a14 293d
00000380: 3f52 883d ff1c 56bd e193 563f 5f7d 32bd
00000390: 9fda 47bd dfa1 dd3d e014 d9bc b873 823c
000003a0: 10d4 2d3f e018 c73c af67 443f 91a6 033e
000003b0: ca19 b43e 8912 063e 5733 153d a6e8 9f3d
000003c0: 3f43 adbd caab 143d cf9d b63e bf46 2bbe
000003d0: efef bfbd ba9d 96bd c932 f23d 31b1 d63c
000003e0: 86a7 9fbd 3964 0b3e c1e4 213e df78 613d
000003f0: bfd5 513d bf0e 62bd 1fe1 e5bc 7154 033d
0.12534903 0.18456721 -0.07151224 0.01870634 0.04131273 -0.18085106 0.04596401 0.068061285
-0.103556864 -0.023078708 0.087863244 0.14156522 0.13649367 0.1909237 0.0053974986 -0.20258762
0.038161956 0.1679957 -0.0119259795 0.13456313 0.109715946 0.01020229 0.042368013 0.059023377
-0.035809636 0.123235695 0.11657382 0.17644589 -0.046765033 -0.35886762 0.19198583 -0.048709575
-0.011501595 0.1821027 -0.1975012 0.15805665 0.016428234 -0.12411059 0.04071402 -0.03495821
-0.14021228 0.10068512 0.09762906 0.13591494 0.20673396 -0.0110847065 0.08485146 -0.046352684
-0.00071078906 -0.012763545 -0.041017175 0.10591804 0.08288229 0.15472922 0.20078494 -0.0005657306
0.11738253 0.16470505 -0.0013483876 0.21395017 0.1520245 0.11589742 -0.05456811 0.074050196
-1.0324546 3.384521 2.6520925 2.829494 2.2802026 5.712285 7.179899 -0.090387926
5.6885347 7.603634 7.517581 6.6177816 6.357637 6.7470036 8.781017 7.6531663
7.9073987 6.7949758 7.473511 7.420505 7.416256 0.08603984 8.373185 5.3294272
7.192152 7.1719513 7.0064344 8.083617 7.3191714 0.00362149 0.056068085 0.060043983
-0.051100437 -0.10505381 0.020409407 0.017232694 0.028924612 0.041533474 -0.14040975 0.004586354
0.070724495 -0.0077503175 -0.11703991 -0.11218978 0.0036095977 -0.031835973 0.014470324 -0.052089453
-0.074002504 0.032598253 -0.030691087 0.00450933 -0.012902945 -0.081078045 -0.0864983 -0.12036837
0.097165935 0.011496246 -0.08970932 0.11344337 -0.085067265 -0.112537496 0.04763532 -0.07064635
-0.031100394 1.985928 1.2791456 -0.4744539 -0.5331339 2.3189654 0.10373878 3.3531177
6.641629 5.8415866 -0.09241479 7.383693 7.708958 7.7733393 0.09988367 8.381976
9.067395 8.034732 7.5697656 7.1725626 6.8805594 6.460973 0.013266606 8.276256
6.4556923 3.5057871 0.05041877 7.0201006 4.1351643 8.606292 0.11565205 0.05672445
0.05055427 0.076464206 -0.13211393 -0.06447672 -0.09699398 -0.114841804 -0.077708535 -0.11802916
0.04926544 0.114358656 0.07089233 -0.04026675 -0.031795565 0.053090457 0.089297764 -0.09574664
-0.08152826 -0.04629856 -0.069802456 0.042170186 -0.12133003 0.090500474 -0.0029143244 0.111027606
0.040096227 -0.06411386 -0.035287857 -0.08405379 0.03863845 -0.082351096 0.1183138 0.08915006
0.046630856 0.03918993 0.55806226 0.101315506 0.08719329 -0.14309874 -0.0130309425 0.030439107
-0.013762906 -0.027525486 0.122755535 0.0066912402 -0.034619477 0.38946012 -0.082056925 0.59261805
0.01701294 0.052489165 -0.03143919 0.12002763 0.18529151 0.07984924 -0.050017837 0.17486222
0.06219375 0.054746088 0.00871782 0.29642108 -0.008543038 0.70130926 0.5808121 0.041279353
0.06656312 -0.052273747 0.83819395 -0.043576594 -0.048792478 0.1082189 -0.026499212 0.01592432
0.67901707 0.024303854 0.7672071 0.12856509 0.35175925 0.13093008 0.036425915 0.07808046
-0.08460092 0.036296643 0.35667273 -0.16726206 -0.093719356 -0.07354303 0.11826093 0.026207538
-0.077956244 0.1361245 0.15809919 0.055046912 0.051229235 -0.055189844 -0.028061448 0.03206295

lstm_cell.weight_hh f4 [256, 64]
00000000: 88cc e83e 2e8d c23e a9c2 883f edf9 85c0
00000010: c1b1 aa3f 266f 34c0 4a00 19c0 ede2 1b40
00000020: b4d0 5e40 a626 473f 05f3 e33e 5967 a3bf
00000030: 5b1d 3dbd acf4 b8bf 65e2 ecbf 167e 5fbe
00000040: ac00 4fbf ce11 1b3f 2780 48c0 9693 c5bf
00000050: a802 4ebd 5d4f 2640 d1b4 2140 2024 46bf
00000060: 0447 053f 52d3 2140 48d4 1dc0 137c 673f
00000070: e36e 34be a017 3ac0 5210 f5bf f464 ce3d
00000080: 6e95 963f e193 f9bf 14c4 cebe 9789 6f3f
00000090: a5f9 1b40 c36f b1bf f7ca 613e 2b19 10c0
000000a0: de36 9e3f f31d b8bd 415b 32c0 d9ae 94bf
000000b0: 6c84 9ebf 4102 ecbf 820c 113f 653c ca3f
000000c0: d1b5 e73e 5143 0540 3227 00c0 a13a 343f
000000d0: 6e21 bc3f f550 c73f 79d8 17c0 9505 4340
000000e0: d6df a53f 2c13 17c0 12ff 6c3f fbb0 973e
000000f0: 6ca5 3540 ba8e a23f f0da f83e 6bad 3640
00000100: 14d8 df3e bb66 f3be 7d77 f83c d40f a43e
00000110: 60a6 0ec0 31a0 2fc0 0a9e 0e3f 8149 b43e
00000120: 7aae 05c0 4f5b 8dbf 1f9a 21bf 62ce 20bf
00000130: caa3 81bf 01d8 0bbf 219c 57be 168f 2f40
00000140: e92a 13bf e4a3 80bf fe55 51bf 0842 17c0
00000150: b19d 35bf eb86 ea3f bcd0 b13e f9a0 693f
00000160: 6876 943f c2f3 8bbe 5baa 14c0 57dc 77c0
00000170: 542a 48bf 6286 a9be 2b49 0cc0 346e 73bf
00000180: ac40 2d3e 2aae c53f d71b 69c0 5a39 0640
00000190: dee9 d03f 8d8b d8be 6181 8cbd 09cd 3c40
000001a0: e4b9 8bbf 3a26 55bf c600 9340 89b3 263f
000001b0: 1690 c7bf 9684 9ebe ad71 b9bf 786b 53bf
000001c0: 1877 8040 4b81 01c0 bfe2 9e3f fb18 0ac0
000001d0: 3c64 5c3e dca1 35be 95be 4dc0 bfad 02be
000001e0: 3131 ddbd 929b ecbf 2b0d e03f 6b5c 1b3f
000001f0: 4590 d03f 954d 93bf bab3 dd3d cbd4 f8bf
00000200: fa01 2a40 b33c 7d3f be9d bf3e 1b3a e43e
00000210: bd3e 8d40 f1a7 a53e 126f 9b3e 2de9 f7bf
00000220: fe3f 0640 7500 1bc0 a1a0 d83f 2eea 0c3d
00000230: 2793 eabd 10e0 a9bf 32b8 f4bf dfd3 25bf
00000240: b681 c83f 3299 2d3f 899a 00bf 3eb5 f9bf
00000250: 3ade 7340 62af f83e b015 b93f 102e c63f
00000260: 1617 1f3f 4815 b83f 09ed d23f 981b b5be
00000270: 263b 00c0 4b8c 2240 5508 633f b550 8c3f
00000280: b71a c43f e58b c0bf f601 9dbd 473f 74bf
00000290: de34 e63f 4ef1 f53f 260f a03f b8e7 2040
000002a0: 5b63 0ec0 2e9c fdbe e139 1ac0 03c4 f3be
000002b0: b720 ea3f 5557 4bc0 05bd 523f 7c58 8c3f
000002c0: a9e8 443e 42fd 8ac0 b7fd 603f 0385 6b3f
000002d0: 987e 79c0 af74 903f aace 503f 40b0 903f
000002e0: bf38 dd3f ac44 963e 56fa 50bf 4be5 7b3f
000002f0: 128b 3c40 8430 9dbf 704c e9be d82e cabf
00000300: 9af9 d0bf 2247 7d3f 5d83 91be a3f0 2a3e
00000310: a25a 33bf 6b0c 343e e93f 78bf a2dd f1bf
00000320: 9895 4bc0 b904 da3f d7ef cabf 0fe6 97bf
00000330: ce76 7d3f 1a3b 42bf 33ee 4e3e 9983 8abe
00000340: 6ed8 df3d d4bb fd3f 8582 f33f 6156 82bd
00000350: 30f6 86bf cadc 11bf 7dd1 ed3d 424f b33e
00000360: 0ffd 3540 a553 9eba 2c90 1a3f 429a 2740
00000370: 4b01 1e40 0ed9 ba3f 1b57 bbbd b3e6 96c0
00000380: 2ca4 e6bf 2258 5fbf 133a a03f a353 e63e
00000390: fb90 b03f ec48 9fbe e9d1 2540 3579 3a3f
000003a0: e045 37be b965 3540 7cd0 3cc0 f6fa 37c0
000003b0: f502 0340 9cf8 bcbe 97d3 2f40 c864 4b3f
000003c0: 10fe 2840 2847 1a3d d79e 15bf 8ac4 e03e
000003d0: 50c7 0c3d 2b8d 49bf 22c2 953e f6be 19c0
000003e0: a083 a9be 2133 0340 68cc 4fc0 0b9e f3be
000003f0: d0f5 9ebf 30e8 8dbf 8580 053f abc2 23c0
0.45468545 0.37998337 1.0684406 -4.1867585 1.3335496 -2.819284 -2.3906426 2.4357255
3.4814882 0.7779335 0.44521347 -1.2765914 -0.046170574 -1.4449668 -1.850659 -0.21825442
-0.808604 0.6057404 -3.1328218 -1.5435665 -0.050295502 2.598594 2.5266612 -0.7739887
0.52061486 2.528523 -2.4660816 0.904237 -0.17620425 -2.907692 -1.9145606 0.10077849
1.1764352 -1.9498254 -0.4038397 0.9356932 2.437112 -1.3862232 0.22050081 -2.2515361
1.2360494 -0.08990087 -2.7868197 -1.1615859 -1.2384162 -1.8438188 0.5665971 1.5799681
0.45255902 2.0822337 -2.0023923 0.7040196 1.4697702 1.5571581 -2.3725874 3.0472157
1.2958934 -2.3605452 0.92576706 0.29627213 2.8382215 1.2699807 0.48604536 2.8543346
0.43719542 -0.47539315 0.030330414 0.32043326 -2.2289047 -2.7441523 0.557099 0.3521233
-2.0887742 -1.104349 -0.63125795 -0.62814915 -1.012811 -0.5462647 -0.21055652 2.7431083
-0.5748735 -1.0050015 -0.8177184 -2.3634052 -0.70943743 1.8322424 0.34729564 0.9126125
1.1598635 -0.2733441 -2.3228977 -3.8728235 -0.7818959 -0.33110338 -2.1919658 -0.9509003
0.16919202 1.5443776 -3.6423242 2.0972505 1.6321371 -0.4229397 -0.068606146 2.9500144
-1.0916104 -0.83261454 4.5938444 0.651177 -1.5590847 -0.3096053 -1.4487816 -0.8258586
4.014538 -2.0235164 1.2412947 -2.1577747 0.21522611 -0.17737526 -3.2147572 -0.12761591
-0.10800398 -1.8484976 1.7504019 0.60687894 1.6294028 -1.1508051 0.10825296 -1.9439939
2.6563706 0.98920745 0.37425035 0.4457558 4.4139085 0.32354692 0.30358177 -1.9368035
2.0976558 -2.421903 1.692402 0.03440302 -0.11453848 -1.3271503 -1.9118712 -0.64776415
1.5664585 0.6781188 -0.502358 -1.9508436 3.8104386 0.48571306 1.4459743 1.5482807
0.621446 1.4381495 1.6478587 -0.35372615 -2.0036101 2.5398128 0.8868459 1.096213
1.5320653 -1.5042692 -0.0766639 -0.95409054 1.7984884 1.9214265 1.2504623 2.514143
-2.2248142 -0.49533218 -2.4097826 -0.47610483 1.8291234 -3.1772053 0.8231967 1.0964503
0.19229378 -4.3434153 0.8788714 0.91999835 -3.8983517 1.1285609 0.81565344 1.1303787
1.7282943 0.29349267 -0.8163198 0.9839675 2.9459882 -1.2280431 -0.4556613 -1.5795546
-1.6326172 0.98936665 -0.28420535 0.16693358 -0.7006017 0.17582862 -0.9697252 -1.8895762
-3.1810055 1.7032691 -1.5854443 -1.1867083 0.99009407 -0.7587143 0.20208053 -0.27053526
0.109299526 1.9822946 1.9024206 -0.06364132 -1.054388 -0.5697752 0.11612222 0.35021406
2.8435705 -0.0012079371 0.6037624 2.6187901 2.468829 1.459749 -0.091474734 -4.7156615
-1.8018851 -0.87243855 1.2517723 0.44985685 1.3794245 -0.31110322 2.590937 0.728412
-0.17897749 2.8343337 -2.9502249 -2.8746924 2.0470555 -0.36908424 2.7472894 0.79450655
2.6405067 0.037665516 -0.58445495 0.43899947 0.034369767 -0.7873103 0.29249674 -2.4022803
-0.33108234 2.0499957 -3.246851 -0.47581515 -1.2418766 -1.1086483 0.5214923 -2.5587566

lstm_cell.bias_ih f4 [256]
00000000: a69b a4bf 6b90 d63f f389 153f ee20 4d40
00000010: d47b 3e40 4e56 5140 9c08 843f 3f1c 2840
00000020: b901 333f 15a6 2d3f 0218 4c40 0384 0740
00000030: ed4a 74c0 e41c 253d 1eba 40c0 38f3 733d
00000040: 1939 3a40 53ef 14c0 969c 31c0 f39c 563f
00000050: 172b babf 4960 81c0 bbef cfbf 1c13 ae3e
00000060: 04ed e13f bb0f 90bf c277 513f de8b 8f3f
00000070: a8da 33bf 1968 1c40 ef58 1b40 6b26 7c3e
00000080: 484c d13f 5add ea3f 7335 0bbf e2c3 a0bf
00000090: 7ee5 23bf 33b0 b03f ffc6 79be 92c0 d23f
000000a0: b403 f53e bc44 4f3f 4517 343f 6522 babf
000000b0: 19d7 99c0 7e77 d9bf 6827 433f bca6 16bd
000000c0: 2890 8cc0 8ae8 08c0 a2bb 39c0 a515 1e3f
000000d0: 6a31 1dc0 d058 eabf 2a0c 28be 50cc 2cbe
000000e0: cfe1 0cc0 c6d7 3fc0 a85b a03f 3ccd 303f
000000f0: cd65 5e3f b8e2 4d40 fe53 1140 41d1 36c0
00000100: 11b5 96bf 4b67 21bf 9a66 a9be fd5d 5f3f
00000110: 670c c7bf 4bf4 893e a3e3 733f 36a6 15c0
00000120: d7b6 553f f92d 8abf 3291 5ac0 1639 25c0
00000130: 92eb 3c3f a5e7 b33c 5724 f1bf 61af 843e
00000140: e94b 6ebf 00fd ec3e 0663 1ebf fb88 0540
00000150: a50e 31c0 cd47 463f 7806 2cc0 c64c a4bf
00000160: e332 513f 9bf9 20bf 30d6 6d3e 8309 e2be
00000170: a93c adbf 904b 80bf d45e 8e3e 5b76 57bf
00000180: a01c 5abd e282 3ac0 9365 71be 294f 56c0
00000190: 7b6a 2440 f7d1 68bf b6ae debe 6aa1 d6bf
000001a0: ce82 c2bf b6eb e13f 6aa3 333f 194e 0f3f
000001b0: 54f9 b7be 8688 07c0 cb63 86bf ee38 63bf
000001c0: 3818 a1bf 897d 803f fe89 07bf 6670 0fc0
000001d0: dd97 23c0 47f0 853e 87bb df3e 91e9 d4bf
000001e0: 7996 1740 d286 a63f 095a 88c0 d8ca 0940
000001f0: 2dff 66be 85fe 02c0 7522 343f d8b4 e8be
00000200: 2e5d 3f40 8dd3 93be fbca 65c0 e906 13c0
00000210: 314c c73f 2ee0 04bf 2514 113f ec6a bfbf
00000220: 986c 0e40 cc2e 06c0 3422 7540 1a34 2a3f
00000230: 1675 313e 0a76 3940 aead dd3f 44ef 15bf
00000240: 3a0d 1840 6520 9140 efa0 0bc0 b8c1 793e
00000250: 313d 6abf 9468 683e fc3b 133f 7590 413f
00000260: 5a7e 1b3f 0728 08bf 77f5 8e3d 0097 e4bf
00000270: a96f 503f 4474 3e3f 9d62 1640 95e3 1a40
00000280: 644a f73f d098 c2bf ecde c0be 3fe6 f73f
00000290: 01bc ef3f 5ab8 95be d414 b53f 7b95 aa3e
000002a0: 41ad bfbe 3003 dd3f 74e5 06bf 3c36 f13f
000002b0: 07ac 433f c910 a73b a724 5540 efaf 27c0
000002c0: ca9c 01c0 15f8 a53e 92d4 c93e 9c7c 30bf
000002d0: 4957 8fbf 52a8 33c0 7770 b5bf c953 edbf
000002e0: d066 adbe 757c a53f 3f31 9ebf ca46 22bd
000002f0: 2955 e8bf 1007 a7bf 3a18 0140 90de 233f
00000300: e330 8cbe 3b24 86c0 8e7c 203f 8930 a540
00000310: 3e0c 49bf 04a6 0fc0 a3f6 cd3f d106 fb3f
00000320: 4cba 9fbf db2c 5f3f fc4d 02c0 f5de 5540
00000330: b310 6fbf c0e2 d73f 9c74 30c0 227f f3be
00000340: 458e 1bc0 e472 23bf 2f97 20c0 183f da3d
00000350: 8040 943f a5e1 7bbf 9819 aa3f 8187 3f3f
00000360: 35f2 34bf 1dce 293e 9601 eb3f 4d0a 50c0
00000370: 6846 d73e 2eca bcbf 8b5a b33f aeb5 e8be
00000380: 7d3b 4ebf 7333 0940 84d3 a1be 20da 9bbf
00000390: e010 edbe b046 3640 9aa8 09c0 f85f 4440
000003a0: 9d6c 163f 26d3 5240 c395 ddbf a375 dd3f
000003b0: a30f 18c0 be7c 86c0 4c26 e33f ac4a 4fbf
000003c0: 13d9 4cc0 e886 ddbf c52e f8bf 569d 0ac0
000003d0: 52a6 57bf 51f0 d3bf 1b05 0940 46c1 19c0
000003e0: 0544 1a40 dcaa 8abf 5c4b b13e 7a66 12c0
000003f0: 88d2 38bf 2d58 813f 88ee 1ac0 1699 b83e
-1.286 1.6762823 0.5841362 3.2051349 2.9763079 3.2708926 1.0315127 2.626724
0.69924504 0.67831546 3.1889653 2.1174324 -3.817073 0.040310755 -3.0113597 0.059558123
2.909735 -2.3271072 -2.7751822 0.83833236 -1.45444 -4.0430036 -1.6245035 0.33998954
1.7650456 -1.12548 0.8182336 1.1214559 -0.7025552 2.4438536 2.427303 0.2462403
1.6351404 1.8348801 -0.5437843 -1.2559779 -0.6402205 1.3803772 -0.24392317 1.6465018
0.47854388 0.80964255 0.70348006 -1.4541746 -4.807507 -1.6989591 0.76232004 -0.036780104
-4.392597 -2.139193 -2.9020772 0.61751777 -2.456141 -1.8308353 -0.1641089 -0.16874814
-2.2012823 -2.9975448 1.2527971 0.6906316 0.86874086 3.2169628 2.2707515 -2.8565218
-1.1774007 -0.6304824 -0.3308609 0.8725279 -1.555066 0.26944193 0.9526922 -2.3382697
0.83482116 -1.079528 -3.415112 -2.5816092 0.7379695 0.021961043 -1.8839215 0.25915053
-0.9308458 0.46286774 -0.6186985 2.0864856 -2.7665188 0.7745331 -2.6878948 -1.2835929
0.8171827 -0.6288087 0.23226237 -0.44147882 -1.3534137 -1.002306 0.27806723 -0.8416497
-0.053249955 -2.9142385 -0.23573904 -3.3485816 2.568999 -0.9094538 -0.4349267 -1.676801
-1.5196168 1.7650058 0.70171225 0.5597854 -0.3593241 -2.1177077 -1.0499204 -0.8875874
-1.2585516 1.003831 -0.52944934 -2.2412353 -2.556144 0.2615988 0.4369776 -1.6633779
2.3685591 1.3009894 -4.2609906 2.1530056 -0.2255828 -2.0467846 0.7036508 -0.45450473
2.9900622 -0.28872338 -3.590514 -2.2972968 1.5570127 -0.5190457 0.56671363 -1.4954505
2.225378 -2.0966063 3.8302126 0.6648575 0.17329821 2.8978295 1.7318628 -0.58568215
2.3758073 4.5352044 -2.1816976 0.24390304 -0.9149962 0.22696143 0.57513404 0.7561105
0.6073967 -0.53186077 0.069804125 -1.7858582 0.8142038 0.7439616 2.3497689 2.4201405
1.9319577 -1.5202885 -0.37670076 1.936714 1.8729249 -0.29242212 1.4146981 0.3331717
-0.3743687 1.7266598 -0.5269387 1.8844676 0.7643437 0.0050984365 3.330362 -2.6201131
-2.0251946 0.32415834 0.3941999 -0.6894014 -1.1198512 -2.8071485 -1.4174947 -1.8541194
-0.33867502 1.2928606 -1.2358779 -0.03961829 -1.8150989 -1.304903 2.0171037 0.6401148
-0.27381048 -4.1919227 0.62690055 5.1621747 -0.78534305 -2.2445078 1.6090893 1.9611455
-1.2478728 0.8717782 -2.0360098 3.3417332 -0.93384856 1.6866074 -2.7571173 -0.47557932
-2.4305584 -0.63847184 -2.5092275 0.106565654 1.1582184 -0.9839118 1.328906 0.7481614
-0.7068208 0.16582532 1.8359859 -3.2506287 0.42045903 -1.47492 1.4012007 -0.4545111
-0.8055952 2.1437652 -0.31606686 -1.2175941 -0.46301937 2.8480644 -2.1509156 3.0683575
0.5875948 3.2941375 -1.7311329 1.7301525 -2.3759544 -4.2027273 1.7746062 -0.80973315
-3.2007492 -1.7306795 -1.9389273 -2.165853 -0.8423816 -1.6557714 2.1409366 -2.4024215
2.4104016 -1.0833392 0.34627807 -2.2875047 -0.72196245 1.0105034 -2.4208088 0.36054295

lstm_cell.bias_hh f4 [256]
00000000: 5ac0 a8bf 6677 e43f 4733 ba3e 78af 4840
00000010: 7419 4340 4e08 5240 1216 6e3f 5c61 2a40
00000020: 39a2 383f 36e6 273f 9256 4c40 b39e 0f40
00000030: 4da1 7ec0 3f74 0c3e 2309 37c0 5f46 cb3d
00000040: c9fc 3940 ced4 1dc0 b6a9 31c0 83c7 363f
00000050: b75d bbbf 9a81 79c0 eba1 dbbf 8cda b83e
00000060: e423 dc3f 9b24 9dbf c838 863f 4e64 823f
00000070: 6a00 1dbf 4945 1840 6f3c 2540 2a2d 7e3e
00000080: c8c8 d33f 7af3 e73f c9b5 21bf 32eb 96bf
00000090: ae9c 3abf b51d c83f 6090 57be 92ab e03f
000000a0: 3e93 883e 6c99 633f c632 5d3f 952e abbf
000000b0: e99a 9bc0 5eb3 d4bf b8de 463f c792 183b
000000c0: 28a6 8cc0 aa7d 05c0 1276 32c0 d495 273f
000000d0: 0a8d 29c0 70d2 eebf be01 95bc 1699 81be
000000e0: 3f73 09c0 5aa9 37c0 283b 9a3f 1edc 113f
000000f0: 2dcb 4f3f 6898 4b40 f292 0840 8111 32c0
00000100: a27e 88bf 4b8d f8be 7a72 98be 1c03 723f
00000110: e760 bebf eb2c 8a3e 0097 843f 46e0 18c0
00000120: b235 423f 2866 9cbf c2fa 5ec0 66a8 26c0
00000130: 3fc0 283f 759b 7c3e 5518 d9bf acf7 9d3e
00000140: a372 91bf 5133 c53e a5ce 08bf 7be1 0240
00000150: 5576 30c0 fd35 263f 198f 2dc0 66d7 a4bf
00000160: 0363 4f3f 4d6b 0bbf 326e 1a3e e3ed f1be
00000170: e95e a8bf 522a 77bf 32f0 7d3e 169e 63bf
00000180: 1af0 b2bd e24e 3bc0 063e 91be 190b 4ec0
00000190: 9be4 2940 a26a 82bf 55a1 9fbe 484f e5bf
000001a0: 82b3 abbf c694 ee3f f983 5e3f c8a1 1c3f
000001b0: 6472 95be e606 03c0 7394 8bbf 0e23 64bf
000001c0: bb6f 82bf 8d58 7c3f 0ac5 afbe f6b0 12c0
000001d0: 9106 1dc0 e15f 713e bc68 c13e a3ec dcbf
000001e0: 39d4 1240 c214 b03f 19c3 81c0 10e2 0c40
000001f0: edb3 63be 65fd 08c0 c91e 113f 58b7 c9be
00000200: 6e3d 3b40 666c 05bf 7b5e 65c0 4951 16c0
00000210: 511a b83f 2e7d 01bf 8086 e93e 1cb6 bebf
00000220: 800f 0840 4ce5 03c0 d45b 7e40 6a99 453f
00000230: 57bf 643e 0a25 3a40 6ec6 c33f fccc 29bf
00000240: 69d6 2340 f5e2 8d40 ffdb 0fc0 5860 403e
00000250: 7180 5dbf 24e3 463e 9d09 103f fb0a 253f
00000260: c8c2 523f 1735 07bf c257 723d c053 e9bf
00000270: ba73 483f 4449 4b3f 3dc2 1b40 1d04 0f40
00000280: a643 eb3f 901d acbf fba8 adbe bf5f fe3f
00000290: 2194 e33f de52 79be 0b47 a53f ee5d 833e
000002a0: 0dc9 b6be 60e7 d53f e436 0ebf 5c3e f33f
000002b0: 4a25 4e3f 075e 723d 07cf 5340 4f82 23c0
000002c0: 8a6c 08c0 e5ca 673e 3257 c63e 9665 24bf
000002d0: 1a0b a9bf 822c 32c0 5c37 a2bf 79a2 f2bf
000002e0: 2102 d1be 1516 b93f 1f25 9fbf 4e63 98bd
000002f0: 39f3 fabf af8f bebf 6591 e53f c050 1a3f
00000300: 9aaa 63be d3df 84c0 2e51 1f3f 554c aa40
00000310: 6bda 4fbf d4e9 0fc0 b3e7 b73f fe4e ef3f
00000320: e447 91bf 5b45 513f 5c5c 01c0 b5f4 4d40
00000330: 4fa1 83bf 80fa d63f 4c0d 30c0 868a 2abf
00000340: 0545 0fc0 e1a3 38bf ff2d 1ac0 859b eb3d
00000350: 7d28 ad3f ef7d 84bf fada b03f e126 433f
00000360: 156c 45bf 2fff 733e 7681 ea3f 5d8b 53c0
00000370: 6834 f53e 8ea5 c0bf aa79 ba3f eefb 06bf
00000380: cc90 35bf 1b39 0c40 02e3 78be 10b0 87bf
00000390: 40d0 f4be 30eb 3640 ca2c 0ac0 18b9 4740
000003a0: 1fc3 243f d619 5540 203f ccbf 4380 de3f
000003b0: c78d 21c0 1eb8 87c0 1c6d e03f 5d0e 2ebf
000003c0: a7b7 49c0 0890 e2bf e5fd e8bf 66e8 06c0
000003d0: a5fe 6abf eb43 c3bf f364 0940 9918 0ec0
000003e0: f342 1040 16f9 7dbf a866 a83e 2e02 0fc0
000003f0: 063b 44bf ae63 7f3f e88b 27c0 c6c1 c93e
-1.3183701 1.7848938 0.36367247 3.1357098 3.0484285 3.2817569 0.93002427 2.6621923
0.7212253 0.6558565 3.1927838 2.2440612 -3.978595 0.1371622 -2.8599327 0.099255316
2.9060538 -2.4661136 -2.7759833 0.7139818 -1.4637975 -3.8985353 -1.7158788 0.36104238
1.7198453 -1.2276796 1.0486078 1.018686 -0.61328757 2.3792288 2.5818136 0.24821916
1.6545649 1.8121178 -0.6316801 -1.1790526 -0.72895324 1.5634066 -0.21051168 1.7552359
0.26674837 0.8890598 0.864056 -1.3373591 -4.86266 -1.6617239 0.7768359 0.0023280845
-4.3952827 -2.085795 -2.7884564 0.65462995 -2.6492333 -1.865797 -0.018189307 -0.25312108
-2.147659 -2.8697114 1.2049303 0.569765 0.81169397 3.1811771 2.1339688 -2.7823184
-1.0663645 -0.48545298 -0.2977484 0.94535995 -1.4873322 0.26987395 1.0358582 -2.3886886
0.7586318 -1.2218676 -3.484055 -2.6040282 0.65918344 0.24668677 -1.696055 0.3085302
-1.1363109 0.38515714 -0.53440315 2.0450122 -2.7572224 0.6492613 -2.711859 -1.2878234
0.81010455 -0.54460603 0.15081099 -0.47251806 -1.3153964 -0.9654895 0.24798658 -0.88913095
-0.08737202 -2.9266896 -0.28367633 -3.2194273 2.654578 -1.0188792 -0.31177774 -1.791482
-1.3414156 1.8639152 0.86920124 0.6118436 -0.29188836 -2.047296 -1.0904678 -0.8911599
-1.0190347 0.9857262 -0.34330016 -2.2920508 -2.4535258 0.23571731 0.37775218 -1.7259716
2.294203 1.3756335 -4.0550656 2.2012978 -0.22236605 -2.140466 0.566876 -0.39397693
2.9256244 -0.5211853 -3.5838916 -2.3487113 1.4383031 -0.50581634 0.45610428 -1.4899325
2.125946 -2.0608702 3.9743547 0.77187216 0.22338615 2.9085107 1.5294931 -0.66328406
2.5599616 4.4339547 -2.2478025 0.18786752 -0.8652411 0.19422585 0.5626467 0.6446988
0.8232846 -0.52815384 0.059165724 -1.8228683 0.78301585 0.7940867 2.4337304 2.234626
1.838002 -1.3446522 -0.33917984 1.9872969 1.777958 -0.24348018 1.2912306 0.256576
-0.35700265 1.6711235 -0.55552506 1.9003406 0.8052565 0.059171703 3.309511 -2.5548284
-2.1316247 0.22635992 0.387384 -0.6421751 -1.3206513 -2.7839665 -1.2673144 -1.8955833
-0.40821937 1.4459864 -1.2433203 -0.07440816 -1.9605476 -1.4887599 1.7934996 0.60279465
-0.22233048 -4.1523223 0.62233245 5.321818 -0.81192654 -2.2486467 1.4367584 1.8695982
-1.1350064 0.81746453 -2.0212622 3.2180607 -1.0283602 1.6795197 -2.7508116 -0.6661762
-2.2385876 -0.7212506 -2.4090574 0.11504272 1.3527981 -1.0350932 1.3816826 0.762312
-0.77118045 0.23827814 1.8320758 -3.305381 0.47891545 -1.5050523 1.4568379 -0.52728164
-0.7092407 2.1909854 -0.24305347 -1.0600605 -0.47815132 2.8581047 -2.1589837 3.1206722
0.6436023 3.329702 -1.5956764 1.7382892 -2.5242784 -4.2412252 1.7533298 -0.67990667
-3.1518342 -1.7700205 -1.8202482 -2.1079345 -0.91794807 -1.5255102 2.1467865 -2.2202513
2.2540863 -0.992082 0.3289082 -2.234508 -0.7665256 0.99761474 -2.6179142 0.3940565

linear0.weight f4 [32, 384]
00000000: a459 74bd 1c5d 733b 308d b3bd ee90 b0bc
00000010: 41f1 893d 50bc 603d 0be8 8bbd 9d7d 383d
00000020: 0aa8 ca3d 6a4a b63d 4c80 5dbd bcc8 413d
00000030: c95d 4a3d 3668 783d 768e d8bd d0b6 cfbd
00000040: 20b2 d73c 1a44 71bd aea6 91bd 8a15 a43a
00000050: f387 c4bc b4e0 01bd 085d aabc 6223 cfbd
00000060: 7eab 58bd 81bd c6bd 1b44 293c 6dc9 f83c
00000070: 3114 d23d acae a03c 03be b6bd e146 ae3d
00000080: f69c b3bd 82f8 433c a17b 933c 67a5 dbbb
00000090: fb4e 73bd 66e0 72bd 4bb8 68bc 6450 00be
000000a0: 91e3 9d3d 97e7 a43d 634d 8a3d b172 27bd
000000b0: 47cb febc b13d 683d c1cd bfbc 858f 0abd
000000c0: 614c c03d a784 923b 050f a33d 13f2 61bd
000000d0: 8b5d 883c ab90 b4bd e07b e33b c3fd 87bd
000000e0: e67b 5fbd a1f5 f53d 8819 f63c 3a85 3c3d
000000f0: 2b8b 4dbd a270 8c3d 9033 c8bc abfd 953b
00000100: fb17 1cbc 2133 263d 3df1 47bd b5fa 38bd
00000110: 3730 5c3d 485f 113d 03cb 9bbd 3b9f 9b3d
00000120: bece 893d 9373 ad3d 64e8 85bd d1da 933d
00000130: 66d1 a93d 1925 fb3d f5c4 a6bd 3481 66bd
00000140: 0485 6e3c 6017 75bd e0ae fcbd c188 1d3b
00000150: 840b d7bd 0a8f 76ba 5c53 85bd ca64 b8bd
00000160: 1f1e 9dbd 5aeb 42bd 0057 9cbd 7d4b de3d
00000170: 03b4 bd3d ae21 5ebd e3c9 a3bd e40a 9b3d
00000180: 0b7d d0bd edd8 573d 85d0 9d3d b396 e1bb
00000190: 8a05 15bd a800 c4bd 44e3 90bb a0f8 3abd
000001a0: ffe9 e83d 9eba 7fbc 6a0d e8ba 207e d6bd
000001b0: c033 94bd c743 043e cdcc 38bd 2bb3 c83d
000001c0: ab8e 723d 32c3 1d3c 30ef e83d 7dda acbd
000001d0: 7c6e 9f3d f5f5 33bd 4303 783d b485 01bd
000001e0: 5196 b6bd ed8a a93d 5ab1 7b3d 3a1d 9f3d
000001f0: 72f1 8ebd 896b c93c c860 78bd f137 1e3d
00000200: 21d9 73bc 3a81 16bd fd39 b6bd 21c6 d1bc
00000210: 31fe c5bc 5155 cbbd ef5c ffbd ef06 debd
00000220: 00fb 3c3d 5f9b cebc ffdc d5bc 5a82 23bd
00000230: e120 debd aaaf 9dbd d0e0 e83b 2fbc d8bd
00000240: 171c 8cbc afbf 5dbc 3f7c 71bd 4707 afbd
00000250: b712 09bd ffd0 4dbd 2f73 c6bd a5ff 33bd
00000260: 2189 70bc 3fa4 ddbd 01c5 203d 0651 a1bd
00000270: a13b 97bd f633 a9bd f747 8ebd 3a01 a8bd
00000280: f755 09bc 7f3f 9dbd 2902 80bc ca07 93bc
00000290: 51d1 cebc e1d5 43bd ff3e 3bbc e6e4 21bd
000002a0: 4765 8ebd 8622 163d efd5 c6bd 5a0b a1bd
000002b0: 6819 a6bd 4f0a ddbd e990 cfbc e1af e5bc
000002c0: 30a4 96bc b128 003d 27f1 80bd 3fd1 c8bc
000002d0: f0cb eb3b 2f02 03bd 54c1 dfbd 71f2 49bd
000002e0: e156 5dbc 0082 7abd c128 83bd a60a a9bc
000002f0: 3133 9abd 8104 c3bd 1a23 a8bd 0fd2 d1bd
00000300: f5fd 5abd 4e7b d93c 6b12 ed39 881a 51bc
00000310: ca27 09bd 6cbd 85bd 2863 00bd 2c59 bcbc
00000320: 410f dc3c e6da e1bc 3dc7 ee3c 735d f93b
00000330: 7ae9 9c3d 4987 cf3d d364 763c dcc8 3f3d
00000340: 3af8 8abd 7ad1 3dbd 2465 4b3d 9804 a73d
00000350: fb19 093d a4f6 8a3d b095 133d e4ae 6a3c
00000360: 3695 a83c 1eab 3f3b 086f 80ba a79f 2ebd
00000370: 5cb9 26bd 4239 2bbd b1ac 42bd 6a1a 4e3d
00000380: e26b 92bd 7fc8 41bb 90d1 ed3d def6 c23d
00000390: 9438 f73b 2aa3 ff3c e3a1 053c 1ba8 e73c
000003a0: 31ed 4b3d 0f80 1b3d 9a92 29bc d1e5 4ebd
000003b0: dfe8 1dbd 002f 3439 6fa7 443d f075 713c
000003c0: 1161 42bd 4b07 363d e13c d7bb 807a 3dbd
000003d0: df50 003d 1f42 373d f7d9 0cbd a8ac 033d
000003e0: 8125 3d3d cfab 423d 5fc1 483d bf5a 4fbc
000003f0: 9f32 aa3c 30bc 1f3d 07e2 8abc 0063 7fbb
-0.0596558 0.0037134355 -0.08767164 -0.021553483 0.06735469 0.05486709 -0.06831368 0.04504167
0.09895332 0.08900912 -0.05407743 0.047310576 0.049405847 0.06064626 -0.10574047 -0.101422906
0.026330054 -0.058902837 -0.0711187 0.0012518626 -0.023990607 -0.031708434 -0.020796314 -0.101141706
-0.052897923 -0.09704114 0.010331179 0.030369485 0.102577575 0.01961454 -0.089229606 0.08509613
-0.08770172 0.011961104 0.018003287 -0.006703067 -0.059401494 -0.059296034 -0.014204095 -0.12530667
0.077094205 0.08051985 0.067530416 -0.040880863 -0.03110279 0.05669946 -0.02341354 -0.033828277
0.09389568 0.00447138 0.07961849 -0.0551625 0.016646167 -0.08816656 0.0069422573 -0.06640198
-0.054561518 0.120097406 0.030041471 0.046025492 -0.05018155 0.068574205 -0.02443865 0.0045773587
-0.009527202 0.040576104 -0.048814047 -0.045160968 0.05375692 0.035491258 -0.07607081 0.0759873
0.06728886 0.0846931 -0.065384656 0.0721947 0.08291893 0.12262935 -0.08143035 -0.05627556
0.014558081 -0.059836745 -0.12338042 0.002403781 -0.10500243 -0.000940547 -0.0651004 -0.09003599
-0.07671761 -0.04758773 -0.076337814 0.10854242 0.0926285 -0.05423134 -0.07997491 0.075704366
-0.101801 0.05269711 0.077057876 -0.00688442 -0.036382236 -0.09570438 -0.0044216234 -0.045647264
0.11372756 -0.015608458 -0.0017704193 -0.10473275 -0.07236433 0.1291648 -0.04511719 0.097997986
0.05921809 0.009629058 0.113737464 -0.08440111 0.07784745 -0.043935735 0.060549986 -0.03162165
-0.08915389 0.08278451 0.061448433 0.077692464 -0.06979646 0.02458741 -0.060639173 0.03862757
-0.0148833105 -0.036744334 -0.08897779 -0.02560717 -0.02416906 -0.09928382 -0.124688976 -0.10841166
0.04613781 -0.025220571 -0.026106356 -0.039919235 -0.10846115 -0.07699521 0.007106878 -0.10582768
-0.017103238 -0.01353447 -0.05895638 -0.0854631 -0.033465113 -0.050248142 -0.09689938 -0.043944973
-0.014681132 -0.10822343 0.039250378 -0.07876782 -0.0738442 -0.08261864 -0.0694732 -0.08203359
-0.008382312 -0.076781265 -0.01562603 -0.01794805 -0.025246294 -0.047811393 -0.011428594 -0.039524935
-0.06952911 0.036654018 -0.09708773 -0.07863493 -0.081103146 -0.10792982 -0.025337653 -0.028037967
-0.018388838 0.031288806 -0.06295996 -0.024513839 0.007195942 -0.031984504 -0.10925546 -0.049303476
-0.013509483 -0.061159134 -0.064042576 -0.02063496 -0.07529295 -0.095223434 -0.0820982 -0.102451436
-0.05346485 0.026548054 0.00045217885 -0.012762673 -0.03348521 -0.0653027 -0.031344563 -0.02299174
0.026862742 -0.0275702 0.029147739 0.007610017 0.076617196 0.101332255 0.015038687 0.046822414
-0.06785627 -0.04634235 0.049657002 0.08155173 0.033472043 0.06785324 0.036031425 0.014323924
0.020578962 0.002924628 -0.0009798715 -0.042632725 -0.040704116 -0.041802652 -0.047527973 0.05031816
-0.07149483 -0.0029568968 0.116122365 0.095197424 0.0075445864 0.031205732 0.008156273 0.028278401
0.04978675 0.037963923 -0.010349894 -0.05051214 -0.03855216 0.00017183647 0.04801124 0.014737591
-0.04745585 0.04444055 -0.0065685366 -0.046259403 0.031327125 0.044740792 -0.034387555 0.03214708
0.046178345 0.04752713 0.049012538 -0.012655913 0.020776091 0.03899783 -0.016953481 -0.003896892

linear0.bias f4 [32]
00000000: 9504 c6bd c7d6 27be 1744 c53d 81e5 8ebe
00000010: 3beb 59bc 1e84 d1bd 81cb ebbc b077 d43e
00000020: 4f88 23be 3f6b a6bd 11df e6be b745 84be
00000030: c046 8dbe 1590 ccbe 2498 893d 1ac8 68be
00000040: 32c8 91be 1d59 7c3d 75e4 4abe f1c5 b7bd
00000050: 112b 75bd a6df 6dbc 9891 ba3d 472e 3f3e
00000060: 4afb 6b3c 24ea 34be c961 90bb 59a3 34bd
00000070: 2b0f 463d 9116 8fbd 10de 6ebe c6a8 5abe
-0.09668843 -0.16390525 0.09632128 -0.27909473 -0.013300712 -0.102302775 -0.028783562 0.41497564
-0.15969966 -0.08125924 -0.4509206 -0.25834438 -0.2759304 -0.39953676 0.06718472 -0.22732583
-0.2847305 0.061608423 -0.19813712 -0.08973301 -0.059855524 -0.014518654 0.09109801 0.18669997
0.014403174 -0.17667443 -0.004406188 -0.044101093 0.04835431 -0.06986726 -0.23326898 -0.21353444
