model/1715146453/3_Pee1_global_model_1.pth (torch, 331092 bytes, 17 tensors)

conv1.lin_l.weight f4 [16, 1]
000000 71 2a 22 bf ef ad 5e bc fb bb 2f bf 91 ff 26 bf
       -0.6334601 -0.013591274 -0.6864621 -0.65233713
000010 e1 4e 00 bf ed 7c 90 3e 11 0e 56 bf fc 3d 19 be
       -0.5012036 0.2822031 -0.83615214 -0.14965051
000020 d6 b5 22 bf ef 24 a7 3d 38 5f 88 be b2 b2 61 bf
       -0.6355871 0.081613414 -0.26635146 -0.8816329
000030 89 6c 54 3d 3f a2 f8 be 74 3c c5 3e 61 8f e8 be
       0.05186132 -0.48561284 0.38522685 -0.4542189

conv1.lin_l.bias f4 [16]
000000 06 cb 1e be 5a bf 17 3f 26 f7 89 bf 5f c6 be 3e
       -0.15507135 0.59276354 -1.0778549 0.3726072
000010 1f 0d e3 3e 5e 17 8f be b1 bd 51 bf 7d e1 ca 3e
       0.44345948 -0.27947515 -0.8193007 0.3962516
000020 ff cb 2a 3f 64 4a 33 bf 8f e3 21 3f 65 f6 71 bf
       0.66717523 -0.70035386 0.6323785 -0.94516593
000030 dd 71 ff 3e 50 7c 84 be 44 25 cb be d0 53 d9 bd
       0.49891558 -0.25876093 -0.3967687 -0.10611689

conv1.lin_r.weight f4 [16, 1]
000000 d1 bd 7f bf a1 87 00 bf 93 fe 40 3e b1 4b 5b bf
       -0.9989901 -0.50206953 0.18847112 -0.8566237
000010 11 6b a5 be 8e 9d 15 3f 1b 56 38 bf cf 51 f5 3d
       -0.32308248 0.58443534 -0.72006387 0.119784944
000020 8f ee f9 be 73 6c 52 bf 2f 62 57 bf 29 2b d5 3d
       -0.48814818 -0.8219673 -0.8413419 0.10408623
000030 19 15 44 bf e1 b7 4b bf 96 9c 8a be 80 34 65 bd
       -0.7659469 -0.7957745 -0.2707259 -0.05595827

conv2.lin_l.weight f4 [64, 16]
000000 b1 99 ac bd 5f 13 0f 3e 9f b9 b8 bc a9 91 0f 3e
       -0.08427752 0.13972233 -0.022549449 0.14020409
000010 89 3a 0a bd 81 04 62 bd f0 47 17 be d0 2f c8 3d
       -0.03374723 -0.055180077 -0.14773536 0.097747445
000020 5f 6a fc 3d 2f 9a 3e 3d 27 c1 06 be 17 45 0f 3e
       0.12324976 0.04653376 -0.1315962 0.139912
000030 aa 5e 9d 3d 8a 2e 24 3e 9f 3d c3 be 51 2e 42 be
       0.07684071 0.16033378 -0.3813295 -0.18962981
000040 46 96 17 3e c6 e1 93 be 41 ad a4 3d f1 6e 2d 3e
       0.14803419 -0.2888319 0.08040858 0.16936852
000050 2f 3d 90 3d 31 a4 49 3d 61 3d a1 bd 38 c6 86 be
       0.0704292 0.04922885 -0.07873035 -0.26323104
000060 71 f1 56 3e ef e9 88 be e1 67 72 be 96 ce 9c bd
       0.2099054 -0.26740977 -0.23672439 -0.07656591
000070 81 17 61 be a0 61 1b be 16 2b 99 be af 1f e4 bd
       -0.21981622 -0.1517396 -0.29915684 -0.11138856
000080 21 e9 85 bd 55 0c b7 bd 0c 13 24 3e e0 79 60 bc
       -0.065386064 -0.08937899 0.16022891 -0.013700932
000090 40 88 bc 3b 65 2c 03 bc a1 58 e2 3d 01 30 13 3e
       0.005753547 -0.00800619 0.11052061 0.14373781
0000a0 25 f3 b6 3d ef 7e ca bd c0 a1 23 bc 9e e2 bf 3d
       0.08933095 -0.09887492 -0.009987295 0.09369396
0000b0 c7 05 8a bd 81 d2 04 be 20 05 96 be 60 d2 48 be
       -0.06739383 -0.12970926 -0.29300785 -0.19611502
0000c0 af 3e f8 3d af a2 6a be cf 22 c9 bd 51 57 e8 3d
       0.12121331 -0.22913621 -0.09821092 0.11344779
0000d0 bf 00 e9 3d 09 92 90 be 80 2a 91 3c 76 5c 1e be
       0.113770954 -0.28236416 0.01772046 -0.15464959
0000e0 b0 fc be 3c 5b ef b6 be c1 80 22 3e 40 de 86 bc
       0.02331385 -0.3572949 0.15869428 -0.016463399
0000f0 df 2e aa be 5f ce 3f 3e c0 a3 d5 3d 71 b9 fe bd
       -0.33238885 0.18731068 0.104316235 -0.12437714
000100 8f 6e 43 3e 31 22 de 3d e5 1a 3a be e6 51 a8 3d
       0.19085144 0.10846365 -0.18174322 0.08218746
000110 a0 d9 53 bc f0 2b 5e be 50 09 2f 3e ff bf a6 be
       -0.012930304 -0.21696448 0.17093396 -0.32568356
000120 6f f4 1f 3e 51 d1 72 be 00 bc 7e 3e e1 6c 80 bd
       0.15620588 -0.2371266 0.24876404 -0.06270767
000130 91 d3 1d be c1 17 23 be ef 7a a3 be 81 48 39 be
       -0.15412737 -0.1592703 -0.31929728 -0.18094064
000140 ef 9d 48 be 41 f9 8e bd 3f c6 84 be 41 8a f4 bd
       -0.19591497 -0.06981135 -0.259325 -0.11940432
000150 41 a0 75 3e f6 3b 13 be b0 87 de bd 0b 5b 2b bd
       0.23986913 -0.14378342 -0.10865724 -0.041834872
000160 c1 47 74 3e df 99 72 be bf 38 1b 3e ef fa c2 be
       0.23855497 -0.2369151 0.15158366 -0.38082072
000170 da c7 a9 be f0 ea e8 3c 31 49 e6 be 90 36 00 be
       -0.33160287 0.02843234 -0.44977716 -0.12520814
000180 21 68 53 be ba 4e a3 bd c1 7a da bd c0 86 9e 3b
       -0.20645191 -0.07974 -0.10667945 0.004837841
000190 01 f7 51 be 47 67 9d be e1 83 22 be 1c 54 8b be
       -0.20504381 -0.30742857 -0.1587062 -0.27212608
0001a0 a0 d8 1c 3c d8 ee 1c 3e 21 42 4a be 1b cf 2c 3e
       0.009573132 0.15325487 -0.19751789 0.1687588
0001b0 60 df 36 3e 0f 5b 7e 3e 6a 41 0a be f0 73 e0 3c
       0.17858648 0.24839424 -0.13501516 0.027399033
0001c0 11 b3 e3 3d 0f a7 51 be 4f c7 e9 bd ef 91 c8 bd
       0.111181386 -0.20473884 -0.11414968 -0.097934596
0001d0 00 b4 0e 3e 81 53 0c be 21 70 2b be cf 28 91 be
       0.13935852 -0.13703729 -0.16741993 -0.28351447
0001e0 df c2 e7 bd 21 5c bc bc 6f f2 3c be 97 a4 84 be
       -0.113164656 -0.02299315 -0.18451856 -0.25906822
0001f0 a1 17 ae bd c1 83 cb bd 4f a0 4d be 81 0e 18 be
       -0.085006006 -0.099372394 -0.20080684 -0.14849283
000200 d0 67 f0 bc f0 c5 30 3d c1 82 01 be 5f 91 c2 bd
       -0.029346377 0.043157518 -0.12647535 -0.095003836
000210 70 02 07 3e df 2c 07 be bf 44 7b be 1f e8 f2 3d
       0.13184524 -0.1320071 -0.24537943 0.1186068
000220 f1 a2 d7 3d c1 92 54 3e 01 00 c4 3d 00 2c d8 bb
       0.105291255 0.20759107 0.09570313 -0.006597042
000230 41 00 7f 3d f1 dc 52 3e a0 4a 09 bc 21 24 1c be
       0.0622561 0.20592095 -0.008379608 -0.15248157
000240 10 a9 4a bd fb b3 37 be 16 f4 97 3d 71 36 91 3d
       -0.049477637 -0.17939751 0.074196026 0.07090462
000250 9f 3a 4b be 21 f4 68 be 6f 0f 5e be 7f 1a e3 bd
       -0.19846581 -0.22749378 -0.21685575 -0.11089038
000260 d0 e0 03 3d f1 33 d1 3d bf e3 76 be fa 3e 9d be
       0.03219682 0.10214985 -0.24110316 -0.3071211
000270 51 43 bb 3d a1 6b 71 3e 8f 86 ea 3d 00 82 15 3d
       0.09143699 0.23576213 0.11451446 0.03650093
000280 70 d5 83 bd 70 94 cc bc 91 15 08 3e 01 6d 15 3e
       -0.06437194 -0.024973124 0.13289477 0.14592363
000290 e1 75 45 bd bf 1b 4d be 70 41 ed bd 05 24 31 3e
       -0.04820812 -0.20030116 -0.11584747 0.17298897
0002a0 41 17 00 be 0f 5f 82 3d 01 45 cf 3d 10 53 fc bd
       -0.1250887 0.06365787 0.10120583 -0.123205304
0002b0 1b 8b 2e be bf e5 57 3e 1b d7 2f 3e 50 e2 29 bd
       -0.17045252 0.21083735 0.171719 -0.041475594
0002c0 a1 da 45 be d1 ce 31 be 00 24 eb 3c 50 64 fe 3d
       -0.19321682 -0.1736405 0.02870369 0.12421477
0002d0 21 38 5f 3e 1f 17 b7 3d 60 fa 62 3c 6a a8 23 be
       0.21798755 0.08939957 0.013853639 -0.15982214
0002e0 b1 a5 18 3e a6 d5 9f 3a 4f d7 72 be 3f ff c0 bd
       0.14906956 0.001219441 -0.23714946 -0.09423684
0002f0 b1 bd 8b bd 30 b4 8c 3c b6 61 9e be 81 b5 4b be
       -0.0682329 0.017175764 -0.30933923 -0.19893457
000300 cf b7 48 be 9f 04 0b be 4f 9f 9b bc 0f 93 ff bd
       -0.19601367 -0.13575982 -0.018996863 -0.12479221
000310 a1 78 57 3e df 62 d3 bd e0 9e 14 3d bf 69 25 be
       0.2104211 -0.103215925 0.036284328 -0.1615362
000320 8f 84 02 be 0b 1a af bd cf b3 06 3e 1a b8 19 3d
       -0.1274588 -0.08549889 0.13154529 0.03752909
000330 af 15 d3 3d e1 cb 56 3d c6 24 16 3e a0 58 c1 3c
       0.1030687 0.052440528 0.14662465 0.02360183
000340 61 61 7a bd 5f 18 02 be eb 8d 04 bd 11 af 24 3e
       -0.061128024 -0.1270461 -0.032361906 0.16082408
000350 51 ac c3 3d 99 f6 83 3d a0 82 24 be 97 aa a6 3c
       0.09554351 0.06443519 -0.16065454 0.020345015
000360 cf 5f 35 3e 0f dc 02 3e f5 1e 32 be 2f 29 af bd
       0.1771233 0.12779258 -0.17394622 -0.08552777
000370 77 a0 95 3c 90 d7 11 bd 9e 61 99 3c f0 3c 89 3d
       0.018264992 -0.035605967 0.018723305 0.06701076
000380 1f cc 41 3e e6 6c a2 3d 81 52 3a 3e f0 80 fe 3d
       0.18925522 0.07930927 0.18195535 0.124269366
000390 10 ec 58 be 19 31 0c be d0 4a 60 3e 10 fa 99 bc
       -0.211838 -0.13690604 0.21903539 -0.018795997
0003a0 b7 63 0c be af 7a 6d 3e e0 a8 e9 3c 11 0f 0c be
       -0.13709913 0.23191331 0.028522909 -0.13677622
0003b0 1f 1e 5f be 40 41 e3 bb 2f 33 8a 3d 61 da 54 bd
       -0.21788834 -0.0069352686 0.06748044 -0.051966075
0003c0 71 b6 14 3e c7 cc 8b 3e 21 ac 0f 3e d0 47 3b 3e
       0.14522721 0.2730467 0.14030506 0.18289113
0003d0 e1 79 f3 3d 51 18 c3 3c 80 3a 82 bc ff 02 5e 3c
       0.11888481 0.023815306 -0.015897036 0.013550519
0003e0 cf 51 64 be 57 69 8b 3c 01 c4 ed 3d a6 2f 9c 3c
       -0.22296833 0.017018003 0.116096504 0.01906569
0003f0 ff 80 0c bc e1 0d cc 3d 31 3f 5a 3d 00 ff e5 3b
       -0.008575677 0.09963585 0.05328292 0.0070189238

conv2.lin_l.bias f4 [64]
000000 9a e6 96 bd 5f ee f7 bd 3f c5 a6 be 71 74 bb be
       -0.073682025 -0.121060126 -0.32572362 -0.36612275
000010 0f ac dd bd 8f 1b b2 be 51 22 2d 3e ff 1e 4d 3d
       -0.10823833 -0.3478665 0.16907622 0.05007839
000020 e0 d7 50 3d 0f 4d 4f be 90 96 4f 3d 21 4d 09 3d
       0.050987124 -0.2024424 0.050680697 0.03352082
000030 6f a0 01 3e 14 57 86 3c af 9d 56 be af fb 75 be
       0.12658857 0.016398944 -0.20958589 -0.24021791
000040 66 99 9e bd 3f 83 6c be a0 e6 95 be b1 dd 9d be
       -0.07744102 -0.23096941 -0.29277515 -0.308332
000050 91 9f 71 be 5b f2 ac 3d c1 cf cd bd 1f a6 62 bd
       -0.23596026 0.08444663 -0.100493915 -0.055334207
000060 4b 8a 2f 3e 11 b2 1d be d0 57 02 3e 21 1d ca bd
       0.17142598 -0.15399958 0.1272881 -0.09868837
000070 77 31 88 be 6f 19 ac 3d 61 81 94 be f1 e3 e0 be
       -0.2660024 0.084032886 -0.29004958 -0.43923905
000080 bf 55 5a be 2f 69 49 3e 51 ae df bd e6 68 28 be
       -0.21321772 0.1966903 -0.1092192 -0.16446266
000090 7f 69 9b be ea 3e 21 3e f0 81 30 3e 50 6e e4 3d
       -0.30353925 0.15746656 0.17237067 0.11153853
0000a0 a6 18 22 bd 7f 52 db bd 78 f1 07 bc 6a 62 16 be
       -0.039574288 -0.10709094 -0.008297317 -0.1468598
0000b0 27 2d f0 bd c1 dc cf bc 41 83 4f be 80 a5 c6 be
       -0.11727362 -0.025373818 -0.20264913 -0.3879814
0000c0 a6 f0 a1 be 85 77 b5 be 41 ca 0f 3d a1 ff 56 be
       -0.31628913 -0.3544275 0.035104994 -0.20995952
0000d0 b1 24 ac bd a6 0a aa bd 40 88 19 3e c5 e9 b6 3d
       -0.08405436 -0.08302812 0.14993382 0.08931307
0000e0 c1 69 b0 be b1 f5 40 3e 7f fe f9 bd 9f a6 3a be
       -0.34455684 0.18843724 -0.122067444 -0.18227623
0000f0 cf a2 b9 3d 11 81 9f 3d 1f 2b 1c 3e 2a 7f 95 3c
       0.090642564 0.07788289 0.15250824 0.018249113

conv2.lin_r.weight f4 [64, 16]
000000 d0 f6 22 be 11 fe c3 3d 0f 00 97 be a1 ea a6 3d
       -0.15914464 0.09569944 -0.29492232 0.08150221
000010 4f 63 13 be 5f af 83 3d 36 13 26 3e 6f 69 4c be
       -0.14393352 0.06429934 0.16218266 -0.19962095
000020 9f a4 06 be 57 33 00 3e c5 88 b7 bd 8f a8 25 be
       -0.13148735 0.12519585 -0.089616336 -0.16177581
000030 6f 56 22 be 5b 15 35 be 09 0b 0a be ff e1 04 3e
       -0.15853284 -0.17683928 -0.13480772 0.12976836
000040 40 e2 0f bd 01 77 85 be 09 be 90 be a0 dc 8a 3c
       -0.03512788 -0.26067355 -0.28269985 0.016950905
000050 60 c6 06 3e ff ed 1a be c1 fb 27 be ef c4 a3 3c
       0.13161612 -0.15129851 -0.1640463 0.019991366
000060 9f c6 29 3e e1 42 d6 bd 21 00 c7 bd aa 6a 18 3d
       0.16579674 -0.10461975 -0.097168215 0.037211098
000070 8f 6f 88 be cf 95 24 be a7 c1 8b 3d f1 46 0d 3e
       -0.26647612 -0.16072772 0.06824046 0.13796593
000080 41 14 e6 3d b1 c7 27 3e 21 e3 3f 3e 91 10 01 3e
       0.11234332 0.1638477 0.18738987 0.12603976
000090 71 13 20 3e 59 f1 40 bb 40 23 85 3d 21 f9 79 bd
       0.15632416 -0.002944073 0.06500864 -0.061028603
0000a0 91 5a 3c 3e fe 9c c2 bd c0 f3 63 be 6f e5 76 3e
       0.18393923 -0.095026 -0.22260952 0.2411096
0000b0 dc 69 5f 3e 0f 24 49 be 40 d3 b9 bd 9f 9e 60 be
       0.21817726 -0.19642662 -0.09073496 -0.21935509
0000c0 60 cf 40 3d 20 c0 73 3d ff f8 ca bd 7f 2b 50 bd
       0.04707277 0.059509397 -0.099107735 -0.05082273
0000d0 11 f3 be 3d 71 16 dc 3b 21 b2 5a 3e e1 30 9a be
       0.09323705 0.0067165424 0.21357013 -0.30115417
0000e0 50 7d 45 3e e1 22 73 be 1f 4a 96 bd 41 bf dd 3d
       0.19286084 -0.23743774 -0.07338356 0.108274944
0000f0 50 67 ce bc e1 ea 53 3d 8f 61 0b be 91 e2 a3 bd
       -0.025195748 0.05173767 -0.13611434 -0.080021985
000100 00 8f af 3c 00 cb 09 3d 41 6f 71 be a5 3a 32 bd
       0.021430492 0.03364086 -0.23577596 -0.04351296
000110 11 e0 ef 3d bf 1d d5 3d d9 94 0a be 6f bb fd 3c
       0.11712659 0.10406064 -0.13533343 0.030973164
000120 80 f7 65 3b 31 6f 29 3c 37 82 89 3d 55 0f ad 3d
       0.0035090148 0.0103414515 0.0671429 0.0845019
000130 f6 e5 a5 3d 9f c6 71 be 81 64 35 bd ef e1 8a 3d
       0.08100502 -0.23610924 -0.0442853 0.06781375
000140 af f8 09 be df 01 07 bf e1 a4 0e be a1 6f 45 3d
       -0.13473772 -0.5273723 -0.13930084 0.04820216
000150 b8 87 08 3d 71 06 93 be 10 0a 26 3e 01 59 02 bf
       0.033332556 -0.28715852 0.16214776 -0.5091706
000160 f6 fb 1b be 51 b5 02 bf 30 e1 79 be a5 bb b9 be
       -0.15232834 -0.51057917 -0.24402308 -0.36275974
000170 4f a4 e0 be 21 85 03 be 41 de 43 be 60 b4 de bd
       -0.43875358 -0.12843753 -0.19127752 -0.108742476
000180 aa b7 9c bd ef 02 67 be cb dd d3 bd b6 57 1d 3e
       -0.07652219 -0.22559713 -0.10345038 0.1536549
000190 df 72 40 3e db c9 ee 3d 4a 42 96 bd 1a b4 09 3e
       0.1879382 0.116595946 -0.073368624 0.1344761
0001a0 06 cf 21 be bf ce 16 bd 3f 93 57 3e 0f dc 61 be
       -0.1580163 -0.036818262 0.21052264 -0.22056602
0001b0 c1 6d d4 3d 00 ca 2f 3a 8f dc db 3b ff 54 6b be
       0.103724964 0.00067058206 0.0067096422 -0.22981642
0001c0 81 58 6e 3e 11 04 90 be b1 ec 73 be c1 10 c2 bd
       0.23275949 -0.28128102 -0.2382076 -0.09475852
0001d0 80 88 7f bd 2f fe d4 3c 81 01 5d bd 17 07 0f 3e
       -0.062386036 0.02600011 -0.053956512 0.13967548
0001e0 bf f2 72 be 3f ae f8 3d ff 1d 4b be 81 1a 5b 3e
       -0.23725413 0.1214261 -0.19835661 0.21396829
0001f0 bf 14 7b be c0 f5 eb 3c 5f 8e 5d bd cf 71 e1 bd
       -0.24519633 0.028803706 -0.054090854 -0.110080354
000200 61 d2 bd 3d b1 38 61 3e 81 b5 78 bd 8f 6b 37 be
       0.09268642 0.21994282 -0.06071997 -0.17912124
000210 cf 18 0b be b0 b7 e7 bd f9 91 05 3e f0 58 4f be
       -0.13583682 -0.113143325 0.13043965 -0.2024877
000220 3f f4 3a 3e a6 75 a3 3d 6a 41 9a 3d 6f 64 34 be
       0.18257235 0.07981424 0.07532008 -0.17616437
000230 af fe e5 bd c1 67 18 be 01 1b da 3d 30 08 d8 3d
       -0.11230218 -0.14883329 0.10649682 0.10548437
000240 50 79 3e 3e 6f f7 42 bb f1 df 6b 3d d0 08 7f 3d
       0.18600965 -0.0029749533 0.057586614 0.062264264
000250 10 a7 60 bd e1 94 21 3d 2f 15 34 be 4f 27 69 be
       -0.054846823 0.039448623 -0.17586206 -0.22768901
000260 60 ef 37 3d 60 3a 84 bc 00 d1 ca 3c b1 29 0d bc
       0.04490602 -0.016141117 0.024757862 -0.008615897
000270 1f 75 40 be 5f a0 cd bd 71 18 f8 bd a9 b5 0f bd
       -0.18794678 -0.10040354 -0.12114037 -0.035085354
000280 9f 6b b4 bd 8f 2f 4a 3e 6f 75 19 3e 01 3d 70 be
       -0.088095896 0.19744705 0.14986204 -0.23460771
000290 bf 8c c0 3d e1 ac 5c be 30 fd b2 3d cf a2 78 be
       0.09401845 -0.21550323 0.08739698 -0.24280857
0002a0 c9 a2 0f 3d cf c8 1a be c0 88 7c 3e 7f 15 61 be
       0.035067353 -0.15115665 0.24661541 -0.21980856
0002b0 c1 d9 fc bd c1 5a 71 3e 9f f7 46 bd e1 14 7a 3e
       -0.12346221 0.23569776 -0.048575994 0.24422027
0002c0 a1 2f 60 bd f1 22 0d 3e 91 40 79 be e0 76 30 3d
       -0.054732922 0.1378286 -0.24341036 0.043082118
0002d0 f0 1e 86 3d af 09 80 bd b1 22 fe bd ff c8 6d be
       0.065488696 -0.06251847 -0.124089606 -0.23221205
0002e0 c1 b2 e1 3d 11 4c af bd 3b 83 30 3e 2b e4 37 3e
       0.11020423 -0.085594304 0.1723756 0.17958133
0002f0 1f 80 1a 3e 20 2e 97 3d ef c2 43 be 40 34 33 3e
       0.15087937 0.073818445 -0.1911733 0.175004
000300 01 c2 3c be 21 6b 38 bc 2b 1d b7 bd a0 1e 1b 3e
       -0.18433382 -0.01125601 -0.0894111 0.15148401
000310 5f d1 1d 3e bf e1 3b be 66 b9 24 3e e1 bc be 3d
       0.154119 -0.18347834 0.16086349 0.093133695
000320 ef ac a5 3d f1 52 f6 bd 7f 32 1f be df 85 6b be
       0.08089625 -0.120275386 -0.15546606 -0.23000287
000330 af c3 36 be 4f f7 51 be 40 24 cc 3c 4f f3 36 3e
       -0.17848085 -0.20504497 0.02491963 0.17866252
000340 2f 27 62 3e c0 60 0d be bf b6 02 be 9f 54 61 3e
       0.2208526 -0.13806438 -0.12765025 0.22004937
000350 30 ea bc 3c 57 8d 90 bd c0 3c 00 3e 21 97 45 be
       0.023060888 -0.070582084 0.12523174 -0.19295932
000360 f1 37 31 be 8f 4c 11 be 5f c8 c1 bd 99 36 8c 3d
       -0.17306496 -0.14189361 -0.09462046 0.06846351
000370 6f a9 02 be 6f 19 7c 3e d1 4f 51 be b0 88 11 be
       -0.12759946 0.24619077 -0.20440604 -0.14212298
000380 65 67 33 3e 41 9e 74 3e 71 96 6e be df 35 47 be
       0.1751991 0.23888494 -0.23299576 -0.19454144
000390 47 c5 00 be 81 53 c5 bd 80 67 5a be 21 0f d3 3d
       -0.12575255 -0.09635068 -0.21328545 0.1030562
0003a0 57 40 92 3d a0 fe 9a 3d d0 c8 5a 3d 11 ef 68 3e
       0.07141178 0.07568097 0.053414166 0.22747447
0003b0 16 c1 94 bd 35 98 33 be 81 3d 43 3d 80 c9 19 3e
       -0.07263391 -0.17538531 0.047666077 0.15018272
0003c0 50 77 61 be 0f ae 91 bd 0f 78 19 bb c1 21 65 3d
       -0.2201817 -0.07113277 -0.0023417508 0.055940393
0003d0 e0 11 96 bc 5f 32 9c bd 80 ce 65 3b 31 41 57 3d
       -0.01831907 -0.07626795 0.003506571 0.052552406
0003e0 20 68 0f bd 6f 86 c8 bd 21 c1 e2 3d 91 8a 47 3d
       -0.03501141 -0.09791266 0.11071993 0.04871613
0003f0 7f 76 4c 3e a0 d9 94 3d 41 86 0b be 30 7e b2 bd
       0.19967078 0.07268071 -0.13625433 -0.087154746

lstm_cell.weight_ih f4 [256, 192]
000000 7f 5b 00 3e 30 ff 3c 3e 92 c9 92 bd 0a 3e 99 3c
       0.12534903 0.18456721 -0.07167353 0.01870634
000010 8a 37 29 3d 05 31 39 be ac 1e 37 3d b7 63 8b 3d
       0.04131273 -0.18085106 0.044706985 0.068061285
000020 9f 15 d4 bd 8f 0f bd bc a5 f1 b3 3d 79 f6 10 3e
       -0.103556864 -0.023078708 0.087863244 0.14156522
000030 ff c4 0b 3e 81 81 43 3e 80 dd b0 3b 21 73 4f be
       0.13649367 0.1909237 0.0053974986 -0.20258762
000040 b6 4f 1c 3d 11 07 2c 3e 2f 65 43 bc 69 47 09 3e
       0.038161956 0.1679957 -0.0119259795 0.13406147
000050 c1 b2 e0 3d 81 27 27 3c 15 8a 2d 3d 7f c2 71 3d
       0.109715946 0.01020229 0.042368013 0.059023377
000060 20 ad 12 bd ff 62 fc 3d 41 be ee 3d 3b ae 34 3e
       -0.035809636 0.123235695 0.11657382 0.17644589
000070 b1 8c 3f bd 7f bd b7 be ef 97 44 3e b1 83 47 bd
       -0.046765033 -0.35886762 0.19198583 -0.048709575
000080 30 71 3c bc 21 79 3a 3e c1 3d 4a be 9a d9 21 3e
       -0.011501595 0.1821027 -0.1975012 0.15805665
000090 81 94 86 3c b1 2d fe bd bf c3 26 3d 57 30 0f bd
       0.016428234 -0.12411059 0.04071402 -0.03495821
0000a0 cf 93 0f be 00 34 ce 3d bf f1 c7 3d 49 2d 0b 3e
       -0.14021228 0.10068512 0.09762906 0.13591494
0000b0 9d 1f 53 3e a1 9c 35 bc 59 8c af 3d 50 dc 3d bd
       0.20617528 -0.0110847065 0.08571691 -0.046352684
0000c0 3f 54 3a ba 30 1e 51 bc a0 01 28 bd 8f eb d8 3d
       -0.00071078906 -0.012763545 -0.041017175 0.10591804
0000d0 31 be a9 3d 56 71 1e 3e 6c 1f 4d 3e 8a 4d 14 ba
       0.08288229 0.15472922 0.20031518 -0.0005657306
0000e0 40 66 f0 3d 71 a8 28 3e 61 bc b0 ba c1 15 5b 3e
       0.11738253 0.16470505 -0.0013483876 0.21395017
0000f0 4f ac 1b 3e a0 5b ed 3d cf 82 5f bd a1 a7 97 3d
       0.1520245 0.11589742 -0.05456811 0.074050196
000100 25 38 84 bf 53 9f 58 40 41 d1 29 40 dd 35 35 40
       -1.0329634 3.3847244 2.6533968 2.8314126
000110 c1 f9 11 40 ac c1 b6 40 bc bf e5 40 28 7a b9 bd
       2.2808688 5.7111416 7.179655 -0.090565026
000120 65 0b b6 40 6e 5c f3 40 16 84 f0 40 d9 c2 d3 40
       5.688891 7.605033 7.516124 6.617535
000130 a4 68 cb 40 4d e2 d7 40 70 7e 0c 41 d6 e7 f4 40
       6.3565235 6.7463746 8.780869 7.6533003
000140 94 08 fd 40 71 70 d9 40 d3 28 ef 40 f1 6e ed 40
       7.907297 6.7949758 7.4737334 7.4197927
000150 48 4c ed 40 d5 a2 af 3d 8e f8 05 41 1e 85 aa 40
       7.4155617 0.085759796 8.373182 5.3287497
000160 80 24 e6 40 3e 89 e5 40 bd 32 e0 40 5d 5d 01 41
       7.1919556 7.173003 7.0061936 8.085294
000170 d9 36 ea 40 4c 43 3e 3b 20 53 62 3d 40 90 79 3d
       7.3191953 0.0029031811 0.055255055 0.060928583
000180 34 9f 4e bd fa 42 de bd 9d 10 98 3c 0c 90 55 3c
       -0.050444797 -0.108526185 0.01856261 0.013034832
000190 f7 a5 05 3d 01 1f 2a 3d 3f 5f 0d be 20 49 96 3b
       0.03262898 0.041533474 -0.13805865 0.004586354
0001a0 01 d8 90 3d 60 f6 fd bb 9f b2 ef bd c1 c3 e5 bd
       0.070724495 -0.0077503175 -0.11703991 -0.11218978
0001b0 00 8f 6c 3b 70 66 02 bd f0 14 6d 3c c0 5b 55 bd
       0.0036095977 -0.031835973 0.014470324 -0.052089453
0001c0 a0 8e 97 bd bf 85 05 3d e0 6b fb bc 00 c3 93 3b
       -0.074002504 0.032598253 -0.030691087 0.00450933
0001d0 e0 66 53 bc 3f 0c a6 bd 05 26 b1 bd b1 83 f6 bd
       -0.012902945 -0.081078045 -0.0864983 -0.12036837
0001e0 ef fe c6 3d c0 5a 3c 3c 85 b9 b7 bd ff 54 e8 3d
       0.097165935 0.011496246 -0.08970932 0.11344337
0001f0 bf 37 ae bd 0f 7a e6 bd 41 1d 43 3d 09 af 90 bd
       -0.085067265 -0.112537496 0.04763532 -0.07064635
000200 41 c6 fe bc b8 29 fe 3f 5e ab a3 3f 23 3f f2 be
       -0.031100394 1.9856482 1.2786672 -0.47313794
000210 77 7b 08 bf 18 76 14 40 ff 74 d4 3d 88 95 56 40
       -0.5331339 2.3197079 0.10373878 3.3528767
000220 d4 7d d4 40 34 f1 ba 40 7f ce bb bd fe 43 ec 40
       6.64036 5.8419437 -0.091702454 7.3833
000230 e6 be f6 40 1a c3 f8 40 d0 51 cb 3d 04 23 06 41
       7.710803 7.773816 0.09927714 8.383549
000240 0e 13 11 41 d8 8d 00 41 69 3c f2 40 5e 84 e5 40
       9.067152 8.03463 7.5698743 7.172408
000250 73 2c dc 40 44 be ce 40 63 e7 5a 3c 96 6e 04 41
       6.880426 6.460726 0.013360831 8.2769985
000260 7d 9d ce 40 dd 5b 60 40 9b c1 52 3d ae 9e e0 40
       6.4567246 3.505607 0.051454168 7.01937
000270 54 5d 84 40 78 b3 09 41 6f 62 eb 3d 60 03 65 3d
       4.1363926 8.606316 0.11493384 0.05591142
000280 91 b1 52 3d 03 f1 9d 3d 7f d7 0a be 5f b1 87 bd
       0.05143887 0.07711985 -0.13558768 -0.06625628
000290 46 73 ce bd f0 7b ed bd 2b d1 98 bd 40 a0 eb bd
       -0.100805804 -0.11595905 -0.074617706 -0.11505175
0002a0 8f ca 49 3d df 34 ea 3d ff 2f 91 3d bf ee 24 bd
       0.04926544 0.114358656 0.07089233 -0.04026675
0002b0 11 3c 02 bd 61 75 59 3d bf e1 b6 3d d0 16 c4 bd
       -0.031795565 0.053090457 0.089297764 -0.09574664
0002c0 4a f8 a6 bd 8f a3 3d bd 97 f4 8e bd a5 ba 2c 3d
       -0.08152826 -0.04629856 -0.069802456 0.042170186
0002d0 e1 7b f8 bd 50 58 b9 3d 40 fe 3e bb 71 62 e3 3d
       -0.12133003 0.090500474 -0.0029143244 0.111027606
0002e0 f1 3b 24 3d 21 4e 83 bd 00 8a 10 bd 65 24 ac bd
       0.040096227 -0.06411386 -0.035287857 -0.08405379
0002f0 5a 43 1e 3d b1 a7 a8 bd 81 4e f2 3d 4f 94 b6 3d
       0.03863845 -0.082351096 0.1183138 0.08915006
000300 ff ff 3e 3d 9f 85 20 3d 94 e4 0e 3f 81 7e cf 3d
       0.046630856 0.03918993 0.5581753 0.101315506
000310 65 92 b2 3d 7a 88 12 be 51 35 4d bc 6f 5b f9 3c
       0.08719329 -0.14309874 -0.012524919 0.030439107
000320 d0 7d 61 bc 21 7d e1 bc 41 67 fb 3d 31 42 db 3b
       -0.013762906 -0.027525486 0.122755535 0.0066912402
000330 27 cd 0d bd 51 67 c7 3e 76 0d a8 bd d1 b5 17 3f
       -0.034619477 0.38946012 -0.082056925 0.59261805
000340 b9 5e 8b 3c e1 fe 56 3d 61 c6 00 bd 81 67 f5 3d
       0.01701294 0.052489165 -0.03143919 0.119826324
000350 0f bd 3d 3e 00 88 a3 3d 81 df 4c bd 15 0f 33 3e
       0.18529151 0.07984924 -0.050017837 0.17486222
000360 e0 be 7e 3d 6f 3d 60 3d 30 d5 0e 3c 81 c4 97 3e
       0.06219375 0.054746088 0.00871782 0.29642108
000370 19 f8 0b bc 01 89 33 3f 1a b0 14 3f 8a 14 29 3d
       -0.008543038 0.70130926 0.5808121 0.041279353
000380 3f 52 88 3d ff 1c 56 bd e1 93 56 3f 5f 7d 32 bd
       0.06656312 -0.052273747 0.83819395 -0.043576594
000390 9f da 47 bd df a1 dd 3d e0 14 d9 bc b8 73 82 3c
       -0.048792478 0.1082189 -0.026499212 0.01592432
0003a0 10 d4 2d 3f e0 18 c7 3c af 67 44 3f 91 a6 03 3e
       0.67901707 0.024303854 0.7672071 0.12856509
0003b0 bb e7 b3 3e 89 12 06 3e ec ab 10 3d a6 e8 9f 3d
       0.35137734 0.13093008 0.035320207 0.07808046
0003c0 3f 43 ad bd ca ab 14 3d cf 9d b6 3e bf 46 2b be
       -0.08460092 0.036296643 0.35667273 -0.16726206
0003d0 ef ef bf bd ba 9d 96 bd 3e 97 f1 3d 31 b1 d6 3c
       -0.093719356 -0.07354303 0.11796425 0.026207538
0003e0 86 a7 9f bd 39 64 0b 3e c1 e4 21 3e df 78 61 3d
       -0.077956244 0.1361245 0.15809919 0.055046912
0003f0 bf d5 51 3d bf 0e 62 bd 1f e1 e5 bc 71 54 03 3d
       0.051229235 -0.055189844 -0.028061448 0.03206295

lstm_cell.weight_hh f4 [256, 64]
000000 64 e9 e7 3e 26 72 c2 3e e0 cb 88 3f 1a 06 86 c0
       0.4529525 0.37977713 1.0687218 -4.188245
000010 f5 c2 aa 3f 04 79 34 c0 8f dc 18 c0 02 d4 1b 40
       1.3340746 -2.8198862 -2.3884618 2.434815
000020 a4 cf 5e 40 86 36 47 3f 98 f2 e3 3e 00 5f a3 bf
       3.4814234 0.7781757 0.44521022 -1.2763367
000030 cc a0 36 bd bd e5 b8 bf 36 05 ed bf 72 14 5f be
       -0.04458694 -1.444511 -1.8517215 -0.21785143
000040 b0 4b 4e bf 4f 3f 1b 3f a0 5e 48 c0 1b 64 c5 bf
       -0.8058424 0.60643476 -3.1307755 -1.5421175
000050 1d 4f 4c bd ad 56 26 40 9a ca 21 40 52 07 46 bf
       -0.049880136 2.5990403 2.5279908 -0.7735492
000060 a2 1f 05 3f d3 c0 21 40 de e3 1d c0 81 4e 67 3f
       0.5200139 2.527394 -2.467033 0.9035416
000070 91 9b 31 be 2c 1a 3a c0 99 42 f5 bf 7f d6 cf 3d
       -0.173445 -2.9078474 -1.9160949 0.10148334
000080 fd 72 96 3f a5 bb f9 bf b4 da cf be 49 eb 6e 3f
       1.1753842 -1.951039 -0.40596545 0.93327767
000090 7e 25 1c 40 f9 36 b1 bf e9 89 62 3e 7a 27 10 c0
       2.4397883 -1.3844901 0.22122921 -2.2524095
0000a0 4d 0c 9e 3f 82 cd b7 bd 0a 30 32 c0 cd 85 94 bf
       1.2347504 -0.089747444 -2.784182 -1.1603333
0000b0 13 98 9e bf c8 18 ec bf 12 ef 10 3f 46 ff c9 3f
       -1.2390159 -1.8445063 0.5661479 1.5781028
0000c0 e7 a2 e8 3e e3 25 05 40 e9 09 00 c0 b5 35 34 3f
       0.45436785 2.0804374 -2.0006049 0.7039445
0000d0 82 64 bc 3f 8c 59 c7 3f b8 f2 17 c0 46 25 43 40
       1.4718173 1.5574203 -2.3741894 3.04915
0000e0 79 e1 a5 3f 10 ed 16 c0 fd b4 6c 3f 10 73 97 3e
       1.2959434 -2.3582191 0.92463666 0.29579973
0000f0 4f aa 35 40 5e c2 a2 3f f7 42 f8 3e ac bb 36 40
       2.8385198 1.2715566 0.4848859 2.8552046
000100 7a be df 3e c8 6b f3 be 78 dc ff 3c 88 bb a3 3e
       0.4370001 -0.47543168 0.031233057 0.31979012
000110 81 ae 0e c0 71 90 2f c0 3e b5 0e 3f 58 aa b4 3e
       -2.2294009 -2.743191 0.55745304 0.35286212
000120 78 b7 05 c0 ff 8f 8d bf 4a 74 21 bf 84 69 21 bf
       -2.089323 -1.1059569 -0.6306807 -0.6305163
000130 32 96 81 bf 74 8f 0b bf e4 b8 59 be 25 82 2f 40
       -1.0123961 -0.5451577 -0.21261936 2.7423184
000140 c9 b4 13 bf f3 b3 80 bf fb 37 51 bf f9 3b 17 c0
       -0.5769773 -1.0054916 -0.81726044 -2.3630354
000150 a7 57 35 bf c3 57 ea 3f 65 05 b2 3e b0 eb 69 3f
       -0.7083687 1.8308033 0.3476974 0.91375256
000160 d4 ba 94 3f 2c d5 8c be 35 a0 14 c0 9b ca 77 c0
       1.1619515 -0.27506387 -2.3222783 -3.871741
000170 86 08 48 bf 04 77 a9 be cb 61 0c c0 5a c8 73 bf
       -0.78138006 -0.33098614 -2.1934688 -0.9522759
000180 b6 bf 2d 3e be 88 c5 3f 55 02 69 c0 a9 4a 06 40
       0.16967663 1.5432355 -3.6407673 2.098307
000190 ea ec d0 3f f3 1b d9 be 91 85 8a bd 2c ae 3c 40
       1.63223 -0.42404136 -0.06763757 2.9481306
0001a0 14 a2 8b bf 0f bc 54 bf 74 01 93 40 37 ca 26 3f
       -1.0908837 -0.83099455 4.5939274 0.65152305
0001b0 c7 52 c7 bf 3e 19 9f be 07 57 b9 bf 0d c4 53 bf
       -1.5572137 -0.31073946 -1.4479684 -0.82721025
0001c0 96 78 80 40 c1 81 01 c0 d4 49 9f 3f 4a 1f 0a c0
       4.01472 -2.0235445 1.2444406 -2.1581597
0001d0 14 fa 5a 3e 5a 4c 37 be e3 e1 4d c0 47 2e 02 be
       0.2138446 -0.1790022 -3.216912 -0.12712966
0001e0 d4 c8 dc bd 2b 84 ec bf 85 45 e0 3f ad 2d 1b 3f
       -0.107804924 -1.8477834 1.7521216 0.6061657
0001f0 bf 90 d0 3f b3 85 93 bf 7c ad de 3d 34 bd f8 bf
       1.6294173 -1.1525177 0.10872933 -1.943274
000200 86 0d 2a 40 06 27 7e 3f 74 b2 be 3e a4 c7 e3 3e
       2.6570754 0.99278295 0.37245524 0.4448825
000210 52 33 8d 40 55 a3 a4 3e 8d 9f 9b 3e 16 b4 f7 bf
       4.4125147 0.32155862 0.30395165 -1.9351833
000220 38 59 06 40 22 18 1b c0 0a b8 d8 3f 3c 97 03 3d
       2.0991955 -2.423348 1.6931164 0.03212665
000230 2d e5 e8 bd 59 c8 a9 bf 8c f2 f4 bf c7 20 26 bf
       -0.11371837 -1.3264266 -1.913652 -0.64893764
000240 41 31 c8 3f eb 2e 2e 3f d1 f8 00 bf c9 af f9 bf
       1.5640031 0.6804034 -0.50379664 -1.950677
000250 fa bd 73 40 b8 d1 f8 3e 5a 48 b9 3f 94 1a c6 3f
       3.8084702 0.48597503 1.4475205 1.5476861
000260 3f 0d 1f 3f 96 35 b8 3f 1f e0 d2 3f 2e 3d b5 be
       0.62129587 1.4391353 1.6474646 -0.3539824
000270 68 24 00 c0 26 88 22 40 bf d6 62 3f bc 3c 8c 3f
       -2.002222 2.5395598 0.88608927 1.0956035
000280 9e a3 c4 3f df 8f c0 bf 68 1e 9f bd f5 c1 74 bf
       1.5362432 -1.5043906 -0.077694714 -0.95608455
000290 9d 48 e6 3f 84 ca f5 3f f7 ed 9f 3f b4 e3 20 40
       1.799091 1.9202428 1.2494496 2.513898
0002a0 40 5a 0e c0 f0 99 fd be e2 1a 1a c0 f8 ca f3 be
       -2.2242584 -0.49531507 -2.4078908 -0.4761579
0002b0 99 2f ea 3f c9 65 4b c0 8a a1 52 3f 76 2d 8c 3f
       1.8295776 -3.1780875 0.8227774 1.0951374
0002c0 02 e6 45 3e fb 0f 8b c0 a1 96 61 3f 11 4d 6b 3f
       0.19326022 -4.3457007 0.88120466 0.9191447
0002d0 a5 80 79 c0 32 94 90 3f b6 b2 50 3f 97 8f 90 3f
       -3.8984768 1.1295226 0.8152269 1.129382
0002e0 1a 23 dd 3f 76 5d 96 3e b8 75 51 bf d4 94 7b 3f
       1.7276337 0.2936818 -0.8182025 0.9827397
0002f0 a2 7f 3c 40 27 63 9d bf 1c 9d e8 be 48 f1 c9 bf
       2.94529 -1.2295884 -0.45432365 -1.5776758
000300 9c be d0 bf 18 23 7e 3f d2 fc 91 be 07 85 29 3e
       -1.6308169 0.992723 -0.285132 0.16554652
000310 58 b3 32 bf ed 3a 33 3e 38 1a 78 bf 85 e6 f1 bf
       -0.69804907 0.17502947 -0.96915007 -1.8898474
000320 d4 6a 4b c0 11 f9 d9 3f e0 1c cb bf 86 df 97 bf
       -3.1783953 1.7029134 -1.5868187 -1.1865089
000330 f2 41 7d 3f 15 cf 41 bf 74 8b 4c 3e 2f fb 89 be
       0.9892875 -0.7570661 0.19975072 -0.2694945
000340 9f e6 dc 3d 49 f0 fd 3f e9 67 f3 3f 4f 77 85 bd
       0.10786175 1.9838954 1.9016086 -0.06516897
000350 7d 28 87 bf ba 02 12 bf 64 57 ef 3d 85 8c b3 3e
       -1.0559231 -0.5703541 0.1168659 0.35068145
000360 73 00 36 40 5d ab c2 ba 9b 7b 1a 3f d2 8a 27 40
       2.8437774 -0.0014852096 0.60344857 2.617848
000370 95 e0 1d 40 0a f8 ba 3f db d8 b8 bd 85 e3 96 c0
       2.4668324 1.4606946 -0.09025737 -4.7152734
000380 68 67 e6 bf 23 4a 5f bf 97 12 a0 3f 37 e4 e5 3e
       -1.8000307 -0.872225 1.2505673 0.44900677
000390 0b b8 b0 3f 34 d4 9e be 34 e5 25 40 a5 1a 3a 3f
       1.3806165 -0.31021273 2.5921144 0.72696906
0003a0 ec eb 34 be 81 75 35 40 f2 db 3c c0 3a f5 37 c0
       -0.17668122 2.8352969 -2.9509244 -2.8743424
0003b0 4d 01 03 40 02 f2 bc be e1 c7 2f 40 0c db 4a 3f
       2.0469544 -0.36903387 2.7465746 0.7924049
0003c0 39 fc 28 40 06 61 1a 3d 8a 94 15 bf 4a 2b e0 3e
       2.6403944 0.037690185 -0.5842978 0.43783027
0003d0 d0 8d 0e 3d 3c b5 49 bf c6 20 95 3e 30 df 19 c0
       0.03480321 -0.78792167 0.29126567 -2.4042473
0003e0 89 3a aa be 1c 38 03 40 9c bf 4f c0 26 0f f4 be
       -0.33247784 2.0502996 -3.24607 -0.47667807
0003f0 14 d7 9e bf c1 3e 8e bf d8 01 05 3f eb db 23 c0
       -1.2409387 -1.1112901 0.5195594 -2.5602977

lstm_cell.bias_ih f4 [256]
000000 86 9d a4 bf a7 8e d6 3f db 04 16 3f 3a 24 4d 40
       -1.2860572 1.6762284 0.5860116 3.205336
000010 d1 6c 3e 40 b8 39 51 40 27 09 84 3f 13 26 28 40
       2.9753916 3.2691479 1.0315293 2.6273239
000020 7d 35 33 3f 38 52 2d 3f 8f 26 4c 40 94 a8 07 40
       0.7000349 0.6770358 3.1898534 2.1196642
000030 54 4d 74 c0 bb 9f 28 3d 5a b0 40 c0 f3 1a 6f 3d
       -3.8172197 0.041167956 -3.0107636 0.05837531
000040 cd 27 3a 40 16 ec 14 c0 b3 a6 31 c0 ce cd 56 3f
       2.9086792 -2.3269095 -2.7757995 0.83907783
000050 07 5f ba bf 6d 5e 81 c0 76 a4 cf bf b5 97 ad 3e
       -1.456025 -4.0427766 -1.6222064 0.33904806
000060 5a 1e e2 3f 6e ee 8f bf 1d 28 51 3f 60 8c 8f 3f
       1.7665513 -1.1244638 0.81701833 1.1214714
000070 c8 bb 33 bf f1 78 1c 40 d4 78 1b 40 0b b7 7c 3e
       -0.70208406 2.4448817 2.4292498 0.246792
000080 ae 58 d1 3f 07 0e eb 3f bb 12 0b bf 0e d1 a0 bf
       1.6355188 1.8363656 -0.54325455 -1.2563798
000090 f1 81 23 bf 18 9e b0 3f a5 c7 77 be df 73 d2 3f
       -0.6387015 1.3798246 -0.24197252 1.6441611
0000a0 b6 cc f5 3e 3a 73 4f 3f 6b e7 33 3f df 05 ba bf
       0.48007745 0.81035197 0.7027499 -1.4533042
0000b0 fc e0 99 c0 5c 91 d9 bf 7e 21 43 3f 01 18 15 bd
       -4.808714 -1.6997485 0.7622298 -0.036399845
0000c0 c4 91 8c c0 96 e6 08 c0 1f b1 39 c0 f4 0e 1e 3f
       -4.3927937 -2.1390738 -2.9014356 0.61741567
0000d0 55 36 1d c0 ed 76 ea bf d0 e0 27 be 04 30 2c be
       -2.4564412 -1.8317543 -0.16394353 -0.16815192
0000e0 3e df 0c c0 f8 c0 3f c0 72 d7 a0 3f 16 7d 30 3f
       -2.2011256 -2.9961529 1.2565749 0.68940866
0000f0 78 eb 5d 3f 0f e6 4d 40 44 45 11 40 be ce 36 c0
       0.8668742 3.2171667 2.2698526 -2.8563685
000100 bc 81 96 bf 76 f7 20 bf 9e 62 a9 be 55 bb 5f 3f
       -1.1758342 -0.62877595 -0.3308305 0.8739522
000110 30 a9 c6 bf d7 8f 89 3e eb 42 73 3f a9 89 15 c0
       -1.5520382 0.26867554 0.95023984 -2.336527
000120 fe c5 55 3f d5 40 8a bf 41 86 5a c0 43 31 25 c0
       0.8350524 -1.0801035 -3.4144442 -2.5811317
000130 d6 e9 3c 3f ef 32 a8 3c 18 33 f1 bf 05 2d 84 3e
       0.73794305 0.0205321 -1.8843718 0.25815597
000140 76 7f 6e bf 77 0b ed 3e 69 63 1e bf b3 9a 05 40
       -0.9316324 0.4629781 -0.6187044 2.087567
000150 50 29 31 c0 76 2d 46 3f 87 ea 2b c0 60 52 a4 bf
       -2.7681465 0.7741312 -2.6861894 -1.2837639
000160 14 c8 50 3f 67 85 21 bf 8c ce 6f 3e ad 53 e1 be
       0.81555295 -0.6309418 0.23418635 -0.44009152
000170 70 5c ad bf ce 1f 80 bf 36 7e 8e 3e 12 17 58 bf
       -1.3543835 -1.0009706 0.27830666 -0.844102
000180 29 e0 5f bd d0 85 3a c0 c0 61 72 be 27 34 56 c0
       -0.054657135 -2.9144173 -0.23670101 -3.3469331
000190 f2 74 24 40 b5 8f 68 bf 3b 5e de be 68 94 d6 bf
       2.5696378 -0.9084428 -0.43431267 -1.676404
0001a0 68 62 c2 bf ee 11 e2 3f 77 b0 33 3f f6 82 0e 3f
       -1.5186281 1.7661722 0.7019114 0.5566858
0001b0 0b 5d b8 be c6 a7 07 c0 0d 0e 86 bf f9 36 63 bf
       -0.36008486 -2.119615 -1.0473038 -0.88755757
0001c0 15 46 a1 bf d6 60 80 3f e9 1e 07 bf f8 65 0f c0
       -1.2599512 1.0029552 -0.5278154 -2.2405987
0001d0 0a 9b 23 c0 ff 94 87 3e 20 af df 3e 2f 03 d5 bf
       -2.5563378 0.26480862 0.43688297 -1.6641597
0001e0 9c 84 17 40 a0 5f a6 3f 3e 58 88 c0 40 b4 09 40
       2.3674688 1.2997932 -4.2607718 2.1516266
0001f0 09 c1 68 be ac 0a 03 c0 68 70 34 3f 0c 07 e9 be
       -0.22729887 -2.0475264 0.7048402 -0.4551319
000200 98 4e 3f 40 0a ee 93 be 74 c0 65 c0 26 e1 12 c0
       2.989172 -0.28892547 -3.5898714 -2.294992
000210 f0 45 c7 3f c8 31 05 bf 02 94 11 3f b5 66 bf bf
       1.5568218 -0.52029085 0.56866467 -1.4953219
000220 40 82 0e 40 d0 3c 06 c0 91 4c 75 40 d3 b3 2a 3f
       2.2266998 -2.0974617 3.8327982 0.6668064
000230 6c 8b 2f 3e 62 a1 39 40 6f e0 dd 3f ea 46 15 bf
       0.17143029 2.900475 1.7334117 -0.5831133
000240 40 51 18 40 dd 26 91 40 d1 be 0b c0 2f 6a 7b 3e
       2.379959 4.535994 -2.1835215 0.24552225
000250 92 82 6a bf 4f 35 6a 3e 76 bb 12 3f 35 0f 42 3f
       -0.91605484 0.22871898 0.5731729 0.75804454
000260 56 c2 1a 3f c7 75 08 bf 86 30 91 3d 2a aa e4 bf
       0.60452783 -0.53304714 0.07089333 -1.786443
000270 c7 5d 50 3f 1d b2 3e 3f 0c 5e 16 40 c6 c7 1a 40
       0.8139309 0.7449053 2.3494902 2.4184432
000280 14 27 f7 3f 2f 55 c2 bf 1b 0c c1 be 33 d2 f7 3f
       1.9308801 -1.5182246 -0.37704548 1.9361023
000290 ef c3 ef 3f 1d 69 97 be 7d c5 b4 3f c9 9a ab 3e
       1.8731669 -0.29572383 1.4122769 0.3351653
0002a0 1e db be be 20 23 dd 3f ec fd 06 bf 03 47 f1 3f
       -0.37276548 1.7276344 -0.52731204 1.8849796
0002b0 42 17 44 3f d0 c1 88 3b ef 19 55 40 b1 97 27 c0
       0.7659799 0.004173495 3.3297079 -2.6186335
0002c0 d7 af 01 c0 79 6d a7 3e 97 75 c8 3e 49 54 30 bf
       -2.0263574 0.32700709 0.39152214 -0.6887861
0002d0 f1 8c 8f bf b0 95 33 c0 96 84 b5 bf 9e 50 ed bf
       -1.1214887 -2.8060112 -1.4181087 -1.8540227
0002e0 b9 27 ad be 81 4d a5 3f 36 0e 9e bf 33 32 20 bd
       -0.33819368 1.2914277 -1.2348087 -0.039110374
0002f0 b3 6b e8 bf c4 0a a7 bf da 16 01 40 c3 ee 23 3f
       -1.8157867 -1.305016 2.0170197 0.64036196
000300 f8 aa 8b be 99 1c 86 c0 f6 7c 20 3f 98 39 a5 40
       -0.27278876 -4.190991 0.62690675 5.1632805
000310 84 ff 48 bf e4 d8 0f c0 7c d5 cd 3f 26 04 fb 3f
       -0.78514886 -2.247613 1.6080775 1.9610641
000320 d9 ea 9f bf 0f 88 5f 3f b5 47 02 c0 46 e0 55 40
       -1.2493545 0.87316984 -2.0356266 3.3418136
000330 c3 d9 6e bf 7e e7 d7 3f 53 6a 30 c0 b4 8d f4 be
       -0.9330103 1.6867521 -2.7564895 -0.4776436
000340 9e 99 1b c0 85 35 23 bf b0 a5 20 c0 4d 00 d9 3d
       -2.431251 -0.6375354 -2.5101128 0.105957605
000350 7c 2d 94 3f 9b 3d 7c bf 1e 64 aa 3f 12 2c 3f 3f
       1.1576381 -0.985315 1.3311803 0.7467662
000360 a2 15 35 bf 18 c0 29 3e 48 ed ea 3f f6 14 50 c0
       -0.70736134 0.16577184 1.8353662 -3.2512794
000370 c3 9b d7 3e b2 e4 bc bf 05 81 b3 3f f3 d3 e8 be
       0.42111024 -1.4757292 1.4023749 -0.45474204
000380 9d 62 4e bf 98 1c 09 40 6f 8d a1 be e4 b7 9b bf
       -0.8061922 2.1423702 -0.31553218 -1.2165494
000390 d9 15 ed be 36 4a 36 40 ab 91 09 c0 4e 3a 44 40
       -0.4630573 2.8482795 -2.1495159 3.0660586
0003a0 5f 25 17 3f 4c e2 52 40 6c 7b dd bf c9 42 dd 3f
       0.590414 3.295062 -1.730329 1.7286006
0003b0 69 0c 18 c0 8a 89 86 c0 da 21 e3 3f 27 33 4f bf
       -2.3757575 -4.2042894 1.7744706 -0.8093743
0003c0 bb e2 4c c0 eb 9c dd bf 5c 64 f8 bf b7 a7 0a c0
       -3.2013385 -1.7313513 -1.9405627 -2.1664865
0003d0 b4 13 58 bf 67 be d3 bf 6d fd 08 40 46 db 19 c0
       -0.84405065 -1.6542481 2.140468 -2.4040084
0003e0 6a 38 1a 40 d3 a2 8a bf 8d 6d b1 3e 4a 8f 12 c0
       2.4096932 -1.083094 0.34653893 -2.2899957
0003f0 30 34 39 bf a4 85 81 3f 95 f8 1a c0 62 cd b7 3e
       -0.72345257 1.0118909 -2.4214222 0.35898882

lstm_cell.bias_hh f4 [256]
000000 38 c2 a8 bf 9f 75 e4 3f 19 29 bb 3e c8 b2 48 40
       -1.3184271 1.7848395 0.36554793 3.135912
000010 71 0a 43 40 b8 eb 51 40 b0 17 6e 3f 2e 6b 2a 40
       3.0475123 3.2800121 0.93004894 2.6627917
000020 fd d5 38 3f 5b 92 27 3f 1f 65 4c 40 44 c3 0f 40
       0.7220152 0.65457696 3.193672 2.246293
000030 b4 a3 7e c0 f0 54 0d 3e 60 ff 36 c0 29 da c8 3d
       -3.9787416 0.13801932 -2.8593369 0.09807236
000040 7d eb 39 40 92 d1 1d c0 d3 b3 31 c0 5f f8 36 3f
       2.904998 -2.4659162 -2.7766006 0.71472734
000050 a7 91 bb bf e9 7d 79 c0 a6 56 db bf 25 5f b8 3e
       -1.4653825 -3.89831 -1.7135818 0.3601009
000060 3a 55 dc 3f 4e 03 9d bf d2 10 86 3f d0 64 82 3f
       1.7213509 -1.2266634 1.0473883 1.0187016
000070 88 e1 1c bf 21 56 18 40 54 5c 25 40 c9 bd 7e 3e
       -0.61281633 2.380257 2.5837603 0.24877085
000080 2e d5 d3 3f 27 24 e8 3f 10 93 21 bf 5e f8 96 bf
       1.6549432 1.8136033 -0.63115025 -1.1794546
000090 21 39 3a bf 9b 0b c8 3f 05 91 55 be df 5e e0 3f
       -0.7274342 1.5628542 -0.20856102 1.7528952
0000a0 3c 5c 89 3e ea c7 63 3f ea 02 5d 3f 0e 12 ab bf
       0.26828182 0.8897692 0.8633257 -1.3364885
0000b0 cc a4 9b c0 3c cd d4 bf cf d8 46 3f 8d 7c 31 3b
       -4.863867 -1.6625133 0.77674574 0.0027082295
0000c0 c4 a7 8c c0 b6 7b 05 c0 8f 6b 32 c0 22 8f 27 3f
       -4.395479 -2.0856757 -2.7878149 0.6545278
0000d0 f5 91 29 c0 8d f0 ee bf 3c a5 93 bc 02 4b 81 be
       -2.6495335 -1.866716 -0.018023126 -0.2525254
0000e0 ae 70 09 c0 8c 92 37 c0 f1 b6 9a 3f f7 8b 11 3f
       -2.1475024 -2.8683195 1.2087079 0.56854194
0000f0 d8 50 4f 3f be 9b 4b 40 35 84 08 40 fe 0e 32 c0
       0.8098273 3.1813807 2.1330693 -2.782165
000100 4e 4b 88 bf 8a ad f7 be 7e 6e 98 be 75 60 72 3f
       -1.0647981 -0.48374587 -0.297718 0.9467843
000110 b0 fd bd bf 77 c8 89 3e 90 46 84 3f b9 c3 18 c0
       -1.4843044 0.26910755 1.0334034 -2.386946
000120 d8 44 42 3f 05 79 9c bf d1 ef 5e c0 93 a0 26 c0
       0.758863 -1.2224432 -3.4833872 -2.6035507
000130 84 be 28 3f d2 24 7b 3e 18 27 d9 bf 51 75 9d 3e
       0.65915704 0.24525765 -1.6965055 0.30753568
000140 47 8c 91 bf c6 41 c5 3e 09 cf 08 bf 33 f3 02 40
       -1.1370934 0.38526744 -0.5344091 2.0460937
000150 00 91 30 c0 a5 1b 26 3f 28 73 2d c0 00 dd a4 bf
       -2.75885 0.6488593 -2.7101536 -1.2879944
000160 34 f8 4e 3f 18 f7 0b bf 92 66 1c 3e 0d 38 f1 be
       0.8084748 -0.5467391 0.15273502 -0.47113076
000170 b0 7e a8 bf e2 d1 76 bf d8 2e 7e 3e ca 3e 64 bf
       -1.3163662 -0.96414006 0.24822557 -0.8915831
000180 c6 d1 b5 bd d0 51 3b c0 f0 bb 91 be 17 f0 4d c0
       -0.08877902 -2.9268684 -0.28463697 -3.217779
000190 12 ef 29 40 59 49 82 bf db 50 9f be 48 42 e5 bf
       2.6552167 -1.0178634 -0.31116375 -1.7910852
0001a0 18 93 ab bf fc ba ee 3f 07 91 5e 3f a6 d6 1b 3f
       -1.3404264 1.8650813 0.86940044 0.608744
0001b0 1b d6 95 be 26 26 03 c0 b5 3e 8b bf 1a 21 64 bf
       -0.29264912 -2.0492034 -1.0878512 -0.8911301
0001c0 98 9d 82 bf 55 1f 7c 3f e0 ee ae be 88 a6 12 c0
       -1.0204344 0.9848531 -0.34166622 -2.2914143
0001d0 bc 09 1d c0 31 aa 74 3e 57 5c c1 3e 44 06 dd bf
       -2.4537191 0.23893048 0.37765762 -1.7267537
0001e0 5c c2 12 40 90 ed af 3f 4e c1 81 c0 78 cb 0c 40
       2.2931128 1.3744373 -4.054847 2.1999187
0001f0 c9 75 65 be 8c 09 09 c0 bb 6c 11 3f 8d 09 ca be
       -0.22408213 -2.1412077 0.56806535 -0.39460412
000200 d8 2e 3b 40 db 79 05 bf f4 53 65 c0 86 2b 16 c0
       2.924734 -0.5213906 -3.583249 -2.3464065
000210 10 14 b8 3f c8 ce 01 bf e3 85 ea 3e e5 b1 be bf
       1.4381123 -0.5070615 0.45805272 -1.4898039
000220 28 25 08 40 50 f3 03 c0 31 86 7e 40 22 19 46 3f
       2.1272678 -2.0617256 3.9769404 0.773821
000230 ac d5 62 3e 61 50 3a 40 2f f9 c3 3f a3 24 29 bf
       0.22151822 2.911156 1.531042 -0.6607153
000240 6f 1a 24 40 6d e9 8d 40 e1 f9 0f c0 cf 08 42 3e
       2.5641134 4.4347444 -2.2496264 0.18948673
000250 d2 c5 5d bf df af 48 3e 17 89 0f 3f b9 89 25 3f
       -0.86629975 0.1959834 0.5606856 0.64663273
000260 c7 06 52 3f d7 82 07 bf dd cd 76 3d ea 66 e9 bf
       0.8204159 -0.5293402 0.06025492 -1.8234532
000270 d6 61 48 3f 1d 87 4b 3f ac bd 1b 40 4c e8 0e 40
       0.78274286 0.7950304 2.4334517 2.2329283
000280 55 20 eb 3f ef d9 ab bf 2b d6 ad be b3 4b fe 3f
       1.8369242 -1.3425883 -0.3395246 1.9866852
000290 0f 9c e3 3f 21 b4 7c be b6 f7 a4 3f 3d 63 84 3e
       1.7782 -0.24678089 1.2888095 0.25856963
0002a0 ea f6 b5 be 50 07 d6 3f 5c 4f 0e bf 23 4f f3 3f
       -0.35539943 1.6720982 -0.5558984 1.9008526
0002b0 87 90 4e 3f 25 94 6e 3d 4f c4 53 40 11 6a 23 c0
       0.8068928 0.05824675 3.3088567 -2.5533488
0002c0 97 7f 08 c0 a9 b5 6a 3e 37 f8 c4 3e 45 3d 24 bf
       -2.1327875 0.2292086 0.38470623 -0.6415599
0002d0 c4 40 a9 bf e0 19 32 c0 79 4b a2 bf 4e 9f f2 bf
       -1.322289 -2.7828293 -1.2679282 -1.8954866
0002e0 0b c3 d0 be 22 e7 b8 3f 16 02 9f bf 0d 59 97 bd
       -0.40773806 1.4445536 -1.2422512 -0.07390032
0002f0 c3 09 fb bf 63 93 be bf 40 8f e5 3f f3 60 1a 3f
       -1.9612354 -1.4888729 1.7934341 0.6030418
000300 5d 9e 62 be 31 d8 84 c0 96 51 1f 3f 68 55 aa 40
       -0.22130723 -4.1513906 0.62233865 5.3229256
000310 ac cd 4f bf b4 1c 10 c0 8d c6 b7 3f 54 4c ef 3f
       -0.81173205 -2.251752 1.4357468 1.8695168
000320 73 78 91 bf 8f a0 51 3f 15 56 01 c0 06 f6 4d 40
       -1.1364883 0.8188562 -2.020879 3.218141
000330 02 86 83 bf 3e ff d6 3f 03 03 30 c0 ab 11 2b bf
       -1.0275271 1.6796644 -2.7501838 -0.66823834
000340 5e 50 0f c0 84 66 38 bf 80 3c 1a c0 b8 5c ea 3d
       -2.2392802 -0.72031426 -2.4099426 0.11443466
000350 7b 15 ad 3f 20 ac 84 bf 83 25 b1 3f 72 cb 42 3f
       1.352218 -1.0365028 1.3839573 0.7609168
000360 83 8f 45 bf 29 f1 73 3e 28 6d ea 3f 06 96 53 c0
       -0.77172107 0.23822464 1.8314562 -3.3060317
000370 c2 89 f5 3e 12 c0 c0 bf 25 a0 ba 3f 13 0b 07 bf
       0.47956663 -1.5058615 1.4580122 -0.5275127
000380 ec b7 35 bf 40 22 0c 40 c3 56 78 be d4 8d 87 bf
       -0.7098377 2.1895905 -0.24251847 -1.0590158
000390 39 d5 f4 be b6 ee 36 40 db 15 0a c0 6e 93 47 40
       -0.47818926 2.8583198 -2.157584 3.1183734
0003a0 e2 7b 25 3f fc 28 55 40 cb 24 cc bf 69 4d de 3f
       0.64642155 3.3306265 -1.5948728 1.7367374
0003b0 8d 8a 21 c0 ea c4 87 c0 aa 68 e0 3f d7 f6 2d bf
       -2.5240815 -4.2427874 1.7531941 -0.6795477
0003c0 50 c1 49 c0 0b a6 e2 bf 7c 33 e9 bf c7 f2 06 c0
       -3.1524239 -1.7706922 -1.8218837 -2.108568
0003d0 07 6c 6b bf fc 11 c3 bf 45 5d 09 40 99 32 0e c0
       -0.9196171 -1.5239863 2.1463177 -2.2218382
0003e0 58 37 10 40 f2 e8 7d bf db 88 a8 3e fc 2a 0f c0
       2.253378 -0.9918357 0.32916912 -2.2369986
0003f0 ac 9c 44 bf 38 bf 7f 3f f5 95 27 c0 12 f6 c8 3e
       -0.7680156 0.9990115 -2.6185277 0.39250237
