model/1715146453/4_Claranet_global_model_1.pth (torch, 331244 bytes, 17 tensors)

conv1.lin_l.weight f4 [16, 1]
000000 71 2a 22 bf ef ad 5e bc fd 09 2f bf 91 ff 26 bf
       -0.6334601 -0.013591274 -0.68374616 -0.65233713
000010 e1 4e 00 bf b0 9c 8d 3e 11 0e 56 bf d2 c5 19 be
       -0.5012036 0.27658606 -0.83615214 -0.15016869
000020 d6 b5 22 bf 25 53 ac 3d 38 5f 88 be 2f 54 61 bf
       -0.6355871 0.08414296 -0.26635146 -0.8801908
000030 eb 8f 5e 3d 3f a2 f8 be 00 7f c7 3e 61 8f e8 be
       0.05433647 -0.48561284 0.3896408 -0.4542189

conv1.lin_l.bias f4 [16]
000000 06 cb 1e be 5a bf 17 3f 88 e1 89 bf 5f c6 be 3e
       -0.15507135 0.59276354 -1.0771952 0.3726072
000010 1f 0d e3 3e 06 6b 91 be b1 bd 51 bf 2f b4 ca 3e
       0.44345948 -0.28401965 -0.8193007 0.39590594
000020 ff cb 2a 3f cc af 32 bf 8f e3 21 3f e1 97 71 bf
       0.66717523 -0.69799495 0.6323785 -0.94372374
000030 35 84 00 3f 50 7c 84 be 8c 66 c9 be d0 53 d9 bd
       0.5020173 -0.25876093 -0.3933605 -0.10611689

conv1.lin_r.weight f4 [16, 1]
000000 d1 bd 7f bf a1 87 00 bf ec 7b 41 3e b1 4b 5b bf
       -0.9989901 -0.50206953 0.18894929 -0.8566237
000010 11 6b a5 be f4 d2 15 3f 1b 56 38 bf 4f 1e f5 3d
       -0.32308248 0.58525014 -0.72006387 0.119686715
000020 8f ee f9 be db d1 51 bf 2f 62 57 bf c4 31 d9 3d
       -0.48814818 -0.8196084 -0.8413419 0.10605195
000030 50 4a 43 bf e1 b7 4b bf 69 5c 8d be 80 34 65 bd
       -0.76285267 -0.7957745 -0.27609566 -0.05595827

conv2.lin_l.weight f4 [64, 16]
000000 b1 99 ac bd 5f 13 0f 3e 9f b9 b8 bc a9 91 0f 3e
       -0.08427752 0.13972233 -0.022549449 0.14020409
000010 89 3a 0a bd ac e0 5e bd f0 47 17 be 25 9f c8 3d
       -0.03374723 -0.054413483 -0.14773536 0.097959794
000020 5f 6a fc 3d 2f 9a 3e 3d 27 c1 06 be 17 45 0f 3e
       0.12324976 0.04653376 -0.1315962 0.139912
000030 aa 5e 9d 3d 8a 2e 24 3e 9f 01 c3 be 51 2e 42 be
       0.07684071 0.16033378 -0.38087174 -0.18962981
000040 46 96 17 3e c6 e1 93 be 41 ad a4 3d f1 6e 2d 3e
       0.14803419 -0.2888319 0.08040858 0.16936852
000050 2f 3d 90 3d 31 a4 49 3d 61 3d a1 bd 38 c6 86 be
       0.0704292 0.04922885 -0.07873035 -0.26323104
000060 71 f1 56 3e ef e9 88 be e1 67 72 be 96 ce 9c bd
       0.2099054 -0.26740977 -0.23672439 -0.07656591
000070 81 17 61 be a0 61 1b be 16 2b 99 be af 1f e4 bd
       -0.21981622 -0.1517396 -0.29915684 -0.11138856
000080 21 e9 85 bd 55 0c b7 bd ba 3a 26 3e e0 79 60 bc
       -0.065386064 -0.08937899 0.1623334 -0.013700932
000090 40 88 bc 3b 80 4d c1 bb a1 58 e2 3d 2f 59 15 3e
       0.005753547 -0.0058991313 0.11052061 0.14584802
0000a0 25 f3 b6 3d ef 7e ca bd c0 a1 23 bc 81 30 c4 3d
       0.08933095 -0.09887492 -0.009987295 0.09579564
0000b0 c7 05 8a bd 81 d2 04 be 20 05 96 be 60 d2 48 be
       -0.06739383 -0.12970926 -0.29300785 -0.19611502
0000c0 af 3e f8 3d af a2 6a be cf 22 c9 bd 51 57 e8 3d
       0.12121331 -0.22913621 -0.09821092 0.11344779
0000d0 bf 00 e9 3d 09 92 90 be 80 2a 91 3c 76 5c 1e be
       0.113770954 -0.28236416 0.01772046 -0.15464959
0000e0 b0 fc be 3c 5b ef b6 be c1 80 22 3e 40 de 86 bc
       0.02331385 -0.3572949 0.15869428 -0.016463399
0000f0 df 2e aa be 5f ce 3f 3e c0 a3 d5 3d 71 b9 fe bd
       -0.33238885 0.18731068 0.104316235 -0.12437714
000100 8f 6e 43 3e 31 22 de 3d e5 1a 3a be e6 51 a8 3d
       0.19085144 0.10846365 -0.18174322 0.08218746
000110 a0 d9 53 bc f0 2b 5e be 50 09 2f 3e ff bf a6 be
       -0.012930304 -0.21696448 0.17093396 -0.32568356
000120 6f f4 1f 3e 51 d1 72 be 00 bc 7e 3e e1 6c 80 bd
       0.15620588 -0.2371266 0.24876404 -0.06270767
000130 91 d3 1d be c1 17 23 be ef 7a a3 be 81 48 39 be
       -0.15412737 -0.1592703 -0.31929728 -0.18094064
000140 ef 9d 48 be 41 f9 8e bd 3f c6 84 be 41 8a f4 bd
       -0.19591497 -0.06981135 -0.259325 -0.11940432
000150 41 a0 75 3e f6 3b 13 be b0 87 de bd 0b 5b 2b bd
       0.23986913 -0.14378342 -0.10865724 -0.041834872
000160 c1 47 74 3e df 99 72 be bf 38 1b 3e ef fa c2 be
       0.23855497 -0.2369151 0.15158366 -0.38082072
000170 da c7 a9 be f0 ea e8 3c 31 49 e6 be 90 36 00 be
       -0.33160287 0.02843234 -0.44977716 -0.12520814
000180 21 68 53 be ba 4e a3 bd c1 7a da bd c0 86 9e 3b
       -0.20645191 -0.07974 -0.10667945 0.004837841
000190 01 f7 51 be 7a 15 9e be e1 83 22 be e1 19 8b be
       -0.20504381 -0.3087576 -0.1587062 -0.27168182
0001a0 a0 d8 1c 3c a9 91 1b 3e 21 42 4a be 1b cf 2c 3e
       0.009573132 0.15192284 -0.19751789 0.1687588
0001b0 90 7f 35 3e 0f 5b 7e 3e b1 9e 0b be f0 73 e0 3c
       0.17724442 0.24839424 -0.13634755 0.027399033
0001c0 11 b3 e3 3d 0f a7 51 be 4f c7 e9 bd ef 91 c8 bd
       0.111181386 -0.20473884 -0.11414968 -0.097934596
0001d0 00 b4 0e 3e 81 53 0c be 21 70 2b be cf 28 91 be
       0.13935852 -0.13703729 -0.16741993 -0.28351447
0001e0 df c2 e7 bd 21 5c bc bc 6f f2 3c be 97 a4 84 be
       -0.113164656 -0.02299315 -0.18451856 -0.25906822
0001f0 a1 17 ae bd c1 83 cb bd 4f a0 4d be 81 0e 18 be
       -0.085006006 -0.099372394 -0.20080684 -0.14849283
000200 d0 67 f0 bc f0 c5 30 3d c1 82 01 be 5f 91 c2 bd
       -0.029346377 0.043157518 -0.12647535 -0.095003836
000210 70 02 07 3e df 2c 07 be bf 44 7b be 1f e8 f2 3d
       0.13184524 -0.1320071 -0.24537943 0.1186068
000220 f1 a2 d7 3d c1 92 54 3e 01 00 c4 3d 00 2c d8 bb
       0.105291255 0.20759107 0.09570313 -0.006597042
000230 41 00 7f 3d f1 dc 52 3e a0 4a 09 bc 21 24 1c be
       0.0622561 0.20592095 -0.008379608 -0.15248157
000240 10 a9 4a bd fb b3 37 be 16 f4 97 3d 71 36 91 3d
       -0.049477637 -0.17939751 0.074196026 0.07090462
000250 9f 3a 4b be 8f 42 69 be 6f 0f 5e be 7f 1a e3 bd
       -0.19846581 -0.22779296 -0.21685575 -0.11089038
000260 d0 e0 03 3d 21 97 d0 3d bf e3 76 be fa 3e 9d be
       0.03219682 0.101850756 -0.24110316 -0.3071211
000270 81 a6 ba 3d a1 6b 71 3e c1 e9 e9 3d 00 82 15 3d
       0.09113789 0.23576213 0.11421538 0.03650093
000280 70 d5 83 bd 70 94 cc bc 91 15 08 3e 01 6d 15 3e
       -0.06437194 -0.024973124 0.13289477 0.14592363
000290 e1 75 45 bd bf 1b 4d be 70 41 ed bd 05 24 31 3e
       -0.04820812 -0.20030116 -0.11584747 0.17298897
0002a0 41 17 00 be 0f 5f 82 3d 01 45 cf 3d 10 53 fc bd
       -0.1250887 0.06365787 0.10120583 -0.123205304
0002b0 1b 8b 2e be bf e5 57 3e 1b d7 2f 3e 50 e2 29 bd
       -0.17045252 0.21083735 0.171719 -0.041475594
0002c0 a1 da 45 be d1 ce 31 be 00 24 eb 3c 50 64 fe 3d
       -0.19321682 -0.1736405 0.02870369 0.12421477
0002d0 21 38 5f 3e 1f 17 b7 3d 60 fa 62 3c 6a a8 23 be
       0.21798755 0.08939957 0.013853639 -0.15982214
0002e0 b1 a5 18 3e a6 d5 9f 3a 4f d7 72 be 3f ff c0 bd
       0.14906956 0.001219441 -0.23714946 -0.09423684
0002f0 b1 bd 8b bd 30 b4 8c 3c b6 61 9e be 81 b5 4b be
       -0.0682329 0.017175764 -0.30933923 -0.19893457
000300 cf b7 48 be 9f 04 0b be 4f 9f 9b bc 0f 93 ff bd
       -0.19601367 -0.13575982 -0.018996863 -0.12479221
000310 a1 78 57 3e df 62 d3 bd e0 9e 14 3d bf 69 25 be
       0.2104211 -0.103215925 0.036284328 -0.1615362
000320 8f 84 02 be 0b 1a af bd cf b3 06 3e 1a b8 19 3d
       -0.1274588 -0.08549889 0.13154529 0.03752909
000330 af 15 d3 3d e1 cb 56 3d c6 24 16 3e a0 58 c1 3c
       0.1030687 0.052440528 0.14662465 0.02360183
000340 61 61 7a bd 5f 18 02 be c1 cf 05 bd 11 af 24 3e
       -0.061128024 -0.1270461 -0.032668833 0.16082408
000350 51 ac c3 3d af 55 83 3d a0 82 24 be e6 26 a4 3c
       0.09554351 0.06412827 -0.16065454 0.02003808
000360 cf 5f 35 3e 9f 8b 02 3e f5 1e 32 be 2f 29 af bd
       0.1771233 0.12748574 -0.17394622 -0.08552777
000370 c6 1c 93 3c 90 d7 11 bd ef dd 96 3c f0 3c 89 3d
       0.017958056 -0.035605967 0.018416373 0.06701076
000380 1f cc 41 3e e6 6c a2 3d 81 52 3a 3e f0 80 fe 3d
       0.18925522 0.07930927 0.18195535 0.124269366
000390 10 ec 58 be 19 31 0c be d0 4a 60 3e 10 fa 99 bc
       -0.211838 -0.13690604 0.21903539 -0.018795997
0003a0 b7 63 0c be af 7a 6d 3e e0 a8 e9 3c 11 0f 0c be
       -0.13709913 0.23191331 0.028522909 -0.13677622
0003b0 1f 1e 5f be 40 41 e3 bb 2f 33 8a 3d 61 da 54 bd
       -0.21788834 -0.0069352686 0.06748044 -0.051966075
0003c0 71 b6 14 3e c7 cc 8b 3e 21 ac 0f 3e d0 47 3b 3e
       0.14522721 0.2730467 0.14030506 0.18289113
0003d0 e1 79 f3 3d 51 18 c3 3c 80 3a 82 bc ff 02 5e 3c
       0.11888481 0.023815306 -0.015897036 0.013550519
0003e0 cf 51 64 be 57 69 8b 3c 01 c4 ed 3d a6 2f 9c 3c
       -0.22296833 0.017018003 0.116096504 0.01906569
0003f0 ff 80 0c bc e1 0d cc 3d 31 3f 5a 3d 00 ff e5 3b
       -0.008575677 0.09963585 0.05328292 0.0070189238

conv2.lin_l.bias f4 [64]
000000 00 5d 95 bd 5f ee f7 bd 4a b1 a5 be 71 74 bb be
       -0.07293129 -0.121060126 -0.32361823 -0.36612275
000010 0f ac dd bd 8f 1b b2 be 9b c5 2b 3e ff 1e 4d 3d
       -0.10823833 -0.3478665 0.16774599 0.05007839
000020 e0 d7 50 3d 7c 9b 4f be 90 96 4f 3d 21 4d 09 3d
       0.050987124 -0.20274156 0.050680697 0.03352082
000030 6f a0 01 3e 61 d3 83 3c af 9d 56 be af fb 75 be
       0.12658857 0.016092004 -0.20958589 -0.24021791
000040 66 99 9e bd 3f 83 6c be a0 e6 95 be e1 5f 9d be
       -0.07744102 -0.23096941 -0.29277515 -0.30737212
000050 91 9f 71 be 5b f2 ac 3d c1 cf cd bd 1f a6 62 bd
       -0.23596026 0.08444663 -0.100493915 -0.055334207
000060 4b 8a 2f 3e 11 b2 1d be d0 57 02 3e 21 1d ca bd
       0.17142598 -0.15399958 0.1272881 -0.09868837
000070 77 31 88 be 6f 19 ac 3d 61 81 94 be f1 e3 e0 be
       -0.2660024 0.084032886 -0.29004958 -0.43923905
000080 bf 55 5a be 2f 69 49 3e 51 ae df bd e6 68 28 be
       -0.21321772 0.1966903 -0.1092192 -0.16446266
000090 7f 69 9b be ea 3e 21 3e f0 81 30 3e 50 6e e4 3d
       -0.30353925 0.15746656 0.17237067 0.11153853
0000a0 a6 18 22 bd 7f 52 db bd 78 f1 07 bc ef 15 16 be
       -0.039574288 -0.10709094 -0.008297317 -0.14656805
0000b0 d1 55 ee bd c1 dc cf bc e6 c5 51 be 80 a5 c6 be
       -0.11637462 -0.025373818 -0.20485649 -0.3879814
0000c0 a6 f0 a1 be 85 77 b5 be 41 ca 0f 3d a1 ff 56 be
       -0.31628913 -0.3544275 0.035104994 -0.20995952
0000d0 b1 24 ac bd a6 0a aa bd a1 28 1a 3e c5 e9 b6 3d
       -0.08405436 -0.08302812 0.15054561 0.08931307
0000e0 c1 69 b0 be b1 f5 40 3e 7f fe f9 bd 9f a6 3a be
       -0.34455684 0.18843724 -0.122067444 -0.18227623
0000f0 cf a2 b9 3d 11 81 9f 3d 1f 2b 1c 3e 2a 7f 95 3c
       0.090642564 0.07788289 0.15250824 0.018249113

conv2.lin_r.weight f4 [64, 16]
000000 d0 f6 22 be 11 fe c3 3d 0f 00 97 be a1 ea a6 3d
       -0.15914464 0.09569944 -0.29492232 0.08150221
000010 4f 63 13 be 40 41 85 3d 36 13 26 3e 71 9d 4c be
       -0.14393352 0.06506586 0.16218266 -0.19981934
000020 9f a4 06 be 57 33 00 3e c5 88 b7 bd 8f a8 25 be
       -0.13148735 0.12519585 -0.089616336 -0.16177581
000030 6f 56 22 be 5b 15 35 be 5f 20 0d be ff e1 04 3e
       -0.15853284 -0.17683928 -0.1378188 0.12976836
000040 40 e2 0f bd 01 77 85 be 09 be 90 be a0 dc 8a 3c
       -0.03512788 -0.26067355 -0.28269985 0.016950905
000050 60 c6 06 3e ff ed 1a be c1 fb 27 be ef c4 a3 3c
       0.13161612 -0.15129851 -0.1640463 0.019991366
000060 9f c6 29 3e e1 42 d6 bd 21 00 c7 bd aa 6a 18 3d
       0.16579674 -0.10461975 -0.097168215 0.037211098
000070 8f 6f 88 be cf 95 24 be a7 c1 8b 3d f1 46 0d 3e
       -0.26647612 -0.16072772 0.06824046 0.13796593
000080 41 14 e6 3d b1 c7 27 3e 21 e3 3f 3e 91 10 01 3e
       0.11234332 0.1638477 0.18738987 0.12603976
000090 71 13 20 3e af d8 5a ba 40 23 85 3d 21 f9 79 bd
       0.15632416 -0.00083483284 0.06500864 -0.061028603
0000a0 91 5a 3c 3e f1 47 be bd c0 f3 63 be 6f e5 76 3e
       0.18393923 -0.092910655 -0.22260952 0.2411096
0000b0 84 8c 61 3e 0f 24 49 be b5 82 b5 bd 9f 9e 60 be
       0.22026259 -0.19642662 -0.08862821 -0.21935509
0000c0 60 cf 40 3d 20 c0 73 3d ff f8 ca bd 7f 2b 50 bd
       0.04707277 0.059509397 -0.099107735 -0.05082273
0000d0 11 f3 be 3d 71 16 dc 3b 21 b2 5a 3e e1 30 9a be
       0.09323705 0.0067165424 0.21357013 -0.30115417
0000e0 50 7d 45 3e e1 22 73 be 1f 4a 96 bd 41 bf dd 3d
       0.19286084 -0.23743774 -0.07338356 0.108274944
0000f0 50 67 ce bc e1 ea 53 3d 8f 61 0b be 91 e2 a3 bd
       -0.025195748 0.05173767 -0.13611434 -0.080021985
000100 00 8f af 3c 00 cb 09 3d 41 6f 71 be a5 3a 32 bd
       0.021430492 0.03364086 -0.23577596 -0.04351296
000110 11 e0 ef 3d bf 1d d5 3d d9 94 0a be 6f bb fd 3c
       0.11712659 0.10406064 -0.13533343 0.030973164
000120 80 f7 65 3b 31 6f 29 3c 37 82 89 3d 55 0f ad 3d
       0.0035090148 0.0103414515 0.0671429 0.0845019
000130 f6 e5 a5 3d 9f c6 71 be 81 64 35 bd ef e1 8a 3d
       0.08100502 -0.23610924 -0.0442853 0.06781375
000140 af f8 09 be df 01 07 bf e1 a4 0e be a1 6f 45 3d
       -0.13473772 -0.5273723 -0.13930084 0.04820216
000150 b8 87 08 3d 71 06 93 be 10 0a 26 3e 01 59 02 bf
       0.033332556 -0.28715852 0.16214776 -0.5091706
000160 f6 fb 1b be 51 b5 02 bf 30 e1 79 be a5 bb b9 be
       -0.15232834 -0.51057917 -0.24402308 -0.36275974
000170 4f a4 e0 be 21 85 03 be 41 de 43 be 60 b4 de bd
       -0.43875358 -0.12843753 -0.19127752 -0.108742476
000180 aa b7 9c bd ef 02 67 be b1 9b d6 bd b6 57 1d 3e
       -0.07652219 -0.22559713 -0.104789145 0.1536549
000190 df 72 40 3e ef 0f ec 3d 4a 42 96 bd a9 58 08 3e
       0.1879382 0.115264766 -0.073368624 0.13315071
0001a0 06 cf 21 be bf ce 16 bd 3f 93 57 3e 0f dc 61 be
       -0.1580163 -0.036818262 0.21052264 -0.22056602
0001b0 c1 6d d4 3d 00 ca 2f 3a 8f dc db 3b ff 54 6b be
       0.103724964 0.00067058206 0.0067096422 -0.22981642
0001c0 81 58 6e 3e 11 04 90 be b1 ec 73 be c1 10 c2 bd
       0.23275949 -0.28128102 -0.2382076 -0.09475852
0001d0 80 88 7f bd 2f fe d4 3c 81 01 5d bd 17 07 0f 3e
       -0.062386036 0.02600011 -0.053956512 0.13967548
0001e0 bf f2 72 be 3f ae f8 3d ff 1d 4b be 81 1a 5b 3e
       -0.23725413 0.1214261 -0.19835661 0.21396829
0001f0 bf 14 7b be c0 f5 eb 3c 5f 8e 5d bd cf 71 e1 bd
       -0.24519633 0.028803706 -0.054090854 -0.110080354
000200 61 d2 bd 3d b1 38 61 3e 81 b5 78 bd 8f 6b 37 be
       0.09268642 0.21994282 -0.06071997 -0.17912124
000210 cf 18 0b be b0 b7 e7 bd f9 91 05 3e f0 58 4f be
       -0.13583682 -0.113143325 0.13043965 -0.2024877
000220 3f f4 3a 3e a6 75 a3 3d 6a 41 9a 3d 6f 64 34 be
       0.18257235 0.07981424 0.07532008 -0.17616437
000230 af fe e5 bd c1 67 18 be 01 1b da 3d 30 08 d8 3d
       -0.11230218 -0.14883329 0.10649682 0.10548437
000240 50 79 3e 3e 6f f7 42 bb 4f a6 6a 3d d0 08 7f 3d
       0.18600965 -0.0029749533 0.05728751 0.062264264
000250 10 a7 60 bd 3f 5b 20 3d 2f 15 34 be bf 75 69 be
       -0.054846823 0.03914952 -0.17586206 -0.22798823
000260 60 ef 37 3d 60 3a 84 bc 00 d1 ca 3c 51 10 12 bc
       0.04490602 -0.016141117 0.024757862 -0.008915023
000270 1f 75 40 be 5f a0 cd bd 71 18 f8 bd a9 b5 0f bd
       -0.18794678 -0.10040354 -0.12114037 -0.035085354
000280 9f 6b b4 bd 8f 2f 4a 3e 6f 75 19 3e 01 3d 70 be
       -0.088095896 0.19744705 0.14986204 -0.23460771
000290 bf 8c c0 3d e1 ac 5c be 30 fd b2 3d cf a2 78 be
       0.09401845 -0.21550323 0.08739698 -0.24280857
0002a0 c9 a2 0f 3d cf c8 1a be c0 88 7c 3e 7f 15 61 be
       0.035067353 -0.15115665 0.24661541 -0.21980856
0002b0 c1 d9 fc bd c1 5a 71 3e 9f f7 46 bd e1 14 7a 3e
       -0.12346221 0.23569776 -0.048575994 0.24422027
0002c0 a1 2f 60 bd f1 22 0d 3e 91 40 79 be e0 76 30 3d
       -0.054732922 0.1378286 -0.24341036 0.043082118
0002d0 f0 1e 86 3d af 09 80 bd b1 22 fe bd ff c8 6d be
       0.065488696 -0.06251847 -0.124089606 -0.23221205
0002e0 c1 b2 e1 3d 11 4c af bd 3b 83 30 3e 2b e4 37 3e
       0.11020423 -0.085594304 0.1723756 0.17958133
0002f0 1f 80 1a 3e 20 2e 97 3d ef c2 43 be 40 34 33 3e
       0.15087937 0.073818445 -0.1911733 0.175004
000300 01 c2 3c be 21 6b 38 bc 2b 1d b7 bd a0 1e 1b 3e
       -0.18433382 -0.01125601 -0.0894111 0.15148401
000310 5f d1 1d 3e bf e1 3b be 66 b9 24 3e e1 bc be 3d
       0.154119 -0.18347834 0.16086349 0.093133695
000320 ef ac a5 3d f1 52 f6 bd 7f 32 1f be df 85 6b be
       0.08089625 -0.120275386 -0.15546606 -0.23000287
000330 af c3 36 be 4f f7 51 be 40 24 cc 3c 4f f3 36 3e
       -0.17848085 -0.20504497 0.02491963 0.17866252
000340 2f 27 62 3e c0 60 0d be bf b6 02 be 9f 54 61 3e
       0.2208526 -0.13806438 -0.12765025 0.22004937
000350 30 ea bc 3c 41 2e 91 bd c0 3c 00 3e 21 97 45 be
       0.023060888 -0.070889 0.12523174 -0.19295932
000360 f1 37 31 be 8f 4c 11 be 5f c8 c1 bd 99 36 8c 3d
       -0.17306496 -0.14189361 -0.09462046 0.06846351
000370 6f a9 02 be 6f 19 7c 3e 41 a0 51 be b0 88 11 be
       -0.12759946 0.24619077 -0.20471288 -0.14212298
000380 65 67 33 3e 41 9e 74 3e 71 96 6e be df 35 47 be
       0.1751991 0.23888494 -0.23299576 -0.19454144
000390 47 c5 00 be 81 53 c5 bd 80 67 5a be 21 0f d3 3d
       -0.12575255 -0.09635068 -0.21328545 0.1030562
0003a0 57 40 92 3d a0 fe 9a 3d d0 c8 5a 3d 11 ef 68 3e
       0.07141178 0.07568097 0.053414166 0.22747447
0003b0 16 c1 94 bd 35 98 33 be 81 3d 43 3d 80 c9 19 3e
       -0.07263391 -0.17538531 0.047666077 0.15018272
0003c0 50 77 61 be 0f ae 91 bd 0f 78 19 bb c1 21 65 3d
       -0.2201817 -0.07113277 -0.0023417508 0.055940393
0003d0 e0 11 96 bc 5f 32 9c bd 80 ce 65 3b 31 41 57 3d
       -0.01831907 -0.07626795 0.003506571 0.052552406
0003e0 20 68 0f bd 6f 86 c8 bd 21 c1 e2 3d 91 8a 47 3d
       -0.03501141 -0.09791266 0.11071993 0.04871613
0003f0 7f 76 4c 3e a0 d9 94 3d 41 86 0b be 30 7e b2 bd
       0.19967078 0.07268071 -0.13625433 -0.087154746

lstm_cell.weight_ih f4 [256, 192]
000000 47 4f 00 3e 30 ff 3c 3e 07 c7 91 bd 0a 3e 99 3c
       0.12530242 0.18456721 -0.071180396 0.01870634
000010 8a 37 29 3d 05 31 39 be 91 73 48 3d b7 63 8b 3d
       0.04131273 -0.18085106 0.048938338 0.068061285
000020 9f 15 d4 bd b1 7c bf bc a5 f1 b3 3d 79 f6 10 3e
       -0.103556864 -0.023374887 0.087863244 0.14156522
000030 ff c4 0b 3e 81 81 43 3e 80 dd b0 3b 21 73 4f be
       0.13649367 0.1909237 0.0053974986 -0.20258762
000040 b6 4f 1c 3d 11 07 2c 3e 2f 65 43 bc 18 74 08 3e
       0.038161956 0.1679957 -0.0119259795 0.13325536
000050 c1 b2 e0 3d 81 27 27 3c 15 8a 2d 3d 7f c2 71 3d
       0.109715946 0.01020229 0.042368013 0.059023377
000060 20 ad 12 bd ff 62 fc 3d 41 be ee 3d 3b ae 34 3e
       -0.035809636 0.123235695 0.11657382 0.17644589
000070 b1 8c 3f bd 7f bd b7 be ef 97 44 3e b1 83 47 bd
       -0.046765033 -0.35886762 0.19198583 -0.048709575
000080 30 71 3c bc 21 79 3a 3e c1 3d 4a be 9a d9 21 3e
       -0.011501595 0.1821027 -0.1975012 0.15805665
000090 81 94 86 3c b1 2d fe bd bf c3 26 3d 57 30 0f bd
       0.016428234 -0.12411059 0.04071402 -0.03495821
0000a0 cf 93 0f be 00 34 ce 3d bf f1 c7 3d d9 05 0b 3e
       -0.14021228 0.10068512 0.09762906 0.1357645
0000b0 50 7e 52 3e a1 9c 35 bc ac 62 b1 3d 50 dc 3d bd
       0.20555997 -0.0110847065 0.08661398 -0.046352684
0000c0 3f 54 3a ba 30 1e 51 bc a0 01 28 bd 8f eb d8 3d
       -0.00071078906 -0.012763545 -0.041017175 0.10591804
0000d0 31 be a9 3d 56 71 1e 3e 5f 29 4c 3e 8a 4d 14 ba
       0.08288229 0.15472922 0.19937657 -0.0005657306
0000e0 40 66 f0 3d 71 a8 28 3e 61 bc b0 ba c1 15 5b 3e
       0.11738253 0.16470505 -0.0013483876 0.21395017
0000f0 4f ac 1b 3e a0 5b ed 3d cf 82 5f bd a1 a7 97 3d
       0.1520245 0.11589742 -0.05456811 0.074050196
000100 b5 a5 84 bf 46 5e 58 40 1d 15 2a 40 30 c8 34 40
       -1.036307 3.380754 2.6575387 2.8247185
000110 46 d4 11 40 4b 19 b7 40 14 d4 e5 40 6b 49 b2 bd
       2.2785811 5.7218375 7.1821384 -0.087054096
000120 5f ec b5 40 73 52 f3 40 ad 84 f0 40 3d ea d3 40
       5.685104 7.6038146 7.516196 6.6223435
000130 e7 a0 cb 40 94 0f d8 40 c0 82 0c 41 f8 db f4 40
       6.3633914 6.7519016 8.781921 7.6518517
000140 fa f9 fc 40 1f 6e d9 40 8b 17 ef 40 37 84 ed 40
       7.9055147 6.7946925 7.471624 7.4223895
000150 66 55 ed 40 72 c5 aa 3d d4 fa 05 41 38 4c aa 40
       7.4166746 0.08338441 8.373737 5.321804
000160 98 20 e6 40 a4 46 e5 40 fd 9c e0 40 11 5b 01 41
       7.1914787 7.164873 7.0191636 8.084733
000170 31 78 ea 40 5b c5 32 3c 3e 62 8c 3d 18 78 79 3d
       7.327172 0.010911311 0.06854676 0.060905546
000180 de 1d 3c bd 3f fa e0 bd 06 6e 5b 3c ea 3a a8 3c
       -0.04592692 -0.10985231 0.013392931 0.020535905
000190 7f e4 8b 3c 01 1f 2a 3d da 50 12 be 20 49 96 3b
       0.017076729 0.041533474 -0.14288655 0.004586354
0001a0 01 d8 90 3d 60 f6 fd bb 9f b2 ef bd c1 c3 e5 bd
       0.070724495 -0.0077503175 -0.11703991 -0.11218978
0001b0 00 8f 6c 3b 70 66 02 bd f0 14 6d 3c c0 5b 55 bd
       0.0036095977 -0.031835973 0.014470324 -0.052089453
0001c0 a0 8e 97 bd bf 85 05 3d e0 6b fb bc 00 c3 93 3b
       -0.074002504 0.032598253 -0.030691087 0.00450933
0001d0 e0 66 53 bc 3f 0c a6 bd 05 26 b1 bd b1 83 f6 bd
       -0.012902945 -0.081078045 -0.0864983 -0.12036837
0001e0 ef fe c6 3d c0 5a 3c 3c 85 b9 b7 bd ff 54 e8 3d
       0.097165935 0.011496246 -0.08970932 0.11344337
0001f0 bf 37 ae bd 0f 7a e6 bd 41 1d 43 3d 09 af 90 bd
       -0.085067265 -0.112537496 0.04763532 -0.07064635
000200 41 c6 fe bc e9 ef fd 3f 9f 28 a3 3f 02 ed ef be
       -0.031100394 1.983884 1.2746772 -0.4686051
000210 fe 13 08 bf c7 29 14 40 ff 74 d4 3d d2 18 56 40
       -0.53155506 2.31505 0.10373878 3.345265
000220 74 90 d4 40 26 d2 ba 40 0d 87 b1 bd 1d 3e ec 40
       6.6426334 5.838153 -0.08668337 7.382582
000230 dd b7 f6 40 0d ec f8 40 ef 6d d2 3d 1f 17 06 41
       7.7099442 7.778815 0.102748744 8.380645
000240 4f 13 11 41 f5 84 00 41 bb 31 f2 40 f9 64 e5 40
       9.067214 8.03246 7.5685706 7.168576
000250 05 16 dc 40 9c e3 ce 40 31 03 52 3c 05 68 04 41
       6.877688 6.4652843 0.012818144 8.275395
000260 44 3d ce 40 93 ea 5f 40 9b 11 5f 3d af 82 e0 40
       6.4449787 3.4986923 0.05446015 7.0159526
000270 89 66 84 40 63 b4 09 41 6a 80 ef 3d 2b fd 8a 3d
       4.1375165 8.60654 0.11694415 0.06786569
000280 ea 40 7e 3d fc 62 8f 3d 7d 40 04 be 7b 24 95 bd
       0.062073626 0.07001302 -0.12915225 -0.07282349
000290 90 55 b9 bd 71 e2 e5 bd 3f 18 b9 bd 90 c2 ea bd
       -0.09049523 -0.11224831 -0.09037828 -0.11462891
0002a0 8f ca 49 3d df 34 ea 3d ff 2f 91 3d bf ee 24 bd
       0.04926544 0.114358656 0.07089233 -0.04026675
0002b0 11 3c 02 bd 61 75 59 3d bf e1 b6 3d d0 16 c4 bd
       -0.031795565 0.053090457 0.089297764 -0.09574664
0002c0 4a f8 a6 bd 8f a3 3d bd 97 f4 8e bd a5 ba 2c 3d
       -0.08152826 -0.04629856 -0.069802456 0.042170186
0002d0 e1 7b f8 bd 50 58 b9 3d 40 fe 3e bb 71 62 e3 3d
       -0.12133003 0.090500474 -0.0029143244 0.111027606
0002e0 f1 3b 24 3d 21 4e 83 bd 00 8a 10 bd 65 24 ac bd
       0.040096227 -0.06411386 -0.035287857 -0.08405379
0002f0 5a 43 1e 3d b1 a7 a8 bd 81 4e f2 3d 4f 94 b6 3d
       0.03863845 -0.082351096 0.1183138 0.08915006
000300 6f f2 2b 3d 9f 85 20 3d 4f cc 0e 3f 81 7e cf 3d
       0.04197925 0.03918993 0.557805 0.101315506
000310 65 92 b2 3d 7a 88 12 be 60 1b 81 bc 6f 5b f9 3c
       0.08719329 -0.14309874 -0.015760124 0.030439107
000320 d0 7d 61 bc 1f c5 e0 bc 41 67 fb 3d 31 42 db 3b
       -0.013762906 -0.027437745 0.122755535 0.0066912402
000330 27 cd 0d bd 51 67 c7 3e 76 0d a8 bd d1 b5 17 3f
       -0.034619477 0.38946012 -0.082056925 0.59261805
000340 b9 5e 8b 3c e1 fe 56 3d 61 c6 00 bd 11 7b f4 3d
       0.01701294 0.052489165 -0.03143919 0.119375356
000350 0f bd 3d 3e 00 88 a3 3d 81 df 4c bd 15 0f 33 3e
       0.18529151 0.07984924 -0.050017837 0.17486222
000360 e0 be 7e 3d 6f 3d 60 3d 30 d5 0e 3c 81 c4 97 3e
       0.06219375 0.054746088 0.00871782 0.29642108
000370 19 f8 0b bc 01 89 33 3f 1a b0 14 3f 8a 14 29 3d
       -0.008543038 0.70130926 0.5808121 0.041279353
000380 3f 52 88 3d ff 1c 56 bd e1 93 56 3f 5f 7d 32 bd
       0.06656312 -0.052273747 0.83819395 -0.043576594
000390 9f da 47 bd df a1 dd 3d e0 14 d9 bc b8 73 82 3c
       -0.048792478 0.1082189 -0.026499212 0.01592432
0003a0 10 d4 2d 3f e0 18 c7 3c af 67 44 3f c9 4c 00 3e
       0.67901707 0.024303854 0.7672071 0.12529291
0003b0 cf aa b3 3e 89 12 06 3e 1f f1 17 3d a6 e8 9f 3d
       0.35091254 0.13093008 0.037095185 0.07808046
0003c0 3f 43 ad bd ca ab 14 3d cf 9d b6 3e bf 46 2b be
       -0.08460092 0.036296643 0.35667273 -0.16726206
0003d0 ef ef bf bd ba 9d 96 bd a1 57 f0 3d 31 b1 d6 3c
       -0.093719356 -0.07354303 0.11735464 0.026207538
0003e0 86 a7 9f bd 39 64 0b 3e c1 e4 21 3e df 78 61 3d
       -0.077956244 0.1361245 0.15809919 0.055046912
0003f0 bf d5 51 3d bf 0e 62 bd 1f e1 e5 bc 71 54 03 3d
       0.051229235 -0.055189844 -0.028061448 0.03206295

lstm_cell.weight_hh f4 [256, 64]
000000 39 6f e5 3e 15 17 c3 3e 71 27 88 3f f1 c6 85 c0
       0.4481142 0.38103548 1.0637037 -4.180535
000010 ad f1 aa 3f 3a ec 33 c0 ab 14 19 c0 3f 19 1c 40
       1.3355004 -2.8112931 -2.3918865 2.439041
000020 fc ab 5e 40 34 d5 45 3f 57 22 e2 3e 1d 2b a3 bf
       3.479247 0.7727845 0.44166824 -1.2747532
000030 27 4e 42 bd 8d 7f ba bf a4 96 ec bf bd d8 61 be
       -0.047437813 -1.4570175 -1.8483472 -0.22055335
000040 f7 1a 4c bf 99 62 1c 3f 5b 47 48 c0 b5 5d c5 bf
       -0.79728645 0.6108795 -3.1293552 -1.5419222
000050 6e 20 3a bd c2 89 26 40 12 9d 21 40 f7 ec 46 bf
       -0.045441084 2.602158 2.5252118 -0.7770533
000060 be 0a 05 3f aa 78 21 40 0f c0 1d c0 ee d8 67 3f
       0.51969516 2.5229897 -2.4648473 0.90565383
000070 a0 b3 2b be fd 44 3a c0 b4 49 f5 bf 7e c5 c9 3d
       -0.1676774 -2.9104607 -1.9163117 0.09852122
000080 53 48 97 3f 81 4d f9 bf b7 66 cf be 36 22 6e 3f
       1.1818947 -1.9476777 -0.40508053 0.9302095
000090 a9 f2 1b 40 c8 0e b2 bf f7 b5 62 3e 1f 41 10 c0
       2.4366858 -1.3910761 0.22139727 -2.2539747
0000a0 2f 59 9e 3f 5b 28 bb bd 8e 7b 32 c0 f1 27 94 bf
       1.2370967 -0.091385566 -2.7887912 -1.1574689
0000b0 0d 0f a0 bf da 5f ec bf 99 e4 11 3f af 1a ca 3f
       -1.2504593 -1.8466752 0.5698944 1.5789393
0000c0 9a b2 e9 3e 98 0e 05 40 42 0e 00 c0 22 49 35 3f
       0.45644075 2.0790157 -2.0008702 0.70814717
0000d0 39 4d bc 3f c6 88 c7 3f 0d fc 17 c0 bf 4c 43 40
       1.4711066 1.5588615 -2.374759 3.0515592
0000e0 bc 16 a6 3f 5a 2b 17 c0 60 34 6e 3f 34 89 98 3e
       1.2975688 -2.362021 0.9304867 0.29792178
0000f0 c2 f2 35 40 33 3b a2 3f 9d b1 f6 3e 3d a4 36 40
       2.8429418 1.2674316 0.48182383 2.8537743
000100 00 49 df 3e e9 8e f4 be 10 0e c6 3c bc 41 a4 3e
       0.43610382 -0.47765282 0.024176627 0.320814
000110 96 c8 0e c0 18 27 30 c0 84 99 0c 3f 94 06 b5 3e
       -2.2309928 -2.752386 0.54921746 0.3535658
000120 3a 63 05 c0 e3 f5 8c bf d6 4d 23 bf fc be 20 bf
       -2.0841813 -1.1012539 -0.63790643 -0.6279142
000130 2a 46 81 bf 40 82 0b bf 90 db 55 be 4f ce 2f 40
       -1.0099537 -0.5449562 -0.20884538 2.746967
000140 12 58 13 bf 2f 55 80 bf 59 77 52 bf 97 10 17 c0
       -0.5755626 -1.0025996 -0.8221336 -2.3603876
000150 08 fb 35 bf d3 85 ea 3f c4 94 b4 3e 36 f5 68 3f
       -0.7108617 1.832209 0.3526975 0.9099916
000160 93 dd 93 3f 74 67 89 be d7 41 14 c0 ce 8b 77 c0
       1.1551994 -0.2683674 -2.3165185 -3.867908
000170 94 69 46 bf 77 d1 ab be 5a 31 0c c0 6f 46 73 bf
       -0.7750485 -0.33558246 -2.1905122 -0.9502935
000180 5f aa 2e 3e 31 78 c5 3f 2a b0 69 c0 ec 3e 06 40
       0.17057179 1.5427305 -3.6513772 2.0975904
000190 87 70 d0 3f 82 9a d9 be bb 96 86 bd 46 cf 3c 40
       1.6284341 -0.42500693 -0.06571718 2.950151
0001a0 ba 03 8c bf b4 58 56 bf 72 fd 92 40 c3 e1 25 3f
       -1.0938637 -0.837291 4.593438 0.6479761
0001b0 f7 90 c7 bf 5e 5c 9b be 92 7b b9 bf e7 ba 51 bf
       -1.5591115 -0.30343908 -1.4490836 -0.81925815
0001c0 ec 76 80 40 28 34 01 c0 09 94 9e 3f 8e e1 09 c0
       4.014517 -2.0188084 1.2388927 -2.1543918
0001d0 e5 86 5a 3e 2a cf 36 be 70 ac 4d c0 1c d8 fe bd
       0.2134052 -0.17852464 -3.2136497 -0.12443563
0001e0 28 5a e4 bd c2 c5 ec bf 32 cd e0 3f dd 57 1b 3f
       -0.111500084 -1.8497851 1.7562621 0.60680944
0001f0 21 25 d1 3f e0 f0 93 bf 8f ef d8 3d f2 74 f8 bf
       1.6339456 -1.1557884 0.10592567 -1.9410689
000200 cf 14 2a 40 99 eb 7d 3f 51 82 bf 3e e5 ac e5 3e
       2.65752 0.9918762 0.3740411 0.4485847
000210 66 0c 8d 40 a1 73 a6 3e 3e 60 9a 3e d3 78 f7 bf
       4.4077635 0.32510093 0.30151552 -1.9333748
000220 cd 0b 06 40 4f e0 1a c0 79 65 d9 3f 14 24 e8 3c
       2.0944703 -2.4199407 1.6984092 0.028337516
000230 c1 0d ed bd 2e 13 ab bf b5 91 f5 bf c2 c9 23 bf
       -0.11574889 -1.3365228 -1.9185091 -0.63979733
000240 4a 24 c8 3f e9 38 2e 3f 2d 23 01 bf 12 ff f8 bf
       1.5636075 0.6805559 -0.504443 -1.9452841
000250 b8 ee 73 40 c2 91 f8 3e 27 b8 b8 3f b5 b3 c5 3f
       3.8114452 0.48548704 1.4431199 1.5445467
000260 26 a2 1e 3f 1b 83 b8 3f 89 a3 d2 3f 48 bb b4 be
       0.6196617 1.441501 1.6456157 -0.35299134
000270 e8 09 00 c0 a3 d6 22 40 f8 50 62 3f 7a 29 8b 3f
       -2.0006046 2.5443504 0.884048 1.0872033
000280 20 b8 c3 3f f7 73 bf bf ae 2b 91 bd df f4 73 bf
       1.5290565 -1.4957265 -0.07088409 -0.9529552
000290 81 0f e6 3f 31 a4 f6 3f 39 6c a0 3f 27 52 20 40
       1.7973481 1.9268857 1.2533027 2.5050142
0002a0 3e 55 0e c0 57 d3 fd be 6d 3f 1a c0 c1 8b f2 be
       -2.2239528 -0.49575302 -2.4101212 -0.4737225
0002b0 40 68 ea 3f 8e f6 4a c0 d2 87 53 3f 2a df 8d 3f
       1.8313065 -3.1712985 0.8262912 1.1083729
0002c0 63 d3 45 3e 78 06 8b c0 5b be 60 3f ef 12 6c 3f
       0.19318919 -4.3445396 0.8779046 0.9221639
0002d0 57 97 79 c0 94 38 90 3f 50 33 51 3f 34 36 90 3f
       -3.899862 1.1267266 0.8171892 1.1266541
0002e0 48 e2 dc 3f 09 ed 95 3e 16 19 50 bf 09 2a 7b 3f
       1.7256556 0.29282406 -0.8128828 0.98111016
0002f0 db ab 3c 40 f4 d6 9c bf 8d 7d ea be fb 4a cb bf
       2.9479892 -1.2253098 -0.45798913 -1.5882257
000300 bf 0b d1 bf 7d 53 7d 3f 72 ed 95 be 53 a6 2d 3e
       -1.633171 0.9895552 -0.2928272 0.16957979
000310 66 23 31 bf 43 a8 2c 3e 55 c2 78 bf 85 ab f1 bf
       -0.6919464 0.16861062 -0.9717153 -1.8880469
000320 4e 95 4b c0 77 9f da 3f 1f 3c c9 bf 8f cc 97 bf
       -3.1809878 1.7079915 -1.5721473 -1.1859301
000330 68 34 7d 3f dd 1c 42 bf b1 5c 52 3e 3a 5e 8d be
       0.9890809 -0.7582529 0.20543171 -0.27610952
000340 4c aa e5 3d 23 e5 fd 3f 7b ea f2 3f d9 c4 60 bd
       0.11214122 1.9835552 1.8977808 -0.05487523
000350 88 12 87 bf a9 83 10 bf 01 cf e5 3d b8 f0 b3 3e
       -1.055253 -0.564509 0.112211235 0.3514459
000360 64 f6 35 40 af 86 95 3b 15 ee 1a 3f 7d 7b 27 40
       2.8431635 0.0045631747 0.60519534 2.6169121
000370 15 1e 1e 40 b5 9b b9 3f 37 72 c0 bd 0b d2 96 c0
       2.470586 1.4500643 -0.09396785 -4.71314
000380 87 68 e6 bf fd c0 5f bf f5 8d a0 3f 81 32 e9 3e
       -1.8000649 -0.8740385 1.2543322 0.45546344
000390 24 6f b0 3f 98 6c 9b be 25 ff 25 40 67 7e 3a 3f
       1.3783917 -0.30356288 2.5936978 0.72849125
0003a0 61 dc 34 be d0 aa 35 40 22 a9 3c c0 4a d7 37 c0
       -0.17662193 2.8385506 -2.947823 -2.8725152
0003b0 79 9c 02 40 e1 57 bf be 84 a2 2f 40 7f 27 49 3f
       2.0408003 -0.37371734 2.7442942 0.7857589
0003c0 2f 0d 29 40 31 40 0d 3d ab 49 16 bf a0 4c e1 3e
       2.6414297 0.034485046 -0.5870616 0.44003773
0003d0 79 8f 0c 3d 60 32 4a bf 2c 76 99 3e ee ff 19 c0
       0.034316514 -0.78983116 0.2997297 -2.4062457
0003e0 39 d4 aa be ed f5 02 40 2e 91 4f c0 18 b7 f2 be
       -0.33365038 2.04626 -3.243236 -0.47405314
0003f0 17 b0 9e bf 09 05 8d bf 2c a4 03 3f c6 a1 23 c0
       -1.2397488 -1.1017162 0.5142238 -2.5567489

lstm_cell.bias_ih f4 [256]
000000 cd 2a a5 bf 85 0f d6 3f 44 c8 16 3f 3f 5e 4d 40
       -1.2903687 1.6723486 0.5889933 3.2088773
000010 d6 42 3e 40 c0 53 51 40 f2 a6 84 3f 4d ce 27 40
       2.9728293 3.2707367 1.0363448 2.6219666
000020 0e 31 31 3f 67 bf 30 3f 0c 3c 4b 40 e3 d5 07 40
       0.69215477 0.69042057 3.17554 2.1224296
000030 b1 88 74 c0 d3 d9 30 3d 0d 03 41 c0 df da 72 3d
       -3.820843 0.043176483 -3.0158112 0.059290763
000040 1a f2 39 40 00 9f 14 c0 1f d4 31 c0 1c 85 55 3f
       2.9054017 -2.3222046 -2.7785718 0.83406234
000050 cd bb ba bf 13 05 81 c0 88 c5 cd bf 4e 48 b1 3e
       -1.4588562 -4.0318694 -1.6075907 0.34625477
000060 13 6a e2 3f da 7f 90 bf e0 5c 50 3f eb f0 8f 3f
       1.7688621 -1.1289017 0.81391716 1.1245397
000070 4b b2 36 bf be 5e 1c 40 45 3c 1b 40 70 f3 78 3e
       -0.71365803 2.4432826 2.4255536 0.24311614
000080 10 49 d2 3f 33 96 eb 3f 53 26 0b bf 41 29 a0 bf
       1.6428547 1.8405212 -0.54355353 -1.251259
000090 1e 99 23 bf fa 43 af 3f da 82 70 be 2d d8 d2 3f
       -0.63905513 1.369262 -0.23487416 1.6472222
0000a0 79 a3 f8 3e 34 08 50 3f 6b 40 33 3f b2 bc ba bf
       0.4856222 0.81262517 0.7002017 -1.4588835
0000b0 a4 87 99 c0 2b 72 da bf 4b 5f 43 3f fd 26 32 bd
       -4.7978077 -1.7066091 0.7631728 -0.043494213
0000c0 d7 78 8c c0 15 f9 08 c0 bc 48 3a c0 b7 c5 1c 3f
       -4.389751 -2.1402028 -2.9106894 0.6123919
0000d0 e3 ab 1d c0 32 4f eb bf 61 71 21 be 7a 4d 35 be
       -2.4636161 -1.8383543 -0.15765907 -0.17705336
0000e0 ff 30 0d c0 cf cd 3f c0 43 4a a1 3f ae 78 2f 3f
       -2.2061155 -2.9969366 1.2600788 0.6854352
0000f0 0e 7b 5d 3f 5b eb 4d 40 ea 77 11 40 cf fe 35 c0
       0.8651589 3.21749 2.272944 -2.8436773
000100 47 87 97 bf da 61 21 bf 6b e7 ac be 26 b2 5c 3f
       -1.1838158 -0.63039935 -0.33770308 0.8620933
000110 69 24 c5 bf 70 f9 87 3e 7f 51 73 3f 83 f6 15 c0
       -1.5401736 0.26557493 0.9504623 -2.343171
000120 26 28 54 3f de d4 8a bf aa 7d 5b c0 41 50 25 c0
       0.8287376 -1.0846212 -3.429545 -2.5830233
000130 35 f1 3d 3f 25 9e 4c 3c 19 e0 f0 bf 18 58 87 3e
       0.7419618 0.0124888765 -1.8818389 0.26434398
000140 43 83 6e bf 14 2b ed 3e fd 64 1f bf 98 11 06 40
       -0.9316904 0.46321929 -0.6226347 2.0948238
000150 c4 79 30 c0 d1 52 46 3f 0e 8c 2c c0 70 b9 a4 bf
       -2.757432 0.7747012 -2.6960483 -1.2869091
000160 73 0e 53 3f 4a 13 21 bf a8 f7 67 3e 11 79 e0 be
       0.8244392 -0.6292006 0.22653067 -0.43842366
000170 83 5f ad bf ba b5 81 bf 8d 3c 8c 3e d9 72 55 bf
       -1.3544773 -1.0133584 0.27389947 -0.8337837
000180 16 98 52 bd df 5a 3a c0 3c 61 74 be ae 3d 56 c0
       -0.05141457 -2.9117963 -0.23865217 -3.3475146
000190 a6 0b 24 40 94 9a 67 bf 47 bb df be 69 b4 d7 bf
       2.563211 -0.9047024 -0.4369757 -1.6851932
0001a0 43 8c c2 bf 69 38 e1 3f 54 95 36 3f 73 96 0f 3f
       -1.5199054 1.759534 0.71321607 0.5608894
0001b0 d8 82 b2 be 81 32 07 c0 23 88 86 bf ff a8 60 bf
       -0.3486545 -2.1124575 -1.0510296 -0.8775787
0001c0 91 2d a1 bf c8 8c 80 3f 91 a8 08 bf 13 9a 0f c0
       -1.2592031 1.0042963 -0.5338221 -2.243779
0001d0 8d 6f 23 c0 47 42 84 3e bb f4 dc 3e b1 2d d5 bf
       -2.5536835 0.25831816 0.43155465 -1.6654569
0001e0 42 77 17 40 2a ef a6 3f 92 4b 88 c0 6d df 09 40
       2.366654 1.3041737 -4.259225 2.1542618
0001f0 c1 93 6b be 4c 63 03 c0 d7 76 35 3f b6 7c ef be
       -0.23005582 -2.0529356 0.7088446 -0.46774834
000200 e3 54 3f 40 bf b2 94 be f5 e8 65 c0 33 94 12 c0
       2.989556 -0.29042622 -3.5923436 -2.2902954
000210 45 a6 c7 3f 65 e7 03 bf bf 60 0f 3f 40 64 bf bf
       1.5597616 -0.51524955 0.56007 -1.4952469
000220 61 fb 0d 40 5c 4d 06 c0 37 70 74 40 03 2a 2b 3f
       2.218468 -2.0984716 3.819349 0.6686098
000230 8a ad 3a 3e bf ec 38 40 42 a8 dd 3f 86 5f 16 bf
       0.18230262 2.8894498 1.7316973 -0.5873951
000240 5f d7 17 40 8c 44 91 40 0c 80 0b c0 d7 e0 72 3e
       2.3725202 4.5396175 -2.1796904 0.23718582
000250 43 84 6b bf a8 a6 6c 3e 88 a4 11 3f b7 0d 40 3f
       -0.9199869 0.2311045 0.5689168 0.7502093
000260 87 88 1c 3f 3a 12 08 bf ef 70 88 3d b1 b7 e5 bf
       0.61145824 -0.5315281 0.066621654 -1.7946683
000270 8f fe 4f 3f d1 95 3d 3f 4e 22 16 40 d5 71 1a 40
       0.812478 0.74056727 2.3458438 2.4131978
000280 bd a6 f7 3f 24 97 c2 bf 09 c1 bf be 05 3f f8 3f
       1.934776 -1.5202374 -0.37451962 1.9394232
000290 9f 69 f0 3f e6 79 97 be 2f d9 b5 3f 8c 87 a9 3e
       1.8782233 -0.2958519 1.4206904 0.33111227
0002a0 29 85 c3 be cf 5a dd 3f 52 87 06 bf 05 fd f0 3f
       -0.3818753 1.7293338 -0.5255023 1.8827215
0002b0 49 24 43 3f 64 5e 82 bb 83 34 55 40 ac be 27 c0
       0.7622724 -0.0039785374 3.33133 -2.6210127
0002c0 d2 2d 01 c0 d0 ba a8 3e 54 24 c8 3e 38 cd 31 bf
       -2.0184216 0.32955027 0.39090216 -0.69453764
0002d0 55 80 8e bf 08 26 33 c0 f1 85 b4 bf 19 d7 ed bf
       -1.1132914 -2.7991962 -1.4103376 -1.8581268
0002e0 1a 31 ac be 0c af a5 3f b9 27 9e bf 65 12 19 bd
       -0.33631212 1.2944045 -1.2355872 -0.037371058
0002f0 2e 59 e7 bf e9 9d a7 bf b4 0f 01 40 41 f5 25 3f
       -1.807409 -1.3095065 2.0165834 0.6482735
000300 b6 e3 8f be 2d 34 86 c0 e5 8e 22 3f e8 0e a5 40
       -0.28103417 -4.193869 0.6349929 5.1580696
000310 9e 35 48 bf 58 1b 0f c0 c9 3d ce 3f 63 9a fb 3f
       -0.78206813 -2.236044 1.6112605 1.965649
000320 4e a0 9f bf 8a 20 5f 3f ec 61 02 c0 3b 17 56 40
       -1.2470796 0.87159026 -2.0372267 3.3451679
000330 71 3e 70 bf 40 cb d7 3f 26 0a 30 c0 53 e6 f1 be
       -0.9384528 1.6858902 -2.7506194 -0.47246036
000340 e5 ab 1b c0 45 1f 22 bf 11 9e 20 c0 c3 56 d0 3d
       -2.4323666 -0.63328964 -2.5096476 0.101727985
000350 22 43 95 3f a7 1a 7c bf 20 8d aa 3f 38 a7 3e 3f
       1.1661112 -0.9847817 1.3324318 0.74473906
000360 13 22 35 bf 92 2b 2a 3e 64 3c ea 3f 22 fd 4f c0
       -0.7075512 0.16618183 1.829968 -3.249825
000370 f8 03 d3 3e 03 08 bd bf 77 de b2 3f c3 61 e5 be
       0.41213965 -1.476807 1.3974141 -0.4480115
000380 5e 07 4d bf 4a 81 09 40 69 c0 a1 be be 96 9b bf
       -0.80089366 2.1485162 -0.3159211 -1.2155378
000390 3c dd ef be 94 a9 35 40 84 69 0a c0 38 e2 43 40
       -0.46848476 2.8384752 -2.1626902 3.0606823
0003a0 bc 2a 15 3f fe 64 52 40 4f 0e de bf 99 47 dd 3f
       0.5826833 3.287414 -1.7348117 1.7287475
0003b0 a1 09 18 c0 bc 17 86 c0 66 a8 e3 3f a8 2c 4f bf
       -2.3755877 -4.1903973 1.7785766 -0.80927515
0003c0 fd c2 4c c0 28 26 dc bf bf d4 f8 bf 20 03 0b c0
       -3.1994011 -1.7199144 -1.9439925 -2.1720657
0003d0 3d a8 58 bf 21 19 d4 bf ff c1 08 40 f7 88 19 c0
       -0.8463171 -1.6570169 2.1368406 -2.3989847
0003e0 6f 73 1a 40 e9 ce 8a bf 7f 69 af 3e bd 21 13 c0
       2.4132955 -1.0844394 0.34260175 -2.2989342
0003f0 b9 eb 36 bf 61 9d 80 3f 66 61 1a c0 c1 f9 b9 3e
       -0.71453434 1.0048028 -2.4121947 0.3632336

lstm_cell.bias_hh f4 [256]
000000 7d 4f a9 bf 85 f6 e3 3f c9 b1 bc 3e cf ec 48 40
       -1.3227383 1.7809607 0.3685439 3.1394536
000010 76 e0 42 40 c0 05 52 40 97 51 6f 3f 5f 13 2a 40
       3.04495 3.281601 0.9348387 2.6574323
000020 8e d1 36 3f 8b ff 2a 3f 9c 7a 4b 40 93 f0 0f 40
       0.71413505 0.6679618 3.1793585 2.2490585
000030 11 df 7e c0 63 63 0f 3e 0e 52 37 c0 84 bc ca 3d
       -3.982365 0.14002757 -2.8643832 0.09899238
000040 ca b5 39 40 7a 84 1d c0 3f e1 31 c0 ac af 35 3f
       2.9017205 -2.4612107 -2.779373 0.7097118
000050 6d ee bb bf db cb 78 c0 c1 77 d9 bf be 0f bc 3e
       -1.4682137 -3.8874424 -1.6989671 0.3673076
000060 f3 a0 dc 3f c0 94 9d bf 02 ab 85 3f 5b c9 82 3f
       1.7236618 -1.231102 1.0442812 1.0217699
000070 13 d8 1f bf ee 3b 18 40 ce 1f 25 40 70 fa 7a 3e
       -0.6243908 2.3786578 2.5800662 0.24509597
000080 90 c5 d4 3f 53 ac e8 3f aa a6 21 bf 91 50 96 bf
       1.6622791 1.8177589 -0.63144934 -1.1743337
000090 52 50 3a bf 7d b1 c6 3f 37 4c 4e be 2d c3 e0 3f
       -0.7277881 1.5522915 -0.20146261 1.7559563
0000a0 06 33 8c 3e e0 5c 64 3f ea 5b 5c 3f e4 c8 ab bf
       0.27382678 0.89204216 0.8607775 -1.3420682
0000b0 74 4b 9b c0 0b ae d5 bf 95 16 47 3f db b2 8f bb
       -4.8529606 -1.6693739 0.7776883 -0.004385335
0000c0 d7 8e 8c c0 35 8e 05 c0 2d 03 33 c0 e9 45 26 3f
       -4.3924365 -2.0868046 -2.7970688 0.64950424
0000d0 83 07 2a c0 d2 c8 ef bf d0 50 40 bc f4 da 85 be
       -2.6567085 -1.873316 -0.011738017 -0.2614361
0000e0 6f c2 09 c0 68 9f 37 c0 c3 29 9b 3f 8c 87 10 3f
       -2.1524923 -2.8691044 1.212212 0.5645683
0000f0 6e e0 4e 3f ff a0 4b 40 d2 b6 08 40 0f 3f 31 c0
       0.808112 3.1817014 2.1361585 -2.7694738
000100 d7 50 89 bf 52 81 f8 be 4a f3 9b be 46 57 6f 3f
       -1.0727795 -0.48536164 -0.30459052 0.93492544
000110 e9 78 bc bf 10 32 88 3e c7 4e 84 3f 93 30 19 c0
       -1.4724399 0.26600695 1.0336541 -2.3935897
000120 05 a7 40 3f 0f 0d 9d bf 3a e7 5f c0 88 bf 26 c0
       0.7525485 -1.226961 -3.498488 -2.6054401
000130 d9 c5 29 3f ae e8 72 3e 19 d4 d8 bf 69 a0 a0 3e
       0.66317517 0.23721573 -1.6939727 0.31372383
000140 ad 8d 91 bf 64 61 c5 3e 9d d0 09 bf 18 6a 03 40
       -1.1371361 0.38550866 -0.53833944 2.0533504
000150 74 e1 2f c0 01 41 26 3f ae 14 2e c0 10 44 a5 bf
       -2.7481356 0.6494294 -2.7200122 -1.2911396
000160 93 3e 51 3f 03 85 0b bf a2 8f 14 3e 6e 5d f0 be
       0.81736106 -0.54499835 0.14507917 -0.4694628
000170 c0 81 a8 bf ec ff 79 bf 17 ac 79 3e 99 9a 61 bf
       -1.3164597 -0.9765613 0.24382053 -0.8812652
000180 37 2d af bd df 26 3b c0 ae bb 92 be 9b f9 4d c0
       -0.08553546 -2.9242475 -0.28658813 -3.2183597
000190 c6 85 29 40 33 cf 81 bf de ad a0 be 39 62 e6 bf
       2.64879 -1.0141357 -0.3138265 -1.7998725
0001a0 f3 bc ab bf 71 e1 ed 3f e7 75 61 3f 22 ea 1c 3f
       -1.3417038 1.8584424 0.8807053 0.6129476
0001b0 e0 fb 8f be e1 b0 02 c0 ca b8 8b bf 1f 93 61 bf
       -0.28121853 -2.0420458 -1.0915768 -0.88115114
0001c0 10 85 82 bf d0 75 7c 3f 89 01 b2 be a1 da 12 c0
       -1.0196857 0.9861727 -0.34766796 -2.294594
0001d0 47 de 1c c0 97 03 6e 3e fc a1 be 3e c1 30 dd bf
       -2.4510667 0.23243557 0.3723296 -1.7280504
0001e0 02 b5 12 40 1d 7d b0 3f a2 b4 81 c0 a4 f6 0c 40
       2.2922978 1.3788182 -4.0533 2.2025537
0001f0 81 48 68 be 2c 62 09 c0 37 73 12 3f 31 7f d0 be
       -0.22683908 -2.146617 0.57207054 -0.4072204
000200 23 35 3b 40 f8 dc 05 bf 75 7c 65 c0 93 de 15 c0
       2.9251182 -0.52290297 -3.5857213 -2.3417099
000210 69 74 b8 3f 65 84 00 bf c3 1e e6 3e 70 af be bf
       1.4410526 -0.5020202 0.44945344 -1.4897289
000220 49 9e 07 40 dc 03 04 c0 d7 a9 7d 40 53 8f 46 3f
       2.119036 -2.0627356 3.9634912 0.77562445
000230 c9 f7 6d 3e bf 9b 39 40 02 c1 c3 3f 41 3d 2a bf
       0.23239054 2.900131 1.5293276 -0.66499716
000240 90 a0 23 40 21 07 8e 40 1c bb 0f c0 77 7f 39 3e
       2.556675 4.43837 -2.2457952 0.1811503
000250 83 c7 5e bf 39 21 4b 3e 2e 72 0e 3f 37 88 23 3f
       -0.8702318 0.19836892 0.55642974 0.6387972
000260 05 cd 53 3f 4a 1f 07 bf 70 4d 65 3d 71 74 ea bf
       0.8273471 -0.5278212 0.055982053 -1.8316785
000270 a3 02 48 3f d1 6a 4a 3f ee 81 1b 40 5e 92 0e 40
       0.78129023 0.7906924 2.4298053 2.2276835
000280 fd 9f eb 3f e4 1b ac bf 25 8b ac be 85 b8 fe 3f
       1.84082 -1.3446012 -0.3369991 1.9900061
000290 bf 41 e4 3f fb d5 7c be 6d 0b a6 3f fd 4f 82 3e
       1.7832564 -0.24691002 1.2972237 0.2545165
0002a0 f6 a0 ba be ff 3e d6 3f c2 d8 0d bf 25 05 f3 3f
       -0.36450928 1.6737975 -0.5540887 1.8985945
0002b0 88 9d 4d 3f bd 2f 4d 3d e3 de 53 40 0c 91 23 c0
       0.803185 0.050094355 3.310479 -2.555728
0002c0 92 fd 07 c0 f6 51 6d 3e f4 a6 c4 3e 27 b6 25 bf
       -2.1248517 0.23175797 0.38408625 -0.6473107
0002d0 29 34 a8 bf 38 aa 31 c0 d2 4c a1 bf cd 25 f3 bf
       -1.3140918 -2.7760143 -1.2601569 -1.8995911
0002e0 6a cc cf be a7 48 b9 3f 99 1b 9f bf ec c8 93 bd
       -0.40585643 1.4475297 -1.2430297 -0.07216057
0002f0 4b f7 f9 bf 88 26 bf bf 2a 81 e5 3f 6d 67 1c 3f
       -1.9528593 -1.4933634 1.7930043 0.61095315
000300 1d 0f 6b be c5 ef 84 c0 85 63 21 3f b8 2a aa 40
       -0.22954984 -4.1542687 0.6304248 5.3177147
000310 c9 03 4f bf 23 5f 0f c0 d6 2e b8 3f a1 e2 ef 3f
       -0.8086515 -2.2401817 1.4389293 1.8741037
000320 e6 2d 91 bf 0a 39 51 3f 4c 70 01 c0 fb 2c 4e 40
       -1.1342132 0.8172766 -2.022479 3.2214954
000330 10 38 84 bf 00 e3 d6 3f d6 a2 2f c0 89 bd 29 bf
       -1.0329609 1.6788025 -2.7443137 -0.6630483
000340 a8 62 0f c0 3f 50 37 bf e4 34 1a c0 32 b3 e1 3d
       -2.2403965 -0.7160682 -2.4094782 0.11020507
000350 21 2b ae 3f 3a 9b 84 bf 83 4e b1 3f 98 46 42 3f
       1.3606912 -1.0359871 1.3852085 0.7588897
000360 f3 9b 45 bf a4 5c 74 3e 44 bc e9 3f 32 7e 53 c0
       -0.77191085 0.23863465 1.8260579 -3.3045774
000370 fa f1 f0 3e 63 e3 c0 bf 97 fd b9 3f 07 52 05 bf
       0.47059613 -1.5069393 1.4530514 -0.5207829
000380 b2 5c 34 bf ee 86 0c 40 e0 bd 78 be aa 6c 87 bf
       -0.7045394 2.1957355 -0.24291182 -1.0580037
000390 9c 9c f7 be 14 4e 36 40 b4 ed 0a c0 58 3b 47 40
       -0.4836167 2.8485155 -2.1707582 3.112997
0003a0 3c 81 23 3f ab ab 54 40 a0 b7 cc bf 39 52 de 3f
       0.6386907 3.3229778 -1.5993538 1.7368842
0003b0 c8 87 21 c0 1c 53 87 c0 36 ef e0 3f 57 f0 2d bf
       -2.5239124 -4.228895 1.7573001 -0.67944854
0003c0 8b a1 49 c0 48 2f e1 bf df a3 e9 bf 30 4e 07 c0
       -3.1504848 -1.7592554 -1.8253134 -2.1141472
0003d0 85 00 6c bf b1 6c c3 bf d7 21 09 40 47 e0 0d c0
       -0.9218829 -1.5267545 2.1426904 -2.2168138
0003e0 5f 72 10 40 63 41 7e bf bf 84 a6 3e 7d bd 0f c0
       2.2569807 -0.9931852 0.32523152 -2.2459404
0003f0 29 54 42 bf 1e f0 7d 3f c3 fe 26 c0 71 22 cb 3e
       -0.7590967 0.99194515 -2.6092994 0.39674714
