model/1715146453/4_NSFnet_global_model_1.pth (torch, 331200 bytes, 17 tensors)

conv1.lin_l.weight f4 [16, 1]
0	0xbf222a71	-0.6334601
1	0xbc5eadef	-0.013591274
2	0xbf2f57c7	-0.6849331
3	0xbf26ff91	-0.65233713
4	0xbf004ee1	-0.5012036
5	0x3e8d727a	0.276264
6	0xbf560e11	-0.83615214
7	0xbe1a08ba	-0.15042391
8	0xbf22b5d7	-0.63558716
9	0x3dad17e2	0.08451821
10	0xbe885f38	-0.26635146
11	0xbf61542f	-0.8801908
12	0x3d5d6ca1	0.054058675
13	0xbef8a23f	-0.48561284
14	0x3ec7ac9a	0.38998872
15	0xbee88f61	-0.4542189

conv1.lin_l.bias f4 [16]
0	0xbe1ecb07	-0.15507136
1	0x3f17bf59	0.5927635
2	0xbf8a06f7	-1.0783376
3	0x3ebec65f	0.3726072
4	0x3ee30d1f	0.44345948
5	0xbe915fe7	-0.2839348
6	0xbf51bdb1	-0.8193007
7	0x3eca7d1b	0.39548573
8	0x3f2acbff	0.66717523
9	0xbf32aebe	-0.69797885
10	0x3f21e38f	0.6323785
11	0xbf7197e1	-0.94372374
12	0x3f008830	0.50207806
13	0xbe847c50	-0.25876093
14	0xbec95e1a	-0.39329606
15	0xbdd953d0	-0.10611689

conv1.lin_r.weight f4 [16, 1]
0	0xbf7fbdd1	-0.9989901
1	0xbf0087a1	-0.50206953
2	0x3e405a46	0.18784437
3	0xbf5b4bb1	-0.8566237
4	0xbea56b11	-0.32308248
5	0x3f15e1ee	0.58547866
6	0xbf38561a	-0.7200638
7	0x3df465e1	0.11933494
8	0xbef9ee8f	-0.48814818
9	0xbf51d0cf	-0.8195924
10	0xbf57622f	-0.8413419
11	0x3dd931c5	0.10605196
12	0xbf434655	-0.76279193
13	0xbf4bb7e1	-0.7957745
14	0xbe8cba39	-0.27485827
15	0xbd653480	-0.05595827

conv2.lin_l.weight f4 [64, 16]
0	0xbdac99b1	-0.08427752
1	0x3e0f135f	0.13972233
2	0xbcb8b99f	-0.022549449
3	0x3e0f91a9	0.14020409
4	0xbd0a3a89	-0.03374723
5	0xbd5ee0ab	-0.05441348
6	0xbe1747f0	-0.14773536
7	0x3dc89f26	0.0979598
8	0x3dfc6a5f	0.12324976
9	0x3d3e9a2f	0.04653376
10	0xbe06c127	-0.1315962
11	0x3e0f4517	0.139912
12	0x3d9d5ea9	0.076840706
13	0x3e242e89	0.16033377
14	0xbec3019f	-0.38087174
15	0xbe422e51	-0.18962981
16	0x3e179647	0.1480342
17	0xbe93e1c7	-0.28883192
18	0x3da4ad41	0.08040858
19	0x3e2d6ef1	0.16936852
20	0x3d903d2f	0.0704292
21	0x3d49a431	0.04922885
22	0xbda13d61	-0.07873035
23	0xbe86c638	-0.26323104
24	0x3e56f171	0.2099054
25	0xbe88e9ef	-0.26740977
26	0xbe7267e1	-0.23672439
27	0xbd9cce97	-0.076565914
28	0xbe611781	-0.21981622
29	0xbe1b61a0	-0.1517396
30	0xbe992b17	-0.29915687
31	0xbde41faf	-0.11138856
32	0xbd85e921	-0.065386064
33	0xbdb70c56	-0.089379
34	0x3e263ab9	0.16233338
35	0xbc6079e0	-0.013700932
36	0x3bbc8840	0.005753547
37	0xbbc14d80	-0.0058991313
38	0x3de258a1	0.11052061
39	0x3e15592f	0.14584802
40	0x3db6f326	0.08933096
41	0xbdca7eef	-0.09887492
42	0xbc23a1c0	-0.009987295
43	0x3dc43081	0.09579564
44	0xbd8a05c7	-0.06739383
45	0xbe04d281	-0.12970926
46	0xbe960520	-0.29300785
47	0xbe48d260	-0.19611502
48	0x3df83eaf	0.12121331
49	0xbe6aa2af	-0.22913621
50	0xbdc922cf	-0.09821092
51	0x3de85751	0.11344779
52	0x3de900bf	0.113770954
53	0xbe909209	-0.28236416
54	0x3c912a80	0.01772046
55	0xbe1e5c77	-0.1546496
56	0x3cbefcb0	0.02331385
57	0xbeb6ef5a	-0.35729486
58	0x3e2280c1	0.15869428
59	0xbc86de40	-0.016463399
60	0xbeaa2edf	-0.33238885
61	0x3e3fce5f	0.18731068
62	0x3dd5a3c0	0.104316235
63	0xbdfeb971	-0.12437714
64	0x3e436e8f	0.19085144
65	0x3dde2231	0.10846365
66	0xbe3a1ae6	-0.18174323
67	0x3da851e7	0.08218747
68	0xbc53d9a0	-0.012930304
69	0xbe5e2bf0	-0.21696448
70	0x3e2f0950	0.17093396
71	0xbea6bfff	-0.32568356
72	0x3e1ff46f	0.15620588
73	0xbe72d151	-0.2371266
74	0x3e7ebc00	0.24876404
75	0xbd806ce1	-0.06270767
76	0xbe1dd391	-0.15412737
77	0xbe2317c1	-0.1592703
78	0xbea37aef	-0.31929728
79	0xbe394881	-0.18094064
80	0xbe489def	-0.19591497
81	0xbd8ef941	-0.06981135
82	0xbe84c63f	-0.259325
83	0xbdf48a41	-0.11940432
84	0x3e75a041	0.23986913
85	0xbe133bf7	-0.14378344
86	0xbdde87b0	-0.10865724
87	0xbd2b5b0a	-0.04183487
88	0x3e7447c1	0.23855497
89	0xbe7299df	-0.2369151
90	0x3e1b38bf	0.15158366
91	0xbec2faef	-0.38082072
92	0xbea9c7d9	-0.33160284
93	0x3ce8eaf0	0.02843234
94	0xbee64931	-0.44977716
95	0xbe003690	-0.12520814
96	0xbe536821	-0.20645191
97	0xbda34eb9	-0.079739995
98	0xbdda7ac1	-0.10667945
99	0x3b9e86c0	0.004837841
100	0xbe51f701	-0.20504381
101	0xbe9e1579	-0.30875757
102	0xbe2283e1	-0.1587062
103	0xbe8b19e1	-0.27168182
104	0x3c1cd8a0	0.009573132
105	0x3e1b91a8	0.15192282
106	0xbe4a4221	-0.19751789
107	0x3e2ccf1a	0.16875878
108	0x3e357f90	0.17724442
109	0x3e7e5b0f	0.24839424
110	0xbe0b9eb1	-0.13634755
111	0x3ce073f0	0.027399033
112	0x3de3b311	0.111181386
113	0xbe51a70f	-0.20473884
114	0xbde9c74f	-0.11414968
115	0xbdc891ef	-0.097934596
116	0x3e0eb400	0.13935852
117	0xbe0c5381	-0.13703729
118	0xbe2b7021	-0.16741993
119	0xbe9128cf	-0.28351447
120	0xbde7c2df	-0.113164656
121	0xbcbc5c21	-0.02299315
122	0xbe3cf26f	-0.18451856
123	0xbe84a497	-0.25906822
124	0xbdae17a1	-0.085006006
125	0xbdcb83c1	-0.099372394
126	0xbe4da04f	-0.20080684
127	0xbe180e81	-0.14849283
128	0xbcf067d0	-0.029346377
129	0x3d30c5f0	0.043157518
130	0xbe0182c1	-0.12647535
131	0xbdc2915f	-0.095003836
132	0x3e070270	0.13184524
133	0xbe072cdf	-0.1320071
134	0xbe7b44bf	-0.24537943
135	0x3df2e81f	0.1186068
136	0x3dd7a2f1	0.105291255
137	0x3e5492c1	0.20759107
138	0x3dc40001	0.09570313
139	0xbbd82c00	-0.006597042
140	0x3d7f0041	0.0622561
141	0x3e52dcf1	0.20592095
142	0xbc094aa0	-0.008379608
143	0xbe1c2421	-0.15248157
144	0xbd4aa910	-0.049477637
145	0xbe37b3fa	-0.1793975
146	0x3d97f417	0.07419603
147	0x3d913671	0.07090462
148	0xbe4b3a9f	-0.19846581
149	0xbe69428f	-0.22779296
150	0xbe5e0f6f	-0.21685575
151	0xbde31a7f	-0.11089038
152	0x3d03e0d0	0.03219682
153	0x3dd09721	0.101850756
154	0xbe76e3bf	-0.24110316
155	0xbe9d3ef9	-0.30712107
156	0x3dbaa681	0.09113789
157	0x3e716ba1	0.23576213
158	0x3de9e9c1	0.11421538
159	0x3d158200	0.03650093
160	0xbd83d570	-0.06437194
161	0xbccc9470	-0.024973124
162	0x3e081591	0.13289477
163	0x3e156d01	0.14592363
164	0xbd4575e1	-0.04820812
165	0xbe4d1bbf	-0.20030116
166	0xbded4170	-0.11584747
167	0x3e312406	0.17298898
168	0xbe001741	-0.1250887
169	0x3d825f0f	0.06365787
170	0x3dcf4501	0.10120583
171	0xbdfc5310	-0.123205304
172	0xbe2e8b1a	-0.1704525
173	0x3e57e5bf	0.21083735
174	0x3e2fd71a	0.17171898
175	0xbd29e250	-0.041475594
176	0xbe45daa1	-0.19321682
177	0xbe31ced1	-0.1736405
178	0x3ceb2400	0.02870369
179	0x3dfe6450	0.12421477
180	0x3e5f3821	0.21798755
181	0x3db7171f	0.08939957
182	0x3c62fa60	0.013853639
183	0xbe23a869	-0.15982212
184	0x3e18a5b1	0.14906956
185	0x3a9fd5a7	0.0012194411
186	0xbe72d74f	-0.23714946
187	0xbdc0ff3f	-0.09423684
188	0xbd8bbdb1	-0.0682329
189	0x3c8cb430	0.017175764
190	0xbe9e61b7	-0.30933926
191	0xbe4bb581	-0.19893457
192	0xbe48b7cf	-0.19601367
193	0xbe0b049f	-0.13575982
194	0xbc9b9f4f	-0.018996863
195	0xbdff930f	-0.12479221
196	0x3e5778a1	0.2104211
197	0xbdd362df	-0.103215925
198	0x3d149ee0	0.036284328
199	0xbe2569bf	-0.1615362
200	0xbe02848f	-0.1274588
201	0xbdaf1a0a	-0.085498884
202	0x3e06b3cf	0.13154529
203	0x3d19b819	0.037529085
204	0x3dd315af	0.1030687
205	0x3d56cbe1	0.052440528
206	0x3e1624c7	0.14662467
207	0x3cc158a0	0.02360183
208	0xbd7a6161	-0.061128024
209	0xbe02185f	-0.1270461
210	0xbd05cfc1	-0.032668833
211	0x3e24af11	0.16082408
212	0x3dc3ac51	0.09554351
213	0x3d8355af	0.06412827
214	0xbe2482a0	-0.16065454
215	0x3ca426e7	0.020038081
216	0x3e355fcf	0.1771233
217	0x3e028b9f	0.12748574
218	0xbe321ef6	-0.17394623
219	0xbdaf292f	-0.08552777
220	0x3c931cc7	0.017958058
221	0xbd11d790	-0.035605967
222	0x3c96ddef	0.018416373
223	0x3d893cf0	0.06701076
224	0x3e41cc1f	0.18925522
225	0x3da26ce7	0.07930928
226	0x3e3a5281	0.18195535
227	0x3dfe80f0	0.124269366
228	0xbe58ec10	-0.211838
229	0xbe0c3119	-0.13690604
230	0x3e604ad0	0.21903539
231	0xbc99fa10	-0.018795997
232	0xbe0c63b7	-0.13709913
233	0x3e6d7aaf	0.23191331
234	0x3ce9a8e0	0.028522909
235	0xbe0c0f11	-0.13677622
236	0xbe5f1e1f	-0.21788834
237	0xbbe34140	-0.0069352686
238	0x3d8a332f	0.06748044
239	0xbd54da61	-0.051966075
240	0x3e14b671	0.14522721
241	0x3e8bccc7	0.2730467
242	0x3e0fac21	0.14030506
243	0x3e3b47d0	0.18289113
244	0x3df379e1	0.11888481
245	0x3cc31851	0.023815306
246	0xbc823a80	-0.015897036
247	0x3c5e02ff	0.013550519
248	0xbe6451cf	-0.22296833
249	0x3c8b6957	0.017018003
250	0x3dedc401	0.116096504
251	0x3c9c2fa7	0.019065691
252	0xbc0c80ff	-0.008575677
253	0x3dcc0de1	0.09963585
254	0x3d5a3f31	0.05328292
255	0x3be5ff00	0.0070189238

conv2.lin_l.bias f4 [64]
0	0xbd955d00	-0.07293129
1	0xbdf7ee5f	-0.121060126
2	0xbea5b149	-0.3236182
3	0xbebb7471	-0.36612275
4	0xbdddac0f	-0.10823833
5	0xbeb21b8f	-0.3478665
6	0x3e2bc59a	0.16774598
7	0x3d4d1eff	0.05007839
8	0x3d50d7e0	0.050987124
9	0xbe4f9b7b	-0.20274155
10	0x3d4f9690	0.050680697
11	0x3d094d21	0.03352082
12	0x3e01a06f	0.12658857
13	0x3c83d361	0.016092004
14	0xbe569daf	-0.20958589
15	0xbe75fbaf	-0.24021791
16	0xbd9e9967	-0.07744103
17	0xbe6c833f	-0.23096941
18	0xbe95e6a0	-0.29277515
19	0xbe9d5fe1	-0.30737212
20	0xbe719f91	-0.23596026
21	0x3dacf25a	0.084446624
22	0xbdcdcfc1	-0.100493915
23	0xbd62a61f	-0.055334207
24	0x3e2f8a4a	0.17142597
25	0xbe1db211	-0.15399958
26	0x3e0257d0	0.1272881
27	0xbdca1d21	-0.09868837
28	0xbe883177	-0.2660024
29	0x3dac196f	0.084032886
30	0xbe948161	-0.29004958
31	0xbee0e3f1	-0.43923905
32	0xbe5a55bf	-0.21321772
33	0x3e49692f	0.1966903
34	0xbddfae51	-0.1092192
35	0xbe2868e7	-0.16446267
36	0xbe9b697f	-0.30353925
37	0x3e213ee9	0.15746655
38	0x3e3081f0	0.17237067
39	0x3de46e50	0.11153853
40	0xbd2218a7	-0.03957429
41	0xbddb527f	-0.10709094
42	0xbc07f178	-0.008297317
43	0xbe1615ee	-0.14656803
44	0xbdee55d1	-0.11637462
45	0xbccfdcc1	-0.025373818
46	0xbe51dd9f	-0.20494698
47	0xbec6a580	-0.3879814
48	0xbea1f0a7	-0.31628916
49	0xbeb57786	-0.35442752
50	0x3d0fca41	0.035104994
51	0xbe56ffa1	-0.20995952
52	0xbdac24b1	-0.08405436
53	0xbdaa0aa7	-0.08302813
54	0x3e1a28a1	0.15054561
55	0x3db6e9c6	0.089313075
56	0xbeb069c1	-0.34455684
57	0x3e40f5b1	0.18843724
58	0xbdf9fe7f	-0.122067444
59	0xbe3aa69f	-0.18227623
60	0x3db9a2cf	0.090642564
61	0x3d9f8111	0.07788289
62	0x3e1c2b1f	0.15250824
63	0x3c957f29	0.018249111

conv2.lin_r.weight f4 [64, 16]
0	0xbe22f6d0	-0.15914464
1	0x3dc3fe11	0.09569944
2	0xbe97000f	-0.29492232
3	0x3da6eaa1	0.08150221
4	0xbe13634f	-0.14393352
5	0x3d854140	0.06506586
6	0x3e261337	0.16218267
7	0xbe4c9d71	-0.19981934
8	0xbe06a49f	-0.13148735
9	0x3e003357	0.12519585
10	0xbdb788c6	-0.08961634
11	0xbe25a88f	-0.16177581
12	0xbe22566f	-0.15853284
13	0xbe35155a	-0.17683926
14	0xbe0d205f	-0.1378188
15	0x3e04e1ff	0.12976836
16	0xbd0fe240	-0.03512788
17	0xbe857701	-0.26067355
18	0xbe90be09	-0.28269985
19	0x3c8adca0	0.016950905
20	0x3e06c660	0.13161612
21	0xbe1aedff	-0.15129851
22	0xbe27fbc1	-0.1640463
23	0x3ca3c4ef	0.019991366
24	0x3e29c69f	0.16579674
25	0xbdd642e1	-0.10461975
26	0xbdc70021	-0.097168215
27	0x3d186aa9	0.037211094
28	0xbe886f8f	-0.26647612
29	0xbe2495cf	-0.16072772
30	0x3d8bc1a7	0.06824046
31	0x3e0d46f1	0.13796593
32	0x3de61441	0.11234332
33	0x3e27c7b1	0.1638477
34	0x3e3fe321	0.18738987
35	0x3e011091	0.12603976
36	0x3e201371	0.15632416
37	0xba5ad8af	-0.00083483284
38	0x3d852340	0.06500864
39	0xbd79f921	-0.061028603
40	0x3e3c5a91	0.18393923
41	0xbdbe47f1	-0.092910655
42	0xbe63f3c0	-0.22260952
43	0x3e76e56f	0.2411096
44	0x3e618c85	0.2202626
45	0xbe49240f	-0.19642662
46	0xbdb582b6	-0.08862822
47	0xbe609e9f	-0.21935509
48	0x3d40cf60	0.04707277
49	0x3d73c020	0.059509397
50	0xbdcaf8ff	-0.099107735
51	0xbd502b7f	-0.05082273
52	0x3dbef311	0.09323705
53	0x3bdc1671	0.0067165424
54	0x3e5ab221	0.21357013
55	0xbe9a30e1	-0.30115417
56	0x3e457d50	0.19286084
57	0xbe7322e1	-0.23743774
58	0xbd964a1f	-0.07338356
59	0x3dddbf41	0.108274944
60	0xbcce6750	-0.025195748
61	0x3d53eae1	0.05173767
62	0xbe0b618f	-0.13611434
63	0xbda3e291	-0.080021985
64	0x3caf8f00	0.021430492
65	0x3d09cb00	0.03364086
66	0xbe716f41	-0.23577596
67	0xbd323aa6	-0.043512963
68	0x3defe011	0.11712659
69	0x3dd51dbf	0.10406064
70	0xbe0a94d9	-0.13533343
71	0x3cfdbb6f	0.030973164
72	0x3b65f780	0.0035090148
73	0x3c296f31	0.0103414515
74	0x3d898237	0.0671429
75	0x3dad0f56	0.08450191
76	0x3da5e5f7	0.08100503
77	0xbe71c69f	-0.23610924
78	0xbd356481	-0.0442853
79	0x3d8ae1ef	0.06781375
80	0xbe09f8af	-0.13473772
81	0xbf0701df	-0.5273723
82	0xbe0ea4e1	-0.13930084
83	0x3d456fa1	0.04820216
84	0x3d0887b8	0.033332556
85	0xbe930671	-0.28715852
86	0x3e260a10	0.16214776
87	0xbf025901	-0.5091706
88	0xbe1bfbf7	-0.15232836
89	0xbf02b551	-0.51057917
90	0xbe79e130	-0.24402308
91	0xbeb9bba6	-0.36275977
92	0xbee0a44f	-0.43875358
93	0xbe038521	-0.12843753
94	0xbe43de41	-0.19127752
95	0xbddeb460	-0.108742476
96	0xbd9cb7a9	-0.07652218
97	0xbe6702ef	-0.22559713
98	0xbdd69bb1	-0.104789145
99	0x3e1d57b7	0.15365492
100	0x3e4072df	0.1879382
101	0x3dec0fef	0.115264766
102	0xbd964249	-0.07336862
103	0x3e0858a9	0.13315071
104	0xbe21cf07	-0.15801631
105	0xbd16cebf	-0.036818262
106	0x3e57933f	0.21052264
107	0xbe61dc0f	-0.22056602
108	0x3dd46dc1	0.103724964
109	0x3a2fca00	0.00067058206
110	0x3bdbdc8f	0.0067096422
111	0xbe6b54ff	-0.22981642
112	0x3e6e5881	0.23275949
113	0xbe900411	-0.28128102
114	0xbe73ecb1	-0.2382076
115	0xbdc210c1	-0.09475852
116	0xbd7f8880	-0.062386036
117	0x3cd4fe2f	0.02600011
118	0xbd5d0181	-0.053956512
119	0x3e0f0717	0.13967548
120	0xbe72f2bf	-0.23725413
121	0x3df8ae3f	0.1214261
122	0xbe4b1dff	-0.19835661
123	0x3e5b1a81	0.21396829
124	0xbe7b14bf	-0.24519633
125	0x3cebf5c0	0.028803706
126	0xbd5d8e5f	-0.054090854
127	0xbde171cf	-0.110080354
128	0x3dbdd261	0.09268642
129	0x3e6138b1	0.21994282
130	0xbd78b581	-0.06071997
131	0xbe376b8f	-0.17912124
132	0xbe0b18cf	-0.13583682
133	0xbde7b7b0	-0.113143325
134	0x3e0591f9	0.13043965
135	0xbe4f58f0	-0.2024877
136	0x3e3af43f	0.18257235
137	0x3da375a7	0.07981425
138	0x3d9a4169	0.07532007
139	0xbe34646f	-0.17616437
140	0xbde5feaf	-0.11230218
141	0xbe1867c1	-0.14883329
142	0x3dda1b01	0.10649682
143	0x3dd80830	0.10548437
144	0x3e3e7950	0.18600965
145	0xbb42f76f	-0.0029749533
146	0x3d6aa64f	0.05728751
147	0x3d7f08d0	0.062264264
148	0xbd60a710	-0.054846823
149	0x3d205b3f	0.03914952
150	0xbe34152f	-0.17586206
151	0xbe6975bf	-0.22798823
152	0x3d37ef60	0.04490602
153	0xbc843a60	-0.016141117
154	0x3ccad100	0.024757862
155	0xbc121051	-0.008915023
156	0xbe40751f	-0.18794678
157	0xbdcda05f	-0.10040354
158	0xbdf81871	-0.12114037
159	0xbd0fb5a9	-0.035085354
160	0xbdb46b9f	-0.088095896
161	0x3e4a2f8f	0.19744705
162	0x3e19756f	0.14986204
163	0xbe703d01	-0.23460771
164	0x3dc08cbf	0.09401845
165	0xbe5cace1	-0.21550323
166	0x3db2fd30	0.08739698
167	0xbe78a2cf	-0.24280857
168	0x3d0fa2c9	0.035067353
169	0xbe1ac8cf	-0.15115665
170	0x3e7c88c0	0.24661541
171	0xbe61157f	-0.21980856
172	0xbdfcd9c1	-0.12346221
173	0x3e715ac1	0.23569776
174	0xbd46f79f	-0.048575994
175	0x3e7a14e1	0.24422027
176	0xbd602fa1	-0.054732922
177	0x3e0d22f1	0.1378286
178	0xbe794091	-0.24341036
179	0x3d3076e0	0.043082118
180	0x3d861ef0	0.065488696
181	0xbd8009af	-0.06251847
182	0xbdfe22b1	-0.124089606
183	0xbe6dc8ff	-0.23221205
184	0x3de1b2c1	0.11020423
185	0xbdaf4c11	-0.085594304
186	0x3e30833a	0.17237559
187	0x3e37e42a	0.17958131
188	0x3e1a801f	0.15087937
189	0x3d972e20	0.073818445
190	0xbe43c2ef	-0.1911733
191	0x3e333440	0.175004
192	0xbe3cc201	-0.18433382
193	0xbc386b21	-0.01125601
194	0xbdb71d2a	-0.089411095
195	0x3e1b1ea0	0.15148401
196	0x3e1dd15f	0.154119
197	0xbe3be1bf	-0.18347834
198	0x3e24b967	0.1608635
199	0x3dbebce1	0.093133695
200	0x3da5acef	0.08089625
201	0xbdf652f1	-0.120275386
202	0xbe1f327f	-0.15546606
203	0xbe6b85df	-0.23000287
204	0xbe36c3af	-0.17848085
205	0xbe51f74f	-0.20504497
206	0x3ccc2440	0.02491963
207	0x3e36f34f	0.17866252
208	0x3e62272f	0.2208526
209	0xbe0d60c0	-0.13806438
210	0xbe02b6bf	-0.12765025
211	0x3e61549f	0.22004937
212	0x3cbcea30	0.023060888
213	0xbd912e41	-0.070889
214	0x3e003cc0	0.12523174
215	0xbe459721	-0.19295932
216	0xbe3137f1	-0.17306496
217	0xbe114c8f	-0.14189361
218	0xbdc1c85f	-0.09462046
219	0x3d8c3699	0.06846351
220	0xbe02a96f	-0.12759946
221	0x3e7c196f	0.24619077
222	0xbe51a041	-0.20471288
223	0xbe1188b0	-0.14212298
224	0x3e336766	0.17519912
225	0x3e749e41	0.23888494
226	0xbe6e9671	-0.23299576
227	0xbe4735df	-0.19454144
228	0xbe00c547	-0.12575255
229	0xbdc55381	-0.09635068
230	0xbe5a6780	-0.21328545
231	0x3dd30f21	0.1030562
232	0x3d924057	0.07141178
233	0x3d9afea0	0.07568097
234	0x3d5ac8d0	0.053414166
235	0x3e68ef11	0.22747447
236	0xbd94c117	-0.072633915
237	0xbe339836	-0.17538533
238	0x3d433d81	0.047666077
239	0x3e19c980	0.15018272
240	0xbe617750	-0.2201817
241	0xbd91ae0f	-0.07113277
242	0xbb19780f	-0.0023417508
243	0x3d6521c1	0.055940393
244	0xbc9611e0	-0.01831907
245	0xbd9c325f	-0.07626795
246	0x3b65ce80	0.003506571
247	0x3d574131	0.052552406
248	0xbd0f6820	-0.03501141
249	0xbdc8866f	-0.09791266
250	0x3de2c121	0.11071993
251	0x3d478a91	0.04871613
252	0x3e4c767f	0.19967078
253	0x3d94d9a0	0.07268071
254	0xbe0b8641	-0.13625433
255	0xbdb27e30	-0.087154746

lstm_cell.weight_ih f4 [256, 192]
0	0x3e004f47	0.12530242
1	0x3e3cff30	0.18456721
2	0xbd91c707	-0.071180396
3	0x3c993e09	0.018706338
4	0x3d293789	0.041312728
5	0xbe393106	-0.18085107
6	0x3d487391	0.048938338
7	0x3d8b63b7	0.068061285
8	0xbdd4159f	-0.103556864
9	0xbcbf7cb2	-0.023374889
10	0x3db3f1a6	0.08786325
11	0x3e10f679	0.14156522
12	0x3e0bc4ff	0.13649367
13	0x3e438181	0.1909237
14	0x3bb0dd80	0.0053974986
15	0xbe4f7321	-0.20258762
16	0x3d1c4fb7	0.03816196
17	0x3e2c0711	0.1679957
18	0xbc43652f	-0.0119259795
19	0x3e087418	0.13325536
20	0x3de0b2c1	0.109715946
21	0x3c272781	0.01020229
22	0x3d2d8a16	0.042368017
23	0x3d71c27f	0.059023377
24	0xbd12ad20	-0.035809636
25	0x3dfc62ff	0.123235695
26	0x3deebe41	0.11657382
27	0x3e34ae3a	0.17644587
28	0xbd3f8cb1	-0.046765033
29	0xbeb7bd7f	-0.35886762
30	0x3e4497ef	0.19198583
31	0xbd4783b1	-0.048709575
32	0xbc3c7130	-0.011501595
33	0x3e3a7921	0.1821027
34	0xbe4a3dc1	-0.1975012
35	0x3e21d999	0.15805663
36	0x3c869481	0.016428234
37	0xbdfe2db1	-0.12411059
38	0x3d26c3bf	0.04071402
39	0xbd0f3057	-0.03495821
40	0xbe0f93cf	-0.14021228
41	0x3dce3400	0.10068512
42	0x3dc7f1bf	0.09762906
43	0x3e0b05d9	0.1357645
44	0x3e527e50	0.20555997
45	0xbc359ca1	-0.0110847065
46	0x3db3077a	0.087416604
47	0xbd3ddc50	-0.046352684
48	0xba3a543f	-0.00071078906
49	0xbc511e30	-0.012763545
50	0xbd2801a0	-0.041017175
51	0x3dd8eb8f	0.10591804
52	0x3da9be31	0.08288229
53	0x3e1e7157	0.15472923
54	0x3e4c295f	0.19937657
55	0xba144d89	-0.00056573056
56	0x3df06640	0.11738253
57	0x3e28a871	0.16470505
58	0xbab0bc61	-0.0013483876
59	0x3e5b15c1	0.21395017
60	0x3e1bac4f	0.1520245
61	0x3ded5ba0	0.11589742
62	0xbd5f82cf	-0.05456811
63	0x3d97a7a1	0.074050196
64	0xbf8443e1	-1.0333215
65	0x4058729f	3.381996
66	0x402a0a7e	2.6568904
67	0x4034c5d1	2.8245738
68	0x4011d49b	2.2786014
69	0x40b712a6	5.7210264
70	0x40e5d01a	7.181653
71	0xbdb605da	-0.08887835
72	0x40b5e405	5.6840844
73	0x40f33b9b	7.601026
74	0x40f07f8a	7.5155687
75	0x40d3cdce	6.6188726
76	0x40cb8c9e	6.360915
77	0x40d80ebd	6.751799
78	0x410c8474	8.782337
79	0x40f4e98a	7.653508
80	0x40fd036e	7.9066687
81	0x40d96d92	6.7946253
82	0x40ef1f54	7.472574
83	0x40ed6de2	7.4196634
84	0x40ed560e	7.4167547
85	0x3da91b71	0.08257187
86	0x4105fc36	8.374075
87	0x40aa5699	5.323071
88	0x40e62541	7.1920476
89	0x40e54d1c	7.165663
90	0x40e0796f	7.0148234
91	0x41015712	8.083757
92	0x40ea614b	7.3243766
93	0x3c089a2f	0.0083375415
94	0x3d840ac1	0.06447364
95	0x3d70548f	0.05867439
96	0xbd4c1dd1	-0.049833123
97	0xbde0fa3f	-0.10985231
98	0x3c89c51f	0.016817627
99	0x3ca83ae9	0.020535903
100	0x3c8be47f	0.017076729
101	0x3d2a1f01	0.041533474
102	0xbe1250da	-0.14288655
103	0x3b964920	0.004586354
104	0x3d90d801	0.070724495
105	0xbbfdf660	-0.0077503175
106	0xbdefb29f	-0.11703991
107	0xbde5c3c1	-0.11218978
108	0x3b6c8f00	0.0036095977
109	0xbd026670	-0.031835973
110	0x3c6d14f0	0.014470324
111	0xbd555bc0	-0.052089453
112	0xbd978ea0	-0.074002504
113	0x3d0585bf	0.032598253
114	0xbcfb6be0	-0.030691087
115	0x3b93c300	0.00450933
116	0xbc5366e0	-0.012902945
117	0xbda60c3f	-0.081078045
118	0xbdb12606	-0.086498305
119	0xbdf683b1	-0.12036837
120	0x3dc6feef	0.097165935
121	0x3c3c5ac0	0.011496246
122	0xbdb7b986	-0.08970933
123	0x3de854ff	0.11344337
124	0xbdae37bf	-0.085067265
125	0xbde67a0f	-0.112537496
126	0x3d431d41	0.04763532
127	0xbd90af09	-0.07064635
128	0xbcfec641	-0.031100394
129	0x3ffe6523	1.9874614
130	0x3fa35231	1.2759458
131	0xbef11344	-0.4708501
132	0xbf07d50f	-0.53059477
133	0x40142a1a	2.3150697
134	0x3dd474ff	0.10373878
135	0x40564c6c	3.3484144
136	0x40d48aef	6.6419597
137	0x40bac9cb	5.837133
138	0xbdb3b546	-0.087748095
139	0x40ec38fa	7.381955
140	0x40f6c035	7.710963
141	0x40f8c93c	7.7745647
142	0x3dd26def	0.102748744
143	0x41061661	8.380464
144	0x4111145d	9.0674715
145	0x410089b9	8.033624
146	0x40f232c4	7.568697
147	0x40e56756	7.1688643
148	0x40dc1905	6.878054
149	0x40cedcf1	6.4644704
150	0x3c520331	0.012818144
151	0x410467a3	8.275302
152	0x40ce4bac	6.4467373
153	0x405fd6ba	3.4974809
154	0x3d5d322f	0.054002937
155	0x40e0788c	7.014715
156	0x40844b44	4.1341877
157	0x4109ae09	8.604989
158	0x3decc36f	0.115607135
159	0x3d82e811	0.063919194
160	0x3d67e901	0.056618694
161	0x3d966241	0.07342959
162	0xbe0927df	-0.13394116
163	0xbd8d4261	-0.068974264
164	0xbdb95590	-0.09049523
165	0xbde5e271	-0.11224831
166	0xbdb9183f	-0.09037828
167	0xbdeac290	-0.11462891
168	0x3d49ca8f	0.04926544
169	0x3dea34df	0.114358656
170	0x3d912fff	0.07089233
171	0xbd24eebf	-0.04026675
172	0xbd023c11	-0.031795565
173	0x3d597561	0.053090457
174	0x3db6e1bf	0.089297764
175	0xbdc416d0	-0.09574664
176	0xbda6f849	-0.081528254
177	0xbd3da38f	-0.04629856
178	0xbd8ef497	-0.069802456
179	0x3d2cbaa6	0.04217019
180	0xbdf87be1	-0.12133003
181	0x3db95850	0.090500474
182	0xbb3efe40	-0.0029143244
183	0x3de36271	0.111027606
184	0x3d243bf1	0.040096227
185	0xbd834e21	-0.06411386
186	0xbd108a00	-0.035287857
187	0xbdac2466	-0.0840538
188	0x3d1e4359	0.038638446
189	0xbda8a7b1	-0.082351096
190	0x3df24e81	0.1183138
191	0x3db6944f	0.08915006
192	0x3d2bf26f	0.04197925
193	0x3d20859f	0.03918993
194	0x3f0ecc4f	0.557805
195	0x3dcf7e81	0.101315506
196	0x3db29266	0.087193295
197	0xbe128879	-0.14309873
198	0xbc811b60	-0.015760124
199	0x3cf95b6f	0.030439107
200	0xbc617dd0	-0.013762906
201	0xbce0c51f	-0.027437745
202	0x3dfb6741	0.122755535
203	0x3bdb4231	0.0066912402
204	0xbd0dcd27	-0.034619477
205	0x3ec76751	0.38946012
206	0xbda80d77	-0.08205693
207	0x3f17b5d1	0.59261805
208	0x3c8b5eb9	0.01701294
209	0x3d56fee1	0.052489165
210	0xbd00c661	-0.03143919
211	0x3df47b11	0.119375356
212	0x3e3dbd0f	0.18529151
213	0x3da38800	0.07984924
214	0xbd4cdf81	-0.050017837
215	0x3e330f16	0.17486224
216	0x3d7ebee0	0.06219375
217	0x3d603d6f	0.054746088
218	0x3c0ed530	0.00871782
219	0x3e97c481	0.29642108
220	0xbc0bf819	-0.008543038
221	0x3f338901	0.70130926
222	0x3f14b019	0.58081204
223	0x3d291489	0.04127935
224	0x3d88523f	0.06656312
225	0xbd561cff	-0.052273747
226	0x3f5693e1	0.83819395
227	0xbd327d5f	-0.043576594
228	0xbd47da9f	-0.048792478
229	0x3ddda1df	0.1082189
230	0xbcd914e0	-0.026499212
231	0x3c8273b8	0.01592432
232	0x3f2dd410	0.67901707
233	0x3cc718e0	0.024303854
234	0x3f4467af	0.7672071
235	0x3e004cca	0.12529293
236	0x3eb3aacf	0.35091254
237	0x3e061289	0.13093008
238	0x3d16cb77	0.036815133
239	0x3d9fe8a7	0.07808047
240	0xbdad433f	-0.08460092
241	0x3d14abc9	0.03629664
242	0x3eb69dcf	0.35667273
243	0xbe2b46bf	-0.16726206
244	0xbdbfefef	-0.093719356
245	0xbd969db9	-0.07354302
246	0x3df057a1	0.11735464
247	0x3cd6b131	0.026207538
248	0xbd9fa787	-0.07795625
249	0x3e0b6439	0.1361245
250	0x3e21e4c1	0.15809919
251	0x3d6178df	0.055046912
252	0x3d51d5bf	0.051229235
253	0xbd620ebf	-0.055189844
254	0xbce5e11f	-0.028061448
255	0x3d035471	0.03206295

lstm_cell.weight_hh f4 [256, 64]
0	0x3ee93217	0.45546028
1	0x3ec26b72	0.379726
2	0x3f88aafa	1.0677178
3	0xc085c034	-4.1797123
4	0x3faa893d	1.3323132
5	0xc033f4c9	-2.8118155
6	0xc0190530	-2.3909416
7	0x401c3024	2.4404383
8	0x405ed3ba	3.4816728
9	0x3f467a37	0.77530235
10	0x3ee1e293	0.44118175
11	0xbfa34096	-1.2754085
12	0xbd335226	-0.043779515
13	0xbfba9ff3	-1.4580063
14	0xbfec9ad8	-1.8484755
15	0xbe620ef8	-0.22076023
16	0xbf4cf3b5	-0.8005937
17	0x3f1d17d7	0.613645
18	0xc0486540	-3.1311798
19	0xbfc5a376	-1.5440509
20	0xbd3e301f	-0.04643261
21	0x40267c32	2.6013303
22	0x4021a317	2.5255792
23	0xbf46d4a8	-0.7766824
24	0x3f0453aa	0.5169016
25	0x40215d40	2.5213165
26	0xc01de06b	-2.4668224
27	0x3f6753f0	0.90362453
28	0xbe30e3b6	-0.17274365
29	0xc03a2760	-2.9086533
30	0xbff572dd	-1.9175678
31	0x3dca158b	0.0986739
32	0x3f971a85	1.1804968
33	0xbff9905f	-1.9497184
34	0xbecf3b02	-0.40474707
35	0x3f6f48f9	0.9347072
36	0x401be42e	2.435802
37	0xbfb20e73	-1.391066
38	0x3e6359f8	0.22202289
39	0xc010343d	-2.2531884
40	0x3f9dd7b4	1.2331452
41	0xbdbbb0ea	-0.09164603
42	0xc03265bd	-2.7874596
43	0xbf9402de	-1.1563375
44	0xbf9f9e32	-1.2470152
45	0xbfec3385	-1.8453223
46	0x3f1252a9	0.5715738
47	0x3fca5018	1.5805693
48	0x3ee99892	0.45624214
49	0x4005154a	2.0794244
50	0xc0001a80	-2.0016174
51	0x3f350556	0.70711267
52	0x3fbc7eb5	1.4726168
53	0x3fc777b5	1.5583407
54	0xc017f57b	-2.374358
55	0x404338ed	3.0503495
56	0x3fa58c1a	1.2933381
57	0xc017063c	-2.3597555
58	0x3f6e2374	0.9302285
59	0x3e98bb72	0.2983051
60	0x403601fc	2.843871
61	0x3fa26854	1.2688088
62	0x3ef770ca	0.4832824
63	0x4036e786	2.857881
64	0x3edfdd9e	0.43723768
65	0xbef4a3c7	-0.47781202
66	0x3cc48e58	0.023993656
67	0x3ea23a6a	0.3168519
68	0xc00eb103	-2.229554
69	0xc0302138	-2.7520275
70	0x3f0d32ee	0.5515584
71	0x3eb44ef0	0.35216475
72	0xc0057ed9	-2.0858672
73	0xbf8cf04f	-1.1010836
74	0xbf234227	-0.63772815
75	0xbf209230	-0.62723064
76	0xbf80d757	-1.0065717
77	0xbf0af82d	-0.54284936
78	0xbe563715	-0.2091945
79	0x402fcb96	2.746801
80	0xbf131633	-0.5745575
81	0xbf800f6d	-1.0004708
82	0xbf51c6d5	-0.8194402
83	0xc016faee	-2.3590655
84	0xbf35f367	-0.7107453
85	0x3fea8174	1.8320756
86	0x3eb2d0da	0.34924966
87	0x3f69581d	0.91150075
88	0x3f93f244	1.1558309
89	0xbe888be2	-0.26669222
90	0xc0147272	-2.3194852
91	0xc077c688	-3.8714924
92	0xbf47d464	-0.7805846
93	0xbeab9683	-0.3351327
94	0xc00c3688	-2.1908283
95	0xbf7399b7	-0.95156425
96	0x3e2f3700	0.17110825
97	0x3fc5e0d9	1.5459243
98	0xc069d18b	-3.6534145
99	0x4006591c	2.0991888
100	0x3fd0a6f2	1.6300948
101	0xbed9a103	-0.42505655
102	0xbd8a3c69	-0.067498036
103	0x403cc554	2.949544
104	0xbf8c2a62	-1.0950434
105	0xbf55cbfd	-0.83514386
106	0x4093025f	4.5940394
107	0x3f26463f	0.6495094
108	0xbfc739ad	-1.5564476
109	0xbe9b0308	-0.3027575
110	0xbfb99aec	-1.4500403
111	0xbf524319	-0.8213363
112	0x40805d45	4.0113854
113	0xc0011e13	-2.0174606
114	0x3f9e8692	1.2384818
115	0xc00a00c7	-2.1562974
116	0x3e58506c	0.21124429
117	0xbe363487	-0.17793475
118	0xc04d872a	-3.2113748
119	0xbdfd13cf	-0.12357294
120	0xbde2632f	-0.11054074
121	0xbfecd6ed	-1.850309
122	0x3fe0bb15	1.7557093
123	0x3f1ad0dc	0.60474944
124	0x3fd0da18	1.6316557
125	0xbf938c4d	-1.1527191
126	0x3dd5ea32	0.1044506
127	0xbff8930b	-1.9419874
128	0x402a206a	2.6582284
129	0x3f7cfbc7	0.9882168
130	0x3ebdcec3	0.3707181
131	0x3ee597b3	0.448423
132	0x408d2218	4.410412
133	0x3ea4b55e	0.32169622
134	0x3e994e3c	0.299425
135	0xbff766dc	-1.9328265
136	0x4006058e	2.094089
137	0xc01b19fe	-2.4234614
138	0x3fd978d7	1.6990002
139	0x3ceb89f5	0.028752306
140	0xbde720df	-0.112855665
141	0xbfaa6f29	-1.3315173
142	0xbff561a2	-1.917042
143	0xbf246d0d	-0.642289
144	0x3fc87519	1.5660735
145	0x3f2e963c	0.6819799
146	0xbf01002b	-0.5039088
147	0xbff951b7	-1.9478062
148	0x4073dafb	3.8102405
149	0x3ef8a88e	0.48566097
150	0x3fb93a63	1.4470943
151	0x3fc59c40	1.5438309
152	0x3f1e0e66	0.6174072
153	0x3fb8b68f	1.4430712
154	0x3fd2ff91	1.6484243
155	0xbeb2ab56	-0.34896344
156	0xc0001622	-2.0013509
157	0x4022ad74	2.5418367
158	0x3f61b1d0	0.88161945
159	0x3f8b314b	1.0874418
160	0x3fc3ab44	1.5286641
161	0xbfbf9cdb	-1.4969743
162	0xbd983a0f	-0.07432949
163	0xbf746aba	-0.9547535
164	0x3fe65b14	1.7996545
165	0x3ff5e9e8	1.9212008
166	0x3fa034cc	1.2516112
167	0x40204275	2.5040562
168	0xc00e494b	-2.2232234
169	0xbefea672	-0.49736363
170	0xc01a4a13	-2.4107711
171	0xbef2edcb	-0.47447047
172	0x3fea804d	1.8320404
173	0xc04afd43	-3.1717079
174	0x3f53cffa	0.8273922
175	0x3f8da4aa	1.1065876
176	0x3e4561bc	0.19275564
177	0xc08b15dd	-4.346419
178	0x3f60c551	0.8780108
179	0x3f6bb6d5	0.92075855
180	0xc079706e	-3.8974872
181	0x3f8fe16f	1.1240672
182	0x3f5172e5	0.8181594
183	0x3f9038ca	1.1267331
184	0x3fdd5aa5	1.7293288
185	0x3e966983	0.29377374
186	0xbf502514	-0.81306577
187	0x3f7b4cf7	0.98164314
188	0x403c8bbd	2.946029
189	0xbf9cf824	-1.2263227
190	0xbee9efed	-0.4569086
191	0xbfcb51b9	-1.5884315
192	0xbfd12cde	-1.6341817
193	0x3f7d1a28	0.98868036
194	0xbe953ce9	-0.29148033
195	0x3e2ea799	0.17056121
196	0xbf326bdd	-0.69695836
197	0x3e2d6e64	0.16936642
198	0xbf7852f2	-0.97001565
199	0xbff1a21b	-1.8877596
200	0xc04bb82a	-3.1831155
201	0x3fdab3b9	1.7086097
202	0xbfc9a14d	-1.575235
203	0xbf97abad	-1.1849266
204	0x3f7dde15	0.99166995
205	0xbf42a495	-0.7603238
206	0x3e510976	0.20413765
207	0xbe8e02a9	-0.27736405
208	0x3de5227f	0.1118822
209	0x3ffd9300	1.9810486
210	0x3ff34d8c	1.900804
211	0xbd679593	-0.05653913
212	0xbf87444c	-1.0567718
213	0xbf10657e	-0.56404865
214	0x3de2b7d5	0.110702194
215	0x3eb46d25	0.3523952
216	0x403622ec	2.8458815
217	0x3b39a7da	0.0028328807
218	0x3f1a7817	0.6033949
219	0x40277419	2.616461
220	0x401e162f	2.470104
221	0x3fba336e	1.4546945
222	0xbdc28410	-0.09497845
223	0xc096d4c4	-4.7134724
224	0xbfe68ed6	-1.801234
225	0xbf5f4674	-0.8721688
226	0x3fa0b206	1.2554328
227	0x3eeaaf4d	0.4583687
228	0x3fb02b8a	1.3763287
229	0xbe9d35a7	-0.30704996
230	0x4025b4fe	2.589172
231	0x3f3ad5ed	0.72982675
232	0xbe3424f3	-0.1759222
233	0x4035910c	2.836978
234	0xc03c8d46	-2.9461226
235	0xc037ed8a	-2.8738732
236	0x4002d606	2.044313
237	0xbebedd15	-0.37278047
238	0x402f7ea0	2.7421036
239	0x3f4a7f4e	0.791005
240	0x40290f4e	2.6415591
241	0x3d1378fd	0.036004055
242	0xbf161118	-0.58619833
243	0x3ee05377	0.4381368
244	0x3d13f113	0.03611858
245	0xbf493234	-0.7859223
246	0x3e994b99	0.2994049
247	0xc019d8ed	-2.403865
248	0xbeaa38e1	-0.3324652
249	0x40031afc	2.048522
250	0xc04fbf4f	-3.2460515
251	0xbef2ab50	-0.47396326
252	0xbf9ee77d	-1.2414395
253	0xbf8d265f	-1.1027335
254	0x3f04ffc7	0.51952785
255	0xc0239633	-2.5560424

lstm_cell.bias_ih f4 [256]
0	0xbfa4df39	-1.2880622
1	0x3fd60dc9	1.6722957
2	0x3f16fbe7	0.5897812
3	0x404d4d24	3.2078333
4	0x403e3655	2.9720662
5	0x40513605	3.268922
6	0x3f843c57	1.0330914
7	0x4027cd37	2.6219003
8	0x3f319fad	0.6938427
9	0x3f306a67	0.6891236
10	0x404b3dae	3.1756396
11	0x4007af5f	2.1200788
12	0xc074394f	-3.8159978
13	0x3d3d0b6b	0.046153467
14	0xc040e506	-3.0139785
15	0x3d683a63	0.056696307
16	0x4039f03e	2.9052882
17	0xc014752e	-2.319652
18	0xc031dc6c	-2.7790785
19	0x3f556651	0.8335925
20	0xbfba6cfa	-1.4564507
21	0xc081363e	-4.0378714
22	0xbfce4f07	-1.6117867
23	0x3eaf98c5	0.3429624
24	0x3fe232ea	1.7671788
25	0xbf908632	-1.1290953
26	0x3f5196f4	0.8187096
27	0x3f8ff176	1.1245563
28	0xbf36cc3a	-0.71405375
29	0x401c6516	2.4436698
30	0x401b5731	2.4271967
31	0x3e79617b	0.24353592
32	0x3fd22af3	1.6419357
33	0x3feb7cb2	1.8397429
34	0xbf0a8bd2	-0.541196
35	0xbfa02301	-1.2510682
36	0xbf23aa65	-0.63931876
37	0x3faf78b9	1.3708717
38	0xbe769898	-0.24081647
39	0x3fd2715e	1.6440847
40	0x3ef79c11	0.48361257
41	0x3f4fa1d9	0.81106335
42	0x3f333379	0.70000416
43	0xbfbacf88	-1.4594584
44	0xc0998037	-4.796901
45	0xbfda7544	-1.7067037
46	0x3f432838	0.76233244
47	0xbd2a66f3	-0.041602086
48	0xc08c559d	-4.385451
49	0xc008ded3	-2.1386
50	0xc03a491c	-2.9107122
51	0x3f1dc22b	0.616244
52	0xc01d8c47	-2.4616868
53	0xbfeaf1cd	-1.8355042
54	0xbe22183c	-0.15829557
55	0xbe3428d3	-0.17593698
56	0xc00d1538	-2.20442
57	0xc03fb7e7	-2.9955995
58	0x3fa0e3c8	1.2569513
59	0x3f2f6e5b	0.68527764
60	0x3f5d54c0	0.86457443
61	0x404df19f	3.2178724
62	0x40119b7e	2.2751155
63	0xc03645ae	-2.848003
64	0xbf975b9c	-1.1824832
65	0xbf20fe30	-0.6288786
66	0xbead38a3	-0.33832273
67	0x3f5d66ff	0.86485285
68	0xbfc5bf0c	-1.5448928
69	0x3e87ee07	0.26548788
70	0x3f731998	0.9496093
71	0xc015dc0a	-2.341555
72	0x3f54d823	0.831423
73	0xbf8a8d06	-1.0824287
74	0xc05b5353	-3.4269607
75	0xc0254c86	-2.5827956
76	0x3f3e375c	0.7430322
77	0x3c664100	0.014053583
78	0xbff10745	-1.8830343
79	0x3e84527a	0.25844175
80	0xbf6ed6da	-0.9329659
81	0x3eec8e14	0.46202147
82	0xbf1ed7d1	-0.6204806
83	0x4005d450	2.0910835
84	0xc030d1a4	-2.7627954
85	0x3f46534a	0.7747084
86	0xc02c348b	-2.690707
87	0xbfa47cd6	-1.2850597
88	0x3f52e403	0.8237917
89	0xbf20db2b	-0.62834424
90	0x3e68346d	0.22676249
91	0xbedfba9e	-0.43697065
92	0xbfadcf5c	-1.3578906
93	0xbf819321	-1.0123025
94	0x3e8d6781	0.2761803
95	0xbf55fee2	-0.83592045
96	0xbd5e6e4a	-0.0543044
97	0xc03a6a3f	-2.9127347
98	0xbe731304	-0.23737723
99	0xc05654b2	-3.3489194
100	0x4024199f	2.5640638
101	0xbf679f5d	-0.90477544
102	0xbedf911c	-0.43665397
103	0xbfd7d685	-1.6862341
104	0xbfc294ce	-1.5201662
105	0x3fe13bec	1.7596412
106	0x3f3628fd	0.71156293
107	0x3f0fbd86	0.56148565
108	0xbeb46595	-0.3523375
109	0xc007565e	-2.1146464
110	0xbf86550c	-1.0494704
111	0xbf61374d	-0.8797501
112	0xbfa0bfc3	-1.2558521
113	0x3f808d93	1.0043205
114	0xbf089375	-0.5335
115	0xc00f943d	-2.2434227
116	0xc02355b4	-2.552106
117	0x3e842037	0.25805828
118	0x3edcf0e4	0.43152535
119	0xbfd4ead3	-1.6634163
120	0x401768b2	2.365765
121	0x3fa72cb3	1.3060516
122	0xc088651f	-4.262344
123	0x4009fd3c	2.1560812
124	0xbe6ad9d9	-0.22934665
125	0xc0034e3b	-2.0516498
126	0x3f34a791	0.70568186
127	0xbeee6427	-0.46560785
128	0x403f47c9	2.9887564
129	0xbe9494f0	-0.2901988
130	0xc065b1d4	-3.5889788
131	0xc0127d69	-2.2889044
132	0x3fc7b25b	1.5601305
133	0xbf03c3f9	-0.51470906
134	0x3f0f1880	0.5589676
135	0xbfbf5d19	-1.4950286
136	0x400dfc2c	2.2185163
137	0xc0062d9c	-2.0965338
138	0x40749551	3.8216136
139	0x3f2b99ba	0.67031443
140	0x3e3a3292	0.18183354
141	0x403900fd	2.8906853
142	0x3fdd6806	1.729737
143	0xbf16f8aa	-0.5897318
144	0x4017cf88	2.3720417
145	0x4091459c	4.539747
146	0xc00b9a06	-2.1812758
147	0x3e748c9d	0.23881765
148	0xbf6ab061	-0.9167538
149	0x3e6ad503	0.2293282
150	0x3f121884	0.5706866
151	0x3f407bdc	0.75188994
152	0x3f1d62a3	0.6147863
153	0xbf083815	-0.53210574
154	0x3d82be53	0.06383958
155	0xbfe57cf1	-1.7928754
156	0x3f4fc6ff	0.8116302
157	0x3f3da556	0.7408041
158	0x401623e8	2.3459415
159	0x401a7c95	2.413854
160	0x3ff7c649	1.9357387
161	0xbfc33b99	-1.5252563
162	0xbec01811	-0.3751836
163	0x3ff8256e	1.9386423
164	0x3ff005ca	1.8751767
165	0xbe9799df	-0.29609582
166	0x3fb5adc5	1.4193655
167	0x3eabfc1f	0.3359079
168	0xbec3b2f6	-0.38222474
169	0x3fdd7f14	1.7304406
170	0xbf06d1fb	-0.52664155
171	0x3ff11076	1.8833148
172	0x3f42f1b1	0.7615004
173	0xba977836	-0.0011556211
174	0x405517b8	3.3295727
175	0xc0279719	-2.6185973
176	0xc0017b2b	-2.0231426
177	0x3ea71c00	0.3263855
178	0x3ec8d300	0.3922348
179	0xbf317518	-0.69319296
180	0xbf8e5670	-1.1120129
181	0xc0333de4	-2.8006525
182	0xbfb4c0cc	-1.4121337
183	0xbfedb8c8	-1.8572016
184	0xbeabd0d3	-0.33557758
185	0x3fa57a41	1.2927934
186	0xbf9e240c	-1.2354751
187	0xbd1b632f	-0.037936386
188	0xbfe7f83d	-1.8122631
189	0xbfa7daac	-1.3113608
190	0x40012da7	2.0184114
191	0x3f2594d1	0.646802
192	0xbe8f1602	-0.27946478
193	0xc08626da	-4.1922426
194	0x3f22421c	0.63382125
195	0x40a50641	5.1570134
196	0xbf48b536	-0.78401506
197	0xc00f4ef8	-2.2391949
198	0x3fce0b69	1.6097232
199	0x3ffb4477	1.9630269
200	0xbf9f8e95	-1.2465388
201	0x3f5f3fae	0.8720654
202	0xc002511f	-2.0362012
203	0x4055e1fe	3.3419185
204	0xbf6fb6d3	-0.9363834
205	0x3fd7e0d6	1.686549
206	0xc0304aca	-2.7545648
207	0xbef1d843	-0.47235307
208	0xc01bac3a	-2.4323869
209	0xbf22624c	-0.6343124
210	0xc020b56c	-2.511073
211	0x3dd45d81	0.10369397
212	0x3f9552ab	1.1665853
213	0xbf7c8227	-0.98636097
214	0x3faa6a3a	1.3313668
215	0x3f3edcba	0.7455555
216	0xbf34edbb	-0.7067525
217	0x3e2b896f	0.16751646
218	0x3fea6fc6	1.831536
219	0xc04fe50c	-3.248355
220	0x3ed361f0	0.41285658
221	0xbfbd07cc	-1.4768004
222	0x3fb303f5	1.3985583
223	0xbee569ff	-0.4480743
224	0xbf4d9758	-0.8030906
225	0x40098e5a	2.1493134
226	0xbea24ff7	-0.31701633
227	0xbf9b7144	-1.2143941
228	0xbeef711b	-0.4676598
229	0x4035d305	2.8410046
230	0xc00aa20a	-2.16614
231	0x4043e509	3.0608542
232	0x3f1608b2	0.5860702
233	0x40528e8b	3.2899501
234	0xbfde13ef	-1.7349833
235	0x3fdd2e15	1.7279688
236	0xc017f1a0	-2.3741226
237	0xc086348f	-4.193916
238	0x3fe39ed0	1.7782841
239	0xbf4f6f76	-0.8102945
240	0xc04ca0cc	-3.1973143
241	0xbfdc200b	-1.7197279
242	0xbff8d179	-1.9438926
243	0xc00aa682	-2.1664128
244	0xbf58e473	-0.84723586
245	0xbfd41f5d	-1.6572071
246	0x4008e4d9	2.1389678
247	0xc019a1ac	-2.4004927
248	0x401a8091	2.414097
249	0xbf8aafa2	-1.0834849
250	0x3eafc5c6	0.34330577
251	0xc012e613	-2.2952926
252	0xbf37b4bf	-0.7176017
253	0x3f80a082	1.0048983
254	0xc01a6175	-2.4121983
255	0x3eb9b252	0.3626886

lstm_cell.bias_hh f4 [256]
0	0xbfa903e9	-1.3204318
1	0x3fe3f4c9	1.7809078
2	0x3ebd1932	0.36933285
3	0x4048dbb2	3.1384091
4	0x4042d3f5	3.0441868
5	0x4051e805	3.2797863
6	0x3f6e7c62	0.93158543
7	0x402a1249	2.657366
8	0x3f37402d	0.715823
9	0x3f2aaa87	0.66666454
10	0x404b7c3c	3.1794577
11	0x400fca0f	2.2467077
12	0xc07e8faf	-3.9775198
13	0x3e126fe4	0.14300495
14	0xc0373409	-2.862551
15	0x3dc56bfa	0.096397355
16	0x4039b3ee	2.901607
17	0xc01d5aab	-2.458659
18	0xc031e98c	-2.7798796
19	0x3f3590e1	0.7092419
20	0xbfbb9f9a	-1.4658082
21	0xc0792eb3	-3.8934753
22	0xbfda0139	-1.7031623
23	0x3eba6035	0.36401525
24	0x3fdc69ca	1.7219784
25	0xbf9d9b15	-1.2312952
26	0x3f8647d4	1.049067
27	0x3f82c9e6	1.0217865
28	0xbf1ff202	-0.6247865
29	0x40184246	2.379045
30	0x40253ab7	2.5817087
31	0x3e7b687b	0.24551575
32	0x3fd4a773	1.6613601
33	0x3fe892d2	1.8169806
34	0xbf210c2a	-0.62909186
35	0xbf964a51	-1.174143
36	0xbf3a6199	-0.7280517
37	0x3fc6e63c	1.5539012
38	0xbe5461f8	-0.20740497
39	0x3fe05c5e	1.7528188
40	0x3e8b2ba1	0.27181724
41	0x3f63f685	0.89048034
42	0x3f5c4efb	0.86058015
43	0xbfabdbba	-1.342643
44	0xc09b4407	-4.852054
45	0xbfd5b124	-1.6694684
46	0x3f46df88	0.7768483
47	0xbb2366de	-0.002493314
48	0xc08c6b9d	-4.3881364
49	0xc00573f3	-2.085202
50	0xc033038d	-2.7970917
51	0x3f27425c	0.6533563
52	0xc029e7e7	-2.6547792
53	0xbfef6b6d	-1.8704659
54	0xbc4ac4ce	-0.012376023
55	0xbe8548ef	-0.26032206
56	0xc009a6a8	-2.150797
57	0xc0378984	-2.8677683
58	0x3f9ac348	1.2090845
59	0x3f107d39	0.56441075
60	0x3f4eba20	0.80752754
61	0x404ba744	3.182084
62	0x4008da67	2.1383302
63	0xc03185ee	-2.7737994
64	0xbf89252c	-1.0714469
65	0xbef7bb16	-0.48384923
66	0xbe9c4483	-0.3052102
67	0x3f700c1f	0.93768495
68	0xbfbd138c	-1.477159
69	0x3e8826a7	0.2659199
70	0x3f8432b8	1.0327978
71	0xc019161a	-2.391974
72	0x3f415702	0.7552339
73	0xbf9cc536	-1.2247684
74	0xc05fbce3	-3.4959037
75	0xc026bbd1	-2.6052134
76	0x3f2a0c03	0.6642458
77	0x3e7482b0	0.23877978
78	0xbfd8fb45	-1.6951681
79	0x3e9d9ac9	0.30782154
80	0xbf91b7ce	-1.1384218
81	0x3ec4c45f	0.3843107
82	0xbf094371	-0.5361853
83	0x40032cd0	2.0496101
84	0xc0303954	-2.753499
85	0x3f26417b	0.64943665
86	0xc02dbd2b	-2.714671
87	0xbfa50776	-1.2892902
88	0x3f511423	0.8167135
89	0xbf0b4ce5	-0.54414207
90	0x3e14cc69	0.14531101
91	0xbeef9efc	-0.46800983
92	0xbfa8f19f	-1.3198737
93	0xbf79ba77	-0.9755015
94	0x3e7c0285	0.24610336
95	0xbf6226a2	-0.883402
96	0xbdb5188c	-0.088425726
97	0xc03b363f	-2.925186
98	0xbe92145d	-0.2853116
99	0xc04e109c	-3.2197638
100	0x402993bf	2.6496427
101	0xbf81d14d	-1.0141999
102	0xbea083bb	-0.31350502
103	0xbfe68455	-1.8009135
104	0xbfabc57f	-1.3419646
105	0x3fede4f8	1.8585501
106	0x3f610992	0.8790523
107	0x3f1d1136	0.61354387
108	0xbe91dea4	-0.28490174
109	0xc002d4be	-2.0442348
110	0xbf8b85b4	-1.0900178
111	0xbf62216d	-0.88332254
112	0xbf821743	-1.0163349
113	0x3f7c77c4	0.9862025
114	0xbeb1d75a	-0.34734613
115	0xc012d4cd	-2.2942383
116	0xc01cc46b	-2.4494884
117	0x3e6dbf84	0.23217589
118	0x3ebe9e25	0.3723003
119	0xbfdcede3	-1.7260097
120	0x4012a672	2.291409
121	0x3fb0baa8	1.3806963
122	0xc081ce2f	-4.056419
123	0x400d1472	2.204373
124	0xbe678e99	-0.2261299
125	0xc0094d1b	-2.1453311
126	0x3f11a3f1	0.5689078
127	0xbecf669e	-0.40507978
128	0x403b2809	2.9243186
129	0xbf05cdae	-0.5226697
130	0xc0654554	-3.5823565
131	0xc015c7c9	-2.340319
132	0x3fb8807c	1.441421
133	0xbf0060f9	-0.5014797
134	0x3ee58e35	0.44835058
135	0xbfbea849	-1.4895107
136	0x40079f17	2.119085
137	0xc003e41c	-2.0607977
138	0x407dcef1	3.9657557
139	0x3f46ff0a	0.7773291
140	0x3e6d7cd2	0.23192146
141	0x4039affd	2.9013665
142	0x3fc380c6	1.5273674
143	0xbf2ad666	-0.66733396
144	0x402398b8	2.5561962
145	0x408e0830	4.4384995
146	0xc00fd516	-2.2473807
147	0x3e3b2b3f	0.18278216
148	0xbf5df3a3	-0.86699885
149	0x3e494f92	0.1965926
150	0x3f0ee625	0.5581992
151	0x3f23f65c	0.6404779
152	0x3f54a71e	0.830675
153	0xbf074525	-0.5283988
154	0x3d59e961	0.053201083
155	0xbfea39b1	-1.8298856
156	0x3f47cb15	0.78044254
157	0x3f4a7a56	0.7909292
158	0x401b8388	2.429903
159	0x400e9d1c	2.2283392
160	0x3febbf89	1.8417827
161	0xbfacc05a	-1.3496201
162	0xbeace229	-0.33766297
163	0x3ffe9eee	1.9892251
164	0x3fe3ddea	1.7802098
165	0xbe7d15f3	-0.24715404
166	0x3fa5e004	1.2958989
167	0x3e84c48c	0.25931203
168	0xbebacec0	-0.36485863
169	0x3fd66344	1.6749043
170	0xbf0e236b	-0.55522794
171	0x3ff31896	1.8991878
172	0x3f4d6af0	0.802413
173	0x3d58bfeb	0.052917402
174	0x4053c218	3.3087215
175	0xc0236979	-2.5533125
176	0xc0084aeb	-2.1295726
177	0x3e6a13dc	0.22859138
178	0x3ec555a0	0.3854189
179	0xbf255e09	-0.6459661
180	0xbfa80a48	-1.3128138
181	0xc031c214	-2.7774706
182	0xbfa187af	-1.2619532
183	0xbff3077c	-1.8986659
184	0xbecf6c22	-0.40512186
185	0x3fb913e1	1.4459192
186	0xbf9f17ec	-1.2429175
187	0xbd94f12b	-0.07272562
188	0xbffa9657	-1.957713
189	0xbfbf634d	-1.4952179
190	0x3fe5bccd	1.7948242
191	0x3f1c06fb	0.6094815
192	0xbe697434	-0.22798234
193	0xc084e272	-4.1526423
194	0x3f2116bc	0.62925315
195	0x40aa2211	5.3166585
196	0xbf4f8364	-0.8105986
197	0xc00f92c5	-2.243333
198	0x3fb7fc79	1.4373924
199	0x3fef8cb3	1.8714813
200	0xbf911c2d	-1.1336724
201	0x3f51582e	0.81775177
202	0xc0015f7f	-2.0214536
203	0x404df7be	3.218246
204	0xbf83f3ca	-1.0308774
205	0x3fd6f896	1.6794612
206	0xc02fe378	-2.7482586
207	0xbf29b63d	-0.662937
208	0xc00f62fb	-2.2404163
209	0xbf379347	-0.717091
210	0xc01a4c3e	-2.4109035
211	0x3de5b9f1	0.11217106
212	0x3fae3aab	1.3611654
213	0xbf84cef0	-1.0375652
214	0x3fb12b9a	1.3841431
215	0x3f427c1a	0.75970614
216	0xbf45679a	-0.7711121
217	0x3e75ba81	0.23996927
218	0x3fe9efa6	1.827626
219	0xc053661c	-3.3031073
220	0x3ef14ff2	0.47131306
221	0xbfc0e32c	-1.5069327
222	0x3fba2315	1.4541956
223	0xbf0555d3	-0.5208408
224	0xbf34eca9	-0.70673615
225	0x400c93ff	2.196533
226	0xbe79dc84	-0.24400526
227	0xbf87472e	-1.0568597
228	0xbef7307b	-0.48279175
229	0x40367785	2.851045
230	0xc00b263a	-2.1742082
231	0x40473e29	3.113169
232	0x3f245f32	0.64207757
233	0x4054d533	3.3255126
234	0xbfccbd3f	-1.5995253
235	0x3fde38b5	1.7361056
236	0xc0216fc9	-2.5224478
237	0xc0876fef	-4.232414
238	0x3fe0e5a0	1.7570076
239	0xbf2e3326	-0.68046796
240	0xc0497f5c	-3.1483984
241	0xbfe1292b	-1.7590688
242	0xbfe9a099	-1.8252136
243	0xc006f192	-2.1084943
244	0xbf6c3cb9	-0.92280155
245	0xbfc372f0	-1.5269451
246	0x400944b0	2.1448174
247	0xc00df8fc	-2.2183218
248	0x40107f80	2.257782
249	0xbf7e02de	-0.99223125
250	0x3ea6e107	0.32593557
251	0xc00f81d1	-2.2422984
252	0xbf431d33	-0.7621643
253	0x3f7df608	0.9920354
254	0xc026fed2	-2.609303
255	0x3ecadb02	0.39620215

linear0.weight f4 [32, 384]
0	0xbd40a4a1	-0.047032002
1	0x3c0f0c69	0.008730986
2	0xbdb1eac6	-0.086873576
3	0xbcacf566	-0.021113109
4	0x3d8cb651	0.068707116
5	0x3d76d3a1	0.06026042
6	0xbd920527	-0.07129889
7	0x3d27c786	0.040961765
8	0x3dd489db	0.10377856
9	0x3dbc03e5	0.0918043
10	0xbd4ef7df	-0.050529357
11	0x3d354e0f	0.044263896
12	0x3d71d651	0.05904228
13	0x3d7c7661	0.061636332
14	0xbdd4cadf	-0.10390257
15	0xbde149c1	-0.110003956
16	0x3cf506ef	0.029910533
17	0xbd740101	-0.05957127
18	0xbd9d99c1	-0.07695342
19	0xba866b87	-0.0010255434
20	0xbd01a620	-0.03165257
21	0xbd0784a9	-0.0330855
22	0xbc91f399	-0.017816352
23	0xbdd6ec7f	-0.10494327
24	0xbd55a731	-0.0521614
25	0xbdcea271	-0.10089577
26	0x3c8f568f	0.017497329
27	0x3cbb699f	0.022877512
28	0x3dcfc08f	0.101441495
29	0x3cdc7e7f	0.026915787
30	0xbdaef24f	-0.085423104
31	0x3dbb52ef	0.09146678
32	0xbdb69c6f	-0.08916556
33	0x3c16dd21	0.009207995
34	0x3c97a3b0	0.01851067
35	0xbc193191	-0.009350196
36	0xbd5731bf	-0.052537676
37	0xbd6ec950	-0.058297455
38	0xbcb02d1f	-0.02150589
39	0xbe0548cf	-0.13016056
40	0x3d9983c1	0.07495833
41	0x3d9682af	0.07349145
42	0x3d928ca7	0.071557336
43	0xbd3e44af	-0.04645222
44	0xbce09b1f	-0.027417718
45	0x3d4f2831	0.05057544
46	0xbca6c440	-0.020357251
47	0xbd28e790	-0.04123646
48	0x3dd19c21	0.10234857
49	0x3ac73966	0.0015199601
50	0x3da9e837	0.082962446
51	0xbd5ea440	-0.05435586
52	0x3c246366	0.010033464
53	0xbdabeea1	-0.08395124
54	0x3c12676a	0.008935789
55	0xbd8fe091	-0.070252545
56	0xbd6ea6c1	-0.058264498
57	0x3dfe23c1	0.12409163
58	0x3cd89c41	0.026441695
59	0x3d51600f	0.051117
60	0xbd72525f	-0.059160586
61	0x3d8abc30	0.06774175
62	0xbc6f9161	-0.014622063
63	0xbb7545bf	-0.0037425605
64	0xbbc83a02	-0.0061104307
65	0x3d2b869f	0.04187643
66	0xbd5eb0df	-0.054367896
67	0xbd3bc93e	-0.045846216
68	0x3d4f39af	0.05059212
69	0x3d0ade89	0.033903632
70	0xbda24c27	-0.07924681
71	0x3d9a2e37	0.07528346
72	0x3d92ed9a	0.07174225
73	0x3dbe5c21	0.09294916
74	0xbd8b365f	-0.0679748
75	0x3d8d0847	0.068863444
76	0x3dad39ba	0.08458276
77	0x3e01cb31	0.12675168
78	0xbda5c3ca	-0.080939844
79	0xbd4f930f	-0.050677355
80	0x3bd72dd1	0.006566741
81	0xbd78f47f	-0.060780045
82	0xbdf85f2f	-0.1212753
83	0x3ac9ba0e	0.0015390532
84	0xbdf4990f	-0.11943256
85	0x39ed7de1	0.0004529795
86	0xbd7de621	-0.061987046
87	0xbdc8d4b1	-0.09806193
88	0xbd9b4177	-0.07580846
89	0xbd44d785	-0.048057098
90	0xbd9bd2af	-0.07608544
91	0x3de0bfdf	0.109740965
92	0x3db7f43a	0.089821294
93	0xbd2495ff	-0.04018211
94	0xbda3d8ff	-0.08000373
95	0x3d8efd21	0.06981874
96	0xbdde7381	-0.10861874
97	0x3d3e715a	0.04649482
98	0x3da595b6	0.08085196
99	0xbb92259f	-0.004460051
100	0xbd224c11	-0.039623324
101	0xbdbf2da0	-0.09334874
102	0x3adbd1af	0.0016770865
103	0xbd410aaf	-0.04712933
104	0x3dec5a6f	0.11540686
105	0xbcba817a	-0.022766817
106	0xbbe6b9f1	-0.007041209
107	0xbde05e3f	-0.10955476
108	0xbd9f7cd7	-0.07787483
109	0x3e0ac560	0.13551855
110	0xbd2a2ba1	-0.041545514
111	0x3dbceb81	0.09224606
112	0x3d8659f7	0.06560128
113	0x3c3f9b82	0.011694791
114	0x3df4bf7f	0.119505875
115	0xbdadab31	-0.08479918
116	0x3d924ee1	0.07143951
117	0xbd18f3b1	-0.037341777
118	0x3d7a4d31	0.06110877
119	0xbd1396b7	-0.036032405
120	0xbdb451c6	-0.088046595
121	0x3da0eb2f	0.07857358
122	0x3d74e1ef	0.05978578
123	0x3da657f1	0.08122242
124	0xbd83002f	-0.063965194
125	0x3cd67d61	0.026182832
126	0xbd4f6fe5	-0.05064382
127	0x3ce5083f	0.027958034
128	0xbc73d921	-0.0148833105
129	0xbd168139	-0.03674433
130	0xbdd16f61	-0.10226322
131	0xbcd1c621	-0.02560717
132	0xbcc5fe31	-0.02416906
133	0xbdcb5551	-0.09928382
134	0xbe0be639	-0.13662042
135	0xbdde06ef	-0.10841166
136	0x3d3cfb00	0.04613781
137	0xbccc2825	-0.024921486
138	0xbcd5dcff	-0.026106356
139	0xbd238259	-0.03991923
140	0xbdde20e1	-0.10846115
141	0xbd9d0ef1	-0.076688655
142	0x3be8e0d0	0.007106878
143	0xbdd8bc2f	-0.10582768
144	0xbc8c1c17	-0.017103238
145	0xbc5dbfaf	-0.01353447
146	0xbd717c3f	-0.05895638
147	0xbdc3b0ff	-0.09555244
148	0xbd0912b7	-0.033465113
149	0xbd4dd0ff	-0.050248142
150	0xbdc6732f	-0.09689938
151	0xbd33ffa6	-0.043944977
152	0xbc708921	-0.014681132
153	0xbddda43f	-0.10822343
154	0x3d20c501	0.039250378
155	0xbda15107	-0.07876783
156	0xbd973ba1	-0.0738442
157	0xbda933f7	-0.08261865
158	0xbd8e47f7	-0.0694732
159	0xbda80139	-0.08203358
160	0xbc0955f7	-0.008382312
161	0xbd9d3f7f	-0.076781265
162	0xbc800229	-0.01562603
163	0xbc9307c9	-0.017948048
164	0xbcced151	-0.025246294
165	0xbd43d5e1	-0.047811393
166	0xbc3b3eff	-0.011428594
167	0xbd21e4e7	-0.03952494
168	0xbd8e6547	-0.06952911
169	0x3d162287	0.03665402
170	0xbdc6d5ef	-0.09708773
171	0xbda10b59	-0.078634925
172	0xbdba6d22	-0.09102847
173	0xbddd0a4f	-0.10792982
174	0xbcd226df	-0.0256533
175	0xbce5afe1	-0.028037967
176	0xbc96a430	-0.018388838
177	0x3d0028b1	0.031288806
178	0xbd80f127	-0.06295996
179	0xbcc8d13f	-0.024513839
180	0x3bebcbf0	0.007195942
181	0xbd03022f	-0.031984504
182	0xbdf42231	-0.11920584
183	0xbd49f271	-0.049303476
184	0xbc5d56e1	-0.013509483
185	0xbd7a8200	-0.061159134
186	0xbd8328c1	-0.064042576
187	0xbca90aa7	-0.020634962
188	0xbd9a3331	-0.07529295
189	0xbdc30481	-0.095223434
190	0xbda82319	-0.08209819
191	0xbdd1d20f	-0.102451436
192	0xbd6a3391	-0.057178084
193	0x3cac8986	0.02106167
194	0xbb3840ef	-0.0028114875
195	0xbbc94e0f	-0.0061433385
196	0xbd62b3ff	-0.05534744
197	0xbdabfea1	-0.08398176
198	0xbce88e6f	-0.02838823
199	0xbce95c9f	-0.028486548
200	0x3d3a2f01	0.045454983
201	0xbd05cbc1	-0.032665018
202	0x3d230300	0.039797783
203	0xba020b19	-0.000496076
204	0x3dcf69d1	0.10127605
205	0x3def9b4f	0.11699545
206	0x3ce8db81	0.02842498
207	0x3d688721	0.056769494
208	0xbdb5cbcf	-0.08876764
209	0xbd688811	-0.056770388
210	0x3d664a01	0.05622292
211	0x3dbb3305	0.091405906
212	0x3d4dd9f1	0.050256673
213	0x3daff221	0.08591104
214	0x3d3c11fb	0.045915585
215	0x3cba4d60	0.022741973
216	0x3c9935f9	0.018702494
217	0xb8b31641	-8.53953e-05
218	0xbb49468e	-0.003071222
219	0xbd3ef02f	-0.046615776
220	0xbd4aecff	-0.049542423
221	0xbd279739	-0.0409157
222	0xbd432e25	-0.04765143
223	0x3d5ee93f	0.05442166
224	0xbdbc7375	-0.09201709
225	0xbc5e4e41	-0.013568462
226	0x3e1634d1	0.14668585
227	0x3de8c57f	0.113657944
228	0x3c604611	0.01368858
229	0x3cf53a1f	0.02993494
230	0x3c942a5f	0.01808661
231	0x3cf9c5f1	0.030489894
232	0x3d4bed31	0.04978675
233	0x3d1b800f	0.037963923
234	0xbc299299	-0.010349893
235	0xbd4ee5d1	-0.05051214
236	0xbd1de8df	-0.03855216
237	0x39342f00	0.00017183647
238	0x3d44a76f	0.04801124
239	0x3c7175f0	0.014737591
240	0xbd426111	-0.04745585
241	0x3d36074a	0.044440545
242	0xbbd73ce1	-0.0065685366
243	0xbd3d7a80	-0.046259403
244	0x3d0050df	0.031327125
245	0x3d37421f	0.044740792
246	0xbd0cd9f7	-0.034387555
247	0x3d03aca8	0.03214708
248	0x3d3d2581	0.046178345
249	0x3d42abcf	0.04752713
250	0x3d48c15f	0.049012538
251	0xbc4f5abf	-0.012655913
252	0x3caa329f	0.020776091
253	0x3d1fbc30	0.03899783
254	0xbc8ae207	-0.016953481
255	0xbb7f6300	-0.003896892

linear0.bias f4 [32]
0	0xbdc4857f	-0.09595775
1	0xbe24ff31	-0.16112973
2	0x3dc7b2d3	0.09750905
3	0xbe8ee581	-0.27909473
4	0x3b410774	0.0029453905
5	0xbdd323c1	-0.10309554
6	0xbced9d11	-0.02900556
7	0x3ec652ce	0.3873505
8	0xbe23884f	-0.15969966
9	0xbda4b25f	-0.08041834
10	0xbee6df11	-0.4509206
11	0xbe8445b7	-0.25834438
12	0xbe8d3157	-0.27576706
13	0xbecd072f	-0.40044543
14	0x3d96e4e9	0.0736788
15	0xbe673471	-0.22578599
16	0xbe925cd9	-0.28586462
17	0x3d6faec1	0.058516268
18	0xbe4ab9a1	-0.19797374
19	0xbdb7c5f1	-0.08973301
20	0xbd73ea31	-0.059549514
21	0xbc93d581	-0.018046143
22	0x3dc6488e	0.096818075
23	0x3e37ac76	0.17936882
24	0x3c7f331f	0.015576153
25	0xbe37ab0f	-0.17936347
26	0xbb9061c9	-0.004406188
27	0xbd2291af	-0.039689716
28	0x3d403bf0	0.04693216
29	0xbd88d179	-0.06680579
30	0xbe69fb00	-0.22849655
31	0xbe4c6bee	-0.19963047
