model/1715146453/4_Pee1_global_model_2.pth (torch, 331092 bytes, 17 tensors)

conv1.lin_l.weight f4 [16, 1]
000000 71 2a 22 bf ef ad 5e bc 14 d7 2f bf 91 ff 26 bf
       -0.6334601 -0.013591274 -0.6868756 -0.65233713
000010 e1 4e 00 bf 4d dd 8d 3e 11 0e 56 bf 95 ce 1e be
       -0.5012036 0.27707902 -0.83615214 -0.15508492
000020 d6 b5 22 bf 6f 8d b2 3d 38 5f 88 be 2c 54 61 bf
       -0.6355871 0.087183826 -0.26635146 -0.8801906
000030 ac 90 52 3d 3f a2 f8 be cf c8 c7 3e 61 8f e8 be
       0.0514075 -0.48561284 0.39020392 -0.4542189

conv1.lin_l.bias f4 [16]
000000 06 cb 1e be 5a bf 17 3f 99 46 8a bf 5f c6 be 3e
       -0.15507135 0.59276354 -1.0802795 0.3726072
000010 1f 0d e3 3e 66 5f 91 be b1 bd 51 bf 94 35 c8 3e
       0.44345948 -0.28393096 -0.8193007 0.39103377
000020 ff cb 2a 3f 2a 03 32 bf 8f e3 21 3f e7 97 71 bf
       0.66717523 -0.6953608 0.6323785 -0.9437241
000030 95 ba ff 3e 50 7c 84 be 25 30 c9 be d0 53 d9 bd
       0.49947038 -0.25876093 -0.39294544 -0.10611689

conv1.lin_r.weight f4 [16, 1]
000000 d1 bd 7f bf a1 87 00 bf 34 5d 3e 3e b1 4b 5b bf
       -0.9989901 -0.50206953 0.18590242 -0.8566237
000010 11 6b a5 be 1d 31 17 3f 1b 56 38 bf b3 3a ea 3d
       -0.32308248 0.59059316 -0.72006387 0.11436977
000020 8f ee f9 be 3b 25 51 bf 2f 62 57 bf c8 31 d9 3d
       -0.48814818 -0.81697434 -0.8413419 0.10605198
000030 39 f1 43 bf e1 b7 4b bf cb c3 8c be 80 34 65 bd
       -0.7653995 -0.7957745 -0.27493128 -0.05595827

conv2.lin_l.weight f4 [64, 16]
000000 b1 99 ac bd 5f 13 0f 3e 9f b9 b8 bc a9 91 0f 3e
       -0.08427752 0.13972233 -0.022549449 0.14020409
000010 89 3a 0a bd cf 01 61 bd f0 47 17 be bf e4 c7 3d
       -0.03374723 -0.054933365 -0.14773536 0.09760427
000020 5f 6a fc 3d 2f 9a 3e 3d 27 c1 06 be 17 45 0f 3e
       0.12324976 0.04653376 -0.1315962 0.139912
000030 aa 5e 9d 3d 8a 2e 24 3e df 34 c3 be 51 2e 42 be
       0.07684071 0.16033378 -0.38126275 -0.18962981
000040 46 96 17 3e c6 e1 93 be 41 ad a4 3d f1 6e 2d 3e
       0.14803419 -0.2888319 0.08040858 0.16936852
000050 2f 3d 90 3d 31 a4 49 3d 61 3d a1 bd 38 c6 86 be
       0.0704292 0.04922885 -0.07873035 -0.26323104
000060 71 f1 56 3e ef e9 88 be e1 67 72 be 96 ce 9c bd
       0.2099054 -0.26740977 -0.23672439 -0.07656591
000070 81 17 61 be a0 61 1b be 16 2b 99 be af 1f e4 bd
       -0.21981622 -0.1517396 -0.29915684 -0.11138856
000080 21 e9 85 bd 55 0c b7 bd b9 3a 26 3e e0 79 60 bc
       -0.065386064 -0.08937899 0.16233338 -0.013700932
000090 40 88 bc 3b 80 4d c1 bb a1 58 e2 3d 2e 59 15 3e
       0.005753547 -0.0058991313 0.11052061 0.145848
0000a0 25 f3 b6 3d ef 7e ca bd c0 a1 23 bc 81 30 c4 3d
       0.08933095 -0.09887492 -0.009987295 0.09579564
0000b0 c7 05 8a bd 81 d2 04 be 20 05 96 be 60 d2 48 be
       -0.06739383 -0.12970926 -0.29300785 -0.19611502
0000c0 af 3e f8 3d af a2 6a be cf 22 c9 bd 51 57 e8 3d
       0.12121331 -0.22913621 -0.09821092 0.11344779
0000d0 bf 00 e9 3d 09 92 90 be 80 2a 91 3c 76 5c 1e be
       0.113770954 -0.28236416 0.01772046 -0.15464959
0000e0 b0 fc be 3c 5b ef b6 be c1 80 22 3e 40 de 86 bc
       0.02331385 -0.3572949 0.15869428 -0.016463399
0000f0 df 2e aa be 5f ce 3f 3e c0 a3 d5 3d 71 b9 fe bd
       -0.33238885 0.18731068 0.104316235 -0.12437714
000100 8f 6e 43 3e 31 22 de 3d e5 1a 3a be e6 51 a8 3d
       0.19085144 0.10846365 -0.18174322 0.08218746
000110 a0 d9 53 bc f0 2b 5e be 50 09 2f 3e ff bf a6 be
       -0.012930304 -0.21696448 0.17093396 -0.32568356
000120 6f f4 1f 3e 51 d1 72 be 00 bc 7e 3e e1 6c 80 bd
       0.15620588 -0.2371266 0.24876404 -0.06270767
000130 91 d3 1d be c1 17 23 be ef 7a a3 be 81 48 39 be
       -0.15412737 -0.1592703 -0.31929728 -0.18094064
000140 ef 9d 48 be 41 f9 8e bd 3f c6 84 be 41 8a f4 bd
       -0.19591497 -0.06981135 -0.259325 -0.11940432
000150 41 a0 75 3e f6 3b 13 be b0 87 de bd 0b 5b 2b bd
       0.23986913 -0.14378342 -0.10865724 -0.041834872
000160 c1 47 74 3e df 99 72 be bf 38 1b 3e ef fa c2 be
       0.23855497 -0.2369151 0.15158366 -0.38082072
000170 da c7 a9 be f0 ea e8 3c 31 49 e6 be 90 36 00 be
       -0.33160287 0.02843234 -0.44977716 -0.12520814
000180 21 68 53 be ba 4e a3 bd c1 7a da bd c0 86 9e 3b
       -0.20645191 -0.07974 -0.10667945 0.004837841
000190 01 f7 51 be 79 15 9e be e1 83 22 be e1 19 8b be
       -0.20504381 -0.30875757 -0.1587062 -0.27168182
0001a0 a0 d8 1c 3c a8 91 1b 3e 21 42 4a be 1b cf 2c 3e
       0.009573132 0.15192282 -0.19751789 0.1687588
0001b0 90 7f 35 3e 0f 5b 7e 3e b3 9e 0b be f0 73 e0 3c
       0.17724442 0.24839424 -0.13634758 0.027399033
0001c0 11 b3 e3 3d 0f a7 51 be 4f c7 e9 bd ef 91 c8 bd
       0.111181386 -0.20473884 -0.11414968 -0.097934596
0001d0 00 b4 0e 3e 81 53 0c be 21 70 2b be cf 28 91 be
       0.13935852 -0.13703729 -0.16741993 -0.28351447
0001e0 df c2 e7 bd 21 5c bc bc 6f f2 3c be 97 a4 84 be
       -0.113164656 -0.02299315 -0.18451856 -0.25906822
0001f0 a1 17 ae bd c1 83 cb bd 4f a0 4d be 81 0e 18 be
       -0.085006006 -0.099372394 -0.20080684 -0.14849283
000200 d0 67 f0 bc f0 c5 30 3d c1 82 01 be 5f 91 c2 bd
       -0.029346377 0.043157518 -0.12647535 -0.095003836
000210 70 02 07 3e df 2c 07 be bf 44 7b be 1f e8 f2 3d
       0.13184524 -0.1320071 -0.24537943 0.1186068
000220 f1 a2 d7 3d c1 92 54 3e 01 00 c4 3d 00 2c d8 bb
       0.105291255 0.20759107 0.09570313 -0.006597042
000230 41 00 7f 3d f1 dc 52 3e a0 4a 09 bc 21 24 1c be
       0.0622561 0.20592095 -0.008379608 -0.15248157
000240 10 a9 4a bd fb b3 37 be 16 f4 97 3d 71 36 91 3d
       -0.049477637 -0.17939751 0.074196026 0.07090462
000250 9f 3a 4b be 8a 42 69 be 6f 0f 5e be 7f 1a e3 bd
       -0.19846581 -0.22779289 -0.21685575 -0.11089038
000260 d0 e0 03 3d 23 97 d0 3d bf e3 76 be fa 3e 9d be
       0.03219682 0.10185077 -0.24110316 -0.3071211
000270 83 a6 ba 3d a1 6b 71 3e c1 e9 e9 3d 00 82 15 3d
       0.09113791 0.23576213 0.11421538 0.03650093
000280 70 d5 83 bd 70 94 cc bc 91 15 08 3e 01 6d 15 3e
       -0.06437194 -0.024973124 0.13289477 0.14592363
000290 e1 75 45 bd bf 1b 4d be 70 41 ed bd 05 24 31 3e
       -0.04820812 -0.20030116 -0.11584747 0.17298897
0002a0 41 17 00 be 0f 5f 82 3d 01 45 cf 3d 10 53 fc bd
       -0.1250887 0.06365787 0.10120583 -0.123205304
0002b0 1b 8b 2e be bf e5 57 3e 1b d7 2f 3e 50 e2 29 bd
       -0.17045252 0.21083735 0.171719 -0.041475594
0002c0 a1 da 45 be d1 ce 31 be 00 24 eb 3c 50 64 fe 3d
       -0.19321682 -0.1736405 0.02870369 0.12421477
0002d0 21 38 5f 3e 1f 17 b7 3d 60 fa 62 3c 6a a8 23 be
       0.21798755 0.08939957 0.013853639 -0.15982214
0002e0 b1 a5 18 3e a6 d5 9f 3a 4f d7 72 be 3f ff c0 bd
       0.14906956 0.001219441 -0.23714946 -0.09423684
0002f0 b1 bd 8b bd 30 b4 8c 3c b6 61 9e be 81 b5 4b be
       -0.0682329 0.017175764 -0.30933923 -0.19893457
000300 cf b7 48 be 9f 04 0b be 4f 9f 9b bc 0f 93 ff bd
       -0.19601367 -0.13575982 -0.018996863 -0.12479221
000310 a1 78 57 3e df 62 d3 bd e0 9e 14 3d bf 69 25 be
       0.2104211 -0.103215925 0.036284328 -0.1615362
000320 8f 84 02 be 0b 1a af bd cf b3 06 3e 1a b8 19 3d
       -0.1274588 -0.08549889 0.13154529 0.03752909
000330 af 15 d3 3d e1 cb 56 3d c6 24 16 3e a0 58 c1 3c
       0.1030687 0.052440528 0.14662465 0.02360183
000340 61 61 7a bd 5f 18 02 be c1 cf 05 bd 11 af 24 3e
       -0.061128024 -0.1270461 -0.032668833 0.16082408
000350 51 ac c3 3d af 55 83 3d a0 82 24 be e6 26 a4 3c
       0.09554351 0.06412827 -0.16065454 0.02003808
000360 cf 5f 35 3e 9f 8b 02 3e f5 1e 32 be 2f 29 af bd
       0.1771233 0.12748574 -0.17394622 -0.08552777
000370 c6 1c 93 3c 90 d7 11 bd ef dd 96 3c f0 3c 89 3d
       0.017958056 -0.035605967 0.018416373 0.06701076
000380 1f cc 41 3e e6 6c a2 3d 81 52 3a 3e f0 80 fe 3d
       0.18925522 0.07930927 0.18195535 0.124269366
000390 10 ec 58 be 19 31 0c be d0 4a 60 3e 10 fa 99 bc
       -0.211838 -0.13690604 0.21903539 -0.018795997
0003a0 b7 63 0c be af 7a 6d 3e e0 a8 e9 3c 11 0f 0c be
       -0.13709913 0.23191331 0.028522909 -0.13677622
0003b0 1f 1e 5f be 40 41 e3 bb 2f 33 8a 3d 61 da 54 bd
       -0.21788834 -0.0069352686 0.06748044 -0.051966075
0003c0 71 b6 14 3e c7 cc 8b 3e 21 ac 0f 3e d0 47 3b 3e
       0.14522721 0.2730467 0.14030506 0.18289113
0003d0 e1 79 f3 3d 51 18 c3 3c 80 3a 82 bc ff 02 5e 3c
       0.11888481 0.023815306 -0.015897036 0.013550519
0003e0 cf 51 64 be 57 69 8b 3c 01 c4 ed 3d a6 2f 9c 3c
       -0.22296833 0.017018003 0.116096504 0.01906569
0003f0 ff 80 0c bc e1 0d cc 3d 31 3f 5a 3d 00 ff e5 3b
       -0.008575677 0.09963585 0.05328292 0.0070189238

conv2.lin_l.bias f4 [64]
000000 af 6a 96 bd 5f ee f7 bd 4a b1 a5 be 71 74 bb be
       -0.07344567 -0.121060126 -0.32361823 -0.36612275
000010 0f ac dd bd 8f 1b b2 be 98 c5 2b 3e ff 1e 4d 3d
       -0.10823833 -0.3478665 0.16774595 0.05007839
000020 e0 d7 50 3d 78 9b 4f be 90 96 4f 3d 21 4d 09 3d
       0.050987124 -0.2027415 0.050680697 0.03352082
000030 6f a0 01 3e 61 d3 83 3c af 9d 56 be af fb 75 be
       0.12658857 0.016092004 -0.20958589 -0.24021791
000040 66 99 9e bd 3f 83 6c be a0 e6 95 be e1 5f 9d be
       -0.07744102 -0.23096941 -0.29277515 -0.30737212
000050 91 9f 71 be 5b f2 ac 3d c1 cf cd bd 1f a6 62 bd
       -0.23596026 0.08444663 -0.100493915 -0.055334207
000060 4b 8a 2f 3e 11 b2 1d be d0 57 02 3e 21 1d ca bd
       0.17142598 -0.15399958 0.1272881 -0.09868837
000070 77 31 88 be 6f 19 ac 3d 61 81 94 be f1 e3 e0 be
       -0.2660024 0.084032886 -0.29004958 -0.43923905
000080 bf 55 5a be 2f 69 49 3e 51 ae df bd e6 68 28 be
       -0.21321772 0.1966903 -0.1092192 -0.16446266
000090 7f 69 9b be ea 3e 21 3e f0 81 30 3e 50 6e e4 3d
       -0.30353925 0.15746656 0.17237067 0.11153853
0000a0 a6 18 22 bd 7f 52 db bd 78 f1 07 bc 01 58 16 be
       -0.039574288 -0.10709094 -0.008297317 -0.14682008
0000b0 d5 55 ee bd c1 dc cf bc a1 36 4f be 80 a5 c6 be
       -0.11637465 -0.025373818 -0.20235683 -0.3879814
0000c0 a6 f0 a1 be 85 77 b5 be 41 ca 0f 3d a1 ff 56 be
       -0.31628913 -0.3544275 0.035104994 -0.20995952
0000d0 b1 24 ac bd a6 0a aa bd a1 28 1a 3e c5 e9 b6 3d
       -0.08405436 -0.08302812 0.15054561 0.08931307
0000e0 c1 69 b0 be b1 f5 40 3e 7f fe f9 bd 9f a6 3a be
       -0.34455684 0.18843724 -0.122067444 -0.18227623
0000f0 cf a2 b9 3d 11 81 9f 3d 1f 2b 1c 3e 2a 7f 95 3c
       0.090642564 0.07788289 0.15250824 0.018249113

conv2.lin_r.weight f4 [64, 16]
000000 d0 f6 22 be 11 fe c3 3d 0f 00 97 be a1 ea a6 3d
       -0.15914464 0.09569944 -0.29492232 0.08150221
000010 4f 63 13 be c7 30 84 3d 36 13 26 3e 91 e0 4c be
       -0.14393352 0.06454616 0.16218266 -0.2000754
000020 9f a4 06 be 57 33 00 3e c5 88 b7 bd 8f a8 25 be
       -0.13148735 0.12519585 -0.089616336 -0.16177581
000030 6f 56 22 be 5b 15 35 be 29 81 0b be ff e1 04 3e
       -0.15853284 -0.17683928 -0.1362349 0.12976836
000040 40 e2 0f bd 01 77 85 be 09 be 90 be a0 dc 8a 3c
       -0.03512788 -0.26067355 -0.28269985 0.016950905
000050 60 c6 06 3e ff ed 1a be c1 fb 27 be ef c4 a3 3c
       0.13161612 -0.15129851 -0.1640463 0.019991366
000060 9f c6 29 3e e1 42 d6 bd 21 00 c7 bd aa 6a 18 3d
       0.16579674 -0.10461975 -0.097168215 0.037211098
000070 8f 6f 88 be cf 95 24 be a7 c1 8b 3d f1 46 0d 3e
       -0.26647612 -0.16072772 0.06824046 0.13796593
000080 41 14 e6 3d b1 c7 27 3e 21 e3 3f 3e 91 10 01 3e
       0.11234332 0.1638477 0.18738987 0.12603976
000090 71 13 20 3e ac d8 5a ba 40 23 85 3d 21 f9 79 bd
       0.15632416 -0.00083483267 0.06500864 -0.061028603
0000a0 91 5a 3c 3e f3 47 be bd c0 f3 63 be 6f e5 76 3e
       0.18393923 -0.09291067 -0.22260952 0.2411096
0000b0 88 8c 61 3e 0f 24 49 be b7 82 b5 bd 9f 9e 60 be
       0.22026265 -0.19642662 -0.088628225 -0.21935509
0000c0 60 cf 40 3d 20 c0 73 3d ff f8 ca bd 7f 2b 50 bd
       0.04707277 0.059509397 -0.099107735 -0.05082273
0000d0 11 f3 be 3d 71 16 dc 3b 21 b2 5a 3e e1 30 9a be
       0.09323705 0.0067165424 0.21357013 -0.30115417
0000e0 50 7d 45 3e e1 22 73 be 1f 4a 96 bd 41 bf dd 3d
       0.19286084 -0.23743774 -0.07338356 0.108274944
0000f0 50 67 ce bc e1 ea 53 3d 8f 61 0b be 91 e2 a3 bd
       -0.025195748 0.05173767 -0.13611434 -0.080021985
000100 00 8f af 3c 00 cb 09 3d 41 6f 71 be a5 3a 32 bd
       0.021430492 0.03364086 -0.23577596 -0.04351296
000110 11 e0 ef 3d bf 1d d5 3d d9 94 0a be 6f bb fd 3c
       0.11712659 0.10406064 -0.13533343 0.030973164
000120 80 f7 65 3b 31 6f 29 3c 37 82 89 3d 55 0f ad 3d
       0.0035090148 0.0103414515 0.0671429 0.0845019
000130 f6 e5 a5 3d 9f c6 71 be 81 64 35 bd ef e1 8a 3d
       0.08100502 -0.23610924 -0.0442853 0.06781375
000140 af f8 09 be df 01 07 bf e1 a4 0e be a1 6f 45 3d
       -0.13473772 -0.5273723 -0.13930084 0.04820216
000150 b8 87 08 3d 71 06 93 be 10 0a 26 3e 01 59 02 bf
       0.033332556 -0.28715852 0.16214776 -0.5091706
000160 f6 fb 1b be 51 b5 02 bf 30 e1 79 be a5 bb b9 be
       -0.15232834 -0.51057917 -0.24402308 -0.36275974
000170 4f a4 e0 be 21 85 03 be 41 de 43 be 60 b4 de bd
       -0.43875358 -0.12843753 -0.19127752 -0.108742476
000180 aa b7 9c bd ef 02 67 be b3 9b d6 bd b6 57 1d 3e
       -0.07652219 -0.22559713 -0.10478916 0.1536549
000190 df 72 40 3e ec 0f ec 3d 4a 42 96 bd a9 58 08 3e
       0.1879382 0.11526474 -0.073368624 0.13315071
0001a0 06 cf 21 be bf ce 16 bd 3f 93 57 3e 0f dc 61 be
       -0.1580163 -0.036818262 0.21052264 -0.22056602
0001b0 c1 6d d4 3d 00 ca 2f 3a 8f dc db 3b ff 54 6b be
       0.103724964 0.00067058206 0.0067096422 -0.22981642
0001c0 81 58 6e 3e 11 04 90 be b1 ec 73 be c1 10 c2 bd
       0.23275949 -0.28128102 -0.2382076 -0.09475852
0001d0 80 88 7f bd 2f fe d4 3c 81 01 5d bd 17 07 0f 3e
       -0.062386036 0.02600011 -0.053956512 0.13967548
0001e0 bf f2 72 be 3f ae f8 3d ff 1d 4b be 81 1a 5b 3e
       -0.23725413 0.1214261 -0.19835661 0.21396829
0001f0 bf 14 7b be c0 f5 eb 3c 5f 8e 5d bd cf 71 e1 bd
       -0.24519633 0.028803706 -0.054090854 -0.110080354
000200 61 d2 bd 3d b1 38 61 3e 81 b5 78 bd 8f 6b 37 be
       0.09268642 0.21994282 -0.06071997 -0.17912124
000210 cf 18 0b be b0 b7 e7 bd f9 91 05 3e f0 58 4f be
       -0.13583682 -0.113143325 0.13043965 -0.2024877
000220 3f f4 3a 3e a6 75 a3 3d 6a 41 9a 3d 6f 64 34 be
       0.18257235 0.07981424 0.07532008 -0.17616437
000230 af fe e5 bd c1 67 18 be 01 1b da 3d 30 08 d8 3d
       -0.11230218 -0.14883329 0.10649682 0.10548437
000240 50 79 3e 3e 6f f7 42 bb 4c a6 6a 3d d0 08 7f 3d
       0.18600965 -0.0029749533 0.0572875 0.062264264
000250 10 a7 60 bd 3c 5b 20 3d 2f 15 34 be b8 75 69 be
       -0.054846823 0.039149508 -0.17586206 -0.22798812
000260 60 ef 37 3d 60 3a 84 bc 00 d1 ca 3c 51 10 12 bc
       0.04490602 -0.016141117 0.024757862 -0.008915023
000270 1f 75 40 be 5f a0 cd bd 71 18 f8 bd a9 b5 0f bd
       -0.18794678 -0.10040354 -0.12114037 -0.035085354
000280 9f 6b b4 bd 8f 2f 4a 3e 6f 75 19 3e 01 3d 70 be
       -0.088095896 0.19744705 0.14986204 -0.23460771
000290 bf 8c c0 3d e1 ac 5c be 30 fd b2 3d cf a2 78 be
       0.09401845 -0.21550323 0.08739698 -0.24280857
0002a0 c9 a2 0f 3d cf c8 1a be c0 88 7c 3e 7f 15 61 be
       0.035067353 -0.15115665 0.24661541 -0.21980856
0002b0 c1 d9 fc bd c1 5a 71 3e 9f f7 46 bd e1 14 7a 3e
       -0.12346221 0.23569776 -0.048575994 0.24422027
0002c0 a1 2f 60 bd f1 22 0d 3e 91 40 79 be e0 76 30 3d
       -0.054732922 0.1378286 -0.24341036 0.043082118
0002d0 f0 1e 86 3d af 09 80 bd b1 22 fe bd ff c8 6d be
       0.065488696 -0.06251847 -0.124089606 -0.23221205
0002e0 c1 b2 e1 3d 11 4c af bd 3b 83 30 3e 2b e4 37 3e
       0.11020423 -0.085594304 0.1723756 0.17958133
0002f0 1f 80 1a 3e 20 2e 97 3d ef c2 43 be 40 34 33 3e
       0.15087937 0.073818445 -0.1911733 0.175004
000300 01 c2 3c be 21 6b 38 bc 2b 1d b7 bd a0 1e 1b 3e
       -0.18433382 -0.01125601 -0.0894111 0.15148401
000310 5f d1 1d 3e bf e1 3b be 66 b9 24 3e e1 bc be 3d
       0.154119 -0.18347834 0.16086349 0.093133695
000320 ef ac a5 3d f1 52 f6 bd 7f 32 1f be df 85 6b be
       0.08089625 -0.120275386 -0.15546606 -0.23000287
000330 af c3 36 be 4f f7 51 be 40 24 cc 3c 4f f3 36 3e
       -0.17848085 -0.20504497 0.02491963 0.17866252
000340 2f 27 62 3e c0 60 0d be bf b6 02 be 9f 54 61 3e
       0.2208526 -0.13806438 -0.12765025 0.22004937
000350 30 ea bc 3c 41 2e 91 bd c0 3c 00 3e 21 97 45 be
       0.023060888 -0.070889 0.12523174 -0.19295932
000360 f1 37 31 be 8f 4c 11 be 5f c8 c1 bd 99 36 8c 3d
       -0.17306496 -0.14189361 -0.09462046 0.06846351
000370 6f a9 02 be 6f 19 7c 3e 41 a0 51 be b0 88 11 be
       -0.12759946 0.24619077 -0.20471288 -0.14212298
000380 65 67 33 3e 41 9e 74 3e 71 96 6e be df 35 47 be
       0.1751991 0.23888494 -0.23299576 -0.19454144
000390 47 c5 00 be 81 53 c5 bd 80 67 5a be 21 0f d3 3d
       -0.12575255 -0.09635068 -0.21328545 0.1030562
0003a0 57 40 92 3d a0 fe 9a 3d d0 c8 5a 3d 11 ef 68 3e
       0.07141178 0.07568097 0.053414166 0.22747447
0003b0 16 c1 94 bd 35 98 33 be 81 3d 43 3d 80 c9 19 3e
       -0.07263391 -0.17538531 0.047666077 0.15018272
0003c0 50 77 61 be 0f ae 91 bd 0f 78 19 bb c1 21 65 3d
       -0.2201817 -0.07113277 -0.0023417508 0.055940393
0003d0 e0 11 96 bc 5f 32 9c bd 80 ce 65 3b 31 41 57 3d
       -0.01831907 -0.07626795 0.003506571 0.052552406
0003e0 20 68 0f bd 6f 86 c8 bd 21 c1 e2 3d 91 8a 47 3d
       -0.03501141 -0.09791266 0.11071993 0.04871613
0003f0 7f 76 4c 3e a0 d9 94 3d 41 86 0b be 30 7e b2 bd
       0.19967078 0.07268071 -0.13625433 -0.087154746

lstm_cell.weight_ih f4 [256, 192]
000000 11 88 00 3e 30 ff 3c 3e 07 c7 91 bd 0a 3e 99 3c
       0.12551905 0.18456721 -0.071180396 0.01870634
000010 8a 37 29 3d 05 31 39 be 94 73 48 3d b7 63 8b 3d
       0.04131273 -0.18085106 0.04893835 0.068061285
000020 9f 15 d4 bd b5 7c bf bc a5 f1 b3 3d 79 f6 10 3e
       -0.103556864 -0.023374895 0.087863244 0.14156522
000030 ff c4 0b 3e 81 81 43 3e 80 dd b0 3b 21 73 4f be
       0.13649367 0.1909237 0.0053974986 -0.20258762
000040 b6 4f 1c 3d 11 07 2c 3e 2f 65 43 bc 18 74 08 3e
       0.038161956 0.1679957 -0.0119259795 0.13325536
000050 c1 b2 e0 3d 81 27 27 3c 15 8a 2d 3d 7f c2 71 3d
       0.109715946 0.01020229 0.042368013 0.059023377
000060 20 ad 12 bd ff 62 fc 3d 41 be ee 3d 3b ae 34 3e
       -0.035809636 0.123235695 0.11657382 0.17644589
000070 b1 8c 3f bd 7f bd b7 be ef 97 44 3e b1 83 47 bd
       -0.046765033 -0.35886762 0.19198583 -0.048709575
000080 30 71 3c bc 21 79 3a 3e c1 3d 4a be 9a d9 21 3e
       -0.011501595 0.1821027 -0.1975012 0.15805665
000090 81 94 86 3c b1 2d fe bd bf c3 26 3d 57 30 0f bd
       0.016428234 -0.12411059 0.04071402 -0.03495821
0000a0 cf 93 0f be 00 34 ce 3d bf f1 c7 3d 49 38 0b 3e
       -0.14021228 0.10068512 0.09762906 0.1359569
0000b0 50 7e 52 3e a1 9c 35 bc 5f 7d b2 3d 50 dc 3d bd
       0.20555997 -0.0110847065 0.08715319 -0.046352684
0000c0 3f 54 3a ba 30 1e 51 bc a0 01 28 bd 8f eb d8 3d
       -0.00071078906 -0.012763545 -0.041017175 0.10591804
0000d0 31 be a9 3d 56 71 1e 3e 5f 29 4c 3e 8a 4d 14 ba
       0.08288229 0.15472922 0.19937657 -0.0005657306
0000e0 40 66 f0 3d 71 a8 28 3e 61 bc b0 ba c1 15 5b 3e
       0.11738253 0.16470505 -0.0013483876 0.21395017
0000f0 4f ac 1b 3e a0 5b ed 3d cf 82 5f bd a1 a7 97 3d
       0.1520245 0.11589742 -0.05456811 0.074050196
000100 5f f5 83 bf 61 8b 58 40 f2 31 2a 40 9d de 34 40
       -1.0309256 3.383507 2.6592984 2.8260872
000110 93 f3 11 40 08 01 b7 40 01 d5 e5 40 d8 05 b6 bd
       2.2804916 5.718876 7.1822515 -0.08887833
000120 49 f4 b5 40 6a 40 f3 40 90 84 f0 40 fc de d3 40
       5.68607 7.601613 7.516182 6.62097
000130 5c 90 cb 40 61 10 d8 40 36 84 0c 41 c0 e9 f4 40
       6.361372 6.7519994 8.782278 7.653534
000140 d2 05 fd 40 c0 6d d9 40 3e 1e ef 40 31 6e ed 40
       7.9069605 6.794647 7.4724417 7.419701
000150 0c 58 ed 40 73 1b a9 3d 4c fa 05 41 49 5d aa 40
       7.416998 0.08257189 8.373608 5.3238873
000160 6f 17 e6 40 8b 66 e5 40 16 7c e0 40 18 4b 01 41
       7.1903605 7.1687675 7.015147 8.080833
000170 44 60 ea 40 2c 9a 08 3c c4 0a 84 3d 8d 54 70 3d
       7.324251 0.008337539 0.06447366 0.058674384
000180 d2 1d 4c bd 39 fa e0 bd 1e c5 89 3c e9 3a a8 3c
       -0.049833126 -0.10985226 0.016817626 0.020535903
000190 7f e4 8b 3c 01 1f 2a 3d db 50 12 be 20 49 96 3b
       0.017076729 0.041533474 -0.14288656 0.004586354
0001a0 01 d8 90 3d 60 f6 fd bb 9f b2 ef bd c1 c3 e5 bd
       0.070724495 -0.0077503175 -0.11703991 -0.11218978
0001b0 00 8f 6c 3b 70 66 02 bd f0 14 6d 3c c0 5b 55 bd
       0.0036095977 -0.031835973 0.014470324 -0.052089453
0001c0 a0 8e 97 bd bf 85 05 3d e0 6b fb bc 00 c3 93 3b
       -0.074002504 0.032598253 -0.030691087 0.00450933
0001d0 e0 66 53 bc 3f 0c a6 bd 05 26 b1 bd b1 83 f6 bd
       -0.012902945 -0.081078045 -0.0864983 -0.12036837
0001e0 ef fe c6 3d c0 5a 3c 3c 85 b9 b7 bd ff 54 e8 3d
       0.097165935 0.011496246 -0.08970932 0.11344337
0001f0 bf 37 ae bd 0f 7a e6 bd 41 1d 43 3d 09 af 90 bd
       -0.085067265 -0.112537496 0.04763532 -0.07064635
000200 41 c6 fe bc 17 49 fe 3f 1f d6 a3 3f 40 22 f0 be
       -0.031100394 1.9866055 1.279972 -0.4690113
000210 79 21 08 bf 12 49 14 40 ff 74 d4 3d 27 5b 56 40
       -0.53176075 2.3169599 0.10373878 3.3493135
000220 15 89 d4 40 14 da ba 40 47 b5 b3 bd fd 3d ec 40
       6.6417336 5.839121 -0.0877481 7.382567
000230 06 c5 f6 40 3a cc f8 40 ea 6d d2 3d 67 15 06 41
       7.7115507 7.77493 0.10274871 8.380225
000240 43 14 11 41 ec 8a 00 41 d7 33 f2 40 83 73 e5 40
       9.067447 8.033916 7.568828 7.1703506
000250 00 19 dc 40 57 cb ce 40 32 03 52 3c b5 65 04 41
       6.8780518 6.4623218 0.012818145 8.274831
000260 77 52 ce 40 f7 fa 5f 40 2c 32 5d 3d 4d 85 e0 40
       6.4475665 3.4996927 0.054002926 7.016272
000270 fc 4d 84 40 bd ae 09 41 69 c3 ec 3d 13 e8 82 3d
       4.1345196 8.605161 0.11560709 0.06391921
000280 01 e9 67 3d 42 62 96 3d de 27 09 be 61 42 8d bd
       0.056618694 0.0734296 -0.13394114 -0.068974264
000290 90 55 b9 bd 76 e2 e5 bd 3f 18 b9 bd 90 c2 ea bd
       -0.09049523 -0.112248346 -0.09037828 -0.11462891
0002a0 8f ca 49 3d df 34 ea 3d ff 2f 91 3d bf ee 24 bd
       0.04926544 0.114358656 0.07089233 -0.04026675
0002b0 11 3c 02 bd 61 75 59 3d bf e1 b6 3d d0 16 c4 bd
       -0.031795565 0.053090457 0.089297764 -0.09574664
0002c0 4a f8 a6 bd 8f a3 3d bd 97 f4 8e bd a5 ba 2c 3d
       -0.08152826 -0.04629856 -0.069802456 0.042170186
0002d0 e1 7b f8 bd 50 58 b9 3d 40 fe 3e bb 71 62 e3 3d
       -0.12133003 0.090500474 -0.0029143244 0.111027606
0002e0 f1 3b 24 3d 21 4e 83 bd 00 8a 10 bd 65 24 ac bd
       0.040096227 -0.06411386 -0.035287857 -0.08405379
0002f0 5a 43 1e 3d b1 a7 a8 bd 81 4e f2 3d 4f 94 b6 3d
       0.03863845 -0.082351096 0.1183138 0.08915006
000300 11 d1 2f 3d 9f 85 20 3d 4f cc 0e 3f 81 7e cf 3d
       0.04292399 0.03918993 0.557805 0.101315506
000310 65 92 b2 3d 7a 88 12 be 60 1b 81 bc 6f 5b f9 3c
       0.08719329 -0.14309874 -0.015760124 0.030439107
000320 d0 7d 61 bc 1d c5 e0 bc 41 67 fb 3d 31 42 db 3b
       -0.013762906 -0.027437741 0.122755535 0.0066912402
000330 27 cd 0d bd 51 67 c7 3e 76 0d a8 bd d1 b5 17 3f
       -0.034619477 0.38946012 -0.082056925 0.59261805
000340 b9 5e 8b 3c e1 fe 56 3d 61 c6 00 bd 17 7b f4 3d
       0.01701294 0.052489165 -0.03143919 0.1193754
000350 0f bd 3d 3e 00 88 a3 3d 81 df 4c bd 15 0f 33 3e
       0.18529151 0.07984924 -0.050017837 0.17486222
000360 e0 be 7e 3d 6f 3d 60 3d 30 d5 0e 3c 81 c4 97 3e
       0.06219375 0.054746088 0.00871782 0.29642108
000370 19 f8 0b bc 01 89 33 3f 1a b0 14 3f 8a 14 29 3d
       -0.008543038 0.70130926 0.5808121 0.041279353
000380 3f 52 88 3d ff 1c 56 bd e1 93 56 3f 5f 7d 32 bd
       0.06656312 -0.052273747 0.83819395 -0.043576594
000390 9f da 47 bd df a1 dd 3d e0 14 d9 bc b8 73 82 3c
       -0.048792478 0.1082189 -0.026499212 0.01592432
0003a0 10 d4 2d 3f e0 18 c7 3c af 67 44 3f f9 22 00 3e
       0.67901707 0.024303854 0.7672071 0.12513341
0003b0 cd aa b3 3e 89 12 06 3e 0e 52 17 3d a6 e8 9f 3d
       0.35091248 0.13093008 0.036943488 0.07808046
0003c0 3f 43 ad bd ca ab 14 3d cf 9d b6 3e bf 46 2b be
       -0.08460092 0.036296643 0.35667273 -0.16726206
0003d0 ef ef bf bd ba 9d 96 bd a1 57 f0 3d 31 b1 d6 3c
       -0.093719356 -0.07354303 0.11735464 0.026207538
0003e0 86 a7 9f bd 39 64 0b 3e c1 e4 21 3e df 78 61 3d
       -0.077956244 0.1361245 0.15809919 0.055046912
0003f0 bf d5 51 3d bf 0e 62 bd 1f e1 e5 bc 71 54 03 3d
       0.051229235 -0.055189844 -0.028061448 0.03206295

lstm_cell.weight_hh f4 [256, 64]
000000 09 a0 e8 3e 09 bf c2 3e 65 cb 88 3f 2f ca 85 c0
       0.45434597 0.38036373 1.0687071 -4.1809306
000010 4f af aa 3f 9f 16 34 c0 99 f1 18 c0 3d 1d 1c 40
       1.333475 -2.8138807 -2.389746 2.4392846
000020 66 b6 5e 40 ab eb 46 3f 87 8d e3 3e 38 45 a3 bf
       3.4798827 0.7770335 0.44443914 -1.2755499
000030 8e 42 3a bd a0 2d ba bf 5a 49 ec bf 2b e6 61 be
       -0.045473628 -1.4545174 -1.8459885 -0.22060458
000040 54 50 4d bf 7d a1 1c 3f 31 6d 48 c0 27 be c5 bf
       -0.80200696 0.6118391 -3.1316645 -1.5448655
000050 b1 94 3a bd c9 6f 26 40 d5 6c 21 40 45 c4 46 bf
       -0.04555196 2.6005728 2.5222676 -0.77643234
000060 ed 5b 04 3f de 6d 21 40 76 d9 1d c0 59 d4 67 3f
       0.5170277 2.5223308 -2.4663978 0.9055839
000070 2d 6e 30 be f6 21 3a c0 d3 db f5 bf 87 42 ce 3d
       -0.17229529 -2.9083228 -1.920771 0.10071283
000080 20 32 97 3f f4 a1 f9 bf 0d 3e cf be ca 28 6f 3f
       1.1812172 -1.9502549 -0.40477028 0.93421614
000090 d1 e0 1b 40 a3 de b1 bf c6 6b 61 3e 9e 49 10 c0
       2.4355967 -1.3896068 0.22013769 -2.2544932
0000a0 99 e4 9d 3f 62 68 bb bd 07 6a 32 c0 d9 49 94 bf
       1.2335387 -0.09150769 -2.7877214 -1.1585037
0000b0 8b 88 9f bf 42 2f ec bf 19 fc 11 3f 41 48 ca 3f
       -1.2463545 -1.8451922 0.57025295 1.58033
0000c0 18 f6 e9 3e 7c 45 05 40 b3 27 00 c0 38 02 35 3f
       0.45695567 2.082366 -2.002423 0.7070651
0000d0 a0 63 bc 3f 2a b3 c7 3f c7 f5 17 c0 5a 29 43 40
       1.4717903 1.5601552 -2.374376 3.049399
0000e0 e6 6c a5 3f 6a f0 16 c0 82 a2 6d 3f fe ec 99 3e
       1.2923858 -2.3584237 0.9282609 0.30063623
0000f0 72 fd 35 40 e2 90 a2 3f 2f aa f6 3e 65 d6 36 40
       2.843594 1.2700465 0.48176715 2.8568356
000100 e6 79 df 3e e4 7a f4 be e0 b4 be 3c 75 75 a1 3e
       0.4364769 -0.47750008 0.023279607 0.31534925
000110 a0 ba 0e c0 9e 0f 30 c0 24 4e 0d 3f 8f 69 b3 3e
       -2.2301407 -2.7509532 0.5519736 0.35041472
000120 98 85 05 c0 17 24 8d bf ef 23 23 bf 27 a7 20 bf
       -2.086279 -1.1026639 -0.63726705 -0.62755054
000130 fd 5f 80 bf c3 ef 0a bf 84 5e 54 be ab ad 2f 40
       -1.0029293 -0.542721 -0.2073918 2.7449749
000140 c3 e1 12 bf 14 4e 80 bf 35 8d 51 bf cb 1f 17 c0
       -0.57375735 -1.0023828 -0.8185609 -2.3613155
000150 8c a8 35 bf 98 a1 ea 3f e4 e4 b2 3e 45 7d 69 3f
       -0.7096031 1.8330564 0.34940255 0.9120677
000160 b9 f2 93 3f 8f 20 8a be 9b 5e 14 c0 94 ea 77 c0
       1.1558448 -0.26977965 -2.3182743 -3.8736925
000170 c1 06 47 bf e4 37 ac be 95 2f 0c c0 47 3e 73 bf
       -0.7774468 -0.3363639 -2.1904042 -0.950169
000180 6e 93 30 3e a8 d2 c5 3f 72 c3 69 c0 12 3e 06 40
       0.1724374 1.5454912 -3.652554 2.0975385
000190 5b d0 d0 3f 6e 5b d9 be 9b ae 8c bd a6 d3 3c 40
       1.6313585 -0.42452568 -0.06869241 2.950418
0001a0 21 d2 8b bf 2c 74 55 bf e4 1d 93 40 2c cf 26 3f
       -1.0923501 -0.8338039 4.5973988 0.6515987
0001b0 69 0b c7 bf 6f ef 9a be 62 aa b9 bf 8c 6b 52 bf
       -1.5550357 -0.30260798 -1.4505122 -0.82195354
0001c0 80 4e 80 40 53 3b 01 c0 8d 97 9e 3f da f8 09 c0
       4.0095825 -2.0192459 1.239 -2.1558137
0001d0 75 1e 59 3e fb a5 38 be d0 71 4d c0 45 06 fa bd
       0.21203025 -0.18032067 -3.2100716 -0.12208227
0001e0 e0 e4 da bd 43 ee ec bf 7d a8 e0 3f 63 79 1a 3f
       -0.10688186 -1.8510212 1.7551419 0.6034147
0001f0 58 cc d0 3f 43 a7 93 bf cc 4c d6 3d 36 89 f8 bf
       1.6312361 -1.1535419 0.104638666 -1.9416873
000200 d6 23 2a 40 9c 97 7d 3f f2 90 be 3e 7d 6f e5 3e
       2.6584373 0.9905946 0.3721996 0.4481162
000210 f6 1f 8d 40 4b b7 a4 3e f6 4e 9a 3e 7f 78 f7 bf
       4.4101515 0.3217109 0.30138367 -1.9333647
000220 ad 11 06 40 a1 16 1b c0 fe 4c d9 3f 64 f7 ee 3c
       2.0948288 -2.4232562 1.6976621 0.0291707
000230 74 c0 e2 bd f2 4a aa bf 8c 2b f5 bf b2 31 24 bf
       -0.11071864 -1.3304121 -1.9153914 -0.6413833
000240 77 62 c8 3f dc 45 2e 3f f4 c7 00 bf 92 85 f9 bf
       1.5655049 0.68075347 -0.50305104 -1.9493887
000250 2c d9 73 40 d1 67 f8 3e 44 5b b9 3f d9 af c5 3f
       3.8101301 0.48516706 1.4480977 1.544429
000260 14 d5 1e 3f 1b 8a b8 3f d0 16 d3 3f 0b 05 b3 be
       0.6204388 1.4417146 1.6491337 -0.34964785
000270 5a 33 00 c0 fd e5 22 40 f9 36 62 3f f8 69 8b 3f
       -2.0031343 2.5452874 0.8836513 1.0891714
000280 cb 7e c3 3f ca 05 c0 bf 6c 20 99 bd 52 dc 73 bf
       1.5273069 -1.5001767 -0.07476887 -0.9525806
000290 ae 52 e6 3f a7 05 f6 3f 0b 46 a0 3f 14 66 20 40
       1.7993982 1.9220475 1.2521375 2.5062304
0002a0 f1 43 0e c0 c4 1d ff be 7d 1f 1a c0 2e d8 f3 be
       -2.2228968 -0.49827397 -2.408172 -0.4762587
0002b0 2c 2c ea 3f cb 0a 4b c0 d6 58 53 3f fe 38 8d 3f
       1.829473 -3.1725338 0.8255743 1.1033018
0002c0 52 0d 45 3e e4 08 8b c0 8e b0 60 3f 72 06 6c 3f
       0.19243363 -4.3448353 0.877694 0.92197335
0002d0 f9 83 79 c0 fe d6 8f 3f 62 36 51 3f 4c 32 90 3f
       -3.89868 1.1237485 0.81723607 1.1265349
0002e0 87 3e dd 3f 44 b6 96 3e b7 19 50 bf e1 67 7b 3f
       1.7284707 0.29435933 -0.8128924 0.9820538
0002f0 56 91 3c 40 08 f8 9c bf ab c4 e9 be a8 53 cb bf
       2.9463706 -1.2263193 -0.45657858 -1.5884905
000300 d1 fe d0 bf 66 ce 7c 3f 25 fd 94 be 13 5a 2f 3e
       -1.6327764 0.9875244 -0.29099384 0.17124204
000310 4e e1 32 bf aa 9b 2d 3e 01 14 78 bf 9e cf f1 bf
       -0.6987504 0.16953912 -0.96905524 -1.8891485
000320 ee d0 4b c0 8a 90 da 3f 4a e0 c9 bf 70 00 98 bf
       -3.184627 1.707536 -1.5771573 -1.1875134
000330 d0 99 7d 3f 1a 2e 43 bf 27 28 52 3e 11 cb 8c be
       0.99062824 -0.7624222 0.2052313 -0.27498677
000340 fe 31 e6 3d b7 e8 fd 3f 67 68 f3 3f 4c bc 6b bd
       0.11240004 1.9836644 1.9016236 -0.05755262
000350 1b 46 87 bf b3 7b 10 bf 91 a6 e6 3d be e9 b4 3e
       -1.056827 -0.5643875 0.11262239 0.3533458
000360 18 36 36 40 4f 00 4a 3b b3 7a 1a 3f 4d 7b 27 40
       2.8470516 0.0030822938 0.60343474 2.6169007
000370 cb 1b 1e 40 a2 2f ba 3f d5 7f bf bd 10 d6 96 c0
       2.4704463 1.4545786 -0.09350554 -4.7136307
000380 76 a4 e6 bf 75 06 5f bf 58 f6 a0 3f 2b 56 e9 3e
       -1.801894 -0.8711923 1.2575178 0.45573553
000390 27 1f b0 3f 76 7a 9d be 0c a6 25 40 9f db 3a 3f
       1.3759507 -0.30757493 2.5882597 0.72991365
0003a0 0b 2d 34 be ee 82 35 40 0e 82 3c c0 b7 fc 37 c0
       -0.17595308 2.8361163 -2.945438 -2.8747995
0003b0 2b c5 02 40 d6 bd bf be 3f 7e 2f 40 b6 4a 4a 3f
       2.0432842 -0.3744952 2.7420805 0.7902025
0003c0 9b f4 28 40 43 71 18 3d 65 61 15 bf 66 6c e0 3e
       2.6399295 0.03721739 -0.5835174 0.438327
0003d0 ca 1b 19 3d 1e 67 49 bf fb 6c 98 3e 96 f9 19 c0
       0.037380017 -0.7867297 0.29770645 -2.4058585
0003e0 84 86 a9 be d8 28 03 40 2e d8 4f c0 ca 0b f3 be
       -0.3311044 2.049368 -3.2475696 -0.47469932
0003f0 59 12 9f bf d9 4b 8d bf b3 11 05 3f 27 75 23 c0
       -1.2427474 -1.1038772 0.5198013 -2.5540254

lstm_cell.bias_ih f4 [256]
000000 80 8e a4 bf 06 ee d5 3f 13 55 16 3f f9 47 4d 40
       -1.2855988 1.6713264 0.5872356 3.2075179
000010 f2 44 3e 40 fa 37 51 40 ea 79 84 3f 74 bf 27 40
       2.972958 3.2690415 1.0349705 2.6210604
000020 53 c8 31 3f fd 84 2f 3f 97 ab 4b 40 f0 a3 07 40
       0.69446295 0.685623 3.182348 2.119381
000030 b1 2a 74 c0 1c 9e 3c 3d 98 fb 40 c0 65 67 6f 3d
       -3.8151057 0.046049222 -3.015356 0.058448214
000040 1f f3 39 40 25 80 14 c0 d8 c2 31 c0 e5 b7 55 3f
       2.905464 -2.3203213 -2.7775173 0.83483726
000050 0d 95 ba bf 35 42 81 c0 b9 fe ce bf 6e 8d ad 3e
       -1.4576737 -4.039332 -1.6171485 0.33896965
000060 3f 2e e2 3f 12 9d 90 bf 3f 73 52 3f b4 32 90 3f
       1.7670363 -1.1297934 0.822071 1.1265473
000070 16 44 36 bf 02 73 1c 40 c9 51 1b 40 57 42 7c 3e
       -0.7119764 2.4445195 2.4268668 0.24634682
000080 bd 2c d2 3f b0 54 eb 3f c6 a6 0a bf f5 2b a0 bf
       1.6419903 1.838522 -0.54160726 -1.2513415
000090 ff c7 23 bf 0b de af 3f 94 16 79 be 34 6c d2 3f
       -0.63977045 1.3739637 -0.24325019 1.6439271
0000a0 f3 74 f8 3e 78 0a 50 3f 3c f7 32 3f 22 a9 ba bf
       0.48526725 0.81265974 0.699085 -1.4582865
0000b0 07 94 99 c0 78 4a da bf 41 20 43 3f cc 9d 27 bd
       -4.7993197 -1.7053976 0.7622109 -0.04092197
0000c0 46 62 8c c0 f0 d5 08 c0 81 20 3a c0 9d 55 1d 3f
       -4.3869963 -2.1380577 -2.908234 0.6145876
0000d0 7d 80 1d c0 4c fb ea bf 51 68 21 be 1e 1e 2c be
       -2.4609673 -1.835794 -0.1576245 -0.16808364
0000e0 df e5 0c c0 ba a3 3f c0 6b f4 a0 3f db 49 2f 3f
       -2.2015302 -2.994368 1.257459 0.6847207
0000f0 58 31 5d 3f 28 fa 4d 40 6f ab 11 40 0a 5b 36 c0
       0.8640342 3.2183933 2.2760885 -2.8493066
000100 0c f9 96 bf 1b 86 21 bf c1 10 ac be e0 9b 5d 3f
       -1.1794753 -0.63095254 -0.33606532 0.8656597
000110 fa d7 c5 bf 58 b1 87 3e 63 68 73 3f 7c dd 15 c0
       -1.5456536 0.2650249 0.95081156 -2.3416433
000120 31 84 54 3f e1 46 8a bf f3 0d 5b c0 64 2e 25 c0
       0.8301421 -1.080288 -3.4227264 -2.5809565
000130 b9 68 3d 3f ef 02 81 3c 37 2a f1 bf a7 2a 84 3e
       0.7398792 0.01574847 -1.8841008 0.2581379
000140 dd b6 6e bf 85 33 ec 3e 72 19 1f bf 2d f6 05 40
       -0.9324778 0.46133056 -0.621482 2.0931504
000150 67 ef 30 c0 f0 47 46 3f 83 1f 2c c0 78 58 a4 bf
       -2.764612 0.7745352 -2.6894233 -1.2839499
000160 4f be 52 3f a4 37 21 bf 89 dc 6b 3e f0 59 e0 be
       0.8232164 -0.62975526 0.23033346 -0.43818617
000170 6a 91 ad bf 54 6c 81 bf 18 2a 8e 3e 66 85 56 bf
       -1.3560002 -1.0111184 0.2776649 -0.837973
000180 b8 9c 62 bd 45 47 3a c0 e5 be 74 be f9 45 56 c0
       -0.05532524 -2.9106 -0.23900945 -3.3480208
000190 79 3b 24 40 2f 91 67 bf 55 43 e0 be e1 47 d7 bf
       2.56613 -0.9045591 -0.4380137 -1.6818811
0001a0 cc 88 c2 bf 41 58 e1 3f a7 b1 34 3f f0 b0 0f 3f
       -1.5197997 1.7605058 0.70583576 0.5612936
0001b0 b1 f8 b4 be ed 4f 07 c0 e8 3f 86 bf e4 a4 61 bf
       -0.35345986 -2.1142533 -1.0488253 -0.8814223
0001c0 9c 95 a0 bf d8 b1 80 3f d1 80 08 bf 01 76 0f c0
       -1.2545657 1.0054274 -0.5332156 -2.2415774
0001d0 bb 6d 23 c0 53 5d 83 3e 67 74 dd 3e ee 8e d4 bf
       -2.5535724 0.25657138 0.4325287 -1.6606119
0001e0 92 7c 17 40 44 54 a7 3f 4b 61 88 c0 43 e9 09 40
       2.3669782 1.3072591 -4.2618766 2.1548622
0001f0 38 19 6c be 1f 31 03 c0 e3 d4 34 3f fc c0 ec be
       -0.23056495 -2.049873 0.7063734 -0.46240985
000200 b0 3b 3f 40 b1 8f 94 be 99 9b 65 c0 b1 9e 12 c0
       2.988018 -0.29015878 -3.587622 -2.2909358
000210 75 c3 c7 3f c4 3b 04 bf d5 69 0f 3f 2e 2f bf bf
       1.5606524 -0.51653695 0.5602086 -1.4936273
000220 23 fe 0d 40 a5 19 06 c0 cc 1d 75 40 09 6e 2b 3f
       2.2186363 -2.0953152 3.8299437 0.66964775
000230 d6 56 38 3e d2 fd 38 40 22 61 dd 3f d0 bb 16 bf
       0.18001875 2.890492 1.7295268 -0.5888033
000240 13 f2 17 40 40 3c 91 40 75 ab 0b c0 a3 e4 74 3e
       2.37415 4.5386047 -2.18234 0.23915343
000250 ba 96 6a bf df f9 6c 3e 22 4a 12 3f fd 93 40 3f
       -0.9163624 0.23142193 0.5714437 0.7522581
000260 25 a7 1c 3f 74 c7 08 bf 9b 4c 80 3d 9f 71 e5 bf
       0.6119254 -0.5342934 0.06264611 -1.79253
000270 84 79 4f 3f 75 34 3e 3f c9 27 16 40 a1 b4 1a 40
       0.81044793 0.74298793 2.3461783 2.4172747
000280 2d 97 f7 3f 80 03 c3 bf 60 23 c0 be 56 d7 f7 3f
       1.934301 -1.5235443 -0.3752699 1.936259
000290 1d ed ef 3f b4 c7 98 be f3 70 b5 3f fe a9 ab 3e
       1.8744236 -0.2983986 1.4175094 0.3352813
0002a0 98 37 c0 be 01 64 dd 3f 24 83 07 bf 79 10 f1 3f
       -0.37542415 1.7296144 -0.5293448 1.8833152
0002b0 bb 63 42 3f da 83 b9 3a 2e 1d 55 40 aa 80 27 c0
       0.75933427 0.0014153675 3.329906 -2.617228
0002c0 de ab 01 c0 de f4 a5 3e 37 b1 c9 3e c9 bf 31 bf
       -2.026115 0.3241338 0.39393017 -0.69433266
0002d0 4e b0 8e bf 19 4c 33 c0 17 a5 b4 bf cd bf ed bf
       -1.1147554 -2.8015196 -1.4112881 -1.8574158
0002e0 d3 cf ac be 27 7e a5 3f 1a 09 9e bf da 44 22 bd
       -0.33752307 1.2929124 -1.2346528 -0.039616443
0002f0 ba c9 e7 bf ff d2 a7 bf 34 1f 01 40 8e 51 25 3f
       -1.8108437 -1.3111266 2.0175295 0.6457757
000300 4f 5e 8d be 4f 1f 86 c0 e1 4c 22 3f 02 07 a5 40
       -0.27611014 -4.191322 0.6339856 5.1571054
000310 38 78 48 bf 06 a8 0f c0 eb f6 cd 3f 43 e4 fa 3f
       -0.7830844 -2.2446303 1.6090978 1.960091
000320 70 99 9f bf 4c fc 5e 3f 28 5a 02 c0 62 c4 55 40
       -1.24687 0.87103724 -2.0367527 3.3401113
000330 b5 47 6f bf c0 ee d7 3f 34 48 30 c0 3c 52 f4 be
       -0.9346879 1.6869736 -2.754407 -0.4771899
000340 a5 a9 1b c0 a9 bf 22 bf 5b d5 20 c0 4a 1a d5 3d
       -2.4322293 -0.635737 -2.5130222 0.10405405
000350 7f e5 94 3f 28 51 7c bf c3 4f aa 3f 56 3f 3f 3f
       1.1632537 -0.98561335 1.3305591 0.7470602
000360 44 d5 35 bf e0 82 29 3e 95 4e ea 3f d2 d8 4f c0
       -0.7102854 0.16553831 1.8305231 -3.2476087
000370 01 3e d5 3e ef 48 bd bf 5f ff b2 3f cc 3a e5 be
       0.41648868 -1.4787883 1.3984183 -0.4477142
000380 f6 cc 4d bf ac 50 09 40 39 d1 a4 be bd 53 9b bf
       -0.8039087 2.1455488 -0.32190874 -1.213493
000390 63 b8 ee be 13 f4 35 40 bf 8b 0a c0 a2 0d 44 40
       -0.4662505 2.843022 -2.1647794 3.063332
0003a0 d0 1f 16 3f 08 b0 52 40 8a 0b de bf 03 84 dd 3f
       0.5864229 3.291994 -1.7347271 1.7305912
0003b0 b1 b8 17 c0 9f 4e 86 c0 b2 7f e3 3f 6f 02 50 bf
       -2.3706477 -4.1970973 1.7773345 -0.81253713
0003c0 bc 99 4c c0 44 2b dc bf de 67 f8 bf 32 aa 0a c0
       -3.1968832 -1.7200704 -1.9406698 -2.166638
0003d0 38 cc 58 bf bf f5 d3 bf 38 38 09 40 78 89 19 c0
       -0.84686613 -1.6559371 2.1440563 -2.3990154
0003e0 e0 8b 1a 40 67 8b 8a bf f0 81 b1 3e bd da 12 c0
       2.4147873 -1.0823792 0.34669447 -2.2946007
0003f0 2b 8e 38 bf f8 09 81 3f f0 54 1a c0 06 84 ba 3e
       -0.7209193 1.0081167 -2.4114342 0.3642885

lstm_cell.bias_hh f4 [256]
000000 30 b3 a8 bf 06 d5 e3 3f 01 cb bb 3e 86 d6 48 40
       -1.3179684 1.7799385 0.36678317 3.1380935
000010 92 e2 42 40 fa e9 51 40 6a f7 6e 3f 88 04 2a 40
       3.0450788 3.2799058 0.93346274 2.6565266
000020 d3 68 37 3f 1c c5 29 3f 22 ea 4b 40 a0 be 0f 40
       0.71644324 0.6631639 3.1861653 2.2460098
000030 11 81 7e c0 6f 54 12 3e 9b 4a 37 c0 f8 01 c9 3d
       -3.9766276 0.14290021 -2.8639286 0.09814829
000040 cf b6 39 40 a0 65 1d c0 f8 cf 31 c0 75 e2 35 3f
       2.9017828 -2.4593277 -2.7783184 0.7104867
000050 ad c7 bb bf 62 46 79 c0 e9 b0 da bf de 54 b8 3e
       -1.4670311 -3.8949208 -1.7085239 0.3600225
000060 1f 65 dc 3f f6 b1 9d bf 0a b6 86 3f 24 0b 83 3f
       1.721836 -1.2319934 1.0524304 1.0237775
000070 d9 69 1f bf 32 50 18 40 4d 35 25 40 57 49 7e 3e
       -0.62270886 2.3798947 2.5813782 0.24832664
000080 3d a9 d4 3f d0 6a e8 3f 20 27 21 bf 45 53 96 bf
       1.6614147 1.8157597 -0.62950325 -1.1744162
000090 34 7f 3a bf 8b 4b c7 3f f4 df 56 be 34 57 e0 3f
       -0.72850347 1.5569929 -0.20983869 1.7526612
0000a0 81 04 8c 3e 28 5f 64 3f bc 12 5c 3f 56 b5 ab bf
       0.27347186 0.89207697 0.85966086 -1.3414714
0000b0 d7 57 9b c0 58 86 d5 bf 91 d7 46 3f 24 a7 ed ba
       -4.8544726 -1.6681623 0.7767268 -0.0018131477
0000c0 46 78 8c c0 10 6b 05 c0 f1 da 32 c0 cf d5 26 3f
       -4.389682 -2.0846596 -2.7946131 0.65169996
0000d0 1d dc 29 c0 ec 74 ef bf b5 cb 3f bc 45 43 81 be
       -2.6540596 -1.8707557 -0.011706282 -0.25246635
0000e0 4f 77 09 c0 58 75 37 c0 eb d3 9a 3f bb 58 10 3f
       -2.147907 -2.866537 1.2095922 0.5638539
0000f0 b8 96 4e 3f cb af 4b 40 5a ea 08 40 4a 9b 31 c0
       0.8069873 3.1826046 2.1393037 -2.775103
000100 9c c2 88 bf cf ca f8 be a1 1c 9b be 00 41 70 3f
       -1.068439 -0.4859223 -0.3029528 0.9384918
000110 7a 2c bd bf f8 e9 87 3e db 59 84 3f 8c 17 19 c0
       -1.4779198 0.26545691 1.0339922 -2.3920622
000120 11 03 41 3f 12 7f 9c bf 83 77 5f c0 af 9d 26 c0
       0.75395304 -1.2226279 -3.4916694 -2.6033742
000130 64 3d 29 3f e5 3e 76 3e 37 1e d9 bf f7 72 9d 3e
       0.661093 0.2404743 -1.6962346 0.30751774
000140 14 a8 91 bf d2 69 c4 3e 11 85 09 bf ad 4e 03 40
       -1.1379418 0.38361984 -0.5371867 2.051677
000150 17 57 30 c0 20 36 26 3f 23 a8 2d c0 18 e3 a4 bf
       -2.7553155 0.6492634 -2.7133873 -1.2881804
000160 6f ee 50 3f 5d a9 0b bf 8a 74 18 3e 50 3e f0 be
       0.8161382 -0.545553 0.14888206 -0.4692254
000170 af b3 a8 bf 94 6c 79 bf ab 87 7d 3e 26 ad 62 bf
       -1.3179835 -0.974313 0.24758784 -0.88545454
000180 14 30 b7 bd 45 13 3b c0 48 ea 92 be e5 01 4e c0
       -0.08944717 -2.923051 -0.28694367 -3.2188656
000190 99 b5 29 40 ac ca 81 bf f4 35 a1 be b1 f5 e5 bf
       2.6517088 -1.0139976 -0.31486475 -1.7965604
0001a0 7c b9 ab bf 4d 01 ee 3f 38 92 5f 3f 9f 04 1d 3f
       -1.341598 1.8594147 0.8733249 0.61335176
0001b0 c0 71 92 be 4d ce 02 c0 90 70 8b bf 04 8f 62 bf
       -0.2860241 -2.0438416 -1.0893726 -0.88499475
0001c0 1c ed 81 bf cd c0 7c 3f b1 b2 b1 be 90 b6 12 c0
       -1.0150485 0.9873169 -0.34706643 -2.2923927
0001d0 6f dc 1c c0 4e 39 6c 3e a7 21 bf 3e fe 91 dc bf
       -2.4509542 0.23068735 0.37330362 -1.7232053
0001e0 52 ba 12 40 37 e2 b0 3f 5b ca 81 c0 75 00 0d 40
       2.292622 1.3819035 -4.0559516 2.203153
0001f0 f8 cd 68 be ff 2f 09 c0 41 d1 11 3f 77 c3 cd be
       -0.22734821 -2.1435544 0.5695992 -0.4018819
000200 f0 1b 3b 40 29 cb 05 bf 19 2f 65 c0 11 e9 15 c0
       2.9235802 -0.5226312 -3.5809996 -2.3423502
000210 95 91 b8 3f c4 d8 00 bf ad 30 e6 3e 5e 7a be bf
       1.4419428 -0.5033076 0.44959012 -1.4881094
000220 0f a1 07 40 25 d0 03 c0 6c 57 7e 40 5a d3 46 3f
       2.1192052 -2.0595791 3.9740858 0.77666247
000230 16 a1 6b 3e d2 ac 39 40 e2 79 c3 3f 8c 99 2a bf
       0.23010668 2.901173 1.5271571 -0.66640544
000240 43 bb 23 40 d1 fe 8d 40 85 e6 0f c0 42 83 3b 3e
       2.5583045 4.4373555 -2.2484448 0.1831179
000250 fa d9 5d bf 6f 74 4b 3e c4 17 0f 3f 7f 0e 24 3f
       -0.8666073 0.19868635 0.5589564 0.6408462
000260 9f eb 53 3f 84 d4 07 bf c6 05 55 3d 5f 2e ea bf
       0.82781404 -0.5305865 0.05200746 -1.8295401
000270 98 7d 47 3f 75 09 4b 3f 69 87 1b 40 28 d5 0e 40
       0.77926016 0.79311305 2.4301398 2.23176
000280 6d 90 eb 3f 40 88 ac bf 7a ed ac be d6 50 fe 3f
       1.840345 -1.347908 -0.3377493 1.9868419
000290 3e c5 e3 3f a8 71 7f be 2f a3 a5 3f 6a 72 84 3e
       1.7794569 -0.249457 1.2940425 0.2586854
0002a0 64 53 b7 be 34 48 d6 3f 94 d4 0e bf 99 18 f3 3f
       -0.3580581 1.6740785 -0.5579312 1.8991882
0002b0 fb dc 4c 3f 94 47 63 3d 8e c7 53 40 0a 53 23 c0
       0.8002469 0.055488184 3.3090549 -2.5519433
0002c0 9e 7b 08 c0 1d c5 67 3e d7 33 c6 3e bd a8 25 bf
       -2.132545 0.22633786 0.38711426 -0.647106
0002d0 26 64 a8 bf 49 d0 31 c0 fa 6b a1 bf 82 0e f3 bf
       -1.3155563 -2.7783377 -1.2611077 -1.8988802
0002e0 24 6b d0 be c7 17 b9 3f fa fc 9e bf fe 61 98 bd
       -0.40706742 1.4460381 -1.2420952 -0.074405655
0002f0 d5 67 fa bf 9f 5b bf bf 57 9f e5 3f ba c3 1b 3f
       -1.9562937 -1.4949836 1.7939252 0.6084553
000300 fb 04 66 be e7 da 84 c0 81 21 21 3f d2 22 aa 40
       -0.22462837 -4.1517215 0.6294175 5.3167505
000310 68 46 4f bf d4 eb 0f c0 fa e7 b7 3f 78 2c ef 3f
       -0.80966806 -2.2487688 1.4367669 1.8685446
000320 07 27 91 bf cc 14 51 3f 88 68 01 c0 22 da 4d 40
       -1.1340035 0.8167236 -2.022005 3.2164388
000330 22 bc 83 bf 80 06 d7 3f de e0 2f c0 2d f3 2a bf
       -1.0291789 1.6798859 -2.7480998 -0.66777307
000340 67 60 0f c0 a7 f0 37 bf 2c 6c 1a c0 ba 76 e6 3d
       -2.240259 -0.7185158 -2.4128523 0.11253114
000350 83 cd ad 3f 6e b6 84 bf 23 11 b1 3f b6 de 42 3f
       1.3578342 -1.0368173 1.3833355 0.7612108
000360 24 4f 46 bf f1 b3 73 3e 75 ce e9 3f e3 59 53 c0
       -0.7746451 0.23799111 1.8266131 -3.3023612
000370 01 2c f3 3e 4f 24 c1 bf 7f 1e ba 3f 51 3e 05 bf
       0.4749451 -1.5089206 1.4540557 -0.5204821
000380 46 22 35 bf 50 56 0c 40 54 de 7e be a9 29 87 bf
       -0.7075542 2.192768 -0.24889499 -1.0559589
000390 c3 77 f6 be 93 98 36 40 ef 0f 0b c0 c2 66 47 40
       -0.48138246 2.8530624 -2.1728475 3.1156468
0003a0 50 76 24 3f b4 f6 54 40 db b4 cc bf a3 8e de 3f
       0.6424303 3.3275576 -1.5992693 1.7387279
0003b0 d8 36 21 c0 ff 89 87 c0 82 c6 e0 3f 1f c6 2e bf
       -2.5189724 -4.235595 1.756058 -0.6827106
0003c0 4c 78 49 c0 64 34 e1 bf fe 36 e9 bf 41 f5 06 c0
       -3.1479673 -1.7594113 -1.8219907 -2.108719
0003d0 88 24 6c bf 52 49 c3 bf 0f 98 09 40 c8 e0 0d c0
       -0.9224324 -1.525675 2.149906 -2.2168446
0003e0 ce 8a 10 40 ff b9 7d bf 31 9d a8 3e 7b 76 0f c0
       2.258472 -0.9911193 0.32932428 -2.2416065
0003f0 9c f6 43 bf f3 c7 7e 3f 4b f2 26 c0 b6 ac cb 3e
       -0.7654817 0.9952385 -2.6085384 0.39780205
