model/1715146453/4_Pee1_global_model_0.pth (torch, 331092 bytes, 17 tensors)

conv1.lin_l.weight f4 [16, 1]
00000000: 712a 22bf efad 5ebc 33cf 2fbf 91ff 26bf
00000010: e14e 00bf 2223 8f3e 110e 56bf 0bf5 1dbe
00000020: d6b5 22bf 7aeb ad3d 385f 88be 48ec 61bf
00000030: eb86 4a3d 3fa2 f8be 7921 c63e 618f e8be
-0.6334601 -0.013591274 -0.68675536 -0.65233713 -0.5012036 0.27956492 -0.83615214 -0.15425508
-0.6355871 0.08492179 -0.26635146 -0.8825116 0.049445074 -0.48561284 0.38697413 -0.4542189

conv1.lin_l.bias f4 [16]
00000000: 06cb 1ebe 5abf 173f bc28 8abf 5fc6 be3e
00000010: 1f0d e33e 97f7 8fbe b1bd 51bf 1878 c93e
00000020: ffcb 2a3f 9982 32bf 8fe3 213f fa2f 72bf
00000030: fae4 fe3e 507c 84be 5bb6 cabe d053 d9bd
-0.15507135 0.59276354 -1.0793681 0.3726072 0.44345948 -0.28118584 -0.8193007 0.39349437
0.66717523 -0.69730526 0.6323785 -0.94604456 0.4978407 -0.25876093 -0.3959225 -0.10611689

conv1.lin_r.weight f4 [16, 1]
00000000: d1bd 7fbf a187 00bf 3663 3f3e b14b 5bbf
00000010: 116b a5be 578e 163f 1b56 38bf 766f ef3d
00000020: 8fee f9be aaa4 51bf 2f62 57bf 2a34 d43d
00000030: fa5b 44bf e1b7 4bbf 3548 8dbe 8034 65bd
-0.9989901 -0.50206953 0.1869019 -0.8566237 -0.32308248 0.58810943 -0.72006387 0.11691181
-0.48814818 -0.8189188 -0.8413419 0.10361512 -0.76702845 -0.7957745 -0.27594152 -0.05595827

conv2.lin_l.weight f4 [64, 16]
00000000: b199 acbd 5f13 0f3e 9fb9 b8bc a991 0f3e
00000010: 893a 0abd cf01 61bd f047 17be bee4 c73d
00000020: 5f6a fc3d 2f9a 3e3d 27c1 06be 1745 0f3e
00000030: aa5e 9d3d 8a2e 243e df34 c3be 512e 42be
00000040: 4696 173e c6e1 93be 41ad a43d f16e 2d3e
00000050: 2f3d 903d 31a4 493d 613d a1bd 38c6 86be
00000060: 71f1 563e efe9 88be e167 72be 96ce 9cbd
00000070: 8117 61be a061 1bbe 162b 99be af1f e4bd
00000080: 21e9 85bd 550c b7bd 5b94 243e e079 60bc
00000090: 4088 bc3b 6412 f6bb a158 e23d 5bb3 133e
000000a0: 25f3 b63d ef7e cabd c0a1 23bc b9e3 c03d
000000b0: c705 8abd 81d2 04be 2005 96be 60d2 48be
000000c0: af3e f83d afa2 6abe cf22 c9bd 5157 e83d
000000d0: bf00 e93d 0992 90be 802a 913c 765c 1ebe
000000e0: b0fc be3c 5bef b6be c180 223e 40de 86bc
000000f0: df2e aabe 5fce 3f3e c0a3 d53d 71b9 febd
00000100: 8f6e 433e 3122 de3d e51a 3abe e651 a83d
00000110: a0d9 53bc f02b 5ebe 5009 2f3e ffbf a6be
00000120: 6ff4 1f3e 51d1 72be 00bc 7e3e e16c 80bd
00000130: 91d3 1dbe c117 23be ef7a a3be 8148 39be
00000140: ef9d 48be 41f9 8ebd 3fc6 84be 418a f4bd
00000150: 41a0 753e f63b 13be b087 debd 0b5b 2bbd
00000160: c147 743e df99 72be bf38 1b3e effa c2be
00000170: dac7 a9be f0ea e83c 3149 e6be 9036 00be
00000180: 2168 53be ba4e a3bd c17a dabd c086 9e3b
00000190: 01f7 51be 3c90 9dbe e183 22be e119 8bbe
000001a0: a0d8 1c3c f19c 1c3e 2142 4abe 1bcf 2c3e
000001b0: c78b 363e 0f5b 7e3e 9693 0abe f073 e03c
000001c0: 11b3 e33d 0fa7 51be 4fc7 e9bd ef91 c8bd
000001d0: 00b4 0e3e 8153 0cbe 2170 2bbe cf28 91be
000001e0: dfc2 e7bd 215c bcbc 6ff2 3cbe 97a4 84be
000001f0: a117 aebd c183 cbbd 4fa0 4dbe 810e 18be
00000200: d067 f0bc f0c5 303d c182 01be 5f91 c2bd
00000210: 7002 073e df2c 07be bf44 7bbe 1fe8 f23d
00000220: f1a2 d73d c192 543e 0100 c43d 002c d8bb
00000230: 4100 7f3d f1dc 523e a04a 09bc 2124 1cbe
00000240: 10a9 4abd fbb3 37be 16f4 973d 7136 913d
00000250: 9f3a 4bbe 21f4 68be 6f0f 5ebe 7f1a e3bd
00000260: d0e0 033d f133 d13d bfe3 76be fa3e 9dbe
00000270: 5143 bb3d a16b 713e 8f86 ea3d 0082 153d
00000280: 70d5 83bd 7094 ccbc 9115 083e 016d 153e
00000290: e175 45bd bf1b 4dbe 7041 edbd 0524 313e
000002a0: 4117 00be 0f5f 823d 0145 cf3d 1053 fcbd
000002b0: 1b8b 2ebe bfe5 573e 1bd7 2f3e 50e2 29bd
000002c0: a1da 45be d1ce 31be 0024 eb3c 5064 fe3d
000002d0: 2138 5f3e 1f17 b73d 60fa 623c 6aa8 23be
000002e0: b1a5 183e a6d5 9f3a 4fd7 72be 3fff c0bd
000002f0: b1bd 8bbd 30b4 8c3c b661 9ebe 81b5 4bbe
00000300: cfb7 48be 9f04 0bbe 4f9f 9bbc 0f93 ffbd
00000310: a178 573e df62 d3bd e09e 143d bf69 25be
00000320: 8f84 02be 0b1a afbd cfb3 063e 1ab8 193d
00000330: af15 d33d e1cb 563d c624 163e a058 c13c
00000340: 6161 7abd 5f18 02be c3cf 05bd 11af 243e
00000350: 51ac c33d ae55 833d a082 24be e626 a43c
00000360: cf5f 353e 9c8b 023e f51e 32be 2f29 afbd
00000370: c61c 933c 90d7 11bd efdd 963c f03c 893d
00000380: 1fcc 413e e66c a23d 8152 3a3e f080 fe3d
00000390: 10ec 58be 1931 0cbe d04a 603e 10fa 99bc
000003a0: b763 0cbe af7a 6d3e e0a8 e93c 110f 0cbe
000003b0: 1f1e 5fbe 4041 e3bb 2f33 8a3d 61da 54bd
000003c0: 71b6 143e c7cc 8b3e 21ac 0f3e d047 3b3e
000003d0: e179 f33d 5118 c33c 803a 82bc ff02 5e3c
000003e0: cf51 64be 5769 8b3c 01c4 ed3d a62f 9c3c
000003f0: ff80 0cbc e10d cc3d 313f 5a3d 00ff e53b
-0.08427752 0.13972233 -0.022549449 0.14020409 -0.03374723 -0.054933365 -0.14773536 0.09760426
0.12324976 0.04653376 -0.1315962 0.139912 0.07684071 0.16033378 -0.38126275 -0.18962981
0.14803419 -0.2888319 0.08040858 0.16936852 0.0704292 0.04922885 -0.07873035 -0.26323104
0.2099054 -0.26740977 -0.23672439 -0.07656591 -0.21981622 -0.1517396 -0.29915684 -0.11138856
-0.065386064 -0.08937899 0.16072218 -0.013700932 0.005753547 -0.0075095166 0.11052061 0.14423887
0.08933095 -0.09887492 -0.009987295 0.09418435 -0.06739383 -0.12970926 -0.29300785 -0.19611502
0.12121331 -0.22913621 -0.09821092 0.11344779 0.113770954 -0.28236416 0.01772046 -0.15464959
0.02331385 -0.3572949 0.15869428 -0.016463399 -0.33238885 0.18731068 0.104316235 -0.12437714
0.19085144 0.10846365 -0.18174322 0.08218746 -0.012930304 -0.21696448 0.17093396 -0.32568356
0.15620588 -0.2371266 0.24876404 -0.06270767 -0.15412737 -0.1592703 -0.31929728 -0.18094064
-0.19591497 -0.06981135 -0.259325 -0.11940432 0.23986913 -0.14378342 -0.10865724 -0.041834872
0.23855497 -0.2369151 0.15158366 -0.38082072 -0.33160287 0.02843234 -0.44977716 -0.12520814
-0.20645191 -0.07974 -0.10667945 0.004837841 -0.20504381 -0.30774105 -0.1587062 -0.27168182
0.009573132 0.15294243 -0.19751789 0.1687588 0.17826758 0.24839424 -0.13532862 0.027399033
0.111181386 -0.20473884 -0.11414968 -0.097934596 0.13935852 -0.13703729 -0.16741993 -0.28351447
-0.113164656 -0.02299315 -0.18451856 -0.25906822 -0.085006006 -0.099372394 -0.20080684 -0.14849283
-0.029346377 0.043157518 -0.12647535 -0.095003836 0.13184524 -0.1320071 -0.24537943 0.1186068
0.105291255 0.20759107 0.09570313 -0.006597042 0.0622561 0.20592095 -0.008379608 -0.15248157
-0.049477637 -0.17939751 0.074196026 0.07090462 -0.19846581 -0.22749378 -0.21685575 -0.11089038
0.03219682 0.10214985 -0.24110316 -0.3071211 0.09143699 0.23576213 0.11451446 0.03650093
-0.06437194 -0.024973124 0.13289477 0.14592363 -0.04820812 -0.20030116 -0.11584747 0.17298897
-0.1250887 0.06365787 0.10120583 -0.123205304 -0.17045252 0.21083735 0.171719 -0.041475594
-0.19321682 -0.1736405 0.02870369 0.12421477 0.21798755 0.08939957 0.013853639 -0.15982214
0.14906956 0.001219441 -0.23714946 -0.09423684 -0.0682329 0.017175764 -0.30933923 -0.19893457
-0.19601367 -0.13575982 -0.018996863 -0.12479221 0.2104211 -0.103215925 0.036284328 -0.1615362
-0.1274588 -0.08549889 0.13154529 0.03752909 0.1030687 0.052440528 0.14662465 0.02360183
-0.061128024 -0.1270461 -0.03266884 0.16082408 0.09554351 0.064128265 -0.16065454 0.02003808
0.1771233 0.12748569 -0.17394622 -0.08552777 0.017958056 -0.035605967 0.018416373 0.06701076
0.18925522 0.07930927 0.18195535 0.124269366 -0.211838 -0.13690604 0.21903539 -0.018795997
-0.13709913 0.23191331 0.028522909 -0.13677622 -0.21788834 -0.0069352686 0.06748044 -0.051966075
0.14522721 0.2730467 0.14030506 0.18289113 0.11888481 0.023815306 -0.015897036 0.013550519
-0.22296833 0.017018003 0.116096504 0.01906569 -0.008575677 0.09963585 0.05328292 0.0070189238

conv2.lin_l.bias f4 [64]
00000000: af6a 96bd 5fee f7bd 5384 a6be 7174 bbbe
00000010: 0fac ddbd 8f1b b2be 43d0 2c3e ff1e 4d3d
00000020: e0d7 503d 0f4d 4fbe 9096 4f3d 214d 093d
00000030: 6fa0 013e 61d3 833c af9d 56be affb 75be
00000040: 6699 9ebd 3f83 6cbe a0e6 95be eaa2 9fbe
00000050: 919f 71be 5bf2 ac3d c1cf cdbd 1fa6 62bd
00000060: 4b8a 2f3e 11b2 1dbe d057 023e 211d cabd
00000070: 7731 88be 6f19 ac3d 6181 94be f1e3 e0be
00000080: bf55 5abe 2f69 493e 51ae dfbd e668 28be
00000090: 7f69 9bbe ea3e 213e f081 303e 506e e43d
000000a0: a618 22bd 7f52 dbbd 78f1 07bc 0158 16be
000000b0: 1c0e f2bd c1dc cfbc c5b2 4dbe 80a5 c6be
000000c0: a6f0 a1be 8577 b5be 41ca 0f3d a1ff 56be
000000d0: b124 acbd a60a aabd 33b7 193e c5e9 b63d
000000e0: c169 b0be b1f5 403e 7ffe f9bd 9fa6 3abe
000000f0: cfa2 b93d 1181 9f3d 1f2b 1c3e 2a7f 953c
-0.07344567 -0.121060126 -0.3252283 -0.36612275 -0.10823833 -0.3478665 0.1687632 0.05007839
0.050987124 -0.2024424 0.050680697 0.03352082 0.12658857 0.016092004 -0.20958589 -0.24021791
-0.07744102 -0.23096941 -0.29277515 -0.3117898 -0.23596026 0.08444663 -0.100493915 -0.055334207
0.17142598 -0.15399958 0.1272881 -0.09868837 -0.2660024 0.084032886 -0.29004958 -0.43923905
-0.21321772 0.1966903 -0.1092192 -0.16446266 -0.30353925 0.15746656 0.17237067 0.11153853
-0.039574288 -0.10709094 -0.008297317 -0.14682008 -0.118190974 -0.025373818 -0.20087726 -0.3879814
-0.31628913 -0.3544275 0.035104994 -0.20995952 -0.08405436 -0.08302812 0.15011291 0.08931307
-0.34455684 0.18843724 -0.122067444 -0.18227623 0.090642564 0.07788289 0.15250824 0.018249113

conv2.lin_r.weight f4 [64, 16]
00000000: d0f6 22be 11fe c33d 0f00 97be a1ea a63d
00000010: 4f63 13be c730 843d 3613 263e 91e0 4cbe
00000020: 9fa4 06be 5733 003e c588 b7bd 8fa8 25be
00000030: 6f56 22be 5b15 35be 2981 0bbe ffe1 043e
00000040: 40e2 0fbd 0177 85be 09be 90be a0dc 8a3c
00000050: 60c6 063e ffed 1abe c1fb 27be efc4 a33c
00000060: 9fc6 293e e142 d6bd 2100 c7bd aa6a 183d
00000070: 8f6f 88be cf95 24be a7c1 8b3d f146 0d3e
00000080: 4114 e63d b1c7 273e 21e3 3f3e 9110 013e
00000090: 7113 203e c136 20bb 4023 853d 21f9 79bd
000000a0: 915a 3c3e 9096 c1bd c0f3 63be 6fe5 763e
000000b0: 2ee8 5f3e 0f24 49be 48ce b8bd 9f9e 60be
000000c0: 60cf 403d 20c0 733d fff8 cabd 7f2b 50bd
000000d0: 11f3 be3d 7116 dc3b 21b2 5a3e e130 9abe
000000e0: 507d 453e e122 73be 1f4a 96bd 41bf dd3d
000000f0: 5067 cebc e1ea 533d 8f61 0bbe 91e2 a3bd
00000100: 008f af3c 00cb 093d 416f 71be a53a 32bd
00000110: 11e0 ef3d bf1d d53d d994 0abe 6fbb fd3c
00000120: 80f7 653b 316f 293c 3782 893d 550f ad3d
00000130: f6e5 a53d 9fc6 71be 8164 35bd efe1 8a3d
00000140: aff8 09be df01 07bf e1a4 0ebe a16f 453d
00000150: b887 083d 7106 93be 100a 263e 0159 02bf
00000160: f6fb 1bbe 51b5 02bf 30e1 79be a5bb b9be
00000170: 4fa4 e0be 2185 03be 41de 43be 60b4 debd
00000180: aab7 9cbd ef02 67be 3184 d4bd b657 1d3e
00000190: df72 403e a225 ee3d 4a42 96bd 8d62 093e
000001a0: 06cf 21be bfce 16bd 3f93 573e 0fdc 61be
000001b0: c16d d43d 00ca 2f3a 8fdc db3b ff54 6bbe
000001c0: 8158 6e3e 1104 90be b1ec 73be c110 c2bd
000001d0: 8088 7fbd 2ffe d43c 8101 5dbd 1707 0f3e
000001e0: bff2 72be 3fae f83d ff1d 4bbe 811a 5b3e
000001f0: bf14 7bbe c0f5 eb3c 5f8e 5dbd cf71 e1bd
00000200: 61d2 bd3d b138 613e 81b5 78bd 8f6b 37be
00000210: cf18 0bbe b0b7 e7bd f991 053e f058 4fbe
00000220: 3ff4 3a3e a675 a33d 6a41 9a3d 6f64 34be
00000230: affe e5bd c167 18be 011b da3d 3008 d83d
00000240: 5079 3e3e 6ff7 42bb f1df 6b3d d008 7f3d
00000250: 10a7 60bd e194 213d 2f15 34be 4f27 69be
00000260: 60ef 373d 603a 84bc 00d1 ca3c b129 0dbc
00000270: 1f75 40be 5fa0 cdbd 7118 f8bd a9b5 0fbd
00000280: 9f6b b4bd 8f2f 4a3e 6f75 193e 013d 70be
00000290: bf8c c03d e1ac 5cbe 30fd b23d cfa2 78be
000002a0: c9a2 0f3d cfc8 1abe c088 7c3e 7f15 61be
000002b0: c1d9 fcbd c15a 713e 9ff7 46bd e114 7a3e
000002c0: a12f 60bd f122 0d3e 9140 79be e076 303d
000002d0: f01e 863d af09 80bd b122 febd ffc8 6dbe
000002e0: c1b2 e13d 114c afbd 3b83 303e 2be4 373e
000002f0: 1f80 1a3e 202e 973d efc2 43be 4034 333e
00000300: 01c2 3cbe 216b 38bc 2b1d b7bd a01e 1b3e
00000310: 5fd1 1d3e bfe1 3bbe 66b9 243e e1bc be3d
00000320: efac a53d f152 f6bd 7f32 1fbe df85 6bbe
00000330: afc3 36be 4ff7 51be 4024 cc3c 4ff3 363e
00000340: 2f27 623e c060 0dbe bfb6 02be 9f54 613e
00000350: 30ea bc3c 422e 91bd c03c 003e 2197 45be
00000360: f137 31be 8f4c 11be 5fc8 c1bd 9936 8c3d
00000370: 6fa9 02be 6f19 7c3e 44a0 51be b088 11be
00000380: 6567 333e 419e 743e 7196 6ebe df35 47be
00000390: 47c5 00be 8153 c5bd 8067 5abe 210f d33d
000003a0: 5740 923d a0fe 9a3d d0c8 5a3d 11ef 683e
000003b0: 16c1 94bd 3598 33be 813d 433d 80c9 193e
000003c0: 5077 61be 0fae 91bd 0f78 19bb c121 653d
000003d0: e011 96bc 5f32 9cbd 80ce 653b 3141 573d
000003e0: 2068 0fbd 6f86 c8bd 21c1 e23d 918a 473d
000003f0: 7f76 4c3e a0d9 943d 4186 0bbe 307e b2bd
-0.15914464 0.09569944 -0.29492232 0.08150221 -0.14393352 0.06454616 0.16218266 -0.2000754
-0.13148735 0.12519585 -0.089616336 -0.16177581 -0.15853284 -0.17683928 -0.1362349 0.12976836
-0.03512788 -0.26067355 -0.28269985 0.016950905 0.13161612 -0.15129851 -0.1640463 0.019991366
0.16579674 -0.10461975 -0.097168215 0.037211098 -0.26647612 -0.16072772 0.06824046 0.13796593
0.11234332 0.1638477 0.18738987 0.12603976 0.15632416 -0.0024446698 0.06500864 -0.061028603
0.18393923 -0.09452546 -0.22260952 0.2411096 0.21865913 -0.19642662 -0.0902372 -0.21935509
0.04707277 0.059509397 -0.099107735 -0.05082273 0.09323705 0.0067165424 0.21357013 -0.30115417
0.19286084 -0.23743774 -0.07338356 0.108274944 -0.025195748 0.05173767 -0.13611434 -0.080021985
0.021430492 0.03364086 -0.23577596 -0.04351296 0.11712659 0.10406064 -0.13533343 0.030973164
0.0035090148 0.0103414515 0.0671429 0.0845019 0.08100502 -0.23610924 -0.0442853 0.06781375
-0.13473772 -0.5273723 -0.13930084 0.04820216 0.033332556 -0.28715852 0.16214776 -0.5091706
-0.15232834 -0.51057917 -0.24402308 -0.36275974 -0.43875358 -0.12843753 -0.19127752 -0.108742476
-0.07652219 -0.22559713 -0.10376776 0.1536549 0.1879382 0.11628272 -0.073368624 0.134165
-0.1580163 -0.036818262 0.21052264 -0.22056602 0.103724964 0.00067058206 0.0067096422 -0.22981642
0.23275949 -0.28128102 -0.2382076 -0.09475852 -0.062386036 0.02600011 -0.053956512 0.13967548
-0.23725413 0.1214261 -0.19835661 0.21396829 -0.24519633 0.028803706 -0.054090854 -0.110080354
0.09268642 0.21994282 -0.06071997 -0.17912124 -0.13583682 -0.113143325 0.13043965 -0.2024877
0.18257235 0.07981424 0.07532008 -0.17616437 -0.11230218 -0.14883329 0.10649682 0.10548437
0.18600965 -0.0029749533 0.057586614 0.062264264 -0.054846823 0.039448623 -0.17586206 -0.22768901
0.04490602 -0.016141117 0.024757862 -0.008615897 -0.18794678 -0.10040354 -0.12114037 -0.035085354
-0.088095896 0.19744705 0.14986204 -0.23460771 0.09401845 -0.21550323 0.08739698 -0.24280857
0.035067353 -0.15115665 0.24661541 -0.21980856 -0.12346221 0.23569776 -0.048575994 0.24422027
-0.054732922 0.1378286 -0.24341036 0.043082118 0.065488696 -0.06251847 -0.124089606 -0.23221205
0.11020423 -0.085594304 0.1723756 0.17958133 0.15087937 0.073818445 -0.1911733 0.175004
-0.18433382 -0.01125601 -0.0894111 0.15148401 0.154119 -0.18347834 0.16086349 0.093133695
0.08089625 -0.120275386 -0.15546606 -0.23000287 -0.17848085 -0.20504497 0.02491963 0.17866252
0.2208526 -0.13806438 -0.12765025 0.22004937 0.023060888 -0.07088901 0.12523174 -0.19295932
-0.17306496 -0.14189361 -0.09462046 0.06846351 -0.12759946 0.24619077 -0.20471293 -0.14212298
0.1751991 0.23888494 -0.23299576 -0.19454144 -0.12575255 -0.09635068 -0.21328545 0.1030562
0.07141178 0.07568097 0.053414166 0.22747447 -0.07263391 -0.17538531 0.047666077 0.15018272
-0.2201817 -0.07113277 -0.0023417508 0.055940393 -0.01831907 -0.07626795 0.003506571 0.052552406
-0.03501141 -0.09791266 0.11071993 0.04871613 0.19967078 0.07268071 -0.13625433 -0.087154746

lstm_cell.weight_ih f4 [256, 192]
00000000: 1188 003e 30ff 3c3e f41c 91bd 0a3e 993c
00000010: 8a37 293d 0531 39be 2da1 413d b763 8b3d
00000020: 9f15 d4bd 8f0f bdbc a5f1 b33d 79f6 103e
00000030: ffc4 0b3e 8181 433e 80dd b03b 2173 4fbe
00000040: b64f 1c3d 1107 2c3e 2f65 43bc 7074 0a3e
00000050: c1b2 e03d 8127 273c 158a 2d3d 7fc2 713d
00000060: 20ad 12bd ff62 fc3d 41be ee3d 3bae 343e
00000070: b18c 3fbd 7fbd b7be ef97 443e b183 47bd
00000080: 3071 3cbc 2179 3a3e c13d 4abe 9ad9 213e
00000090: 8194 863c b12d febd bfc3 263d 5730 0fbd
000000a0: cf93 0fbe 0034 ce3d bff1 c73d 4938 0b3e
000000b0: 176e 543e a19c 35bc d251 b23d 50dc 3dbd
000000c0: 3f54 3aba 301e 51bc a001 28bd 8feb d83d
000000d0: 31be a93d 5671 1e3e 623e 4e3e 8a4d 14ba
000000e0: 4066 f03d 71a8 283e 61bc b0ba c115 5b3e
000000f0: 4fac 1b3e a05b ed3d cf82 5fbd a1a7 973d
00000100: aff6 83bf 1e76 5840 682e 2a40 efef 3440
00000110: f8fb 1140 a5fb b640 e0cf e540 16b6 b7bd
00000120: f009 b640 493a f340 5b7f f040 9ed8 d340
00000130: ba94 cb40 9d02 d840 7c85 0c41 abf0 f440
00000140: 5505 fd40 c06d d940 b609 ef40 ab68 ed40
00000150: 5f44 ed40 8fac a83d 36fa 0541 7e59 aa40
00000160: f10a e640 8067 e540 027f e040 c84e 0141
00000170: 7361 ea40 48c3 1d3c 1241 833d be89 743d
00000180: 5f86 47bd 1b6e debd cc18 5d3c 5de2 8c3c
00000190: 12f4 c63c 011f 2a3d b484 09be 2049 963b
000001a0: 01d8 903d 60f6 fdbb 9fb2 efbd c1c3 e5bd
000001b0: 008f 6c3b 7066 02bd f014 6d3c c05b 55bd
000001c0: a08e 97bd bf85 053d e06b fbbc 00c3 933b
000001d0: e066 53bc 3f0c a6bd 0526 b1bd b183 f6bd
000001e0: effe c63d c05a 3c3c 85b9 b7bd ff54 e83d
000001f0: bf37 aebd 0f7a e6bd 411d 433d 09af 90bd
00000200: 41c6 febc c52a fe3f 0b18 a43f 5141 f0be
00000210: 7921 08bf a081 1440 ff74 d43d 9f44 5640
00000220: a37b d440 bfef ba40 a21e b7bd 753c ec40
00000230: 43b2 f640 12cf f840 3b74 cc3d b218 0641
00000240: 1111 1141 b78a 0041 f432 f240 ae73 e540
00000250: d418 dc40 36c9 ce40 751c 2e3c 6b72 0441
00000260: 5b59 ce40 96e1 5f40 c5b7 5d3d af84 e040
00000270: d854 8440 59af 0941 c168 ef3d 5f1e 823d
00000280: 321e 6c3d d5ad 983d 01e2 07be 4adf 93bd
00000290: 768b c2bd b98d e1bd 9fc1 aabd b828 eabd
000002a0: 8fca 493d df34 ea3d ff2f 913d bfee 24bd
000002b0: 113c 02bd 6175 593d bfe1 b63d d016 c4bd
000002c0: 4af8 a6bd 8fa3 3dbd 97f4 8ebd a5ba 2c3d
000002d0: e17b f8bd 5058 b93d 40fe 3ebb 7162 e33d
000002e0: f13b 243d 214e 83bd 008a 10bd 6524 acbd
000002f0: 5a43 1e3d b1a7 a8bd 814e f23d 4f94 b63d
00000300: 11d1 2f3d 9f85 203d b408 0f3f 817e cf3d
00000310: 6592 b23d 7a88 12be 58d7 79bc 6f5b f93c
00000320: d07d 61bc 217d e1bc 4167 fb3d 3142 db3b
00000330: 27cd 0dbd 5167 c73e 760d a8bd d1b5 173f
00000340: b95e 8b3c e1fe 563d 61c6 00bd 8cd2 f83d
00000350: 0fbd 3d3e 0088 a33d 81df 4cbd 150f 333e
00000360: e0be 7e3d 6f3d 603d 30d5 0e3c 81c4 973e
00000370: 19f8 0bbc 0189 333f 1ab0 143f 8a14 293d
00000380: 3f52 883d ff1c 56bd e193 563f 5f7d 32bd
00000390: 9fda 47bd dfa1 dd3d e014 d9bc b873 823c
000003a0: 10d4 2d3f e018 c73c af67 443f f922 003e
000003b0: cbd6 b43e 8912 063e 9b51 193d a6e8 9f3d
000003c0: 3f43 adbd caab 143d cf9d b63e bf46 2bbe
000003d0: efef bfbd ba9d 96bd 5d1e f53d 31b1 d63c
000003e0: 86a7 9fbd 3964 0b3e c1e4 213e df78 613d
000003f0: bfd5 513d bf0e 62bd 1fe1 e5bc 7154 033d
0.12551905 0.18456721 -0.070856005 0.01870634 0.04131273 -0.18085106 0.04727285 0.068061285
-0.103556864 -0.023078708 0.087863244 0.14156522 0.13649367 0.1909237 0.0053974986 -0.20258762
0.038161956 0.1679957 -0.0119259795 0.1352098 0.109715946 0.01020229 0.042368013 0.059023377
-0.035809636 0.123235695 0.11657382 0.17644589 -0.046765033 -0.35886762 0.19198583 -0.048709575
-0.011501595 0.1821027 -0.1975012 0.15805665 0.016428234 -0.12411059 0.04071402 -0.03495821
-0.14021228 0.10068512 0.09762906 0.1359569 0.20745121 -0.0110847065 0.08707012 -0.046352684
-0.00071078906 -0.012763545 -0.041017175 0.10591804 0.08288229 0.15472922 0.20140985 -0.0005657306
0.11738253 0.16470505 -0.0013483876 0.21395017 0.1520245 0.11589742 -0.05456811 0.074050196
-1.0309657 3.3822093 2.6590824 2.8271444 2.281004 5.7182183 7.1816254 -0.08970277
5.688713 7.600865 7.5155463 6.6201925 6.361905 6.750319 8.782589 7.6543784
7.906901 6.794647 7.4699354 7.419027 7.414596 0.08236038 8.373587 5.3234243
7.1888356 7.1688843 7.015504 8.081734 7.3243957 0.009629078 0.064088956 0.059701674
-0.04871213 -0.10860845 0.013494682 0.017197782 0.024286304 0.041533474 -0.13429528 0.004586354
0.070724495 -0.0077503175 -0.11703991 -0.11218978 0.0036095977 -0.031835973 0.014470324 -0.052089453
-0.074002504 0.032598253 -0.030691087 0.00450933 -0.012902945 -0.081078045 -0.0864983 -0.12036837
0.097165935 0.011496246 -0.08970932 0.11344337 -0.085067265 -0.112537496 0.04763532 -0.07064635
-0.031100394 1.9856802 1.2819837 -0.46924832 -0.53176075 2.3204117 0.10373878 3.3479383
6.6400924 5.841766 -0.089413896 7.38238 7.7092605 7.775277 0.09983107 8.381029
9.066667 8.033866 7.56872 7.170371 6.878031 6.462062 0.010626902 8.277934
6.4484076 3.4981437 0.054130334 7.0161967 4.135357 8.6053095 0.11689902 0.06353449
0.057645984 0.07455031 -0.13269807 -0.072203234 -0.09499256 -0.110133596 -0.083377115 -0.11433548
0.04926544 0.114358656 0.07089233 -0.04026675 -0.031795565 0.053090457 0.089297764 -0.09574664
-0.08152826 -0.04629856 -0.069802456 0.042170186 -0.12133003 0.090500474 -0.0029143244 0.111027606
0.040096227 -0.06411386 -0.035287857 -0.08405379 0.03863845 -0.082351096 0.1183138 0.08915006
0.04292399 0.03918993 0.55872655 0.101315506 0.08719329 -0.14309874 -0.015249096 0.030439107
-0.013762906 -0.027525486 0.122755535 0.0066912402 -0.034619477 0.38946012 -0.082056925 0.59261805
0.01701294 0.052489165 -0.03143919 0.12149534 0.18529151 0.07984924 -0.050017837 0.17486222
0.06219375 0.054746088 0.00871782 0.29642108 -0.008543038 0.70130926 0.5808121 0.041279353
0.06656312 -0.052273747 0.83819395 -0.043576594 -0.048792478 0.1082189 -0.026499212 0.01592432
0.67901707 0.024303854 0.7672071 0.12513341 0.35320124 0.13093008 0.03743134 0.07808046
-0.08460092 0.036296643 0.35667273 -0.16726206 -0.093719356 -0.07354303 0.11968682 0.026207538
-0.077956244 0.1361245 0.15809919 0.055046912 0.051229235 -0.055189844 -0.028061448 0.03206295

lstm_cell.weight_hh f4 [256, 64]
00000000: 53c5 e73e 3886 c23e 3eee 883f e0d5 85c0
00000010: 79e5 aa3f bcfc 33c0 d9ec 18c0 692a 1c40
00000020: 49b8 5e40 db97 473f 9be9 e33e dc41 a3bf
00000030: cad1 38bd 76dc b9bf 323b ecbf 097e 60be
00000040: 8ee1 4dbf 9273 1b3f d675 48c0 988e c5bf
00000050: 20b2 3ebd 8644 2640 4981 2140 97f3 46bf
00000060: c42b 053f 6672 2140 d3ce 1dc0 2c75 673f
00000070: d772 2dbe ce29 3ac0 0a18 f6bf 941e c93d
00000080: 261e 973f 597c f9bf a431 cfbe 352d 6f3f
00000090: 7ce0 1b40 0886 b1bf d19a 5f3e c527 10c0
000000a0: 2af1 9d3f 611f b9bd 469f 32c0 4936 94bf
000000b0: 9a29 9fbf 6a53 ecbf 255f 113f 7f6d ca3f
000000c0: c69c e93e 9077 0540 981e 00c0 0ff2 343f
000000d0: c413 bc3f c3ef c73f 1dc9 17c0 ea07 4340
000000e0: fbbc a53f 01d8 16c0 028f 6d3f 4420 993e
000000f0: f5ed 3540 612f a23f 205a f83e 100e 3740
00000100: 5650 df3e d200 f4be 0902 b83c 546b a23e
00000110: 89a1 0ec0 ddfa 2fc0 01ce 0d3f 260b b33e
00000120: 9a9c 05c0 4010 8dbf 1785 22bf 43c1 20bf
00000130: 7d0b 81bf d3f7 0abf 66ec 53be b79a 2f40
00000140: b019 13bf b09f 80bf 2f84 51bf fd24 17c0
00000150: d7f0 35bf a188 ea3f 7a0d b43e d3a1 693f
00000160: 8016 943f d0fd 89be 9d6a 14c0 1bda 77c0
00000170: e28e 47bf b23c abbe 5c42 0cc0 8518 73bf
00000180: 5ae8 2e3e 060e c63f c7a7 69c0 6e19 0640
00000190: f70f d13f 14b3 d8be fed3 92bd 9ae6 3c40
000001a0: 6f84 8bbf 2fe7 54bf e31f 9340 c0de 263f
000001b0: ba1e c7bf 631e 9cbe 568f b9bf 7267 52bf
000001c0: f85b 8040 8a36 01c0 4b12 9f3f 9441 0ac0
000001d0: 8fa1 583e 96d2 37be aa9e 4dc0 efa8 f7bd
000001e0: ed88 d2bd 0105 edbf dc52 e03f 1c7c 1a3f
000001f0: 6a79 d03f 1eb5 93bf feb7 d53d 0eab f8bf
00000200: ef37 2a40 1966 7d3f a67c be3e 719f e43e
00000210: 5f1c 8d40 7f70 a53e afe0 983e 6b85 f7bf
00000220: 1616 0640 0ed0 1ac0 44fd d83f 8ac2 f73c
00000230: 2e50 e5bd e90f aabf af11 f5bf 44c3 24bf
00000240: 95a4 c83f d18e 2e3f fa8c 00bf cd86 f9bf
00000250: 03d2 7340 5159 f93e 5a90 b93f 73e2 c53f
00000260: 50ac 1e3f 4558 b83f 3bdb d23f e8a4 b4be
00000270: b81a 00c0 e2e1 2240 0af3 623f a77e 8b3f
00000280: 19b4 c33f d30f c0bf e0af 97bd 4003 74bf
00000290: fc4e e63f 698e f53f 8f28 a03f 0d82 2040
000002a0: ce51 0ec0 d9a5 fdbe ac3f 1ac0 c0f7 f3be
000002b0: 2b25 ea3f 2b36 4bc0 2633 533f 83ba 8c3f
000002c0: f49a 463e d609 8bc0 588d 603f b4a6 6b3f
000002d0: 2d4f 79c0 911e 903f d0b9 503f 3d94 903f
000002e0: c3d7 dc3f e778 963e 37e6 50bf ade6 7b3f
000002f0: a8ae 3c40 5f37 9dbf 8df0 e8be 4d24 cbbf
00000300: 0de6 d0bf f4a8 7c3f 834c 93be 3220 303e
00000310: d61c 33bf f393 2e3e 7758 77bf a379 f1bf
00000320: ccc7 4bc0 f2ab da3f 1c3b cabf 0b0c 98bf
00000330: 104c 7d3f 74e6 42bf 2ccc 4f3e 256b 8cbe
00000340: 0ce3 e63d 9aa1 fd3f 5f8d f33f 1e9e 78bd
00000350: 5c70 87bf 4346 11bf bef9 ea3d 2014 b43e
00000360: 7718 3640 aaea 813b 4d18 1b3f 5b77 2740
00000370: f208 1e40 e0eb b93f fc94 bdbd e7de 96c0
00000380: 2651 e6bf 3143 5fbf 02ec a03f ad68 ea3e
00000390: 5236 b03f ece4 9dbe c8d2 2540 cddd 3a3f
000003a0: 0ef1 34be f890 3540 c88c 3cc0 25fa 37c0
000003b0: e0d9 0240 fd32 bfbe 167f 2f40 4516 4b3f
000003c0: f513 2940 748c 223d 1972 15bf 01c2 e03e
000003d0: 09c9 153d 573e 49bf b2ae 983e 54fa 19c0
000003e0: bf4e a9be 042d 0340 dcdd 4fc0 f38c f2be
000003f0: 1642 9fbf 4a66 8dbf f92b 053f e578 23c0
0.45267734 0.37993026 1.0697706 -4.182358 1.335128 -2.8123007 -2.389456 2.4400885
3.4799979 0.7796609 0.44514164 -1.2754474 -0.045121945 -1.4520404 -1.8455565 -0.21923079
-0.80422294 0.6072322 -3.1321921 -1.5434141 -0.046556592 2.5979323 2.523516 -0.7771544
0.52019906 2.5226073 -2.4657485 0.90413165 -0.16938339 -2.9088016 -1.9226086 0.098202854
1.1806076 -1.9491073 -0.4046756 0.93428355 2.4355764 -1.3869028 0.21836402 -2.2524273
1.2339222 -0.09039188 -2.7909713 -1.1579067 -1.2434571 -1.8462956 0.56785804 1.5814666
0.4562742 2.0854225 -2.0018673 0.7068185 1.4693532 1.5620044 -2.37165 3.047358
1.2948297 -2.3569338 0.9279634 0.2990743 2.8426487 1.2670709 0.4850626 2.8602333
0.4361598 -0.47656876 0.022461908 0.3172251 -2.2286093 -2.7496865 0.5539246 0.34969443
-2.0876832 -1.1020584 -0.6348433 -0.62794894 -1.0081631 -0.542844 -0.20695648 2.743818
-0.5746107 -1.0048733 -0.8184232 -2.3616326 -0.7107062 1.8322946 0.35166532 0.9126255
1.1569366 -0.26951456 -2.3190072 -3.872687 -0.77952397 -0.33444744 -2.1915503 -0.9495929
0.17080823 1.547303 -3.6508653 2.095302 1.6332997 -0.42324126 -0.071693406 2.9515748
-1.089979 -0.8316526 4.5976424 0.6518364 -1.5556252 -0.30491933 -1.4496868 -0.82189095
4.0112267 -2.0189538 1.2427458 -2.1602526 0.2115538 -0.17951426 -3.212809 -0.120927684
-0.10280023 -1.8517152 1.7525287 0.60345626 1.6287053 -1.1539648 0.10435484 -1.9427202
2.659664 0.98983914 0.37204474 0.44652894 4.4097133 0.3231239 0.2985892 -1.9337591
2.095098 -2.4189487 1.695229 0.03024413 -0.11196934 -1.3286105 -1.9146022 -0.6436045
1.5675226 0.6818667 -0.50215113 -1.9494263 3.809693 0.48700956 1.4497178 1.5459732
0.6198168 1.4401938 1.6473154 -0.35282063 -2.0016308 2.5450368 0.886521 1.0898026
1.5289336 -1.5004829 -0.07406592 -0.9531746 1.7992854 1.9184085 1.2512378 2.5079377
-2.223743 -0.49540594 -2.4101362 -0.47649956 1.8292593 -3.1751812 0.8249992 1.0994419
0.19395047 -4.3449507 0.87715673 0.92051244 -3.8954575 1.1259328 0.8153353 1.1295239
1.7253345 0.29389116 -0.8160128 0.9839886 2.9481602 -1.2282523 -0.45496026 -1.5870453
-1.6320206 0.986953 -0.2876931 0.17199782 -0.69965875 0.17048626 -0.9661936 -1.8865246
-3.1840696 1.7083724 -1.5799289 -1.1878675 0.9894419 -0.76132894 0.20292729 -0.27425495
0.112737745 1.9814942 1.9027518 -0.060697667 -1.0581164 -0.56747836 0.11473416 0.35171604
2.8452432 0.0039647417 0.60583955 2.6166599 2.469296 1.4525108 -0.09256932 -4.7147098
-1.7993515 -0.872119 1.2572024 0.45782986 1.3766577 -0.30838716 2.59099 0.7299469
-0.1767008 2.8369732 -2.9460926 -2.8746426 2.044548 -0.37343588 2.7421317 0.79330856
2.641843 0.039684728 -0.58377224 0.43898013 0.036568675 -0.7861075 0.29820782 -2.4059038
-0.3306789 2.0496225 -3.2479162 -0.4737316 -1.2442043 -1.1046841 0.5202022 -2.5542538

lstm_cell.bias_ih f4 [256]
00000000: bd97 a4bf b2db d53f 7aa3 163f f144 4d40
00000010: b45f 3e40 533c 5140 2e2f 843f 2bc5 2740
00000020: 4d8c 313f 294b 2f3f 9cb1 4b40 1493 0740
00000030: 8f36 74c0 6cc7 3f3d 05d5 40c0 ce25 753d
00000040: 4bd3 3940 bab9 14c0 cf8f 31c0 7a04 563f
00000050: 8c5d babf b657 81c0 563b cfbf 9036 ae3e
00000060: 4654 e23f 12a7 90bf a46b 523f b01a 903f
00000070: ec1e 35bf a26a 1c40 1879 1b40 a090 793e
00000080: d0e2 d13f 8801 eb3f d542 0bbf fe15 a0bf
00000090: 949e 23bf 39e5 af3f ba56 79be 3045 d23f
000000a0: 983b f73e 4a82 4f3f 9f9b 333f 8cbb babf
000000b0: 1aab 99c0 ce35 dabf f1c8 423f 920a 2cbd
000000c0: f46c 8cc0 fefe 08c0 8722 3ac0 61c5 1c3f
000000d0: 8a60 1dc0 49ce eabf 4a80 23be fbf8 2fbe
000000e0: 0609 0dc0 e6e5 3fc0 53c3 a03f 2420 303f
000000f0: e8a9 5d3f b302 4e40 0971 1140 1160 36c0
00000100: 3914 97bf 1728 21bf 916a aabe 3ea9 5d3f
00000110: b150 c6bf ed88 873e 1d36 743f a1fd 15c0
00000120: 4764 553f 3d27 8abf f007 5bc0 f837 25c0
00000130: 0e90 3d3f c5fd 9a3c 4f35 f1bf be58 843e
00000140: 9927 6fbf 7d98 ed3e 5851 1fbf a8e7 0540
00000150: a0e0 30c0 7a30 463f 343e 2cc0 18ae a4bf
00000160: e070 523f b825 21bf 9b86 6f3e 41ee e0be
00000170: 8b7d adbf c8fe 80bf 68cd 8f3e 145e 56bf
00000180: f7ab 5cbd 0677 3ac0 879c 74be 5f5b 56c0
00000190: 4f5c 2440 5980 67bf 4981 dfbe e1f8 d6bf
000001a0: 2169 c2bf b88f e13f e9a1 343f 38f2 0e3f
000001b0: 8d4f b4be ca50 07c0 9c3d 86bf fedd 61bf
000001c0: 45a4 a0bf 697c 803f e5df 07bf c776 0fc0
000001d0: ed7c 23c0 39d4 843e 9ee9 dd3e dfd2 d4bf
000001e0: a64c 1740 6dea a63f 0a6e 88c0 a30c 0a40
000001f0: fec5 68be a235 03c0 0107 343f 3c37 ecbe
00000200: d94f 3f40 2add 93be 9f8d 65c0 7fcd 12c0
00000210: 9dbd c73f 815c 04bf 517d 0f3f 2c50 bfbf
00000220: 9849 0e40 1332 06c0 783c 7540 bcd2 2a3f
00000230: 3cf5 363e 6d2d 3940 6595 dd3f 1566 16bf
00000240: 0dee 1740 dd23 9140 ebb1 0bc0 b35b 743e
00000250: 5439 6abf 6f5c 6e3e db86 123f 3953 413f
00000260: e7f3 1b3f 1b27 09bf 4817 803d 4a23 e5bf
00000270: 93d2 4f3f 1013 3e3f a762 1640 418c 1a40
00000280: 3bbc f73f ee0b c3bf f6fa c0be 0abf f73f
00000290: 657a ef3f 2ae7 96be a85b b53f 06ec a93e
000002a0: b831 c1be 9d76 dd3f b088 07bf 4932 f13f
000002b0: ccd3 423f e011 ab3a 3e18 5540 c585 27c0
000002c0: 897e 01c0 e205 a63e cc5f c93e b98e 31bf
000002d0: 5ab5 8ebf 6a61 33c0 3710 b5bf 886a edbf
000002e0: 64f0 adbe 7eeb a53f a386 9ebf 34fb 12bd
000002f0: a844 e8bf 9db1 a7bf 53f2 0040 3815 253f
00000300: 5ebd 8ebe b720 86c0 6628 223f b610 a540
00000310: a3de 48bf 7986 0fc0 abcb cd3f 66e7 fa3f
00000320: a986 9fbf ed14 5f3f 8a66 02c0 05eb 5540
00000330: f2d7 6ebf fbaa d73f b84f 30c0 879e f3be
00000340: 27a3 1bc0 0caa 23bf bfbd 20c0 ed6f dc3d
00000350: 92fd 943f abd8 7cbf a602 aa3f be7c 3e3f
00000360: 27bd 35bf ce57 293e 2459 ea3f 2fd1 4fc0
00000370: 9f7d d53e 430d bdbf d6f4 b23f c7da e5be
00000380: 1902 4ebf ae6a 0940 38c1 a2be c94e 9bbf
00000390: 31e4 edbe 401e 3640 2a4b 0ac0 11ff 4340
000003a0: b656 163f 11c9 5240 2e9c ddbf 90a8 dd3f
000003b0: a1df 17c0 b960 86c0 e233 e33f e1f6 4fbf
000003c0: 0db5 4cc0 0fe2 dcbf 1b2f f8bf d0b1 0ac0
000003d0: 4a3e 58bf da31 d4bf e323 0940 7e99 19c0
000003e0: 5465 1a40 ba98 8abf 7baa b03e b4a7 12c0
000003f0: c123 39bf 630a 813f 6698 1ac0 bc6d ba3e
-1.2858807 1.6707671 0.58843195 3.2073328 2.9745913 3.269307 1.0326898 2.6214092
0.69354707 0.6847406 3.1827154 2.118352 -3.81583 0.046821043 -3.0130017 0.059850506
2.9035213 -2.3238358 -2.7744024 0.8360058 -1.4559798 -4.041957 -1.6189983 0.34026003
1.7681968 -1.1300986 0.82195497 1.1258144 -0.7075031 2.4440084 2.429266 0.24371576
1.6397343 1.8359842 -0.5439885 -1.2506711 -0.63913846 1.3741828 -0.2434949 1.6427364
0.48287654 0.8105818 0.70159334 -1.4588485 -4.8021364 -1.704767 0.7608786 -0.042002268
-4.3883 -2.1405635 -2.9083574 0.61238676 -2.4590173 -1.8344203 -0.15966907 -0.17184822
-2.2036757 -2.998407 1.2559608 0.6879904 0.8658738 3.2189147 2.272524 -2.8496134
-1.1803046 -0.629518 -0.3328443 0.8658637 -1.5493375 0.26471654 0.9539507 -2.3436053
0.83356136 -1.0793225 -3.4223595 -2.581541 0.74047935 0.018919835 -1.8844393 0.25848955
-0.93419796 0.46405402 -0.62233496 2.0922642 -2.76371 0.7741772 -2.6912966 -1.2865629
0.82203484 -0.6294818 0.23391192 -0.43931773 -1.3553938 -1.0077753 0.280864 -0.837373
-0.053874936 -2.9135146 -0.23887835 -3.3493268 2.568134 -0.9043022 -0.43653324 -1.6794702
-1.5188333 1.7621984 0.70559555 0.55838346 -0.35216942 -2.114306 -1.0487552 -0.8822936
-1.2550131 1.0037967 -0.5307601 -2.2416246 -2.5544999 0.25943163 0.43342298 -1.6626853
2.3640532 1.3040291 -4.2634325 2.1570213 -0.22731778 -2.0501485 0.7032319 -0.4613589
2.9892485 -0.28879672 -3.5867689 -2.2937925 1.560474 -0.5170365 0.5605059 -1.4946342
2.2232418 -2.0968063 3.8318157 0.66727805 0.17866987 2.8933976 1.7311217 -0.58749515
2.3739045 4.535628 -2.1827343 0.23863105 -0.91493726 0.23277448 0.57237023 0.7551761
0.6091904 -0.53575295 0.062544405 -1.7901394 0.81180686 0.7424784 2.3497713 2.4148104
1.9354318 -1.5238016 -0.37691468 1.9355175 1.8709227 -0.2947324 1.4168596 0.33187884
-0.37733245 1.7301823 -0.52942944 1.8843471 0.76104426 0.0013051592 3.3296046 -2.6175396
-2.023348 0.32426363 0.393309 -0.693584 -1.1149094 -2.8028207 -1.4145573 -1.8548136
-0.33972466 1.2962492 -1.2384838 -0.035884097 -1.8145952 -1.3101078 2.0147903 0.644855
-0.2787885 -4.1914935 0.63342893 5.15829 -0.78464717 -2.2425826 1.607778 1.9601867
-1.246297 0.87141305 -2.0375085 3.3424695 -0.93298256 1.6849054 -2.7548656 -0.47581884
-2.431833 -0.63931346 -2.5115812 0.10763536 1.1639884 -0.9876811 1.3282058 0.7440909
-0.7099175 0.16537401 1.8308454 -3.2471426 0.41697404 -1.4769672 1.3980968 -0.44893476
-0.8047195 2.1471362 -0.3178804 -1.2133418 -0.4646316 2.8455963 -2.1608377 3.062443
0.5872606 3.2935221 -1.7313287 1.7317066 -2.3730242 -4.199307 1.7750208 -0.8123608
-3.1985505 -1.7256488 -1.9389375 -2.1671028 -0.84470046 -1.6577713 2.1428154 -2.3999934
2.4124346 -1.0827858 0.34505066 -2.2914858 -0.7232018 1.0081295 -2.4155517 0.36411846

lstm_cell.bias_hh f4 [256]
00000000: 6dbc a8bf afc2 e33f 8467 bc3e 7bd3 4840
00000010: 54fd 4240 53ee 5140 8a62 6e3f 430a 2a40
00000020: cd2c 373f 4a8b 293f 28f0 4b40 c4ad 0f40
00000030: ef8c 7ec0 9f1e 133e 0524 37c0 d9e0 cb3d
00000040: fb96 3940 359f 1dc0 ef9c 31c0 0c2f 363f
00000050: 2c90 bbbf 4471 79c0 86ed dabf 00fe b83e
00000060: 268b dc3f f6bb 9dbf 6cb2 863f 20f3 823f
00000070: b544 1ebf d247 1840 995c 2540 a097 7b3e
00000080: 505f d43f a817 e83f 2ec3 21bf 4e3d 96bf
00000090: c555 3abf b952 c73f 1a20 57be 3030 e03f
000000a0: 28cb 8a3e fad6 633f 1fb7 5c3f bcc7 abbf
000000b0: ea6e 9bc0 ae71 d5bf 4180 463f b8a5 3dbb
000000c0: f482 8cc0 1e94 05c0 f7dc 32c0 9145 263f
000000d0: 2abc 29c0 e947 efbf a246 61bc 4730 83be
000000e0: 779a 09c0 83b7 37c0 d3a2 9a3f 042f 113f
000000f0: 480f 4f3f 56b8 4b40 f7af 0840 51a0 31c0
00000100: c9dd 88bf e40d f8be 7176 99be 5e4e 703f
00000110: 31a5 bdbf 8dc1 873e a0c0 843f b137 19c0
00000120: 26e3 413f 6c5f 9cbf 7d71 5fc0 46a7 26c0
00000130: bb64 293f 1f7e 793e 4f29 d9bf 12a1 9d3e
00000140: 04e0 91bf ccce c53e f9bc 09bf 2840 0340
00000150: 5048 30c0 a91e 263f d4c6 2dc0 b838 a5bf
00000160: 00a1 503f 7197 0bbf 9d1e 1c3e a1d2 f0be
00000170: d09f a8bf 3591 78bf 0767 803e d285 62bf
00000180: 5137 b4bd 0643 3bc0 57d9 92be 4f17 4ec0
00000190: 6fd6 2940 70c2 81bf e973 a0be b1a6 e5bf
000001a0: d199 abbf c838 ee3f 7982 5f3f e745 1c3f
000001b0: 9ec8 91be 2acf 02c0 456e 8bbf 1ec8 62bf
000001c0: c5fb 81bf 3056 7c3f d570 b0be 56b7 12c0
000001d0: a2eb 1cc0 f427 6f3e dd96 bf3e efd5 dcbf
000001e0: 668a 1240 5e78 b03f 1ad7 81c0 d523 0d40
000001f0: be7a 65be 8234 09c0 5f03 113f b739 cdbe
00000200: 1930 3b40 6c71 05bf 1f21 65c0 df17 16c0
00000210: bd8b b83f 81f9 00bf e257 e63e 5c9b bebf
00000220: 80ec 0740 93e8 03c0 1876 7e40 1038 463f
00000230: 7c3f 6a3e 6ddc 3940 25ae c33f d243 2abf
00000240: 3db7 2340 6fe6 8d40 fbec 0fc0 52fa 3a3e
00000250: 947c 5dbf ffd6 4c3e 7d54 0f3f bccd 243f
00000260: 5938 533f 2b34 08bf dc9a 543d 0ae0 e9bf
00000270: a3d6 473f 10e8 4a3f 47c2 1b40 c7ac 0e40
00000280: 7bb5 eb3f ae90 acbf 09c5 adbe 8a38 fe3f
00000290: 8552 e33f 2ab1 7bbe e38d a53f 73b4 823e
000002a0: 884d b8be d15a d63f 20da 0ebf 693a f33f
000002b0: 0d4d 4d3f 56d4 623d 9ec2 5340 2558 23c0
000002c0: 494e 08c0 c9e6 673e 6ce2 c53e b377 25bf
000002d0: 3169 a8bf 9ae5 31c0 1bd7 a1bf 38b9 f2bf
000002e0: b28b d1be 1f85 b93f 837a 9fbf 5fbd 90bd
000002f0: b8e2 fabf 3c3a bfbf a945 e53f 6887 1b3f
00000300: d5c2 68be 4fdc 84c0 06fd 203f 852c aa40
00000310: d3ac 4fbf 45ca 0fc0 bbbc b73f 9b2f ef3f
00000320: 4214 91bf 6d2d 513f ea74 01c0 c500 4e40
00000330: 1c84 83bf bbc2 d63f 68e8 2fc0 b799 2abf
00000340: e759 0fc0 0bdb 38bf 9054 1ac0 5dcc ed3d
00000350: 95e5 ad3f 78fa 84bf 07c4 b03f 1e1c 423f
00000360: 0737 46bf e288 733e 04d9 e93f 4152 53c0
00000370: 9f6b f33e a3e8 c0bf f613 ba3f 3a8e 05bf
00000380: 6957 35bf 5670 0c40 9ebe 7abe b724 87bf
00000390: 91a3 f5be c0c2 3640 5acf 0ac0 3158 4740
000003a0: 36ad 243f c10f 5540 8345 ccbf 30b3 de3f
000003b0: c95d 21c0 199c 87c0 b27a e03f 92ba 2ebf
000003c0: 9f93 49c0 2feb e1bf 3bfe e8bf dcfc 06c0
000003d0: 9a96 6bbf 6c85 c3bf b883 0940 cff0 0dc0
000003e0: 4264 1040 bad4 7dbf bcc5 a73e 6c43 0fc0
000003f0: 358c 44bf d2c8 7e3f c335 27c0 6c96 cb3e
-1.3182503 1.7793788 0.36797726 3.1379077 3.046712 3.2801712 0.9311911 2.6568763
0.71552736 0.66228163 3.186533 2.2449808 -3.977352 0.1436715 -2.8615735 0.09954996
2.89984 -2.4628422 -2.7752035 0.7116554 -1.4653373 -3.8975382 -1.7103736 0.36131287
1.7229965 -1.2322986 1.05232 1.0230446 -0.6182359 2.3793836 2.5837767 0.24569559
1.6591587 1.8132219 -0.63188446 -1.1737459 -0.72787124 1.557212 -0.2100834 1.7514706
0.2710812 0.88999903 0.8621692 -1.3420329 -4.8572893 -1.6675317 0.7753945 -0.0028937887
-4.3909855 -2.0871654 -2.7947366 0.649499 -2.6521096 -1.869382 -0.01374975 -0.2562277
-2.1500528 -2.8705757 1.208094 0.56712365 0.8088269 3.183126 2.13574 -2.77541
-1.0692683 -0.48448098 -0.29973176 0.9386958 -1.4816037 0.26514855 1.0371284 -2.3940241
0.75737226 -1.221662 -3.4913018 -2.6039596 0.6616933 0.24364518 -1.6965731 0.3078695
-1.1396489 0.38634336 -0.53803974 2.0507908 -2.7544136 0.64890534 -2.7152605 -1.2907934
0.81495667 -0.54527956 0.15246053 -0.47035697 -1.3173771 -0.9709657 0.25078604 -0.88485444
-0.08799613 -2.9259658 -0.28681442 -3.2201726 2.653713 -1.0137463 -0.31338432 -1.7941495
-1.3406316 1.8611078 0.8730846 0.6104416 -0.2847337 -2.0438943 -1.0893027 -0.88586605
-1.0154959 0.9856901 -0.34461084 -2.29244 -2.451882 0.23355085 0.37419787 -1.7252787
2.2896972 1.3786733 -4.0575075 2.205312 -0.22410104 -2.1438298 0.5664577 -0.40083095
2.9248106 -0.52126193 -3.5801466 -2.345207 1.4417645 -0.5038071 0.44988924 -1.4891162
2.1238098 -2.0610702 3.9759579 0.77429295 0.2287578 2.9040787 1.528752 -0.66509736
2.558059 4.434379 -2.2488391 0.18259552 -0.86518216 0.2000389 0.55988294 0.64376426
0.82507855 -0.532046 0.051905498 -1.8271496 0.78061885 0.7926035 2.4337327 2.2292955
1.8414758 -1.3481653 -0.33939388 1.9861004 1.7759558 -0.24579301 1.2933925 0.25528297
-0.35996652 1.6746465 -0.5580158 1.90022 0.80195695 0.05537828 3.3087535 -2.552255
-2.1297781 0.22646631 0.3864931 -0.6463577 -1.3157102 -2.7796388 -1.264377 -1.8962774
-0.40926892 1.449375 -1.2459263 -0.0706737 -1.9600439 -1.4939647 1.7911884 0.6075349
-0.22730573 -4.151893 0.62886083 5.3179345 -0.81123084 -2.2467206 1.4354471 1.8686403
-1.1334307 0.8170994 -2.0227609 3.218797 -1.0274692 1.6778177 -2.74856 -0.666408
-2.2398622 -0.72209233 -2.4114113 0.11611245 1.3585688 -1.0388937 1.3809823 0.75824153
-0.77427715 0.23782685 1.8269353 -3.3018954 0.47543046 -1.5070995 1.4537342 -0.52170146
-0.708365 2.1943564 -0.24486777 -1.055808 -0.47976354 2.8556366 -2.1689057 3.1147578
0.643268 3.3290865 -1.5958713 1.7398434 -2.5213492 -4.237805 1.7537444 -0.68253434
-3.149635 -1.7649897 -1.8202585 -2.1091833 -0.92026675 -1.5275092 2.1486645 -2.2178228
2.2561193 -0.9915272 0.32768047 -2.23849 -0.7677644 0.9952518 -2.6126564 0.397632

linear0.weight f4 [32, 384]
00000000: 0845 5ebd 1c6d 513c 88a5 abbd 2bbc b4bc
00000010: 713c 8a3d d9df 813d 93ae 8dbd 08ae 0f3d
00000020: 710c ce3d 7390 be3d a976 5dbd 3111 3c3d
00000030: c315 753d fdc3 743d 522b cfbd 45e5 cabd
00000040: 8db2 d93c 98ba 74bd 56a0 97bd ff62 943a
00000050: a421 f9bc 0e51 ffbc 3bba cebc c0bf cfbd
00000060: 8f11 6ebd eb0b c9bd 76ab 603c cde6 da3c
00000070: 5e5e c83d be57 c13c 5321 b2bd 5a7b b43d
00000080: 75dc b2bd 75ae 283c 89d3 a23c 4e40 9cbb
00000090: 760b 66bd 7808 5fbd 3949 c2bc b4ad 03be
000000a0: 19d5 953d 768c 963d f298 953d 71e0 39bd
000000b0: 99fd eabc 0ede 4e3d a154 acbc 42f1 1bbd
000000c0: 8c93 d03d 9b1e 99b9 ea0c a43d 3011 59bd
000000d0: df3b 243c 326d acbd fe33 153c 4df7 88bd
000000e0: 018b 6cbd 7512 fc3d 6d9d bb3c 5102 463d
000000f0: 2d26 62bd 846a 8c3d 92d9 8abc 4f51 78ba
00000100: 45b3 06bc 8ca7 363d db33 5abd ad88 38bd
00000110: 6005 4c3d 38a3 123d 4751 9dbd 7b0a 9c3d
00000120: 6464 923d 2346 bb3d 904d 89bd aee3 903d
00000130: 5af2 ac3d 488a fd3d 20a6 a4bd 9fab 47bd
00000140: bb7e 0a3c 2f0d 77bd 396f f8bd 028e 383b
00000150: f463 f2bd dc53 a0ba ab18 87bd 532b c3bd
00000160: c47d a1bd 6207 4cbd a38a 9dbd 95b2 dd3d
00000170: c1d7 b63d e078 2bbd 3e13 9fbd d12d 8e3d
00000180: 05a7 d6bd 056b 483d bbb9 a63d 22ae b7bb
00000190: 815b 23bd e84a c3bd 648b 5339 5cdd 3dbd
000001a0: 8f42 e93d fd41 babc 9cb6 cfbb 23a7 debd
000001b0: e5e0 9abd 9fe3 073e bf4d 2ebd 5d8b c13d
000001c0: 6c41 863d 595c 153c 6131 eb3d dcbc a8bd
000001d0: f7c0 923d 5e34 1ebd f055 6f3d 55f5 0bbd
000001e0: cece b5bd 2db8 a53d 2bd5 643d cad9 ac3d
000001f0: e0a3 82bd 7515 d83c 520f 4fbd 4992 f83c
00000200: 21d9 73bc 3a81 16bd f3c3 cebd 21c6 d1bc
00000210: 31fe c5bc 5155 cbbd 1fb1 0bbe ef06 debd
00000220: 00fb 3c3d 5f9b cebc ffdc d5bc 5a82 23bd
00000230: e120 debd f30e 9dbd d0e0 e83b 2fbc d8bd
00000240: 171c 8cbc afbf 5dbc 3f7c 71bd d40f c5bd
00000250: b712 09bd ffd0 4dbd 2f73 c6bd a5ff 33bd
00000260: 2189 70bc 3fa4 ddbd 01c5 203d 0651 a1bd
00000270: a13b 97bd f633 a9bd f747 8ebd 3a01 a8bd
00000280: f755 09bc 7f3f 9dbd 2902 80bc ca07 93bc
00000290: 51d1 cebc e1d5 43bd ff3e 3bbc e6e4 21bd
000002a0: 4765 8ebd 8622 163d efd5 c6bd 5a0b a1bd
000002b0: 6f1b bcbd 4f0a ddbd bfb5 d8bc e1af e5bc
000002c0: 30a4 96bc b128 003d 27f1 80bd 3fd1 c8bc
000002d0: f0cb eb3b 2f02 03bd b477 f5bd 71f2 49bd
000002e0: e156 5dbc 0082 7abd c128 83bd a60a a9bc
000002f0: 3133 9abd 8104 c3bd 1a23 a8bd 0fd2 d1bd
00000300: 4747 84bd 4230 913c dc41 8dba a2a6 56bb
00000310: 13fa 5bbd 1db6 a7bd c8cf 0dbd aa5a fabc
00000320: 4500 4e3d d0ce b3bc 6365 173d 510f 08bb
00000330: 034b ba3d 94dd dc3d 43c5 c73c 1341 573d
00000340: 8c85 a2bd 6e42 56bd 9ccd 623d 19e5 ad3d
00000350: bb85 2b3d eac6 913d c80b 2d3d 52c4 953c
00000360: 6f90 a63c 8dca 24bb c06e 993b aa07 2dbd
00000370: 38aa 1bbd cb52 13bd 068a 20bd 7159 753d
00000380: b67c b4bd 538d 32bc afde 0c3e 47be e03d
00000390: e8fa 1e3c 7a88 fc3c 4260 3e3c 5666 ed3c
000003a0: 31ed 4b3d 0f80 1b3d 9a92 29bc d1e5 4ebd
000003b0: dfe8 1dbd 002f 3439 6fa7 443d f075 713c
000003c0: 1161 42bd 4b07 363d e13c d7bb 807a 3dbd
000003d0: df50 003d 1f42 373d f7d9 0cbd a8ac 033d
000003e0: 8125 3d3d cfab 423d 5fc1 483d bf5a 4fbc
000003f0: 9f32 aa3c 30bc 1f3d 07e2 8abc 0063 7fbb
-0.054265052 0.012782361 -0.08381182 -0.022062382 0.067498095 0.06341524 -0.06918063 0.03507808
0.10060967 0.09304895 -0.05406824 0.045914833 0.059835207 0.05975722 -0.101156846 -0.09907011
0.026574397 -0.059748262 -0.074036285 0.0011321007 -0.030411549 -0.03116658 -0.025235286 -0.10143995
-0.058122214 -0.09816726 0.0137127545 0.026721383 0.09783624 0.023601409 -0.08697762 0.0881259
-0.08733455 0.0102955 0.019876258 -0.004768408 -0.056163274 -0.054451436 -0.023716556 -0.12859231
0.07316036 0.073510095 0.07304563 -0.04538006 -0.028685378 0.050504737 -0.021036448 -0.03807188
0.10184392 -0.00029205237 0.08010276 -0.052994907 0.01002404 -0.08419265 0.009106634 -0.06687794
-0.057749752 0.12308208 0.022902215 0.048342053 -0.05521219 0.06856254 -0.016949449 -0.0009472565
-0.008221452 0.04459338 -0.05327211 -0.04505222 0.049809813 0.03580019 -0.07681518 0.076191865
0.07148054 0.09144237 -0.06704247 0.070746765 0.084446624 0.12379891 -0.08039498 -0.048747655
0.008453066 -0.060315307 -0.12130589 0.0028160815 -0.11835471 -0.0012232023 -0.06596502 -0.09529748
-0.07885316 -0.04981173 -0.076924585 0.108250774 0.089278705 -0.041863322 -0.07767342 0.069423325
-0.10481075 0.048930187 0.08140894 -0.005605475 -0.039882187 -0.095357716 0.00020174455 -0.046353683
0.11389648 -0.022736544 -0.0063389074 -0.108717225 -0.075624265 0.13270424 -0.042554613 0.094504096
0.06555447 0.009116256 0.11484028 -0.08239147 0.071657114 -0.03862416 0.058431566 -0.034169514
-0.088773355 0.08091769 0.055867355 0.084399775 -0.06378913 0.026377419 -0.05055172 0.030343192
-0.0148833105 -0.036744334 -0.10095968 -0.02560717 -0.02416906 -0.09928382 -0.13641785 -0.10841166
0.04613781 -0.025220571 -0.026106356 -0.039919235 -0.10846115 -0.07668867 0.007106878 -0.10582768
-0.017103238 -0.01353447 -0.05895638 -0.096221596 -0.033465113 -0.050248142 -0.09689938 -0.043944973
-0.014681132 -0.10822343 0.039250378 -0.07876782 -0.0738442 -0.08261864 -0.0694732 -0.08203359
-0.008382312 -0.076781265 -0.01562603 -0.01794805 -0.025246294 -0.047811393 -0.011428594 -0.039524935
-0.06952911 0.036654018 -0.09708773 -0.07863493 -0.0918492 -0.10792982 -0.02645385 -0.028037967
-0.018388838 0.031288806 -0.06295996 -0.024513839 0.007195942 -0.031984504 -0.11985722 -0.049303476
-0.013509483 -0.061159134 -0.064042576 -0.02063496 -0.07529295 -0.095223434 -0.0820982 -0.102451436
-0.064589076 0.017723206 -0.0010777074 -0.003275313 -0.053705286 -0.08189032 -0.034621984 -0.03056081
0.050293226 -0.021949202 0.036961924 -0.0020761082 0.090963386 0.1078445 0.024386054 0.052552294
-0.07935628 -0.052309446 0.055371866 0.084909625 0.041875582 0.07118018 0.042247564 0.01828209
0.020332543 -0.0025145144 0.004682392 -0.042243637 -0.03800413 -0.03596763 -0.03919413 0.05989975
-0.08812849 -0.010897952 0.13756822 0.109737925 0.009703375 0.030826796 0.011619629 0.028979462
0.04978675 0.037963923 -0.010349894 -0.05051214 -0.03855216 0.00017183647 0.04801124 0.014737591
-0.04745585 0.04444055 -0.0065685366 -0.046259403 0.031327125 0.044740792 -0.034387555 0.03214708
0.046178345 0.04752713 0.049012538 -0.012655913 0.020776091 0.03899783 -0.016953481 -0.003896892

linear0.bias f4 [32]
00000000: 352f c6bd 3e7c 26be 0bee c33d 81e5 8ebe
00000010: dba1 13bc 59a0 d2bd 119d edbc fcc8 cf3e
00000020: 4f88 23be d51d a5bd 11df e6be b745 84be
00000030: c046 8dbe f9a4 ccbe 5bbe 903d 0aa2 67be
00000040: f244 92be 3690 773d 71e4 4abe f1c5 b7bd
00000050: 4d15 75bd cdc6 93bc 7dc7 bd3d 1823 3a3e
00000060: cb97 7c3c 9c0e 38be c961 90bb 233c 28bd
00000070: d374 423d 6497 8cbd 5c80 6ebe 8934 51be
-0.09676973 -0.16258332 0.095668875 -0.27909473 -0.009010757 -0.1028449 -0.02900556 0.40583026
-0.15969966 -0.08062331 -0.4509206 -0.25834438 -0.2759304 -0.39969614 0.070675574 -0.22620407
-0.28568226 0.060440265 -0.19813706 -0.08973301 -0.059834767 -0.018039132 0.09266565 0.1817745
0.01541705 -0.17974323 -0.004406188 -0.041072976 0.047474694 -0.06864813 -0.23291153 -0.20430197
