model/1715146453/4_Pee1_global_model_1.pth (torch, 331092 bytes, 17 tensors)

conv1.lin_l.weight f4 [16, 1]
00000000: 712a 22bf efad 5ebc f6ad 2fbf 91ff 26bf
00000010: e14e 00bf 1b78 8e3e 110e 56bf f264 1fbe
00000020: d6b5 22bf 47ad b13d 385f 88be 06d2 61bf
00000030: 426a 483d 3fa2 f8be 1836 c73e 618f e8be
-0.6334601 -0.013591274 -0.6862482 -0.65233713 -0.5012036 0.27826008 -0.83615214 -0.15565851
-0.6355871 0.08675628 -0.26635146 -0.88211095 0.04892946 -0.48561284 0.38908458 -0.4542189

conv1.lin_l.bias f4 [16]
00000000: 06cb 1ebe 5abf 173f 7b46 8abf 5fc6 be3e
00000010: 1f0d e33e 57b4 90be b1bd 51bf 0eeb c83e
00000020: ffcb 2a3f 590b 32bf 8fe3 213f bc15 72bf
00000030: 9775 fe3e 507c 84be cea8 c9be d053 d9bd
-0.15507135 0.59276354 -1.0802759 0.3726072 0.44345948 -0.28262588 -0.8193007 0.39241832
0.66717523 -0.69548565 0.6323785 -0.94564414 0.4969909 -0.25876093 -0.393866 -0.10611689

conv1.lin_r.weight f4 [16, 1]
00000000: d1bd 7fbf a187 00bf 5e64 3e3e b14b 5bbf
00000010: 116b a5be fbe3 163f 1b56 38bf 994d ed3d
00000020: 8fee f9be 6a2d 51bf 2f62 57bf ee16 d53d
00000030: a993 44bf e1b7 4bbf 2933 8dbe 8034 65bd
-0.9989901 -0.50206953 0.18592975 -0.8566237 -0.32308248 0.5894162 -0.72006387 0.11587066
-0.48814818 -0.8170992 -0.8413419 0.10404764 -0.7678781 -0.7957745 -0.27578095 -0.05595827

conv2.lin_l.weight f4 [64, 16]
00000000: b199 acbd 5f13 0f3e 9fb9 b8bc a991 0f3e
00000010: 893a 0abd cf01 61bd f047 17be bfe4 c73d
00000020: 5f6a fc3d 2f9a 3e3d 27c1 06be 1745 0f3e
00000030: aa5e 9d3d 8a2e 243e df34 c3be 512e 42be
00000040: 4696 173e c6e1 93be 41ad a43d f16e 2d3e
00000050: 2f3d 903d 31a4 493d 613d a1bd 38c6 86be
00000060: 71f1 563e efe9 88be e167 72be 96ce 9cbd
00000070: 8117 61be a061 1bbe 162b 99be af1f e4bd
00000080: 21e9 85bd 550c b7bd 8c63 263e e079 60bc
00000090: 4088 bc3b d11e bcbb a158 e23d ae82 153e
000000a0: 25f3 b63d ef7e cabd c0a1 23bc 8b84 c43d
000000b0: c705 8abd 81d2 04be 2005 96be 60d2 48be
000000c0: af3e f83d afa2 6abe cf22 c9bd 5157 e83d
000000d0: bf00 e93d 0992 90be 802a 913c 765c 1ebe
000000e0: b0fc be3c 5bef b6be c180 223e 40de 86bc
000000f0: df2e aabe 5fce 3f3e c0a3 d53d 71b9 febd
00000100: 8f6e 433e 3122 de3d e51a 3abe e651 a83d
00000110: a0d9 53bc f02b 5ebe 5009 2f3e ffbf a6be
00000120: 6ff4 1f3e 51d1 72be 00bc 7e3e e16c 80bd
00000130: 91d3 1dbe c117 23be ef7a a3be 8148 39be
00000140: ef9d 48be 41f9 8ebd 3fc6 84be 418a f4bd
00000150: 41a0 753e f63b 13be b087 debd 0b5b 2bbd
00000160: c147 743e df99 72be bf38 1b3e effa c2be
00000170: dac7 a9be f0ea e83c 3149 e6be 9036 00be
00000180: 2168 53be ba4e a3bd c17a dabd c086 9e3b
00000190: 01f7 51be 1118 9ebe e183 22be e119 8bbe
000001a0: a0d8 1c3c e58c 1b3e 2142 4abe 1bcf 2c3e
000001b0: 4f7b 353e 0f5b 7e3e 8ca3 0bbe f073 e03c
000001c0: 11b3 e33d 0fa7 51be 4fc7 e9bd ef91 c8bd
000001d0: 00b4 0e3e 8153 0cbe 2170 2bbe cf28 91be
000001e0: dfc2 e7bd 215c bcbc 6ff2 3cbe 97a4 84be
000001f0: a117 aebd c183 cbbd 4fa0 4dbe 810e 18be
00000200: d067 f0bc f0c5 303d c182 01be 5f91 c2bd
00000210: 7002 073e df2c 07be bf44 7bbe 1fe8 f23d
00000220: f1a2 d73d c192 543e 0100 c43d 002c d8bb
00000230: 4100 7f3d f1dc 523e a04a 09bc 2124 1cbe
00000240: 10a9 4abd fbb3 37be 16f4 973d 7136 913d
00000250: 9f3a 4bbe 21f4 68be 6f0f 5ebe 7f1a e3bd
00000260: d0e0 033d f133 d13d bfe3 76be fa3e 9dbe
00000270: 5143 bb3d a16b 713e 8f86 ea3d 0082 153d
00000280: 70d5 83bd 7094 ccbc 9115 083e 016d 153e
00000290: e175 45bd bf1b 4dbe 7041 edbd 0524 313e
000002a0: 4117 00be 0f5f 823d 0145 cf3d 1053 fcbd
000002b0: 1b8b 2ebe bfe5 573e 1bd7 2f3e 50e2 29bd
000002c0: a1da 45be d1ce 31be 0024 eb3c 5064 fe3d
000002d0: 2138 5f3e 1f17 b73d 60fa 623c 6aa8 23be
000002e0: b1a5 183e a6d5 9f3a 4fd7 72be 3fff c0bd
000002f0: b1bd 8bbd 30b4 8c3c b661 9ebe 81b5 4bbe
00000300: cfb7 48be 9f04 0bbe 4f9f 9bbc 0f93 ffbd
00000310: a178 573e df62 d3bd e09e 143d bf69 25be
00000320: 8f84 02be 0b1a afbd cfb3 063e 1ab8 193d
00000330: af15 d33d e1cb 563d c624 163e a058 c13c
00000340: 6161 7abd 5f18 02be c2cf 05bd 11af 243e
00000350: 51ac c33d af55 833d a082 24be e626 a43c
00000360: cf5f 353e 9e8b 023e f51e 32be 2f29 afbd
00000370: c61c 933c 90d7 11bd efdd 963c f03c 893d
00000380: 1fcc 413e e66c a23d 8152 3a3e f080 fe3d
00000390: 10ec 58be 1931 0cbe d04a 603e 10fa 99bc
000003a0: b763 0cbe af7a 6d3e e0a8 e93c 110f 0cbe
000003b0: 1f1e 5fbe 4041 e3bb 2f33 8a3d 61da 54bd
000003c0: 71b6 143e c7cc 8b3e 21ac 0f3e d047 3b3e
000003d0: e179 f33d 5118 c33c 803a 82bc ff02 5e3c
000003e0: cf51 64be 5769 8b3c 01c4 ed3d a62f 9c3c
000003f0: ff80 0cbc e10d cc3d 313f 5a3d 00ff e53b
-0.08427752 0.13972233 -0.022549449 0.14020409 -0.03374723 -0.054933365 -0.14773536 0.09760427
0.12324976 0.04653376 -0.1315962 0.139912 0.07684071 0.16033378 -0.38126275 -0.18962981
0.14803419 -0.2888319 0.08040858 0.16936852 0.0704292 0.04922885 -0.07873035 -0.26323104
0.2099054 -0.26740977 -0.23672439 -0.07656591 -0.21981622 -0.1517396 -0.29915684 -0.11138856
-0.065386064 -0.08937899 0.16248912 -0.013700932 0.005753547 -0.0057409783 0.11052061 0.14600632
0.08933095 -0.09887492 -0.009987295 0.09595593 -0.06739383 -0.12970926 -0.29300785 -0.19611502
0.12121331 -0.22913621 -0.09821092 0.11344779 0.113770954 -0.28236416 0.01772046 -0.15464959
0.02331385 -0.3572949 0.15869428 -0.016463399 -0.33238885 0.18731068 0.104316235 -0.12437714
0.19085144 0.10846365 -0.18174322 0.08218746 -0.012930304 -0.21696448 0.17093396 -0.32568356
0.15620588 -0.2371266 0.24876404 -0.06270767 -0.15412737 -0.1592703 -0.31929728 -0.18094064
-0.19591497 -0.06981135 -0.259325 -0.11940432 0.23986913 -0.14378342 -0.10865724 -0.041834872
0.23855497 -0.2369151 0.15158366 -0.38082072 -0.33160287 0.02843234 -0.44977716 -0.12520814
-0.20645191 -0.07974 -0.10667945 0.004837841 -0.20504381 -0.30877736 -0.1587062 -0.27168182
0.009573132 0.15190466 -0.19751789 0.1687588 0.1772282 0.24839424 -0.13636607 0.027399033
0.111181386 -0.20473884 -0.11414968 -0.097934596 0.13935852 -0.13703729 -0.16741993 -0.28351447
-0.113164656 -0.02299315 -0.18451856 -0.25906822 -0.085006006 -0.099372394 -0.20080684 -0.14849283
-0.029346377 0.043157518 -0.12647535 -0.095003836 0.13184524 -0.1320071 -0.24537943 0.1186068
0.105291255 0.20759107 0.09570313 -0.006597042 0.0622561 0.20592095 -0.008379608 -0.15248157
-0.049477637 -0.17939751 0.074196026 0.07090462 -0.19846581 -0.22749378 -0.21685575 -0.11089038
0.03219682 0.10214985 -0.24110316 -0.3071211 0.09143699 0.23576213 0.11451446 0.03650093
-0.06437194 -0.024973124 0.13289477 0.14592363 -0.04820812 -0.20030116 -0.11584747 0.17298897
-0.1250887 0.06365787 0.10120583 -0.123205304 -0.17045252 0.21083735 0.171719 -0.041475594
-0.19321682 -0.1736405 0.02870369 0.12421477 0.21798755 0.08939957 0.013853639 -0.15982214
0.14906956 0.001219441 -0.23714946 -0.09423684 -0.0682329 0.017175764 -0.30933923 -0.19893457
-0.19601367 -0.13575982 -0.018996863 -0.12479221 0.2104211 -0.103215925 0.036284328 -0.1615362
-0.1274588 -0.08549889 0.13154529 0.03752909 0.1030687 0.052440528 0.14662465 0.02360183
-0.061128024 -0.1270461 -0.032668836 0.16082408 0.09554351 0.06412827 -0.16065454 0.02003808
0.1771233 0.12748572 -0.17394622 -0.08552777 0.017958056 -0.035605967 0.018416373 0.06701076
0.18925522 0.07930927 0.18195535 0.124269366 -0.211838 -0.13690604 0.21903539 -0.018795997
-0.13709913 0.23191331 0.028522909 -0.13677622 -0.21788834 -0.0069352686 0.06748044 -0.051966075
0.14522721 0.2730467 0.14030506 0.18289113 0.11888481 0.023815306 -0.015897036 0.013550519
-0.22296833 0.017018003 0.116096504 0.01906569 -0.008575677 0.09963585 0.05328292 0.0070189238

conv2.lin_l.bias f4 [64]
00000000: af6a 96bd 5fee f7bd 749c a5be 7174 bbbe
00000010: 0fac ddbd 8f1b b2be 90c0 2b3e ff1e 4d3d
00000020: e0d7 503d 0f4d 4fbe 9096 4f3d 214d 093d
00000030: 6fa0 013e 61d3 833c af9d 56be affb 75be
00000040: 6699 9ebd 3f83 6cbe a0e6 95be d601 9ebe
00000050: 919f 71be 5bf2 ac3d c1cf cdbd 1fa6 62bd
00000060: 4b8a 2f3e 11b2 1dbe d057 023e 211d cabd
00000070: 7731 88be 6f19 ac3d 6181 94be f1e3 e0be
00000080: bf55 5abe 2f69 493e 51ae dfbd e668 28be
00000090: 7f69 9bbe ea3e 213e f081 303e 506e e43d
000000a0: a618 22bd 7f52 dbbd 78f1 07bc 0158 16be
000000b0: 11f3 f0bd c1dc cfbc e0c1 4dbe 80a5 c6be
000000c0: a6f0 a1be 8577 b5be 41ca 0f3d a1ff 56be
000000d0: b124 acbd a60a aabd 32e8 193e c5e9 b63d
000000e0: c169 b0be b1f5 403e 7ffe f9bd 9fa6 3abe
000000f0: cfa2 b93d 1181 9f3d 1f2b 1c3e 2a7f 953c
-0.07344567 -0.121060126 -0.32345927 -0.36612275 -0.10823833 -0.3478665 0.16772676 0.05007839
0.050987124 -0.2024424 0.050680697 0.03352082 0.12658857 0.016092004 -0.20958589 -0.24021791
-0.07744102 -0.23096941 -0.29277515 -0.30860776 -0.23596026 0.08444663 -0.100493915 -0.055334207
0.17142598 -0.15399958 0.1272881 -0.09868837 -0.2660024 0.084032886 -0.29004958 -0.43923905
-0.21321772 0.1966903 -0.1092192 -0.16446266 -0.30353925 0.15746656 0.17237067 0.11153853
-0.039574288 -0.10709094 -0.008297317 -0.14682008 -0.11765111 -0.025373818 -0.20093489 -0.3879814
-0.31628913 -0.3544275 0.035104994 -0.20995952 -0.08405436 -0.08302812 0.15029982 0.08931307
-0.34455684 0.18843724 -0.122067444 -0.18227623 0.090642564 0.07788289 0.15250824 0.018249113

conv2.lin_r.weight f4 [64, 16]
00000000: d0f6 22be 11fe c33d 0f00 97be a1ea a63d
00000010: 4f63 13be c730 843d 3613 263e 91e0 4cbe
00000020: 9fa4 06be 5733 003e c588 b7bd 8fa8 25be
00000030: 6f56 22be 5b15 35be 2981 0bbe ffe1 043e
00000040: 40e2 0fbd 0177 85be 09be 90be a0dc 8a3c
00000050: 60c6 063e ffed 1abe c1fb 27be efc4 a33c
00000060: 9fc6 293e e142 d6bd 2100 c7bd aa6a 183d
00000070: 8f6f 88be cf95 24be a7c1 8b3d f146 0d3e
00000080: 4114 e63d b1c7 273e 21e3 3f3e 9110 013e
00000090: 7113 203e 9c56 31ba 4023 853d 21f9 79bd
000000a0: 915a 3c3e b7f3 bdbd c0f3 63be 6fe5 763e
000000b0: d1b7 613e 0f24 49be 4a2f b5bd 9f9e 60be
000000c0: 60cf 403d 20c0 733d fff8 cabd 7f2b 50bd
000000d0: 11f3 be3d 7116 dc3b 21b2 5a3e e130 9abe
000000e0: 507d 453e e122 73be 1f4a 96bd 41bf dd3d
000000f0: 5067 cebc e1ea 533d 8f61 0bbe 91e2 a3bd
00000100: 008f af3c 00cb 093d 416f 71be a53a 32bd
00000110: 11e0 ef3d bf1d d53d d994 0abe 6fbb fd3c
00000120: 80f7 653b 316f 293c 3782 893d 550f ad3d
00000130: f6e5 a53d 9fc6 71be 8164 35bd efe1 8a3d
00000140: aff8 09be df01 07bf e1a4 0ebe a16f 453d
00000150: b887 083d 7106 93be 100a 263e 0159 02bf
00000160: f6fb 1bbe 51b5 02bf 30e1 79be a5bb b9be
00000170: 4fa4 e0be 2185 03be 41de 43be 60b4 debd
00000180: aab7 9cbd ef02 67be d0a6 d6bd b657 1d3e
00000190: df72 403e bd05 ec3d 4a42 96bd 4d53 083e
000001a0: 06cf 21be bfce 16bd 3f93 573e 0fdc 61be
000001b0: c16d d43d 00ca 2f3a 8fdc db3b ff54 6bbe
000001c0: 8158 6e3e 1104 90be b1ec 73be c110 c2bd
000001d0: 8088 7fbd 2ffe d43c 8101 5dbd 1707 0f3e
000001e0: bff2 72be 3fae f83d ff1d 4bbe 811a 5b3e
000001f0: bf14 7bbe c0f5 eb3c 5f8e 5dbd cf71 e1bd
00000200: 61d2 bd3d b138 613e 81b5 78bd 8f6b 37be
00000210: cf18 0bbe b0b7 e7bd f991 053e f058 4fbe
00000220: 3ff4 3a3e a675 a33d 6a41 9a3d 6f64 34be
00000230: affe e5bd c167 18be 011b da3d 3008 d83d
00000240: 5079 3e3e 6ff7 42bb f1df 6b3d d008 7f3d
00000250: 10a7 60bd e194 213d 2f15 34be 4f27 69be
00000260: 60ef 373d 603a 84bc 00d1 ca3c b129 0dbc
00000270: 1f75 40be 5fa0 cdbd 7118 f8bd a9b5 0fbd
00000280: 9f6b b4bd 8f2f 4a3e 6f75 193e 013d 70be
00000290: bf8c c03d e1ac 5cbe 30fd b23d cfa2 78be
000002a0: c9a2 0f3d cfc8 1abe c088 7c3e 7f15 61be
000002b0: c1d9 fcbd c15a 713e 9ff7 46bd e114 7a3e
000002c0: a12f 60bd f122 0d3e 9140 79be e076 303d
000002d0: f01e 863d af09 80bd b122 febd ffc8 6dbe
000002e0: c1b2 e13d 114c afbd 3b83 303e 2be4 373e
000002f0: 1f80 1a3e 202e 973d efc2 43be 4034 333e
00000300: 01c2 3cbe 216b 38bc 2b1d b7bd a01e 1b3e
00000310: 5fd1 1d3e bfe1 3bbe 66b9 243e e1bc be3d
00000320: efac a53d f152 f6bd 7f32 1fbe df85 6bbe
00000330: afc3 36be 4ff7 51be 4024 cc3c 4ff3 363e
00000340: 2f27 623e c060 0dbe bfb6 02be 9f54 613e
00000350: 30ea bc3c 412e 91bd c03c 003e 2197 45be
00000360: f137 31be 8f4c 11be 5fc8 c1bd 9936 8c3d
00000370: 6fa9 02be 6f19 7c3e 41a0 51be b088 11be
00000380: 6567 333e 419e 743e 7196 6ebe df35 47be
00000390: 47c5 00be 8153 c5bd 8067 5abe 210f d33d
000003a0: 5740 923d a0fe 9a3d d0c8 5a3d 11ef 683e
000003b0: 16c1 94bd 3598 33be 813d 433d 80c9 193e
000003c0: 5077 61be 0fae 91bd 0f78 19bb c121 653d
000003d0: e011 96bc 5f32 9cbd 80ce 653b 3141 573d
000003e0: 2068 0fbd 6f86 c8bd 21c1 e23d 918a 473d
000003f0: 7f76 4c3e a0d9 943d 4186 0bbe 307e b2bd
-0.15914464 0.09569944 -0.29492232 0.08150221 -0.14393352 0.06454616 0.16218266 -0.2000754
-0.13148735 0.12519585 -0.089616336 -0.16177581 -0.15853284 -0.17683928 -0.1362349 0.12976836
-0.03512788 -0.26067355 -0.28269985 0.016950905 0.13161612 -0.15129851 -0.1640463 0.019991366
0.16579674 -0.10461975 -0.097168215 0.037211098 -0.26647612 -0.16072772 0.06824046 0.13796593
0.11234332 0.1638477 0.18738987 0.12603976 0.15632416 -0.000676492 0.06500864 -0.061028603
0.18393923 -0.092750005 -0.22260952 0.2411096 0.22042777 -0.19642662 -0.0884691 -0.21935509
0.04707277 0.059509397 -0.099107735 -0.05082273 0.09323705 0.0067165424 0.21357013 -0.30115417
0.19286084 -0.23743774 -0.07338356 0.108274944 -0.025195748 0.05173767 -0.13611434 -0.080021985
0.021430492 0.03364086 -0.23577596 -0.04351296 0.11712659 0.10406064 -0.13533343 0.030973164
0.0035090148 0.0103414515 0.0671429 0.0845019 0.08100502 -0.23610924 -0.0442853 0.06781375
-0.13473772 -0.5273723 -0.13930084 0.04820216 0.033332556 -0.28715852 0.16214776 -0.5091706
-0.15232834 -0.51057917 -0.24402308 -0.36275974 -0.43875358 -0.12843753 -0.19127752 -0.108742476
-0.07652219 -0.22559713 -0.10481036 0.1536549 0.1879382 0.11524532 -0.073368624 0.13313027
-0.1580163 -0.036818262 0.21052264 -0.22056602 0.103724964 0.00067058206 0.0067096422 -0.22981642
0.23275949 -0.28128102 -0.2382076 -0.09475852 -0.062386036 0.02600011 -0.053956512 0.13967548
-0.23725413 0.1214261 -0.19835661 0.21396829 -0.24519633 0.028803706 -0.054090854 -0.110080354
0.09268642 0.21994282 -0.06071997 -0.17912124 -0.13583682 -0.113143325 0.13043965 -0.2024877
0.18257235 0.07981424 0.07532008 -0.17616437 -0.11230218 -0.14883329 0.10649682 0.10548437
0.18600965 -0.0029749533 0.057586614 0.062264264 -0.054846823 0.039448623 -0.17586206 -0.22768901
0.04490602 -0.016141117 0.024757862 -0.008615897 -0.18794678 -0.10040354 -0.12114037 -0.035085354
-0.088095896 0.19744705 0.14986204 -0.23460771 0.09401845 -0.21550323 0.08739698 -0.24280857
0.035067353 -0.15115665 0.24661541 -0.21980856 -0.12346221 0.23569776 -0.048575994 0.24422027
-0.054732922 0.1378286 -0.24341036 0.043082118 0.065488696 -0.06251847 -0.124089606 -0.23221205
0.11020423 -0.085594304 0.1723756 0.17958133 0.15087937 0.073818445 -0.1911733 0.175004
-0.18433382 -0.01125601 -0.0894111 0.15148401 0.154119 -0.18347834 0.16086349 0.093133695
0.08089625 -0.120275386 -0.15546606 -0.23000287 -0.17848085 -0.20504497 0.02491963 0.17866252
0.2208526 -0.13806438 -0.12765025 0.22004937 0.023060888 -0.070889 0.12523174 -0.19295932
-0.17306496 -0.14189361 -0.09462046 0.06846351 -0.12759946 0.24619077 -0.20471288 -0.14212298
0.1751991 0.23888494 -0.23299576 -0.19454144 -0.12575255 -0.09635068 -0.21328545 0.1030562
0.07141178 0.07568097 0.053414166 0.22747447 -0.07263391 -0.17538531 0.047666077 0.15018272
-0.2201817 -0.07113277 -0.0023417508 0.055940393 -0.01831907 -0.07626795 0.003506571 0.052552406
-0.03501141 -0.09791266 0.11071993 0.04871613 0.19967078 0.07268071 -0.13625433 -0.087154746

lstm_cell.weight_ih f4 [256, 192]
00000000: 1188 003e 30ff 3c3e b71d 92bd 0a3e 993c
00000010: 8a37 293d 0531 39be 1985 443d b763 8b3d
00000020: 9f15 d4bd 8f0f bdbc a5f1 b33d 79f6 103e
00000030: ffc4 0b3e 8181 433e 80dd b03b 2173 4fbe
00000040: b64f 1c3d 1107 2c3e 2f65 43bc 403b 093e
00000050: c1b2 e03d 8127 273c 158a 2d3d 7fc2 713d
00000060: 20ad 12bd ff62 fc3d 41be ee3d 3bae 343e
00000070: b18c 3fbd 7fbd b7be ef97 443e b183 47bd
00000080: 3071 3cbc 2179 3a3e c13d 4abe 9ad9 213e
00000090: 8194 863c b12d febd bfc3 263d 5730 0fbd
000000a0: cf93 0fbe 0034 ce3d bff1 c73d 4938 0b3e
000000b0: d63d 533e a19c 35bc 2a26 ae3d 50dc 3dbd
000000c0: 3f54 3aba 301e 51bc a001 28bd 8feb d83d
000000d0: 31be a93d 5671 1e3e 5af9 4c3e 8a4d 14ba
000000e0: 4066 f03d 71a8 283e 61bc b0ba c115 5b3e
000000f0: 4fac 1b3e a05b ed3d cf82 5fbd a1a7 973d
00000100: ff15 84bf 3e72 5840 d334 2a40 7f06 3540
00000110: 4dcf 1140 c4f1 b640 f8d6 e540 19c5 b7bd
00000120: 19ff b540 0438 f340 4180 f040 c3db d340
00000130: 0a95 cb40 f6fe d740 f484 0c41 a9ea f440
00000140: 7005 fd40 c06d d940 f219 ef40 2669 ed40
00000150: e449 ed40 562c a83d 37fa 0541 5368 aa40
00000160: 730f e640 e066 e540 e37a e040 a84f 0141
00000170: 5b60 ea40 c0e3 263c 4391 823d e421 6e3d
00000180: b0be 4dbd 9bc2 dfbd da9c 843c d1ba 9d3c
00000190: a84f ac3c 011f 2a3d 86ea 0ebe 2049 963b
000001a0: 01d8 903d 60f6 fdbb 9fb2 efbd c1c3 e5bd
000001b0: 008f 6c3b 7066 02bd f014 6d3c c05b 55bd
000001c0: a08e 97bd bf85 053d e06b fbbc 00c3 933b
000001d0: e066 53bc 3f0c a6bd 0526 b1bd b183 f6bd
000001e0: effe c63d c05a 3c3c 85b9 b7bd ff54 e83d
000001f0: bf37 aebd 0f7a e6bd 411d 433d 09af 90bd
00000200: 41c6 febc d104 fe3f 3ff0 a33f d90a f0be
00000210: 7921 08bf 185d 1440 ff74 d43d 4c5e 5640
00000220: 5481 d440 e8e4 ba40 20e2 b8bd 5c3d ec40
00000230: 89a7 f640 20ce f840 59bd ce3d 1818 0641
00000240: 9c12 1141 c18a 0041 4738 f240 6475 e540
00000250: 6d1a dc40 76cc ce40 ad87 2b3c 326d 0441
00000260: 5054 ce40 9aea 5f40 3d79 5d3d 3181 e040
00000270: d455 8440 d2ae 0941 678c f03d 916e 813d
00000280: 56b6 653d f491 953d 138c 08be 77fe 8dbd
00000290: ac40 bdbd d590 e1bd 93ea b0bd 6d50 edbd
000002a0: 8fca 493d df34 ea3d ff2f 913d bfee 24bd
000002b0: 113c 02bd 6175 593d bfe1 b63d d016 c4bd
000002c0: 4af8 a6bd 8fa3 3dbd 97f4 8ebd a5ba 2c3d
000002d0: e17b f8bd 5058 b93d 40fe 3ebb 7162 e33d
000002e0: f13b 243d 214e 83bd 008a 10bd 6524 acbd
000002f0: 5a43 1e3d b1a7 a8bd 814e f23d 4f94 b63d
00000300: 11d1 2f3d 9f85 203d 9e09 0f3f 817e cf3d
00000310: 6592 b23d 7a88 12be fb11 85bc 6f5b f93c
00000320: d07d 61bc 217d e1bc 4167 fb3d 3142 db3b
00000330: 27cd 0dbd 5167 c73e 760d a8bd d1b5 173f
00000340: b95e 8b3c e1fe 563d 61c6 00bd 4bb6 f83d
00000350: 0fbd 3d3e 0088 a33d 81df 4cbd 150f 333e
00000360: e0be 7e3d 6f3d 603d 30d5 0e3c 81c4 973e
00000370: 19f8 0bbc 0189 333f 1ab0 143f 8a14 293d
00000380: 3f52 883d ff1c 56bd e193 563f 5f7d 32bd
00000390: 9fda 47bd dfa1 dd3d e014 d9bc b873 823c
000003a0: 10d4 2d3f e018 c73c af67 443f f922 003e
000003b0: 4dd1 b43e 8912 063e 96df 183d a6e8 9f3d
000003c0: 3f43 adbd caab 143d cf9d b63e bf46 2bbe
000003d0: efef bfbd ba9d 96bd ccf3 f43d 31b1 d63c
000003e0: 86a7 9fbd 3964 0b3e c1e4 213e df78 613d
000003f0: bfd5 513d bf0e 62bd 1fe1 e5bc 7154 033d
0.12551905 0.18456721 -0.07134574 0.01870634 0.04131273 -0.18085106 0.047978494 0.068061285
-0.103556864 -0.023078708 0.087863244 0.14156522 0.13649367 0.1909237 0.0053974986 -0.20258762
0.038161956 0.1679957 -0.0119259795 0.13401508 0.109715946 0.01020229 0.042368013 0.059023377
-0.035809636 0.123235695 0.11657382 0.17644589 -0.046765033 -0.35886762 0.19198583 -0.048709575
-0.011501595 0.1821027 -0.1975012 0.15805665 0.016428234 -0.12411059 0.04071402 -0.03495821
-0.14021228 0.10068512 0.09762906 0.1359569 0.20629057 -0.0110847065 0.08503373 -0.046352684
-0.00071078906 -0.012763545 -0.041017175 0.10591804 0.08288229 0.15472922 0.20016995 -0.0005657306
0.11738253 0.16470505 -0.0013483876 0.21395017 0.1520245 0.11589742 -0.05456811 0.074050196
-1.0319213 3.3819728 2.6594741 2.8285215 2.2782776 5.7170124 7.1824913 -0.0897314
5.68739 7.600588 7.515656 6.6205764 6.3619432 6.749873 8.782459 7.653645
7.9069138 6.794647 7.471917 7.4190855 7.41527 0.082115814 8.373588 5.325235
7.189386 7.168808 7.015001 8.081947 7.324262 0.010186136 0.06375363 0.05813779
-0.050230682 -0.1092579 0.016188074 0.01925412 0.021034077 0.041533474 -0.13956651 0.004586354
0.070724495 -0.0077503175 -0.11703991 -0.11218978 0.0036095977 -0.031835973 0.014470324 -0.052089453
-0.074002504 0.032598253 -0.030691087 0.00450933 -0.012902945 -0.081078045 -0.0864983 -0.12036837
0.097165935 0.011496246 -0.08970932 0.11344337 -0.085067265 -0.112537496 0.04763532 -0.07064635
-0.031100394 1.984522 1.2807692 -0.46883276 -0.53176075 2.318182 0.10373878 3.3495054
6.640787 5.8404427 -0.09027505 7.38249 7.707951 7.7751617 0.10094709 8.380882
9.067043 8.033875 7.56937 7.17058 6.878226 6.4624586 0.010469359 8.276659
6.447792 3.498694 0.0540707 7.0157704 4.135477 8.605181 0.117455296 0.06319917
0.056082092 0.07303229 -0.13334684 -0.06933301 -0.09240851 -0.11013953 -0.086384915 -0.115876056
0.04926544 0.114358656 0.07089233 -0.04026675 -0.031795565 0.053090457 0.089297764 -0.09574664
-0.08152826 -0.04629856 -0.069802456 0.042170186 -0.12133003 0.090500474 -0.0029143244 0.111027606
0.040096227 -0.06411386 -0.035287857 -0.08405379 0.03863845 -0.082351096 0.1183138 0.08915006
0.04292399 0.03918993 0.5587405 0.101315506 0.08719329 -0.14309874 -0.016243925 0.030439107
-0.013762906 -0.027525486 0.122755535 0.0066912402 -0.034619477 0.38946012 -0.082056925 0.59261805
0.01701294 0.052489165 -0.03143919 0.121441446 0.18529151 0.07984924 -0.050017837 0.17486222
0.06219375 0.054746088 0.00871782 0.29642108 -0.008543038 0.70130926 0.5808121 0.041279353
0.06656312 -0.052273747 0.83819395 -0.043576594 -0.048792478 0.1082189 -0.026499212 0.01592432
0.67901707 0.024303854 0.7672071 0.12513341 0.35315934 0.13093008 0.037322603 0.07808046
-0.08460092 0.036296643 0.35667273 -0.16726206 -0.093719356 -0.07354303 0.11960563 0.026207538
-0.077956244 0.1361245 0.15809919 0.055046912 0.051229235 -0.055189844 -0.028061448 0.03206295

lstm_cell.weight_hh f4 [256, 64]
00000000: 6d8c e83e a93b c23e c102 893f f2d3 85c0
00000010: 03b9 aa3f 71fc 33c0 05f7 18c0 d420 1c40
00000020: 84a8 5e40 a751 473f 42be e33e 9f14 a3bf
00000030: 3c86 38bd 76ec b9bf f708 ecbf 0110 60be
00000040: 6f86 4dbf 6c64 1c3f 8777 48c0 84a5 c5bf
00000050: 98e7 3abd 6650 2640 d082 2140 01d6 46bf
00000060: a077 043f a76e 2140 7bcf 1dc0 1a87 673f
00000070: 9c15 30be 6824 3ac0 3ce1 f5bf 8a70 cc3d
00000080: 0ffe 963f 366f f9bf d283 cfbe bbda 6e3f
00000090: 070a 1c40 c4a3 b1bf 59f3 5f3e 2936 10c0
000000a0: 581c 9e3f 2e7d b7bd bc81 32c0 3568 94bf
000000b0: 705f 9fbf dc46 ecbf 6be3 113f b844 ca3f
000000c0: 4002 ea3e b477 0540 0622 00c0 ea54 343f
000000d0: 3e4a bc3f 54cd c73f 3bec 17c0 0607 4340
000000e0: b7b4 a53f 95f1 16c0 0ce0 6d3f c507 9a3e
000000f0: 09f2 3540 f368 a23f 3b0c f83e 88fd 3640
00000100: a395 df3e 99d2 f4be 9753 b03c 68c6 a13e
00000110: e1ad 0ec0 7709 30c0 dd3f 0d3f 71f8 b23e
00000120: 3380 05c0 4142 8dbf 23d4 22bf 629e 20bf
00000130: 47b9 80bf 07d2 0abf 6cde 54be f38d 2f40
00000140: c8ed 12bf 0663 80bf 86cc 51bf 022e 17c0
00000150: 7010 36bf 9e73 ea3f 3135 b33e 5051 693f
00000160: b1f9 933f dc99 8abe 155b 14c0 55dc 77c0
00000170: 4753 47bf d39a abbe 8755 0cc0 dc4c 73bf
00000180: f544 303e e2c2 c53f 8fad 69c0 871f 0640
00000190: 9a09 d13f f2df d9be 3bc3 8dbd 5dd8 3c40
000001a0: 11c0 8bbf e63c 55bf 6920 9340 e48e 263f
000001b0: 47e6 c6bf 4c37 9bbe d873 b9bf de8f 52bf
000001c0: 895f 8040 1036 01c0 23c4 9e3f eb0b 0ac0
000001d0: 2b89 573e 586c 37be ca8d 4dc0 fc82 f8bd
000001e0: a31c d6bd 1a0d edbf d865 e03f 3183 1a3f
000001f0: 0eb2 d03f a4a7 93bf a474 d53d 0385 f8bf
00000200: 301d 2a40 9f07 7d3f e1fc bd3e a906 e53e
00000210: 4819 8d40 911b a53e b06a 9a3e b474 f7bf
00000220: 5a13 0640 1ceb 1ac0 24fa d83f 3e1d f33c
00000230: 13a1 e0bd 4263 aabf 60fc f4bf 9e73 24bf
00000240: 5797 c83f adde 2e3f f420 00bf 42d2 f9bf
00000250: baeb 7340 1d69 f93e f565 b93f 43e7 c53f
00000260: 2aef 1e3f ed8f b83f 14cd d23f b5fe b3be
00000270: 4725 00c0 8ee3 2240 449e 623f 3450 8b3f
00000280: 266a c33f 88df bfbf a9fe 98bd e220 74bf
00000290: 5152 e63f 9302 f63f b045 a03f 526b 2040
000002a0: d13d 0ec0 45f4 febe 473a 1ac0 0a3d f4be
000002b0: bf2f ea3f c31f 4bc0 2b2c 533f 2ecc 8c3f
000002c0: 9efd 453e 1808 8bc0 a7a3 603f b103 6c3f
000002d0: 4e8b 79c0 a816 903f c9b4 503f 253c 903f
000002e0: 571e dd3f d81f 963e 18d1 50bf 46f2 7b3f
000002f0: 169f 3c40 c420 9dbf c21d e9be b04c cbbf
00000300: c2df d0bf 0cba 7c3f 14c7 94be fa68 313e
00000310: d70c 33bf 8a80 2f3e dcb8 77bf 19ae f1bf
00000320: 5cdb 4bc0 9186 da3f b0ed c9bf 6cd1 97bf
00000330: e655 7d3f a7f9 42bf f6a4 513e 17b4 8cbe
00000340: f8e2 e63d aae4 fd3f 9da7 f33f c0e9 69bd
00000350: 3637 87bf b39a 10bf 5f70 e83d 47f7 b43e
00000360: c907 3640 c3c6 9b3b 4286 1a3f 0971 2740
00000370: 4106 1e40 2e18 ba3f b321 c0bd c8d3 96c0
00000380: 98bb e6bf f85e 5fbf ca30 a13f bf9a e93e
00000390: 6438 b03f e008 9dbe 44a8 2540 ce05 3b3f
000003a0: 8305 33be aa7c 3540 d370 3cc0 58f5 37c0
000003b0: 48c4 0240 2338 bfbe bc80 2f40 bb82 4a3f
000003c0: 1014 2940 88b2 163d da19 15bf 9697 e03e
000003d0: ce3f 1b3d b525 49bf 435e 983e a510 1ac0
000003e0: f8e6 a8be 2c35 0340 b7e6 4fc0 2957 f3be
000003f0: f30f 9fbf a721 8dbf fb0a 053f e687 23c0
0.45419636 0.37936142 1.0703965 -4.182122 1.3337711 -2.8122828 -2.3900769 2.4395037
3.4790354 0.77858967 0.44481093 -1.2740668 -0.04504989 -1.4525287 -1.8440236 -0.21881105
-0.80283254 0.6109073 -3.1322954 -1.5441136 -0.04563102 2.5986571 2.5236092 -0.77670294
0.51745033 2.5223787 -2.4657886 0.90440524 -0.17195743 -2.908472 -1.9209361 0.099824026
1.1796283 -1.9487064 -0.40530258 0.93302506 2.438112 -1.3878102 0.21870174 -2.2533057
1.23524 -0.08959423 -2.7891684 -1.1594301 -1.2451 -1.8459125 0.5698764 1.5802221
0.45704842 2.085431 -2.0020766 0.7044207 1.4710157 1.5609536 -2.3737934 3.0473037
1.2945775 -2.358495 0.92919993 0.30084053 2.8428977 1.2688278 0.4844683 2.8592243
0.4366885 -0.47816923 0.021524234 0.31596684 -2.2293627 -2.7505777 0.5517557 0.3495517
-2.0859497 -1.1035844 -0.63604945 -0.62741673 -1.0056542 -0.54226726 -0.20787972 2.743039
-0.57394075 -1.003022 -0.81952703 -2.362183 -0.7111883 1.8316534 0.3500152 0.911397
1.1560575 -0.2707051 -2.3180592 -3.872823 -0.77861446 -0.3351656 -2.1927202 -0.95039153
0.17213805 1.5450099 -3.6512182 2.0956743 1.6331055 -0.4255367 -0.06922003 2.9507058
-1.0917989 -0.8329605 4.5977063 0.65061784 -1.5539025 -0.30315626 -1.4488478 -0.82250774
4.011662 -2.0189247 1.2403606 -2.1569774 0.21048419 -0.17912424 -3.211779 -0.12134358
-0.10454681 -1.8519623 1.753108 0.6035643 1.6304338 -1.1535535 0.10422638 -1.9415592
2.6580315 0.98839754 0.37106994 0.44731644 4.409336 0.32247594 0.3015952 -1.933249
2.0949311 -2.4206 1.6951337 0.02967703 -0.109682225 -1.3311541 -1.9139519 -0.6423892
1.5671185 0.68308526 -0.5005028 -1.951729 3.8112626 0.48713008 1.448424 1.54612
0.62083685 1.4418923 1.6468835 -0.35155264 -2.0022752 2.5451388 0.88522744 1.0883851
1.5266769 -1.4990091 -0.074704476 -0.95362675 1.7993871 1.9219536 1.2521267 2.5065503
-2.222523 -0.49795738 -2.409807 -0.4770282 1.8295821 -3.1738136 0.8248927 1.0999811
0.19335029 -4.344738 0.87749714 0.9219313 -3.8991275 1.1256914 0.81525856 1.1268355
1.7274884 0.2932117 -0.8156905 0.98416555 2.9472098 -1.2275624 -0.45530516 -1.5882778
-1.6318285 0.98721385 -0.29058135 0.17325202 -0.6994147 0.17138878 -0.9676645 -1.8881255
-3.1852636 1.7072316 -1.5775661 -1.1860785 0.98959196 -0.7616219 0.20473084 -0.27481148
0.112737596 1.9835408 1.9035527 -0.057107687 -1.0563724 -0.5648605 0.11349558 0.35344908
2.8442252 0.004753919 0.6036111 2.616274 2.4691317 1.4538629 -0.093814276 -4.713352
-1.8025999 -0.87254286 1.2593014 0.45625874 1.3767209 -0.30670834 2.588395 0.7305573
-0.17482571 2.835734 -2.9443862 -2.8743496 2.04323 -0.37347516 2.7422323 0.7910573
2.6418495 0.036791354 -0.5824257 0.4386565 0.037902646 -0.7857316 0.29759416 -2.407266
-0.32988715 2.0501204 -3.2484567 -0.47527435 -1.2426742 -1.1025895 0.5196988 -2.5551696

lstm_cell.bias_ih f4 [256]
00000000: 86b2 a4bf ee01 d63f 9b63 163f b743 4d40
00000010: 1154 3e40 6b52 5140 ed75 843f 3cdb 2740
00000020: ec7f 313f 3d69 2f3f 93b7 4b40 9b95 0740
00000030: 8231 74c0 3364 373d 14de 40c0 9211 743d
00000040: 61f9 3940 4e95 14c0 cba6 31c0 3dd3 553f
00000050: 3c9d babf b655 81c0 6b2b cfbf 36af ad3e
00000060: b439 e23f 3698 90bf e09b 523f 8537 903f
00000070: ddde 35bf 7c7f 1c40 076f 1b40 7cea 7a3e
00000080: 6a03 d23f 2019 eb3f 5001 0bbf c542 a0bf
00000090: 8809 24bf 6ec1 af3f 0aa7 78be 4783 d23f
000000a0: 48a4 f73e af05 503f b460 333f 88aa babf
000000b0: 50a2 99c0 4e11 dabf 1922 433f 8323 2fbd
000000c0: 4c63 8cc0 91e3 08c0 451e 3ac0 a86c 1d3f
000000d0: f579 1dc0 c9ea eabf cb7e 21be fe14 2dbe
000000e0: 57f6 0cc0 51e6 3fc0 75c3 a03f d1a7 2f3f
000000f0: c786 5d3f e924 4e40 7c85 1140 8963 36c0
00000100: 74f9 96bf ac6d 21bf 9fb2 aabe 5c77 5d3f
00000110: 5e0d c6bf 070c 873e b201 743f 29e9 15c0
00000120: 7c0a 553f 9af4 89bf fb0c 5bc0 962d 25c0
00000130: 5d45 3d3f b718 8f3c 1c25 f1bf c5d0 843e
00000140: 22de 6ebf acb5 ec3e 814a 1fbf fbe0 0540
00000150: 31f7 30c0 6422 463f 791e 2cc0 c56b a4bf
00000160: 01ea 523f d7ba 20bf 5095 6d3e f7e3 dfbe
00000170: 4b98 adbf fa4b 81bf bf2d 8f3e 53a4 56bf
00000180: 8597 66bd d068 3ac0 7320 78be 1855 56c0
00000190: 336b 2440 0968 67bf 70eb dfbe 691f d7bf
000001a0: 5366 c2bf 168d e13f 79ab 343f 9e37 0f3f
000001b0: 5b5a b4be 7a5f 07c0 7820 86bf 0cbe 61bf
000001c0: 2ca4 a0bf e9ac 803f 02e8 07bf a95f 0fc0
000001d0: d37c 23c0 7535 843e e30e de3e ecd7 d4bf
000001e0: 7259 1740 bb2a a73f 9e6d 88c0 fc10 0a40
000001f0: 1b19 6abe f032 03c0 01a3 343f f7f6 ebbe
00000200: d536 3f40 7fe9 93be 9193 65c0 81aa 12c0
00000210: 46ac c73f e644 04bf 797a 0f3f 8a65 bfbf
00000220: 5408 0e40 8235 06c0 563e 7540 396e 2b3f
00000230: dd83 383e 5523 3940 938d dd3f 1cb2 16bf
00000240: 47bd 1740 2d2a 9140 dcb8 0bc0 1901 753e
00000250: 3617 6abf 46ea 6e3e 0884 123f 80bf 403f
00000260: d340 1c3f be18 09bf 0ad8 7c3d b25a e5bf
00000270: 48bb 4f3f 3161 3e3f f444 1640 a090 1a40
00000280: fd9f f73f f1d2 c2bf 4757 c0be 87e8 f73f
00000290: 90bf ef3f 9f6c 97be 084b b53f 251d ab3e
000002a0: 5742 c0be 738d dd3f e9a8 07bf 6305 f13f
000002b0: fd3f 423f 5309 47ba 4e09 5540 f695 27c0
000002c0: 0977 01c0 e6aa a53e 9252 c93e ac8c 31bf
000002d0: f6b5 8ebf 3d28 33c0 dcba b4bf 89be edbf
000002e0: 8bf1 adbe 7ea5 a53f 652e 9ebf b193 1abd
000002f0: b126 e8bf 24de a7bf 851f 0140 5896 253f
00000300: b40b 8fbe 1216 86c0 4d3c 223f 6aff a440
00000310: 1517 49bf 4195 0fc0 5de1 cd3f 0e16 fb3f
00000320: 1a8e 9fbf 2257 5f3f fb5a 02c0 3bc7 5540
00000330: 9e1d 6fbf 468f d73f 1b3f 30c0 417d f3be
00000340: 278e 1bc0 d1e7 22bf 5acc 20c0 b608 d83d
00000350: f10f 953f 4cb2 7cbf 3df3 a93f 1d03 3f3f
00000360: ff09 36bf 7e9b 293e 5d4b ea3f 7ed9 4fc0
00000370: e268 d53e 071d bdbf dbf2 b23f 6c66 e5be
00000380: e4c3 4dbf 6c49 0940 5ecf a3be 7699 9bbf
00000390: 087a eebe b9f8 3540 4867 0ac0 d3ff 4340
000003a0: 1027 163f d8bf 5240 9eb8 ddbf 48a6 dd3f
000003b0: 1bc1 17c0 3d4f 86c0 af5c e33f 7ffa 4fbf
000003c0: e998 4cc0 e785 dcbf cb5d f8bf 5ba8 0ac0
000003d0: 9d6f 58bf 8314 d4bf 2343 0940 2f93 19c0
000003e0: 4953 1a40 0258 8abf 0166 b13e 62c3 12c0
000003f0: 35bb 38bf cbfb 803f 2e7e 1ac0 014e bb3e
-1.2866981 1.6719339 0.58745736 3.207258 2.973881 3.2706554 1.0348488 2.622756
0.6933582 0.68519956 3.1830795 2.1185062 -3.8155217 0.04477329 -3.0135546 0.05958707
2.9058459 -2.3216128 -2.7758052 0.8352545 -1.4579234 -4.0417128 -1.6185125 0.33922738
1.767386 -1.1296451 0.82269096 1.1266943 -0.7104319 2.445281 2.4286516 0.24503511
1.6407292 1.8367043 -0.5429888 -1.2520376 -0.64077044 1.3730905 -0.2428247 1.6446313
0.48367524 0.8125867 0.7006943 -1.4583292 -4.8010635 -1.7036531 0.76223904 -0.042758476
-4.387121 -2.1388896 -2.9080975 0.6149392 -2.4605687 -1.8352901 -0.15771024 -0.16902539
-2.2025354 -2.9984324 1.2559649 0.6861544 0.8653378 3.2210028 2.2737722 -2.8498251
-1.1794877 -0.6305797 -0.33339402 0.8651025 -1.5472829 0.26376364 0.95315087 -2.342356
0.8321912 -1.0777771 -3.4226673 -2.5809073 0.73933965 0.01746784 -1.883945 0.2594053
-0.933077 0.46232355 -0.6222306 2.0918567 -2.7650874 0.77396226 -2.68936 -1.2845389
0.8238831 -0.62785095 0.2320149 -0.4372861 -1.3562101 -1.0101311 0.2796459 -0.8384449
-0.056296844 -2.9126472 -0.24231128 -3.3489437 2.569043 -0.9039312 -0.43734312 -1.6806461
-1.5187477 1.7621181 0.70574147 0.5594424 -0.35225186 -2.1152024 -1.0478659 -0.88180614
-1.2550101 1.0052768 -0.5308839 -2.2402136 -2.5544937 0.25822034 0.43370733 -1.6628394
2.3648343 1.3059915 -4.263381 2.1572866 -0.2286114 -2.049984 0.70561224 -0.46086857
2.9877217 -0.2888908 -3.5871317 -2.2916567 1.5599449 -0.5166763 0.56046253 -1.4952862
2.2192583 -2.0970159 3.8319297 0.6696506 0.18019052 2.8927815 1.730883 -0.58865523
2.3709276 4.5363984 -2.183158 0.239262 -0.9144167 0.23331556 0.57232714 0.75292206
0.61036414 -0.5355338 0.06172947 -1.7918303 0.81145144 0.7436705 2.3479586 2.4150772
1.93457 -1.5220624 -0.37566587 1.9367837 1.8730335 -0.2957506 1.4163523 0.33420673
-0.37550613 1.7308792 -0.5299211 1.8829769 0.7587889 -0.0007592637 3.328693 -2.618528
-2.0228903 0.32356948 0.3932081 -0.69355273 -1.114928 -2.799331 -1.4119525 -1.8573772
-0.33973345 1.2941129 -1.2357908 -0.037738506 -1.8136808 -1.3114667 2.0175488 0.6468253
-0.27938616 -4.190194 0.6337326 5.1561785 -0.78550845 -2.2434847 1.60844 1.9616106
-1.2465241 0.8724233 -2.036803 3.340285 -0.9340457 1.6840599 -2.7538517 -0.475565
-2.4305513 -0.63634974 -2.5124726 0.105485365 1.164549 -0.9870956 1.3277355 0.74614125
-0.71109 0.16563222 1.8304249 -3.2476497 0.41681582 -1.4774483 1.3980364 -0.44804704
-0.8037703 2.1451063 -0.31994146 -1.2156208 -0.46577477 2.8433058 -2.1625538 3.0624893
0.58653355 3.2929592 -1.7321966 1.731637 -2.3711612 -4.1971726 1.776266 -0.812416
-3.196833 -1.7228364 -1.9403623 -2.1665256 -0.8454531 -1.656876 2.1447227 -2.3996084
2.4113333 -1.0808108 0.34648135 -2.2931752 -0.72160655 1.0076841 -2.4139514 0.3658295

lstm_cell.bias_hh f4 [256]
00000000: 36d7 a8bf ece8 e33f 98e7 bb3e 42d2 4840
00000010: b1f1 4240 6b04 5240 e9ef 6e3f 5320 2a40
00000020: 6c20 373f 5ca9 293f 1bf6 4b40 4bb0 0f40
00000030: e287 7ec0 f905 113e 152d 37c0 b356 cb3d
00000040: 11bd 3940 c97a 1dc0 ebb3 31c0 cffd 353f
00000050: dccf bbbf 576d 79c0 9bdd dabf a676 b83e
00000060: 9470 dc3f 1bad 9dbf 99ca 863f f50f 833f
00000070: a404 1fbf ac5c 1840 8952 2540 7cf1 7c3e
00000080: ea7f d43f 402f e83f a981 21bf 156a 96bf
00000090: bac0 3abf ee2e c73f 6a70 56be 476e e03f
000000a0: d433 8b3e 5f5a 643f 347c 5c3f b8b6 abbf
000000b0: 2066 9bc0 2e4d d5bf 69d9 463f 8134 6fbb
000000c0: 4c79 8cc0 b178 05c0 b5d8 32c0 d8ec 263f
000000d0: 95d5 29c0 6964 efbf 6d31 41bc 81be 81be
000000e0: c787 09c0 edb7 37c0 f5a2 9a3f b1b6 103f
000000f0: 27ec 4e3f 8dda 4b40 6ac4 0840 c9a3 31c0
00000100: 03c3 88bf c399 f8be 7fbe 99be 7c1c 703f
00000110: de61 bdbf a744 873e a4a6 843f 3923 19c0
00000120: 5d89 413f ca2c 9cbf 8a76 5fc0 e29c 26c0
00000130: 091a 293f 8301 783e 1c19 d9bf 1719 9e3e
00000140: 73bb 91bf fbeb c43e 20b6 09bf 7b39 0340
00000150: e15e 30c0 9310 263f 19a7 2dc0 65f6 a4bf
00000160: 211a 513f 8e2c 0bbf 512d 1a3e 57c8 efbe
00000170: 90ba a8bf cb2b 79bf d58e 7f3e 13cc 62bf
00000180: 602d b9bd d034 3bc0 689b 94be 0811 4ec0
00000190: 53e5 2940 61b6 81bf 0ede a0be 39cd e5bf
000001a0: 0397 abbf 2036 ee3f 0a8c 5f3f 4c8b 1c3f
000001b0: 6bd3 91be dadd 02c0 2051 8bbf 2ca8 62bf
000001c0: adfb 81bf 14b7 7c3f d180 b0be 38a0 12c0
000001d0: 86eb 1cc0 09ea 6d3e 23bc bf3e fcda dcbf
000001e0: 3297 1240 acb8 b03f aed6 81c0 3028 0d40
000001f0: dbcd 66be d031 09c0 5f9f 113f 6cf9 ccbe
00000200: 1517 3b40 d877 05bf 1127 65c0 e1f4 15c0
00000210: 667a b83f e6e1 00bf 5c52 e63e bab0 bebf
00000220: 3cab 0740 02ec 03c0 f677 7e40 8bd3 463f
00000230: 1ece 6b3e 55d2 3940 53a6 c33f d88f 2abf
00000240: 7786 2340 beec 8d40 ecf3 0fc0 b99f 3b3e
00000250: 765a 5dbf d664 4d3e ab51 0f3f 033a 243f
00000260: 4985 533f ce25 08bf 9e44 513d 7217 eabf
00000270: 58bf 473f 3136 4b3f 94a4 1b40 26b1 0e40
00000280: 3d99 eb3f b157 acbf 5d21 adbe 0762 fe3f
00000290: b197 e33f bfbb 7cbe 447d a53f 91e5 833e
000002a0: 235e b7be a571 d63f 59fa 0ebf 830d f33f
000002b0: 3eb9 4c3f 705f 5a3d aeb3 5340 5668 23c0
000002c0: c946 08c0 1e31 673e 32d5 c53e a375 25bf
000002d0: ce69 a8bf 6dac 31c0 c281 a1bf 410d f3bf
000002e0: da8c d1be 1e3f b93f 4522 9fbf 7e89 94bd
000002f0: c9c4 fabf c466 bfbf c99f e53f 8608 1c3f
00000300: 3d5f 69be aad1 84c0 ed10 213f 391b aa40
00000310: 45e5 4fbf 0ed9 0fc0 6cd2 b73f 475e ef3f
00000320: b11b 91bf a26f 513f 5b69 01c0 fbdc 4d40
00000330: 06a7 83bf 06a7 d63f c7d7 2fc0 1689 2abf
00000340: e844 0fc0 ce18 38bf 2b63 1ac0 2665 e93d
00000350: f5f7 ad3f 0de7 84bf 9cb4 b03f 7da2 423f
00000360: df83 46bf 90cc 733e 3dcb e93f 905a 53c0
00000370: e256 f33e 67f8 c0bf fb11 ba3f 2354 05bf
00000380: 3319 35bf 144f 0c40 a6da 7cbe 636f 87bf
00000390: 6839 f6be 399d 3640 78eb 0ac0 f358 4740
000003a0: 907d 243f 8806 5540 f061 ccbf e8b0 de3f
000003b0: 443f 21c0 9d8a 87c0 7fa3 e03f 2fbe 2ebf
000003c0: 7977 49c0 078f e1bf eb2c e9bf 69f3 06c0
000003d0: edc7 6bbf 1568 c3bf f9a2 0940 7fea 0dc0
000003e0: 3852 1040 5953 7dbf 4481 a83e 1e5f 0fc0
000003f0: a823 44bf b5ab 7e3f 8a1b 27c0 b176 cc3e
-1.3190677 1.7805457 0.3670013 3.137833 3.0460017 3.2815197 0.93334824 2.658223
0.71533847 0.66274047 3.186896 2.245135 -3.9770436 0.14162435 -2.8621266 0.09928646
2.9021647 -2.4606192 -2.7766063 0.71090406 -1.4672809 -3.8972986 -1.7098879 0.36028022
1.7221856 -1.2318453 1.0530578 1.0239245 -0.62116456 2.3806562 2.5831625 0.24701494
1.6601536 1.813942 -0.6308847 -1.1751124 -0.7295033 1.5561197 -0.2094132 1.7533654
0.2718798 0.89200395 0.8612702 -1.3415136 -4.8562164 -1.6664178 0.7767549 -0.00364998
-4.3898067 -2.0854914 -2.7944767 0.65205145 -2.653661 -1.8702518 -0.011791569 -0.25340655
-2.1489122 -2.870601 1.208098 0.56528765 0.8082909 3.1852143 2.1369882 -2.7756217
-1.0684513 -0.4855481 -0.3002815 0.93793464 -1.4795492 0.26419565 1.0363355 -2.3927748
0.75600225 -1.2201169 -3.49161 -2.6033254 0.6605535 0.24219327 -1.6960788 0.30878517
-1.138533 0.3846129 -0.53793526 2.0503833 -2.755791 0.6486904 -2.7133238 -1.2887694
0.81680495 -0.5436486 0.1505635 -0.46832535 -1.3181934 -0.9733245 0.2495683 -0.8859264
-0.09041858 -2.9250984 -0.29024816 -3.2197895 2.6546218 -1.0133783 -0.31419414 -1.7953254
-1.340546 1.8610268 0.8732306 0.6115005 -0.28481612 -2.0447907 -1.0884132 -0.8853786
-1.015493 0.98716855 -0.3447328 -2.291029 -2.4518752 0.23233809 0.37448224 -1.7254329
2.2904782 1.3806357 -4.057456 2.2055779 -0.22539465 -2.1436653 0.56883806 -0.40034044
2.9232838 -0.5213599 -3.5805094 -2.3430712 1.4412353 -0.50344694 0.4498471 -1.4897683
2.1198263 -2.0612798 3.9760718 0.7766654 0.23027846 2.9034626 1.5285133 -0.6662574
2.555082 4.435149 -2.2492628 0.18322648 -0.8646616 0.20057997 0.5598399 0.6415102
0.8262525 -0.53182685 0.05109083 -1.8288405 0.7802634 0.79379565 2.43192 2.2295623
1.840614 -1.3464261 -0.33814517 1.9873666 1.7780668 -0.24680994 1.2928853 0.25761083
-0.35814008 1.6753432 -0.5585075 1.8988498 0.7997016 0.053313673 3.3078418 -2.5532432
-2.1293204 0.2257733 0.38639218 -0.64632624 -1.3157289 -2.776149 -1.2617724 -1.898842
-0.40927774 1.4472387 -1.2432333 -0.07252787 -1.9591304 -1.4953237 1.7939388 0.60950506
-0.22790237 -4.1505938 0.6291645 5.315823 -0.8120921 -2.247623 1.4361091 1.8700646
-1.1336576 0.81810963 -2.0220554 3.2166126 -1.0285347 1.6769722 -2.747545 -0.66615427
-2.2385807 -0.7191285 -2.4123027 0.11396246 1.3591295 -1.0383011 1.3805118 0.7602919
-0.7754497 0.23808503 1.8265148 -3.3024025 0.47527224 -1.5075806 1.4536737 -0.5208151
-0.70741576 2.1923265 -0.24692783 -1.0580868 -0.48090672 2.853346 -2.1706219 3.114804
0.64254093 3.3285236 -1.5967388 1.7397738 -2.5194864 -4.2356706 1.7549895 -0.6825895
-3.147917 -1.7621773 -1.8216833 -2.1086066 -0.9210194 -1.5266138 2.150572 -2.2174375
2.2550182 -0.98955303 0.32911122 -2.2401805 -0.7661691 0.99480754 -2.6110559 0.39934304

linear0.weight f4 [32, 384]
00000000: 2e2b 3ebd db8f 3e3c 2b1a afbd d06e afbc
00000010: cfd7 8c3d 0666 7f3d 9eba 90bd f46d 1e3d
00000020: bbe1 d13d 04f9 bd3d 5eaa 47bd 2e49 313d
00000030: e6b6 713d 67ba 783d d2cc d1bd ec33 d5bd
00000040: fd82 fd3c 0f8d 70bd 7543 9abd 265a 1839
00000050: 51d9 f6bc 68bd 04bd 0e40 acbc 8ae2 d2bd
00000060: 8a22 56bd 431b cebd 993a 793c f55c c23c
00000070: 82f5 c93d f458 ce3c 1d7e b0bd 08fa b73d
00000080: 75d0 b2bd 3675 213c 3d0d 9c3c 90d7 cbbb
00000090: 52cc 5dbd a3d1 68bd 3e0f aabc 6698 04be
000000a0: d424 973d b5bb 963d f315 943d 2bc5 41bd
000000b0: bed8 e7bc 522e 463d 72aa afbc b912 21bd
000000c0: 99a3 ce3d 2071 59ba e1c7 a73d 5ca3 5cbd
000000d0: 89ba 223c ab4b aabd 3005 113c dd16 8cbd
000000e0: 66f1 6fbd f333 fb3d a265 c63c 78d7 483d
000000f0: 3907 69bd 5fb0 8b3d 4027 81bc f1a1 44bb
00000100: 8d90 00bc b453 2f3d d292 61bd f5bf 39bd
00000110: c716 513d 1efe 103d bc8f a0bd fdfc 9a3d
00000120: 3ffa 923d 68cd bb3d ac47 8abd 0574 8c3d
00000130: bb85 ab3d 4f0c 003e 0d1a a9bd 3fdb 47bd
00000140: 4eee dd3b dbf4 79bd 14cd f8bd d196 233b
00000150: 1643 f1bd 5da9 39ba 9e23 84bd 7ab7 c4bd
00000160: 97d1 9dbd 4dcf 46bd 00c6 9cbd 359e dd3d
00000170: bbf6 b73d d617 20bd c650 a1bd 06a3 903d
00000180: e7ad d7bd c9a6 443d 6bb4 a43d 6479 7bbb
00000190: 42a6 24bd 8142 c4bd e63a 523b 6bae 3dbd
000001a0: 8425 ea3d 7ca3 b9bc 734a 15bc cc7c e2bd
000001b0: 7136 a0bd 4889 073e 2e27 2fbd 6f09 bf3d
000001c0: 5149 853d b23b 253c df4e ef3d 3997 abbd
000001d0: d9ae 923d bb4b 19bd def6 773d c9c7 0fbd
000001e0: 5e72 b5bd 2557 a33d eb20 6c3d 2a1a a83d
000001f0: 92df 82bd 946b d83c b5e8 4dbd 1c1a f13c
00000200: 21d9 73bc 3a81 16bd c9c8 cfbd 21c6 d1bc
00000210: 31fe c5bc 5155 cbbd af41 0bbe ef06 debd
00000220: 00fb 3c3d 5f9b cebc ffdc d5bc 5a82 23bd
00000230: e120 debd f20e 9dbd d0e0 e83b 2fbc d8bd
00000240: 171c 8cbc afbf 5dbc 3f7c 71bd fa84 c4bd
00000250: b712 09bd ffd0 4dbd 2f73 c6bd a5ff 33bd
00000260: 2189 70bc 3fa4 ddbd 01c5 203d 0651 a1bd
00000270: a13b 97bd f633 a9bd f747 8ebd 3a01 a8bd
00000280: f755 09bc 7f3f 9dbd 2902 80bc ca07 93bc
00000290: 51d1 cebc e1d5 43bd ff3e 3bbc e6e4 21bd
000002a0: 4765 8ebd 8622 163d efd5 c6bd 5a0b a1bd
000002b0: 9382 bbbd 4f0a ddbd 36f2 d5bc e1af e5bc
000002c0: 30a4 96bc b128 003d 27f1 80bd 3fd1 c8bc
000002d0: f0cb eb3b 2f02 03bd 80d7 f4bd 71f2 49bd
000002e0: e156 5dbc 0082 7abd c128 83bd a60a a9bc
000002f0: 3133 9abd 8104 c3bd 1a23 a8bd 0fd2 d1bd
00000300: 6f6e 79bd 7344 9f3c 445b 00bb 8079 9abb
00000310: e609 5fbd d5f1 a9bd d6f0 00bd 30fa f0bc
00000320: 8f9e 443d 5ce8 dfbc 4c41 1d3d 7925 b9ba
00000330: 22f1 c43d 662b e63d becf d83c 4be9 5f3d
00000340: 1f5e acbd acb0 5fbd ab38 643d 2caa b43d
00000350: 597e 3c3d b0dc a03d 1d3c 343d 1d4b a83c
00000360: 96e2 9f3c 9011 aaba e016 3f3a e411 36bd
00000370: f65c 33bd 558b 1dbd 8dfc 31bd 8f1a 6a3d
00000380: df7a b8bd af27 48bc 927f 113e 4314 e53d
00000390: 2930 413c 6f0c f93c 3cab 743c 9de4 f23c
000003a0: 31ed 4b3d 0f80 1b3d 9a92 29bc d1e5 4ebd
000003b0: dfe8 1dbd 002f 3439 6fa7 443d f075 713c
000003c0: 1161 42bd 4b07 363d e13c d7bb 807a 3dbd
000003d0: df50 003d 1f42 373d f7d9 0cbd a8ac 033d
000003e0: 8125 3d3d cfab 423d 5fc1 483d bf5a 4fbc
000003f0: 9f32 aa3c 30bc 1f3d 07e2 8abc 0063 7fbb
-0.046427898 0.0116309775 -0.08549913 -0.021415144 0.068771 0.062353157 -0.070668444 0.03867908
0.10248133 0.092760116 -0.04874646 0.04328268 0.059012316 0.060724642 -0.102441445 -0.10410294
0.03094625 -0.058728274 -0.07532398 0.00014529433 -0.030132921 -0.032407194 -0.021026637 -0.10297115
-0.052279033 -0.100637935 0.015211725 0.023725966 0.0986128 0.0251889 -0.08617804 0.089832366
-0.08731166 0.009854605 0.019049281 -0.0062207654 -0.054149933 -0.05684055 -0.020759221 -0.1294876
0.07380071 0.07360021 0.07230749 -0.047307175 -0.028301593 0.04838402 -0.02144358 -0.039324496
0.100897975 -0.000829475 0.08192421 -0.05386673 0.009932169 -0.08315214 0.008851334 -0.06840298
-0.058579825 0.12265768 0.024218384 0.049033612 -0.056891654 0.068207495 -0.015765786 -0.003000375
-0.007846964 0.042804435 -0.05507166 -0.04534908 0.051047113 0.035398595 -0.07839915 0.07567785
0.07176637 0.091700375 -0.067519516 0.068580665 0.083751164 0.12504695 -0.08256922 -0.048793074
0.006772793 -0.061024528 -0.121484905 0.002496172 -0.11780374 -0.0007082427 -0.06452106 -0.09605308
-0.07705992 -0.04853754 -0.07654953 0.10821191 0.08982607 -0.03908523 -0.078767344 0.07062344
-0.10531216 0.04801062 0.080422245 -0.0038371915 -0.04019762 -0.09582997 0.0032078563 -0.046308916
0.11432937 -0.022660963 -0.009111988 -0.11058959 -0.07822884 0.13235962 -0.042761974 0.09327971
0.065081246 0.010085033 0.11684965 -0.08378453 0.07162256 -0.037425738 0.060538165 -0.03510264
-0.088597044 0.07975606 0.05764858 0.082081154 -0.06390299 0.026418485 -0.050270755 0.029431395
-0.0148833105 -0.036744334 -0.101457186 -0.02560717 -0.02416906 -0.09928382 -0.13599275 -0.10841166
0.04613781 -0.025220571 -0.026106356 -0.039919235 -0.10846115 -0.07668866 0.007106878 -0.10582768
-0.017103238 -0.01353447 -0.05895638 -0.09595676 -0.033465113 -0.050248142 -0.09689938 -0.043944973
-0.014681132 -0.10822343 0.039250378 -0.07876782 -0.0738442 -0.08261864 -0.0694732 -0.08203359
-0.008382312 -0.076781265 -0.01562603 -0.01794805 -0.025246294 -0.047811393 -0.011428594 -0.039524935
-0.06952911 0.036654018 -0.09708773 -0.07863493 -0.091557644 -0.10792982 -0.026116472 -0.028037967
-0.018388838 0.031288806 -0.06295996 -0.024513839 0.007195942 -0.031984504 -0.11955166 -0.049303476
-0.013509483 -0.061159134 -0.064042576 -0.02063496 -0.07529295 -0.095223434 -0.0820982 -0.102451436
-0.060896333 0.019441819 -0.0019585649 -0.004714191 -0.0544528 -0.08298079 -0.03147968 -0.029416174
0.048002776 -0.027332477 0.03839235 -0.0014125548 0.09616305 0.11238746 0.026466247 0.054665845
-0.0841639 -0.054611847 0.055718105 0.0882152 0.046018932 0.07854593 0.04400264 0.02054363
0.019517224 -0.0012975205 0.00072894804 -0.044450656 -0.043789826 -0.038462956 -0.04345374 0.057154234
-0.09007811 -0.012216493 0.1420882 0.11185505 0.011791267 0.030401437 0.014933404 0.029650027
0.04978675 0.037963923 -0.010349894 -0.05051214 -0.03855216 0.00017183647 0.04801124 0.014737591
-0.04745585 0.04444055 -0.0065685366 -0.046259403 0.031327125 0.044740792 -0.034387555 0.03214708
0.046178345 0.04752713 0.049012538 -0.012655913 0.020776091 0.03899783 -0.016953481 -0.003896892

linear0.bias f4 [32]
00000000: 8981 c5bd fbcb 25be 5550 c53d 81e5 8ebe
00000010: ce07 ccbb ad1d d2bd 119d edbc ef27 ce3e
00000020: 4f88 23be 91c2 a4bd 11df e6be b745 84be
00000030: 5731 8dbe d13f ccbe fa4f 933d f5e0 66be
00000040: 1461 92be 5ef7 733d a5b9 4abe f1c5 b7bd
00000050: 9a9d 73bd f19a 96bc adb7 c43d 2b98 3a3e
00000060: ccf5 7c3c 7fc1 35be c961 90bb 5ee5 24bd
00000070: e585 443d 215c 8abd b2f6 6bbe 5401 4ebe
-0.096438475 -0.16191094 0.09634463 -0.27909473 -0.0062265163 -0.102595665 -0.02900556 0.40264842
-0.15969966 -0.08044923 -0.4509206 -0.25834438 -0.27576706 -0.39892438 0.07192989 -0.22546752
-0.2858969 0.05956208 -0.1979738 -0.08973301 -0.059476472 -0.018384429 0.09605346 0.1822211
0.015439462 -0.17749594 -0.004406188 -0.040257804 0.047979254 -0.067558534 -0.23043326 -0.20117694
